…
I1230 09:28:21.737046 26486 net.cpp:339] The NetState phase (0) differed from the phase (1) specified by a rule in layer accuracy
I1230 09:28:21.737886 26486 net.cpp:50] Initializing net from parameters: 
name: "RsdNet34v2"
state {
  phase: TRAIN
}
layer {
  name: "data"
  type: "Data"
  top: "data"
  top: "label"
  include {
    phase: TRAIN
  }
  transform_param {
    scale: 0.0039215689
    mirror: true
    crop_size: 224
    mean_file: "./ilsvrc12_mean.binaryproto"
  }
  data_param {
    source: "./ilsvrc12_train_lmdb"
    batch_size: 64
    backend: LMDB
  }
}
layer {
  name: "conv01"
  type: "Convolution"
  bottom: "data"
  top: "conv01"
  param {
    lr_mult: 1
  }
  param {
    lr_mult: 2
  }
  convolution_param {
    num_output: 64
    pad: 3
    kernel_size: 7
    stride: 2
    weight_filler {
      type: "xavier"
    }
    bias_filler {
      type: "constant"
    }
  }
}
layer {
  name: "bn01"
  type: "BN"
  bottom: "conv01"
  top: "bn01"
  param {
    lr_mult: 1
    decay_mult: 0
  }
  param {
    lr_mult: 1
    decay_mult: 0
  }
  bn_param {
    scale_filler {
      type: "constant"
      value: 1
    }
    shift_filler {
      type: "constant"
      value: 0
    }
  }
}
layer {
  name: "relu01"
  type: "ReLU"
  bottom: "bn01"
  top: "bn01"
}
layer {
  name: "pool1"
  type: "Pooling"
  bottom: "bn01"
  top: "pool1"
  pooling_param {
    pool: MAX
    kernel_size: 3
    stride: 2
  }
}
layer {
  name: "conv21"
  type: "Convolution"
  bottom: "pool1"
  top: "conv21"
  param {
    lr_mult: 1
  }
  param {
    lr_mult: 2
  }
  convolution_param {
    num_output: 64
    pad: 1
    kernel_size: 3
    stride: 1
    weight_filler {
      type: "xavier"
    }
    bias_filler {
      type: "constant"
    }
  }
}
layer {
  name: "bn21"
  type: "BN"
  bottom: "conv21"
  top: "bn21"
  param {
    lr_mult: 1
    decay_mult: 0
  }
  param {
    lr_mult: 1
    decay_mult: 0
  }
  bn_param {
    scale_filler {
      type: "constant"
      value: 1
    }
    shift_filler {
      type: "constant"
      value: 0
    }
  }
}
layer {
  name: "relu21"
  type: "ReLU"
  bottom: "bn21"
  top: "bn21"
}
layer {
  name: "conv22"
  type: "Convolution"
  bottom: "bn21"
  top: "conv22"
  param {
    lr_mult: 1
  }
  param {
    lr_mult: 2
  }
  convolution_param {
    num_output: 64
    pad: 1
    kernel_size: 3
    stride: 1
    weight_filler {
      type: "xavier"
    }
    bias_filler {
      type: "constant"
    }
  }
}
layer {
  name: "bn22"
  type: "BN"
  bottom: "conv22"
  top: "bn22"
  param {
    lr_mult: 1
    decay_mult: 0
  }
  param {
    lr_mult: 1
    decay_mult: 0
  }
  bn_param {
    scale_filler {
      type: "constant"
      value: 1
    }
    shift_filler {
      type: "constant"
      value: 0
    }
  }
}
layer {
  name: "relu22"
  type: "ReLU"
  bottom: "bn22"
  top: "bn22"
}
layer {
  name: "eltwise1"
  type: "Eltwise"
  bottom: "pool1"
  bottom: "bn22"
  top: "eltwise1"
  eltwise_param {
    operation: SUM
  }
}
layer {
  name: "relu1"
  type: "ReLU"
  bottom: "eltwise1"
  top: "eltwise1"
}
layer {
  name: "conv23"
  type: "Convolution"
  bottom: "eltwise1"
  top: "conv23"
  param {
    lr_mult: 1
  }
  param {
    lr_mult: 2
  }
  convolution_param {
    num_output: 64
    pad: 1
    kernel_size: 3
    stride: 1
    weight_filler {
      type: "xavier"
    }
    bias_filler {
      type: "constant"
    }
  }
}
layer {
  name: "bn23"
  type: "BN"
  bottom: "conv23"
  top: "bn23"
  param {
    lr_mult: 1
    decay_mult: 0
  }
  param {
    lr_mult: 1
    decay_mult: 0
  }
  bn_param {
    scale_filler {
      type: "constant"
      value: 1
    }
    shift_filler {
      type: "constant"
      value: 0
    }
  }
}
layer {
  name: "relu23"
  type: "ReLU"
  bottom: "bn23"
  top: "bn23"
}
layer {
  name: "conv24"
  type: "Convolution"
  bottom: "bn23"
  top: "conv24"
  param {
    lr_mult: 1
  }
  param {
    lr_mult: 2
  }
  convolution_param {
    num_output: 64
    pad: 1
    kernel_size: 3
    stride: 1
    weight_filler {
      type: "xavier"
    }
    bias_filler {
      type: "constant"
    }
  }
}
layer {
  name: "bn24"
  type: "BN"
  bottom: "conv24"
  top: "bn24"
  param {
    lr_mult: 1
    decay_mult: 0
  }
  param {
    lr_mult: 1
    decay_mult: 0
  }
  bn_param {
    scale_filler {
      type: "constant"
      value: 1
    }
    shift_filler {
      type: "constant"
      value: 0
    }
  }
}
layer {
  name: "relu24"
  type: "ReLU"
  bottom: "bn24"
  top: "bn24"
}
layer {
  name: "eltwise2"
  type: "Eltwise"
  bottom: "eltwise1"
  bottom: "bn24"
  top: "eltwise2"
  eltwise_param {
    operation: SUM
  }
}
layer {
  name: "relu2"
  type: "ReLU"
  bottom: "eltwise2"
  top: "eltwise2"
}
layer {
  name: "conv25"
  type: "Convolution"
  bottom: "bn24"
  top: "conv25"
  param {
    lr_mult: 1
  }
  param {
    lr_mult: 2
  }
  convolution_param {
    num_output: 64
    pad: 1
    kernel_size: 3
    stride: 1
    weight_filler {
      type: "xavier"
    }
    bias_filler {
      type: "constant"
    }
  }
}
layer {
  name: "bn25"
  type: "BN"
  bottom: "conv25"
  top: "bn25"
  param {
    lr_mult: 1
    decay_mult: 0
  }
  param {
    lr_mult: 1
    decay_mult: 0
  }
  bn_param {
    scale_filler {
      type: "constant"
      value: 1
    }
    shift_filler {
      type: "constant"
      value: 0
    }
  }
}
layer {
  name: "relu25"
  type: "ReLU"
  bottom: "bn25"
  top: "bn25"
}
layer {
  name: "conv26"
  type: "Convolution"
  bottom: "bn25"
  top: "conv26"
  param {
    lr_mult: 1
  }
  param {
    lr_mult: 2
  }
  convolution_param {
    num_output: 64
    pad: 1
    kernel_size: 3
    stride: 1
    weight_filler {
      type: "xavier"
    }
    bias_filler {
      type: "constant"
    }
  }
}
layer {
  name: "bn26"
  type: "BN"
  bottom: "conv26"
  top: "bn26"
  param {
    lr_mult: 1
    decay_mult: 0
  }
  param {
    lr_mult: 1
    decay_mult: 0
  }
  bn_param {
    scale_filler {
      type: "constant"
      value: 1
    }
    shift_filler {
      type: "constant"
      value: 0
    }
  }
}
layer {
  name: "relu26"
  type: "ReLU"
  bottom: "bn26"
  top: "bn26"
}
layer {
  name: "eltwise3"
  type: "Eltwise"
  bottom: "eltwise2"
  bottom: "bn26"
  top: "eltwise3"
  eltwise_param {
    operation: SUM
  }
}
layer {
  name: "relu3"
  type: "ReLU"
  bottom: "eltwise3"
  top: "eltwise3"
}
layer {
  name: "relu3_p"
  type: "Convolution"
  bottom: "eltwise3"
  top: "relu3_p"
  param {
    lr_mult: 1
  }
  param {
    lr_mult: 2
  }
  convolution_param {
    num_output: 128
    pad: 0
    kernel_size: 1
    stride: 2
    weight_filler {
      type: "xavier"
    }
    bias_filler {
      type: "constant"
    }
  }
}
layer {
  name: "conv31"
  type: "Convolution"
  bottom: "eltwise3"
  top: "conv31"
  param {
    lr_mult: 1
  }
  param {
    lr_mult: 2
  }
  convolution_param {
    num_output: 128
    pad: 1
    kernel_size: 3
    stride: 2
    weight_filler {
      type: "xavier"
    }
    bias_filler {
      type: "constant"
    }
  }
}
layer {
  name: "bn31"
  type: "BN"
  bottom: "conv31"
  top: "bn31"
  param {
    lr_mult: 1
    decay_mult: 0
  }
  param {
    lr_mult: 1
    decay_mult: 0
  }
  bn_param {
    scale_filler {
      type: "constant"
      value: 1
    }
    shift_filler {
      type: "constant"
      value: 0
    }
  }
}
layer {
  name: "relu31"
  type: "ReLU"
  bottom: "bn31"
  top: "bn31"
}
layer {
  name: "conv32"
  type: "Convolution"
  bottom: "bn31"
  top: "conv32"
  param {
    lr_mult: 1
  }
  param {
    lr_mult: 2
  }
  convolution_param {
    num_output: 128
    pad: 1
    kernel_size: 3
    stride: 1
    weight_filler {
      type: "xavier"
    }
    bias_filler {
      type: "constant"
    }
  }
}
layer {
  name: "bn32"
  type: "BN"
  bottom: "conv32"
  top: "bn32"
  param {
    lr_mult: 1
    decay_mult: 0
  }
  param {
    lr_mult: 1
    decay_mult: 0
  }
  bn_param {
    scale_filler {
      type: "constant"
      value: 1
    }
    shift_filler {
      type: "constant"
      value: 0
    }
  }
}
layer {
  name: "relu32"
  type: "ReLU"
  bottom: "bn32"
  top: "bn32"
}
layer {
  name: "eltwise4"
  type: "Eltwise"
  bottom: "relu3_p"
  bottom: "bn32"
  top: "eltwise4"
  eltwise_param {
    operation: SUM
  }
}
layer {
  name: "relu4"
  type: "ReLU"
  bottom: "eltwise4"
  top: "eltwise4"
}
layer {
  name: "conv33"
  type: "Convolution"
  bottom: "eltwise4"
  top: "conv33"
  param {
    lr_mult: 1
  }
  param {
    lr_mult: 2
  }
  convolution_param {
    num_output: 128
    pad: 1
    kernel_size: 3
    stride: 1
    weight_filler {
      type: "xavier"
    }
    bias_filler {
      type: "constant"
    }
  }
}
layer {
  name: "bn33"
  type: "BN"
  bottom: "conv33"
  top: "bn33"
  param {
    lr_mult: 1
    decay_mult: 0
  }
  param {
    lr_mult: 1
    decay_mult: 0
  }
  bn_param {
    scale_filler {
      type: "constant"
      value: 1
    }
    shift_filler {
      type: "constant"
      value: 0
    }
  }
}
layer {
  name: "relu33"
  type: "ReLU"
  bottom: "bn33"
  top: "bn33"
}
layer {
  name: "conv34"
  type: "Convolution"
  bottom: "bn33"
  top: "conv34"
  param {
    lr_mult: 1
  }
  param {
    lr_mult: 2
  }
  convolution_param {
    num_output: 128
    pad: 1
    kernel_size: 3
    stride: 1
    weight_filler {
      type: "xavier"
    }
    bias_filler {
      type: "constant"
    }
  }
}
layer {
  name: "bn34"
  type: "BN"
  bottom: "conv34"
  top: "bn34"
  param {
    lr_mult: 1
    decay_mult: 0
  }
  param {
    lr_mult: 1
    decay_mult: 0
  }
  bn_param {
    scale_filler {
      type: "constant"
      value: 1
    }
    shift_filler {
      type: "constant"
      value: 0
    }
  }
}
layer {
  name: "relu34"
  type: "ReLU"
  bottom: "bn34"
  top: "bn34"
}
layer {
  name: "eltwise5"
  type: "Eltwise"
  bottom: "eltwise4"
  bottom: "bn34"
  top: "eltwise5"
  eltwise_param {
    operation: SUM
  }
}
layer {
  name: "relu5"
  type: "ReLU"
  bottom: "eltwise5"
  top: "eltwise5"
}
layer {
  name: "conv35"
  type: "Convolution"
  bottom: "eltwise5"
  top: "conv35"
  param {
    lr_mult: 1
  }
  param {
    lr_mult: 2
  }
  convolution_param {
    num_output: 128
    pad: 1
    kernel_size: 3
    stride: 1
    weight_filler {
      type: "xavier"
    }
    bias_filler {
      type: "constant"
    }
  }
}
layer {
  name: "bn35"
  type: "BN"
  bottom: "conv35"
  top: "bn35"
  param {
    lr_mult: 1
    decay_mult: 0
  }
  param {
    lr_mult: 1
    decay_mult: 0
  }
  bn_param {
    scale_filler {
      type: "constant"
      value: 1
    }
    shift_filler {
      type: "constant"
      value: 0
    }
  }
}
layer {
  name: "relu35"
  type: "ReLU"
  bottom: "bn35"
  top: "bn35"
}
layer {
  name: "conv36"
  type: "Convolution"
  bottom: "bn35"
  top: "conv36"
  param {
    lr_mult: 1
  }
  param {
    lr_mult: 2
  }
  convolution_param {
    num_output: 128
    pad: 1
    kernel_size: 3
    stride: 1
    weight_filler {
      type: "xavier"
    }
    bias_filler {
      type: "constant"
    }
  }
}
layer {
  name: "bn36"
  type: "BN"
  bottom: "conv36"
  top: "bn36"
  param {
    lr_mult: 1
    decay_mult: 0
  }
  param {
    lr_mult: 1
    decay_mult: 0
  }
  bn_param {
    scale_filler {
      type: "constant"
      value: 1
    }
    shift_filler {
      type: "constant"
      value: 0
    }
  }
}
layer {
  name: "relu36"
  type: "ReLU"
  bottom: "bn36"
  top: "bn36"
}
layer {
  name: "eltwise6"
  type: "Eltwise"
  bottom: "eltwise5"
  bottom: "bn36"
  top: "eltwise6"
  eltwise_param {
    operation: SUM
  }
}
layer {
  name: "relu6"
  type: "ReLU"
  bottom: "eltwise6"
  top: "eltwise6"
}
layer {
  name: "conv37"
  type: "Convolution"
  bottom: "eltwise6"
  top: "conv37"
  param {
    lr_mult: 1
  }
  param {
    lr_mult: 2
  }
  convolution_param {
    num_output: 128
    pad: 1
    kernel_size: 3
    stride: 1
    weight_filler {
      type: "xavier"
    }
    bias_filler {
      type: "constant"
    }
  }
}
layer {
  name: "bn37"
  type: "BN"
  bottom: "conv37"
  top: "bn37"
  param {
    lr_mult: 1
    decay_mult: 0
  }
  param {
    lr_mult: 1
    decay_mult: 0
  }
  bn_param {
    scale_filler {
      type: "constant"
      value: 1
    }
    shift_filler {
      type: "constant"
      value: 0
    }
  }
}
layer {
  name: "relu37"
  type: "ReLU"
  bottom: "bn37"
  top: "bn37"
}
layer {
  name: "conv38"
  type: "Convolution"
  bottom: "bn37"
  top: "conv38"
  param {
    lr_mult: 1
  }
  param {
    lr_mult: 2
  }
  convolution_param {
    num_output: 128
    pad: 1
    kernel_size: 3
    stride: 1
    weight_filler {
      type: "xavier"
    }
    bias_filler {
      type: "constant"
    }
  }
}
layer {
  name: "bn38"
  type: "BN"
  bottom: "conv38"
  top: "bn38"
  param {
    lr_mult: 1
    decay_mult: 0
  }
  param {
    lr_mult: 1
    decay_mult: 0
  }
  bn_param {
    scale_filler {
      type: "constant"
      value: 1
    }
    shift_filler {
      type: "constant"
      value: 0
    }
  }
}
layer {
  name: "relu38"
  type: "ReLU"
  bottom: "bn38"
  top: "bn38"
}
layer {
  name: "eltwise7"
  type: "Eltwise"
  bottom: "eltwise6"
  bottom: "bn38"
  top: "eltwise7"
  eltwise_param {
    operation: SUM
  }
}
layer {
  name: "relu7"
  type: "ReLU"
  bottom: "eltwise7"
  top: "eltwise7"
}
layer {
  name: "relu7_p"
  type: "Convolution"
  bottom: "eltwise7"
  top: "relu7_p"
  param {
    lr_mult: 1
  }
  param {
    lr_mult: 2
  }
  convolution_param {
    num_output: 256
    pad: 0
    kernel_size: 1
    stride: 2
    weight_filler {
      type: "xavier"
    }
    bias_filler {
      type: "constant"
    }
  }
}
layer {
  name: "conv41"
  type: "Convolution"
  bottom: "eltwise7"
  top: "conv41"
  param {
    lr_mult: 1
  }
  param {
    lr_mult: 2
  }
  convolution_param {
    num_output: 256
    pad: 1
    kernel_size: 3
    stride: 2
    weight_filler {
      type: "xavier"
    }
    bias_filler {
      type: "constant"
    }
  }
}
layer {
  name: "bn41"
  type: "BN"
  bottom: "conv41"
  top: "bn41"
  param {
    lr_mult: 1
    decay_mult: 0
  }
  param {
    lr_mult: 1
    decay_mult: 0
  }
  bn_param {
    scale_filler {
      type: "constant"
      value: 1
    }
    shift_filler {
      type: "constant"
      value: 0
    }
  }
}
layer {
  name: "relu41"
  type: "ReLU"
  bottom: "bn41"
  top: "bn41"
}
layer {
  name: "conv42"
  type: "Convolution"
  bottom: "bn41"
  top: "conv42"
  param {
    lr_mult: 1
  }
  param {
    lr_mult: 2
  }
  convolution_param {
    num_output: 256
    pad: 1
    kernel_size: 3
    stride: 1
    weight_filler {
      type: "xavier"
    }
    bias_filler {
      type: "constant"
    }
  }
}
layer {
  name: "bn42"
  type: "BN"
  bottom: "conv42"
  top: "bn42"
  param {
    lr_mult: 1
    decay_mult: 0
  }
  param {
    lr_mult: 1
    decay_mult: 0
  }
  bn_param {
    scale_filler {
      type: "constant"
      value: 1
    }
    shift_filler {
      type: "constant"
      value: 0
    }
  }
}
layer {
  name: "relu42"
  type: "ReLU"
  bottom: "bn42"
  top: "bn42"
}
layer {
  name: "eltwise8"
  type: "Eltwise"
  bottom: "relu7_p"
  bottom: "bn42"
  top: "eltwise8"
  eltwise_param {
    operation: SUM
  }
}
layer {
  name: "relu8"
  type: "ReLU"
  bottom: "eltwise8"
  top: "eltwise8"
}
layer {
  name: "conv43"
  type: "Convolution"
  bottom: "eltwise8"
  top: "conv43"
  param {
    lr_mult: 1
  }
  param {
    lr_mult: 2
  }
  convolution_param {
    num_output: 256
    pad: 1
    kernel_size: 3
    stride: 1
    weight_filler {
      type: "xavier"
    }
    bias_filler {
      type: "constant"
    }
  }
}
layer {
  name: "bn43"
  type: "BN"
  bottom: "conv43"
  top: "bn43"
  param {
    lr_mult: 1
    decay_mult: 0
  }
  param {
    lr_mult: 1
    decay_mult: 0
  }
  bn_param {
    scale_filler {
      type: "constant"
      value: 1
    }
    shift_filler {
      type: "constant"
      value: 0
    }
  }
}
layer {
  name: "relu43"
  type: "ReLU"
  bottom: "bn43"
  top: "bn43"
}
layer {
  name: "conv44"
  type: "Convolution"
  bottom: "bn43"
  top: "conv44"
  param {
    lr_mult: 1
  }
  param {
    lr_mult: 2
  }
  convolution_param {
    num_output: 256
    pad: 1
    kernel_size: 3
    stride: 1
    weight_filler {
      type: "xavier"
    }
    bias_filler {
      type: "constant"
    }
  }
}
layer {
  name: "bn44"
  type: "BN"
  bottom: "conv44"
  top: "bn44"
  param {
    lr_mult: 1
    decay_mult: 0
  }
  param {
    lr_mult: 1
    decay_mult: 0
  }
  bn_param {
    scale_filler {
      type: "constant"
      value: 1
    }
    shift_filler {
      type: "constant"
      value: 0
    }
  }
}
layer {
  name: "relu44"
  type: "ReLU"
  bottom: "bn44"
  top: "bn44"
}
layer {
  name: "eltwise9"
  type: "Eltwise"
  bottom: "eltwise8"
  bottom: "bn44"
  top: "eltwise9"
  eltwise_param {
    operation: SUM
  }
}
layer {
  name: "relu9"
  type: "ReLU"
  bottom: "eltwise9"
  top: "eltwise9"
}
layer {
  name: "conv45"
  type: "Convolution"
  bottom: "eltwise9"
  top: "conv45"
  param {
    lr_mult: 1
  }
  param {
    lr_mult: 2
  }
  convolution_param {
    num_output: 256
    pad: 1
    kernel_size: 3
    stride: 1
    weight_filler {
      type: "xavier"
    }
    bias_filler {
      type: "constant"
    }
  }
}
layer {
  name: "bn45"
  type: "BN"
  bottom: "conv45"
  top: "bn45"
  param {
    lr_mult: 1
    decay_mult: 0
  }
  param {
    lr_mult: 1
    decay_mult: 0
  }
  bn_param {
    scale_filler {
      type: "constant"
      value: 1
    }
    shift_filler {
      type: "constant"
      value: 0
    }
  }
}
layer {
  name: "relu45"
  type: "ReLU"
  bottom: "bn45"
  top: "bn45"
}
layer {
  name: "conv46"
  type: "Convolution"
  bottom: "bn45"
  top: "conv46"
  param {
    lr_mult: 1
  }
  param {
    lr_mult: 2
  }
  convolution_param {
    num_output: 256
    pad: 1
    kernel_size: 3
    stride: 1
    weight_filler {
      type: "xavier"
    }
    bias_filler {
      type: "constant"
    }
  }
}
layer {
  name: "bn46"
  type: "BN"
  bottom: "conv46"
  top: "bn46"
  param {
    lr_mult: 1
    decay_mult: 0
  }
  param {
    lr_mult: 1
    decay_mult: 0
  }
  bn_param {
    scale_filler {
      type: "constant"
      value: 1
    }
    shift_filler {
      type: "constant"
      value: 0
    }
  }
}
layer {
  name: "relu46"
  type: "ReLU"
  bottom: "bn46"
  top: "bn46"
}
layer {
  name: "eltwise10"
  type: "Eltwise"
  bottom: "eltwise9"
  bottom: "bn46"
  top: "eltwise10"
  eltwise_param {
    operation: SUM
  }
}
layer {
  name: "relu10"
  type: "ReLU"
  bottom: "eltwise10"
  top: "eltwise10"
}
layer {
  name: "conv47"
  type: "Convolution"
  bottom: "eltwise10"
  top: "conv47"
  param {
    lr_mult: 1
  }
  param {
    lr_mult: 2
  }
  convolution_param {
    num_output: 256
    pad: 1
    kernel_size: 3
    stride: 1
    weight_filler {
      type: "xavier"
    }
    bias_filler {
      type: "constant"
    }
  }
}
layer {
  name: "bn47"
  type: "BN"
  bottom: "conv47"
  top: "bn47"
  param {
    lr_mult: 1
    decay_mult: 0
  }
  param {
    lr_mult: 1
    decay_mult: 0
  }
  bn_param {
    scale_filler {
      type: "constant"
      value: 1
    }
    shift_filler {
      type: "constant"
      value: 0
    }
  }
}
layer {
  name: "relu47"
  type: "ReLU"
  bottom: "bn47"
  top: "bn47"
}
layer {
  name: "conv48"
  type: "Convolution"
  bottom: "bn47"
  top: "conv48"
  param {
    lr_mult: 1
  }
  param {
    lr_mult: 2
  }
  convolution_param {
    num_output: 256
    pad: 1
    kernel_size: 3
    stride: 1
    weight_filler {
      type: "xavier"
    }
    bias_filler {
      type: "constant"
    }
  }
}
layer {
  name: "bn48"
  type: "BN"
  bottom: "conv48"
  top: "bn48"
  param {
    lr_mult: 1
    decay_mult: 0
  }
  param {
    lr_mult: 1
    decay_mult: 0
  }
  bn_param {
    scale_filler {
      type: "constant"
      value: 1
    }
    shift_filler {
      type: "constant"
      value: 0
    }
  }
}
layer {
  name: "relu48"
  type: "ReLU"
  bottom: "bn48"
  top: "bn48"
}
layer {
  name: "eltwise11"
  type: "Eltwise"
  bottom: "eltwise10"
  bottom: "bn48"
  top: "eltwise11"
  eltwise_param {
    operation: SUM
  }
}
layer {
  name: "relu11"
  type: "ReLU"
  bottom: "eltwise11"
  top: "eltwise11"
}
layer {
  name: "conv49"
  type: "Convolution"
  bottom: "eltwise11"
  top: "conv49"
  param {
    lr_mult: 1
  }
  param {
    lr_mult: 2
  }
  convolution_param {
    num_output: 256
    pad: 1
    kernel_size: 3
    stride: 1
    weight_filler {
      type: "xavier"
    }
    bias_filler {
      type: "constant"
    }
  }
}
layer {
  name: "bn49"
  type: "BN"
  bottom: "conv49"
  top: "bn49"
  param {
    lr_mult: 1
    decay_mult: 0
  }
  param {
    lr_mult: 1
    decay_mult: 0
  }
  bn_param {
    scale_filler {
      type: "constant"
      value: 1
    }
    shift_filler {
      type: "constant"
      value: 0
    }
  }
}
layer {
  name: "relu49"
  type: "ReLU"
  bottom: "bn49"
  top: "bn49"
}
layer {
  name: "conv410"
  type: "Convolution"
  bottom: "bn49"
  top: "conv410"
  param {
    lr_mult: 1
  }
  param {
    lr_mult: 2
  }
  convolution_param {
    num_output: 256
    pad: 1
    kernel_size: 3
    stride: 1
    weight_filler {
      type: "xavier"
    }
    bias_filler {
      type: "constant"
    }
  }
}
layer {
  name: "bn410"
  type: "BN"
  bottom: "conv410"
  top: "bn410"
  param {
    lr_mult: 1
    decay_mult: 0
  }
  param {
    lr_mult: 1
    decay_mult: 0
  }
  bn_param {
    scale_filler {
      type: "constant"
      value: 1
    }
    shift_filler {
      type: "constant"
      value: 0
    }
  }
}
layer {
  name: "relu410"
  type: "ReLU"
  bottom: "bn410"
  top: "bn410"
}
layer {
  name: "eltwise12"
  type: "Eltwise"
  bottom: "eltwise11"
  bottom: "bn410"
  top: "eltwise12"
  eltwise_param {
    operation: SUM
  }
}
layer {
  name: "relu12"
  type: "ReLU"
  bottom: "eltwise12"
  top: "eltwise12"
}
layer {
  name: "conv411"
  type: "Convolution"
  bottom: "eltwise12"
  top: "conv411"
  param {
    lr_mult: 1
  }
  param {
    lr_mult: 2
  }
  convolution_param {
    num_output: 256
    pad: 1
    kernel_size: 3
    stride: 1
    weight_filler {
      type: "xavier"
    }
    bias_filler {
      type: "constant"
    }
  }
}
layer {
  name: "bn411"
  type: "BN"
  bottom: "conv411"
  top: "bn411"
  param {
    lr_mult: 1
    decay_mult: 0
  }
  param {
    lr_mult: 1
    decay_mult: 0
  }
  bn_param {
    scale_filler {
      type: "constant"
      value: 1
    }
    shift_filler {
      type: "constant"
      value: 0
    }
  }
}
layer {
  name: "relu411"
  type: "ReLU"
  bottom: "bn411"
  top: "bn411"
}
layer {
  name: "conv412"
  type: "Convolution"
  bottom: "bn411"
  top: "conv412"
  param {
    lr_mult: 1
  }
  param {
    lr_mult: 2
  }
  convolution_param {
    num_output: 256
    pad: 1
    kernel_size: 3
    stride: 1
    weight_filler {
      type: "xavier"
    }
    bias_filler {
      type: "constant"
    }
  }
}
layer {
  name: "bn412"
  type: "BN"
  bottom: "conv412"
  top: "bn412"
  param {
    lr_mult: 1
    decay_mult: 0
  }
  param {
    lr_mult: 1
    decay_mult: 0
  }
  bn_param {
    scale_filler {
      type: "constant"
      value: 1
    }
    shift_filler {
      type: "constant"
      value: 0
    }
  }
}
layer {
  name: "relu412"
  type: "ReLU"
  bottom: "bn412"
  top: "bn412"
}
layer {
  name: "eltwise13"
  type: "Eltwise"
  bottom: "eltwise12"
  bottom: "bn412"
  top: "eltwise13"
  eltwise_param {
    operation: SUM
  }
}
layer {
  name: "relu13"
  type: "ReLU"
  bottom: "eltwise13"
  top: "eltwise13"
}
layer {
  name: "relu13_p"
  type: "Convolution"
  bottom: "eltwise12"
  top: "relu13_p"
  param {
    lr_mult: 1
  }
  param {
    lr_mult: 2
  }
  convolution_param {
    num_output: 512
    pad: 0
    kernel_size: 1
    stride: 2
    weight_filler {
      type: "xavier"
    }
    bias_filler {
      type: "constant"
    }
  }
}
layer {
  name: "conv51"
  type: "Convolution"
  bottom: "eltwise13"
  top: "conv51"
  param {
    lr_mult: 1
  }
  param {
    lr_mult: 2
  }
  convolution_param {
    num_output: 512
    pad: 1
    kernel_size: 3
    stride: 2
    weight_filler {
      type: "xavier"
    }
    bias_filler {
      type: "constant"
    }
  }
}
layer {
  name: "bn51"
  type: "BN"
  bottom: "conv51"
  top: "bn51"
  param {
    lr_mult: 1
    decay_mult: 0
  }
  param {
    lr_mult: 1
    decay_mult: 0
  }
  bn_param {
    scale_filler {
      type: "constant"
      value: 1
    }
    shift_filler {
      type: "constant"
      value: 0
    }
  }
}
layer {
  name: "relu51"
  type: "ReLU"
  bottom: "bn51"
  top: "bn51"
}
layer {
  name: "conv52"
  type: "Convolution"
  bottom: "bn51"
  top: "conv52"
  param {
    lr_mult: 1
  }
  param {
    lr_mult: 2
  }
  convolution_param {
    num_output: 512
    pad: 1
    kernel_size: 3
    stride: 1
    weight_filler {
      type: "xavier"
    }
    bias_filler {
      type: "constant"
    }
  }
}
layer {
  name: "bn52"
  type: "BN"
  bottom: "conv52"
  top: "bn52"
  param {
    lr_mult: 1
    decay_mult: 0
  }
  param {
    lr_mult: 1
    decay_mult: 0
  }
  bn_param {
    scale_filler {
      type: "constant"
      value: 1
    }
    shift_filler {
      type: "constant"
      value: 0
    }
  }
}
layer {
  name: "relu52"
  type: "ReLU"
  bottom: "bn52"
  top: "bn52"
}
layer {
  name: "eltwise14"
  type: "Eltwise"
  bottom: "relu13_p"
  bottom: "bn52"
  top: "eltwise14"
  eltwise_param {
    operation: SUM
  }
}
layer {
  name: "relu14"
  type: "ReLU"
  bottom: "eltwise14"
  top: "eltwise14"
}
layer {
  name: "conv53"
  type: "Convolution"
  bottom: "eltwise14"
  top: "conv53"
  param {
    lr_mult: 1
  }
  param {
    lr_mult: 2
  }
  convolution_param {
    num_output: 512
    pad: 1
    kernel_size: 3
    stride: 1
    weight_filler {
      type: "xavier"
    }
    bias_filler {
      type: "constant"
    }
  }
}
layer {
  name: "bn53"
  type: "BN"
  bottom: "conv53"
  top: "bn53"
  param {
    lr_mult: 1
    decay_mult: 0
  }
  param {
    lr_mult: 1
    decay_mult: 0
  }
  bn_param {
    scale_filler {
      type: "constant"
      value: 1
    }
    shift_filler {
      type: "constant"
      value: 0
    }
  }
}
layer {
  name: "relu53"
  type: "ReLU"
  bottom: "bn53"
  top: "bn53"
}
layer {
  name: "conv54"
  type: "Convolution"
  bottom: "bn53"
  top: "conv54"
  param {
    lr_mult: 1
  }
  param {
    lr_mult: 2
  }
  convolution_param {
    num_output: 512
    pad: 1
    kernel_size: 3
    stride: 1
    weight_filler {
      type: "xavier"
    }
    bias_filler {
      type: "constant"
    }
  }
}
layer {
  name: "bn54"
  type: "BN"
  bottom: "conv54"
  top: "bn54"
  param {
    lr_mult: 1
    decay_mult: 0
  }
  param {
    lr_mult: 1
    decay_mult: 0
  }
  bn_param {
    scale_filler {
      type: "constant"
      value: 1
    }
    shift_filler {
      type: "constant"
      value: 0
    }
  }
}
layer {
  name: "relu54"
  type: "ReLU"
  bottom: "bn54"
  top: "bn54"
}
layer {
  name: "eltwise15"
  type: "Eltwise"
  bottom: "eltwise14"
  bottom: "bn54"
  top: "eltwise15"
  eltwise_param {
    operation: SUM
  }
}
layer {
  name: "relu15"
  type: "ReLU"
  bottom: "eltwise15"
  top: "eltwise15"
}
layer {
  name: "conv55"
  type: "Convolution"
  bottom: "eltwise15"
  top: "conv55"
  param {
    lr_mult: 1
  }
  param {
    lr_mult: 2
  }
  convolution_param {
    num_output: 512
    pad: 1
    kernel_size: 3
    stride: 1
    weight_filler {
      type: "xavier"
    }
    bias_filler {
      type: "constant"
    }
  }
}
layer {
  name: "bn55"
  type: "BN"
  bottom: "conv55"
  top: "bn55"
  param {
    lr_mult: 1
    decay_mult: 0
  }
  param {
    lr_mult: 1
    decay_mult: 0
  }
  bn_param {
    scale_filler {
      type: "constant"
      value: 1
    }
    shift_filler {
      type: "constant"
      value: 0
    }
  }
}
layer {
  name: "relu55"
  type: "ReLU"
  bottom: "bn55"
  top: "bn55"
}
layer {
  name: "conv56"
  type: "Convolution"
  bottom: "bn55"
  top: "conv56"
  param {
    lr_mult: 1
  }
  param {
    lr_mult: 2
  }
  convolution_param {
    num_output: 512
    pad: 1
    kernel_size: 3
    stride: 1
    weight_filler {
      type: "xavier"
    }
    bias_filler {
      type: "constant"
    }
  }
}
layer {
  name: "bn56"
  type: "BN"
  bottom: "conv56"
  top: "bn56"
  param {
    lr_mult: 1
    decay_mult: 0
  }
  param {
    lr_mult: 1
    decay_mult: 0
  }
  bn_param {
    scale_filler {
      type: "constant"
      value: 1
    }
    shift_filler {
      type: "constant"
      value: 0
    }
  }
}
layer {
  name: "relu56"
  type: "ReLU"
  bottom: "bn56"
  top: "bn56"
}
layer {
  name: "eltwise16"
  type: "Eltwise"
  bottom: "eltwise15"
  bottom: "bn56"
  top: "eltwise16"
  eltwise_param {
    operation: SUM
  }
}
layer {
  name: "relu16"
  type: "ReLU"
  bottom: "eltwise16"
  top: "eltwise16"
}
layer {
  name: "pool5"
  type: "Pooling"
  bottom: "eltwise16"
  top: "pool5"
  pooling_param {
    pool: AVE
    kernel_size: 7
    stride: 1
  }
}
layer {
  name: "ip1"
  type: "InnerProduct"
  bottom: "pool5"
  top: "ip1"
  param {
    lr_mult: 1
  }
  param {
    lr_mult: 2
  }
  inner_product_param {
    num_output: 1000
    weight_filler {
      type: "xavier"
    }
    bias_filler {
      type: "constant"
    }
  }
}
layer {
  name: "loss"
  type: "SoftmaxWithLoss"
  bottom: "ip1"
  bottom: "label"
  top: "loss"
  include {
    phase: TRAIN
  }
}
I1230 09:28:21.746611 26486 layer_factory.hpp:76] Creating layer data
I1230 09:28:21.747180 26486 net.cpp:110] Creating Layer data
I1230 09:28:21.747251 26486 net.cpp:433] data -> data
I1230 09:28:21.747306 26486 net.cpp:433] data -> label
I1230 09:28:21.747339 26486 data_transformer.cpp:23] Loading mean file from: ./ilsvrc12_mean.binaryproto
I1230 09:28:21.748141 26488 db_lmdb.cpp:22] Opened lmdb ./ilsvrc12_train_lmdb
I1230 09:28:21.859729 26486 data_layer.cpp:44] output data size: 64,3,224,224
I1230 09:28:21.958804 26486 net.cpp:155] Setting up data
I1230 09:28:21.958874 26486 net.cpp:163] Top shape: 64 3 224 224 (9633792)
I1230 09:28:21.958891 26486 net.cpp:163] Top shape: 64 (64)
I1230 09:28:21.958916 26486 layer_factory.hpp:76] Creating layer conv01
I1230 09:28:21.958962 26486 net.cpp:110] Creating Layer conv01
I1230 09:28:21.958981 26486 net.cpp:477] conv01 <- data
I1230 09:28:21.959077 26486 net.cpp:433] conv01 -> conv01
I1230 09:28:23.308432 26486 net.cpp:155] Setting up conv01
I1230 09:28:23.308502 26486 net.cpp:163] Top shape: 64 64 112 112 (51380224)
I1230 09:28:23.308545 26486 layer_factory.hpp:76] Creating layer bn01
I1230 09:28:23.308583 26486 net.cpp:110] Creating Layer bn01
I1230 09:28:23.308598 26486 net.cpp:477] bn01 <- conv01
I1230 09:28:23.308636 26486 net.cpp:433] bn01 -> bn01
I1230 09:28:23.308760 26486 net.cpp:155] Setting up bn01
I1230 09:28:23.308779 26486 net.cpp:163] Top shape: 64 64 112 112 (51380224)
I1230 09:28:23.308812 26486 layer_factory.hpp:76] Creating layer relu01
I1230 09:28:23.308832 26486 net.cpp:110] Creating Layer relu01
I1230 09:28:23.308846 26486 net.cpp:477] relu01 <- bn01
I1230 09:28:23.308862 26486 net.cpp:419] relu01 -> bn01 (in-place)
I1230 09:28:23.308943 26486 net.cpp:155] Setting up relu01
I1230 09:28:23.308960 26486 net.cpp:163] Top shape: 64 64 112 112 (51380224)
I1230 09:28:23.308975 26486 layer_factory.hpp:76] Creating layer pool1
I1230 09:28:23.309000 26486 net.cpp:110] Creating Layer pool1
I1230 09:28:23.309012 26486 net.cpp:477] pool1 <- bn01
I1230 09:28:23.309029 26486 net.cpp:433] pool1 -> pool1
I1230 09:28:23.309126 26486 net.cpp:155] Setting up pool1
I1230 09:28:23.309145 26486 net.cpp:163] Top shape: 64 64 56 56 (12845056)
I1230 09:28:23.309160 26486 layer_factory.hpp:76] Creating layer pool1_pool1_0_split
I1230 09:28:23.309190 26486 net.cpp:110] Creating Layer pool1_pool1_0_split
I1230 09:28:23.309203 26486 net.cpp:477] pool1_pool1_0_split <- pool1
I1230 09:28:23.309229 26486 net.cpp:433] pool1_pool1_0_split -> pool1_pool1_0_split_0
I1230 09:28:23.309245 26486 net.cpp:433] pool1_pool1_0_split -> pool1_pool1_0_split_1
I1230 09:28:23.309267 26486 net.cpp:155] Setting up pool1_pool1_0_split
I1230 09:28:23.309281 26486 net.cpp:163] Top shape: 64 64 56 56 (12845056)
I1230 09:28:23.309301 26486 net.cpp:163] Top shape: 64 64 56 56 (12845056)
I1230 09:28:23.309315 26486 layer_factory.hpp:76] Creating layer conv21
I1230 09:28:23.309335 26486 net.cpp:110] Creating Layer conv21
I1230 09:28:23.309377 26486 net.cpp:477] conv21 <- pool1_pool1_0_split_0
I1230 09:28:23.309396 26486 net.cpp:433] conv21 -> conv21
I1230 09:28:23.310892 26486 net.cpp:155] Setting up conv21
I1230 09:28:23.310916 26486 net.cpp:163] Top shape: 64 64 56 56 (12845056)
I1230 09:28:23.310945 26486 layer_factory.hpp:76] Creating layer bn21
I1230 09:28:23.310976 26486 net.cpp:110] Creating Layer bn21
I1230 09:28:23.310992 26486 net.cpp:477] bn21 <- conv21
I1230 09:28:23.311015 26486 net.cpp:433] bn21 -> bn21
I1230 09:28:23.311122 26486 net.cpp:155] Setting up bn21
I1230 09:28:23.311142 26486 net.cpp:163] Top shape: 64 64 56 56 (12845056)
I1230 09:28:23.311163 26486 layer_factory.hpp:76] Creating layer relu21
I1230 09:28:23.311183 26486 net.cpp:110] Creating Layer relu21
I1230 09:28:23.311197 26486 net.cpp:477] relu21 <- bn21
I1230 09:28:23.311215 26486 net.cpp:419] relu21 -> bn21 (in-place)
I1230 09:28:23.311290 26486 net.cpp:155] Setting up relu21
I1230 09:28:23.311316 26486 net.cpp:163] Top shape: 64 64 56 56 (12845056)
I1230 09:28:23.311331 26486 layer_factory.hpp:76] Creating layer conv22
I1230 09:28:23.311352 26486 net.cpp:110] Creating Layer conv22
I1230 09:28:23.311364 26486 net.cpp:477] conv22 <- bn21
I1230 09:28:23.311383 26486 net.cpp:433] conv22 -> conv22
I1230 09:28:23.311974 26486 net.cpp:155] Setting up conv22
I1230 09:28:23.311995 26486 net.cpp:163] Top shape: 64 64 56 56 (12845056)
I1230 09:28:23.312019 26486 layer_factory.hpp:76] Creating layer bn22
I1230 09:28:23.312042 26486 net.cpp:110] Creating Layer bn22
I1230 09:28:23.312054 26486 net.cpp:477] bn22 <- conv22
I1230 09:28:23.312074 26486 net.cpp:433] bn22 -> bn22
I1230 09:28:23.312170 26486 net.cpp:155] Setting up bn22
I1230 09:28:23.312189 26486 net.cpp:163] Top shape: 64 64 56 56 (12845056)
I1230 09:28:23.312211 26486 layer_factory.hpp:76] Creating layer relu22
I1230 09:28:23.312227 26486 net.cpp:110] Creating Layer relu22
I1230 09:28:23.312240 26486 net.cpp:477] relu22 <- bn22
I1230 09:28:23.312259 26486 net.cpp:419] relu22 -> bn22 (in-place)
I1230 09:28:23.312448 26486 net.cpp:155] Setting up relu22
I1230 09:28:23.312468 26486 net.cpp:163] Top shape: 64 64 56 56 (12845056)
I1230 09:28:23.312479 26486 layer_factory.hpp:76] Creating layer eltwise1
I1230 09:28:23.312500 26486 net.cpp:110] Creating Layer eltwise1
I1230 09:28:23.312511 26486 net.cpp:477] eltwise1 <- pool1_pool1_0_split_1
I1230 09:28:23.312523 26486 net.cpp:477] eltwise1 <- bn22
I1230 09:28:23.312536 26486 net.cpp:433] eltwise1 -> eltwise1
I1230 09:28:23.312568 26486 net.cpp:155] Setting up eltwise1
I1230 09:28:23.312582 26486 net.cpp:163] Top shape: 64 64 56 56 (12845056)
I1230 09:28:23.312592 26486 layer_factory.hpp:76] Creating layer relu1
I1230 09:28:23.312604 26486 net.cpp:110] Creating Layer relu1
I1230 09:28:23.312614 26486 net.cpp:477] relu1 <- eltwise1
I1230 09:28:23.312630 26486 net.cpp:419] relu1 -> eltwise1 (in-place)
I1230 09:28:23.312698 26486 net.cpp:155] Setting up relu1
I1230 09:28:23.312713 26486 net.cpp:163] Top shape: 64 64 56 56 (12845056)
I1230 09:28:23.312724 26486 layer_factory.hpp:76] Creating layer eltwise1_relu1_0_split
I1230 09:28:23.312739 26486 net.cpp:110] Creating Layer eltwise1_relu1_0_split
I1230 09:28:23.312749 26486 net.cpp:477] eltwise1_relu1_0_split <- eltwise1
I1230 09:28:23.312762 26486 net.cpp:433] eltwise1_relu1_0_split -> eltwise1_relu1_0_split_0
I1230 09:28:23.312775 26486 net.cpp:433] eltwise1_relu1_0_split -> eltwise1_relu1_0_split_1
I1230 09:28:23.312793 26486 net.cpp:155] Setting up eltwise1_relu1_0_split
I1230 09:28:23.312805 26486 net.cpp:163] Top shape: 64 64 56 56 (12845056)
I1230 09:28:23.312816 26486 net.cpp:163] Top shape: 64 64 56 56 (12845056)
I1230 09:28:23.312826 26486 layer_factory.hpp:76] Creating layer conv23
I1230 09:28:23.312840 26486 net.cpp:110] Creating Layer conv23
I1230 09:28:23.312851 26486 net.cpp:477] conv23 <- eltwise1_relu1_0_split_0
I1230 09:28:23.312866 26486 net.cpp:433] conv23 -> conv23
I1230 09:28:23.313467 26486 net.cpp:155] Setting up conv23
I1230 09:28:23.313488 26486 net.cpp:163] Top shape: 64 64 56 56 (12845056)
I1230 09:28:23.313514 26486 layer_factory.hpp:76] Creating layer bn23
I1230 09:28:23.313534 26486 net.cpp:110] Creating Layer bn23
I1230 09:28:23.313545 26486 net.cpp:477] bn23 <- conv23
I1230 09:28:23.313560 26486 net.cpp:433] bn23 -> bn23
I1230 09:28:23.313652 26486 net.cpp:155] Setting up bn23
I1230 09:28:23.313669 26486 net.cpp:163] Top shape: 64 64 56 56 (12845056)
I1230 09:28:23.313684 26486 layer_factory.hpp:76] Creating layer relu23
I1230 09:28:23.313699 26486 net.cpp:110] Creating Layer relu23
I1230 09:28:23.313710 26486 net.cpp:477] relu23 <- bn23
I1230 09:28:23.313730 26486 net.cpp:419] relu23 -> bn23 (in-place)
I1230 09:28:23.313805 26486 net.cpp:155] Setting up relu23
I1230 09:28:23.313822 26486 net.cpp:163] Top shape: 64 64 56 56 (12845056)
I1230 09:28:23.313832 26486 layer_factory.hpp:76] Creating layer conv24
I1230 09:28:23.313850 26486 net.cpp:110] Creating Layer conv24
I1230 09:28:23.313860 26486 net.cpp:477] conv24 <- bn23
I1230 09:28:23.313874 26486 net.cpp:433] conv24 -> conv24
I1230 09:28:23.314458 26486 net.cpp:155] Setting up conv24
I1230 09:28:23.314479 26486 net.cpp:163] Top shape: 64 64 56 56 (12845056)
I1230 09:28:23.314497 26486 layer_factory.hpp:76] Creating layer bn24
I1230 09:28:23.314515 26486 net.cpp:110] Creating Layer bn24
I1230 09:28:23.314527 26486 net.cpp:477] bn24 <- conv24
I1230 09:28:23.314539 26486 net.cpp:433] bn24 -> bn24
I1230 09:28:23.314631 26486 net.cpp:155] Setting up bn24
I1230 09:28:23.314648 26486 net.cpp:163] Top shape: 64 64 56 56 (12845056)
I1230 09:28:23.314663 26486 layer_factory.hpp:76] Creating layer relu24
I1230 09:28:23.314681 26486 net.cpp:110] Creating Layer relu24
I1230 09:28:23.314694 26486 net.cpp:477] relu24 <- bn24
I1230 09:28:23.314707 26486 net.cpp:419] relu24 -> bn24 (in-place)
I1230 09:28:23.314776 26486 net.cpp:155] Setting up relu24
I1230 09:28:23.314791 26486 net.cpp:163] Top shape: 64 64 56 56 (12845056)
I1230 09:28:23.314803 26486 layer_factory.hpp:76] Creating layer bn24_relu24_0_split
I1230 09:28:23.314816 26486 net.cpp:110] Creating Layer bn24_relu24_0_split
I1230 09:28:23.314826 26486 net.cpp:477] bn24_relu24_0_split <- bn24
I1230 09:28:23.314838 26486 net.cpp:433] bn24_relu24_0_split -> bn24_relu24_0_split_0
I1230 09:28:23.314851 26486 net.cpp:433] bn24_relu24_0_split -> bn24_relu24_0_split_1
I1230 09:28:23.314865 26486 net.cpp:155] Setting up bn24_relu24_0_split
I1230 09:28:23.314878 26486 net.cpp:163] Top shape: 64 64 56 56 (12845056)
I1230 09:28:23.314889 26486 net.cpp:163] Top shape: 64 64 56 56 (12845056)
I1230 09:28:23.314899 26486 layer_factory.hpp:76] Creating layer eltwise2
I1230 09:28:23.314915 26486 net.cpp:110] Creating Layer eltwise2
I1230 09:28:23.314925 26486 net.cpp:477] eltwise2 <- eltwise1_relu1_0_split_1
I1230 09:28:23.314937 26486 net.cpp:477] eltwise2 <- bn24_relu24_0_split_0
I1230 09:28:23.314950 26486 net.cpp:433] eltwise2 -> eltwise2
I1230 09:28:23.314965 26486 net.cpp:155] Setting up eltwise2
I1230 09:28:23.314976 26486 net.cpp:163] Top shape: 64 64 56 56 (12845056)
I1230 09:28:23.314987 26486 layer_factory.hpp:76] Creating layer relu2
I1230 09:28:23.315001 26486 net.cpp:110] Creating Layer relu2
I1230 09:28:23.315011 26486 net.cpp:477] relu2 <- eltwise2
I1230 09:28:23.315022 26486 net.cpp:419] relu2 -> eltwise2 (in-place)
I1230 09:28:23.315192 26486 net.cpp:155] Setting up relu2
I1230 09:28:23.315215 26486 net.cpp:163] Top shape: 64 64 56 56 (12845056)
I1230 09:28:23.315227 26486 layer_factory.hpp:76] Creating layer conv25
I1230 09:28:23.315243 26486 net.cpp:110] Creating Layer conv25
I1230 09:28:23.315253 26486 net.cpp:477] conv25 <- bn24_relu24_0_split_1
I1230 09:28:23.315268 26486 net.cpp:433] conv25 -> conv25
I1230 09:28:23.315865 26486 net.cpp:155] Setting up conv25
I1230 09:28:23.315884 26486 net.cpp:163] Top shape: 64 64 56 56 (12845056)
I1230 09:28:23.315899 26486 layer_factory.hpp:76] Creating layer bn25
I1230 09:28:23.315917 26486 net.cpp:110] Creating Layer bn25
I1230 09:28:23.315927 26486 net.cpp:477] bn25 <- conv25
I1230 09:28:23.315943 26486 net.cpp:433] bn25 -> bn25
I1230 09:28:23.316045 26486 net.cpp:155] Setting up bn25
I1230 09:28:23.316062 26486 net.cpp:163] Top shape: 64 64 56 56 (12845056)
I1230 09:28:23.316084 26486 layer_factory.hpp:76] Creating layer relu25
I1230 09:28:23.316098 26486 net.cpp:110] Creating Layer relu25
I1230 09:28:23.316108 26486 net.cpp:477] relu25 <- bn25
I1230 09:28:23.316121 26486 net.cpp:419] relu25 -> bn25 (in-place)
I1230 09:28:23.316193 26486 net.cpp:155] Setting up relu25
I1230 09:28:23.316208 26486 net.cpp:163] Top shape: 64 64 56 56 (12845056)
I1230 09:28:23.316220 26486 layer_factory.hpp:76] Creating layer conv26
I1230 09:28:23.316234 26486 net.cpp:110] Creating Layer conv26
I1230 09:28:23.316244 26486 net.cpp:477] conv26 <- bn25
I1230 09:28:23.316259 26486 net.cpp:433] conv26 -> conv26
I1230 09:28:23.316838 26486 net.cpp:155] Setting up conv26
I1230 09:28:23.316859 26486 net.cpp:163] Top shape: 64 64 56 56 (12845056)
I1230 09:28:23.316872 26486 layer_factory.hpp:76] Creating layer bn26
I1230 09:28:23.316890 26486 net.cpp:110] Creating Layer bn26
I1230 09:28:23.316901 26486 net.cpp:477] bn26 <- conv26
I1230 09:28:23.316915 26486 net.cpp:433] bn26 -> bn26
I1230 09:28:23.317013 26486 net.cpp:155] Setting up bn26
I1230 09:28:23.317028 26486 net.cpp:163] Top shape: 64 64 56 56 (12845056)
I1230 09:28:23.317044 26486 layer_factory.hpp:76] Creating layer relu26
I1230 09:28:23.317061 26486 net.cpp:110] Creating Layer relu26
I1230 09:28:23.317072 26486 net.cpp:477] relu26 <- bn26
I1230 09:28:23.317085 26486 net.cpp:419] relu26 -> bn26 (in-place)
I1230 09:28:23.317160 26486 net.cpp:155] Setting up relu26
I1230 09:28:23.317175 26486 net.cpp:163] Top shape: 64 64 56 56 (12845056)
I1230 09:28:23.317186 26486 layer_factory.hpp:76] Creating layer eltwise3
I1230 09:28:23.317201 26486 net.cpp:110] Creating Layer eltwise3
I1230 09:28:23.317212 26486 net.cpp:477] eltwise3 <- eltwise2
I1230 09:28:23.317224 26486 net.cpp:477] eltwise3 <- bn26
I1230 09:28:23.317236 26486 net.cpp:433] eltwise3 -> eltwise3
I1230 09:28:23.317250 26486 net.cpp:155] Setting up eltwise3
I1230 09:28:23.317262 26486 net.cpp:163] Top shape: 64 64 56 56 (12845056)
I1230 09:28:23.317273 26486 layer_factory.hpp:76] Creating layer relu3
I1230 09:28:23.317286 26486 net.cpp:110] Creating Layer relu3
I1230 09:28:23.317302 26486 net.cpp:477] relu3 <- eltwise3
I1230 09:28:23.317320 26486 net.cpp:419] relu3 -> eltwise3 (in-place)
I1230 09:28:23.317391 26486 net.cpp:155] Setting up relu3
I1230 09:28:23.317407 26486 net.cpp:163] Top shape: 64 64 56 56 (12845056)
I1230 09:28:23.317417 26486 layer_factory.hpp:76] Creating layer eltwise3_relu3_0_split
I1230 09:28:23.317432 26486 net.cpp:110] Creating Layer eltwise3_relu3_0_split
I1230 09:28:23.317442 26486 net.cpp:477] eltwise3_relu3_0_split <- eltwise3
I1230 09:28:23.317456 26486 net.cpp:433] eltwise3_relu3_0_split -> eltwise3_relu3_0_split_0
I1230 09:28:23.317468 26486 net.cpp:433] eltwise3_relu3_0_split -> eltwise3_relu3_0_split_1
I1230 09:28:23.317483 26486 net.cpp:155] Setting up eltwise3_relu3_0_split
I1230 09:28:23.317495 26486 net.cpp:163] Top shape: 64 64 56 56 (12845056)
I1230 09:28:23.317507 26486 net.cpp:163] Top shape: 64 64 56 56 (12845056)
I1230 09:28:23.317517 26486 layer_factory.hpp:76] Creating layer relu3_p
I1230 09:28:23.317533 26486 net.cpp:110] Creating Layer relu3_p
I1230 09:28:23.317543 26486 net.cpp:477] relu3_p <- eltwise3_relu3_0_split_0
I1230 09:28:23.317559 26486 net.cpp:433] relu3_p -> relu3_p
I1230 09:28:23.318629 26486 net.cpp:155] Setting up relu3_p
I1230 09:28:23.318650 26486 net.cpp:163] Top shape: 64 128 28 28 (6422528)
I1230 09:28:23.318663 26486 layer_factory.hpp:76] Creating layer conv31
I1230 09:28:23.318682 26486 net.cpp:110] Creating Layer conv31
I1230 09:28:23.318693 26486 net.cpp:477] conv31 <- eltwise3_relu3_0_split_1
I1230 09:28:23.318714 26486 net.cpp:433] conv31 -> conv31
I1230 09:28:23.320255 26486 net.cpp:155] Setting up conv31
I1230 09:28:23.320271 26486 net.cpp:163] Top shape: 64 128 28 28 (6422528)
I1230 09:28:23.320281 26486 layer_factory.hpp:76] Creating layer bn31
I1230 09:28:23.320296 26486 net.cpp:110] Creating Layer bn31
I1230 09:28:23.320313 26486 net.cpp:477] bn31 <- conv31
I1230 09:28:23.320323 26486 net.cpp:433] bn31 -> bn31
I1230 09:28:23.320402 26486 net.cpp:155] Setting up bn31
I1230 09:28:23.320412 26486 net.cpp:163] Top shape: 64 128 28 28 (6422528)
I1230 09:28:23.320423 26486 layer_factory.hpp:76] Creating layer relu31
I1230 09:28:23.321151 26486 net.cpp:110] Creating Layer relu31
I1230 09:28:23.321162 26486 net.cpp:477] relu31 <- bn31
I1230 09:28:23.321177 26486 net.cpp:419] relu31 -> bn31 (in-place)
I1230 09:28:23.321357 26486 net.cpp:155] Setting up relu31
I1230 09:28:23.321375 26486 net.cpp:163] Top shape: 64 128 28 28 (6422528)
I1230 09:28:23.321388 26486 layer_factory.hpp:76] Creating layer conv32
I1230 09:28:23.321403 26486 net.cpp:110] Creating Layer conv32
I1230 09:28:23.321413 26486 net.cpp:477] conv32 <- bn31
I1230 09:28:23.321436 26486 net.cpp:433] conv32 -> conv32
I1230 09:28:23.322793 26486 net.cpp:155] Setting up conv32
I1230 09:28:23.322813 26486 net.cpp:163] Top shape: 64 128 28 28 (6422528)
I1230 09:28:23.322827 26486 layer_factory.hpp:76] Creating layer bn32
I1230 09:28:23.322845 26486 net.cpp:110] Creating Layer bn32
I1230 09:28:23.322856 26486 net.cpp:477] bn32 <- conv32
I1230 09:28:23.322870 26486 net.cpp:433] bn32 -> bn32
I1230 09:28:23.322950 26486 net.cpp:155] Setting up bn32
I1230 09:28:23.322970 26486 net.cpp:163] Top shape: 64 128 28 28 (6422528)
I1230 09:28:23.322986 26486 layer_factory.hpp:76] Creating layer relu32
I1230 09:28:23.322999 26486 net.cpp:110] Creating Layer relu32
I1230 09:28:23.323019 26486 net.cpp:477] relu32 <- bn32
I1230 09:28:23.323031 26486 net.cpp:419] relu32 -> bn32 (in-place)
I1230 09:28:23.323107 26486 net.cpp:155] Setting up relu32
I1230 09:28:23.323123 26486 net.cpp:163] Top shape: 64 128 28 28 (6422528)
I1230 09:28:23.323134 26486 layer_factory.hpp:76] Creating layer eltwise4
I1230 09:28:23.323148 26486 net.cpp:110] Creating Layer eltwise4
I1230 09:28:23.323158 26486 net.cpp:477] eltwise4 <- relu3_p
I1230 09:28:23.323170 26486 net.cpp:477] eltwise4 <- bn32
I1230 09:28:23.323182 26486 net.cpp:433] eltwise4 -> eltwise4
I1230 09:28:23.323196 26486 net.cpp:155] Setting up eltwise4
I1230 09:28:23.323210 26486 net.cpp:163] Top shape: 64 128 28 28 (6422528)
I1230 09:28:23.323220 26486 layer_factory.hpp:76] Creating layer relu4
I1230 09:28:23.323232 26486 net.cpp:110] Creating Layer relu4
I1230 09:28:23.323242 26486 net.cpp:477] relu4 <- eltwise4
I1230 09:28:23.323258 26486 net.cpp:419] relu4 -> eltwise4 (in-place)
I1230 09:28:23.323338 26486 net.cpp:155] Setting up relu4
I1230 09:28:23.323354 26486 net.cpp:163] Top shape: 64 128 28 28 (6422528)
I1230 09:28:23.323364 26486 layer_factory.hpp:76] Creating layer eltwise4_relu4_0_split
I1230 09:28:23.323377 26486 net.cpp:110] Creating Layer eltwise4_relu4_0_split
I1230 09:28:23.323387 26486 net.cpp:477] eltwise4_relu4_0_split <- eltwise4
I1230 09:28:23.323402 26486 net.cpp:433] eltwise4_relu4_0_split -> eltwise4_relu4_0_split_0
I1230 09:28:23.323416 26486 net.cpp:433] eltwise4_relu4_0_split -> eltwise4_relu4_0_split_1
I1230 09:28:23.323431 26486 net.cpp:155] Setting up eltwise4_relu4_0_split
I1230 09:28:23.323443 26486 net.cpp:163] Top shape: 64 128 28 28 (6422528)
I1230 09:28:23.323454 26486 net.cpp:163] Top shape: 64 128 28 28 (6422528)
I1230 09:28:23.323464 26486 layer_factory.hpp:76] Creating layer conv33
I1230 09:28:23.323482 26486 net.cpp:110] Creating Layer conv33
I1230 09:28:23.323493 26486 net.cpp:477] conv33 <- eltwise4_relu4_0_split_0
I1230 09:28:23.323510 26486 net.cpp:433] conv33 -> conv33
I1230 09:28:23.325548 26486 net.cpp:155] Setting up conv33
I1230 09:28:23.325568 26486 net.cpp:163] Top shape: 64 128 28 28 (6422528)
I1230 09:28:23.325583 26486 layer_factory.hpp:76] Creating layer bn33
I1230 09:28:23.325598 26486 net.cpp:110] Creating Layer bn33
I1230 09:28:23.325609 26486 net.cpp:477] bn33 <- conv33
I1230 09:28:23.325631 26486 net.cpp:433] bn33 -> bn33
I1230 09:28:23.325712 26486 net.cpp:155] Setting up bn33
I1230 09:28:23.325731 26486 net.cpp:163] Top shape: 64 128 28 28 (6422528)
I1230 09:28:23.325747 26486 layer_factory.hpp:76] Creating layer relu33
I1230 09:28:23.325773 26486 net.cpp:110] Creating Layer relu33
I1230 09:28:23.325783 26486 net.cpp:477] relu33 <- bn33
I1230 09:28:23.325795 26486 net.cpp:419] relu33 -> bn33 (in-place)
I1230 09:28:23.325970 26486 net.cpp:155] Setting up relu33
I1230 09:28:23.325989 26486 net.cpp:163] Top shape: 64 128 28 28 (6422528)
I1230 09:28:23.326000 26486 layer_factory.hpp:76] Creating layer conv34
I1230 09:28:23.326019 26486 net.cpp:110] Creating Layer conv34
I1230 09:28:23.326030 26486 net.cpp:477] conv34 <- bn33
I1230 09:28:23.326042 26486 net.cpp:433] conv34 -> conv34
I1230 09:28:23.328033 26486 net.cpp:155] Setting up conv34
I1230 09:28:23.328053 26486 net.cpp:163] Top shape: 64 128 28 28 (6422528)
I1230 09:28:23.328068 26486 layer_factory.hpp:76] Creating layer bn34
I1230 09:28:23.328085 26486 net.cpp:110] Creating Layer bn34
I1230 09:28:23.328096 26486 net.cpp:477] bn34 <- conv34
I1230 09:28:23.328110 26486 net.cpp:433] bn34 -> bn34
I1230 09:28:23.328192 26486 net.cpp:155] Setting up bn34
I1230 09:28:23.328208 26486 net.cpp:163] Top shape: 64 128 28 28 (6422528)
I1230 09:28:23.328235 26486 layer_factory.hpp:76] Creating layer relu34
I1230 09:28:23.328249 26486 net.cpp:110] Creating Layer relu34
I1230 09:28:23.328260 26486 net.cpp:477] relu34 <- bn34
I1230 09:28:23.328275 26486 net.cpp:419] relu34 -> bn34 (in-place)
I1230 09:28:23.328349 26486 net.cpp:155] Setting up relu34
I1230 09:28:23.328366 26486 net.cpp:163] Top shape: 64 128 28 28 (6422528)
I1230 09:28:23.328377 26486 layer_factory.hpp:76] Creating layer eltwise5
I1230 09:28:23.328392 26486 net.cpp:110] Creating Layer eltwise5
I1230 09:28:23.328402 26486 net.cpp:477] eltwise5 <- eltwise4_relu4_0_split_1
I1230 09:28:23.328415 26486 net.cpp:477] eltwise5 <- bn34
I1230 09:28:23.328428 26486 net.cpp:433] eltwise5 -> eltwise5
I1230 09:28:23.328443 26486 net.cpp:155] Setting up eltwise5
I1230 09:28:23.328455 26486 net.cpp:163] Top shape: 64 128 28 28 (6422528)
I1230 09:28:23.328465 26486 layer_factory.hpp:76] Creating layer relu5
I1230 09:28:23.328480 26486 net.cpp:110] Creating Layer relu5
I1230 09:28:23.328490 26486 net.cpp:477] relu5 <- eltwise5
I1230 09:28:23.328502 26486 net.cpp:419] relu5 -> eltwise5 (in-place)
I1230 09:28:23.328567 26486 net.cpp:155] Setting up relu5
I1230 09:28:23.328582 26486 net.cpp:163] Top shape: 64 128 28 28 (6422528)
I1230 09:28:23.328593 26486 layer_factory.hpp:76] Creating layer eltwise5_relu5_0_split
I1230 09:28:23.328605 26486 net.cpp:110] Creating Layer eltwise5_relu5_0_split
I1230 09:28:23.328615 26486 net.cpp:477] eltwise5_relu5_0_split <- eltwise5
I1230 09:28:23.328627 26486 net.cpp:433] eltwise5_relu5_0_split -> eltwise5_relu5_0_split_0
I1230 09:28:23.328641 26486 net.cpp:433] eltwise5_relu5_0_split -> eltwise5_relu5_0_split_1
I1230 09:28:23.328658 26486 net.cpp:155] Setting up eltwise5_relu5_0_split
I1230 09:28:23.328670 26486 net.cpp:163] Top shape: 64 128 28 28 (6422528)
I1230 09:28:23.328681 26486 net.cpp:163] Top shape: 64 128 28 28 (6422528)
I1230 09:28:23.328691 26486 layer_factory.hpp:76] Creating layer conv35
I1230 09:28:23.328708 26486 net.cpp:110] Creating Layer conv35
I1230 09:28:23.328719 26486 net.cpp:477] conv35 <- eltwise5_relu5_0_split_0
I1230 09:28:23.328735 26486 net.cpp:433] conv35 -> conv35
I1230 09:28:23.330590 26486 net.cpp:155] Setting up conv35
I1230 09:28:23.330610 26486 net.cpp:163] Top shape: 64 128 28 28 (6422528)
I1230 09:28:23.330626 26486 layer_factory.hpp:76] Creating layer bn35
I1230 09:28:23.330644 26486 net.cpp:110] Creating Layer bn35
I1230 09:28:23.330656 26486 net.cpp:477] bn35 <- conv35
I1230 09:28:23.330669 26486 net.cpp:433] bn35 -> bn35
I1230 09:28:23.330749 26486 net.cpp:155] Setting up bn35
I1230 09:28:23.330765 26486 net.cpp:163] Top shape: 64 128 28 28 (6422528)
I1230 09:28:23.330781 26486 layer_factory.hpp:76] Creating layer relu35
I1230 09:28:23.330796 26486 net.cpp:110] Creating Layer relu35
I1230 09:28:23.330807 26486 net.cpp:477] relu35 <- bn35
I1230 09:28:23.330821 26486 net.cpp:419] relu35 -> bn35 (in-place)
I1230 09:28:23.330894 26486 net.cpp:155] Setting up relu35
I1230 09:28:23.330921 26486 net.cpp:163] Top shape: 64 128 28 28 (6422528)
I1230 09:28:23.330932 26486 layer_factory.hpp:76] Creating layer conv36
I1230 09:28:23.330950 26486 net.cpp:110] Creating Layer conv36
I1230 09:28:23.330960 26486 net.cpp:477] conv36 <- bn35
I1230 09:28:23.330974 26486 net.cpp:433] conv36 -> conv36
I1230 09:28:23.332901 26486 net.cpp:155] Setting up conv36
I1230 09:28:23.332921 26486 net.cpp:163] Top shape: 64 128 28 28 (6422528)
I1230 09:28:23.332937 26486 layer_factory.hpp:76] Creating layer bn36
I1230 09:28:23.332954 26486 net.cpp:110] Creating Layer bn36
I1230 09:28:23.332967 26486 net.cpp:477] bn36 <- conv36
I1230 09:28:23.332980 26486 net.cpp:433] bn36 -> bn36
I1230 09:28:23.333062 26486 net.cpp:155] Setting up bn36
I1230 09:28:23.333080 26486 net.cpp:163] Top shape: 64 128 28 28 (6422528)
I1230 09:28:23.333096 26486 layer_factory.hpp:76] Creating layer relu36
I1230 09:28:23.333112 26486 net.cpp:110] Creating Layer relu36
I1230 09:28:23.333122 26486 net.cpp:477] relu36 <- bn36
I1230 09:28:23.333137 26486 net.cpp:419] relu36 -> bn36 (in-place)
I1230 09:28:23.333319 26486 net.cpp:155] Setting up relu36
I1230 09:28:23.333349 26486 net.cpp:163] Top shape: 64 128 28 28 (6422528)
I1230 09:28:23.333367 26486 layer_factory.hpp:76] Creating layer eltwise6
I1230 09:28:23.333382 26486 net.cpp:110] Creating Layer eltwise6
I1230 09:28:23.333392 26486 net.cpp:477] eltwise6 <- eltwise5_relu5_0_split_1
I1230 09:28:23.333405 26486 net.cpp:477] eltwise6 <- bn36
I1230 09:28:23.333417 26486 net.cpp:433] eltwise6 -> eltwise6
I1230 09:28:23.333433 26486 net.cpp:155] Setting up eltwise6
I1230 09:28:23.333446 26486 net.cpp:163] Top shape: 64 128 28 28 (6422528)
I1230 09:28:23.333457 26486 layer_factory.hpp:76] Creating layer relu6
I1230 09:28:23.333472 26486 net.cpp:110] Creating Layer relu6
I1230 09:28:23.333483 26486 net.cpp:477] relu6 <- eltwise6
I1230 09:28:23.333495 26486 net.cpp:419] relu6 -> eltwise6 (in-place)
I1230 09:28:23.333565 26486 net.cpp:155] Setting up relu6
I1230 09:28:23.333581 26486 net.cpp:163] Top shape: 64 128 28 28 (6422528)
I1230 09:28:23.333592 26486 layer_factory.hpp:76] Creating layer eltwise6_relu6_0_split
I1230 09:28:23.333606 26486 net.cpp:110] Creating Layer eltwise6_relu6_0_split
I1230 09:28:23.333616 26486 net.cpp:477] eltwise6_relu6_0_split <- eltwise6
I1230 09:28:23.333638 26486 net.cpp:433] eltwise6_relu6_0_split -> eltwise6_relu6_0_split_0
I1230 09:28:23.333653 26486 net.cpp:433] eltwise6_relu6_0_split -> eltwise6_relu6_0_split_1
I1230 09:28:23.333667 26486 net.cpp:155] Setting up eltwise6_relu6_0_split
I1230 09:28:23.333680 26486 net.cpp:163] Top shape: 64 128 28 28 (6422528)
I1230 09:28:23.333691 26486 net.cpp:163] Top shape: 64 128 28 28 (6422528)
I1230 09:28:23.335247 26486 layer_factory.hpp:76] Creating layer conv37
I1230 09:28:23.335265 26486 net.cpp:110] Creating Layer conv37
I1230 09:28:23.335276 26486 net.cpp:477] conv37 <- eltwise6_relu6_0_split_0
I1230 09:28:23.335289 26486 net.cpp:433] conv37 -> conv37
I1230 09:28:23.337170 26486 net.cpp:155] Setting up conv37
I1230 09:28:23.337191 26486 net.cpp:163] Top shape: 64 128 28 28 (6422528)
I1230 09:28:23.337205 26486 layer_factory.hpp:76] Creating layer bn37
I1230 09:28:23.337223 26486 net.cpp:110] Creating Layer bn37
I1230 09:28:23.337234 26486 net.cpp:477] bn37 <- conv37
I1230 09:28:23.337249 26486 net.cpp:433] bn37 -> bn37
I1230 09:28:23.337355 26486 net.cpp:155] Setting up bn37
I1230 09:28:23.337373 26486 net.cpp:163] Top shape: 64 128 28 28 (6422528)
I1230 09:28:23.337389 26486 layer_factory.hpp:76] Creating layer relu37
I1230 09:28:23.337404 26486 net.cpp:110] Creating Layer relu37
I1230 09:28:23.337414 26486 net.cpp:477] relu37 <- bn37
I1230 09:28:23.337430 26486 net.cpp:419] relu37 -> bn37 (in-place)
I1230 09:28:23.337505 26486 net.cpp:155] Setting up relu37
I1230 09:28:23.337522 26486 net.cpp:163] Top shape: 64 128 28 28 (6422528)
I1230 09:28:23.337532 26486 layer_factory.hpp:76] Creating layer conv38
I1230 09:28:23.337556 26486 net.cpp:110] Creating Layer conv38
I1230 09:28:23.337580 26486 net.cpp:477] conv38 <- bn37
I1230 09:28:23.337607 26486 net.cpp:433] conv38 -> conv38
I1230 09:28:23.339478 26486 net.cpp:155] Setting up conv38
I1230 09:28:23.339499 26486 net.cpp:163] Top shape: 64 128 28 28 (6422528)
I1230 09:28:23.339515 26486 layer_factory.hpp:76] Creating layer bn38
I1230 09:28:23.339534 26486 net.cpp:110] Creating Layer bn38
I1230 09:28:23.339545 26486 net.cpp:477] bn38 <- conv38
I1230 09:28:23.339560 26486 net.cpp:433] bn38 -> bn38
I1230 09:28:23.339645 26486 net.cpp:155] Setting up bn38
I1230 09:28:23.339661 26486 net.cpp:163] Top shape: 64 128 28 28 (6422528)
I1230 09:28:23.339678 26486 layer_factory.hpp:76] Creating layer relu38
I1230 09:28:23.339691 26486 net.cpp:110] Creating Layer relu38
I1230 09:28:23.339702 26486 net.cpp:477] relu38 <- bn38
I1230 09:28:23.339731 26486 net.cpp:419] relu38 -> bn38 (in-place)
I1230 09:28:23.339805 26486 net.cpp:155] Setting up relu38
I1230 09:28:23.339820 26486 net.cpp:163] Top shape: 64 128 28 28 (6422528)
I1230 09:28:23.339833 26486 layer_factory.hpp:76] Creating layer eltwise7
I1230 09:28:23.339845 26486 net.cpp:110] Creating Layer eltwise7
I1230 09:28:23.339855 26486 net.cpp:477] eltwise7 <- eltwise6_relu6_0_split_1
I1230 09:28:23.339867 26486 net.cpp:477] eltwise7 <- bn38
I1230 09:28:23.339879 26486 net.cpp:433] eltwise7 -> eltwise7
I1230 09:28:23.339893 26486 net.cpp:155] Setting up eltwise7
I1230 09:28:23.339906 26486 net.cpp:163] Top shape: 64 128 28 28 (6422528)
I1230 09:28:23.339916 26486 layer_factory.hpp:76] Creating layer relu7
I1230 09:28:23.339928 26486 net.cpp:110] Creating Layer relu7
I1230 09:28:23.339939 26486 net.cpp:477] relu7 <- eltwise7
I1230 09:28:23.339953 26486 net.cpp:419] relu7 -> eltwise7 (in-place)
I1230 09:28:23.340127 26486 net.cpp:155] Setting up relu7
I1230 09:28:23.340145 26486 net.cpp:163] Top shape: 64 128 28 28 (6422528)
I1230 09:28:23.340157 26486 layer_factory.hpp:76] Creating layer eltwise7_relu7_0_split
I1230 09:28:23.340169 26486 net.cpp:110] Creating Layer eltwise7_relu7_0_split
I1230 09:28:23.340180 26486 net.cpp:477] eltwise7_relu7_0_split <- eltwise7
I1230 09:28:23.340198 26486 net.cpp:433] eltwise7_relu7_0_split -> eltwise7_relu7_0_split_0
I1230 09:28:23.340212 26486 net.cpp:433] eltwise7_relu7_0_split -> eltwise7_relu7_0_split_1
I1230 09:28:23.340229 26486 net.cpp:155] Setting up eltwise7_relu7_0_split
I1230 09:28:23.340240 26486 net.cpp:163] Top shape: 64 128 28 28 (6422528)
I1230 09:28:23.340251 26486 net.cpp:163] Top shape: 64 128 28 28 (6422528)
I1230 09:28:23.340262 26486 layer_factory.hpp:76] Creating layer relu7_p
I1230 09:28:23.340278 26486 net.cpp:110] Creating Layer relu7_p
I1230 09:28:23.340289 26486 net.cpp:477] relu7_p <- eltwise7_relu7_0_split_0
I1230 09:28:23.340306 26486 net.cpp:433] relu7_p -> relu7_p
I1230 09:28:23.340884 26486 net.cpp:155] Setting up relu7_p
I1230 09:28:23.340904 26486 net.cpp:163] Top shape: 64 256 14 14 (3211264)
I1230 09:28:23.340919 26486 layer_factory.hpp:76] Creating layer conv41
I1230 09:28:23.340937 26486 net.cpp:110] Creating Layer conv41
I1230 09:28:23.340947 26486 net.cpp:477] conv41 <- eltwise7_relu7_0_split_1
I1230 09:28:23.340963 26486 net.cpp:433] conv41 -> conv41
I1230 09:28:23.343860 26486 net.cpp:155] Setting up conv41
I1230 09:28:23.343883 26486 net.cpp:163] Top shape: 64 256 14 14 (3211264)
I1230 09:28:23.343899 26486 layer_factory.hpp:76] Creating layer bn41
I1230 09:28:23.343915 26486 net.cpp:110] Creating Layer bn41
I1230 09:28:23.343926 26486 net.cpp:477] bn41 <- conv41
I1230 09:28:23.343943 26486 net.cpp:433] bn41 -> bn41
I1230 09:28:23.344029 26486 net.cpp:155] Setting up bn41
I1230 09:28:23.344045 26486 net.cpp:163] Top shape: 64 256 14 14 (3211264)
I1230 09:28:23.344061 26486 layer_factory.hpp:76] Creating layer relu41
I1230 09:28:23.344075 26486 net.cpp:110] Creating Layer relu41
I1230 09:28:23.344085 26486 net.cpp:477] relu41 <- bn41
I1230 09:28:23.344099 26486 net.cpp:419] relu41 -> bn41 (in-place)
I1230 09:28:23.344174 26486 net.cpp:155] Setting up relu41
I1230 09:28:23.344190 26486 net.cpp:163] Top shape: 64 256 14 14 (3211264)
I1230 09:28:23.344213 26486 layer_factory.hpp:76] Creating layer conv42
I1230 09:28:23.344228 26486 net.cpp:110] Creating Layer conv42
I1230 09:28:23.344239 26486 net.cpp:477] conv42 <- bn41
I1230 09:28:23.344254 26486 net.cpp:433] conv42 -> conv42
I1230 09:28:23.349956 26486 net.cpp:155] Setting up conv42
I1230 09:28:23.349977 26486 net.cpp:163] Top shape: 64 256 14 14 (3211264)
I1230 09:28:23.349992 26486 layer_factory.hpp:76] Creating layer bn42
I1230 09:28:23.350016 26486 net.cpp:110] Creating Layer bn42
I1230 09:28:23.350028 26486 net.cpp:477] bn42 <- conv42
I1230 09:28:23.350041 26486 net.cpp:433] bn42 -> bn42
I1230 09:28:23.350128 26486 net.cpp:155] Setting up bn42
I1230 09:28:23.350144 26486 net.cpp:163] Top shape: 64 256 14 14 (3211264)
I1230 09:28:23.350160 26486 layer_factory.hpp:76] Creating layer relu42
I1230 09:28:23.350174 26486 net.cpp:110] Creating Layer relu42
I1230 09:28:23.350185 26486 net.cpp:477] relu42 <- bn42
I1230 09:28:23.350199 26486 net.cpp:419] relu42 -> bn42 (in-place)
I1230 09:28:23.350270 26486 net.cpp:155] Setting up relu42
I1230 09:28:23.350286 26486 net.cpp:163] Top shape: 64 256 14 14 (3211264)
I1230 09:28:23.350297 26486 layer_factory.hpp:76] Creating layer eltwise8
I1230 09:28:23.350311 26486 net.cpp:110] Creating Layer eltwise8
I1230 09:28:23.350320 26486 net.cpp:477] eltwise8 <- relu7_p
I1230 09:28:23.350332 26486 net.cpp:477] eltwise8 <- bn42
I1230 09:28:23.350345 26486 net.cpp:433] eltwise8 -> eltwise8
I1230 09:28:23.350359 26486 net.cpp:155] Setting up eltwise8
I1230 09:28:23.350373 26486 net.cpp:163] Top shape: 64 256 14 14 (3211264)
I1230 09:28:23.350383 26486 layer_factory.hpp:76] Creating layer relu8
I1230 09:28:23.350395 26486 net.cpp:110] Creating Layer relu8
I1230 09:28:23.350405 26486 net.cpp:477] relu8 <- eltwise8
I1230 09:28:23.350419 26486 net.cpp:419] relu8 -> eltwise8 (in-place)
I1230 09:28:23.350491 26486 net.cpp:155] Setting up relu8
I1230 09:28:23.350505 26486 net.cpp:163] Top shape: 64 256 14 14 (3211264)
I1230 09:28:23.350517 26486 layer_factory.hpp:76] Creating layer eltwise8_relu8_0_split
I1230 09:28:23.350529 26486 net.cpp:110] Creating Layer eltwise8_relu8_0_split
I1230 09:28:23.350539 26486 net.cpp:477] eltwise8_relu8_0_split <- eltwise8
I1230 09:28:23.350553 26486 net.cpp:433] eltwise8_relu8_0_split -> eltwise8_relu8_0_split_0
I1230 09:28:23.350569 26486 net.cpp:433] eltwise8_relu8_0_split -> eltwise8_relu8_0_split_1
I1230 09:28:23.350591 26486 net.cpp:155] Setting up eltwise8_relu8_0_split
I1230 09:28:23.350605 26486 net.cpp:163] Top shape: 64 256 14 14 (3211264)
I1230 09:28:23.350616 26486 net.cpp:163] Top shape: 64 256 14 14 (3211264)
I1230 09:28:23.350627 26486 layer_factory.hpp:76] Creating layer conv43
I1230 09:28:23.350642 26486 net.cpp:110] Creating Layer conv43
I1230 09:28:23.350652 26486 net.cpp:477] conv43 <- eltwise8_relu8_0_split_0
I1230 09:28:23.350668 26486 net.cpp:433] conv43 -> conv43
I1230 09:28:23.356238 26486 net.cpp:155] Setting up conv43
I1230 09:28:23.356262 26486 net.cpp:163] Top shape: 64 256 14 14 (3211264)
I1230 09:28:23.356277 26486 layer_factory.hpp:76] Creating layer bn43
I1230 09:28:23.356293 26486 net.cpp:110] Creating Layer bn43
I1230 09:28:23.356304 26486 net.cpp:477] bn43 <- conv43
I1230 09:28:23.356319 26486 net.cpp:433] bn43 -> bn43
I1230 09:28:23.356410 26486 net.cpp:155] Setting up bn43
I1230 09:28:23.356426 26486 net.cpp:163] Top shape: 64 256 14 14 (3211264)
I1230 09:28:23.356441 26486 layer_factory.hpp:76] Creating layer relu43
I1230 09:28:23.356456 26486 net.cpp:110] Creating Layer relu43
I1230 09:28:23.356465 26486 net.cpp:477] relu43 <- bn43
I1230 09:28:23.356477 26486 net.cpp:419] relu43 -> bn43 (in-place)
I1230 09:28:23.356653 26486 net.cpp:155] Setting up relu43
I1230 09:28:23.356673 26486 net.cpp:163] Top shape: 64 256 14 14 (3211264)
I1230 09:28:23.356684 26486 layer_factory.hpp:76] Creating layer conv44
I1230 09:28:23.356703 26486 net.cpp:110] Creating Layer conv44
I1230 09:28:23.356714 26486 net.cpp:477] conv44 <- bn43
I1230 09:28:23.356726 26486 net.cpp:433] conv44 -> conv44
I1230 09:28:23.362360 26486 net.cpp:155] Setting up conv44
I1230 09:28:23.362395 26486 net.cpp:163] Top shape: 64 256 14 14 (3211264)
I1230 09:28:23.362408 26486 layer_factory.hpp:76] Creating layer bn44
I1230 09:28:23.362427 26486 net.cpp:110] Creating Layer bn44
I1230 09:28:23.362438 26486 net.cpp:477] bn44 <- conv44
I1230 09:28:23.362455 26486 net.cpp:433] bn44 -> bn44
I1230 09:28:23.362547 26486 net.cpp:155] Setting up bn44
I1230 09:28:23.362565 26486 net.cpp:163] Top shape: 64 256 14 14 (3211264)
I1230 09:28:23.362579 26486 layer_factory.hpp:76] Creating layer relu44
I1230 09:28:23.362596 26486 net.cpp:110] Creating Layer relu44
I1230 09:28:23.362607 26486 net.cpp:477] relu44 <- bn44
I1230 09:28:23.362618 26486 net.cpp:419] relu44 -> bn44 (in-place)
I1230 09:28:23.362697 26486 net.cpp:155] Setting up relu44
I1230 09:28:23.362712 26486 net.cpp:163] Top shape: 64 256 14 14 (3211264)
I1230 09:28:23.362723 26486 layer_factory.hpp:76] Creating layer eltwise9
I1230 09:28:23.362738 26486 net.cpp:110] Creating Layer eltwise9
I1230 09:28:23.362748 26486 net.cpp:477] eltwise9 <- eltwise8_relu8_0_split_1
I1230 09:28:23.362759 26486 net.cpp:477] eltwise9 <- bn44
I1230 09:28:23.362774 26486 net.cpp:433] eltwise9 -> eltwise9
I1230 09:28:23.362789 26486 net.cpp:155] Setting up eltwise9
I1230 09:28:23.362802 26486 net.cpp:163] Top shape: 64 256 14 14 (3211264)
I1230 09:28:23.362812 26486 layer_factory.hpp:76] Creating layer relu9
I1230 09:28:23.362824 26486 net.cpp:110] Creating Layer relu9
I1230 09:28:23.362835 26486 net.cpp:477] relu9 <- eltwise9
I1230 09:28:23.362848 26486 net.cpp:419] relu9 -> eltwise9 (in-place)
I1230 09:28:23.362917 26486 net.cpp:155] Setting up relu9
I1230 09:28:23.362931 26486 net.cpp:163] Top shape: 64 256 14 14 (3211264)
I1230 09:28:23.362942 26486 layer_factory.hpp:76] Creating layer eltwise9_relu9_0_split
I1230 09:28:23.362954 26486 net.cpp:110] Creating Layer eltwise9_relu9_0_split
I1230 09:28:23.362964 26486 net.cpp:477] eltwise9_relu9_0_split <- eltwise9
I1230 09:28:23.362977 26486 net.cpp:433] eltwise9_relu9_0_split -> eltwise9_relu9_0_split_0
I1230 09:28:23.362990 26486 net.cpp:433] eltwise9_relu9_0_split -> eltwise9_relu9_0_split_1
I1230 09:28:23.363004 26486 net.cpp:155] Setting up eltwise9_relu9_0_split
I1230 09:28:23.363016 26486 net.cpp:163] Top shape: 64 256 14 14 (3211264)
I1230 09:28:23.363028 26486 net.cpp:163] Top shape: 64 256 14 14 (3211264)
I1230 09:28:23.363046 26486 layer_factory.hpp:76] Creating layer conv45
I1230 09:28:23.363064 26486 net.cpp:110] Creating Layer conv45
I1230 09:28:23.363075 26486 net.cpp:477] conv45 <- eltwise9_relu9_0_split_0
I1230 09:28:23.363090 26486 net.cpp:433] conv45 -> conv45
I1230 09:28:23.369747 26486 net.cpp:155] Setting up conv45
I1230 09:28:23.369768 26486 net.cpp:163] Top shape: 64 256 14 14 (3211264)
I1230 09:28:23.369782 26486 layer_factory.hpp:76] Creating layer bn45
I1230 09:28:23.369801 26486 net.cpp:110] Creating Layer bn45
I1230 09:28:23.369812 26486 net.cpp:477] bn45 <- conv45
I1230 09:28:23.369834 26486 net.cpp:433] bn45 -> bn45
I1230 09:28:23.369925 26486 net.cpp:155] Setting up bn45
I1230 09:28:23.369942 26486 net.cpp:163] Top shape: 64 256 14 14 (3211264)
I1230 09:28:23.369958 26486 layer_factory.hpp:76] Creating layer relu45
I1230 09:28:23.369972 26486 net.cpp:110] Creating Layer relu45
I1230 09:28:23.369982 26486 net.cpp:477] relu45 <- bn45
I1230 09:28:23.369997 26486 net.cpp:419] relu45 -> bn45 (in-place)
I1230 09:28:23.370182 26486 net.cpp:155] Setting up relu45
I1230 09:28:23.370200 26486 net.cpp:163] Top shape: 64 256 14 14 (3211264)
I1230 09:28:23.370211 26486 layer_factory.hpp:76] Creating layer conv46
I1230 09:28:23.370236 26486 net.cpp:110] Creating Layer conv46
I1230 09:28:23.370247 26486 net.cpp:477] conv46 <- bn45
I1230 09:28:23.370261 26486 net.cpp:433] conv46 -> conv46
I1230 09:28:23.376720 26486 net.cpp:155] Setting up conv46
I1230 09:28:23.376742 26486 net.cpp:163] Top shape: 64 256 14 14 (3211264)
I1230 09:28:23.376757 26486 layer_factory.hpp:76] Creating layer bn46
I1230 09:28:23.376776 26486 net.cpp:110] Creating Layer bn46
I1230 09:28:23.376801 26486 net.cpp:477] bn46 <- conv46
I1230 09:28:23.376827 26486 net.cpp:433] bn46 -> bn46
I1230 09:28:23.376922 26486 net.cpp:155] Setting up bn46
I1230 09:28:23.376940 26486 net.cpp:163] Top shape: 64 256 14 14 (3211264)
I1230 09:28:23.376991 26486 layer_factory.hpp:76] Creating layer relu46
I1230 09:28:23.377004 26486 net.cpp:110] Creating Layer relu46
I1230 09:28:23.377017 26486 net.cpp:477] relu46 <- bn46
I1230 09:28:23.377029 26486 net.cpp:419] relu46 -> bn46 (in-place)
I1230 09:28:23.377102 26486 net.cpp:155] Setting up relu46
I1230 09:28:23.377118 26486 net.cpp:163] Top shape: 64 256 14 14 (3211264)
I1230 09:28:23.377130 26486 layer_factory.hpp:76] Creating layer eltwise10
I1230 09:28:23.377146 26486 net.cpp:110] Creating Layer eltwise10
I1230 09:28:23.377156 26486 net.cpp:477] eltwise10 <- eltwise9_relu9_0_split_1
I1230 09:28:23.377168 26486 net.cpp:477] eltwise10 <- bn46
I1230 09:28:23.377182 26486 net.cpp:433] eltwise10 -> eltwise10
I1230 09:28:23.377197 26486 net.cpp:155] Setting up eltwise10
I1230 09:28:23.377208 26486 net.cpp:163] Top shape: 64 256 14 14 (3211264)
I1230 09:28:23.377219 26486 layer_factory.hpp:76] Creating layer relu10
I1230 09:28:23.377235 26486 net.cpp:110] Creating Layer relu10
I1230 09:28:23.377246 26486 net.cpp:477] relu10 <- eltwise10
I1230 09:28:23.377259 26486 net.cpp:419] relu10 -> eltwise10 (in-place)
I1230 09:28:23.377349 26486 net.cpp:155] Setting up relu10
I1230 09:28:23.377367 26486 net.cpp:163] Top shape: 64 256 14 14 (3211264)
I1230 09:28:23.377378 26486 layer_factory.hpp:76] Creating layer eltwise10_relu10_0_split
I1230 09:28:23.377391 26486 net.cpp:110] Creating Layer eltwise10_relu10_0_split
I1230 09:28:23.377403 26486 net.cpp:477] eltwise10_relu10_0_split <- eltwise10
I1230 09:28:23.377415 26486 net.cpp:433] eltwise10_relu10_0_split -> eltwise10_relu10_0_split_0
I1230 09:28:23.377429 26486 net.cpp:433] eltwise10_relu10_0_split -> eltwise10_relu10_0_split_1
I1230 09:28:23.377455 26486 net.cpp:155] Setting up eltwise10_relu10_0_split
I1230 09:28:23.377480 26486 net.cpp:163] Top shape: 64 256 14 14 (3211264)
I1230 09:28:23.377491 26486 net.cpp:163] Top shape: 64 256 14 14 (3211264)
I1230 09:28:23.377501 26486 layer_factory.hpp:76] Creating layer conv47
I1230 09:28:23.377521 26486 net.cpp:110] Creating Layer conv47
I1230 09:28:23.377532 26486 net.cpp:477] conv47 <- eltwise10_relu10_0_split_0
I1230 09:28:23.377547 26486 net.cpp:433] conv47 -> conv47
I1230 09:28:23.384079 26486 net.cpp:155] Setting up conv47
I1230 09:28:23.384104 26486 net.cpp:163] Top shape: 64 256 14 14 (3211264)
I1230 09:28:23.384119 26486 layer_factory.hpp:76] Creating layer bn47
I1230 09:28:23.384138 26486 net.cpp:110] Creating Layer bn47
I1230 09:28:23.384176 26486 net.cpp:477] bn47 <- conv47
I1230 09:28:23.384205 26486 net.cpp:433] bn47 -> bn47
I1230 09:28:23.384305 26486 net.cpp:155] Setting up bn47
I1230 09:28:23.384325 26486 net.cpp:163] Top shape: 64 256 14 14 (3211264)
I1230 09:28:23.384349 26486 layer_factory.hpp:76] Creating layer relu47
I1230 09:28:23.384374 26486 net.cpp:110] Creating Layer relu47
I1230 09:28:23.384387 26486 net.cpp:477] relu47 <- bn47
I1230 09:28:23.384399 26486 net.cpp:419] relu47 -> bn47 (in-place)
I1230 09:28:23.384485 26486 net.cpp:155] Setting up relu47
I1230 09:28:23.384501 26486 net.cpp:163] Top shape: 64 256 14 14 (3211264)
I1230 09:28:23.384512 26486 layer_factory.hpp:76] Creating layer conv48
I1230 09:28:23.384531 26486 net.cpp:110] Creating Layer conv48
I1230 09:28:23.384541 26486 net.cpp:477] conv48 <- bn47
I1230 09:28:23.384554 26486 net.cpp:433] conv48 -> conv48
I1230 09:28:23.391137 26486 net.cpp:155] Setting up conv48
I1230 09:28:23.391160 26486 net.cpp:163] Top shape: 64 256 14 14 (3211264)
I1230 09:28:23.391175 26486 layer_factory.hpp:76] Creating layer bn48
I1230 09:28:23.391197 26486 net.cpp:110] Creating Layer bn48
I1230 09:28:23.391208 26486 net.cpp:477] bn48 <- conv48
I1230 09:28:23.391222 26486 net.cpp:433] bn48 -> bn48
I1230 09:28:23.391316 26486 net.cpp:155] Setting up bn48
I1230 09:28:23.391335 26486 net.cpp:163] Top shape: 64 256 14 14 (3211264)
I1230 09:28:23.391363 26486 layer_factory.hpp:76] Creating layer relu48
I1230 09:28:23.391377 26486 net.cpp:110] Creating Layer relu48
I1230 09:28:23.391388 26486 net.cpp:477] relu48 <- bn48
I1230 09:28:23.391403 26486 net.cpp:419] relu48 -> bn48 (in-place)
I1230 09:28:23.391589 26486 net.cpp:155] Setting up relu48
I1230 09:28:23.391608 26486 net.cpp:163] Top shape: 64 256 14 14 (3211264)
I1230 09:28:23.391620 26486 layer_factory.hpp:76] Creating layer eltwise11
I1230 09:28:23.391635 26486 net.cpp:110] Creating Layer eltwise11
I1230 09:28:23.391645 26486 net.cpp:477] eltwise11 <- eltwise10_relu10_0_split_1
I1230 09:28:23.391657 26486 net.cpp:477] eltwise11 <- bn48
I1230 09:28:23.391674 26486 net.cpp:433] eltwise11 -> eltwise11
I1230 09:28:23.391690 26486 net.cpp:155] Setting up eltwise11
I1230 09:28:23.391702 26486 net.cpp:163] Top shape: 64 256 14 14 (3211264)
I1230 09:28:23.391712 26486 layer_factory.hpp:76] Creating layer relu11
I1230 09:28:23.391726 26486 net.cpp:110] Creating Layer relu11
I1230 09:28:23.391736 26486 net.cpp:477] relu11 <- eltwise11
I1230 09:28:23.391752 26486 net.cpp:419] relu11 -> eltwise11 (in-place)
I1230 09:28:23.391829 26486 net.cpp:155] Setting up relu11
I1230 09:28:23.391844 26486 net.cpp:163] Top shape: 64 256 14 14 (3211264)
I1230 09:28:23.391855 26486 layer_factory.hpp:76] Creating layer eltwise11_relu11_0_split
I1230 09:28:23.391867 26486 net.cpp:110] Creating Layer eltwise11_relu11_0_split
I1230 09:28:23.391878 26486 net.cpp:477] eltwise11_relu11_0_split <- eltwise11
I1230 09:28:23.391891 26486 net.cpp:433] eltwise11_relu11_0_split -> eltwise11_relu11_0_split_0
I1230 09:28:23.391906 26486 net.cpp:433] eltwise11_relu11_0_split -> eltwise11_relu11_0_split_1
I1230 09:28:23.391919 26486 net.cpp:155] Setting up eltwise11_relu11_0_split
I1230 09:28:23.391932 26486 net.cpp:163] Top shape: 64 256 14 14 (3211264)
I1230 09:28:23.391942 26486 net.cpp:163] Top shape: 64 256 14 14 (3211264)
I1230 09:28:23.391953 26486 layer_factory.hpp:76] Creating layer conv49
I1230 09:28:23.391970 26486 net.cpp:110] Creating Layer conv49
I1230 09:28:23.391981 26486 net.cpp:477] conv49 <- eltwise11_relu11_0_split_0
I1230 09:28:23.391998 26486 net.cpp:433] conv49 -> conv49
I1230 09:28:23.398435 26486 net.cpp:155] Setting up conv49
I1230 09:28:23.398458 26486 net.cpp:163] Top shape: 64 256 14 14 (3211264)
I1230 09:28:23.398473 26486 layer_factory.hpp:76] Creating layer bn49
I1230 09:28:23.398490 26486 net.cpp:110] Creating Layer bn49
I1230 09:28:23.398502 26486 net.cpp:477] bn49 <- conv49
I1230 09:28:23.398519 26486 net.cpp:433] bn49 -> bn49
I1230 09:28:23.398612 26486 net.cpp:155] Setting up bn49
I1230 09:28:23.398629 26486 net.cpp:163] Top shape: 64 256 14 14 (3211264)
I1230 09:28:23.398644 26486 layer_factory.hpp:76] Creating layer relu49
I1230 09:28:23.398660 26486 net.cpp:110] Creating Layer relu49
I1230 09:28:23.398671 26486 net.cpp:477] relu49 <- bn49
I1230 09:28:23.398684 26486 net.cpp:419] relu49 -> bn49 (in-place)
I1230 09:28:23.398767 26486 net.cpp:155] Setting up relu49
I1230 09:28:23.398782 26486 net.cpp:163] Top shape: 64 256 14 14 (3211264)
I1230 09:28:23.398800 26486 layer_factory.hpp:76] Creating layer conv410
I1230 09:28:23.398818 26486 net.cpp:110] Creating Layer conv410
I1230 09:28:23.398828 26486 net.cpp:477] conv410 <- bn49
I1230 09:28:23.398843 26486 net.cpp:433] conv410 -> conv410
I1230 09:28:23.405251 26486 net.cpp:155] Setting up conv410
I1230 09:28:23.405274 26486 net.cpp:163] Top shape: 64 256 14 14 (3211264)
I1230 09:28:23.405289 26486 layer_factory.hpp:76] Creating layer bn410
I1230 09:28:23.405313 26486 net.cpp:110] Creating Layer bn410
I1230 09:28:23.405326 26486 net.cpp:477] bn410 <- conv410
I1230 09:28:23.405344 26486 net.cpp:433] bn410 -> bn410
I1230 09:28:23.405441 26486 net.cpp:155] Setting up bn410
I1230 09:28:23.405459 26486 net.cpp:163] Top shape: 64 256 14 14 (3211264)
I1230 09:28:23.405475 26486 layer_factory.hpp:76] Creating layer relu410
I1230 09:28:23.405491 26486 net.cpp:110] Creating Layer relu410
I1230 09:28:23.405503 26486 net.cpp:477] relu410 <- bn410
I1230 09:28:23.405517 26486 net.cpp:419] relu410 -> bn410 (in-place)
I1230 09:28:23.405606 26486 net.cpp:155] Setting up relu410
I1230 09:28:23.405623 26486 net.cpp:163] Top shape: 64 256 14 14 (3211264)
I1230 09:28:23.405634 26486 layer_factory.hpp:76] Creating layer eltwise12
I1230 09:28:23.405649 26486 net.cpp:110] Creating Layer eltwise12
I1230 09:28:23.405659 26486 net.cpp:477] eltwise12 <- eltwise11_relu11_0_split_1
I1230 09:28:23.405673 26486 net.cpp:477] eltwise12 <- bn410
I1230 09:28:23.405684 26486 net.cpp:433] eltwise12 -> eltwise12
I1230 09:28:23.405700 26486 net.cpp:155] Setting up eltwise12
I1230 09:28:23.405714 26486 net.cpp:163] Top shape: 64 256 14 14 (3211264)
I1230 09:28:23.405725 26486 layer_factory.hpp:76] Creating layer relu12
I1230 09:28:23.405737 26486 net.cpp:110] Creating Layer relu12
I1230 09:28:23.405747 26486 net.cpp:477] relu12 <- eltwise12
I1230 09:28:23.405762 26486 net.cpp:419] relu12 -> eltwise12 (in-place)
I1230 09:28:23.405954 26486 net.cpp:155] Setting up relu12
I1230 09:28:23.405973 26486 net.cpp:163] Top shape: 64 256 14 14 (3211264)
I1230 09:28:23.405984 26486 layer_factory.hpp:76] Creating layer eltwise12_relu12_0_split
I1230 09:28:23.405998 26486 net.cpp:110] Creating Layer eltwise12_relu12_0_split
I1230 09:28:23.406008 26486 net.cpp:477] eltwise12_relu12_0_split <- eltwise12
I1230 09:28:23.406024 26486 net.cpp:433] eltwise12_relu12_0_split -> eltwise12_relu12_0_split_0
I1230 09:28:23.406039 26486 net.cpp:433] eltwise12_relu12_0_split -> eltwise12_relu12_0_split_1
I1230 09:28:23.406054 26486 net.cpp:433] eltwise12_relu12_0_split -> eltwise12_relu12_0_split_2
I1230 09:28:23.406069 26486 net.cpp:155] Setting up eltwise12_relu12_0_split
I1230 09:28:23.406083 26486 net.cpp:163] Top shape: 64 256 14 14 (3211264)
I1230 09:28:23.406095 26486 net.cpp:163] Top shape: 64 256 14 14 (3211264)
I1230 09:28:23.406106 26486 net.cpp:163] Top shape: 64 256 14 14 (3211264)
I1230 09:28:23.406116 26486 layer_factory.hpp:76] Creating layer conv411
I1230 09:28:23.406131 26486 net.cpp:110] Creating Layer conv411
I1230 09:28:23.406142 26486 net.cpp:477] conv411 <- eltwise12_relu12_0_split_0
I1230 09:28:23.406158 26486 net.cpp:433] conv411 -> conv411
I1230 09:28:23.411671 26486 net.cpp:155] Setting up conv411
I1230 09:28:23.411696 26486 net.cpp:163] Top shape: 64 256 14 14 (3211264)
I1230 09:28:23.411711 26486 layer_factory.hpp:76] Creating layer bn411
I1230 09:28:23.411756 26486 net.cpp:110] Creating Layer bn411
I1230 09:28:23.411769 26486 net.cpp:477] bn411 <- conv411
I1230 09:28:23.411802 26486 net.cpp:433] bn411 -> bn411
I1230 09:28:23.411903 26486 net.cpp:155] Setting up bn411
I1230 09:28:23.411922 26486 net.cpp:163] Top shape: 64 256 14 14 (3211264)
I1230 09:28:23.411948 26486 layer_factory.hpp:76] Creating layer relu411
I1230 09:28:23.411974 26486 net.cpp:110] Creating Layer relu411
I1230 09:28:23.411989 26486 net.cpp:477] relu411 <- bn411
I1230 09:28:23.412008 26486 net.cpp:419] relu411 -> bn411 (in-place)
I1230 09:28:23.412081 26486 net.cpp:155] Setting up relu411
I1230 09:28:23.412098 26486 net.cpp:163] Top shape: 64 256 14 14 (3211264)
I1230 09:28:23.412109 26486 layer_factory.hpp:76] Creating layer conv412
I1230 09:28:23.412124 26486 net.cpp:110] Creating Layer conv412
I1230 09:28:23.412135 26486 net.cpp:477] conv412 <- bn411
I1230 09:28:23.412150 26486 net.cpp:433] conv412 -> conv412
I1230 09:28:23.417682 26486 net.cpp:155] Setting up conv412
I1230 09:28:23.417703 26486 net.cpp:163] Top shape: 64 256 14 14 (3211264)
I1230 09:28:23.417721 26486 layer_factory.hpp:76] Creating layer bn412
I1230 09:28:23.417737 26486 net.cpp:110] Creating Layer bn412
I1230 09:28:23.417748 26486 net.cpp:477] bn412 <- conv412
I1230 09:28:23.417765 26486 net.cpp:433] bn412 -> bn412
I1230 09:28:23.417870 26486 net.cpp:155] Setting up bn412
I1230 09:28:23.417886 26486 net.cpp:163] Top shape: 64 256 14 14 (3211264)
I1230 09:28:23.417902 26486 layer_factory.hpp:76] Creating layer relu412
I1230 09:28:23.417917 26486 net.cpp:110] Creating Layer relu412
I1230 09:28:23.417927 26486 net.cpp:477] relu412 <- bn412
I1230 09:28:23.417939 26486 net.cpp:419] relu412 -> bn412 (in-place)
I1230 09:28:23.418026 26486 net.cpp:155] Setting up relu412
I1230 09:28:23.418042 26486 net.cpp:163] Top shape: 64 256 14 14 (3211264)
I1230 09:28:23.418054 26486 layer_factory.hpp:76] Creating layer eltwise13
I1230 09:28:23.418068 26486 net.cpp:110] Creating Layer eltwise13
I1230 09:28:23.418078 26486 net.cpp:477] eltwise13 <- eltwise12_relu12_0_split_1
I1230 09:28:23.418092 26486 net.cpp:477] eltwise13 <- bn412
I1230 09:28:23.418103 26486 net.cpp:433] eltwise13 -> eltwise13
I1230 09:28:23.418118 26486 net.cpp:155] Setting up eltwise13
I1230 09:28:23.418131 26486 net.cpp:163] Top shape: 64 256 14 14 (3211264)
I1230 09:28:23.418141 26486 layer_factory.hpp:76] Creating layer relu13
I1230 09:28:23.418154 26486 net.cpp:110] Creating Layer relu13
I1230 09:28:23.418164 26486 net.cpp:477] relu13 <- eltwise13
I1230 09:28:23.418179 26486 net.cpp:419] relu13 -> eltwise13 (in-place)
I1230 09:28:23.418246 26486 net.cpp:155] Setting up relu13
I1230 09:28:23.418262 26486 net.cpp:163] Top shape: 64 256 14 14 (3211264)
I1230 09:28:23.418272 26486 layer_factory.hpp:76] Creating layer relu13_p
I1230 09:28:23.418290 26486 net.cpp:110] Creating Layer relu13_p
I1230 09:28:23.418301 26486 net.cpp:477] relu13_p <- eltwise12_relu12_0_split_2
I1230 09:28:23.418318 26486 net.cpp:433] relu13_p -> relu13_p
I1230 09:28:23.420081 26486 net.cpp:155] Setting up relu13_p
I1230 09:28:23.420104 26486 net.cpp:163] Top shape: 64 512 7 7 (1605632)
I1230 09:28:23.420119 26486 layer_factory.hpp:76] Creating layer conv51
I1230 09:28:23.420136 26486 net.cpp:110] Creating Layer conv51
I1230 09:28:23.420148 26486 net.cpp:477] conv51 <- eltwise13
I1230 09:28:23.420166 26486 net.cpp:433] conv51 -> conv51
I1230 09:28:23.430960 26486 net.cpp:155] Setting up conv51
I1230 09:28:23.430984 26486 net.cpp:163] Top shape: 64 512 7 7 (1605632)
I1230 09:28:23.431000 26486 layer_factory.hpp:76] Creating layer bn51
I1230 09:28:23.431021 26486 net.cpp:110] Creating Layer bn51
I1230 09:28:23.431032 26486 net.cpp:477] bn51 <- conv51
I1230 09:28:23.431046 26486 net.cpp:433] bn51 -> bn51
I1230 09:28:23.431141 26486 net.cpp:155] Setting up bn51
I1230 09:28:23.431159 26486 net.cpp:163] Top shape: 64 512 7 7 (1605632)
I1230 09:28:23.431174 26486 layer_factory.hpp:76] Creating layer relu51
I1230 09:28:23.431188 26486 net.cpp:110] Creating Layer relu51
I1230 09:28:23.431198 26486 net.cpp:477] relu51 <- bn51
I1230 09:28:23.431213 26486 net.cpp:419] relu51 -> bn51 (in-place)
I1230 09:28:23.431388 26486 net.cpp:155] Setting up relu51
I1230 09:28:23.431407 26486 net.cpp:163] Top shape: 64 512 7 7 (1605632)
I1230 09:28:23.431418 26486 layer_factory.hpp:76] Creating layer conv52
I1230 09:28:23.431457 26486 net.cpp:110] Creating Layer conv52
I1230 09:28:23.431470 26486 net.cpp:477] conv52 <- bn51
I1230 09:28:23.431486 26486 net.cpp:433] conv52 -> conv52
I1230 09:28:23.455790 26486 net.cpp:155] Setting up conv52
I1230 09:28:23.455835 26486 net.cpp:163] Top shape: 64 512 7 7 (1605632)
I1230 09:28:23.455854 26486 layer_factory.hpp:76] Creating layer bn52
I1230 09:28:23.455878 26486 net.cpp:110] Creating Layer bn52
I1230 09:28:23.455894 26486 net.cpp:477] bn52 <- conv52
I1230 09:28:23.455926 26486 net.cpp:433] bn52 -> bn52
I1230 09:28:23.456030 26486 net.cpp:155] Setting up bn52
I1230 09:28:23.456051 26486 net.cpp:163] Top shape: 64 512 7 7 (1605632)
I1230 09:28:23.456089 26486 layer_factory.hpp:76] Creating layer relu52
I1230 09:28:23.456110 26486 net.cpp:110] Creating Layer relu52
I1230 09:28:23.456125 26486 net.cpp:477] relu52 <- bn52
I1230 09:28:23.456142 26486 net.cpp:419] relu52 -> bn52 (in-place)
I1230 09:28:23.456225 26486 net.cpp:155] Setting up relu52
I1230 09:28:23.456243 26486 net.cpp:163] Top shape: 64 512 7 7 (1605632)
I1230 09:28:23.456259 26486 layer_factory.hpp:76] Creating layer eltwise14
I1230 09:28:23.456277 26486 net.cpp:110] Creating Layer eltwise14
I1230 09:28:23.456291 26486 net.cpp:477] eltwise14 <- relu13_p
I1230 09:28:23.456306 26486 net.cpp:477] eltwise14 <- bn52
I1230 09:28:23.456322 26486 net.cpp:433] eltwise14 -> eltwise14
I1230 09:28:23.456342 26486 net.cpp:155] Setting up eltwise14
I1230 09:28:23.456382 26486 net.cpp:163] Top shape: 64 512 7 7 (1605632)
I1230 09:28:23.456398 26486 layer_factory.hpp:76] Creating layer relu14
I1230 09:28:23.456413 26486 net.cpp:110] Creating Layer relu14
I1230 09:28:23.456428 26486 net.cpp:477] relu14 <- eltwise14
I1230 09:28:23.456446 26486 net.cpp:419] relu14 -> eltwise14 (in-place)
I1230 09:28:23.456522 26486 net.cpp:155] Setting up relu14
I1230 09:28:23.456540 26486 net.cpp:163] Top shape: 64 512 7 7 (1605632)
I1230 09:28:23.456557 26486 layer_factory.hpp:76] Creating layer eltwise14_relu14_0_split
I1230 09:28:23.456574 26486 net.cpp:110] Creating Layer eltwise14_relu14_0_split
I1230 09:28:23.456588 26486 net.cpp:477] eltwise14_relu14_0_split <- eltwise14
I1230 09:28:23.456609 26486 net.cpp:433] eltwise14_relu14_0_split -> eltwise14_relu14_0_split_0
I1230 09:28:23.456625 26486 net.cpp:433] eltwise14_relu14_0_split -> eltwise14_relu14_0_split_1
I1230 09:28:23.456645 26486 net.cpp:155] Setting up eltwise14_relu14_0_split
I1230 09:28:23.456660 26486 net.cpp:163] Top shape: 64 512 7 7 (1605632)
I1230 09:28:23.456673 26486 net.cpp:163] Top shape: 64 512 7 7 (1605632)
I1230 09:28:23.456686 26486 layer_factory.hpp:76] Creating layer conv53
I1230 09:28:23.456707 26486 net.cpp:110] Creating Layer conv53
I1230 09:28:23.456720 26486 net.cpp:477] conv53 <- eltwise14_relu14_0_split_0
I1230 09:28:23.456738 26486 net.cpp:433] conv53 -> conv53
I1230 09:28:23.480311 26486 net.cpp:155] Setting up conv53
I1230 09:28:23.480381 26486 net.cpp:163] Top shape: 64 512 7 7 (1605632)
I1230 09:28:23.480401 26486 layer_factory.hpp:76] Creating layer bn53
I1230 09:28:23.480448 26486 net.cpp:110] Creating Layer bn53
I1230 09:28:23.480464 26486 net.cpp:477] bn53 <- conv53
I1230 09:28:23.480494 26486 net.cpp:433] bn53 -> bn53
I1230 09:28:23.480607 26486 net.cpp:155] Setting up bn53
I1230 09:28:23.480628 26486 net.cpp:163] Top shape: 64 512 7 7 (1605632)
I1230 09:28:23.480670 26486 layer_factory.hpp:76] Creating layer relu53
I1230 09:28:23.480697 26486 net.cpp:110] Creating Layer relu53
I1230 09:28:23.480711 26486 net.cpp:477] relu53 <- bn53
I1230 09:28:23.480731 26486 net.cpp:419] relu53 -> bn53 (in-place)
I1230 09:28:23.480917 26486 net.cpp:155] Setting up relu53
I1230 09:28:23.480949 26486 net.cpp:163] Top shape: 64 512 7 7 (1605632)
I1230 09:28:23.480965 26486 layer_factory.hpp:76] Creating layer conv54
I1230 09:28:23.480985 26486 net.cpp:110] Creating Layer conv54
I1230 09:28:23.480998 26486 net.cpp:477] conv54 <- bn53
I1230 09:28:23.481024 26486 net.cpp:433] conv54 -> conv54
I1230 09:28:23.502027 26486 net.cpp:155] Setting up conv54
I1230 09:28:23.502069 26486 net.cpp:163] Top shape: 64 512 7 7 (1605632)
I1230 09:28:23.502087 26486 layer_factory.hpp:76] Creating layer bn54
I1230 09:28:23.502130 26486 net.cpp:110] Creating Layer bn54
I1230 09:28:23.502151 26486 net.cpp:477] bn54 <- conv54
I1230 09:28:23.502184 26486 net.cpp:433] bn54 -> bn54
I1230 09:28:23.502292 26486 net.cpp:155] Setting up bn54
I1230 09:28:23.502311 26486 net.cpp:163] Top shape: 64 512 7 7 (1605632)
I1230 09:28:23.502341 26486 layer_factory.hpp:76] Creating layer relu54
I1230 09:28:23.502360 26486 net.cpp:110] Creating Layer relu54
I1230 09:28:23.502375 26486 net.cpp:477] relu54 <- bn54
I1230 09:28:23.502390 26486 net.cpp:419] relu54 -> bn54 (in-place)
I1230 09:28:23.502470 26486 net.cpp:155] Setting up relu54
I1230 09:28:23.502490 26486 net.cpp:163] Top shape: 64 512 7 7 (1605632)
I1230 09:28:23.502503 26486 layer_factory.hpp:76] Creating layer eltwise15
I1230 09:28:23.502523 26486 net.cpp:110] Creating Layer eltwise15
I1230 09:28:23.502538 26486 net.cpp:477] eltwise15 <- eltwise14_relu14_0_split_1
I1230 09:28:23.502554 26486 net.cpp:477] eltwise15 <- bn54
I1230 09:28:23.502570 26486 net.cpp:433] eltwise15 -> eltwise15
I1230 09:28:23.502593 26486 net.cpp:155] Setting up eltwise15
I1230 09:28:23.502607 26486 net.cpp:163] Top shape: 64 512 7 7 (1605632)
I1230 09:28:23.502621 26486 layer_factory.hpp:76] Creating layer relu15
I1230 09:28:23.502640 26486 net.cpp:110] Creating Layer relu15
I1230 09:28:23.502678 26486 net.cpp:477] relu15 <- eltwise15
I1230 09:28:23.502694 26486 net.cpp:419] relu15 -> eltwise15 (in-place)
I1230 09:28:23.502768 26486 net.cpp:155] Setting up relu15
I1230 09:28:23.502786 26486 net.cpp:163] Top shape: 64 512 7 7 (1605632)
I1230 09:28:23.502802 26486 layer_factory.hpp:76] Creating layer eltwise15_relu15_0_split
I1230 09:28:23.502820 26486 net.cpp:110] Creating Layer eltwise15_relu15_0_split
I1230 09:28:23.502835 26486 net.cpp:477] eltwise15_relu15_0_split <- eltwise15
I1230 09:28:23.502853 26486 net.cpp:433] eltwise15_relu15_0_split -> eltwise15_relu15_0_split_0
I1230 09:28:23.502871 26486 net.cpp:433] eltwise15_relu15_0_split -> eltwise15_relu15_0_split_1
I1230 09:28:23.502892 26486 net.cpp:155] Setting up eltwise15_relu15_0_split
I1230 09:28:23.502910 26486 net.cpp:163] Top shape: 64 512 7 7 (1605632)
I1230 09:28:23.502924 26486 net.cpp:163] Top shape: 64 512 7 7 (1605632)
I1230 09:28:23.502938 26486 layer_factory.hpp:76] Creating layer conv55
I1230 09:28:23.502959 26486 net.cpp:110] Creating Layer conv55
I1230 09:28:23.502972 26486 net.cpp:477] conv55 <- eltwise15_relu15_0_split_0
I1230 09:28:23.502990 26486 net.cpp:433] conv55 -> conv55
I1230 09:28:23.525564 26486 net.cpp:155] Setting up conv55
I1230 09:28:23.525625 26486 net.cpp:163] Top shape: 64 512 7 7 (1605632)
I1230 09:28:23.525645 26486 layer_factory.hpp:76] Creating layer bn55
I1230 09:28:23.525668 26486 net.cpp:110] Creating Layer bn55
I1230 09:28:23.525682 26486 net.cpp:477] bn55 <- conv55
I1230 09:28:23.525702 26486 net.cpp:433] bn55 -> bn55
I1230 09:28:23.525827 26486 net.cpp:155] Setting up bn55
I1230 09:28:23.525846 26486 net.cpp:163] Top shape: 64 512 7 7 (1605632)
I1230 09:28:23.525862 26486 layer_factory.hpp:76] Creating layer relu55
I1230 09:28:23.525877 26486 net.cpp:110] Creating Layer relu55
I1230 09:28:23.525888 26486 net.cpp:477] relu55 <- bn55
I1230 09:28:23.525902 26486 net.cpp:419] relu55 -> bn55 (in-place)
I1230 09:28:23.525984 26486 net.cpp:155] Setting up relu55
I1230 09:28:23.526000 26486 net.cpp:163] Top shape: 64 512 7 7 (1605632)
I1230 09:28:23.526011 26486 layer_factory.hpp:76] Creating layer conv56
I1230 09:28:23.526028 26486 net.cpp:110] Creating Layer conv56
I1230 09:28:23.526038 26486 net.cpp:477] conv56 <- bn55
I1230 09:28:23.526057 26486 net.cpp:433] conv56 -> conv56
I1230 09:28:23.548291 26486 net.cpp:155] Setting up conv56
I1230 09:28:23.548349 26486 net.cpp:163] Top shape: 64 512 7 7 (1605632)
I1230 09:28:23.548368 26486 layer_factory.hpp:76] Creating layer bn56
I1230 09:28:23.548444 26486 net.cpp:110] Creating Layer bn56
I1230 09:28:23.548460 26486 net.cpp:477] bn56 <- conv56
I1230 09:28:23.548477 26486 net.cpp:433] bn56 -> bn56
I1230 09:28:23.548596 26486 net.cpp:155] Setting up bn56
I1230 09:28:23.548630 26486 net.cpp:163] Top shape: 64 512 7 7 (1605632)
I1230 09:28:23.548660 26486 layer_factory.hpp:76] Creating layer relu56
I1230 09:28:23.548681 26486 net.cpp:110] Creating Layer relu56
I1230 09:28:23.548696 26486 net.cpp:477] relu56 <- bn56
I1230 09:28:23.548713 26486 net.cpp:419] relu56 -> bn56 (in-place)
I1230 09:28:23.548909 26486 net.cpp:155] Setting up relu56
I1230 09:28:23.548933 26486 net.cpp:163] Top shape: 64 512 7 7 (1605632)
I1230 09:28:23.548948 26486 layer_factory.hpp:76] Creating layer eltwise16
I1230 09:28:23.548980 26486 net.cpp:110] Creating Layer eltwise16
I1230 09:28:23.548995 26486 net.cpp:477] eltwise16 <- eltwise15_relu15_0_split_1
I1230 09:28:23.549012 26486 net.cpp:477] eltwise16 <- bn56
I1230 09:28:23.549034 26486 net.cpp:433] eltwise16 -> eltwise16
I1230 09:28:23.549057 26486 net.cpp:155] Setting up eltwise16
I1230 09:28:23.549073 26486 net.cpp:163] Top shape: 64 512 7 7 (1605632)
I1230 09:28:23.549088 26486 layer_factory.hpp:76] Creating layer relu16
I1230 09:28:23.549104 26486 net.cpp:110] Creating Layer relu16
I1230 09:28:23.549119 26486 net.cpp:477] relu16 <- eltwise16
I1230 09:28:23.549137 26486 net.cpp:419] relu16 -> eltwise16 (in-place)
I1230 09:28:23.549213 26486 net.cpp:155] Setting up relu16
I1230 09:28:23.549232 26486 net.cpp:163] Top shape: 64 512 7 7 (1605632)
I1230 09:28:23.549268 26486 layer_factory.hpp:76] Creating layer pool5
I1230 09:28:23.549309 26486 net.cpp:110] Creating Layer pool5
I1230 09:28:23.549338 26486 net.cpp:477] pool5 <- eltwise16
I1230 09:28:23.549360 26486 net.cpp:433] pool5 -> pool5
I1230 09:28:23.549446 26486 net.cpp:155] Setting up pool5
I1230 09:28:23.549465 26486 net.cpp:163] Top shape: 64 512 1 1 (32768)
I1230 09:28:23.549480 26486 layer_factory.hpp:76] Creating layer ip1
I1230 09:28:23.549509 26486 net.cpp:110] Creating Layer ip1
I1230 09:28:23.549523 26486 net.cpp:477] ip1 <- pool5
I1230 09:28:23.549541 26486 net.cpp:433] ip1 -> ip1
I1230 09:28:23.554211 26486 net.cpp:155] Setting up ip1
I1230 09:28:23.554235 26486 net.cpp:163] Top shape: 64 1000 (64000)
I1230 09:28:23.554251 26486 layer_factory.hpp:76] Creating layer loss
I1230 09:28:23.554273 26486 net.cpp:110] Creating Layer loss
I1230 09:28:23.554286 26486 net.cpp:477] loss <- ip1
I1230 09:28:23.554306 26486 net.cpp:477] loss <- label
I1230 09:28:23.554321 26486 net.cpp:433] loss -> loss
I1230 09:28:23.554347 26486 layer_factory.hpp:76] Creating layer loss
I1230 09:28:23.555073 26486 net.cpp:155] Setting up loss
…
I1230 09:28:23.561961 26486 net.cpp:339] The NetState phase (1) differed from the phase (0) specified by a rule in layer loss
I1230 09:28:23.562711 26486 net.cpp:50] Initializing net from parameters: 
name: "RsdNet34v2"
state {
  phase: TEST
}
layer {
  name: "data"
  type: "Data"
  top: "data"
  top: "label"
  include {
    phase: TEST
  }
  transform_param {
    scale: 0.0039215689
    mirror: true
    crop_size: 224
    mean_file: "./ilsvrc12_mean.binaryproto"
  }
  data_param {
    source: "./ilsvrc12_test_lmdb"
    batch_size: 32
    backend: LMDB
  }
}
layer {
  name: "conv01"
  type: "Convolution"
  bottom: "data"
  top: "conv01"
  param {
    lr_mult: 1
  }
  param {
    lr_mult: 2
  }
  convolution_param {
    num_output: 64
    pad: 3
    kernel_size: 7
    stride: 2
    weight_filler {
      type: "xavier"
    }
    bias_filler {
      type: "constant"
    }
  }
}
layer {
  name: "bn01"
  type: "BN"
  bottom: "conv01"
  top: "bn01"
  param {
    lr_mult: 1
    decay_mult: 0
  }
  param {
    lr_mult: 1
    decay_mult: 0
  }
  bn_param {
    scale_filler {
      type: "constant"
      value: 1
    }
    shift_filler {
      type: "constant"
      value: 0
    }
  }
}
layer {
  name: "relu01"
  type: "ReLU"
  bottom: "bn01"
  top: "bn01"
}
layer {
  name: "pool1"
  type: "Pooling"
  bottom: "bn01"
  top: "pool1"
  pooling_param {
    pool: MAX
    kernel_size: 3
    stride: 2
  }
}
layer {
  name: "conv21"
  type: "Convolution"
  bottom: "pool1"
  top: "conv21"
  param {
    lr_mult: 1
  }
  param {
    lr_mult: 2
  }
  convolution_param {
    num_output: 64
    pad: 1
    kernel_size: 3
    stride: 1
    weight_filler {
      type: "xavier"
    }
    bias_filler {
      type: "constant"
    }
  }
}
layer {
  name: "bn21"
  type: "BN"
  bottom: "conv21"
  top: "bn21"
  param {
    lr_mult: 1
    decay_mult: 0
  }
  param {
    lr_mult: 1
    decay_mult: 0
  }
  bn_param {
    scale_filler {
      type: "constant"
      value: 1
    }
    shift_filler {
      type: "constant"
      value: 0
    }
  }
}
layer {
  name: "relu21"
  type: "ReLU"
  bottom: "bn21"
  top: "bn21"
}
layer {
  name: "conv22"
  type: "Convolution"
  bottom: "bn21"
  top: "conv22"
  param {
    lr_mult: 1
  }
  param {
    lr_mult: 2
  }
  convolution_param {
    num_output: 64
    pad: 1
    kernel_size: 3
    stride: 1
    weight_filler {
      type: "xavier"
    }
    bias_filler {
      type: "constant"
    }
  }
}
layer {
  name: "bn22"
  type: "BN"
  bottom: "conv22"
  top: "bn22"
  param {
    lr_mult: 1
    decay_mult: 0
  }
  param {
    lr_mult: 1
    decay_mult: 0
  }
  bn_param {
    scale_filler {
      type: "constant"
      value: 1
    }
    shift_filler {
      type: "constant"
      value: 0
    }
  }
}
layer {
  name: "relu22"
  type: "ReLU"
  bottom: "bn22"
  top: "bn22"
}
layer {
  name: "eltwise1"
  type: "Eltwise"
  bottom: "pool1"
  bottom: "bn22"
  top: "eltwise1"
  eltwise_param {
    operation: SUM
  }
}
layer {
  name: "relu1"
  type: "ReLU"
  bottom: "eltwise1"
  top: "eltwise1"
}
layer {
  name: "conv23"
  type: "Convolution"
  bottom: "eltwise1"
  top: "conv23"
  param {
    lr_mult: 1
  }
  param {
    lr_mult: 2
  }
  convolution_param {
    num_output: 64
    pad: 1
    kernel_size: 3
    stride: 1
    weight_filler {
      type: "xavier"
    }
    bias_filler {
      type: "constant"
    }
  }
}
layer {
  name: "bn23"
  type: "BN"
  bottom: "conv23"
  top: "bn23"
  param {
    lr_mult: 1
    decay_mult: 0
  }
  param {
    lr_mult: 1
    decay_mult: 0
  }
  bn_param {
    scale_filler {
      type: "constant"
      value: 1
    }
    shift_filler {
      type: "constant"
      value: 0
    }
  }
}
layer {
  name: "relu23"
  type: "ReLU"
  bottom: "bn23"
  top: "bn23"
}
layer {
  name: "conv24"
  type: "Convolution"
  bottom: "bn23"
  top: "conv24"
  param {
    lr_mult: 1
  }
  param {
    lr_mult: 2
  }
  convolution_param {
    num_output: 64
    pad: 1
    kernel_size: 3
    stride: 1
    weight_filler {
      type: "xavier"
    }
    bias_filler {
      type: "constant"
    }
  }
}
layer {
  name: "bn24"
  type: "BN"
  bottom: "conv24"
  top: "bn24"
  param {
    lr_mult: 1
    decay_mult: 0
  }
  param {
    lr_mult: 1
    decay_mult: 0
  }
  bn_param {
    scale_filler {
      type: "constant"
      value: 1
    }
    shift_filler {
      type: "constant"
      value: 0
    }
  }
}
layer {
  name: "relu24"
  type: "ReLU"
  bottom: "bn24"
  top: "bn24"
}
layer {
  name: "eltwise2"
  type: "Eltwise"
  bottom: "eltwise1"
  bottom: "bn24"
  top: "eltwise2"
  eltwise_param {
    operation: SUM
  }
}
layer {
  name: "relu2"
  type: "ReLU"
  bottom: "eltwise2"
  top: "eltwise2"
}
layer {
  name: "conv25"
  type: "Convolution"
  bottom: "bn24"
  top: "conv25"
  param {
    lr_mult: 1
  }
  param {
    lr_mult: 2
  }
  convolution_param {
    num_output: 64
    pad: 1
    kernel_size: 3
    stride: 1
    weight_filler {
      type: "xavier"
    }
    bias_filler {
      type: "constant"
    }
  }
}
layer {
  name: "bn25"
  type: "BN"
  bottom: "conv25"
  top: "bn25"
  param {
    lr_mult: 1
    decay_mult: 0
  }
  param {
    lr_mult: 1
    decay_mult: 0
  }
  bn_param {
    scale_filler {
      type: "constant"
      value: 1
    }
    shift_filler {
      type: "constant"
      value: 0
    }
  }
}
layer {
  name: "relu25"
  type: "ReLU"
  bottom: "bn25"
  top: "bn25"
}
layer {
  name: "conv26"
  type: "Convolution"
  bottom: "bn25"
  top: "conv26"
  param {
    lr_mult: 1
  }
  param {
    lr_mult: 2
  }
  convolution_param {
    num_output: 64
    pad: 1
    kernel_size: 3
    stride: 1
    weight_filler {
      type: "xavier"
    }
    bias_filler {
      type: "constant"
    }
  }
}
layer {
  name: "bn26"
  type: "BN"
  bottom: "conv26"
  top: "bn26"
  param {
    lr_mult: 1
    decay_mult: 0
  }
  param {
    lr_mult: 1
    decay_mult: 0
  }
  bn_param {
    scale_filler {
      type: "constant"
      value: 1
    }
    shift_filler {
      type: "constant"
      value: 0
    }
  }
}
layer {
  name: "relu26"
  type: "ReLU"
  bottom: "bn26"
  top: "bn26"
}
layer {
  name: "eltwise3"
  type: "Eltwise"
  bottom: "eltwise2"
  bottom: "bn26"
  top: "eltwise3"
  eltwise_param {
    operation: SUM
  }
}
layer {
  name: "relu3"
  type: "ReLU"
  bottom: "eltwise3"
  top: "eltwise3"
}
layer {
  name: "relu3_p"
  type: "Convolution"
  bottom: "eltwise3"
  top: "relu3_p"
  param {
    lr_mult: 1
  }
  param {
    lr_mult: 2
  }
  convolution_param {
    num_output: 128
    pad: 0
    kernel_size: 1
    stride: 2
    weight_filler {
      type: "xavier"
    }
    bias_filler {
      type: "constant"
    }
  }
}
layer {
  name: "conv31"
  type: "Convolution"
  bottom: "eltwise3"
  top: "conv31"
  param {
    lr_mult: 1
  }
  param {
    lr_mult: 2
  }
  convolution_param {
    num_output: 128
    pad: 1
    kernel_size: 3
    stride: 2
    weight_filler {
      type: "xavier"
    }
    bias_filler {
      type: "constant"
    }
  }
}
layer {
  name: "bn31"
  type: "BN"
  bottom: "conv31"
  top: "bn31"
  param {
    lr_mult: 1
    decay_mult: 0
  }
  param {
    lr_mult: 1
    decay_mult: 0
  }
  bn_param {
    scale_filler {
      type: "constant"
      value: 1
    }
    shift_filler {
      type: "constant"
      value: 0
    }
  }
}
layer {
  name: "relu31"
  type: "ReLU"
  bottom: "bn31"
  top: "bn31"
}
layer {
  name: "conv32"
  type: "Convolution"
  bottom: "bn31"
  top: "conv32"
  param {
    lr_mult: 1
  }
  param {
    lr_mult: 2
  }
  convolution_param {
    num_output: 128
    pad: 1
    kernel_size: 3
    stride: 1
    weight_filler {
      type: "xavier"
    }
    bias_filler {
      type: "constant"
    }
  }
}
layer {
  name: "bn32"
  type: "BN"
  bottom: "conv32"
  top: "bn32"
  param {
    lr_mult: 1
    decay_mult: 0
  }
  param {
    lr_mult: 1
    decay_mult: 0
  }
  bn_param {
    scale_filler {
      type: "constant"
      value: 1
    }
    shift_filler {
      type: "constant"
      value: 0
    }
  }
}
layer {
  name: "relu32"
  type: "ReLU"
  bottom: "bn32"
  top: "bn32"
}
layer {
  name: "eltwise4"
  type: "Eltwise"
  bottom: "relu3_p"
  bottom: "bn32"
  top: "eltwise4"
  eltwise_param {
    operation: SUM
  }
}
layer {
  name: "relu4"
  type: "ReLU"
  bottom: "eltwise4"
  top: "eltwise4"
}
layer {
  name: "conv33"
  type: "Convolution"
  bottom: "eltwise4"
  top: "conv33"
  param {
    lr_mult: 1
  }
  param {
    lr_mult: 2
  }
  convolution_param {
    num_output: 128
    pad: 1
    kernel_size: 3
    stride: 1
    weight_filler {
      type: "xavier"
    }
    bias_filler {
      type: "constant"
    }
  }
}
layer {
  name: "bn33"
  type: "BN"
  bottom: "conv33"
  top: "bn33"
  param {
    lr_mult: 1
    decay_mult: 0
  }
  param {
    lr_mult: 1
    decay_mult: 0
  }
  bn_param {
    scale_filler {
      type: "constant"
      value: 1
    }
    shift_filler {
      type: "constant"
      value: 0
    }
  }
}
layer {
  name: "relu33"
  type: "ReLU"
  bottom: "bn33"
  top: "bn33"
}
layer {
  name: "conv34"
  type: "Convolution"
  bottom: "bn33"
  top: "conv34"
  param {
    lr_mult: 1
  }
  param {
    lr_mult: 2
  }
  convolution_param {
    num_output: 128
    pad: 1
    kernel_size: 3
    stride: 1
    weight_filler {
      type: "xavier"
    }
    bias_filler {
      type: "constant"
    }
  }
}
layer {
  name: "bn34"
  type: "BN"
  bottom: "conv34"
  top: "bn34"
  param {
    lr_mult: 1
    decay_mult: 0
  }
  param {
    lr_mult: 1
    decay_mult: 0
  }
  bn_param {
    scale_filler {
      type: "constant"
      value: 1
    }
    shift_filler {
      type: "constant"
      value: 0
    }
  }
}
layer {
  name: "relu34"
  type: "ReLU"
  bottom: "bn34"
  top: "bn34"
}
layer {
  name: "eltwise5"
  type: "Eltwise"
  bottom: "eltwise4"
  bottom: "bn34"
  top: "eltwise5"
  eltwise_param {
    operation: SUM
  }
}
layer {
  name: "relu5"
  type: "ReLU"
  bottom: "eltwise5"
  top: "eltwise5"
}
layer {
  name: "conv35"
  type: "Convolution"
  bottom: "eltwise5"
  top: "conv35"
  param {
    lr_mult: 1
  }
  param {
    lr_mult: 2
  }
  convolution_param {
    num_output: 128
    pad: 1
    kernel_size: 3
    stride: 1
    weight_filler {
      type: "xavier"
    }
    bias_filler {
      type: "constant"
    }
  }
}
layer {
  name: "bn35"
  type: "BN"
  bottom: "conv35"
  top: "bn35"
  param {
    lr_mult: 1
    decay_mult: 0
  }
  param {
    lr_mult: 1
    decay_mult: 0
  }
  bn_param {
    scale_filler {
      type: "constant"
      value: 1
    }
    shift_filler {
      type: "constant"
      value: 0
    }
  }
}
layer {
  name: "relu35"
  type: "ReLU"
  bottom: "bn35"
  top: "bn35"
}
layer {
  name: "conv36"
  type: "Convolution"
  bottom: "bn35"
  top: "conv36"
  param {
    lr_mult: 1
  }
  param {
    lr_mult: 2
  }
  convolution_param {
    num_output: 128
    pad: 1
    kernel_size: 3
    stride: 1
    weight_filler {
      type: "xavier"
    }
    bias_filler {
      type: "constant"
    }
  }
}
layer {
  name: "bn36"
  type: "BN"
  bottom: "conv36"
  top: "bn36"
  param {
    lr_mult: 1
    decay_mult: 0
  }
  param {
    lr_mult: 1
    decay_mult: 0
  }
  bn_param {
    scale_filler {
      type: "constant"
      value: 1
    }
    shift_filler {
      type: "constant"
      value: 0
    }
  }
}
layer {
  name: "relu36"
  type: "ReLU"
  bottom: "bn36"
  top: "bn36"
}
layer {
  name: "eltwise6"
  type: "Eltwise"
  bottom: "eltwise5"
  bottom: "bn36"
  top: "eltwise6"
  eltwise_param {
    operation: SUM
  }
}
layer {
  name: "relu6"
  type: "ReLU"
  bottom: "eltwise6"
  top: "eltwise6"
}
layer {
  name: "conv37"
  type: "Convolution"
  bottom: "eltwise6"
  top: "conv37"
  param {
    lr_mult: 1
  }
  param {
    lr_mult: 2
  }
  convolution_param {
    num_output: 128
    pad: 1
    kernel_size: 3
    stride: 1
    weight_filler {
      type: "xavier"
    }
    bias_filler {
      type: "constant"
    }
  }
}
layer {
  name: "bn37"
  type: "BN"
  bottom: "conv37"
  top: "bn37"
  param {
    lr_mult: 1
    decay_mult: 0
  }
  param {
    lr_mult: 1
    decay_mult: 0
  }
  bn_param {
    scale_filler {
      type: "constant"
      value: 1
    }
    shift_filler {
      type: "constant"
      value: 0
    }
  }
}
layer {
  name: "relu37"
  type: "ReLU"
  bottom: "bn37"
  top: "bn37"
}
layer {
  name: "conv38"
  type: "Convolution"
  bottom: "bn37"
  top: "conv38"
  param {
    lr_mult: 1
  }
  param {
    lr_mult: 2
  }
  convolution_param {
    num_output: 128
    pad: 1
    kernel_size: 3
    stride: 1
    weight_filler {
      type: "xavier"
    }
    bias_filler {
      type: "constant"
    }
  }
}
layer {
  name: "bn38"
  type: "BN"
  bottom: "conv38"
  top: "bn38"
  param {
    lr_mult: 1
    decay_mult: 0
  }
  param {
    lr_mult: 1
    decay_mult: 0
  }
  bn_param {
    scale_filler {
      type: "constant"
      value: 1
    }
    shift_filler {
      type: "constant"
      value: 0
    }
  }
}
layer {
  name: "relu38"
  type: "ReLU"
  bottom: "bn38"
  top: "bn38"
}
layer {
  name: "eltwise7"
  type: "Eltwise"
  bottom: "eltwise6"
  bottom: "bn38"
  top: "eltwise7"
  eltwise_param {
    operation: SUM
  }
}
layer {
  name: "relu7"
  type: "ReLU"
  bottom: "eltwise7"
  top: "eltwise7"
}
layer {
  name: "relu7_p"
  type: "Convolution"
  bottom: "eltwise7"
  top: "relu7_p"
  param {
    lr_mult: 1
  }
  param {
    lr_mult: 2
  }
  convolution_param {
    num_output: 256
    pad: 0
    kernel_size: 1
    stride: 2
    weight_filler {
      type: "xavier"
    }
    bias_filler {
      type: "constant"
    }
  }
}
layer {
  name: "conv41"
  type: "Convolution"
  bottom: "eltwise7"
  top: "conv41"
  param {
    lr_mult: 1
  }
  param {
    lr_mult: 2
  }
  convolution_param {
    num_output: 256
    pad: 1
    kernel_size: 3
    stride: 2
    weight_filler {
      type: "xavier"
    }
    bias_filler {
      type: "constant"
    }
  }
}
layer {
  name: "bn41"
  type: "BN"
  bottom: "conv41"
  top: "bn41"
  param {
    lr_mult: 1
    decay_mult: 0
  }
  param {
    lr_mult: 1
    decay_mult: 0
  }
  bn_param {
    scale_filler {
      type: "constant"
      value: 1
    }
    shift_filler {
      type: "constant"
      value: 0
    }
  }
}
layer {
  name: "relu41"
  type: "ReLU"
  bottom: "bn41"
  top: "bn41"
}
layer {
  name: "conv42"
  type: "Convolution"
  bottom: "bn41"
  top: "conv42"
  param {
    lr_mult: 1
  }
  param {
    lr_mult: 2
  }
  convolution_param {
    num_output: 256
    pad: 1
    kernel_size: 3
    stride: 1
    weight_filler {
      type: "xavier"
    }
    bias_filler {
      type: "constant"
    }
  }
}
layer {
  name: "bn42"
  type: "BN"
  bottom: "conv42"
  top: "bn42"
  param {
    lr_mult: 1
    decay_mult: 0
  }
  param {
    lr_mult: 1
    decay_mult: 0
  }
  bn_param {
    scale_filler {
      type: "constant"
      value: 1
    }
    shift_filler {
      type: "constant"
      value: 0
    }
  }
}
layer {
  name: "relu42"
  type: "ReLU"
  bottom: "bn42"
  top: "bn42"
}
layer {
  name: "eltwise8"
  type: "Eltwise"
  bottom: "relu7_p"
  bottom: "bn42"
  top: "eltwise8"
  eltwise_param {
    operation: SUM
  }
}
layer {
  name: "relu8"
  type: "ReLU"
  bottom: "eltwise8"
  top: "eltwise8"
}
layer {
  name: "conv43"
  type: "Convolution"
  bottom: "eltwise8"
  top: "conv43"
  param {
    lr_mult: 1
  }
  param {
    lr_mult: 2
  }
  convolution_param {
    num_output: 256
    pad: 1
    kernel_size: 3
    stride: 1
    weight_filler {
      type: "xavier"
    }
    bias_filler {
      type: "constant"
    }
  }
}
layer {
  name: "bn43"
  type: "BN"
  bottom: "conv43"
  top: "bn43"
  param {
    lr_mult: 1
    decay_mult: 0
  }
  param {
    lr_mult: 1
    decay_mult: 0
  }
  bn_param {
    scale_filler {
      type: "constant"
      value: 1
    }
    shift_filler {
      type: "constant"
      value: 0
    }
  }
}
layer {
  name: "relu43"
  type: "ReLU"
  bottom: "bn43"
  top: "bn43"
}
layer {
  name: "conv44"
  type: "Convolution"
  bottom: "bn43"
  top: "conv44"
  param {
    lr_mult: 1
  }
  param {
    lr_mult: 2
  }
  convolution_param {
    num_output: 256
    pad: 1
    kernel_size: 3
    stride: 1
    weight_filler {
      type: "xavier"
    }
    bias_filler {
      type: "constant"
    }
  }
}
layer {
  name: "bn44"
  type: "BN"
  bottom: "conv44"
  top: "bn44"
  param {
    lr_mult: 1
    decay_mult: 0
  }
  param {
    lr_mult: 1
    decay_mult: 0
  }
  bn_param {
    scale_filler {
      type: "constant"
      value: 1
    }
    shift_filler {
      type: "constant"
      value: 0
    }
  }
}
layer {
  name: "relu44"
  type: "ReLU"
  bottom: "bn44"
  top: "bn44"
}
layer {
  name: "eltwise9"
  type: "Eltwise"
  bottom: "eltwise8"
  bottom: "bn44"
  top: "eltwise9"
  eltwise_param {
    operation: SUM
  }
}
layer {
  name: "relu9"
  type: "ReLU"
  bottom: "eltwise9"
  top: "eltwise9"
}
layer {
  name: "conv45"
  type: "Convolution"
  bottom: "eltwise9"
  top: "conv45"
  param {
    lr_mult: 1
  }
  param {
    lr_mult: 2
  }
  convolution_param {
    num_output: 256
    pad: 1
    kernel_size: 3
    stride: 1
    weight_filler {
      type: "xavier"
    }
    bias_filler {
      type: "constant"
    }
  }
}
layer {
  name: "bn45"
  type: "BN"
  bottom: "conv45"
  top: "bn45"
  param {
    lr_mult: 1
    decay_mult: 0
  }
  param {
    lr_mult: 1
    decay_mult: 0
  }
  bn_param {
    scale_filler {
      type: "constant"
      value: 1
    }
    shift_filler {
      type: "constant"
      value: 0
    }
  }
}
layer {
  name: "relu45"
  type: "ReLU"
  bottom: "bn45"
  top: "bn45"
}
layer {
  name: "conv46"
  type: "Convolution"
  bottom: "bn45"
  top: "conv46"
  param {
    lr_mult: 1
  }
  param {
    lr_mult: 2
  }
  convolution_param {
    num_output: 256
    pad: 1
    kernel_size: 3
    stride: 1
    weight_filler {
      type: "xavier"
    }
    bias_filler {
      type: "constant"
    }
  }
}
layer {
  name: "bn46"
  type: "BN"
  bottom: "conv46"
  top: "bn46"
  param {
    lr_mult: 1
    decay_mult: 0
  }
  param {
    lr_mult: 1
    decay_mult: 0
  }
  bn_param {
    scale_filler {
      type: "constant"
      value: 1
    }
    shift_filler {
      type: "constant"
      value: 0
    }
  }
}
layer {
  name: "relu46"
  type: "ReLU"
  bottom: "bn46"
  top: "bn46"
}
layer {
  name: "eltwise10"
  type: "Eltwise"
  bottom: "eltwise9"
  bottom: "bn46"
  top: "eltwise10"
  eltwise_param {
    operation: SUM
  }
}
layer {
  name: "relu10"
  type: "ReLU"
  bottom: "eltwise10"
  top: "eltwise10"
}
layer {
  name: "conv47"
  type: "Convolution"
  bottom: "eltwise10"
  top: "conv47"
  param {
    lr_mult: 1
  }
  param {
    lr_mult: 2
  }
  convolution_param {
    num_output: 256
    pad: 1
    kernel_size: 3
    stride: 1
    weight_filler {
      type: "xavier"
    }
    bias_filler {
      type: "constant"
    }
  }
}
layer {
  name: "bn47"
  type: "BN"
  bottom: "conv47"
  top: "bn47"
  param {
    lr_mult: 1
    decay_mult: 0
  }
  param {
    lr_mult: 1
    decay_mult: 0
  }
  bn_param {
    scale_filler {
      type: "constant"
      value: 1
    }
    shift_filler {
      type: "constant"
      value: 0
    }
  }
}
layer {
  name: "relu47"
  type: "ReLU"
  bottom: "bn47"
  top: "bn47"
}
layer {
  name: "conv48"
  type: "Convolution"
  bottom: "bn47"
  top: "conv48"
  param {
    lr_mult: 1
  }
  param {
    lr_mult: 2
  }
  convolution_param {
    num_output: 256
    pad: 1
    kernel_size: 3
    stride: 1
    weight_filler {
      type: "xavier"
    }
    bias_filler {
      type: "constant"
    }
  }
}
layer {
  name: "bn48"
  type: "BN"
  bottom: "conv48"
  top: "bn48"
  param {
    lr_mult: 1
    decay_mult: 0
  }
  param {
    lr_mult: 1
    decay_mult: 0
  }
  bn_param {
    scale_filler {
      type: "constant"
      value: 1
    }
    shift_filler {
      type: "constant"
      value: 0
    }
  }
}
layer {
  name: "relu48"
  type: "ReLU"
  bottom: "bn48"
  top: "bn48"
}
layer {
  name: "eltwise11"
  type: "Eltwise"
  bottom: "eltwise10"
  bottom: "bn48"
  top: "eltwise11"
  eltwise_param {
    operation: SUM
  }
}
layer {
  name: "relu11"
  type: "ReLU"
  bottom: "eltwise11"
  top: "eltwise11"
}
layer {
  name: "conv49"
  type: "Convolution"
  bottom: "eltwise11"
  top: "conv49"
  param {
    lr_mult: 1
  }
  param {
    lr_mult: 2
  }
  convolution_param {
    num_output: 256
    pad: 1
    kernel_size: 3
    stride: 1
    weight_filler {
      type: "xavier"
    }
    bias_filler {
      type: "constant"
    }
  }
}
layer {
  name: "bn49"
  type: "BN"
  bottom: "conv49"
  top: "bn49"
  param {
    lr_mult: 1
    decay_mult: 0
  }
  param {
    lr_mult: 1
    decay_mult: 0
  }
  bn_param {
    scale_filler {
      type: "constant"
      value: 1
    }
    shift_filler {
      type: "constant"
      value: 0
    }
  }
}
layer {
  name: "relu49"
  type: "ReLU"
  bottom: "bn49"
  top: "bn49"
}
layer {
  name: "conv410"
  type: "Convolution"
  bottom: "bn49"
  top: "conv410"
  param {
    lr_mult: 1
  }
  param {
    lr_mult: 2
  }
  convolution_param {
    num_output: 256
    pad: 1
    kernel_size: 3
    stride: 1
    weight_filler {
      type: "xavier"
    }
    bias_filler {
      type: "constant"
    }
  }
}
layer {
  name: "bn410"
  type: "BN"
  bottom: "conv410"
  top: "bn410"
  param {
    lr_mult: 1
    decay_mult: 0
  }
  param {
    lr_mult: 1
    decay_mult: 0
  }
  bn_param {
    scale_filler {
      type: "constant"
      value: 1
    }
    shift_filler {
      type: "constant"
      value: 0
    }
  }
}
layer {
  name: "relu410"
  type: "ReLU"
  bottom: "bn410"
  top: "bn410"
}
layer {
  name: "eltwise12"
  type: "Eltwise"
  bottom: "eltwise11"
  bottom: "bn410"
  top: "eltwise12"
  eltwise_param {
    operation: SUM
  }
}
layer {
  name: "relu12"
  type: "ReLU"
  bottom: "eltwise12"
  top: "eltwise12"
}
layer {
  name: "conv411"
  type: "Convolution"
  bottom: "eltwise12"
  top: "conv411"
  param {
    lr_mult: 1
  }
  param {
    lr_mult: 2
  }
  convolution_param {
    num_output: 256
    pad: 1
    kernel_size: 3
    stride: 1
    weight_filler {
      type: "xavier"
    }
    bias_filler {
      type: "constant"
    }
  }
}
layer {
  name: "bn411"
  type: "BN"
  bottom: "conv411"
  top: "bn411"
  param {
    lr_mult: 1
    decay_mult: 0
  }
  param {
    lr_mult: 1
    decay_mult: 0
  }
  bn_param {
    scale_filler {
      type: "constant"
      value: 1
    }
    shift_filler {
      type: "constant"
      value: 0
    }
  }
}
layer {
  name: "relu411"
  type: "ReLU"
  bottom: "bn411"
  top: "bn411"
}
layer {
  name: "conv412"
  type: "Convolution"
  bottom: "bn411"
  top: "conv412"
  param {
    lr_mult: 1
  }
  param {
    lr_mult: 2
  }
  convolution_param {
    num_output: 256
    pad: 1
    kernel_size: 3
    stride: 1
    weight_filler {
      type: "xavier"
    }
    bias_filler {
      type: "constant"
    }
  }
}
layer {
  name: "bn412"
  type: "BN"
  bottom: "conv412"
  top: "bn412"
  param {
    lr_mult: 1
    decay_mult: 0
  }
  param {
    lr_mult: 1
    decay_mult: 0
  }
  bn_param {
    scale_filler {
      type: "constant"
      value: 1
    }
    shift_filler {
      type: "constant"
      value: 0
    }
  }
}
layer {
  name: "relu412"
  type: "ReLU"
  bottom: "bn412"
  top: "bn412"
}
layer {
  name: "eltwise13"
  type: "Eltwise"
  bottom: "eltwise12"
  bottom: "bn412"
  top: "eltwise13"
  eltwise_param {
    operation: SUM
  }
}
layer {
  name: "relu13"
  type: "ReLU"
  bottom: "eltwise13"
  top: "eltwise13"
}
layer {
  name: "relu13_p"
  type: "Convolution"
  bottom: "eltwise12"
  top: "relu13_p"
  param {
    lr_mult: 1
  }
  param {
    lr_mult: 2
  }
  convolution_param {
    num_output: 512
    pad: 0
    kernel_size: 1
    stride: 2
    weight_filler {
      type: "xavier"
    }
    bias_filler {
      type: "constant"
    }
  }
}
layer {
  name: "conv51"
  type: "Convolution"
  bottom: "eltwise13"
  top: "conv51"
  param {
    lr_mult: 1
  }
  param {
    lr_mult: 2
  }
  convolution_param {
    num_output: 512
    pad: 1
    kernel_size: 3
    stride: 2
    weight_filler {
      type: "xavier"
    }
    bias_filler {
      type: "constant"
    }
  }
}
layer {
  name: "bn51"
  type: "BN"
  bottom: "conv51"
  top: "bn51"
  param {
    lr_mult: 1
    decay_mult: 0
  }
  param {
    lr_mult: 1
    decay_mult: 0
  }
  bn_param {
    scale_filler {
      type: "constant"
      value: 1
    }
    shift_filler {
      type: "constant"
      value: 0
    }
  }
}
layer {
  name: "relu51"
  type: "ReLU"
  bottom: "bn51"
  top: "bn51"
}
layer {
  name: "conv52"
  type: "Convolution"
  bottom: "bn51"
  top: "conv52"
  param {
    lr_mult: 1
  }
  param {
    lr_mult: 2
  }
  convolution_param {
    num_output: 512
    pad: 1
    kernel_size: 3
    stride: 1
    weight_filler {
      type: "xavier"
    }
    bias_filler {
      type: "constant"
    }
  }
}
layer {
  name: "bn52"
  type: "BN"
  bottom: "conv52"
  top: "bn52"
  param {
    lr_mult: 1
    decay_mult: 0
  }
  param {
    lr_mult: 1
    decay_mult: 0
  }
  bn_param {
    scale_filler {
      type: "constant"
      value: 1
    }
    shift_filler {
      type: "constant"
      value: 0
    }
  }
}
layer {
  name: "relu52"
  type: "ReLU"
  bottom: "bn52"
  top: "bn52"
}
layer {
  name: "eltwise14"
  type: "Eltwise"
  bottom: "relu13_p"
  bottom: "bn52"
  top: "eltwise14"
  eltwise_param {
    operation: SUM
  }
}
layer {
  name: "relu14"
  type: "ReLU"
  bottom: "eltwise14"
  top: "eltwise14"
}
layer {
  name: "conv53"
  type: "Convolution"
  bottom: "eltwise14"
  top: "conv53"
  param {
    lr_mult: 1
  }
  param {
    lr_mult: 2
  }
  convolution_param {
    num_output: 512
    pad: 1
    kernel_size: 3
    stride: 1
    weight_filler {
      type: "xavier"
    }
    bias_filler {
      type: "constant"
    }
  }
}
layer {
  name: "bn53"
  type: "BN"
  bottom: "conv53"
  top: "bn53"
  param {
    lr_mult: 1
    decay_mult: 0
  }
  param {
    lr_mult: 1
    decay_mult: 0
  }
  bn_param {
    scale_filler {
      type: "constant"
      value: 1
    }
    shift_filler {
      type: "constant"
      value: 0
    }
  }
}
layer {
  name: "relu53"
  type: "ReLU"
  bottom: "bn53"
  top: "bn53"
}
layer {
  name: "conv54"
  type: "Convolution"
  bottom: "bn53"
  top: "conv54"
  param {
    lr_mult: 1
  }
  param {
    lr_mult: 2
  }
  convolution_param {
    num_output: 512
    pad: 1
    kernel_size: 3
    stride: 1
    weight_filler {
      type: "xavier"
    }
    bias_filler {
      type: "constant"
    }
  }
}
layer {
  name: "bn54"
  type: "BN"
  bottom: "conv54"
  top: "bn54"
  param {
    lr_mult: 1
    decay_mult: 0
  }
  param {
    lr_mult: 1
    decay_mult: 0
  }
  bn_param {
    scale_filler {
      type: "constant"
      value: 1
    }
    shift_filler {
      type: "constant"
      value: 0
    }
  }
}
layer {
  name: "relu54"
  type: "ReLU"
  bottom: "bn54"
  top: "bn54"
}
layer {
  name: "eltwise15"
  type: "Eltwise"
  bottom: "eltwise14"
  bottom: "bn54"
  top: "eltwise15"
  eltwise_param {
    operation: SUM
  }
}
layer {
  name: "relu15"
  type: "ReLU"
  bottom: "eltwise15"
  top: "eltwise15"
}
layer {
  name: "conv55"
  type: "Convolution"
  bottom: "eltwise15"
  top: "conv55"
  param {
    lr_mult: 1
  }
  param {
    lr_mult: 2
  }
  convolution_param {
    num_output: 512
    pad: 1
    kernel_size: 3
    stride: 1
    weight_filler {
      type: "xavier"
    }
    bias_filler {
      type: "constant"
    }
  }
}
layer {
  name: "bn55"
  type: "BN"
  bottom: "conv55"
  top: "bn55"
  param {
    lr_mult: 1
    decay_mult: 0
  }
  param {
    lr_mult: 1
    decay_mult: 0
  }
  bn_param {
    scale_filler {
      type: "constant"
      value: 1
    }
    shift_filler {
      type: "constant"
      value: 0
    }
  }
}
layer {
  name: "relu55"
  type: "ReLU"
  bottom: "bn55"
  top: "bn55"
}
layer {
  name: "conv56"
  type: "Convolution"
  bottom: "bn55"
  top: "conv56"
  param {
    lr_mult: 1
  }
  param {
    lr_mult: 2
  }
  convolution_param {
    num_output: 512
    pad: 1
    kernel_size: 3
    stride: 1
    weight_filler {
      type: "xavier"
    }
    bias_filler {
      type: "constant"
    }
  }
}
layer {
  name: "bn56"
  type: "BN"
  bottom: "conv56"
  top: "bn56"
  param {
    lr_mult: 1
    decay_mult: 0
  }
  param {
    lr_mult: 1
    decay_mult: 0
  }
  bn_param {
    scale_filler {
      type: "constant"
      value: 1
    }
    shift_filler {
      type: "constant"
      value: 0
    }
  }
}
layer {
  name: "relu56"
  type: "ReLU"
  bottom: "bn56"
  top: "bn56"
}
layer {
  name: "eltwise16"
  type: "Eltwise"
  bottom: "eltwise15"
  bottom: "bn56"
  top: "eltwise16"
  eltwise_param {
    operation: SUM
  }
}
layer {
  name: "relu16"
  type: "ReLU"
  bottom: "eltwise16"
  top: "eltwise16"
}
layer {
  name: "pool5"
  type: "Pooling"
  bottom: "eltwise16"
  top: "pool5"
  pooling_param {
    pool: AVE
    kernel_size: 7
    stride: 1
  }
}
layer {
  name: "ip1"
  type: "InnerProduct"
  bottom: "pool5"
  top: "ip1"
  param {
    lr_mult: 1
  }
  param {
    lr_mult: 2
  }
  inner_product_param {
    num_output: 1000
    weight_filler {
      type: "xavier"
    }
    bias_filler {
      type: "constant"
    }
  }
}
layer {
  name: "accuracy"
  type: "Accuracy"
  bottom: "ip1"
  bottom: "label"
  top: "accuracy"
  include {
    phase: TEST
  }
}
I1230 09:28:23.617480 26486 layer_factory.hpp:76] Creating layer data
I1230 09:28:23.617601 26486 net.cpp:110] Creating Layer data
I1230 09:28:23.617620 26486 net.cpp:433] data -> data
I1230 09:28:23.617643 26486 net.cpp:433] data -> label
I1230 09:28:23.617662 26486 data_transformer.cpp:23] Loading mean file from: ./ilsvrc12_mean.binaryproto
I1230 09:28:23.618497 26490 db_lmdb.cpp:22] Opened lmdb ./ilsvrc12_test_lmdb
I1230 09:28:23.621700 26486 data_layer.cpp:44] output data size: 32,3,224,224
I1230 09:28:23.666882 26486 net.cpp:155] Setting up data
I1230 09:28:23.666998 26486 net.cpp:163] Top shape: 32 3 224 224 (4816896)
I1230 09:28:23.667017 26486 net.cpp:163] Top shape: 32 (32)
I1230 09:28:23.667052 26486 layer_factory.hpp:76] Creating layer conv01
I1230 09:28:23.667109 26486 net.cpp:110] Creating Layer conv01
I1230 09:28:23.667124 26486 net.cpp:477] conv01 <- data
I1230 09:28:23.667150 26486 net.cpp:433] conv01 -> conv01
I1230 09:28:23.667759 26486 net.cpp:155] Setting up conv01
I1230 09:28:23.667784 26486 net.cpp:163] Top shape: 32 64 112 112 (25690112)
I1230 09:28:23.667807 26486 layer_factory.hpp:76] Creating layer bn01
I1230 09:28:23.667832 26486 net.cpp:110] Creating Layer bn01
I1230 09:28:23.667846 26486 net.cpp:477] bn01 <- conv01
I1230 09:28:23.667866 26486 net.cpp:433] bn01 -> bn01
I1230 09:28:23.669900 26486 net.cpp:155] Setting up bn01
I1230 09:28:23.669931 26486 net.cpp:163] Top shape: 32 64 112 112 (25690112)
I1230 09:28:23.669955 26486 layer_factory.hpp:76] Creating layer relu01
I1230 09:28:23.669973 26486 net.cpp:110] Creating Layer relu01
I1230 09:28:23.670004 26486 net.cpp:477] relu01 <- bn01
I1230 09:28:23.670032 26486 net.cpp:419] relu01 -> bn01 (in-place)
I1230 09:28:23.670269 26486 net.cpp:155] Setting up relu01
I1230 09:28:23.670291 26486 net.cpp:163] Top shape: 32 64 112 112 (25690112)
I1230 09:28:23.670315 26486 layer_factory.hpp:76] Creating layer pool1
I1230 09:28:23.670347 26486 net.cpp:110] Creating Layer pool1
I1230 09:28:23.670361 26486 net.cpp:477] pool1 <- bn01
I1230 09:28:23.670380 26486 net.cpp:433] pool1 -> pool1
I1230 09:28:23.670470 26486 net.cpp:155] Setting up pool1
I1230 09:28:23.670523 26486 net.cpp:163] Top shape: 32 64 56 56 (6422528)
I1230 09:28:23.670538 26486 layer_factory.hpp:76] Creating layer pool1_pool1_0_split
I1230 09:28:23.670558 26486 net.cpp:110] Creating Layer pool1_pool1_0_split
I1230 09:28:23.670572 26486 net.cpp:477] pool1_pool1_0_split <- pool1
I1230 09:28:23.670588 26486 net.cpp:433] pool1_pool1_0_split -> pool1_pool1_0_split_0
I1230 09:28:23.670608 26486 net.cpp:433] pool1_pool1_0_split -> pool1_pool1_0_split_1
I1230 09:28:23.670629 26486 net.cpp:155] Setting up pool1_pool1_0_split
I1230 09:28:23.670646 26486 net.cpp:163] Top shape: 32 64 56 56 (6422528)
I1230 09:28:23.670660 26486 net.cpp:163] Top shape: 32 64 56 56 (6422528)
I1230 09:28:23.670675 26486 layer_factory.hpp:76] Creating layer conv21
I1230 09:28:23.670696 26486 net.cpp:110] Creating Layer conv21
I1230 09:28:23.670709 26486 net.cpp:477] conv21 <- pool1_pool1_0_split_0
I1230 09:28:23.670727 26486 net.cpp:433] conv21 -> conv21
I1230 09:28:23.671397 26486 net.cpp:155] Setting up conv21
I1230 09:28:23.671422 26486 net.cpp:163] Top shape: 32 64 56 56 (6422528)
I1230 09:28:23.671440 26486 layer_factory.hpp:76] Creating layer bn21
I1230 09:28:23.671460 26486 net.cpp:110] Creating Layer bn21
I1230 09:28:23.671475 26486 net.cpp:477] bn21 <- conv21
I1230 09:28:23.671494 26486 net.cpp:433] bn21 -> bn21
I1230 09:28:23.671617 26486 net.cpp:155] Setting up bn21
I1230 09:28:23.671639 26486 net.cpp:163] Top shape: 32 64 56 56 (6422528)
I1230 09:28:23.671663 26486 layer_factory.hpp:76] Creating layer relu21
I1230 09:28:23.671681 26486 net.cpp:110] Creating Layer relu21
I1230 09:28:23.671696 26486 net.cpp:477] relu21 <- bn21
I1230 09:28:23.671713 26486 net.cpp:419] relu21 -> bn21 (in-place)
I1230 09:28:23.671794 26486 net.cpp:155] Setting up relu21
I1230 09:28:23.671813 26486 net.cpp:163] Top shape: 32 64 56 56 (6422528)
I1230 09:28:23.671828 26486 layer_factory.hpp:76] Creating layer conv22
I1230 09:28:23.671850 26486 net.cpp:110] Creating Layer conv22
I1230 09:28:23.671866 26486 net.cpp:477] conv22 <- bn21
I1230 09:28:23.671882 26486 net.cpp:433] conv22 -> conv22
I1230 09:28:23.672530 26486 net.cpp:155] Setting up conv22
I1230 09:28:23.672555 26486 net.cpp:163] Top shape: 32 64 56 56 (6422528)
I1230 09:28:23.672575 26486 layer_factory.hpp:76] Creating layer bn22
I1230 09:28:23.672596 26486 net.cpp:110] Creating Layer bn22
I1230 09:28:23.672611 26486 net.cpp:477] bn22 <- conv22
I1230 09:28:23.672629 26486 net.cpp:433] bn22 -> bn22
I1230 09:28:23.672742 26486 net.cpp:155] Setting up bn22
I1230 09:28:23.672762 26486 net.cpp:163] Top shape: 32 64 56 56 (6422528)
I1230 09:28:23.672783 26486 layer_factory.hpp:76] Creating layer relu22
I1230 09:28:23.672798 26486 net.cpp:110] Creating Layer relu22
I1230 09:28:23.672809 26486 net.cpp:477] relu22 <- bn22
I1230 09:28:23.672822 26486 net.cpp:419] relu22 -> bn22 (in-place)
I1230 09:28:23.673007 26486 net.cpp:155] Setting up relu22
I1230 09:28:23.673027 26486 net.cpp:163] Top shape: 32 64 56 56 (6422528)
I1230 09:28:23.673038 26486 layer_factory.hpp:76] Creating layer eltwise1
I1230 09:28:23.673055 26486 net.cpp:110] Creating Layer eltwise1
I1230 09:28:23.673066 26486 net.cpp:477] eltwise1 <- pool1_pool1_0_split_1
I1230 09:28:23.673079 26486 net.cpp:477] eltwise1 <- bn22
I1230 09:28:23.673092 26486 net.cpp:433] eltwise1 -> eltwise1
I1230 09:28:23.673110 26486 net.cpp:155] Setting up eltwise1
I1230 09:28:23.673125 26486 net.cpp:163] Top shape: 32 64 56 56 (6422528)
I1230 09:28:23.673135 26486 layer_factory.hpp:76] Creating layer relu1
I1230 09:28:23.673149 26486 net.cpp:110] Creating Layer relu1
I1230 09:28:23.673159 26486 net.cpp:477] relu1 <- eltwise1
I1230 09:28:23.673172 26486 net.cpp:419] relu1 -> eltwise1 (in-place)
I1230 09:28:23.673243 26486 net.cpp:155] Setting up relu1
I1230 09:28:23.673259 26486 net.cpp:163] Top shape: 32 64 56 56 (6422528)
I1230 09:28:23.673271 26486 layer_factory.hpp:76] Creating layer eltwise1_relu1_0_split
I1230 09:28:23.673285 26486 net.cpp:110] Creating Layer eltwise1_relu1_0_split
I1230 09:28:23.673302 26486 net.cpp:477] eltwise1_relu1_0_split <- eltwise1
I1230 09:28:23.673333 26486 net.cpp:433] eltwise1_relu1_0_split -> eltwise1_relu1_0_split_0
I1230 09:28:23.673349 26486 net.cpp:433] eltwise1_relu1_0_split -> eltwise1_relu1_0_split_1
I1230 09:28:23.673374 26486 net.cpp:155] Setting up eltwise1_relu1_0_split
I1230 09:28:23.673388 26486 net.cpp:163] Top shape: 32 64 56 56 (6422528)
I1230 09:28:23.673399 26486 net.cpp:163] Top shape: 32 64 56 56 (6422528)
I1230 09:28:23.673409 26486 layer_factory.hpp:76] Creating layer conv23
I1230 09:28:23.673425 26486 net.cpp:110] Creating Layer conv23
I1230 09:28:23.673436 26486 net.cpp:477] conv23 <- eltwise1_relu1_0_split_0
I1230 09:28:23.673450 26486 net.cpp:433] conv23 -> conv23
I1230 09:28:23.674096 26486 net.cpp:155] Setting up conv23
I1230 09:28:23.674118 26486 net.cpp:163] Top shape: 32 64 56 56 (6422528)
I1230 09:28:23.674132 26486 layer_factory.hpp:76] Creating layer bn23
I1230 09:28:23.674151 26486 net.cpp:110] Creating Layer bn23
I1230 09:28:23.674162 26486 net.cpp:477] bn23 <- conv23
I1230 09:28:23.674177 26486 net.cpp:433] bn23 -> bn23
I1230 09:28:23.674291 26486 net.cpp:155] Setting up bn23
I1230 09:28:23.674309 26486 net.cpp:163] Top shape: 32 64 56 56 (6422528)
I1230 09:28:23.674326 26486 layer_factory.hpp:76] Creating layer relu23
I1230 09:28:23.674340 26486 net.cpp:110] Creating Layer relu23
I1230 09:28:23.674351 26486 net.cpp:477] relu23 <- bn23
I1230 09:28:23.674365 26486 net.cpp:419] relu23 -> bn23 (in-place)
I1230 09:28:23.674440 26486 net.cpp:155] Setting up relu23
I1230 09:28:23.674456 26486 net.cpp:163] Top shape: 32 64 56 56 (6422528)
I1230 09:28:23.674468 26486 layer_factory.hpp:76] Creating layer conv24
I1230 09:28:23.674484 26486 net.cpp:110] Creating Layer conv24
I1230 09:28:23.674494 26486 net.cpp:477] conv24 <- bn23
I1230 09:28:23.674509 26486 net.cpp:433] conv24 -> conv24
I1230 09:28:23.675158 26486 net.cpp:155] Setting up conv24
I1230 09:28:23.675180 26486 net.cpp:163] Top shape: 32 64 56 56 (6422528)
I1230 09:28:23.675195 26486 layer_factory.hpp:76] Creating layer bn24
I1230 09:28:23.675212 26486 net.cpp:110] Creating Layer bn24
I1230 09:28:23.675223 26486 net.cpp:477] bn24 <- conv24
I1230 09:28:23.675237 26486 net.cpp:433] bn24 -> bn24
I1230 09:28:23.675353 26486 net.cpp:155] Setting up bn24
I1230 09:28:23.675369 26486 net.cpp:163] Top shape: 32 64 56 56 (6422528)
I1230 09:28:23.675386 26486 layer_factory.hpp:76] Creating layer relu24
I1230 09:28:23.675401 26486 net.cpp:110] Creating Layer relu24
I1230 09:28:23.675412 26486 net.cpp:477] relu24 <- bn24
I1230 09:28:23.675426 26486 net.cpp:419] relu24 -> bn24 (in-place)
I1230 09:28:23.675500 26486 net.cpp:155] Setting up relu24
I1230 09:28:23.675516 26486 net.cpp:163] Top shape: 32 64 56 56 (6422528)
I1230 09:28:23.675528 26486 layer_factory.hpp:76] Creating layer bn24_relu24_0_split
I1230 09:28:23.675540 26486 net.cpp:110] Creating Layer bn24_relu24_0_split
I1230 09:28:23.675550 26486 net.cpp:477] bn24_relu24_0_split <- bn24
I1230 09:28:23.675564 26486 net.cpp:433] bn24_relu24_0_split -> bn24_relu24_0_split_0
I1230 09:28:23.675578 26486 net.cpp:433] bn24_relu24_0_split -> bn24_relu24_0_split_1
I1230 09:28:23.675595 26486 net.cpp:155] Setting up bn24_relu24_0_split
I1230 09:28:23.675609 26486 net.cpp:163] Top shape: 32 64 56 56 (6422528)
I1230 09:28:23.675621 26486 net.cpp:163] Top shape: 32 64 56 56 (6422528)
I1230 09:28:23.675631 26486 layer_factory.hpp:76] Creating layer eltwise2
I1230 09:28:23.675647 26486 net.cpp:110] Creating Layer eltwise2
I1230 09:28:23.675657 26486 net.cpp:477] eltwise2 <- eltwise1_relu1_0_split_1
I1230 09:28:23.675669 26486 net.cpp:477] eltwise2 <- bn24_relu24_0_split_0
I1230 09:28:23.675683 26486 net.cpp:433] eltwise2 -> eltwise2
I1230 09:28:23.675698 26486 net.cpp:155] Setting up eltwise2
I1230 09:28:23.675710 26486 net.cpp:163] Top shape: 32 64 56 56 (6422528)
I1230 09:28:23.675720 26486 layer_factory.hpp:76] Creating layer relu2
I1230 09:28:23.675739 26486 net.cpp:110] Creating Layer relu2
I1230 09:28:23.675748 26486 net.cpp:477] relu2 <- eltwise2
I1230 09:28:23.675763 26486 net.cpp:419] relu2 -> eltwise2 (in-place)
I1230 09:28:23.675964 26486 net.cpp:155] Setting up relu2
I1230 09:28:23.675984 26486 net.cpp:163] Top shape: 32 64 56 56 (6422528)
I1230 09:28:23.675997 26486 layer_factory.hpp:76] Creating layer conv25
I1230 09:28:23.676012 26486 net.cpp:110] Creating Layer conv25
I1230 09:28:23.676023 26486 net.cpp:477] conv25 <- bn24_relu24_0_split_1
I1230 09:28:23.676038 26486 net.cpp:433] conv25 -> conv25
I1230 09:28:23.676688 26486 net.cpp:155] Setting up conv25
I1230 09:28:23.676704 26486 net.cpp:163] Top shape: 32 64 56 56 (6422528)
I1230 09:28:23.676723 26486 layer_factory.hpp:76] Creating layer bn25
I1230 09:28:23.676739 26486 net.cpp:110] Creating Layer bn25
I1230 09:28:23.676750 26486 net.cpp:477] bn25 <- conv25
I1230 09:28:23.676764 26486 net.cpp:433] bn25 -> bn25
I1230 09:28:23.676883 26486 net.cpp:155] Setting up bn25
I1230 09:28:23.676901 26486 net.cpp:163] Top shape: 32 64 56 56 (6422528)
I1230 09:28:23.676925 26486 layer_factory.hpp:76] Creating layer relu25
I1230 09:28:23.676940 26486 net.cpp:110] Creating Layer relu25
I1230 09:28:23.676951 26486 net.cpp:477] relu25 <- bn25
I1230 09:28:23.676964 26486 net.cpp:419] relu25 -> bn25 (in-place)
I1230 09:28:23.677044 26486 net.cpp:155] Setting up relu25
I1230 09:28:23.677062 26486 net.cpp:163] Top shape: 32 64 56 56 (6422528)
I1230 09:28:23.677073 26486 layer_factory.hpp:76] Creating layer conv26
I1230 09:28:23.677088 26486 net.cpp:110] Creating Layer conv26
I1230 09:28:23.677099 26486 net.cpp:477] conv26 <- bn25
I1230 09:28:23.677114 26486 net.cpp:433] conv26 -> conv26
I1230 09:28:23.678352 26486 net.cpp:155] Setting up conv26
I1230 09:28:23.678377 26486 net.cpp:163] Top shape: 32 64 56 56 (6422528)
I1230 09:28:23.678392 26486 layer_factory.hpp:76] Creating layer bn26
I1230 09:28:23.678410 26486 net.cpp:110] Creating Layer bn26
I1230 09:28:23.678421 26486 net.cpp:477] bn26 <- conv26
I1230 09:28:23.678436 26486 net.cpp:433] bn26 -> bn26
I1230 09:28:23.678556 26486 net.cpp:155] Setting up bn26
I1230 09:28:23.678575 26486 net.cpp:163] Top shape: 32 64 56 56 (6422528)
I1230 09:28:23.678591 26486 layer_factory.hpp:76] Creating layer relu26
I1230 09:28:23.678606 26486 net.cpp:110] Creating Layer relu26
I1230 09:28:23.678617 26486 net.cpp:477] relu26 <- bn26
I1230 09:28:23.678629 26486 net.cpp:419] relu26 -> bn26 (in-place)
I1230 09:28:23.678710 26486 net.cpp:155] Setting up relu26
I1230 09:28:23.678726 26486 net.cpp:163] Top shape: 32 64 56 56 (6422528)
I1230 09:28:23.678737 26486 layer_factory.hpp:76] Creating layer eltwise3
I1230 09:28:23.678761 26486 net.cpp:110] Creating Layer eltwise3
I1230 09:28:23.678771 26486 net.cpp:477] eltwise3 <- eltwise2
I1230 09:28:23.678783 26486 net.cpp:477] eltwise3 <- bn26
I1230 09:28:23.678797 26486 net.cpp:433] eltwise3 -> eltwise3
I1230 09:28:23.678812 26486 net.cpp:155] Setting up eltwise3
I1230 09:28:23.678824 26486 net.cpp:163] Top shape: 32 64 56 56 (6422528)
I1230 09:28:23.678835 26486 layer_factory.hpp:76] Creating layer relu3
I1230 09:28:23.678848 26486 net.cpp:110] Creating Layer relu3
I1230 09:28:23.678859 26486 net.cpp:477] relu3 <- eltwise3
I1230 09:28:23.678872 26486 net.cpp:419] relu3 -> eltwise3 (in-place)
I1230 09:28:23.678947 26486 net.cpp:155] Setting up relu3
I1230 09:28:23.678963 26486 net.cpp:163] Top shape: 32 64 56 56 (6422528)
I1230 09:28:23.678974 26486 layer_factory.hpp:76] Creating layer eltwise3_relu3_0_split
I1230 09:28:23.678992 26486 net.cpp:110] Creating Layer eltwise3_relu3_0_split
I1230 09:28:23.679003 26486 net.cpp:477] eltwise3_relu3_0_split <- eltwise3
I1230 09:28:23.679016 26486 net.cpp:433] eltwise3_relu3_0_split -> eltwise3_relu3_0_split_0
I1230 09:28:23.679031 26486 net.cpp:433] eltwise3_relu3_0_split -> eltwise3_relu3_0_split_1
I1230 09:28:23.679049 26486 net.cpp:155] Setting up eltwise3_relu3_0_split
I1230 09:28:23.679061 26486 net.cpp:163] Top shape: 32 64 56 56 (6422528)
I1230 09:28:23.679074 26486 net.cpp:163] Top shape: 32 64 56 56 (6422528)
I1230 09:28:23.679085 26486 layer_factory.hpp:76] Creating layer relu3_p
I1230 09:28:23.679100 26486 net.cpp:110] Creating Layer relu3_p
I1230 09:28:23.679126 26486 net.cpp:477] relu3_p <- eltwise3_relu3_0_split_0
I1230 09:28:23.679141 26486 net.cpp:433] relu3_p -> relu3_p
I1230 09:28:23.679594 26486 net.cpp:155] Setting up relu3_p
I1230 09:28:23.679615 26486 net.cpp:163] Top shape: 32 128 28 28 (3211264)
I1230 09:28:23.679630 26486 layer_factory.hpp:76] Creating layer conv31
I1230 09:28:23.679647 26486 net.cpp:110] Creating Layer conv31
I1230 09:28:23.679658 26486 net.cpp:477] conv31 <- eltwise3_relu3_0_split_1
I1230 09:28:23.679673 26486 net.cpp:433] conv31 -> conv31
I1230 09:28:23.680582 26486 net.cpp:155] Setting up conv31
I1230 09:28:23.680603 26486 net.cpp:163] Top shape: 32 128 28 28 (3211264)
I1230 09:28:23.680618 26486 layer_factory.hpp:76] Creating layer bn31
I1230 09:28:23.680634 26486 net.cpp:110] Creating Layer bn31
I1230 09:28:23.680645 26486 net.cpp:477] bn31 <- conv31
I1230 09:28:23.680660 26486 net.cpp:433] bn31 -> bn31
I1230 09:28:23.680759 26486 net.cpp:155] Setting up bn31
I1230 09:28:23.680778 26486 net.cpp:163] Top shape: 32 128 28 28 (3211264)
I1230 09:28:23.680794 26486 layer_factory.hpp:76] Creating layer relu31
I1230 09:28:23.680809 26486 net.cpp:110] Creating Layer relu31
I1230 09:28:23.680819 26486 net.cpp:477] relu31 <- bn31
I1230 09:28:23.680832 26486 net.cpp:419] relu31 -> bn31 (in-place)
I1230 09:28:23.681022 26486 net.cpp:155] Setting up relu31
I1230 09:28:23.681043 26486 net.cpp:163] Top shape: 32 128 28 28 (3211264)
I1230 09:28:23.681054 26486 layer_factory.hpp:76] Creating layer conv32
I1230 09:28:23.681071 26486 net.cpp:110] Creating Layer conv32
I1230 09:28:23.681082 26486 net.cpp:477] conv32 <- bn31
I1230 09:28:23.681095 26486 net.cpp:433] conv32 -> conv32
I1230 09:28:23.683032 26486 net.cpp:155] Setting up conv32
I1230 09:28:23.683055 26486 net.cpp:163] Top shape: 32 128 28 28 (3211264)
I1230 09:28:23.683069 26486 layer_factory.hpp:76] Creating layer bn32
I1230 09:28:23.683089 26486 net.cpp:110] Creating Layer bn32
I1230 09:28:23.683101 26486 net.cpp:477] bn32 <- conv32
I1230 09:28:23.683116 26486 net.cpp:433] bn32 -> bn32
I1230 09:28:23.683219 26486 net.cpp:155] Setting up bn32
I1230 09:28:23.683238 26486 net.cpp:163] Top shape: 32 128 28 28 (3211264)
I1230 09:28:23.683256 26486 layer_factory.hpp:76] Creating layer relu32
I1230 09:28:23.683272 26486 net.cpp:110] Creating Layer relu32
I1230 09:28:23.683284 26486 net.cpp:477] relu32 <- bn32
I1230 09:28:23.683296 26486 net.cpp:419] relu32 -> bn32 (in-place)
I1230 09:28:23.683375 26486 net.cpp:155] Setting up relu32
I1230 09:28:23.683392 26486 net.cpp:163] Top shape: 32 128 28 28 (3211264)
I1230 09:28:23.683403 26486 layer_factory.hpp:76] Creating layer eltwise4
I1230 09:28:23.683418 26486 net.cpp:110] Creating Layer eltwise4
I1230 09:28:23.683429 26486 net.cpp:477] eltwise4 <- relu3_p
I1230 09:28:23.683442 26486 net.cpp:477] eltwise4 <- bn32
I1230 09:28:23.683455 26486 net.cpp:433] eltwise4 -> eltwise4
I1230 09:28:23.683472 26486 net.cpp:155] Setting up eltwise4
I1230 09:28:23.683485 26486 net.cpp:163] Top shape: 32 128 28 28 (3211264)
I1230 09:28:23.683496 26486 layer_factory.hpp:76] Creating layer relu4
I1230 09:28:23.683509 26486 net.cpp:110] Creating Layer relu4
I1230 09:28:23.683521 26486 net.cpp:477] relu4 <- eltwise4
I1230 09:28:23.683533 26486 net.cpp:419] relu4 -> eltwise4 (in-place)
I1230 09:28:23.683604 26486 net.cpp:155] Setting up relu4
I1230 09:28:23.683619 26486 net.cpp:163] Top shape: 32 128 28 28 (3211264)
I1230 09:28:23.683640 26486 layer_factory.hpp:76] Creating layer eltwise4_relu4_0_split
I1230 09:28:23.683652 26486 net.cpp:110] Creating Layer eltwise4_relu4_0_split
I1230 09:28:23.683663 26486 net.cpp:477] eltwise4_relu4_0_split <- eltwise4
I1230 09:28:23.683676 26486 net.cpp:433] eltwise4_relu4_0_split -> eltwise4_relu4_0_split_0
I1230 09:28:23.683691 26486 net.cpp:433] eltwise4_relu4_0_split -> eltwise4_relu4_0_split_1
I1230 09:28:23.683706 26486 net.cpp:155] Setting up eltwise4_relu4_0_split
I1230 09:28:23.683719 26486 net.cpp:163] Top shape: 32 128 28 28 (3211264)
I1230 09:28:23.683732 26486 net.cpp:163] Top shape: 32 128 28 28 (3211264)
I1230 09:28:23.683760 26486 layer_factory.hpp:76] Creating layer conv33
I1230 09:28:23.683778 26486 net.cpp:110] Creating Layer conv33
I1230 09:28:23.683789 26486 net.cpp:477] conv33 <- eltwise4_relu4_0_split_0
I1230 09:28:23.683802 26486 net.cpp:433] conv33 -> conv33
I1230 09:28:23.685773 26486 net.cpp:155] Setting up conv33
I1230 09:28:23.685799 26486 net.cpp:163] Top shape: 32 128 28 28 (3211264)
I1230 09:28:23.685814 26486 layer_factory.hpp:76] Creating layer bn33
I1230 09:28:23.685832 26486 net.cpp:110] Creating Layer bn33
I1230 09:28:23.685843 26486 net.cpp:477] bn33 <- conv33
I1230 09:28:23.685858 26486 net.cpp:433] bn33 -> bn33
I1230 09:28:23.685958 26486 net.cpp:155] Setting up bn33
I1230 09:28:23.685976 26486 net.cpp:163] Top shape: 32 128 28 28 (3211264)
I1230 09:28:23.685992 26486 layer_factory.hpp:76] Creating layer relu33
I1230 09:28:23.686007 26486 net.cpp:110] Creating Layer relu33
I1230 09:28:23.686018 26486 net.cpp:477] relu33 <- bn33
I1230 09:28:23.686031 26486 net.cpp:419] relu33 -> bn33 (in-place)
I1230 09:28:23.686115 26486 net.cpp:155] Setting up relu33
I1230 09:28:23.686131 26486 net.cpp:163] Top shape: 32 128 28 28 (3211264)
I1230 09:28:23.686141 26486 layer_factory.hpp:76] Creating layer conv34
I1230 09:28:23.686157 26486 net.cpp:110] Creating Layer conv34
I1230 09:28:23.686167 26486 net.cpp:477] conv34 <- bn33
I1230 09:28:23.686182 26486 net.cpp:433] conv34 -> conv34
I1230 09:28:23.688143 26486 net.cpp:155] Setting up conv34
I1230 09:28:23.688165 26486 net.cpp:163] Top shape: 32 128 28 28 (3211264)
I1230 09:28:23.688189 26486 layer_factory.hpp:76] Creating layer bn34
I1230 09:28:23.688205 26486 net.cpp:110] Creating Layer bn34
I1230 09:28:23.688216 26486 net.cpp:477] bn34 <- conv34
I1230 09:28:23.688230 26486 net.cpp:433] bn34 -> bn34
I1230 09:28:23.688328 26486 net.cpp:155] Setting up bn34
I1230 09:28:23.688345 26486 net.cpp:163] Top shape: 32 128 28 28 (3211264)
I1230 09:28:23.688375 26486 layer_factory.hpp:76] Creating layer relu34
I1230 09:28:23.688390 26486 net.cpp:110] Creating Layer relu34
I1230 09:28:23.688401 26486 net.cpp:477] relu34 <- bn34
I1230 09:28:23.688416 26486 net.cpp:419] relu34 -> bn34 (in-place)
I1230 09:28:23.688603 26486 net.cpp:155] Setting up relu34
I1230 09:28:23.688623 26486 net.cpp:163] Top shape: 32 128 28 28 (3211264)
I1230 09:28:23.688647 26486 layer_factory.hpp:76] Creating layer eltwise5
I1230 09:28:23.688664 26486 net.cpp:110] Creating Layer eltwise5
I1230 09:28:23.688675 26486 net.cpp:477] eltwise5 <- eltwise4_relu4_0_split_1
I1230 09:28:23.688688 26486 net.cpp:477] eltwise5 <- bn34
I1230 09:28:23.688701 26486 net.cpp:433] eltwise5 -> eltwise5
I1230 09:28:23.688719 26486 net.cpp:155] Setting up eltwise5
I1230 09:28:23.688731 26486 net.cpp:163] Top shape: 32 128 28 28 (3211264)
I1230 09:28:23.688741 26486 layer_factory.hpp:76] Creating layer relu5
I1230 09:28:23.688755 26486 net.cpp:110] Creating Layer relu5
I1230 09:28:23.688766 26486 net.cpp:477] relu5 <- eltwise5
I1230 09:28:23.688778 26486 net.cpp:419] relu5 -> eltwise5 (in-place)
I1230 09:28:23.688850 26486 net.cpp:155] Setting up relu5
I1230 09:28:23.688866 26486 net.cpp:163] Top shape: 32 128 28 28 (3211264)
I1230 09:28:23.688877 26486 layer_factory.hpp:76] Creating layer eltwise5_relu5_0_split
I1230 09:28:23.688891 26486 net.cpp:110] Creating Layer eltwise5_relu5_0_split
I1230 09:28:23.688901 26486 net.cpp:477] eltwise5_relu5_0_split <- eltwise5
I1230 09:28:23.688915 26486 net.cpp:433] eltwise5_relu5_0_split -> eltwise5_relu5_0_split_0
I1230 09:28:23.688938 26486 net.cpp:433] eltwise5_relu5_0_split -> eltwise5_relu5_0_split_1
I1230 09:28:23.688953 26486 net.cpp:155] Setting up eltwise5_relu5_0_split
I1230 09:28:23.688966 26486 net.cpp:163] Top shape: 32 128 28 28 (3211264)
I1230 09:28:23.688977 26486 net.cpp:163] Top shape: 32 128 28 28 (3211264)
I1230 09:28:23.688988 26486 layer_factory.hpp:76] Creating layer conv35
I1230 09:28:23.689004 26486 net.cpp:110] Creating Layer conv35
I1230 09:28:23.689014 26486 net.cpp:477] conv35 <- eltwise5_relu5_0_split_0
I1230 09:28:23.689029 26486 net.cpp:433] conv35 -> conv35
I1230 09:28:23.691018 26486 net.cpp:155] Setting up conv35
I1230 09:28:23.691040 26486 net.cpp:163] Top shape: 32 128 28 28 (3211264)
I1230 09:28:23.691053 26486 layer_factory.hpp:76] Creating layer bn35
I1230 09:28:23.691069 26486 net.cpp:110] Creating Layer bn35
I1230 09:28:23.691081 26486 net.cpp:477] bn35 <- conv35
I1230 09:28:23.691095 26486 net.cpp:433] bn35 -> bn35
I1230 09:28:23.691195 26486 net.cpp:155] Setting up bn35
I1230 09:28:23.691211 26486 net.cpp:163] Top shape: 32 128 28 28 (3211264)
I1230 09:28:23.691226 26486 layer_factory.hpp:76] Creating layer relu35
I1230 09:28:23.691241 26486 net.cpp:110] Creating Layer relu35
I1230 09:28:23.691251 26486 net.cpp:477] relu35 <- bn35
I1230 09:28:23.691263 26486 net.cpp:419] relu35 -> bn35 (in-place)
I1230 09:28:23.691335 26486 net.cpp:155] Setting up relu35
I1230 09:28:23.691350 26486 net.cpp:163] Top shape: 32 128 28 28 (3211264)
I1230 09:28:23.691360 26486 layer_factory.hpp:76] Creating layer conv36
I1230 09:28:23.691376 26486 net.cpp:110] Creating Layer conv36
I1230 09:28:23.691386 26486 net.cpp:477] conv36 <- bn35
I1230 09:28:23.691401 26486 net.cpp:433] conv36 -> conv36
I1230 09:28:23.694473 26486 net.cpp:155] Setting up conv36
I1230 09:28:23.694500 26486 net.cpp:163] Top shape: 32 128 28 28 (3211264)
I1230 09:28:23.694516 26486 layer_factory.hpp:76] Creating layer bn36
I1230 09:28:23.694533 26486 net.cpp:110] Creating Layer bn36
I1230 09:28:23.694545 26486 net.cpp:477] bn36 <- conv36
I1230 09:28:23.694560 26486 net.cpp:433] bn36 -> bn36
I1230 09:28:23.694658 26486 net.cpp:155] Setting up bn36
I1230 09:28:23.694674 26486 net.cpp:163] Top shape: 32 128 28 28 (3211264)
I1230 09:28:23.694689 26486 layer_factory.hpp:76] Creating layer relu36
I1230 09:28:23.694703 26486 net.cpp:110] Creating Layer relu36
I1230 09:28:23.694715 26486 net.cpp:477] relu36 <- bn36
I1230 09:28:23.694727 26486 net.cpp:419] relu36 -> bn36 (in-place)
I1230 09:28:23.694924 26486 net.cpp:155] Setting up relu36
I1230 09:28:23.694944 26486 net.cpp:163] Top shape: 32 128 28 28 (3211264)
I1230 09:28:23.694957 26486 layer_factory.hpp:76] Creating layer eltwise6
I1230 09:28:23.694972 26486 net.cpp:110] Creating Layer eltwise6
I1230 09:28:23.694983 26486 net.cpp:477] eltwise6 <- eltwise5_relu5_0_split_1
I1230 09:28:23.694995 26486 net.cpp:477] eltwise6 <- bn36
I1230 09:28:23.695008 26486 net.cpp:433] eltwise6 -> eltwise6
I1230 09:28:23.695024 26486 net.cpp:155] Setting up eltwise6
I1230 09:28:23.695037 26486 net.cpp:163] Top shape: 32 128 28 28 (3211264)
I1230 09:28:23.695049 26486 layer_factory.hpp:76] Creating layer relu6
I1230 09:28:23.695061 26486 net.cpp:110] Creating Layer relu6
I1230 09:28:23.695071 26486 net.cpp:477] relu6 <- eltwise6
I1230 09:28:23.695085 26486 net.cpp:419] relu6 -> eltwise6 (in-place)
I1230 09:28:23.695155 26486 net.cpp:155] Setting up relu6
I1230 09:28:23.695171 26486 net.cpp:163] Top shape: 32 128 28 28 (3211264)
I1230 09:28:23.695183 26486 layer_factory.hpp:76] Creating layer eltwise6_relu6_0_split
I1230 09:28:23.695195 26486 net.cpp:110] Creating Layer eltwise6_relu6_0_split
I1230 09:28:23.695205 26486 net.cpp:477] eltwise6_relu6_0_split <- eltwise6
I1230 09:28:23.695219 26486 net.cpp:433] eltwise6_relu6_0_split -> eltwise6_relu6_0_split_0
I1230 09:28:23.695245 26486 net.cpp:433] eltwise6_relu6_0_split -> eltwise6_relu6_0_split_1
I1230 09:28:23.695261 26486 net.cpp:155] Setting up eltwise6_relu6_0_split
I1230 09:28:23.695273 26486 net.cpp:163] Top shape: 32 128 28 28 (3211264)
I1230 09:28:23.695283 26486 net.cpp:163] Top shape: 32 128 28 28 (3211264)
I1230 09:28:23.695294 26486 layer_factory.hpp:76] Creating layer conv37
I1230 09:28:23.695309 26486 net.cpp:110] Creating Layer conv37
I1230 09:28:23.695320 26486 net.cpp:477] conv37 <- eltwise6_relu6_0_split_0
I1230 09:28:23.695334 26486 net.cpp:433] conv37 -> conv37
I1230 09:28:23.697314 26486 net.cpp:155] Setting up conv37
I1230 09:28:23.697337 26486 net.cpp:163] Top shape: 32 128 28 28 (3211264)
I1230 09:28:23.697352 26486 layer_factory.hpp:76] Creating layer bn37
I1230 09:28:23.697373 26486 net.cpp:110] Creating Layer bn37
I1230 09:28:23.697399 26486 net.cpp:477] bn37 <- conv37
I1230 09:28:23.707629 26486 net.cpp:433] bn37 -> bn37
I1230 09:28:23.707749 26486 net.cpp:155] Setting up bn37
I1230 09:28:23.707768 26486 net.cpp:163] Top shape: 32 128 28 28 (3211264)
I1230 09:28:23.707785 26486 layer_factory.hpp:76] Creating layer relu37
I1230 09:28:23.707800 26486 net.cpp:110] Creating Layer relu37
I1230 09:28:23.707810 26486 net.cpp:477] relu37 <- bn37
I1230 09:28:23.707823 26486 net.cpp:419] relu37 -> bn37 (in-place)
I1230 09:28:23.707901 26486 net.cpp:155] Setting up relu37
I1230 09:28:23.707916 26486 net.cpp:163] Top shape: 32 128 28 28 (3211264)
I1230 09:28:23.707927 26486 layer_factory.hpp:76] Creating layer conv38
I1230 09:28:23.707952 26486 net.cpp:110] Creating Layer conv38
I1230 09:28:23.707963 26486 net.cpp:477] conv38 <- bn37
I1230 09:28:23.707978 26486 net.cpp:433] conv38 -> conv38
I1230 09:28:23.710083 26486 net.cpp:155] Setting up conv38
I1230 09:28:23.710132 26486 net.cpp:163] Top shape: 32 128 28 28 (3211264)
I1230 09:28:23.710150 26486 layer_factory.hpp:76] Creating layer bn38
I1230 09:28:23.710166 26486 net.cpp:110] Creating Layer bn38
I1230 09:28:23.710180 26486 net.cpp:477] bn38 <- conv38
I1230 09:28:23.710194 26486 net.cpp:433] bn38 -> bn38
I1230 09:28:23.710296 26486 net.cpp:155] Setting up bn38
I1230 09:28:23.710314 26486 net.cpp:163] Top shape: 32 128 28 28 (3211264)
I1230 09:28:23.710330 26486 layer_factory.hpp:76] Creating layer relu38
I1230 09:28:23.710345 26486 net.cpp:110] Creating Layer relu38
I1230 09:28:23.710356 26486 net.cpp:477] relu38 <- bn38
I1230 09:28:23.710369 26486 net.cpp:419] relu38 -> bn38 (in-place)
I1230 09:28:23.710444 26486 net.cpp:155] Setting up relu38
I1230 09:28:23.710460 26486 net.cpp:163] Top shape: 32 128 28 28 (3211264)
I1230 09:28:23.710472 26486 layer_factory.hpp:76] Creating layer eltwise7
I1230 09:28:23.710486 26486 net.cpp:110] Creating Layer eltwise7
I1230 09:28:23.710497 26486 net.cpp:477] eltwise7 <- eltwise6_relu6_0_split_1
I1230 09:28:23.710510 26486 net.cpp:477] eltwise7 <- bn38
I1230 09:28:23.710525 26486 net.cpp:433] eltwise7 -> eltwise7
I1230 09:28:23.710541 26486 net.cpp:155] Setting up eltwise7
I1230 09:28:23.710553 26486 net.cpp:163] Top shape: 32 128 28 28 (3211264)
I1230 09:28:23.710564 26486 layer_factory.hpp:76] Creating layer relu7
I1230 09:28:23.710577 26486 net.cpp:110] Creating Layer relu7
I1230 09:28:23.710588 26486 net.cpp:477] relu7 <- eltwise7
I1230 09:28:23.710602 26486 net.cpp:419] relu7 -> eltwise7 (in-place)
I1230 09:28:23.710785 26486 net.cpp:155] Setting up relu7
I1230 09:28:23.710858 26486 net.cpp:163] Top shape: 32 128 28 28 (3211264)
I1230 09:28:23.710870 26486 layer_factory.hpp:76] Creating layer eltwise7_relu7_0_split
I1230 09:28:23.710885 26486 net.cpp:110] Creating Layer eltwise7_relu7_0_split
I1230 09:28:23.710896 26486 net.cpp:477] eltwise7_relu7_0_split <- eltwise7
I1230 09:28:23.710909 26486 net.cpp:433] eltwise7_relu7_0_split -> eltwise7_relu7_0_split_0
I1230 09:28:23.710924 26486 net.cpp:433] eltwise7_relu7_0_split -> eltwise7_relu7_0_split_1
I1230 09:28:23.710939 26486 net.cpp:155] Setting up eltwise7_relu7_0_split
I1230 09:28:23.710952 26486 net.cpp:163] Top shape: 32 128 28 28 (3211264)
I1230 09:28:23.710964 26486 net.cpp:163] Top shape: 32 128 28 28 (3211264)
I1230 09:28:23.710974 26486 layer_factory.hpp:76] Creating layer relu7_p
I1230 09:28:23.710990 26486 net.cpp:110] Creating Layer relu7_p
I1230 09:28:23.711001 26486 net.cpp:477] relu7_p <- eltwise7_relu7_0_split_0
I1230 09:28:23.711016 26486 net.cpp:433] relu7_p -> relu7_p
I1230 09:28:23.711630 26486 net.cpp:155] Setting up relu7_p
I1230 09:28:23.711652 26486 net.cpp:163] Top shape: 32 256 14 14 (1605632)
I1230 09:28:23.711666 26486 layer_factory.hpp:76] Creating layer conv41
I1230 09:28:23.711683 26486 net.cpp:110] Creating Layer conv41
I1230 09:28:23.711694 26486 net.cpp:477] conv41 <- eltwise7_relu7_0_split_1
I1230 09:28:23.711709 26486 net.cpp:433] conv41 -> conv41
I1230 09:28:23.714925 26486 net.cpp:155] Setting up conv41
I1230 09:28:23.714946 26486 net.cpp:163] Top shape: 32 256 14 14 (1605632)
I1230 09:28:23.714982 26486 layer_factory.hpp:76] Creating layer bn41
I1230 09:28:23.714999 26486 net.cpp:110] Creating Layer bn41
I1230 09:28:23.715010 26486 net.cpp:477] bn41 <- conv41
I1230 09:28:23.715025 26486 net.cpp:433] bn41 -> bn41
I1230 09:28:23.715133 26486 net.cpp:155] Setting up bn41
I1230 09:28:23.715150 26486 net.cpp:163] Top shape: 32 256 14 14 (1605632)
I1230 09:28:23.715167 26486 layer_factory.hpp:76] Creating layer relu41
I1230 09:28:23.715180 26486 net.cpp:110] Creating Layer relu41
I1230 09:28:23.715191 26486 net.cpp:477] relu41 <- bn41
I1230 09:28:23.715204 26486 net.cpp:419] relu41 -> bn41 (in-place)
I1230 09:28:23.715276 26486 net.cpp:155] Setting up relu41
I1230 09:28:23.715291 26486 net.cpp:163] Top shape: 32 256 14 14 (1605632)
I1230 09:28:23.715302 26486 layer_factory.hpp:76] Creating layer conv42
I1230 09:28:23.715317 26486 net.cpp:110] Creating Layer conv42
I1230 09:28:23.715328 26486 net.cpp:477] conv42 <- bn41
I1230 09:28:23.715342 26486 net.cpp:433] conv42 -> conv42
I1230 09:28:23.722044 26486 net.cpp:155] Setting up conv42
I1230 09:28:23.722067 26486 net.cpp:163] Top shape: 32 256 14 14 (1605632)
I1230 09:28:23.722082 26486 layer_factory.hpp:76] Creating layer bn42
I1230 09:28:23.722100 26486 net.cpp:110] Creating Layer bn42
I1230 09:28:23.722110 26486 net.cpp:477] bn42 <- conv42
I1230 09:28:23.722126 26486 net.cpp:433] bn42 -> bn42
I1230 09:28:23.722232 26486 net.cpp:155] Setting up bn42
I1230 09:28:23.722249 26486 net.cpp:163] Top shape: 32 256 14 14 (1605632)
I1230 09:28:23.722265 26486 layer_factory.hpp:76] Creating layer relu42
I1230 09:28:23.722280 26486 net.cpp:110] Creating Layer relu42
I1230 09:28:23.722290 26486 net.cpp:477] relu42 <- bn42
I1230 09:28:23.722303 26486 net.cpp:419] relu42 -> bn42 (in-place)
I1230 09:28:23.722376 26486 net.cpp:155] Setting up relu42
I1230 09:28:23.722393 26486 net.cpp:163] Top shape: 32 256 14 14 (1605632)
I1230 09:28:23.722404 26486 layer_factory.hpp:76] Creating layer eltwise8
I1230 09:28:23.722419 26486 net.cpp:110] Creating Layer eltwise8
I1230 09:28:23.722429 26486 net.cpp:477] eltwise8 <- relu7_p
I1230 09:28:23.722441 26486 net.cpp:477] eltwise8 <- bn42
I1230 09:28:23.722455 26486 net.cpp:433] eltwise8 -> eltwise8
I1230 09:28:23.722471 26486 net.cpp:155] Setting up eltwise8
I1230 09:28:23.722487 26486 net.cpp:163] Top shape: 32 256 14 14 (1605632)
I1230 09:28:23.722498 26486 layer_factory.hpp:76] Creating layer relu8
I1230 09:28:23.722512 26486 net.cpp:110] Creating Layer relu8
I1230 09:28:23.722522 26486 net.cpp:477] relu8 <- eltwise8
I1230 09:28:23.722535 26486 net.cpp:419] relu8 -> eltwise8 (in-place)
I1230 09:28:23.722607 26486 net.cpp:155] Setting up relu8
I1230 09:28:23.722623 26486 net.cpp:163] Top shape: 32 256 14 14 (1605632)
I1230 09:28:23.722635 26486 layer_factory.hpp:76] Creating layer eltwise8_relu8_0_split
I1230 09:28:23.722648 26486 net.cpp:110] Creating Layer eltwise8_relu8_0_split
I1230 09:28:23.722659 26486 net.cpp:477] eltwise8_relu8_0_split <- eltwise8
I1230 09:28:23.722672 26486 net.cpp:433] eltwise8_relu8_0_split -> eltwise8_relu8_0_split_0
I1230 09:28:23.722687 26486 net.cpp:433] eltwise8_relu8_0_split -> eltwise8_relu8_0_split_1
I1230 09:28:23.722712 26486 net.cpp:155] Setting up eltwise8_relu8_0_split
I1230 09:28:23.722724 26486 net.cpp:163] Top shape: 32 256 14 14 (1605632)
I1230 09:28:23.722738 26486 net.cpp:163] Top shape: 32 256 14 14 (1605632)
I1230 09:28:23.722748 26486 layer_factory.hpp:76] Creating layer conv43
I1230 09:28:23.722764 26486 net.cpp:110] Creating Layer conv43
I1230 09:28:23.722774 26486 net.cpp:477] conv43 <- eltwise8_relu8_0_split_0
I1230 09:28:23.722789 26486 net.cpp:433] conv43 -> conv43
I1230 09:28:23.729583 26486 net.cpp:155] Setting up conv43
I1230 09:28:23.729617 26486 net.cpp:163] Top shape: 32 256 14 14 (1605632)
I1230 09:28:23.729634 26486 layer_factory.hpp:76] Creating layer bn43
I1230 09:28:23.729652 26486 net.cpp:110] Creating Layer bn43
I1230 09:28:23.729665 26486 net.cpp:477] bn43 <- conv43
I1230 09:28:23.729678 26486 net.cpp:433] bn43 -> bn43
I1230 09:28:23.729811 26486 net.cpp:155] Setting up bn43
I1230 09:28:23.729840 26486 net.cpp:163] Top shape: 32 256 14 14 (1605632)
I1230 09:28:23.729856 26486 layer_factory.hpp:76] Creating layer relu43
I1230 09:28:23.729876 26486 net.cpp:110] Creating Layer relu43
I1230 09:28:23.729887 26486 net.cpp:477] relu43 <- bn43
I1230 09:28:23.729899 26486 net.cpp:419] relu43 -> bn43 (in-place)
I1230 09:28:23.730113 26486 net.cpp:155] Setting up relu43
I1230 09:28:23.730134 26486 net.cpp:163] Top shape: 32 256 14 14 (1605632)
I1230 09:28:23.730144 26486 layer_factory.hpp:76] Creating layer conv44
I1230 09:28:23.730160 26486 net.cpp:110] Creating Layer conv44
I1230 09:28:23.730209 26486 net.cpp:477] conv44 <- bn43
I1230 09:28:23.730226 26486 net.cpp:433] conv44 -> conv44
I1230 09:28:23.737057 26486 net.cpp:155] Setting up conv44
I1230 09:28:23.737081 26486 net.cpp:163] Top shape: 32 256 14 14 (1605632)
I1230 09:28:23.737097 26486 layer_factory.hpp:76] Creating layer bn44
I1230 09:28:23.737115 26486 net.cpp:110] Creating Layer bn44
I1230 09:28:23.737139 26486 net.cpp:477] bn44 <- conv44
I1230 09:28:23.737155 26486 net.cpp:433] bn44 -> bn44
I1230 09:28:23.737268 26486 net.cpp:155] Setting up bn44
I1230 09:28:23.737308 26486 net.cpp:163] Top shape: 32 256 14 14 (1605632)
I1230 09:28:23.737355 26486 layer_factory.hpp:76] Creating layer relu44
I1230 09:28:23.737370 26486 net.cpp:110] Creating Layer relu44
I1230 09:28:23.737380 26486 net.cpp:477] relu44 <- bn44
I1230 09:28:23.737393 26486 net.cpp:419] relu44 -> bn44 (in-place)
I1230 09:28:23.737474 26486 net.cpp:155] Setting up relu44
I1230 09:28:23.737490 26486 net.cpp:163] Top shape: 32 256 14 14 (1605632)
I1230 09:28:23.737501 26486 layer_factory.hpp:76] Creating layer eltwise9
I1230 09:28:23.737517 26486 net.cpp:110] Creating Layer eltwise9
I1230 09:28:23.737529 26486 net.cpp:477] eltwise9 <- eltwise8_relu8_0_split_1
I1230 09:28:23.737540 26486 net.cpp:477] eltwise9 <- bn44
I1230 09:28:23.737556 26486 net.cpp:433] eltwise9 -> eltwise9
I1230 09:28:23.737573 26486 net.cpp:155] Setting up eltwise9
I1230 09:28:23.737586 26486 net.cpp:163] Top shape: 32 256 14 14 (1605632)
I1230 09:28:23.737597 26486 layer_factory.hpp:76] Creating layer relu9
I1230 09:28:23.737610 26486 net.cpp:110] Creating Layer relu9
I1230 09:28:23.737620 26486 net.cpp:477] relu9 <- eltwise9
I1230 09:28:23.737632 26486 net.cpp:419] relu9 -> eltwise9 (in-place)
I1230 09:28:23.737707 26486 net.cpp:155] Setting up relu9
I1230 09:28:23.737723 26486 net.cpp:163] Top shape: 32 256 14 14 (1605632)
I1230 09:28:23.737735 26486 layer_factory.hpp:76] Creating layer eltwise9_relu9_0_split
I1230 09:28:23.737761 26486 net.cpp:110] Creating Layer eltwise9_relu9_0_split
I1230 09:28:23.737771 26486 net.cpp:477] eltwise9_relu9_0_split <- eltwise9
I1230 09:28:23.737787 26486 net.cpp:433] eltwise9_relu9_0_split -> eltwise9_relu9_0_split_0
I1230 09:28:23.737802 26486 net.cpp:433] eltwise9_relu9_0_split -> eltwise9_relu9_0_split_1
I1230 09:28:23.737817 26486 net.cpp:155] Setting up eltwise9_relu9_0_split
I1230 09:28:23.737831 26486 net.cpp:163] Top shape: 32 256 14 14 (1605632)
I1230 09:28:23.737843 26486 net.cpp:163] Top shape: 32 256 14 14 (1605632)
I1230 09:28:23.737854 26486 layer_factory.hpp:76] Creating layer conv45
I1230 09:28:23.737867 26486 net.cpp:110] Creating Layer conv45
I1230 09:28:23.737877 26486 net.cpp:477] conv45 <- eltwise9_relu9_0_split_0
I1230 09:28:23.737893 26486 net.cpp:433] conv45 -> conv45
I1230 09:28:23.744446 26486 net.cpp:155] Setting up conv45
I1230 09:28:23.744472 26486 net.cpp:163] Top shape: 32 256 14 14 (1605632)
I1230 09:28:23.744487 26486 layer_factory.hpp:76] Creating layer bn45
I1230 09:28:23.744505 26486 net.cpp:110] Creating Layer bn45
I1230 09:28:23.744523 26486 net.cpp:477] bn45 <- conv45
I1230 09:28:23.744541 26486 net.cpp:433] bn45 -> bn45
I1230 09:28:23.744655 26486 net.cpp:155] Setting up bn45
I1230 09:28:23.744675 26486 net.cpp:163] Top shape: 32 256 14 14 (1605632)
I1230 09:28:23.744693 26486 layer_factory.hpp:76] Creating layer relu45
I1230 09:28:23.744714 26486 net.cpp:110] Creating Layer relu45
I1230 09:28:23.744742 26486 net.cpp:477] relu45 <- bn45
I1230 09:28:23.744761 26486 net.cpp:419] relu45 -> bn45 (in-place)
I1230 09:28:23.744843 26486 net.cpp:155] Setting up relu45
I1230 09:28:23.744863 26486 net.cpp:163] Top shape: 32 256 14 14 (1605632)
I1230 09:28:23.744879 26486 layer_factory.hpp:76] Creating layer conv46
I1230 09:28:23.744899 26486 net.cpp:110] Creating Layer conv46
I1230 09:28:23.744911 26486 net.cpp:477] conv46 <- bn45
I1230 09:28:23.744930 26486 net.cpp:433] conv46 -> conv46
I1230 09:28:23.751482 26486 net.cpp:155] Setting up conv46
I1230 09:28:23.751507 26486 net.cpp:163] Top shape: 32 256 14 14 (1605632)
I1230 09:28:23.751525 26486 layer_factory.hpp:76] Creating layer bn46
I1230 09:28:23.751544 26486 net.cpp:110] Creating Layer bn46
I1230 09:28:23.751585 26486 net.cpp:477] bn46 <- conv46
I1230 09:28:23.751610 26486 net.cpp:433] bn46 -> bn46
I1230 09:28:23.751735 26486 net.cpp:155] Setting up bn46
I1230 09:28:23.751757 26486 net.cpp:163] Top shape: 32 256 14 14 (1605632)
I1230 09:28:23.751816 26486 layer_factory.hpp:76] Creating layer relu46
I1230 09:28:23.751833 26486 net.cpp:110] Creating Layer relu46
I1230 09:28:23.751848 26486 net.cpp:477] relu46 <- bn46
I1230 09:28:23.751868 26486 net.cpp:419] relu46 -> bn46 (in-place)
I1230 09:28:23.752056 26486 net.cpp:155] Setting up relu46
I1230 09:28:23.752079 26486 net.cpp:163] Top shape: 32 256 14 14 (1605632)
I1230 09:28:23.752095 26486 layer_factory.hpp:76] Creating layer eltwise10
I1230 09:28:23.752115 26486 net.cpp:110] Creating Layer eltwise10
I1230 09:28:23.752128 26486 net.cpp:477] eltwise10 <- eltwise9_relu9_0_split_1
I1230 09:28:23.752146 26486 net.cpp:477] eltwise10 <- bn46
I1230 09:28:23.752162 26486 net.cpp:433] eltwise10 -> eltwise10
I1230 09:28:23.752182 26486 net.cpp:155] Setting up eltwise10
I1230 09:28:23.752198 26486 net.cpp:163] Top shape: 32 256 14 14 (1605632)
I1230 09:28:23.752213 26486 layer_factory.hpp:76] Creating layer relu10
I1230 09:28:23.752229 26486 net.cpp:110] Creating Layer relu10
I1230 09:28:23.752243 26486 net.cpp:477] relu10 <- eltwise10
I1230 09:28:23.752264 26486 net.cpp:419] relu10 -> eltwise10 (in-place)
I1230 09:28:23.752339 26486 net.cpp:155] Setting up relu10
I1230 09:28:23.752357 26486 net.cpp:163] Top shape: 32 256 14 14 (1605632)
I1230 09:28:23.752373 26486 layer_factory.hpp:76] Creating layer eltwise10_relu10_0_split
I1230 09:28:23.752391 26486 net.cpp:110] Creating Layer eltwise10_relu10_0_split
I1230 09:28:23.752404 26486 net.cpp:477] eltwise10_relu10_0_split <- eltwise10
I1230 09:28:23.752420 26486 net.cpp:433] eltwise10_relu10_0_split -> eltwise10_relu10_0_split_0
I1230 09:28:23.752439 26486 net.cpp:433] eltwise10_relu10_0_split -> eltwise10_relu10_0_split_1
I1230 09:28:23.752455 26486 net.cpp:155] Setting up eltwise10_relu10_0_split
I1230 09:28:23.752472 26486 net.cpp:163] Top shape: 32 256 14 14 (1605632)
I1230 09:28:23.752487 26486 net.cpp:163] Top shape: 32 256 14 14 (1605632)
I1230 09:28:23.752501 26486 layer_factory.hpp:76] Creating layer conv47
I1230 09:28:23.752518 26486 net.cpp:110] Creating Layer conv47
I1230 09:28:23.752532 26486 net.cpp:477] conv47 <- eltwise10_relu10_0_split_0
I1230 09:28:23.752550 26486 net.cpp:433] conv47 -> conv47
I1230 09:28:23.758268 26486 net.cpp:155] Setting up conv47
I1230 09:28:23.758292 26486 net.cpp:163] Top shape: 32 256 14 14 (1605632)
I1230 09:28:23.758308 26486 layer_factory.hpp:76] Creating layer bn47
I1230 09:28:23.758327 26486 net.cpp:110] Creating Layer bn47
I1230 09:28:23.758339 26486 net.cpp:477] bn47 <- conv47
I1230 09:28:23.758365 26486 net.cpp:433] bn47 -> bn47
I1230 09:28:23.758478 26486 net.cpp:155] Setting up bn47
I1230 09:28:23.758497 26486 net.cpp:163] Top shape: 32 256 14 14 (1605632)
I1230 09:28:23.758513 26486 layer_factory.hpp:76] Creating layer relu47
I1230 09:28:23.758527 26486 net.cpp:110] Creating Layer relu47
I1230 09:28:23.758538 26486 net.cpp:477] relu47 <- bn47
I1230 09:28:23.758549 26486 net.cpp:419] relu47 -> bn47 (in-place)
I1230 09:28:23.758625 26486 net.cpp:155] Setting up relu47
I1230 09:28:23.758642 26486 net.cpp:163] Top shape: 32 256 14 14 (1605632)
I1230 09:28:23.758666 26486 layer_factory.hpp:76] Creating layer conv48
I1230 09:28:23.758682 26486 net.cpp:110] Creating Layer conv48
I1230 09:28:23.758692 26486 net.cpp:477] conv48 <- bn47
I1230 09:28:23.758708 26486 net.cpp:433] conv48 -> conv48
I1230 09:28:23.764281 26486 net.cpp:155] Setting up conv48
I1230 09:28:23.764309 26486 net.cpp:163] Top shape: 32 256 14 14 (1605632)
I1230 09:28:23.764324 26486 layer_factory.hpp:76] Creating layer bn48
I1230 09:28:23.764351 26486 net.cpp:110] Creating Layer bn48
I1230 09:28:23.764363 26486 net.cpp:477] bn48 <- conv48
I1230 09:28:23.764379 26486 net.cpp:433] bn48 -> bn48
I1230 09:28:23.764493 26486 net.cpp:155] Setting up bn48
I1230 09:28:23.764510 26486 net.cpp:163] Top shape: 32 256 14 14 (1605632)
I1230 09:28:23.764526 26486 layer_factory.hpp:76] Creating layer relu48
I1230 09:28:23.764539 26486 net.cpp:110] Creating Layer relu48
I1230 09:28:23.764550 26486 net.cpp:477] relu48 <- bn48
I1230 09:28:23.764562 26486 net.cpp:419] relu48 -> bn48 (in-place)
I1230 09:28:23.764750 26486 net.cpp:155] Setting up relu48
I1230 09:28:23.764768 26486 net.cpp:163] Top shape: 32 256 14 14 (1605632)
I1230 09:28:23.764780 26486 layer_factory.hpp:76] Creating layer eltwise11
I1230 09:28:23.764794 26486 net.cpp:110] Creating Layer eltwise11
I1230 09:28:23.764804 26486 net.cpp:477] eltwise11 <- eltwise10_relu10_0_split_1
I1230 09:28:23.764817 26486 net.cpp:477] eltwise11 <- bn48
I1230 09:28:23.764832 26486 net.cpp:433] eltwise11 -> eltwise11
I1230 09:28:23.764848 26486 net.cpp:155] Setting up eltwise11
I1230 09:28:23.764861 26486 net.cpp:163] Top shape: 32 256 14 14 (1605632)
I1230 09:28:23.764871 26486 layer_factory.hpp:76] Creating layer relu11
I1230 09:28:23.764884 26486 net.cpp:110] Creating Layer relu11
I1230 09:28:23.764895 26486 net.cpp:477] relu11 <- eltwise11
I1230 09:28:23.764907 26486 net.cpp:419] relu11 -> eltwise11 (in-place)
I1230 09:28:23.764978 26486 net.cpp:155] Setting up relu11
I1230 09:28:23.764993 26486 net.cpp:163] Top shape: 32 256 14 14 (1605632)
I1230 09:28:23.765004 26486 layer_factory.hpp:76] Creating layer eltwise11_relu11_0_split
I1230 09:28:23.765017 26486 net.cpp:110] Creating Layer eltwise11_relu11_0_split
I1230 09:28:23.765028 26486 net.cpp:477] eltwise11_relu11_0_split <- eltwise11
I1230 09:28:23.765043 26486 net.cpp:433] eltwise11_relu11_0_split -> eltwise11_relu11_0_split_0
I1230 09:28:23.765058 26486 net.cpp:433] eltwise11_relu11_0_split -> eltwise11_relu11_0_split_1
I1230 09:28:23.765071 26486 net.cpp:155] Setting up eltwise11_relu11_0_split
I1230 09:28:23.765084 26486 net.cpp:163] Top shape: 32 256 14 14 (1605632)
I1230 09:28:23.765095 26486 net.cpp:163] Top shape: 32 256 14 14 (1605632)
I1230 09:28:23.765105 26486 layer_factory.hpp:76] Creating layer conv49
I1230 09:28:23.765122 26486 net.cpp:110] Creating Layer conv49
I1230 09:28:23.765133 26486 net.cpp:477] conv49 <- eltwise11_relu11_0_split_0
I1230 09:28:23.765148 26486 net.cpp:433] conv49 -> conv49
I1230 09:28:23.771010 26486 net.cpp:155] Setting up conv49
I1230 09:28:23.771033 26486 net.cpp:163] Top shape: 32 256 14 14 (1605632)
I1230 09:28:23.771047 26486 layer_factory.hpp:76] Creating layer bn49
I1230 09:28:23.771065 26486 net.cpp:110] Creating Layer bn49
I1230 09:28:23.771077 26486 net.cpp:477] bn49 <- conv49
I1230 09:28:23.771091 26486 net.cpp:433] bn49 -> bn49
I1230 09:28:23.771208 26486 net.cpp:155] Setting up bn49
I1230 09:28:23.771225 26486 net.cpp:163] Top shape: 32 256 14 14 (1605632)
I1230 09:28:23.771240 26486 layer_factory.hpp:76] Creating layer relu49
I1230 09:28:23.771255 26486 net.cpp:110] Creating Layer relu49
I1230 09:28:23.771265 26486 net.cpp:477] relu49 <- bn49
I1230 09:28:23.771281 26486 net.cpp:419] relu49 -> bn49 (in-place)
I1230 09:28:23.771358 26486 net.cpp:155] Setting up relu49
I1230 09:28:23.771374 26486 net.cpp:163] Top shape: 32 256 14 14 (1605632)
I1230 09:28:23.771385 26486 layer_factory.hpp:76] Creating layer conv410
I1230 09:28:23.771400 26486 net.cpp:110] Creating Layer conv410
I1230 09:28:23.771411 26486 net.cpp:477] conv410 <- bn49
I1230 09:28:23.771461 26486 net.cpp:433] conv410 -> conv410
I1230 09:28:23.777133 26486 net.cpp:155] Setting up conv410
I1230 09:28:23.777159 26486 net.cpp:163] Top shape: 32 256 14 14 (1605632)
I1230 09:28:23.777175 26486 layer_factory.hpp:76] Creating layer bn410
I1230 09:28:23.777192 26486 net.cpp:110] Creating Layer bn410
I1230 09:28:23.777223 26486 net.cpp:477] bn410 <- conv410
I1230 09:28:23.777252 26486 net.cpp:433] bn410 -> bn410
I1230 09:28:23.777397 26486 net.cpp:155] Setting up bn410
I1230 09:28:23.777418 26486 net.cpp:163] Top shape: 32 256 14 14 (1605632)
I1230 09:28:23.777446 26486 layer_factory.hpp:76] Creating layer relu410
I1230 09:28:23.777462 26486 net.cpp:110] Creating Layer relu410
I1230 09:28:23.777477 26486 net.cpp:477] relu410 <- bn410
I1230 09:28:23.777493 26486 net.cpp:419] relu410 -> bn410 (in-place)
I1230 09:28:23.777591 26486 net.cpp:155] Setting up relu410
I1230 09:28:23.777611 26486 net.cpp:163] Top shape: 32 256 14 14 (1605632)
I1230 09:28:23.777624 26486 layer_factory.hpp:76] Creating layer eltwise12
I1230 09:28:23.777642 26486 net.cpp:110] Creating Layer eltwise12
I1230 09:28:23.777655 26486 net.cpp:477] eltwise12 <- eltwise11_relu11_0_split_1
I1230 09:28:23.777672 26486 net.cpp:477] eltwise12 <- bn410
I1230 09:28:23.777689 26486 net.cpp:433] eltwise12 -> eltwise12
I1230 09:28:23.777709 26486 net.cpp:155] Setting up eltwise12
I1230 09:28:23.777724 26486 net.cpp:163] Top shape: 32 256 14 14 (1605632)
I1230 09:28:23.777737 26486 layer_factory.hpp:76] Creating layer relu12
I1230 09:28:23.777755 26486 net.cpp:110] Creating Layer relu12
I1230 09:28:23.777767 26486 net.cpp:477] relu12 <- eltwise12
I1230 09:28:23.777783 26486 net.cpp:419] relu12 -> eltwise12 (in-place)
I1230 09:28:23.777968 26486 net.cpp:155] Setting up relu12
I1230 09:28:23.777990 26486 net.cpp:163] Top shape: 32 256 14 14 (1605632)
I1230 09:28:23.778004 26486 layer_factory.hpp:76] Creating layer eltwise12_relu12_0_split
I1230 09:28:23.778022 26486 net.cpp:110] Creating Layer eltwise12_relu12_0_split
I1230 09:28:23.778036 26486 net.cpp:477] eltwise12_relu12_0_split <- eltwise12
I1230 09:28:23.778053 26486 net.cpp:433] eltwise12_relu12_0_split -> eltwise12_relu12_0_split_0
I1230 09:28:23.778071 26486 net.cpp:433] eltwise12_relu12_0_split -> eltwise12_relu12_0_split_1
I1230 09:28:23.778090 26486 net.cpp:433] eltwise12_relu12_0_split -> eltwise12_relu12_0_split_2
I1230 09:28:23.778111 26486 net.cpp:155] Setting up eltwise12_relu12_0_split
I1230 09:28:23.778128 26486 net.cpp:163] Top shape: 32 256 14 14 (1605632)
I1230 09:28:23.778144 26486 net.cpp:163] Top shape: 32 256 14 14 (1605632)
I1230 09:28:23.778158 26486 net.cpp:163] Top shape: 32 256 14 14 (1605632)
I1230 09:28:23.778174 26486 layer_factory.hpp:76] Creating layer conv411
I1230 09:28:23.778195 26486 net.cpp:110] Creating Layer conv411
I1230 09:28:23.778209 26486 net.cpp:477] conv411 <- eltwise12_relu12_0_split_0
I1230 09:28:23.778228 26486 net.cpp:433] conv411 -> conv411
I1230 09:28:23.783840 26486 net.cpp:155] Setting up conv411
I1230 09:28:23.783862 26486 net.cpp:163] Top shape: 32 256 14 14 (1605632)
I1230 09:28:23.783879 26486 layer_factory.hpp:76] Creating layer bn411
I1230 09:28:23.783897 26486 net.cpp:110] Creating Layer bn411
I1230 09:28:23.783910 26486 net.cpp:477] bn411 <- conv411
I1230 09:28:23.783923 26486 net.cpp:433] bn411 -> bn411
I1230 09:28:23.784039 26486 net.cpp:155] Setting up bn411
I1230 09:28:23.784056 26486 net.cpp:163] Top shape: 32 256 14 14 (1605632)
I1230 09:28:23.784072 26486 layer_factory.hpp:76] Creating layer relu411
I1230 09:28:23.784086 26486 net.cpp:110] Creating Layer relu411
I1230 09:28:23.784096 26486 net.cpp:477] relu411 <- bn411
I1230 09:28:23.784111 26486 net.cpp:419] relu411 -> bn411 (in-place)
I1230 09:28:23.784189 26486 net.cpp:155] Setting up relu411
I1230 09:28:23.784206 26486 net.cpp:163] Top shape: 32 256 14 14 (1605632)
I1230 09:28:23.784216 26486 layer_factory.hpp:76] Creating layer conv412
I1230 09:28:23.784234 26486 net.cpp:110] Creating Layer conv412
I1230 09:28:23.784245 26486 net.cpp:477] conv412 <- bn411
I1230 09:28:23.784271 26486 net.cpp:433] conv412 -> conv412
I1230 09:28:23.789904 26486 net.cpp:155] Setting up conv412
I1230 09:28:23.789926 26486 net.cpp:163] Top shape: 32 256 14 14 (1605632)
I1230 09:28:23.789940 26486 layer_factory.hpp:76] Creating layer bn412
I1230 09:28:23.789958 26486 net.cpp:110] Creating Layer bn412
I1230 09:28:23.789970 26486 net.cpp:477] bn412 <- conv412
I1230 09:28:23.789988 26486 net.cpp:433] bn412 -> bn412
I1230 09:28:23.790103 26486 net.cpp:155] Setting up bn412
I1230 09:28:23.790120 26486 net.cpp:163] Top shape: 32 256 14 14 (1605632)
I1230 09:28:23.790137 26486 layer_factory.hpp:76] Creating layer relu412
I1230 09:28:23.790151 26486 net.cpp:110] Creating Layer relu412
I1230 09:28:23.790163 26486 net.cpp:477] relu412 <- bn412
I1230 09:28:23.790175 26486 net.cpp:419] relu412 -> bn412 (in-place)
I1230 09:28:23.790252 26486 net.cpp:155] Setting up relu412
I1230 09:28:23.790268 26486 net.cpp:163] Top shape: 32 256 14 14 (1605632)
I1230 09:28:23.790279 26486 layer_factory.hpp:76] Creating layer eltwise13
I1230 09:28:23.790294 26486 net.cpp:110] Creating Layer eltwise13
I1230 09:28:23.790307 26486 net.cpp:477] eltwise13 <- eltwise12_relu12_0_split_1
I1230 09:28:23.790319 26486 net.cpp:477] eltwise13 <- bn412
I1230 09:28:23.790331 26486 net.cpp:433] eltwise13 -> eltwise13
I1230 09:28:23.790346 26486 net.cpp:155] Setting up eltwise13
I1230 09:28:23.790359 26486 net.cpp:163] Top shape: 32 256 14 14 (1605632)
I1230 09:28:23.790370 26486 layer_factory.hpp:76] Creating layer relu13
I1230 09:28:23.790382 26486 net.cpp:110] Creating Layer relu13
I1230 09:28:23.790393 26486 net.cpp:477] relu13 <- eltwise13
I1230 09:28:23.790405 26486 net.cpp:419] relu13 -> eltwise13 (in-place)
I1230 09:28:23.790477 26486 net.cpp:155] Setting up relu13
I1230 09:28:23.790493 26486 net.cpp:163] Top shape: 32 256 14 14 (1605632)
I1230 09:28:23.790504 26486 layer_factory.hpp:76] Creating layer relu13_p
I1230 09:28:23.790519 26486 net.cpp:110] Creating Layer relu13_p
I1230 09:28:23.790529 26486 net.cpp:477] relu13_p <- eltwise12_relu12_0_split_2
I1230 09:28:23.790544 26486 net.cpp:433] relu13_p -> relu13_p
I1230 09:28:23.792331 26486 net.cpp:155] Setting up relu13_p
I1230 09:28:23.792353 26486 net.cpp:163] Top shape: 32 512 7 7 (802816)
I1230 09:28:23.792368 26486 layer_factory.hpp:76] Creating layer conv51
I1230 09:28:23.792384 26486 net.cpp:110] Creating Layer conv51
I1230 09:28:23.792395 26486 net.cpp:477] conv51 <- eltwise13
I1230 09:28:23.792412 26486 net.cpp:433] conv51 -> conv51
I1230 09:28:23.804266 26486 net.cpp:155] Setting up conv51
I1230 09:28:23.804289 26486 net.cpp:163] Top shape: 32 512 7 7 (802816)
I1230 09:28:23.804304 26486 layer_factory.hpp:76] Creating layer bn51
I1230 09:28:23.804319 26486 net.cpp:110] Creating Layer bn51
I1230 09:28:23.804330 26486 net.cpp:477] bn51 <- conv51
I1230 09:28:23.804349 26486 net.cpp:433] bn51 -> bn51
I1230 09:28:23.804473 26486 net.cpp:155] Setting up bn51
I1230 09:28:23.804491 26486 net.cpp:163] Top shape: 32 512 7 7 (802816)
I1230 09:28:23.804507 26486 layer_factory.hpp:76] Creating layer relu51
I1230 09:28:23.804519 26486 net.cpp:110] Creating Layer relu51
I1230 09:28:23.804530 26486 net.cpp:477] relu51 <- bn51
I1230 09:28:23.804545 26486 net.cpp:419] relu51 -> bn51 (in-place)
I1230 09:28:23.804736 26486 net.cpp:155] Setting up relu51
I1230 09:28:23.804756 26486 net.cpp:163] Top shape: 32 512 7 7 (802816)
I1230 09:28:23.804767 26486 layer_factory.hpp:76] Creating layer conv52
I1230 09:28:23.804803 26486 net.cpp:110] Creating Layer conv52
I1230 09:28:23.804816 26486 net.cpp:477] conv52 <- bn51
I1230 09:28:23.804829 26486 net.cpp:433] conv52 -> conv52
I1230 09:28:23.829803 26486 net.cpp:155] Setting up conv52
I1230 09:28:23.829843 26486 net.cpp:163] Top shape: 32 512 7 7 (802816)
I1230 09:28:23.829864 26486 layer_factory.hpp:76] Creating layer bn52
I1230 09:28:23.829885 26486 net.cpp:110] Creating Layer bn52
I1230 09:28:23.829897 26486 net.cpp:477] bn52 <- conv52
I1230 09:28:23.829917 26486 net.cpp:433] bn52 -> bn52
I1230 09:28:23.830044 26486 net.cpp:155] Setting up bn52
I1230 09:28:23.830085 26486 net.cpp:163] Top shape: 32 512 7 7 (802816)
I1230 09:28:23.830102 26486 layer_factory.hpp:76] Creating layer relu52
I1230 09:28:23.830116 26486 net.cpp:110] Creating Layer relu52
I1230 09:28:23.830127 26486 net.cpp:477] relu52 <- bn52
I1230 09:28:23.830145 26486 net.cpp:419] relu52 -> bn52 (in-place)
I1230 09:28:23.830224 26486 net.cpp:155] Setting up relu52
I1230 09:28:23.830240 26486 net.cpp:163] Top shape: 32 512 7 7 (802816)
I1230 09:28:23.830251 26486 layer_factory.hpp:76] Creating layer eltwise14
I1230 09:28:23.830268 26486 net.cpp:110] Creating Layer eltwise14
I1230 09:28:23.830281 26486 net.cpp:477] eltwise14 <- relu13_p
I1230 09:28:23.830292 26486 net.cpp:477] eltwise14 <- bn52
I1230 09:28:23.830306 26486 net.cpp:433] eltwise14 -> eltwise14
I1230 09:28:23.830322 26486 net.cpp:155] Setting up eltwise14
I1230 09:28:23.830334 26486 net.cpp:163] Top shape: 32 512 7 7 (802816)
I1230 09:28:23.830345 26486 layer_factory.hpp:76] Creating layer relu14
I1230 09:28:23.830358 26486 net.cpp:110] Creating Layer relu14
I1230 09:28:23.830368 26486 net.cpp:477] relu14 <- eltwise14
I1230 09:28:23.830380 26486 net.cpp:419] relu14 -> eltwise14 (in-place)
I1230 09:28:23.830454 26486 net.cpp:155] Setting up relu14
I1230 09:28:23.830471 26486 net.cpp:163] Top shape: 32 512 7 7 (802816)
I1230 09:28:23.830481 26486 layer_factory.hpp:76] Creating layer eltwise14_relu14_0_split
I1230 09:28:23.830494 26486 net.cpp:110] Creating Layer eltwise14_relu14_0_split
I1230 09:28:23.830505 26486 net.cpp:477] eltwise14_relu14_0_split <- eltwise14
I1230 09:28:23.830518 26486 net.cpp:433] eltwise14_relu14_0_split -> eltwise14_relu14_0_split_0
I1230 09:28:23.830533 26486 net.cpp:433] eltwise14_relu14_0_split -> eltwise14_relu14_0_split_1
I1230 09:28:23.830548 26486 net.cpp:155] Setting up eltwise14_relu14_0_split
I1230 09:28:23.830559 26486 net.cpp:163] Top shape: 32 512 7 7 (802816)
I1230 09:28:23.830570 26486 net.cpp:163] Top shape: 32 512 7 7 (802816)
I1230 09:28:23.830584 26486 layer_factory.hpp:76] Creating layer conv53
I1230 09:28:23.830601 26486 net.cpp:110] Creating Layer conv53
I1230 09:28:23.830612 26486 net.cpp:477] conv53 <- eltwise14_relu14_0_split_0
I1230 09:28:23.830626 26486 net.cpp:433] conv53 -> conv53
I1230 09:28:23.852932 26486 net.cpp:155] Setting up conv53
I1230 09:28:23.852987 26486 net.cpp:163] Top shape: 32 512 7 7 (802816)
I1230 09:28:23.853003 26486 layer_factory.hpp:76] Creating layer bn53
I1230 09:28:23.853052 26486 net.cpp:110] Creating Layer bn53
I1230 09:28:23.853078 26486 net.cpp:477] bn53 <- conv53
I1230 09:28:23.853121 26486 net.cpp:433] bn53 -> bn53
I1230 09:28:23.853268 26486 net.cpp:155] Setting up bn53
I1230 09:28:23.853288 26486 net.cpp:163] Top shape: 32 512 7 7 (802816)
I1230 09:28:23.853333 26486 layer_factory.hpp:76] Creating layer relu53
I1230 09:28:23.853353 26486 net.cpp:110] Creating Layer relu53
I1230 09:28:23.853366 26486 net.cpp:477] relu53 <- bn53
I1230 09:28:23.853385 26486 net.cpp:419] relu53 -> bn53 (in-place)
I1230 09:28:23.853471 26486 net.cpp:155] Setting up relu53
I1230 09:28:23.853489 26486 net.cpp:163] Top shape: 32 512 7 7 (802816)
I1230 09:28:23.853503 26486 layer_factory.hpp:76] Creating layer conv54
I1230 09:28:23.853526 26486 net.cpp:110] Creating Layer conv54
I1230 09:28:23.853539 26486 net.cpp:477] conv54 <- bn53
I1230 09:28:23.853557 26486 net.cpp:433] conv54 -> conv54
I1230 09:28:23.874487 26486 net.cpp:155] Setting up conv54
I1230 09:28:23.874524 26486 net.cpp:163] Top shape: 32 512 7 7 (802816)
I1230 09:28:23.874543 26486 layer_factory.hpp:76] Creating layer bn54
I1230 09:28:23.874568 26486 net.cpp:110] Creating Layer bn54
I1230 09:28:23.874583 26486 net.cpp:477] bn54 <- conv54
I1230 09:28:23.874618 26486 net.cpp:433] bn54 -> bn54
I1230 09:28:23.874745 26486 net.cpp:155] Setting up bn54
I1230 09:28:23.874765 26486 net.cpp:163] Top shape: 32 512 7 7 (802816)
I1230 09:28:23.874784 26486 layer_factory.hpp:76] Creating layer relu54
I1230 09:28:23.874802 26486 net.cpp:110] Creating Layer relu54
I1230 09:28:23.874817 26486 net.cpp:477] relu54 <- bn54
I1230 09:28:23.874835 26486 net.cpp:419] relu54 -> bn54 (in-place)
I1230 09:28:23.875059 26486 net.cpp:155] Setting up relu54
I1230 09:28:23.875082 26486 net.cpp:163] Top shape: 32 512 7 7 (802816)
I1230 09:28:23.875097 26486 layer_factory.hpp:76] Creating layer eltwise15
I1230 09:28:23.875121 26486 net.cpp:110] Creating Layer eltwise15
I1230 09:28:23.875135 26486 net.cpp:477] eltwise15 <- eltwise14_relu14_0_split_1
I1230 09:28:23.875155 26486 net.cpp:477] eltwise15 <- bn54
I1230 09:28:23.875172 26486 net.cpp:433] eltwise15 -> eltwise15
I1230 09:28:23.875195 26486 net.cpp:155] Setting up eltwise15
I1230 09:28:23.875210 26486 net.cpp:163] Top shape: 32 512 7 7 (802816)
I1230 09:28:23.875224 26486 layer_factory.hpp:76] Creating layer relu15
I1230 09:28:23.875241 26486 net.cpp:110] Creating Layer relu15
I1230 09:28:23.875255 26486 net.cpp:477] relu15 <- eltwise15
I1230 09:28:23.875270 26486 net.cpp:419] relu15 -> eltwise15 (in-place)
I1230 09:28:23.875346 26486 net.cpp:155] Setting up relu15
I1230 09:28:23.875365 26486 net.cpp:163] Top shape: 32 512 7 7 (802816)
I1230 09:28:23.875378 26486 layer_factory.hpp:76] Creating layer eltwise15_relu15_0_split
I1230 09:28:23.875399 26486 net.cpp:110] Creating Layer eltwise15_relu15_0_split
I1230 09:28:23.875413 26486 net.cpp:477] eltwise15_relu15_0_split <- eltwise15
I1230 09:28:23.875428 26486 net.cpp:433] eltwise15_relu15_0_split -> eltwise15_relu15_0_split_0
I1230 09:28:23.875447 26486 net.cpp:433] eltwise15_relu15_0_split -> eltwise15_relu15_0_split_1
I1230 09:28:23.875464 26486 net.cpp:155] Setting up eltwise15_relu15_0_split
I1230 09:28:23.875481 26486 net.cpp:163] Top shape: 32 512 7 7 (802816)
I1230 09:28:23.875496 26486 net.cpp:163] Top shape: 32 512 7 7 (802816)
I1230 09:28:23.875510 26486 layer_factory.hpp:76] Creating layer conv55
I1230 09:28:23.875531 26486 net.cpp:110] Creating Layer conv55
I1230 09:28:23.875545 26486 net.cpp:477] conv55 <- eltwise15_relu15_0_split_0
I1230 09:28:23.875566 26486 net.cpp:433] conv55 -> conv55
I1230 09:28:23.898051 26486 net.cpp:155] Setting up conv55
I1230 09:28:23.898095 26486 net.cpp:163] Top shape: 32 512 7 7 (802816)
I1230 09:28:23.898130 26486 layer_factory.hpp:76] Creating layer bn55
I1230 09:28:23.898164 26486 net.cpp:110] Creating Layer bn55
I1230 09:28:23.898180 26486 net.cpp:477] bn55 <- conv55
I1230 09:28:23.898211 26486 net.cpp:433] bn55 -> bn55
I1230 09:28:23.898346 26486 net.cpp:155] Setting up bn55
I1230 09:28:23.898367 26486 net.cpp:163] Top shape: 32 512 7 7 (802816)
I1230 09:28:23.898387 26486 layer_factory.hpp:76] Creating layer relu55
I1230 09:28:23.898406 26486 net.cpp:110] Creating Layer relu55
I1230 09:28:23.898422 26486 net.cpp:477] relu55 <- bn55
I1230 09:28:23.898437 26486 net.cpp:419] relu55 -> bn55 (in-place)
I1230 09:28:23.898524 26486 net.cpp:155] Setting up relu55
I1230 09:28:23.898543 26486 net.cpp:163] Top shape: 32 512 7 7 (802816)
I1230 09:28:23.898557 26486 layer_factory.hpp:76] Creating layer conv56
I1230 09:28:23.898581 26486 net.cpp:110] Creating Layer conv56
I1230 09:28:23.898594 26486 net.cpp:477] conv56 <- bn55
I1230 09:28:23.898612 26486 net.cpp:433] conv56 -> conv56
I1230 09:28:23.922230 26486 net.cpp:155] Setting up conv56
I1230 09:28:23.922269 26486 net.cpp:163] Top shape: 32 512 7 7 (802816)
I1230 09:28:23.922287 26486 layer_factory.hpp:76] Creating layer bn56
I1230 09:28:23.922309 26486 net.cpp:110] Creating Layer bn56
I1230 09:28:23.922323 26486 net.cpp:477] bn56 <- conv56
I1230 09:28:23.922341 26486 net.cpp:433] bn56 -> bn56
I1230 09:28:23.922492 26486 net.cpp:155] Setting up bn56
I1230 09:28:23.922510 26486 net.cpp:163] Top shape: 32 512 7 7 (802816)
I1230 09:28:23.922528 26486 layer_factory.hpp:76] Creating layer relu56
I1230 09:28:23.922544 26486 net.cpp:110] Creating Layer relu56
I1230 09:28:23.922554 26486 net.cpp:477] relu56 <- bn56
I1230 09:28:23.922570 26486 net.cpp:419] relu56 -> bn56 (in-place)
I1230 09:28:23.922778 26486 net.cpp:155] Setting up relu56
I1230 09:28:23.922798 26486 net.cpp:163] Top shape: 32 512 7 7 (802816)
I1230 09:28:23.922809 26486 layer_factory.hpp:76] Creating layer eltwise16
I1230 09:28:23.922852 26486 net.cpp:110] Creating Layer eltwise16
I1230 09:28:23.922865 26486 net.cpp:477] eltwise16 <- eltwise15_relu15_0_split_1
I1230 09:28:23.922878 26486 net.cpp:477] eltwise16 <- bn56
I1230 09:28:23.922890 26486 net.cpp:433] eltwise16 -> eltwise16
I1230 09:28:23.922909 26486 net.cpp:155] Setting up eltwise16
I1230 09:28:23.922921 26486 net.cpp:163] Top shape: 32 512 7 7 (802816)
I1230 09:28:23.922931 26486 layer_factory.hpp:76] Creating layer relu16
I1230 09:28:23.922945 26486 net.cpp:110] Creating Layer relu16
I1230 09:28:23.922955 26486 net.cpp:477] relu16 <- eltwise16
I1230 09:28:23.922969 26486 net.cpp:419] relu16 -> eltwise16 (in-place)
I1230 09:28:23.923058 26486 net.cpp:155] Setting up relu16
I1230 09:28:23.923074 26486 net.cpp:163] Top shape: 32 512 7 7 (802816)
I1230 09:28:23.923085 26486 layer_factory.hpp:76] Creating layer pool5
I1230 09:28:23.923105 26486 net.cpp:110] Creating Layer pool5
I1230 09:28:23.923115 26486 net.cpp:477] pool5 <- eltwise16
I1230 09:28:23.923130 26486 net.cpp:433] pool5 -> pool5
I1230 09:28:23.923228 26486 net.cpp:155] Setting up pool5
I1230 09:28:23.923245 26486 net.cpp:163] Top shape: 32 512 1 1 (16384)
I1230 09:28:23.923257 26486 layer_factory.hpp:76] Creating layer ip1
I1230 09:28:23.923279 26486 net.cpp:110] Creating Layer ip1
I1230 09:28:23.923303 26486 net.cpp:477] ip1 <- pool5
I1230 09:28:23.923317 26486 net.cpp:433] ip1 -> ip1
I1230 09:28:23.928719 26486 net.cpp:155] Setting up ip1
I1230 09:28:23.928743 26486 net.cpp:163] Top shape: 32 1000 (32000)
I1230 09:28:23.928758 26486 layer_factory.hpp:76] Creating layer accuracy
I1230 09:28:23.928779 26486 net.cpp:110] Creating Layer accuracy
I1230 09:28:23.928794 26486 net.cpp:477] accuracy <- ip1
I1230 09:28:23.928810 26486 net.cpp:477] accuracy <- label
I1230 09:28:23.928829 26486 net.cpp:433] accuracy -> accuracy
I1230 09:28:23.928853 26486 net.cpp:155] Setting up accuracy
I1230 09:28:23.928869 26486 net.cpp:163] Top shape: (1)
…
