…
I1231 07:23:06.681818 47127 net.cpp:339] The NetState phase (0) differed from the phase (1) specified by a rule in layer accuracy
I1231 07:23:06.682653 47127 net.cpp:50] Initializing net from parameters: 
name: "RsdNet34v2"
state {
  phase: TRAIN
}
layer {
  name: "data"
  type: "Data"
  top: "data"
  top: "label"
  include {
    phase: TRAIN
  }
  transform_param {
    scale: 0.0039215689
    mirror: true
    crop_size: 224
    mean_file: "./ilsvrc12_mean.binaryproto"
  }
  data_param {
    source: "./ilsvrc12_train_lmdb"
    batch_size: 64
    backend: LMDB
  }
}
layer {
  name: "conv01"
  type: "Convolution"
  bottom: "data"
  top: "conv01"
  param {
    lr_mult: 1
  }
  param {
    lr_mult: 2
  }
  convolution_param {
    num_output: 64
    pad: 3
    kernel_size: 7
    stride: 2
    weight_filler {
      type: "xavier"
    }
    bias_filler {
      type: "constant"
    }
  }
}
layer {
  name: "bn01"
  type: "BN"
  bottom: "conv01"
  top: "bn01"
  param {
    lr_mult: 1
    decay_mult: 0
  }
  param {
    lr_mult: 1
    decay_mult: 0
  }
  bn_param {
    scale_filler {
      type: "constant"
      value: 1
    }
    shift_filler {
      type: "constant"
      value: 0
    }
  }
}
layer {
  name: "relu01"
  type: "ReLU"
  bottom: "bn01"
  top: "bn01"
}
layer {
  name: "pool1"
  type: "Pooling"
  bottom: "bn01"
  top: "pool1"
  pooling_param {
    pool: MAX
    kernel_size: 3
    stride: 2
  }
}
layer {
  name: "conv21"
  type: "Convolution"
  bottom: "pool1"
  top: "conv21"
  param {
    lr_mult: 1
  }
  param {
    lr_mult: 2
  }
  convolution_param {
    num_output: 64
    pad: 1
    kernel_size: 3
    stride: 1
    weight_filler {
      type: "xavier"
    }
    bias_filler {
      type: "constant"
    }
  }
}
layer {
  name: "bn21"
  type: "BN"
  bottom: "conv21"
  top: "bn21"
  param {
    lr_mult: 1
    decay_mult: 0
  }
  param {
    lr_mult: 1
    decay_mult: 0
  }
  bn_param {
    scale_filler {
      type: "constant"
      value: 1
    }
    shift_filler {
      type: "constant"
      value: 0
    }
  }
}
layer {
  name: "relu21"
  type: "ReLU"
  bottom: "bn21"
  top: "bn21"
}
layer {
  name: "conv22"
  type: "Convolution"
  bottom: "bn21"
  top: "conv22"
  param {
    lr_mult: 1
  }
  param {
    lr_mult: 2
  }
  convolution_param {
    num_output: 64
    pad: 1
    kernel_size: 3
    stride: 1
    weight_filler {
      type: "xavier"
    }
    bias_filler {
      type: "constant"
    }
  }
}
layer {
  name: "bn22"
  type: "BN"
  bottom: "conv22"
  top: "bn22"
  param {
    lr_mult: 1
    decay_mult: 0
  }
  param {
    lr_mult: 1
    decay_mult: 0
  }
  bn_param {
    scale_filler {
      type: "constant"
      value: 1
    }
    shift_filler {
      type: "constant"
      value: 0
    }
  }
}
layer {
  name: "relu22"
  type: "ReLU"
  bottom: "bn22"
  top: "bn22"
}
layer {
  name: "eltwise1"
  type: "Eltwise"
  bottom: "pool1"
  bottom: "bn22"
  top: "eltwise1"
  eltwise_param {
    operation: SUM
  }
}
layer {
  name: "relu1"
  type: "ReLU"
  bottom: "eltwise1"
  top: "eltwise1"
}
layer {
  name: "conv23"
  type: "Convolution"
  bottom: "eltwise1"
  top: "conv23"
  param {
    lr_mult: 1
  }
  param {
    lr_mult: 2
  }
  convolution_param {
    num_output: 64
    pad: 1
    kernel_size: 3
    stride: 1
    weight_filler {
      type: "xavier"
    }
    bias_filler {
      type: "constant"
    }
  }
}
layer {
  name: "bn23"
  type: "BN"
  bottom: "conv23"
  top: "bn23"
  param {
    lr_mult: 1
    decay_mult: 0
  }
  param {
    lr_mult: 1
    decay_mult: 0
  }
  bn_param {
    scale_filler {
      type: "constant"
      value: 1
    }
    shift_filler {
      type: "constant"
      value: 0
    }
  }
}
layer {
  name: "relu23"
  type: "ReLU"
  bottom: "bn23"
  top: "bn23"
}
layer {
  name: "conv24"
  type: "Convolution"
  bottom: "bn23"
  top: "conv24"
  param {
    lr_mult: 1
  }
  param {
    lr_mult: 2
  }
  convolution_param {
    num_output: 64
    pad: 1
    kernel_size: 3
    stride: 1
    weight_filler {
      type: "xavier"
    }
    bias_filler {
      type: "constant"
    }
  }
}
layer {
  name: "bn24"
  type: "BN"
  bottom: "conv24"
  top: "bn24"
  param {
    lr_mult: 1
    decay_mult: 0
  }
  param {
    lr_mult: 1
    decay_mult: 0
  }
  bn_param {
    scale_filler {
      type: "constant"
      value: 1
    }
    shift_filler {
      type: "constant"
      value: 0
    }
  }
}
layer {
  name: "relu24"
  type: "ReLU"
  bottom: "bn24"
  top: "bn24"
}
layer {
  name: "eltwise2"
  type: "Eltwise"
  bottom: "eltwise1"
  bottom: "bn24"
  top: "eltwise2"
  eltwise_param {
    operation: SUM
  }
}
layer {
  name: "relu2"
  type: "ReLU"
  bottom: "eltwise2"
  top: "eltwise2"
}
layer {
  name: "conv25"
  type: "Convolution"
  bottom: "bn24"
  top: "conv25"
  param {
    lr_mult: 1
  }
  param {
    lr_mult: 2
  }
  convolution_param {
    num_output: 64
    pad: 1
    kernel_size: 3
    stride: 1
    weight_filler {
      type: "xavier"
    }
    bias_filler {
      type: "constant"
    }
  }
}
layer {
  name: "bn25"
  type: "BN"
  bottom: "conv25"
  top: "bn25"
  param {
    lr_mult: 1
    decay_mult: 0
  }
  param {
    lr_mult: 1
    decay_mult: 0
  }
  bn_param {
    scale_filler {
      type: "constant"
      value: 1
    }
    shift_filler {
      type: "constant"
      value: 0
    }
  }
}
layer {
  name: "relu25"
  type: "ReLU"
  bottom: "bn25"
  top: "bn25"
}
layer {
  name: "conv26"
  type: "Convolution"
  bottom: "bn25"
  top: "conv26"
  param {
    lr_mult: 1
  }
  param {
    lr_mult: 2
  }
  convolution_param {
    num_output: 64
    pad: 1
    kernel_size: 3
    stride: 1
    weight_filler {
      type: "xavier"
    }
    bias_filler {
      type: "constant"
    }
  }
}
layer {
  name: "bn26"
  type: "BN"
  bottom: "conv26"
  top: "bn26"
  param {
    lr_mult: 1
    decay_mult: 0
  }
  param {
    lr_mult: 1
    decay_mult: 0
  }
  bn_param {
    scale_filler {
      type: "constant"
      value: 1
    }
    shift_filler {
      type: "constant"
      value: 0
    }
  }
}
layer {
  name: "relu26"
  type: "ReLU"
  bottom: "bn26"
  top: "bn26"
}
layer {
  name: "eltwise3"
  type: "Eltwise"
  bottom: "eltwise2"
  bottom: "bn26"
  top: "eltwise3"
  eltwise_param {
    operation: SUM
  }
}
layer {
  name: "relu3"
  type: "ReLU"
  bottom: "eltwise3"
  top: "eltwise3"
}
layer {
  name: "relu3_p"
  type: "Convolution"
  bottom: "eltwise3"
  top: "relu3_p"
  param {
    lr_mult: 1
  }
  param {
    lr_mult: 2
  }
  convolution_param {
    num_output: 128
    pad: 0
    kernel_size: 1
    stride: 2
    weight_filler {
      type: "xavier"
    }
    bias_filler {
      type: "constant"
    }
  }
}
layer {
  name: "conv31"
  type: "Convolution"
  bottom: "eltwise3"
  top: "conv31"
  param {
    lr_mult: 1
  }
  param {
    lr_mult: 2
  }
  convolution_param {
    num_output: 128
    pad: 1
    kernel_size: 3
    stride: 2
    weight_filler {
      type: "xavier"
    }
    bias_filler {
      type: "constant"
    }
  }
}
layer {
  name: "bn31"
  type: "BN"
  bottom: "conv31"
  top: "bn31"
  param {
    lr_mult: 1
    decay_mult: 0
  }
  param {
    lr_mult: 1
    decay_mult: 0
  }
  bn_param {
    scale_filler {
      type: "constant"
      value: 1
    }
    shift_filler {
      type: "constant"
      value: 0
    }
  }
}
layer {
  name: "relu31"
  type: "ReLU"
  bottom: "bn31"
  top: "bn31"
}
layer {
  name: "conv32"
  type: "Convolution"
  bottom: "bn31"
  top: "conv32"
  param {
    lr_mult: 1
  }
  param {
    lr_mult: 2
  }
  convolution_param {
    num_output: 128
    pad: 1
    kernel_size: 3
    stride: 1
    weight_filler {
      type: "xavier"
    }
    bias_filler {
      type: "constant"
    }
  }
}
layer {
  name: "bn32"
  type: "BN"
  bottom: "conv32"
  top: "bn32"
  param {
    lr_mult: 1
    decay_mult: 0
  }
  param {
    lr_mult: 1
    decay_mult: 0
  }
  bn_param {
    scale_filler {
      type: "constant"
      value: 1
    }
    shift_filler {
      type: "constant"
      value: 0
    }
  }
}
layer {
  name: "relu32"
  type: "ReLU"
  bottom: "bn32"
  top: "bn32"
}
layer {
  name: "eltwise4"
  type: "Eltwise"
  bottom: "relu3_p"
  bottom: "bn32"
  top: "eltwise4"
  eltwise_param {
    operation: SUM
  }
}
layer {
  name: "relu4"
  type: "ReLU"
  bottom: "eltwise4"
  top: "eltwise4"
}
layer {
  name: "conv33"
  type: "Convolution"
  bottom: "eltwise4"
  top: "conv33"
  param {
    lr_mult: 1
  }
  param {
    lr_mult: 2
  }
  convolution_param {
    num_output: 128
    pad: 1
    kernel_size: 3
    stride: 1
    weight_filler {
      type: "xavier"
    }
    bias_filler {
      type: "constant"
    }
  }
}
layer {
  name: "bn33"
  type: "BN"
  bottom: "conv33"
  top: "bn33"
  param {
    lr_mult: 1
    decay_mult: 0
  }
  param {
    lr_mult: 1
    decay_mult: 0
  }
  bn_param {
    scale_filler {
      type: "constant"
      value: 1
    }
    shift_filler {
      type: "constant"
      value: 0
    }
  }
}
layer {
  name: "relu33"
  type: "ReLU"
  bottom: "bn33"
  top: "bn33"
}
layer {
  name: "conv34"
  type: "Convolution"
  bottom: "bn33"
  top: "conv34"
  param {
    lr_mult: 1
  }
  param {
    lr_mult: 2
  }
  convolution_param {
    num_output: 128
    pad: 1
    kernel_size: 3
    stride: 1
    weight_filler {
      type: "xavier"
    }
    bias_filler {
      type: "constant"
    }
  }
}
layer {
  name: "bn34"
  type: "BN"
  bottom: "conv34"
  top: "bn34"
  param {
    lr_mult: 1
    decay_mult: 0
  }
  param {
    lr_mult: 1
    decay_mult: 0
  }
  bn_param {
    scale_filler {
      type: "constant"
      value: 1
    }
    shift_filler {
      type: "constant"
      value: 0
    }
  }
}
layer {
  name: "relu34"
  type: "ReLU"
  bottom: "bn34"
  top: "bn34"
}
layer {
  name: "eltwise5"
  type: "Eltwise"
  bottom: "eltwise4"
  bottom: "bn34"
  top: "eltwise5"
  eltwise_param {
    operation: SUM
  }
}
layer {
  name: "relu5"
  type: "ReLU"
  bottom: "eltwise5"
  top: "eltwise5"
}
layer {
  name: "conv35"
  type: "Convolution"
  bottom: "eltwise5"
  top: "conv35"
  param {
    lr_mult: 1
  }
  param {
    lr_mult: 2
  }
  convolution_param {
    num_output: 128
    pad: 1
    kernel_size: 3
    stride: 1
    weight_filler {
      type: "xavier"
    }
    bias_filler {
      type: "constant"
    }
  }
}
layer {
  name: "bn35"
  type: "BN"
  bottom: "conv35"
  top: "bn35"
  param {
    lr_mult: 1
    decay_mult: 0
  }
  param {
    lr_mult: 1
    decay_mult: 0
  }
  bn_param {
    scale_filler {
      type: "constant"
      value: 1
    }
    shift_filler {
      type: "constant"
      value: 0
    }
  }
}
layer {
  name: "relu35"
  type: "ReLU"
  bottom: "bn35"
  top: "bn35"
}
layer {
  name: "conv36"
  type: "Convolution"
  bottom: "bn35"
  top: "conv36"
  param {
    lr_mult: 1
  }
  param {
    lr_mult: 2
  }
  convolution_param {
    num_output: 128
    pad: 1
    kernel_size: 3
    stride: 1
    weight_filler {
      type: "xavier"
    }
    bias_filler {
      type: "constant"
    }
  }
}
layer {
  name: "bn36"
  type: "BN"
  bottom: "conv36"
  top: "bn36"
  param {
    lr_mult: 1
    decay_mult: 0
  }
  param {
    lr_mult: 1
    decay_mult: 0
  }
  bn_param {
    scale_filler {
      type: "constant"
      value: 1
    }
    shift_filler {
      type: "constant"
      value: 0
    }
  }
}
layer {
  name: "relu36"
  type: "ReLU"
  bottom: "bn36"
  top: "bn36"
}
layer {
  name: "eltwise6"
  type: "Eltwise"
  bottom: "eltwise5"
  bottom: "bn36"
  top: "eltwise6"
  eltwise_param {
    operation: SUM
  }
}
layer {
  name: "relu6"
  type: "ReLU"
  bottom: "eltwise6"
  top: "eltwise6"
}
layer {
  name: "conv37"
  type: "Convolution"
  bottom: "eltwise6"
  top: "conv37"
  param {
    lr_mult: 1
  }
  param {
    lr_mult: 2
  }
  convolution_param {
    num_output: 128
    pad: 1
    kernel_size: 3
    stride: 1
    weight_filler {
      type: "xavier"
    }
    bias_filler {
      type: "constant"
    }
  }
}
layer {
  name: "bn37"
  type: "BN"
  bottom: "conv37"
  top: "bn37"
  param {
    lr_mult: 1
    decay_mult: 0
  }
  param {
    lr_mult: 1
    decay_mult: 0
  }
  bn_param {
    scale_filler {
      type: "constant"
      value: 1
    }
    shift_filler {
      type: "constant"
      value: 0
    }
  }
}
layer {
  name: "relu37"
  type: "ReLU"
  bottom: "bn37"
  top: "bn37"
}
layer {
  name: "conv38"
  type: "Convolution"
  bottom: "bn37"
  top: "conv38"
  param {
    lr_mult: 1
  }
  param {
    lr_mult: 2
  }
  convolution_param {
    num_output: 128
    pad: 1
    kernel_size: 3
    stride: 1
    weight_filler {
      type: "xavier"
    }
    bias_filler {
      type: "constant"
    }
  }
}
layer {
  name: "bn38"
  type: "BN"
  bottom: "conv38"
  top: "bn38"
  param {
    lr_mult: 1
    decay_mult: 0
  }
  param {
    lr_mult: 1
    decay_mult: 0
  }
  bn_param {
    scale_filler {
      type: "constant"
      value: 1
    }
    shift_filler {
      type: "constant"
      value: 0
    }
  }
}
layer {
  name: "relu38"
  type: "ReLU"
  bottom: "bn38"
  top: "bn38"
}
layer {
  name: "eltwise7"
  type: "Eltwise"
  bottom: "eltwise6"
  bottom: "bn38"
  top: "eltwise7"
  eltwise_param {
    operation: SUM
  }
}
layer {
  name: "relu7"
  type: "ReLU"
  bottom: "eltwise7"
  top: "eltwise7"
}
layer {
  name: "relu7_p"
  type: "Convolution"
  bottom: "eltwise7"
  top: "relu7_p"
  param {
    lr_mult: 1
  }
  param {
    lr_mult: 2
  }
  convolution_param {
    num_output: 256
    pad: 0
    kernel_size: 1
    stride: 2
    weight_filler {
      type: "xavier"
    }
    bias_filler {
      type: "constant"
    }
  }
}
layer {
  name: "conv41"
  type: "Convolution"
  bottom: "eltwise7"
  top: "conv41"
  param {
    lr_mult: 1
  }
  param {
    lr_mult: 2
  }
  convolution_param {
    num_output: 256
    pad: 1
    kernel_size: 3
    stride: 2
    weight_filler {
      type: "xavier"
    }
    bias_filler {
      type: "constant"
    }
  }
}
layer {
  name: "bn41"
  type: "BN"
  bottom: "conv41"
  top: "bn41"
  param {
    lr_mult: 1
    decay_mult: 0
  }
  param {
    lr_mult: 1
    decay_mult: 0
  }
  bn_param {
    scale_filler {
      type: "constant"
      value: 1
    }
    shift_filler {
      type: "constant"
      value: 0
    }
  }
}
layer {
  name: "relu41"
  type: "ReLU"
  bottom: "bn41"
  top: "bn41"
}
layer {
  name: "conv42"
  type: "Convolution"
  bottom: "bn41"
  top: "conv42"
  param {
    lr_mult: 1
  }
  param {
    lr_mult: 2
  }
  convolution_param {
    num_output: 256
    pad: 1
    kernel_size: 3
    stride: 1
    weight_filler {
      type: "xavier"
    }
    bias_filler {
      type: "constant"
    }
  }
}
layer {
  name: "bn42"
  type: "BN"
  bottom: "conv42"
  top: "bn42"
  param {
    lr_mult: 1
    decay_mult: 0
  }
  param {
    lr_mult: 1
    decay_mult: 0
  }
  bn_param {
    scale_filler {
      type: "constant"
      value: 1
    }
    shift_filler {
      type: "constant"
      value: 0
    }
  }
}
layer {
  name: "relu42"
  type: "ReLU"
  bottom: "bn42"
  top: "bn42"
}
layer {
  name: "eltwise8"
  type: "Eltwise"
  bottom: "relu7_p"
  bottom: "bn42"
  top: "eltwise8"
  eltwise_param {
    operation: SUM
  }
}
layer {
  name: "relu8"
  type: "ReLU"
  bottom: "eltwise8"
  top: "eltwise8"
}
layer {
  name: "conv43"
  type: "Convolution"
  bottom: "eltwise8"
  top: "conv43"
  param {
    lr_mult: 1
  }
  param {
    lr_mult: 2
  }
  convolution_param {
    num_output: 256
    pad: 1
    kernel_size: 3
    stride: 1
    weight_filler {
      type: "xavier"
    }
    bias_filler {
      type: "constant"
    }
  }
}
layer {
  name: "bn43"
  type: "BN"
  bottom: "conv43"
  top: "bn43"
  param {
    lr_mult: 1
    decay_mult: 0
  }
  param {
    lr_mult: 1
    decay_mult: 0
  }
  bn_param {
    scale_filler {
      type: "constant"
      value: 1
    }
    shift_filler {
      type: "constant"
      value: 0
    }
  }
}
layer {
  name: "relu43"
  type: "ReLU"
  bottom: "bn43"
  top: "bn43"
}
layer {
  name: "conv44"
  type: "Convolution"
  bottom: "bn43"
  top: "conv44"
  param {
    lr_mult: 1
  }
  param {
    lr_mult: 2
  }
  convolution_param {
    num_output: 256
    pad: 1
    kernel_size: 3
    stride: 1
    weight_filler {
      type: "xavier"
    }
    bias_filler {
      type: "constant"
    }
  }
}
layer {
  name: "bn44"
  type: "BN"
  bottom: "conv44"
  top: "bn44"
  param {
    lr_mult: 1
    decay_mult: 0
  }
  param {
    lr_mult: 1
    decay_mult: 0
  }
  bn_param {
    scale_filler {
      type: "constant"
      value: 1
    }
    shift_filler {
      type: "constant"
      value: 0
    }
  }
}
layer {
  name: "relu44"
  type: "ReLU"
  bottom: "bn44"
  top: "bn44"
}
layer {
  name: "eltwise9"
  type: "Eltwise"
  bottom: "eltwise8"
  bottom: "bn44"
  top: "eltwise9"
  eltwise_param {
    operation: SUM
  }
}
layer {
  name: "relu9"
  type: "ReLU"
  bottom: "eltwise9"
  top: "eltwise9"
}
layer {
  name: "conv45"
  type: "Convolution"
  bottom: "eltwise9"
  top: "conv45"
  param {
    lr_mult: 1
  }
  param {
    lr_mult: 2
  }
  convolution_param {
    num_output: 256
    pad: 1
    kernel_size: 3
    stride: 1
    weight_filler {
      type: "xavier"
    }
    bias_filler {
      type: "constant"
    }
  }
}
layer {
  name: "bn45"
  type: "BN"
  bottom: "conv45"
  top: "bn45"
  param {
    lr_mult: 1
    decay_mult: 0
  }
  param {
    lr_mult: 1
    decay_mult: 0
  }
  bn_param {
    scale_filler {
      type: "constant"
      value: 1
    }
    shift_filler {
      type: "constant"
      value: 0
    }
  }
}
layer {
  name: "relu45"
  type: "ReLU"
  bottom: "bn45"
  top: "bn45"
}
layer {
  name: "conv46"
  type: "Convolution"
  bottom: "bn45"
  top: "conv46"
  param {
    lr_mult: 1
  }
  param {
    lr_mult: 2
  }
  convolution_param {
    num_output: 256
    pad: 1
    kernel_size: 3
    stride: 1
    weight_filler {
      type: "xavier"
    }
    bias_filler {
      type: "constant"
    }
  }
}
layer {
  name: "bn46"
  type: "BN"
  bottom: "conv46"
  top: "bn46"
  param {
    lr_mult: 1
    decay_mult: 0
  }
  param {
    lr_mult: 1
    decay_mult: 0
  }
  bn_param {
    scale_filler {
      type: "constant"
      value: 1
    }
    shift_filler {
      type: "constant"
      value: 0
    }
  }
}
layer {
  name: "relu46"
  type: "ReLU"
  bottom: "bn46"
  top: "bn46"
}
layer {
  name: "eltwise10"
  type: "Eltwise"
  bottom: "eltwise9"
  bottom: "bn46"
  top: "eltwise10"
  eltwise_param {
    operation: SUM
  }
}
layer {
  name: "relu10"
  type: "ReLU"
  bottom: "eltwise10"
  top: "eltwise10"
}
layer {
  name: "conv47"
  type: "Convolution"
  bottom: "eltwise10"
  top: "conv47"
  param {
    lr_mult: 1
  }
  param {
    lr_mult: 2
  }
  convolution_param {
    num_output: 256
    pad: 1
    kernel_size: 3
    stride: 1
    weight_filler {
      type: "xavier"
    }
    bias_filler {
      type: "constant"
    }
  }
}
layer {
  name: "bn47"
  type: "BN"
  bottom: "conv47"
  top: "bn47"
  param {
    lr_mult: 1
    decay_mult: 0
  }
  param {
    lr_mult: 1
    decay_mult: 0
  }
  bn_param {
    scale_filler {
      type: "constant"
      value: 1
    }
    shift_filler {
      type: "constant"
      value: 0
    }
  }
}
layer {
  name: "relu47"
  type: "ReLU"
  bottom: "bn47"
  top: "bn47"
}
layer {
  name: "conv48"
  type: "Convolution"
  bottom: "bn47"
  top: "conv48"
  param {
    lr_mult: 1
  }
  param {
    lr_mult: 2
  }
  convolution_param {
    num_output: 256
    pad: 1
    kernel_size: 3
    stride: 1
    weight_filler {
      type: "xavier"
    }
    bias_filler {
      type: "constant"
    }
  }
}
layer {
  name: "bn48"
  type: "BN"
  bottom: "conv48"
  top: "bn48"
  param {
    lr_mult: 1
    decay_mult: 0
  }
  param {
    lr_mult: 1
    decay_mult: 0
  }
  bn_param {
    scale_filler {
      type: "constant"
      value: 1
    }
    shift_filler {
      type: "constant"
      value: 0
    }
  }
}
layer {
  name: "relu48"
  type: "ReLU"
  bottom: "bn48"
  top: "bn48"
}
layer {
  name: "eltwise11"
  type: "Eltwise"
  bottom: "eltwise10"
  bottom: "bn48"
  top: "eltwise11"
  eltwise_param {
    operation: SUM
  }
}
layer {
  name: "relu11"
  type: "ReLU"
  bottom: "eltwise11"
  top: "eltwise11"
}
layer {
  name: "conv49"
  type: "Convolution"
  bottom: "eltwise11"
  top: "conv49"
  param {
    lr_mult: 1
  }
  param {
    lr_mult: 2
  }
  convolution_param {
    num_output: 256
    pad: 1
    kernel_size: 3
    stride: 1
    weight_filler {
      type: "xavier"
    }
    bias_filler {
      type: "constant"
    }
  }
}
layer {
  name: "bn49"
  type: "BN"
  bottom: "conv49"
  top: "bn49"
  param {
    lr_mult: 1
    decay_mult: 0
  }
  param {
    lr_mult: 1
    decay_mult: 0
  }
  bn_param {
    scale_filler {
      type: "constant"
      value: 1
    }
    shift_filler {
      type: "constant"
      value: 0
    }
  }
}
layer {
  name: "relu49"
  type: "ReLU"
  bottom: "bn49"
  top: "bn49"
}
layer {
  name: "conv410"
  type: "Convolution"
  bottom: "bn49"
  top: "conv410"
  param {
    lr_mult: 1
  }
  param {
    lr_mult: 2
  }
  convolution_param {
    num_output: 256
    pad: 1
    kernel_size: 3
    stride: 1
    weight_filler {
      type: "xavier"
    }
    bias_filler {
      type: "constant"
    }
  }
}
layer {
  name: "bn410"
  type: "BN"
  bottom: "conv410"
  top: "bn410"
  param {
    lr_mult: 1
    decay_mult: 0
  }
  param {
    lr_mult: 1
    decay_mult: 0
  }
  bn_param {
    scale_filler {
      type: "constant"
      value: 1
    }
    shift_filler {
      type: "constant"
      value: 0
    }
  }
}
layer {
  name: "relu410"
  type: "ReLU"
  bottom: "bn410"
  top: "bn410"
}
layer {
  name: "eltwise12"
  type: "Eltwise"
  bottom: "eltwise11"
  bottom: "bn410"
  top: "eltwise12"
  eltwise_param {
    operation: SUM
  }
}
layer {
  name: "relu12"
  type: "ReLU"
  bottom: "eltwise12"
  top: "eltwise12"
}
layer {
  name: "conv411"
  type: "Convolution"
  bottom: "eltwise12"
  top: "conv411"
  param {
    lr_mult: 1
  }
  param {
    lr_mult: 2
  }
  convolution_param {
    num_output: 256
    pad: 1
    kernel_size: 3
    stride: 1
    weight_filler {
      type: "xavier"
    }
    bias_filler {
      type: "constant"
    }
  }
}
layer {
  name: "bn411"
  type: "BN"
  bottom: "conv411"
  top: "bn411"
  param {
    lr_mult: 1
    decay_mult: 0
  }
  param {
    lr_mult: 1
    decay_mult: 0
  }
  bn_param {
    scale_filler {
      type: "constant"
      value: 1
    }
    shift_filler {
      type: "constant"
      value: 0
    }
  }
}
layer {
  name: "relu411"
  type: "ReLU"
  bottom: "bn411"
  top: "bn411"
}
layer {
  name: "conv412"
  type: "Convolution"
  bottom: "bn411"
  top: "conv412"
  param {
    lr_mult: 1
  }
  param {
    lr_mult: 2
  }
  convolution_param {
    num_output: 256
    pad: 1
    kernel_size: 3
    stride: 1
    weight_filler {
      type: "xavier"
    }
    bias_filler {
      type: "constant"
    }
  }
}
layer {
  name: "bn412"
  type: "BN"
  bottom: "conv412"
  top: "bn412"
  param {
    lr_mult: 1
    decay_mult: 0
  }
  param {
    lr_mult: 1
    decay_mult: 0
  }
  bn_param {
    scale_filler {
      type: "constant"
      value: 1
    }
    shift_filler {
      type: "constant"
      value: 0
    }
  }
}
layer {
  name: "relu412"
  type: "ReLU"
  bottom: "bn412"
  top: "bn412"
}
layer {
  name: "eltwise13"
  type: "Eltwise"
  bottom: "eltwise12"
  bottom: "bn412"
  top: "eltwise13"
  eltwise_param {
    operation: SUM
  }
}
layer {
  name: "relu13"
  type: "ReLU"
  bottom: "eltwise13"
  top: "eltwise13"
}
layer {
  name: "relu13_p"
  type: "Convolution"
  bottom: "eltwise12"
  top: "relu13_p"
  param {
    lr_mult: 1
  }
  param {
    lr_mult: 2
  }
  convolution_param {
    num_output: 512
    pad: 0
    kernel_size: 1
    stride: 2
    weight_filler {
      type: "xavier"
    }
    bias_filler {
      type: "constant"
    }
  }
}
layer {
  name: "conv51"
  type: "Convolution"
  bottom: "eltwise13"
  top: "conv51"
  param {
    lr_mult: 1
  }
  param {
    lr_mult: 2
  }
  convolution_param {
    num_output: 512
    pad: 1
    kernel_size: 3
    stride: 2
    weight_filler {
      type: "xavier"
    }
    bias_filler {
      type: "constant"
    }
  }
}
layer {
  name: "bn51"
  type: "BN"
  bottom: "conv51"
  top: "bn51"
  param {
    lr_mult: 1
    decay_mult: 0
  }
  param {
    lr_mult: 1
    decay_mult: 0
  }
  bn_param {
    scale_filler {
      type: "constant"
      value: 1
    }
    shift_filler {
      type: "constant"
      value: 0
    }
  }
}
layer {
  name: "relu51"
  type: "ReLU"
  bottom: "bn51"
  top: "bn51"
}
layer {
  name: "conv52"
  type: "Convolution"
  bottom: "bn51"
  top: "conv52"
  param {
    lr_mult: 1
  }
  param {
    lr_mult: 2
  }
  convolution_param {
    num_output: 512
    pad: 1
    kernel_size: 3
    stride: 1
    weight_filler {
      type: "xavier"
    }
    bias_filler {
      type: "constant"
    }
  }
}
layer {
  name: "bn52"
  type: "BN"
  bottom: "conv52"
  top: "bn52"
  param {
    lr_mult: 1
    decay_mult: 0
  }
  param {
    lr_mult: 1
    decay_mult: 0
  }
  bn_param {
    scale_filler {
      type: "constant"
      value: 1
    }
    shift_filler {
      type: "constant"
      value: 0
    }
  }
}
layer {
  name: "relu52"
  type: "ReLU"
  bottom: "bn52"
  top: "bn52"
}
layer {
  name: "eltwise14"
  type: "Eltwise"
  bottom: "relu13_p"
  bottom: "bn52"
  top: "eltwise14"
  eltwise_param {
    operation: SUM
  }
}
layer {
  name: "relu14"
  type: "ReLU"
  bottom: "eltwise14"
  top: "eltwise14"
}
layer {
  name: "conv53"
  type: "Convolution"
  bottom: "eltwise14"
  top: "conv53"
  param {
    lr_mult: 1
  }
  param {
    lr_mult: 2
  }
  convolution_param {
    num_output: 512
    pad: 1
    kernel_size: 3
    stride: 1
    weight_filler {
      type: "xavier"
    }
    bias_filler {
      type: "constant"
    }
  }
}
layer {
  name: "bn53"
  type: "BN"
  bottom: "conv53"
  top: "bn53"
  param {
    lr_mult: 1
    decay_mult: 0
  }
  param {
    lr_mult: 1
    decay_mult: 0
  }
  bn_param {
    scale_filler {
      type: "constant"
      value: 1
    }
    shift_filler {
      type: "constant"
      value: 0
    }
  }
}
layer {
  name: "relu53"
  type: "ReLU"
  bottom: "bn53"
  top: "bn53"
}
layer {
  name: "conv54"
  type: "Convolution"
  bottom: "bn53"
  top: "conv54"
  param {
    lr_mult: 1
  }
  param {
    lr_mult: 2
  }
  convolution_param {
    num_output: 512
    pad: 1
    kernel_size: 3
    stride: 1
    weight_filler {
      type: "xavier"
    }
    bias_filler {
      type: "constant"
    }
  }
}
layer {
  name: "bn54"
  type: "BN"
  bottom: "conv54"
  top: "bn54"
  param {
    lr_mult: 1
    decay_mult: 0
  }
  param {
    lr_mult: 1
    decay_mult: 0
  }
  bn_param {
    scale_filler {
      type: "constant"
      value: 1
    }
    shift_filler {
      type: "constant"
      value: 0
    }
  }
}
layer {
  name: "relu54"
  type: "ReLU"
  bottom: "bn54"
  top: "bn54"
}
layer {
  name: "eltwise15"
  type: "Eltwise"
  bottom: "eltwise14"
  bottom: "bn54"
  top: "eltwise15"
  eltwise_param {
    operation: SUM
  }
}
layer {
  name: "relu15"
  type: "ReLU"
  bottom: "eltwise15"
  top: "eltwise15"
}
layer {
  name: "conv55"
  type: "Convolution"
  bottom: "eltwise15"
  top: "conv55"
  param {
    lr_mult: 1
  }
  param {
    lr_mult: 2
  }
  convolution_param {
    num_output: 512
    pad: 1
    kernel_size: 3
    stride: 1
    weight_filler {
      type: "xavier"
    }
    bias_filler {
      type: "constant"
    }
  }
}
layer {
  name: "bn55"
  type: "BN"
  bottom: "conv55"
  top: "bn55"
  param {
    lr_mult: 1
    decay_mult: 0
  }
  param {
    lr_mult: 1
    decay_mult: 0
  }
  bn_param {
    scale_filler {
      type: "constant"
      value: 1
    }
    shift_filler {
      type: "constant"
      value: 0
    }
  }
}
layer {
  name: "relu55"
  type: "ReLU"
  bottom: "bn55"
  top: "bn55"
}
layer {
  name: "conv56"
  type: "Convolution"
  bottom: "bn55"
  top: "conv56"
  param {
    lr_mult: 1
  }
  param {
    lr_mult: 2
  }
  convolution_param {
    num_output: 512
    pad: 1
    kernel_size: 3
    stride: 1
    weight_filler {
      type: "xavier"
    }
    bias_filler {
      type: "constant"
    }
  }
}
layer {
  name: "bn56"
  type: "BN"
  bottom: "conv56"
  top: "bn56"
  param {
    lr_mult: 1
    decay_mult: 0
  }
  param {
    lr_mult: 1
    decay_mult: 0
  }
  bn_param {
    scale_filler {
      type: "constant"
      value: 1
    }
    shift_filler {
      type: "constant"
      value: 0
    }
  }
}
layer {
  name: "relu56"
  type: "ReLU"
  bottom: "bn56"
  top: "bn56"
}
layer {
  name: "eltwise16"
  type: "Eltwise"
  bottom: "eltwise15"
  bottom: "bn56"
  top: "eltwise16"
  eltwise_param {
    operation: SUM
  }
}
layer {
  name: "relu16"
  type: "ReLU"
  bottom: "eltwise16"
  top: "eltwise16"
}
layer {
  name: "pool5"
  type: "Pooling"
  bottom: "eltwise16"
  top: "pool5"
  pooling_param {
    pool: AVE
    kernel_size: 7
    stride: 1
  }
}
layer {
  name: "ip1"
  type: "InnerProduct"
  bottom: "pool5"
  top: "ip1"
  param {
    lr_mult: 1
  }
  param {
    lr_mult: 2
  }
  inner_product_param {
    num_output: 1000
    weight_filler {
      type: "xavier"
    }
    bias_filler {
      type: "constant"
    }
  }
}
layer {
  name: "loss"
  type: "SoftmaxWithLoss"
  bottom: "ip1"
  bottom: "label"
  top: "loss"
  include {
    phase: TRAIN
  }
}
I1231 07:23:06.719319 47127 layer_factory.hpp:76] Creating layer data
I1231 07:23:06.719904 47127 net.cpp:110] Creating Layer data
I1231 07:23:06.719933 47127 net.cpp:433] data -> data
I1231 07:23:06.720007 47127 net.cpp:433] data -> label
I1231 07:23:06.720043 47127 data_transformer.cpp:23] Loading mean file from: ./ilsvrc12_mean.binaryproto
I1231 07:23:06.720877 47130 db_lmdb.cpp:22] Opened lmdb ./ilsvrc12_train_lmdb
I1231 07:23:06.774227 47127 data_layer.cpp:44] output data size: 64,3,224,224
I1231 07:23:06.856102 47127 net.cpp:155] Setting up data
I1231 07:23:06.856185 47127 net.cpp:163] Top shape: 64 3 224 224 (9633792)
I1231 07:23:06.856204 47127 net.cpp:163] Top shape: 64 (64)
I1231 07:23:06.856227 47127 layer_factory.hpp:76] Creating layer conv01
I1231 07:23:06.856266 47127 net.cpp:110] Creating Layer conv01
I1231 07:23:06.856284 47127 net.cpp:477] conv01 <- data
I1231 07:23:06.856359 47127 net.cpp:433] conv01 -> conv01
I1231 07:23:08.242105 47127 net.cpp:155] Setting up conv01
I1231 07:23:08.242177 47127 net.cpp:163] Top shape: 64 64 112 112 (51380224)
I1231 07:23:08.242218 47127 layer_factory.hpp:76] Creating layer bn01
I1231 07:23:08.242252 47127 net.cpp:110] Creating Layer bn01
I1231 07:23:08.242266 47127 net.cpp:477] bn01 <- conv01
I1231 07:23:08.242328 47127 net.cpp:433] bn01 -> bn01
I1231 07:23:08.242456 47127 net.cpp:155] Setting up bn01
I1231 07:23:08.242482 47127 net.cpp:163] Top shape: 64 64 112 112 (51380224)
I1231 07:23:08.242506 47127 layer_factory.hpp:76] Creating layer relu01
I1231 07:23:08.242523 47127 net.cpp:110] Creating Layer relu01
I1231 07:23:08.242537 47127 net.cpp:477] relu01 <- bn01
I1231 07:23:08.242550 47127 net.cpp:419] relu01 -> bn01 (in-place)
I1231 07:23:08.242631 47127 net.cpp:155] Setting up relu01
I1231 07:23:08.242650 47127 net.cpp:163] Top shape: 64 64 112 112 (51380224)
I1231 07:23:08.242662 47127 layer_factory.hpp:76] Creating layer pool1
I1231 07:23:08.242684 47127 net.cpp:110] Creating Layer pool1
I1231 07:23:08.242697 47127 net.cpp:477] pool1 <- bn01
I1231 07:23:08.242712 47127 net.cpp:433] pool1 -> pool1
I1231 07:23:08.242808 47127 net.cpp:155] Setting up pool1
I1231 07:23:08.242828 47127 net.cpp:163] Top shape: 64 64 56 56 (12845056)
I1231 07:23:08.242841 47127 layer_factory.hpp:76] Creating layer pool1_pool1_0_split
I1231 07:23:08.242859 47127 net.cpp:110] Creating Layer pool1_pool1_0_split
I1231 07:23:08.242872 47127 net.cpp:477] pool1_pool1_0_split <- pool1
I1231 07:23:08.242887 47127 net.cpp:433] pool1_pool1_0_split -> pool1_pool1_0_split_0
I1231 07:23:08.242905 47127 net.cpp:433] pool1_pool1_0_split -> pool1_pool1_0_split_1
I1231 07:23:08.242924 47127 net.cpp:155] Setting up pool1_pool1_0_split
I1231 07:23:08.242939 47127 net.cpp:163] Top shape: 64 64 56 56 (12845056)
I1231 07:23:08.242952 47127 net.cpp:163] Top shape: 64 64 56 56 (12845056)
I1231 07:23:08.242965 47127 layer_factory.hpp:76] Creating layer conv21
I1231 07:23:08.242982 47127 net.cpp:110] Creating Layer conv21
I1231 07:23:08.243026 47127 net.cpp:477] conv21 <- pool1_pool1_0_split_0
I1231 07:23:08.243041 47127 net.cpp:433] conv21 -> conv21
I1231 07:23:08.244520 47127 net.cpp:155] Setting up conv21
I1231 07:23:08.244554 47127 net.cpp:163] Top shape: 64 64 56 56 (12845056)
I1231 07:23:08.244575 47127 layer_factory.hpp:76] Creating layer bn21
I1231 07:23:08.244597 47127 net.cpp:110] Creating Layer bn21
I1231 07:23:08.244614 47127 net.cpp:477] bn21 <- conv21
I1231 07:23:08.244635 47127 net.cpp:433] bn21 -> bn21
I1231 07:23:08.244725 47127 net.cpp:155] Setting up bn21
I1231 07:23:08.244745 47127 net.cpp:163] Top shape: 64 64 56 56 (12845056)
I1231 07:23:08.244766 47127 layer_factory.hpp:76] Creating layer relu21
I1231 07:23:08.244784 47127 net.cpp:110] Creating Layer relu21
I1231 07:23:08.244796 47127 net.cpp:477] relu21 <- bn21
I1231 07:23:08.244812 47127 net.cpp:419] relu21 -> bn21 (in-place)
I1231 07:23:08.244881 47127 net.cpp:155] Setting up relu21
I1231 07:23:08.244899 47127 net.cpp:163] Top shape: 64 64 56 56 (12845056)
I1231 07:23:08.244912 47127 layer_factory.hpp:76] Creating layer conv22
I1231 07:23:08.244928 47127 net.cpp:110] Creating Layer conv22
I1231 07:23:08.244942 47127 net.cpp:477] conv22 <- bn21
I1231 07:23:08.244956 47127 net.cpp:433] conv22 -> conv22
I1231 07:23:08.245558 47127 net.cpp:155] Setting up conv22
I1231 07:23:08.245594 47127 net.cpp:163] Top shape: 64 64 56 56 (12845056)
I1231 07:23:08.245609 47127 layer_factory.hpp:76] Creating layer bn22
I1231 07:23:08.245625 47127 net.cpp:110] Creating Layer bn22
I1231 07:23:08.245637 47127 net.cpp:477] bn22 <- conv22
I1231 07:23:08.245652 47127 net.cpp:433] bn22 -> bn22
I1231 07:23:08.245739 47127 net.cpp:155] Setting up bn22
I1231 07:23:08.245759 47127 net.cpp:163] Top shape: 64 64 56 56 (12845056)
I1231 07:23:08.245779 47127 layer_factory.hpp:76] Creating layer relu22
I1231 07:23:08.245795 47127 net.cpp:110] Creating Layer relu22
I1231 07:23:08.245806 47127 net.cpp:477] relu22 <- bn22
I1231 07:23:08.245820 47127 net.cpp:419] relu22 -> bn22 (in-place)
I1231 07:23:08.245995 47127 net.cpp:155] Setting up relu22
I1231 07:23:08.246016 47127 net.cpp:163] Top shape: 64 64 56 56 (12845056)
I1231 07:23:08.246027 47127 layer_factory.hpp:76] Creating layer eltwise1
I1231 07:23:08.246045 47127 net.cpp:110] Creating Layer eltwise1
I1231 07:23:08.246057 47127 net.cpp:477] eltwise1 <- pool1_pool1_0_split_1
I1231 07:23:08.246069 47127 net.cpp:477] eltwise1 <- bn22
I1231 07:23:08.246083 47127 net.cpp:433] eltwise1 -> eltwise1
I1231 07:23:08.246106 47127 net.cpp:155] Setting up eltwise1
I1231 07:23:08.246134 47127 net.cpp:163] Top shape: 64 64 56 56 (12845056)
I1231 07:23:08.246143 47127 layer_factory.hpp:76] Creating layer relu1
I1231 07:23:08.246156 47127 net.cpp:110] Creating Layer relu1
I1231 07:23:08.246166 47127 net.cpp:477] relu1 <- eltwise1
I1231 07:23:08.246178 47127 net.cpp:419] relu1 -> eltwise1 (in-place)
I1231 07:23:08.246242 47127 net.cpp:155] Setting up relu1
I1231 07:23:08.246256 47127 net.cpp:163] Top shape: 64 64 56 56 (12845056)
I1231 07:23:08.246266 47127 layer_factory.hpp:76] Creating layer eltwise1_relu1_0_split
I1231 07:23:08.246279 47127 net.cpp:110] Creating Layer eltwise1_relu1_0_split
I1231 07:23:08.246289 47127 net.cpp:477] eltwise1_relu1_0_split <- eltwise1
I1231 07:23:08.246301 47127 net.cpp:433] eltwise1_relu1_0_split -> eltwise1_relu1_0_split_0
I1231 07:23:08.246315 47127 net.cpp:433] eltwise1_relu1_0_split -> eltwise1_relu1_0_split_1
I1231 07:23:08.246330 47127 net.cpp:155] Setting up eltwise1_relu1_0_split
I1231 07:23:08.246341 47127 net.cpp:163] Top shape: 64 64 56 56 (12845056)
I1231 07:23:08.246352 47127 net.cpp:163] Top shape: 64 64 56 56 (12845056)
I1231 07:23:08.246362 47127 layer_factory.hpp:76] Creating layer conv23
I1231 07:23:08.246377 47127 net.cpp:110] Creating Layer conv23
I1231 07:23:08.246387 47127 net.cpp:477] conv23 <- eltwise1_relu1_0_split_0
I1231 07:23:08.246399 47127 net.cpp:433] conv23 -> conv23
I1231 07:23:08.247006 47127 net.cpp:155] Setting up conv23
I1231 07:23:08.247026 47127 net.cpp:163] Top shape: 64 64 56 56 (12845056)
I1231 07:23:08.481775 47127 layer_factory.hpp:76] Creating layer bn23
I1231 07:23:08.481819 47127 net.cpp:110] Creating Layer bn23
I1231 07:23:08.481839 47127 net.cpp:477] bn23 <- conv23
I1231 07:23:08.481860 47127 net.cpp:433] bn23 -> bn23
I1231 07:23:08.481961 47127 net.cpp:155] Setting up bn23
I1231 07:23:08.481986 47127 net.cpp:163] Top shape: 64 64 56 56 (12845056)
I1231 07:23:08.482012 47127 layer_factory.hpp:76] Creating layer relu23
I1231 07:23:08.482028 47127 net.cpp:110] Creating Layer relu23
I1231 07:23:08.482040 47127 net.cpp:477] relu23 <- bn23
I1231 07:23:08.482054 47127 net.cpp:419] relu23 -> bn23 (in-place)
I1231 07:23:08.482132 47127 net.cpp:155] Setting up relu23
I1231 07:23:08.482151 47127 net.cpp:163] Top shape: 64 64 56 56 (12845056)
I1231 07:23:08.482164 47127 layer_factory.hpp:76] Creating layer conv24
I1231 07:23:08.482182 47127 net.cpp:110] Creating Layer conv24
I1231 07:23:08.482194 47127 net.cpp:477] conv24 <- bn23
I1231 07:23:08.482209 47127 net.cpp:433] conv24 -> conv24
I1231 07:23:08.482831 47127 net.cpp:155] Setting up conv24
I1231 07:23:08.482866 47127 net.cpp:163] Top shape: 64 64 56 56 (12845056)
I1231 07:23:08.482888 47127 layer_factory.hpp:76] Creating layer bn24
I1231 07:23:08.482906 47127 net.cpp:110] Creating Layer bn24
I1231 07:23:08.482918 47127 net.cpp:477] bn24 <- conv24
I1231 07:23:08.482934 47127 net.cpp:433] bn24 -> bn24
I1231 07:23:08.483026 47127 net.cpp:155] Setting up bn24
I1231 07:23:08.483044 47127 net.cpp:163] Top shape: 64 64 56 56 (12845056)
I1231 07:23:08.483062 47127 layer_factory.hpp:76] Creating layer relu24
I1231 07:23:08.483077 47127 net.cpp:110] Creating Layer relu24
I1231 07:23:08.483089 47127 net.cpp:477] relu24 <- bn24
I1231 07:23:08.483103 47127 net.cpp:419] relu24 -> bn24 (in-place)
I1231 07:23:08.483175 47127 net.cpp:155] Setting up relu24
I1231 07:23:08.483192 47127 net.cpp:163] Top shape: 64 64 56 56 (12845056)
I1231 07:23:08.483206 47127 layer_factory.hpp:76] Creating layer bn24_relu24_0_split
I1231 07:23:08.483220 47127 net.cpp:110] Creating Layer bn24_relu24_0_split
I1231 07:23:08.483233 47127 net.cpp:477] bn24_relu24_0_split <- bn24
I1231 07:23:08.483247 47127 net.cpp:433] bn24_relu24_0_split -> bn24_relu24_0_split_0
I1231 07:23:08.483264 47127 net.cpp:433] bn24_relu24_0_split -> bn24_relu24_0_split_1
I1231 07:23:08.483281 47127 net.cpp:155] Setting up bn24_relu24_0_split
I1231 07:23:08.483295 47127 net.cpp:163] Top shape: 64 64 56 56 (12845056)
I1231 07:23:08.483309 47127 net.cpp:163] Top shape: 64 64 56 56 (12845056)
I1231 07:23:08.483320 47127 layer_factory.hpp:76] Creating layer eltwise2
I1231 07:23:08.483337 47127 net.cpp:110] Creating Layer eltwise2
I1231 07:23:08.483356 47127 net.cpp:477] eltwise2 <- eltwise1_relu1_0_split_1
I1231 07:23:08.483371 47127 net.cpp:477] eltwise2 <- bn24_relu24_0_split_0
I1231 07:23:08.483384 47127 net.cpp:433] eltwise2 -> eltwise2
I1231 07:23:08.483402 47127 net.cpp:155] Setting up eltwise2
I1231 07:23:08.483417 47127 net.cpp:163] Top shape: 64 64 56 56 (12845056)
I1231 07:23:08.483428 47127 layer_factory.hpp:76] Creating layer relu2
I1231 07:23:08.483443 47127 net.cpp:110] Creating Layer relu2
I1231 07:23:08.483454 47127 net.cpp:477] relu2 <- eltwise2
I1231 07:23:08.483469 47127 net.cpp:419] relu2 -> eltwise2 (in-place)
I1231 07:23:08.483644 47127 net.cpp:155] Setting up relu2
I1231 07:23:08.483664 47127 net.cpp:163] Top shape: 64 64 56 56 (12845056)
I1231 07:23:08.483677 47127 layer_factory.hpp:76] Creating layer conv25
I1231 07:23:08.483695 47127 net.cpp:110] Creating Layer conv25
I1231 07:23:08.483706 47127 net.cpp:477] conv25 <- bn24_relu24_0_split_1
I1231 07:23:08.483722 47127 net.cpp:433] conv25 -> conv25
I1231 07:23:08.484349 47127 net.cpp:155] Setting up conv25
I1231 07:23:08.484370 47127 net.cpp:163] Top shape: 64 64 56 56 (12845056)
I1231 07:23:08.484386 47127 layer_factory.hpp:76] Creating layer bn25
I1231 07:23:08.484402 47127 net.cpp:110] Creating Layer bn25
I1231 07:23:08.484416 47127 net.cpp:477] bn25 <- conv25
I1231 07:23:08.484431 47127 net.cpp:433] bn25 -> bn25
I1231 07:23:08.484534 47127 net.cpp:155] Setting up bn25
I1231 07:23:08.484551 47127 net.cpp:163] Top shape: 64 64 56 56 (12845056)
I1231 07:23:08.484571 47127 layer_factory.hpp:76] Creating layer relu25
I1231 07:23:08.484586 47127 net.cpp:110] Creating Layer relu25
I1231 07:23:08.484597 47127 net.cpp:477] relu25 <- bn25
I1231 07:23:08.484611 47127 net.cpp:419] relu25 -> bn25 (in-place)
I1231 07:23:08.484678 47127 net.cpp:155] Setting up relu25
I1231 07:23:08.484694 47127 net.cpp:163] Top shape: 64 64 56 56 (12845056)
I1231 07:23:08.484717 47127 layer_factory.hpp:76] Creating layer conv26
I1231 07:23:08.484732 47127 net.cpp:110] Creating Layer conv26
I1231 07:23:08.484742 47127 net.cpp:477] conv26 <- bn25
I1231 07:23:08.484756 47127 net.cpp:433] conv26 -> conv26
I1231 07:23:08.485358 47127 net.cpp:155] Setting up conv26
I1231 07:23:08.485379 47127 net.cpp:163] Top shape: 64 64 56 56 (12845056)
I1231 07:23:08.485394 47127 layer_factory.hpp:76] Creating layer bn26
I1231 07:23:08.485409 47127 net.cpp:110] Creating Layer bn26
I1231 07:23:08.485420 47127 net.cpp:477] bn26 <- conv26
I1231 07:23:08.485435 47127 net.cpp:433] bn26 -> bn26
I1231 07:23:08.485538 47127 net.cpp:155] Setting up bn26
I1231 07:23:08.485554 47127 net.cpp:163] Top shape: 64 64 56 56 (12845056)
I1231 07:23:08.485569 47127 layer_factory.hpp:76] Creating layer relu26
I1231 07:23:08.485582 47127 net.cpp:110] Creating Layer relu26
I1231 07:23:08.485592 47127 net.cpp:477] relu26 <- bn26
I1231 07:23:08.485605 47127 net.cpp:419] relu26 -> bn26 (in-place)
I1231 07:23:08.485669 47127 net.cpp:155] Setting up relu26
I1231 07:23:08.485684 47127 net.cpp:163] Top shape: 64 64 56 56 (12845056)
I1231 07:23:08.485695 47127 layer_factory.hpp:76] Creating layer eltwise3
I1231 07:23:08.485707 47127 net.cpp:110] Creating Layer eltwise3
I1231 07:23:08.485718 47127 net.cpp:477] eltwise3 <- eltwise2
I1231 07:23:08.485729 47127 net.cpp:477] eltwise3 <- bn26
I1231 07:23:08.485743 47127 net.cpp:433] eltwise3 -> eltwise3
I1231 07:23:08.485757 47127 net.cpp:155] Setting up eltwise3
I1231 07:23:08.485769 47127 net.cpp:163] Top shape: 64 64 56 56 (12845056)
I1231 07:23:08.485780 47127 layer_factory.hpp:76] Creating layer relu3
I1231 07:23:08.485791 47127 net.cpp:110] Creating Layer relu3
I1231 07:23:08.485801 47127 net.cpp:477] relu3 <- eltwise3
I1231 07:23:08.485813 47127 net.cpp:419] relu3 -> eltwise3 (in-place)
I1231 07:23:08.485877 47127 net.cpp:155] Setting up relu3
I1231 07:23:08.485893 47127 net.cpp:163] Top shape: 64 64 56 56 (12845056)
I1231 07:23:08.485903 47127 layer_factory.hpp:76] Creating layer eltwise3_relu3_0_split
I1231 07:23:08.485918 47127 net.cpp:110] Creating Layer eltwise3_relu3_0_split
I1231 07:23:08.485929 47127 net.cpp:477] eltwise3_relu3_0_split <- eltwise3
I1231 07:23:08.485941 47127 net.cpp:433] eltwise3_relu3_0_split -> eltwise3_relu3_0_split_0
I1231 07:23:08.485955 47127 net.cpp:433] eltwise3_relu3_0_split -> eltwise3_relu3_0_split_1
I1231 07:23:08.485970 47127 net.cpp:155] Setting up eltwise3_relu3_0_split
I1231 07:23:08.485982 47127 net.cpp:163] Top shape: 64 64 56 56 (12845056)
I1231 07:23:08.485993 47127 net.cpp:163] Top shape: 64 64 56 56 (12845056)
I1231 07:23:08.486003 47127 layer_factory.hpp:76] Creating layer relu3_p
I1231 07:23:08.486017 47127 net.cpp:110] Creating Layer relu3_p
I1231 07:23:08.486027 47127 net.cpp:477] relu3_p <- eltwise3_relu3_0_split_0
I1231 07:23:08.486042 47127 net.cpp:433] relu3_p -> relu3_p
I1231 07:23:08.486977 47127 net.cpp:155] Setting up relu3_p
I1231 07:23:08.486999 47127 net.cpp:163] Top shape: 64 128 28 28 (6422528)
I1231 07:23:08.487013 47127 layer_factory.hpp:76] Creating layer conv31
I1231 07:23:08.487028 47127 net.cpp:110] Creating Layer conv31
I1231 07:23:08.487040 47127 net.cpp:477] conv31 <- eltwise3_relu3_0_split_1
I1231 07:23:08.487053 47127 net.cpp:433] conv31 -> conv31
I1231 07:23:08.488407 47127 net.cpp:155] Setting up conv31
I1231 07:23:08.488430 47127 net.cpp:163] Top shape: 64 128 28 28 (6422528)
I1231 07:23:08.488445 47127 layer_factory.hpp:76] Creating layer bn31
I1231 07:23:08.488461 47127 net.cpp:110] Creating Layer bn31
I1231 07:23:08.488484 47127 net.cpp:477] bn31 <- conv31
I1231 07:23:08.488499 47127 net.cpp:433] bn31 -> bn31
I1231 07:23:08.488574 47127 net.cpp:155] Setting up bn31
I1231 07:23:08.488590 47127 net.cpp:163] Top shape: 64 128 28 28 (6422528)
I1231 07:23:08.488606 47127 layer_factory.hpp:76] Creating layer relu31
I1231 07:23:08.488620 47127 net.cpp:110] Creating Layer relu31
I1231 07:23:08.488631 47127 net.cpp:477] relu31 <- bn31
I1231 07:23:08.488642 47127 net.cpp:419] relu31 -> bn31 (in-place)
I1231 07:23:08.488821 47127 net.cpp:155] Setting up relu31
I1231 07:23:08.488839 47127 net.cpp:163] Top shape: 64 128 28 28 (6422528)
I1231 07:23:08.488857 47127 layer_factory.hpp:76] Creating layer conv32
I1231 07:23:08.488873 47127 net.cpp:110] Creating Layer conv32
I1231 07:23:08.488883 47127 net.cpp:477] conv32 <- bn31
I1231 07:23:08.488896 47127 net.cpp:433] conv32 -> conv32
I1231 07:23:08.490234 47127 net.cpp:155] Setting up conv32
I1231 07:23:08.490254 47127 net.cpp:163] Top shape: 64 128 28 28 (6422528)
I1231 07:23:08.490269 47127 layer_factory.hpp:76] Creating layer bn32
I1231 07:23:08.490284 47127 net.cpp:110] Creating Layer bn32
I1231 07:23:08.490294 47127 net.cpp:477] bn32 <- conv32
I1231 07:23:08.490313 47127 net.cpp:433] bn32 -> bn32
I1231 07:23:08.490396 47127 net.cpp:155] Setting up bn32
I1231 07:23:08.490411 47127 net.cpp:163] Top shape: 64 128 28 28 (6422528)
I1231 07:23:08.490427 47127 layer_factory.hpp:76] Creating layer relu32
I1231 07:23:08.490440 47127 net.cpp:110] Creating Layer relu32
I1231 07:23:08.490450 47127 net.cpp:477] relu32 <- bn32
I1231 07:23:08.490463 47127 net.cpp:419] relu32 -> bn32 (in-place)
I1231 07:23:08.490543 47127 net.cpp:155] Setting up relu32
I1231 07:23:08.490558 47127 net.cpp:163] Top shape: 64 128 28 28 (6422528)
I1231 07:23:08.490571 47127 layer_factory.hpp:76] Creating layer eltwise4
I1231 07:23:08.490586 47127 net.cpp:110] Creating Layer eltwise4
I1231 07:23:08.490595 47127 net.cpp:477] eltwise4 <- relu3_p
I1231 07:23:08.490607 47127 net.cpp:477] eltwise4 <- bn32
I1231 07:23:08.490620 47127 net.cpp:433] eltwise4 -> eltwise4
I1231 07:23:08.490636 47127 net.cpp:155] Setting up eltwise4
I1231 07:23:08.490648 47127 net.cpp:163] Top shape: 64 128 28 28 (6422528)
I1231 07:23:08.490659 47127 layer_factory.hpp:76] Creating layer relu4
I1231 07:23:08.490671 47127 net.cpp:110] Creating Layer relu4
I1231 07:23:08.490681 47127 net.cpp:477] relu4 <- eltwise4
I1231 07:23:08.490694 47127 net.cpp:419] relu4 -> eltwise4 (in-place)
I1231 07:23:08.490758 47127 net.cpp:155] Setting up relu4
I1231 07:23:08.490773 47127 net.cpp:163] Top shape: 64 128 28 28 (6422528)
I1231 07:23:08.490784 47127 layer_factory.hpp:76] Creating layer eltwise4_relu4_0_split
I1231 07:23:08.490797 47127 net.cpp:110] Creating Layer eltwise4_relu4_0_split
I1231 07:23:08.490808 47127 net.cpp:477] eltwise4_relu4_0_split <- eltwise4
I1231 07:23:08.490834 47127 net.cpp:433] eltwise4_relu4_0_split -> eltwise4_relu4_0_split_0
I1231 07:23:08.490849 47127 net.cpp:433] eltwise4_relu4_0_split -> eltwise4_relu4_0_split_1
I1231 07:23:08.490864 47127 net.cpp:155] Setting up eltwise4_relu4_0_split
I1231 07:23:08.490875 47127 net.cpp:163] Top shape: 64 128 28 28 (6422528)
I1231 07:23:08.490885 47127 net.cpp:163] Top shape: 64 128 28 28 (6422528)
I1231 07:23:08.490903 47127 layer_factory.hpp:76] Creating layer conv33
I1231 07:23:08.490917 47127 net.cpp:110] Creating Layer conv33
I1231 07:23:08.490928 47127 net.cpp:477] conv33 <- eltwise4_relu4_0_split_0
I1231 07:23:08.490942 47127 net.cpp:433] conv33 -> conv33
I1231 07:23:08.492810 47127 net.cpp:155] Setting up conv33
I1231 07:23:08.492832 47127 net.cpp:163] Top shape: 64 128 28 28 (6422528)
I1231 07:23:08.492848 47127 layer_factory.hpp:76] Creating layer bn33
I1231 07:23:08.492866 47127 net.cpp:110] Creating Layer bn33
I1231 07:23:08.492877 47127 net.cpp:477] bn33 <- conv33
I1231 07:23:08.492890 47127 net.cpp:433] bn33 -> bn33
I1231 07:23:08.492969 47127 net.cpp:155] Setting up bn33
I1231 07:23:08.492985 47127 net.cpp:163] Top shape: 64 128 28 28 (6422528)
I1231 07:23:08.493000 47127 layer_factory.hpp:76] Creating layer relu33
I1231 07:23:08.493026 47127 net.cpp:110] Creating Layer relu33
I1231 07:23:08.493036 47127 net.cpp:477] relu33 <- bn33
I1231 07:23:08.493049 47127 net.cpp:419] relu33 -> bn33 (in-place)
I1231 07:23:08.493221 47127 net.cpp:155] Setting up relu33
I1231 07:23:08.493242 47127 net.cpp:163] Top shape: 64 128 28 28 (6422528)
I1231 07:23:08.493252 47127 layer_factory.hpp:76] Creating layer conv34
I1231 07:23:08.493268 47127 net.cpp:110] Creating Layer conv34
I1231 07:23:08.493278 47127 net.cpp:477] conv34 <- bn33
I1231 07:23:08.493299 47127 net.cpp:433] conv34 -> conv34
I1231 07:23:08.495177 47127 net.cpp:155] Setting up conv34
I1231 07:23:08.495198 47127 net.cpp:163] Top shape: 64 128 28 28 (6422528)
I1231 07:23:08.495214 47127 layer_factory.hpp:76] Creating layer bn34
I1231 07:23:08.495230 47127 net.cpp:110] Creating Layer bn34
I1231 07:23:08.495241 47127 net.cpp:477] bn34 <- conv34
I1231 07:23:08.495255 47127 net.cpp:433] bn34 -> bn34
I1231 07:23:08.495332 47127 net.cpp:155] Setting up bn34
I1231 07:23:08.495348 47127 net.cpp:163] Top shape: 64 128 28 28 (6422528)
I1231 07:23:08.495375 47127 layer_factory.hpp:76] Creating layer relu34
I1231 07:23:08.495390 47127 net.cpp:110] Creating Layer relu34
I1231 07:23:08.495401 47127 net.cpp:477] relu34 <- bn34
I1231 07:23:08.495414 47127 net.cpp:419] relu34 -> bn34 (in-place)
I1231 07:23:08.495487 47127 net.cpp:155] Setting up relu34
I1231 07:23:08.495503 47127 net.cpp:163] Top shape: 64 128 28 28 (6422528)
I1231 07:23:08.495514 47127 layer_factory.hpp:76] Creating layer eltwise5
I1231 07:23:08.495527 47127 net.cpp:110] Creating Layer eltwise5
I1231 07:23:08.495538 47127 net.cpp:477] eltwise5 <- eltwise4_relu4_0_split_1
I1231 07:23:08.495550 47127 net.cpp:477] eltwise5 <- bn34
I1231 07:23:08.495563 47127 net.cpp:433] eltwise5 -> eltwise5
I1231 07:23:08.495579 47127 net.cpp:155] Setting up eltwise5
I1231 07:23:08.495590 47127 net.cpp:163] Top shape: 64 128 28 28 (6422528)
I1231 07:23:08.495601 47127 layer_factory.hpp:76] Creating layer relu5
I1231 07:23:08.495615 47127 net.cpp:110] Creating Layer relu5
I1231 07:23:08.495625 47127 net.cpp:477] relu5 <- eltwise5
I1231 07:23:08.495637 47127 net.cpp:419] relu5 -> eltwise5 (in-place)
I1231 07:23:08.495705 47127 net.cpp:155] Setting up relu5
I1231 07:23:08.495721 47127 net.cpp:163] Top shape: 64 128 28 28 (6422528)
I1231 07:23:08.495733 47127 layer_factory.hpp:76] Creating layer eltwise5_relu5_0_split
I1231 07:23:08.495745 47127 net.cpp:110] Creating Layer eltwise5_relu5_0_split
I1231 07:23:08.495756 47127 net.cpp:477] eltwise5_relu5_0_split <- eltwise5
I1231 07:23:08.495769 47127 net.cpp:433] eltwise5_relu5_0_split -> eltwise5_relu5_0_split_0
I1231 07:23:08.495784 47127 net.cpp:433] eltwise5_relu5_0_split -> eltwise5_relu5_0_split_1
I1231 07:23:08.495798 47127 net.cpp:155] Setting up eltwise5_relu5_0_split
I1231 07:23:08.495811 47127 net.cpp:163] Top shape: 64 128 28 28 (6422528)
I1231 07:23:08.495823 47127 net.cpp:163] Top shape: 64 128 28 28 (6422528)
I1231 07:23:08.495833 47127 layer_factory.hpp:76] Creating layer conv35
I1231 07:23:08.495848 47127 net.cpp:110] Creating Layer conv35
I1231 07:23:08.495861 47127 net.cpp:477] conv35 <- eltwise5_relu5_0_split_0
I1231 07:23:08.495873 47127 net.cpp:433] conv35 -> conv35
I1231 07:23:08.497761 47127 net.cpp:155] Setting up conv35
I1231 07:23:08.497783 47127 net.cpp:163] Top shape: 64 128 28 28 (6422528)
I1231 07:23:08.497798 47127 layer_factory.hpp:76] Creating layer bn35
I1231 07:23:08.497813 47127 net.cpp:110] Creating Layer bn35
I1231 07:23:08.497824 47127 net.cpp:477] bn35 <- conv35
I1231 07:23:08.497838 47127 net.cpp:433] bn35 -> bn35
I1231 07:23:08.497915 47127 net.cpp:155] Setting up bn35
I1231 07:23:08.497931 47127 net.cpp:163] Top shape: 64 128 28 28 (6422528)
I1231 07:23:08.497947 47127 layer_factory.hpp:76] Creating layer relu35
I1231 07:23:08.497961 47127 net.cpp:110] Creating Layer relu35
I1231 07:23:08.497972 47127 net.cpp:477] relu35 <- bn35
I1231 07:23:08.497984 47127 net.cpp:419] relu35 -> bn35 (in-place)
I1231 07:23:08.498054 47127 net.cpp:155] Setting up relu35
I1231 07:23:08.498082 47127 net.cpp:163] Top shape: 64 128 28 28 (6422528)
I1231 07:23:08.498095 47127 layer_factory.hpp:76] Creating layer conv36
I1231 07:23:08.498109 47127 net.cpp:110] Creating Layer conv36
I1231 07:23:08.498121 47127 net.cpp:477] conv36 <- bn35
I1231 07:23:08.498133 47127 net.cpp:433] conv36 -> conv36
I1231 07:23:08.499996 47127 net.cpp:155] Setting up conv36
I1231 07:23:08.500017 47127 net.cpp:163] Top shape: 64 128 28 28 (6422528)
I1231 07:23:08.500032 47127 layer_factory.hpp:76] Creating layer bn36
I1231 07:23:08.500047 47127 net.cpp:110] Creating Layer bn36
I1231 07:23:08.500058 47127 net.cpp:477] bn36 <- conv36
I1231 07:23:08.500072 47127 net.cpp:433] bn36 -> bn36
I1231 07:23:08.500149 47127 net.cpp:155] Setting up bn36
I1231 07:23:08.500165 47127 net.cpp:163] Top shape: 64 128 28 28 (6422528)
I1231 07:23:08.500180 47127 layer_factory.hpp:76] Creating layer relu36
I1231 07:23:08.500195 47127 net.cpp:110] Creating Layer relu36
I1231 07:23:08.500205 47127 net.cpp:477] relu36 <- bn36
I1231 07:23:08.500217 47127 net.cpp:419] relu36 -> bn36 (in-place)
I1231 07:23:08.500390 47127 net.cpp:155] Setting up relu36
I1231 07:23:08.500408 47127 net.cpp:163] Top shape: 64 128 28 28 (6422528)
I1231 07:23:08.500419 47127 layer_factory.hpp:76] Creating layer eltwise6
I1231 07:23:08.500432 47127 net.cpp:110] Creating Layer eltwise6
I1231 07:23:08.500443 47127 net.cpp:477] eltwise6 <- eltwise5_relu5_0_split_1
I1231 07:23:08.500455 47127 net.cpp:477] eltwise6 <- bn36
I1231 07:23:08.500468 47127 net.cpp:433] eltwise6 -> eltwise6
I1231 07:23:08.500483 47127 net.cpp:155] Setting up eltwise6
I1231 07:23:08.500496 47127 net.cpp:163] Top shape: 64 128 28 28 (6422528)
I1231 07:23:08.500506 47127 layer_factory.hpp:76] Creating layer relu6
I1231 07:23:08.500519 47127 net.cpp:110] Creating Layer relu6
I1231 07:23:08.500530 47127 net.cpp:477] relu6 <- eltwise6
I1231 07:23:08.500542 47127 net.cpp:419] relu6 -> eltwise6 (in-place)
I1231 07:23:08.500612 47127 net.cpp:155] Setting up relu6
I1231 07:23:08.500627 47127 net.cpp:163] Top shape: 64 128 28 28 (6422528)
I1231 07:23:08.500636 47127 layer_factory.hpp:76] Creating layer eltwise6_relu6_0_split
I1231 07:23:08.500649 47127 net.cpp:110] Creating Layer eltwise6_relu6_0_split
I1231 07:23:08.500659 47127 net.cpp:477] eltwise6_relu6_0_split <- eltwise6
I1231 07:23:08.500672 47127 net.cpp:433] eltwise6_relu6_0_split -> eltwise6_relu6_0_split_0
I1231 07:23:08.500687 47127 net.cpp:433] eltwise6_relu6_0_split -> eltwise6_relu6_0_split_1
I1231 07:23:08.500701 47127 net.cpp:155] Setting up eltwise6_relu6_0_split
I1231 07:23:08.500715 47127 net.cpp:163] Top shape: 64 128 28 28 (6422528)
I1231 07:23:08.500725 47127 net.cpp:163] Top shape: 64 128 28 28 (6422528)
I1231 07:23:08.500735 47127 layer_factory.hpp:76] Creating layer conv37
I1231 07:23:08.500749 47127 net.cpp:110] Creating Layer conv37
I1231 07:23:08.500761 47127 net.cpp:477] conv37 <- eltwise6_relu6_0_split_0
I1231 07:23:08.500773 47127 net.cpp:433] conv37 -> conv37
I1231 07:23:08.502689 47127 net.cpp:155] Setting up conv37
I1231 07:23:08.502710 47127 net.cpp:163] Top shape: 64 128 28 28 (6422528)
I1231 07:23:08.502725 47127 layer_factory.hpp:76] Creating layer bn37
I1231 07:23:08.502740 47127 net.cpp:110] Creating Layer bn37
I1231 07:23:08.502751 47127 net.cpp:477] bn37 <- conv37
I1231 07:23:08.502766 47127 net.cpp:433] bn37 -> bn37
I1231 07:23:08.502843 47127 net.cpp:155] Setting up bn37
I1231 07:23:08.502859 47127 net.cpp:163] Top shape: 64 128 28 28 (6422528)
I1231 07:23:08.502874 47127 layer_factory.hpp:76] Creating layer relu37
I1231 07:23:08.502888 47127 net.cpp:110] Creating Layer relu37
I1231 07:23:08.502899 47127 net.cpp:477] relu37 <- bn37
I1231 07:23:08.502912 47127 net.cpp:419] relu37 -> bn37 (in-place)
I1231 07:23:08.502981 47127 net.cpp:155] Setting up relu37
I1231 07:23:08.502996 47127 net.cpp:163] Top shape: 64 128 28 28 (6422528)
I1231 07:23:08.503007 47127 layer_factory.hpp:76] Creating layer conv38
I1231 07:23:08.503026 47127 net.cpp:110] Creating Layer conv38
I1231 07:23:08.503037 47127 net.cpp:477] conv38 <- bn37
I1231 07:23:08.503063 47127 net.cpp:433] conv38 -> conv38
I1231 07:23:08.504927 47127 net.cpp:155] Setting up conv38
I1231 07:23:08.504948 47127 net.cpp:163] Top shape: 64 128 28 28 (6422528)
I1231 07:23:08.504964 47127 layer_factory.hpp:76] Creating layer bn38
I1231 07:23:08.504981 47127 net.cpp:110] Creating Layer bn38
I1231 07:23:08.504992 47127 net.cpp:477] bn38 <- conv38
I1231 07:23:08.505005 47127 net.cpp:433] bn38 -> bn38
I1231 07:23:08.505082 47127 net.cpp:155] Setting up bn38
I1231 07:23:08.505098 47127 net.cpp:163] Top shape: 64 128 28 28 (6422528)
I1231 07:23:08.505113 47127 layer_factory.hpp:76] Creating layer relu38
I1231 07:23:08.505127 47127 net.cpp:110] Creating Layer relu38
I1231 07:23:08.505144 47127 net.cpp:477] relu38 <- bn38
I1231 07:23:08.505157 47127 net.cpp:419] relu38 -> bn38 (in-place)
I1231 07:23:08.505225 47127 net.cpp:155] Setting up relu38
I1231 07:23:08.505241 47127 net.cpp:163] Top shape: 64 128 28 28 (6422528)
I1231 07:23:08.505252 47127 layer_factory.hpp:76] Creating layer eltwise7
I1231 07:23:08.505266 47127 net.cpp:110] Creating Layer eltwise7
I1231 07:23:08.505276 47127 net.cpp:477] eltwise7 <- eltwise6_relu6_0_split_1
I1231 07:23:08.505290 47127 net.cpp:477] eltwise7 <- bn38
I1231 07:23:08.505307 47127 net.cpp:433] eltwise7 -> eltwise7
I1231 07:23:08.505324 47127 net.cpp:155] Setting up eltwise7
I1231 07:23:08.505337 47127 net.cpp:163] Top shape: 64 128 28 28 (6422528)
I1231 07:23:08.505348 47127 layer_factory.hpp:76] Creating layer relu7
I1231 07:23:08.505362 47127 net.cpp:110] Creating Layer relu7
I1231 07:23:08.505372 47127 net.cpp:477] relu7 <- eltwise7
I1231 07:23:08.505384 47127 net.cpp:419] relu7 -> eltwise7 (in-place)
I1231 07:23:08.505559 47127 net.cpp:155] Setting up relu7
I1231 07:23:08.505579 47127 net.cpp:163] Top shape: 64 128 28 28 (6422528)
I1231 07:23:08.505590 47127 layer_factory.hpp:76] Creating layer eltwise7_relu7_0_split
I1231 07:23:08.505604 47127 net.cpp:110] Creating Layer eltwise7_relu7_0_split
I1231 07:23:08.505614 47127 net.cpp:477] eltwise7_relu7_0_split <- eltwise7
I1231 07:23:08.505635 47127 net.cpp:433] eltwise7_relu7_0_split -> eltwise7_relu7_0_split_0
I1231 07:23:08.505650 47127 net.cpp:433] eltwise7_relu7_0_split -> eltwise7_relu7_0_split_1
I1231 07:23:08.505664 47127 net.cpp:155] Setting up eltwise7_relu7_0_split
I1231 07:23:08.505676 47127 net.cpp:163] Top shape: 64 128 28 28 (6422528)
I1231 07:23:08.505687 47127 net.cpp:163] Top shape: 64 128 28 28 (6422528)
I1231 07:23:08.505697 47127 layer_factory.hpp:76] Creating layer relu7_p
I1231 07:23:08.505712 47127 net.cpp:110] Creating Layer relu7_p
I1231 07:23:08.505723 47127 net.cpp:477] relu7_p <- eltwise7_relu7_0_split_0
I1231 07:23:08.505736 47127 net.cpp:433] relu7_p -> relu7_p
I1231 07:23:08.506314 47127 net.cpp:155] Setting up relu7_p
I1231 07:23:08.506333 47127 net.cpp:163] Top shape: 64 256 14 14 (3211264)
I1231 07:23:08.509491 47127 layer_factory.hpp:76] Creating layer conv41
I1231 07:23:08.509516 47127 net.cpp:110] Creating Layer conv41
I1231 07:23:08.509529 47127 net.cpp:477] conv41 <- eltwise7_relu7_0_split_1
I1231 07:23:08.509543 47127 net.cpp:433] conv41 -> conv41
I1231 07:23:08.512519 47127 net.cpp:155] Setting up conv41
I1231 07:23:08.512543 47127 net.cpp:163] Top shape: 64 256 14 14 (3211264)
I1231 07:23:08.512558 47127 layer_factory.hpp:76] Creating layer bn41
I1231 07:23:08.512575 47127 net.cpp:110] Creating Layer bn41
I1231 07:23:08.512586 47127 net.cpp:477] bn41 <- conv41
I1231 07:23:08.512600 47127 net.cpp:433] bn41 -> bn41
I1231 07:23:08.512684 47127 net.cpp:155] Setting up bn41
I1231 07:23:08.512701 47127 net.cpp:163] Top shape: 64 256 14 14 (3211264)
I1231 07:23:08.512717 47127 layer_factory.hpp:76] Creating layer relu41
I1231 07:23:08.512732 47127 net.cpp:110] Creating Layer relu41
I1231 07:23:08.512742 47127 net.cpp:477] relu41 <- bn41
I1231 07:23:08.512755 47127 net.cpp:419] relu41 -> bn41 (in-place)
I1231 07:23:08.512827 47127 net.cpp:155] Setting up relu41
I1231 07:23:08.512843 47127 net.cpp:163] Top shape: 64 256 14 14 (3211264)
I1231 07:23:08.512867 47127 layer_factory.hpp:76] Creating layer conv42
I1231 07:23:08.512884 47127 net.cpp:110] Creating Layer conv42
I1231 07:23:08.512894 47127 net.cpp:477] conv42 <- bn41
I1231 07:23:08.512909 47127 net.cpp:433] conv42 -> conv42
I1231 07:23:08.518553 47127 net.cpp:155] Setting up conv42
I1231 07:23:08.518576 47127 net.cpp:163] Top shape: 64 256 14 14 (3211264)
I1231 07:23:08.518590 47127 layer_factory.hpp:76] Creating layer bn42
I1231 07:23:08.518607 47127 net.cpp:110] Creating Layer bn42
I1231 07:23:08.518618 47127 net.cpp:477] bn42 <- conv42
I1231 07:23:08.518632 47127 net.cpp:433] bn42 -> bn42
I1231 07:23:08.518718 47127 net.cpp:155] Setting up bn42
I1231 07:23:08.518734 47127 net.cpp:163] Top shape: 64 256 14 14 (3211264)
I1231 07:23:08.518750 47127 layer_factory.hpp:76] Creating layer relu42
I1231 07:23:08.518764 47127 net.cpp:110] Creating Layer relu42
I1231 07:23:08.518775 47127 net.cpp:477] relu42 <- bn42
I1231 07:23:08.518789 47127 net.cpp:419] relu42 -> bn42 (in-place)
I1231 07:23:08.518857 47127 net.cpp:155] Setting up relu42
I1231 07:23:08.518873 47127 net.cpp:163] Top shape: 64 256 14 14 (3211264)
I1231 07:23:08.518884 47127 layer_factory.hpp:76] Creating layer eltwise8
I1231 07:23:08.518898 47127 net.cpp:110] Creating Layer eltwise8
I1231 07:23:08.518908 47127 net.cpp:477] eltwise8 <- relu7_p
I1231 07:23:08.518920 47127 net.cpp:477] eltwise8 <- bn42
I1231 07:23:08.518934 47127 net.cpp:433] eltwise8 -> eltwise8
I1231 07:23:08.518949 47127 net.cpp:155] Setting up eltwise8
I1231 07:23:08.518961 47127 net.cpp:163] Top shape: 64 256 14 14 (3211264)
I1231 07:23:08.518971 47127 layer_factory.hpp:76] Creating layer relu8
I1231 07:23:08.518985 47127 net.cpp:110] Creating Layer relu8
I1231 07:23:08.518996 47127 net.cpp:477] relu8 <- eltwise8
I1231 07:23:08.519007 47127 net.cpp:419] relu8 -> eltwise8 (in-place)
I1231 07:23:08.519078 47127 net.cpp:155] Setting up relu8
I1231 07:23:08.519093 47127 net.cpp:163] Top shape: 64 256 14 14 (3211264)
I1231 07:23:08.519104 47127 layer_factory.hpp:76] Creating layer eltwise8_relu8_0_split
I1231 07:23:08.519116 47127 net.cpp:110] Creating Layer eltwise8_relu8_0_split
I1231 07:23:08.519126 47127 net.cpp:477] eltwise8_relu8_0_split <- eltwise8
I1231 07:23:08.519140 47127 net.cpp:433] eltwise8_relu8_0_split -> eltwise8_relu8_0_split_0
I1231 07:23:08.519155 47127 net.cpp:433] eltwise8_relu8_0_split -> eltwise8_relu8_0_split_1
I1231 07:23:08.519176 47127 net.cpp:155] Setting up eltwise8_relu8_0_split
I1231 07:23:08.519189 47127 net.cpp:163] Top shape: 64 256 14 14 (3211264)
I1231 07:23:08.519201 47127 net.cpp:163] Top shape: 64 256 14 14 (3211264)
I1231 07:23:08.519212 47127 layer_factory.hpp:76] Creating layer conv43
I1231 07:23:08.519228 47127 net.cpp:110] Creating Layer conv43
I1231 07:23:08.519239 47127 net.cpp:477] conv43 <- eltwise8_relu8_0_split_0
I1231 07:23:08.519253 47127 net.cpp:433] conv43 -> conv43
I1231 07:23:08.524911 47127 net.cpp:155] Setting up conv43
I1231 07:23:08.524934 47127 net.cpp:163] Top shape: 64 256 14 14 (3211264)
I1231 07:23:08.524948 47127 layer_factory.hpp:76] Creating layer bn43
I1231 07:23:08.524965 47127 net.cpp:110] Creating Layer bn43
I1231 07:23:08.524974 47127 net.cpp:477] bn43 <- conv43
I1231 07:23:08.524988 47127 net.cpp:433] bn43 -> bn43
I1231 07:23:08.525071 47127 net.cpp:155] Setting up bn43
I1231 07:23:08.525087 47127 net.cpp:163] Top shape: 64 256 14 14 (3211264)
I1231 07:23:08.525104 47127 layer_factory.hpp:76] Creating layer relu43
I1231 07:23:08.525118 47127 net.cpp:110] Creating Layer relu43
I1231 07:23:08.525128 47127 net.cpp:477] relu43 <- bn43
I1231 07:23:08.525141 47127 net.cpp:419] relu43 -> bn43 (in-place)
I1231 07:23:08.525324 47127 net.cpp:155] Setting up relu43
I1231 07:23:08.525343 47127 net.cpp:163] Top shape: 64 256 14 14 (3211264)
I1231 07:23:08.525355 47127 layer_factory.hpp:76] Creating layer conv44
I1231 07:23:08.525370 47127 net.cpp:110] Creating Layer conv44
I1231 07:23:08.525380 47127 net.cpp:477] conv44 <- bn43
I1231 07:23:08.525394 47127 net.cpp:433] conv44 -> conv44
I1231 07:23:08.531049 47127 net.cpp:155] Setting up conv44
I1231 07:23:08.531085 47127 net.cpp:163] Top shape: 64 256 14 14 (3211264)
I1231 07:23:08.531100 47127 layer_factory.hpp:76] Creating layer bn44
I1231 07:23:08.531116 47127 net.cpp:110] Creating Layer bn44
I1231 07:23:08.531138 47127 net.cpp:477] bn44 <- conv44
I1231 07:23:08.531153 47127 net.cpp:433] bn44 -> bn44
I1231 07:23:08.531235 47127 net.cpp:155] Setting up bn44
I1231 07:23:08.531251 47127 net.cpp:163] Top shape: 64 256 14 14 (3211264)
I1231 07:23:08.531266 47127 layer_factory.hpp:76] Creating layer relu44
I1231 07:23:08.531280 47127 net.cpp:110] Creating Layer relu44
I1231 07:23:08.531289 47127 net.cpp:477] relu44 <- bn44
I1231 07:23:08.531302 47127 net.cpp:419] relu44 -> bn44 (in-place)
I1231 07:23:08.531371 47127 net.cpp:155] Setting up relu44
I1231 07:23:08.531386 47127 net.cpp:163] Top shape: 64 256 14 14 (3211264)
I1231 07:23:08.531396 47127 layer_factory.hpp:76] Creating layer eltwise9
I1231 07:23:08.531410 47127 net.cpp:110] Creating Layer eltwise9
I1231 07:23:08.531420 47127 net.cpp:477] eltwise9 <- eltwise8_relu8_0_split_1
I1231 07:23:08.531432 47127 net.cpp:477] eltwise9 <- bn44
I1231 07:23:08.531445 47127 net.cpp:433] eltwise9 -> eltwise9
I1231 07:23:08.531458 47127 net.cpp:155] Setting up eltwise9
I1231 07:23:08.531471 47127 net.cpp:163] Top shape: 64 256 14 14 (3211264)
I1231 07:23:08.531481 47127 layer_factory.hpp:76] Creating layer relu9
I1231 07:23:08.531492 47127 net.cpp:110] Creating Layer relu9
I1231 07:23:08.531502 47127 net.cpp:477] relu9 <- eltwise9
I1231 07:23:08.531514 47127 net.cpp:419] relu9 -> eltwise9 (in-place)
I1231 07:23:08.531579 47127 net.cpp:155] Setting up relu9
I1231 07:23:08.531594 47127 net.cpp:163] Top shape: 64 256 14 14 (3211264)
I1231 07:23:08.531605 47127 layer_factory.hpp:76] Creating layer eltwise9_relu9_0_split
I1231 07:23:08.531617 47127 net.cpp:110] Creating Layer eltwise9_relu9_0_split
I1231 07:23:08.531627 47127 net.cpp:477] eltwise9_relu9_0_split <- eltwise9
I1231 07:23:08.531640 47127 net.cpp:433] eltwise9_relu9_0_split -> eltwise9_relu9_0_split_0
I1231 07:23:08.531653 47127 net.cpp:433] eltwise9_relu9_0_split -> eltwise9_relu9_0_split_1
I1231 07:23:08.531667 47127 net.cpp:155] Setting up eltwise9_relu9_0_split
I1231 07:23:08.531678 47127 net.cpp:163] Top shape: 64 256 14 14 (3211264)
I1231 07:23:08.531689 47127 net.cpp:163] Top shape: 64 256 14 14 (3211264)
I1231 07:23:08.531699 47127 layer_factory.hpp:76] Creating layer conv45
I1231 07:23:08.531713 47127 net.cpp:110] Creating Layer conv45
I1231 07:23:08.531723 47127 net.cpp:477] conv45 <- eltwise9_relu9_0_split_0
I1231 07:23:08.531736 47127 net.cpp:433] conv45 -> conv45
I1231 07:23:08.537412 47127 net.cpp:155] Setting up conv45
I1231 07:23:08.537433 47127 net.cpp:163] Top shape: 64 256 14 14 (3211264)
I1231 07:23:08.537448 47127 layer_factory.hpp:76] Creating layer bn45
I1231 07:23:08.537464 47127 net.cpp:110] Creating Layer bn45
I1231 07:23:08.537475 47127 net.cpp:477] bn45 <- conv45
I1231 07:23:08.537503 47127 net.cpp:433] bn45 -> bn45
I1231 07:23:08.537585 47127 net.cpp:155] Setting up bn45
I1231 07:23:08.537600 47127 net.cpp:163] Top shape: 64 256 14 14 (3211264)
I1231 07:23:08.537616 47127 layer_factory.hpp:76] Creating layer relu45
I1231 07:23:08.537628 47127 net.cpp:110] Creating Layer relu45
I1231 07:23:08.537639 47127 net.cpp:477] relu45 <- bn45
I1231 07:23:08.537652 47127 net.cpp:419] relu45 -> bn45 (in-place)
I1231 07:23:08.537824 47127 net.cpp:155] Setting up relu45
I1231 07:23:08.537842 47127 net.cpp:163] Top shape: 64 256 14 14 (3211264)
I1231 07:23:08.537853 47127 layer_factory.hpp:76] Creating layer conv46
I1231 07:23:08.537868 47127 net.cpp:110] Creating Layer conv46
I1231 07:23:08.537878 47127 net.cpp:477] conv46 <- bn45
I1231 07:23:08.537892 47127 net.cpp:433] conv46 -> conv46
I1231 07:23:08.544548 47127 net.cpp:155] Setting up conv46
I1231 07:23:08.544586 47127 net.cpp:163] Top shape: 64 256 14 14 (3211264)
I1231 07:23:08.544602 47127 layer_factory.hpp:76] Creating layer bn46
I1231 07:23:08.544620 47127 net.cpp:110] Creating Layer bn46
I1231 07:23:08.544631 47127 net.cpp:477] bn46 <- conv46
I1231 07:23:08.544661 47127 net.cpp:433] bn46 -> bn46
I1231 07:23:08.544795 47127 net.cpp:155] Setting up bn46
I1231 07:23:08.544819 47127 net.cpp:163] Top shape: 64 256 14 14 (3211264)
I1231 07:23:08.544859 47127 layer_factory.hpp:76] Creating layer relu46
I1231 07:23:08.544878 47127 net.cpp:110] Creating Layer relu46
I1231 07:23:08.544889 47127 net.cpp:477] relu46 <- bn46
I1231 07:23:08.544904 47127 net.cpp:419] relu46 -> bn46 (in-place)
I1231 07:23:08.544982 47127 net.cpp:155] Setting up relu46
I1231 07:23:08.545001 47127 net.cpp:163] Top shape: 64 256 14 14 (3211264)
I1231 07:23:08.545013 47127 layer_factory.hpp:76] Creating layer eltwise10
I1231 07:23:08.545029 47127 net.cpp:110] Creating Layer eltwise10
I1231 07:23:08.545042 47127 net.cpp:477] eltwise10 <- eltwise9_relu9_0_split_1
I1231 07:23:08.545055 47127 net.cpp:477] eltwise10 <- bn46
I1231 07:23:08.545070 47127 net.cpp:433] eltwise10 -> eltwise10
I1231 07:23:08.545088 47127 net.cpp:155] Setting up eltwise10
I1231 07:23:08.545101 47127 net.cpp:163] Top shape: 64 256 14 14 (3211264)
I1231 07:23:08.545114 47127 layer_factory.hpp:76] Creating layer relu10
I1231 07:23:08.545128 47127 net.cpp:110] Creating Layer relu10
I1231 07:23:08.545140 47127 net.cpp:477] relu10 <- eltwise10
I1231 07:23:08.545153 47127 net.cpp:419] relu10 -> eltwise10 (in-place)
I1231 07:23:08.545224 47127 net.cpp:155] Setting up relu10
I1231 07:23:08.545243 47127 net.cpp:163] Top shape: 64 256 14 14 (3211264)
I1231 07:23:08.545255 47127 layer_factory.hpp:76] Creating layer eltwise10_relu10_0_split
I1231 07:23:08.545270 47127 net.cpp:110] Creating Layer eltwise10_relu10_0_split
I1231 07:23:08.545282 47127 net.cpp:477] eltwise10_relu10_0_split <- eltwise10
I1231 07:23:08.545303 47127 net.cpp:433] eltwise10_relu10_0_split -> eltwise10_relu10_0_split_0
I1231 07:23:08.545322 47127 net.cpp:433] eltwise10_relu10_0_split -> eltwise10_relu10_0_split_1
I1231 07:23:08.545338 47127 net.cpp:155] Setting up eltwise10_relu10_0_split
I1231 07:23:08.545353 47127 net.cpp:163] Top shape: 64 256 14 14 (3211264)
I1231 07:23:08.545372 47127 net.cpp:163] Top shape: 64 256 14 14 (3211264)
I1231 07:23:08.545383 47127 layer_factory.hpp:76] Creating layer conv47
I1231 07:23:08.545400 47127 net.cpp:110] Creating Layer conv47
I1231 07:23:08.545413 47127 net.cpp:477] conv47 <- eltwise10_relu10_0_split_0
I1231 07:23:08.545428 47127 net.cpp:433] conv47 -> conv47
I1231 07:23:08.551131 47127 net.cpp:155] Setting up conv47
I1231 07:23:08.551156 47127 net.cpp:163] Top shape: 64 256 14 14 (3211264)
I1231 07:23:08.551184 47127 layer_factory.hpp:76] Creating layer bn47
I1231 07:23:08.551205 47127 net.cpp:110] Creating Layer bn47
I1231 07:23:08.551223 47127 net.cpp:477] bn47 <- conv47
I1231 07:23:08.551244 47127 net.cpp:433] bn47 -> bn47
I1231 07:23:08.551331 47127 net.cpp:155] Setting up bn47
I1231 07:23:08.551347 47127 net.cpp:163] Top shape: 64 256 14 14 (3211264)
I1231 07:23:08.551363 47127 layer_factory.hpp:76] Creating layer relu47
I1231 07:23:08.551376 47127 net.cpp:110] Creating Layer relu47
I1231 07:23:08.551388 47127 net.cpp:477] relu47 <- bn47
I1231 07:23:08.551400 47127 net.cpp:419] relu47 -> bn47 (in-place)
I1231 07:23:08.551475 47127 net.cpp:155] Setting up relu47
I1231 07:23:08.551491 47127 net.cpp:163] Top shape: 64 256 14 14 (3211264)
I1231 07:23:08.551501 47127 layer_factory.hpp:76] Creating layer conv48
I1231 07:23:08.551529 47127 net.cpp:110] Creating Layer conv48
I1231 07:23:08.551540 47127 net.cpp:477] conv48 <- bn47
I1231 07:23:08.551554 47127 net.cpp:433] conv48 -> conv48
I1231 07:23:08.557250 47127 net.cpp:155] Setting up conv48
I1231 07:23:08.557286 47127 net.cpp:163] Top shape: 64 256 14 14 (3211264)
I1231 07:23:08.557307 47127 layer_factory.hpp:76] Creating layer bn48
I1231 07:23:08.557337 47127 net.cpp:110] Creating Layer bn48
I1231 07:23:08.557354 47127 net.cpp:477] bn48 <- conv48
I1231 07:23:08.557375 47127 net.cpp:433] bn48 -> bn48
I1231 07:23:08.557471 47127 net.cpp:155] Setting up bn48
I1231 07:23:08.557492 47127 net.cpp:163] Top shape: 64 256 14 14 (3211264)
I1231 07:23:08.557523 47127 layer_factory.hpp:76] Creating layer relu48
I1231 07:23:08.557539 47127 net.cpp:110] Creating Layer relu48
I1231 07:23:08.557553 47127 net.cpp:477] relu48 <- bn48
I1231 07:23:08.557567 47127 net.cpp:419] relu48 -> bn48 (in-place)
I1231 07:23:08.557749 47127 net.cpp:155] Setting up relu48
I1231 07:23:08.557770 47127 net.cpp:163] Top shape: 64 256 14 14 (3211264)
I1231 07:23:08.557783 47127 layer_factory.hpp:76] Creating layer eltwise11
I1231 07:23:08.557801 47127 net.cpp:110] Creating Layer eltwise11
I1231 07:23:08.557812 47127 net.cpp:477] eltwise11 <- eltwise10_relu10_0_split_1
I1231 07:23:08.557826 47127 net.cpp:477] eltwise11 <- bn48
I1231 07:23:08.557842 47127 net.cpp:433] eltwise11 -> eltwise11
I1231 07:23:08.557857 47127 net.cpp:155] Setting up eltwise11
I1231 07:23:08.557873 47127 net.cpp:163] Top shape: 64 256 14 14 (3211264)
I1231 07:23:08.557885 47127 layer_factory.hpp:76] Creating layer relu11
I1231 07:23:08.557906 47127 net.cpp:110] Creating Layer relu11
I1231 07:23:08.557919 47127 net.cpp:477] relu11 <- eltwise11
I1231 07:23:08.557934 47127 net.cpp:419] relu11 -> eltwise11 (in-place)
I1231 07:23:08.558007 47127 net.cpp:155] Setting up relu11
I1231 07:23:08.558027 47127 net.cpp:163] Top shape: 64 256 14 14 (3211264)
I1231 07:23:08.558038 47127 layer_factory.hpp:76] Creating layer eltwise11_relu11_0_split
I1231 07:23:08.558053 47127 net.cpp:110] Creating Layer eltwise11_relu11_0_split
I1231 07:23:08.558100 47127 net.cpp:477] eltwise11_relu11_0_split <- eltwise11
I1231 07:23:08.558115 47127 net.cpp:433] eltwise11_relu11_0_split -> eltwise11_relu11_0_split_0
I1231 07:23:08.558132 47127 net.cpp:433] eltwise11_relu11_0_split -> eltwise11_relu11_0_split_1
I1231 07:23:08.558150 47127 net.cpp:155] Setting up eltwise11_relu11_0_split
I1231 07:23:08.558164 47127 net.cpp:163] Top shape: 64 256 14 14 (3211264)
I1231 07:23:08.558177 47127 net.cpp:163] Top shape: 64 256 14 14 (3211264)
I1231 07:23:08.558189 47127 layer_factory.hpp:76] Creating layer conv49
I1231 07:23:08.558215 47127 net.cpp:110] Creating Layer conv49
I1231 07:23:08.558228 47127 net.cpp:477] conv49 <- eltwise11_relu11_0_split_0
I1231 07:23:08.558243 47127 net.cpp:433] conv49 -> conv49
I1231 07:23:08.563963 47127 net.cpp:155] Setting up conv49
I1231 07:23:08.563987 47127 net.cpp:163] Top shape: 64 256 14 14 (3211264)
I1231 07:23:08.564002 47127 layer_factory.hpp:76] Creating layer bn49
I1231 07:23:08.564019 47127 net.cpp:110] Creating Layer bn49
I1231 07:23:08.564048 47127 net.cpp:477] bn49 <- conv49
I1231 07:23:08.564069 47127 net.cpp:433] bn49 -> bn49
I1231 07:23:08.564162 47127 net.cpp:155] Setting up bn49
I1231 07:23:08.564179 47127 net.cpp:163] Top shape: 64 256 14 14 (3211264)
I1231 07:23:08.564200 47127 layer_factory.hpp:76] Creating layer relu49
I1231 07:23:08.564215 47127 net.cpp:110] Creating Layer relu49
I1231 07:23:08.564229 47127 net.cpp:477] relu49 <- bn49
I1231 07:23:08.564242 47127 net.cpp:419] relu49 -> bn49 (in-place)
I1231 07:23:08.564314 47127 net.cpp:155] Setting up relu49
I1231 07:23:08.564332 47127 net.cpp:163] Top shape: 64 256 14 14 (3211264)
I1231 07:23:08.564344 47127 layer_factory.hpp:76] Creating layer conv410
I1231 07:23:08.564362 47127 net.cpp:110] Creating Layer conv410
I1231 07:23:08.564373 47127 net.cpp:477] conv410 <- bn49
I1231 07:23:08.564388 47127 net.cpp:433] conv410 -> conv410
I1231 07:23:08.570104 47127 net.cpp:155] Setting up conv410
I1231 07:23:08.570127 47127 net.cpp:163] Top shape: 64 256 14 14 (3211264)
I1231 07:23:08.570143 47127 layer_factory.hpp:76] Creating layer bn410
I1231 07:23:08.570159 47127 net.cpp:110] Creating Layer bn410
I1231 07:23:08.570184 47127 net.cpp:477] bn410 <- conv410
I1231 07:23:08.570205 47127 net.cpp:433] bn410 -> bn410
I1231 07:23:08.570293 47127 net.cpp:155] Setting up bn410
I1231 07:23:08.570317 47127 net.cpp:163] Top shape: 64 256 14 14 (3211264)
I1231 07:23:08.570334 47127 layer_factory.hpp:76] Creating layer relu410
I1231 07:23:08.570349 47127 net.cpp:110] Creating Layer relu410
I1231 07:23:08.570363 47127 net.cpp:477] relu410 <- bn410
I1231 07:23:08.570376 47127 net.cpp:419] relu410 -> bn410 (in-place)
I1231 07:23:08.570464 47127 net.cpp:155] Setting up relu410
I1231 07:23:08.570482 47127 net.cpp:163] Top shape: 64 256 14 14 (3211264)
I1231 07:23:08.570495 47127 layer_factory.hpp:76] Creating layer eltwise12
I1231 07:23:08.570511 47127 net.cpp:110] Creating Layer eltwise12
I1231 07:23:08.570523 47127 net.cpp:477] eltwise12 <- eltwise11_relu11_0_split_1
I1231 07:23:08.570538 47127 net.cpp:477] eltwise12 <- bn410
I1231 07:23:08.570552 47127 net.cpp:433] eltwise12 -> eltwise12
I1231 07:23:08.570569 47127 net.cpp:155] Setting up eltwise12
I1231 07:23:08.570583 47127 net.cpp:163] Top shape: 64 256 14 14 (3211264)
I1231 07:23:08.570595 47127 layer_factory.hpp:76] Creating layer relu12
I1231 07:23:08.570611 47127 net.cpp:110] Creating Layer relu12
I1231 07:23:08.570622 47127 net.cpp:477] relu12 <- eltwise12
I1231 07:23:08.570637 47127 net.cpp:419] relu12 -> eltwise12 (in-place)
I1231 07:23:08.570819 47127 net.cpp:155] Setting up relu12
I1231 07:23:08.570842 47127 net.cpp:163] Top shape: 64 256 14 14 (3211264)
I1231 07:23:08.570855 47127 layer_factory.hpp:76] Creating layer eltwise12_relu12_0_split
I1231 07:23:08.570870 47127 net.cpp:110] Creating Layer eltwise12_relu12_0_split
I1231 07:23:08.570883 47127 net.cpp:477] eltwise12_relu12_0_split <- eltwise12
I1231 07:23:08.570899 47127 net.cpp:433] eltwise12_relu12_0_split -> eltwise12_relu12_0_split_0
I1231 07:23:08.570915 47127 net.cpp:433] eltwise12_relu12_0_split -> eltwise12_relu12_0_split_1
I1231 07:23:08.570932 47127 net.cpp:433] eltwise12_relu12_0_split -> eltwise12_relu12_0_split_2
I1231 07:23:08.570950 47127 net.cpp:155] Setting up eltwise12_relu12_0_split
I1231 07:23:08.570965 47127 net.cpp:163] Top shape: 64 256 14 14 (3211264)
I1231 07:23:08.570977 47127 net.cpp:163] Top shape: 64 256 14 14 (3211264)
I1231 07:23:08.570989 47127 net.cpp:163] Top shape: 64 256 14 14 (3211264)
I1231 07:23:08.571002 47127 layer_factory.hpp:76] Creating layer conv411
I1231 07:23:08.571017 47127 net.cpp:110] Creating Layer conv411
I1231 07:23:08.571032 47127 net.cpp:477] conv411 <- eltwise12_relu12_0_split_0
I1231 07:23:08.571046 47127 net.cpp:433] conv411 -> conv411
I1231 07:23:08.576715 47127 net.cpp:155] Setting up conv411
I1231 07:23:08.576768 47127 net.cpp:163] Top shape: 64 256 14 14 (3211264)
I1231 07:23:08.576788 47127 layer_factory.hpp:76] Creating layer bn411
I1231 07:23:08.576807 47127 net.cpp:110] Creating Layer bn411
I1231 07:23:08.576828 47127 net.cpp:477] bn411 <- conv411
I1231 07:23:08.576848 47127 net.cpp:433] bn411 -> bn411
I1231 07:23:08.576937 47127 net.cpp:155] Setting up bn411
I1231 07:23:08.576956 47127 net.cpp:163] Top shape: 64 256 14 14 (3211264)
I1231 07:23:08.576973 47127 layer_factory.hpp:76] Creating layer relu411
I1231 07:23:08.576988 47127 net.cpp:110] Creating Layer relu411
I1231 07:23:08.577002 47127 net.cpp:477] relu411 <- bn411
I1231 07:23:08.577016 47127 net.cpp:419] relu411 -> bn411 (in-place)
I1231 07:23:08.577087 47127 net.cpp:155] Setting up relu411
I1231 07:23:08.577105 47127 net.cpp:163] Top shape: 64 256 14 14 (3211264)
I1231 07:23:08.577117 47127 layer_factory.hpp:76] Creating layer conv412
I1231 07:23:08.577136 47127 net.cpp:110] Creating Layer conv412
I1231 07:23:08.577154 47127 net.cpp:477] conv412 <- bn411
I1231 07:23:08.577170 47127 net.cpp:433] conv412 -> conv412
I1231 07:23:08.582846 47127 net.cpp:155] Setting up conv412
I1231 07:23:08.582870 47127 net.cpp:163] Top shape: 64 256 14 14 (3211264)
I1231 07:23:08.582883 47127 layer_factory.hpp:76] Creating layer bn412
I1231 07:23:08.582901 47127 net.cpp:110] Creating Layer bn412
I1231 07:23:08.582911 47127 net.cpp:477] bn412 <- conv412
I1231 07:23:08.582926 47127 net.cpp:433] bn412 -> bn412
I1231 07:23:08.583014 47127 net.cpp:155] Setting up bn412
I1231 07:23:08.583030 47127 net.cpp:163] Top shape: 64 256 14 14 (3211264)
I1231 07:23:08.583046 47127 layer_factory.hpp:76] Creating layer relu412
I1231 07:23:08.583060 47127 net.cpp:110] Creating Layer relu412
I1231 07:23:08.583071 47127 net.cpp:477] relu412 <- bn412
I1231 07:23:08.583084 47127 net.cpp:419] relu412 -> bn412 (in-place)
I1231 07:23:08.583169 47127 net.cpp:155] Setting up relu412
I1231 07:23:08.583186 47127 net.cpp:163] Top shape: 64 256 14 14 (3211264)
I1231 07:23:08.583199 47127 layer_factory.hpp:76] Creating layer eltwise13
I1231 07:23:08.583212 47127 net.cpp:110] Creating Layer eltwise13
I1231 07:23:08.583223 47127 net.cpp:477] eltwise13 <- eltwise12_relu12_0_split_1
I1231 07:23:08.583235 47127 net.cpp:477] eltwise13 <- bn412
I1231 07:23:08.583248 47127 net.cpp:433] eltwise13 -> eltwise13
I1231 07:23:08.583264 47127 net.cpp:155] Setting up eltwise13
I1231 07:23:08.583289 47127 net.cpp:163] Top shape: 64 256 14 14 (3211264)
I1231 07:23:08.583300 47127 layer_factory.hpp:76] Creating layer relu13
I1231 07:23:08.583313 47127 net.cpp:110] Creating Layer relu13
I1231 07:23:08.583324 47127 net.cpp:477] relu13 <- eltwise13
I1231 07:23:08.583336 47127 net.cpp:419] relu13 -> eltwise13 (in-place)
I1231 07:23:08.583405 47127 net.cpp:155] Setting up relu13
I1231 07:23:08.583420 47127 net.cpp:163] Top shape: 64 256 14 14 (3211264)
I1231 07:23:08.583431 47127 layer_factory.hpp:76] Creating layer relu13_p
I1231 07:23:08.583446 47127 net.cpp:110] Creating Layer relu13_p
I1231 07:23:08.583456 47127 net.cpp:477] relu13_p <- eltwise12_relu12_0_split_2
I1231 07:23:08.583472 47127 net.cpp:433] relu13_p -> relu13_p
I1231 07:23:08.585263 47127 net.cpp:155] Setting up relu13_p
I1231 07:23:08.585283 47127 net.cpp:163] Top shape: 64 512 7 7 (1605632)
I1231 07:23:08.585305 47127 layer_factory.hpp:76] Creating layer conv51
I1231 07:23:08.585333 47127 net.cpp:110] Creating Layer conv51
I1231 07:23:08.585345 47127 net.cpp:477] conv51 <- eltwise13
I1231 07:23:08.585360 47127 net.cpp:433] conv51 -> conv51
I1231 07:23:08.596175 47127 net.cpp:155] Setting up conv51
I1231 07:23:08.596199 47127 net.cpp:163] Top shape: 64 512 7 7 (1605632)
I1231 07:23:08.596213 47127 layer_factory.hpp:76] Creating layer bn51
I1231 07:23:08.596230 47127 net.cpp:110] Creating Layer bn51
I1231 07:23:08.596241 47127 net.cpp:477] bn51 <- conv51
I1231 07:23:08.596256 47127 net.cpp:433] bn51 -> bn51
I1231 07:23:08.596346 47127 net.cpp:155] Setting up bn51
I1231 07:23:08.596364 47127 net.cpp:163] Top shape: 64 512 7 7 (1605632)
I1231 07:23:08.596379 47127 layer_factory.hpp:76] Creating layer relu51
I1231 07:23:08.596392 47127 net.cpp:110] Creating Layer relu51
I1231 07:23:08.596403 47127 net.cpp:477] relu51 <- bn51
I1231 07:23:08.596416 47127 net.cpp:419] relu51 -> bn51 (in-place)
I1231 07:23:08.596593 47127 net.cpp:155] Setting up relu51
I1231 07:23:08.596613 47127 net.cpp:163] Top shape: 64 512 7 7 (1605632)
I1231 07:23:08.596624 47127 layer_factory.hpp:76] Creating layer conv52
I1231 07:23:08.596655 47127 net.cpp:110] Creating Layer conv52
I1231 07:23:08.596668 47127 net.cpp:477] conv52 <- bn51
I1231 07:23:08.596683 47127 net.cpp:433] conv52 -> conv52
I1231 07:23:08.617895 47127 net.cpp:155] Setting up conv52
I1231 07:23:08.617933 47127 net.cpp:163] Top shape: 64 512 7 7 (1605632)
I1231 07:23:08.617952 47127 layer_factory.hpp:76] Creating layer bn52
I1231 07:23:08.617972 47127 net.cpp:110] Creating Layer bn52
I1231 07:23:08.618019 47127 net.cpp:477] bn52 <- conv52
I1231 07:23:08.618046 47127 net.cpp:433] bn52 -> bn52
I1231 07:23:08.618142 47127 net.cpp:155] Setting up bn52
I1231 07:23:08.618166 47127 net.cpp:163] Top shape: 64 512 7 7 (1605632)
I1231 07:23:08.618190 47127 layer_factory.hpp:76] Creating layer relu52
I1231 07:23:08.618206 47127 net.cpp:110] Creating Layer relu52
I1231 07:23:08.618217 47127 net.cpp:477] relu52 <- bn52
I1231 07:23:08.618232 47127 net.cpp:419] relu52 -> bn52 (in-place)
I1231 07:23:08.618309 47127 net.cpp:155] Setting up relu52
I1231 07:23:08.618326 47127 net.cpp:163] Top shape: 64 512 7 7 (1605632)
I1231 07:23:08.618338 47127 layer_factory.hpp:76] Creating layer eltwise14
I1231 07:23:08.618356 47127 net.cpp:110] Creating Layer eltwise14
I1231 07:23:08.618369 47127 net.cpp:477] eltwise14 <- relu13_p
I1231 07:23:08.618382 47127 net.cpp:477] eltwise14 <- bn52
I1231 07:23:08.618398 47127 net.cpp:433] eltwise14 -> eltwise14
I1231 07:23:08.618439 47127 net.cpp:155] Setting up eltwise14
I1231 07:23:08.618454 47127 net.cpp:163] Top shape: 64 512 7 7 (1605632)
I1231 07:23:08.618466 47127 layer_factory.hpp:76] Creating layer relu14
I1231 07:23:08.618480 47127 net.cpp:110] Creating Layer relu14
I1231 07:23:08.618494 47127 net.cpp:477] relu14 <- eltwise14
I1231 07:23:08.618508 47127 net.cpp:419] relu14 -> eltwise14 (in-place)
I1231 07:23:08.618582 47127 net.cpp:155] Setting up relu14
I1231 07:23:08.618599 47127 net.cpp:163] Top shape: 64 512 7 7 (1605632)
I1231 07:23:08.618612 47127 layer_factory.hpp:76] Creating layer eltwise14_relu14_0_split
I1231 07:23:08.618628 47127 net.cpp:110] Creating Layer eltwise14_relu14_0_split
I1231 07:23:08.618640 47127 net.cpp:477] eltwise14_relu14_0_split <- eltwise14
I1231 07:23:08.618655 47127 net.cpp:433] eltwise14_relu14_0_split -> eltwise14_relu14_0_split_0
I1231 07:23:08.618672 47127 net.cpp:433] eltwise14_relu14_0_split -> eltwise14_relu14_0_split_1
I1231 07:23:08.618690 47127 net.cpp:155] Setting up eltwise14_relu14_0_split
I1231 07:23:08.618705 47127 net.cpp:163] Top shape: 64 512 7 7 (1605632)
I1231 07:23:08.618717 47127 net.cpp:163] Top shape: 64 512 7 7 (1605632)
I1231 07:23:08.618729 47127 layer_factory.hpp:76] Creating layer conv53
I1231 07:23:08.618746 47127 net.cpp:110] Creating Layer conv53
I1231 07:23:08.618759 47127 net.cpp:477] conv53 <- eltwise14_relu14_0_split_0
I1231 07:23:08.618775 47127 net.cpp:433] conv53 -> conv53
I1231 07:23:08.640133 47127 net.cpp:155] Setting up conv53
I1231 07:23:08.640173 47127 net.cpp:163] Top shape: 64 512 7 7 (1605632)
I1231 07:23:08.640192 47127 layer_factory.hpp:76] Creating layer bn53
I1231 07:23:08.640235 47127 net.cpp:110] Creating Layer bn53
I1231 07:23:08.640254 47127 net.cpp:477] bn53 <- conv53
I1231 07:23:08.640278 47127 net.cpp:433] bn53 -> bn53
I1231 07:23:08.640373 47127 net.cpp:155] Setting up bn53
I1231 07:23:08.640398 47127 net.cpp:163] Top shape: 64 512 7 7 (1605632)
I1231 07:23:08.640416 47127 layer_factory.hpp:76] Creating layer relu53
I1231 07:23:08.640431 47127 net.cpp:110] Creating Layer relu53
I1231 07:23:08.640444 47127 net.cpp:477] relu53 <- bn53
I1231 07:23:08.640457 47127 net.cpp:419] relu53 -> bn53 (in-place)
I1231 07:23:08.640642 47127 net.cpp:155] Setting up relu53
I1231 07:23:08.640664 47127 net.cpp:163] Top shape: 64 512 7 7 (1605632)
I1231 07:23:08.640677 47127 layer_factory.hpp:76] Creating layer conv54
I1231 07:23:08.640696 47127 net.cpp:110] Creating Layer conv54
I1231 07:23:08.640707 47127 net.cpp:477] conv54 <- bn53
I1231 07:23:08.640723 47127 net.cpp:433] conv54 -> conv54
I1231 07:23:08.662129 47127 net.cpp:155] Setting up conv54
I1231 07:23:08.662178 47127 net.cpp:163] Top shape: 64 512 7 7 (1605632)
I1231 07:23:08.662222 47127 layer_factory.hpp:76] Creating layer bn54
I1231 07:23:08.662250 47127 net.cpp:110] Creating Layer bn54
I1231 07:23:08.662262 47127 net.cpp:477] bn54 <- conv54
I1231 07:23:08.662287 47127 net.cpp:433] bn54 -> bn54
I1231 07:23:08.662384 47127 net.cpp:155] Setting up bn54
I1231 07:23:08.662402 47127 net.cpp:163] Top shape: 64 512 7 7 (1605632)
I1231 07:23:08.662420 47127 layer_factory.hpp:76] Creating layer relu54
I1231 07:23:08.662436 47127 net.cpp:110] Creating Layer relu54
I1231 07:23:08.662448 47127 net.cpp:477] relu54 <- bn54
I1231 07:23:08.662463 47127 net.cpp:419] relu54 -> bn54 (in-place)
I1231 07:23:08.662536 47127 net.cpp:155] Setting up relu54
I1231 07:23:08.662554 47127 net.cpp:163] Top shape: 64 512 7 7 (1605632)
I1231 07:23:08.662567 47127 layer_factory.hpp:76] Creating layer eltwise15
I1231 07:23:08.662585 47127 net.cpp:110] Creating Layer eltwise15
I1231 07:23:08.662597 47127 net.cpp:477] eltwise15 <- eltwise14_relu14_0_split_1
I1231 07:23:08.662611 47127 net.cpp:477] eltwise15 <- bn54
I1231 07:23:08.662626 47127 net.cpp:433] eltwise15 -> eltwise15
I1231 07:23:08.662645 47127 net.cpp:155] Setting up eltwise15
I1231 07:23:08.662662 47127 net.cpp:163] Top shape: 64 512 7 7 (1605632)
I1231 07:23:08.662672 47127 layer_factory.hpp:76] Creating layer relu15
I1231 07:23:08.662688 47127 net.cpp:110] Creating Layer relu15
I1231 07:23:08.662726 47127 net.cpp:477] relu15 <- eltwise15
I1231 07:23:08.662741 47127 net.cpp:419] relu15 -> eltwise15 (in-place)
I1231 07:23:08.662816 47127 net.cpp:155] Setting up relu15
I1231 07:23:08.662833 47127 net.cpp:163] Top shape: 64 512 7 7 (1605632)
I1231 07:23:08.662847 47127 layer_factory.hpp:76] Creating layer eltwise15_relu15_0_split
I1231 07:23:08.662863 47127 net.cpp:110] Creating Layer eltwise15_relu15_0_split
I1231 07:23:08.662873 47127 net.cpp:477] eltwise15_relu15_0_split <- eltwise15
I1231 07:23:08.662889 47127 net.cpp:433] eltwise15_relu15_0_split -> eltwise15_relu15_0_split_0
I1231 07:23:08.662906 47127 net.cpp:433] eltwise15_relu15_0_split -> eltwise15_relu15_0_split_1
I1231 07:23:08.662924 47127 net.cpp:155] Setting up eltwise15_relu15_0_split
I1231 07:23:08.662938 47127 net.cpp:163] Top shape: 64 512 7 7 (1605632)
I1231 07:23:08.662951 47127 net.cpp:163] Top shape: 64 512 7 7 (1605632)
I1231 07:23:08.662963 47127 layer_factory.hpp:76] Creating layer conv55
I1231 07:23:08.662981 47127 net.cpp:110] Creating Layer conv55
I1231 07:23:08.662994 47127 net.cpp:477] conv55 <- eltwise15_relu15_0_split_0
I1231 07:23:08.663010 47127 net.cpp:433] conv55 -> conv55
I1231 07:23:08.685058 47127 net.cpp:155] Setting up conv55
I1231 07:23:08.685111 47127 net.cpp:163] Top shape: 64 512 7 7 (1605632)
I1231 07:23:08.685128 47127 layer_factory.hpp:76] Creating layer bn55
I1231 07:23:08.685148 47127 net.cpp:110] Creating Layer bn55
I1231 07:23:08.685181 47127 net.cpp:477] bn55 <- conv55
I1231 07:23:08.685207 47127 net.cpp:433] bn55 -> bn55
I1231 07:23:08.685310 47127 net.cpp:155] Setting up bn55
I1231 07:23:08.685335 47127 net.cpp:163] Top shape: 64 512 7 7 (1605632)
I1231 07:23:08.685359 47127 layer_factory.hpp:76] Creating layer relu55
I1231 07:23:08.685374 47127 net.cpp:110] Creating Layer relu55
I1231 07:23:08.685386 47127 net.cpp:477] relu55 <- bn55
I1231 07:23:08.685401 47127 net.cpp:419] relu55 -> bn55 (in-place)
I1231 07:23:08.685480 47127 net.cpp:155] Setting up relu55
I1231 07:23:08.685498 47127 net.cpp:163] Top shape: 64 512 7 7 (1605632)
I1231 07:23:08.685511 47127 layer_factory.hpp:76] Creating layer conv56
I1231 07:23:08.685528 47127 net.cpp:110] Creating Layer conv56
I1231 07:23:08.685540 47127 net.cpp:477] conv56 <- bn55
I1231 07:23:08.685556 47127 net.cpp:433] conv56 -> conv56
I1231 07:23:08.709321 47127 net.cpp:155] Setting up conv56
I1231 07:23:08.709362 47127 net.cpp:163] Top shape: 64 512 7 7 (1605632)
I1231 07:23:08.709379 47127 layer_factory.hpp:76] Creating layer bn56
I1231 07:23:08.709399 47127 net.cpp:110] Creating Layer bn56
I1231 07:23:08.709413 47127 net.cpp:477] bn56 <- conv56
I1231 07:23:08.709451 47127 net.cpp:433] bn56 -> bn56
I1231 07:23:08.709552 47127 net.cpp:155] Setting up bn56
I1231 07:23:08.709576 47127 net.cpp:163] Top shape: 64 512 7 7 (1605632)
I1231 07:23:08.709595 47127 layer_factory.hpp:76] Creating layer relu56
I1231 07:23:08.709610 47127 net.cpp:110] Creating Layer relu56
I1231 07:23:08.709624 47127 net.cpp:477] relu56 <- bn56
I1231 07:23:08.709637 47127 net.cpp:419] relu56 -> bn56 (in-place)
I1231 07:23:08.709825 47127 net.cpp:155] Setting up relu56
I1231 07:23:08.709846 47127 net.cpp:163] Top shape: 64 512 7 7 (1605632)
I1231 07:23:08.709859 47127 layer_factory.hpp:76] Creating layer eltwise16
I1231 07:23:08.709877 47127 net.cpp:110] Creating Layer eltwise16
I1231 07:23:08.709890 47127 net.cpp:477] eltwise16 <- eltwise15_relu15_0_split_1
I1231 07:23:08.709905 47127 net.cpp:477] eltwise16 <- bn56
I1231 07:23:08.709919 47127 net.cpp:433] eltwise16 -> eltwise16
I1231 07:23:08.709939 47127 net.cpp:155] Setting up eltwise16
I1231 07:23:08.709952 47127 net.cpp:163] Top shape: 64 512 7 7 (1605632)
I1231 07:23:08.709964 47127 layer_factory.hpp:76] Creating layer relu16
I1231 07:23:08.709980 47127 net.cpp:110] Creating Layer relu16
I1231 07:23:08.709991 47127 net.cpp:477] relu16 <- eltwise16
I1231 07:23:08.710006 47127 net.cpp:419] relu16 -> eltwise16 (in-place)
I1231 07:23:08.710080 47127 net.cpp:155] Setting up relu16
I1231 07:23:08.710098 47127 net.cpp:163] Top shape: 64 512 7 7 (1605632)
I1231 07:23:08.710131 47127 layer_factory.hpp:76] Creating layer pool5
I1231 07:23:08.710150 47127 net.cpp:110] Creating Layer pool5
I1231 07:23:08.710161 47127 net.cpp:477] pool5 <- eltwise16
I1231 07:23:08.710177 47127 net.cpp:433] pool5 -> pool5
I1231 07:23:08.710255 47127 net.cpp:155] Setting up pool5
I1231 07:23:08.710273 47127 net.cpp:163] Top shape: 64 512 1 1 (32768)
I1231 07:23:08.710285 47127 layer_factory.hpp:76] Creating layer ip1
I1231 07:23:08.710314 47127 net.cpp:110] Creating Layer ip1
I1231 07:23:08.710327 47127 net.cpp:477] ip1 <- pool5
I1231 07:23:08.710343 47127 net.cpp:433] ip1 -> ip1
I1231 07:23:08.715874 47127 net.cpp:155] Setting up ip1
I1231 07:23:08.715909 47127 net.cpp:163] Top shape: 64 1000 (64000)
I1231 07:23:08.715924 47127 layer_factory.hpp:76] Creating layer loss
I1231 07:23:08.715958 47127 net.cpp:110] Creating Layer loss
I1231 07:23:08.715976 47127 net.cpp:477] loss <- ip1
I1231 07:23:08.715994 47127 net.cpp:477] loss <- label
I1231 07:23:08.716020 47127 net.cpp:433] loss -> loss
I1231 07:23:08.716053 47127 layer_factory.hpp:76] Creating layer loss
I1231 07:23:08.716979 47127 net.cpp:155] Setting up loss
…
I1231 07:23:08.721952 47127 net.cpp:339] The NetState phase (1) differed from the phase (0) specified by a rule in layer loss
I1231 07:23:08.722718 47127 net.cpp:50] Initializing net from parameters: 
name: "RsdNet34v2"
state {
  phase: TEST
}
layer {
  name: "data"
  type: "Data"
  top: "data"
  top: "label"
  include {
    phase: TEST
  }
  transform_param {
    scale: 0.0039215689
    mirror: true
    crop_size: 224
    mean_file: "./ilsvrc12_mean.binaryproto"
  }
  data_param {
    source: "./ilsvrc12_test_lmdb"
    batch_size: 32
    backend: LMDB
  }
}
layer {
  name: "conv01"
  type: "Convolution"
  bottom: "data"
  top: "conv01"
  param {
    lr_mult: 1
  }
  param {
    lr_mult: 2
  }
  convolution_param {
    num_output: 64
    pad: 3
    kernel_size: 7
    stride: 2
    weight_filler {
      type: "xavier"
    }
    bias_filler {
      type: "constant"
    }
  }
}
layer {
  name: "bn01"
  type: "BN"
  bottom: "conv01"
  top: "bn01"
  param {
    lr_mult: 1
    decay_mult: 0
  }
  param {
    lr_mult: 1
    decay_mult: 0
  }
  bn_param {
    scale_filler {
      type: "constant"
      value: 1
    }
    shift_filler {
      type: "constant"
      value: 0
    }
  }
}
layer {
  name: "relu01"
  type: "ReLU"
  bottom: "bn01"
  top: "bn01"
}
layer {
  name: "pool1"
  type: "Pooling"
  bottom: "bn01"
  top: "pool1"
  pooling_param {
    pool: MAX
    kernel_size: 3
    stride: 2
  }
}
layer {
  name: "conv21"
  type: "Convolution"
  bottom: "pool1"
  top: "conv21"
  param {
    lr_mult: 1
  }
  param {
    lr_mult: 2
  }
  convolution_param {
    num_output: 64
    pad: 1
    kernel_size: 3
    stride: 1
    weight_filler {
      type: "xavier"
    }
    bias_filler {
      type: "constant"
    }
  }
}
layer {
  name: "bn21"
  type: "BN"
  bottom: "conv21"
  top: "bn21"
  param {
    lr_mult: 1
    decay_mult: 0
  }
  param {
    lr_mult: 1
    decay_mult: 0
  }
  bn_param {
    scale_filler {
      type: "constant"
      value: 1
    }
    shift_filler {
      type: "constant"
      value: 0
    }
  }
}
layer {
  name: "relu21"
  type: "ReLU"
  bottom: "bn21"
  top: "bn21"
}
layer {
  name: "conv22"
  type: "Convolution"
  bottom: "bn21"
  top: "conv22"
  param {
    lr_mult: 1
  }
  param {
    lr_mult: 2
  }
  convolution_param {
    num_output: 64
    pad: 1
    kernel_size: 3
    stride: 1
    weight_filler {
      type: "xavier"
    }
    bias_filler {
      type: "constant"
    }
  }
}
layer {
  name: "bn22"
  type: "BN"
  bottom: "conv22"
  top: "bn22"
  param {
    lr_mult: 1
    decay_mult: 0
  }
  param {
    lr_mult: 1
    decay_mult: 0
  }
  bn_param {
    scale_filler {
      type: "constant"
      value: 1
    }
    shift_filler {
      type: "constant"
      value: 0
    }
  }
}
layer {
  name: "relu22"
  type: "ReLU"
  bottom: "bn22"
  top: "bn22"
}
layer {
  name: "eltwise1"
  type: "Eltwise"
  bottom: "pool1"
  bottom: "bn22"
  top: "eltwise1"
  eltwise_param {
    operation: SUM
  }
}
layer {
  name: "relu1"
  type: "ReLU"
  bottom: "eltwise1"
  top: "eltwise1"
}
layer {
  name: "conv23"
  type: "Convolution"
  bottom: "eltwise1"
  top: "conv23"
  param {
    lr_mult: 1
  }
  param {
    lr_mult: 2
  }
  convolution_param {
    num_output: 64
    pad: 1
    kernel_size: 3
    stride: 1
    weight_filler {
      type: "xavier"
    }
    bias_filler {
      type: "constant"
    }
  }
}
layer {
  name: "bn23"
  type: "BN"
  bottom: "conv23"
  top: "bn23"
  param {
    lr_mult: 1
    decay_mult: 0
  }
  param {
    lr_mult: 1
    decay_mult: 0
  }
  bn_param {
    scale_filler {
      type: "constant"
      value: 1
    }
    shift_filler {
      type: "constant"
      value: 0
    }
  }
}
layer {
  name: "relu23"
  type: "ReLU"
  bottom: "bn23"
  top: "bn23"
}
layer {
  name: "conv24"
  type: "Convolution"
  bottom: "bn23"
  top: "conv24"
  param {
    lr_mult: 1
  }
  param {
    lr_mult: 2
  }
  convolution_param {
    num_output: 64
    pad: 1
    kernel_size: 3
    stride: 1
    weight_filler {
      type: "xavier"
    }
    bias_filler {
      type: "constant"
    }
  }
}
layer {
  name: "bn24"
  type: "BN"
  bottom: "conv24"
  top: "bn24"
  param {
    lr_mult: 1
    decay_mult: 0
  }
  param {
    lr_mult: 1
    decay_mult: 0
  }
  bn_param {
    scale_filler {
      type: "constant"
      value: 1
    }
    shift_filler {
      type: "constant"
      value: 0
    }
  }
}
layer {
  name: "relu24"
  type: "ReLU"
  bottom: "bn24"
  top: "bn24"
}
layer {
  name: "eltwise2"
  type: "Eltwise"
  bottom: "eltwise1"
  bottom: "bn24"
  top: "eltwise2"
  eltwise_param {
    operation: SUM
  }
}
layer {
  name: "relu2"
  type: "ReLU"
  bottom: "eltwise2"
  top: "eltwise2"
}
layer {
  name: "conv25"
  type: "Convolution"
  bottom: "bn24"
  top: "conv25"
  param {
    lr_mult: 1
  }
  param {
    lr_mult: 2
  }
  convolution_param {
    num_output: 64
    pad: 1
    kernel_size: 3
    stride: 1
    weight_filler {
      type: "xavier"
    }
    bias_filler {
      type: "constant"
    }
  }
}
layer {
  name: "bn25"
  type: "BN"
  bottom: "conv25"
  top: "bn25"
  param {
    lr_mult: 1
    decay_mult: 0
  }
  param {
    lr_mult: 1
    decay_mult: 0
  }
  bn_param {
    scale_filler {
      type: "constant"
      value: 1
    }
    shift_filler {
      type: "constant"
      value: 0
    }
  }
}
layer {
  name: "relu25"
  type: "ReLU"
  bottom: "bn25"
  top: "bn25"
}
layer {
  name: "conv26"
  type: "Convolution"
  bottom: "bn25"
  top: "conv26"
  param {
    lr_mult: 1
  }
  param {
    lr_mult: 2
  }
  convolution_param {
    num_output: 64
    pad: 1
    kernel_size: 3
    stride: 1
    weight_filler {
      type: "xavier"
    }
    bias_filler {
      type: "constant"
    }
  }
}
layer {
  name: "bn26"
  type: "BN"
  bottom: "conv26"
  top: "bn26"
  param {
    lr_mult: 1
    decay_mult: 0
  }
  param {
    lr_mult: 1
    decay_mult: 0
  }
  bn_param {
    scale_filler {
      type: "constant"
      value: 1
    }
    shift_filler {
      type: "constant"
      value: 0
    }
  }
}
layer {
  name: "relu26"
  type: "ReLU"
  bottom: "bn26"
  top: "bn26"
}
layer {
  name: "eltwise3"
  type: "Eltwise"
  bottom: "eltwise2"
  bottom: "bn26"
  top: "eltwise3"
  eltwise_param {
    operation: SUM
  }
}
layer {
  name: "relu3"
  type: "ReLU"
  bottom: "eltwise3"
  top: "eltwise3"
}
layer {
  name: "relu3_p"
  type: "Convolution"
  bottom: "eltwise3"
  top: "relu3_p"
  param {
    lr_mult: 1
  }
  param {
    lr_mult: 2
  }
  convolution_param {
    num_output: 128
    pad: 0
    kernel_size: 1
    stride: 2
    weight_filler {
      type: "xavier"
    }
    bias_filler {
      type: "constant"
    }
  }
}
layer {
  name: "conv31"
  type: "Convolution"
  bottom: "eltwise3"
  top: "conv31"
  param {
    lr_mult: 1
  }
  param {
    lr_mult: 2
  }
  convolution_param {
    num_output: 128
    pad: 1
    kernel_size: 3
    stride: 2
    weight_filler {
      type: "xavier"
    }
    bias_filler {
      type: "constant"
    }
  }
}
layer {
  name: "bn31"
  type: "BN"
  bottom: "conv31"
  top: "bn31"
  param {
    lr_mult: 1
    decay_mult: 0
  }
  param {
    lr_mult: 1
    decay_mult: 0
  }
  bn_param {
    scale_filler {
      type: "constant"
      value: 1
    }
    shift_filler {
      type: "constant"
      value: 0
    }
  }
}
layer {
  name: "relu31"
  type: "ReLU"
  bottom: "bn31"
  top: "bn31"
}
layer {
  name: "conv32"
  type: "Convolution"
  bottom: "bn31"
  top: "conv32"
  param {
    lr_mult: 1
  }
  param {
    lr_mult: 2
  }
  convolution_param {
    num_output: 128
    pad: 1
    kernel_size: 3
    stride: 1
    weight_filler {
      type: "xavier"
    }
    bias_filler {
      type: "constant"
    }
  }
}
layer {
  name: "bn32"
  type: "BN"
  bottom: "conv32"
  top: "bn32"
  param {
    lr_mult: 1
    decay_mult: 0
  }
  param {
    lr_mult: 1
    decay_mult: 0
  }
  bn_param {
    scale_filler {
      type: "constant"
      value: 1
    }
    shift_filler {
      type: "constant"
      value: 0
    }
  }
}
layer {
  name: "relu32"
  type: "ReLU"
  bottom: "bn32"
  top: "bn32"
}
layer {
  name: "eltwise4"
  type: "Eltwise"
  bottom: "relu3_p"
  bottom: "bn32"
  top: "eltwise4"
  eltwise_param {
    operation: SUM
  }
}
layer {
  name: "relu4"
  type: "ReLU"
  bottom: "eltwise4"
  top: "eltwise4"
}
layer {
  name: "conv33"
  type: "Convolution"
  bottom: "eltwise4"
  top: "conv33"
  param {
    lr_mult: 1
  }
  param {
    lr_mult: 2
  }
  convolution_param {
    num_output: 128
    pad: 1
    kernel_size: 3
    stride: 1
    weight_filler {
      type: "xavier"
    }
    bias_filler {
      type: "constant"
    }
  }
}
layer {
  name: "bn33"
  type: "BN"
  bottom: "conv33"
  top: "bn33"
  param {
    lr_mult: 1
    decay_mult: 0
  }
  param {
    lr_mult: 1
    decay_mult: 0
  }
  bn_param {
    scale_filler {
      type: "constant"
      value: 1
    }
    shift_filler {
      type: "constant"
      value: 0
    }
  }
}
layer {
  name: "relu33"
  type: "ReLU"
  bottom: "bn33"
  top: "bn33"
}
layer {
  name: "conv34"
  type: "Convolution"
  bottom: "bn33"
  top: "conv34"
  param {
    lr_mult: 1
  }
  param {
    lr_mult: 2
  }
  convolution_param {
    num_output: 128
    pad: 1
    kernel_size: 3
    stride: 1
    weight_filler {
      type: "xavier"
    }
    bias_filler {
      type: "constant"
    }
  }
}
layer {
  name: "bn34"
  type: "BN"
  bottom: "conv34"
  top: "bn34"
  param {
    lr_mult: 1
    decay_mult: 0
  }
  param {
    lr_mult: 1
    decay_mult: 0
  }
  bn_param {
    scale_filler {
      type: "constant"
      value: 1
    }
    shift_filler {
      type: "constant"
      value: 0
    }
  }
}
layer {
  name: "relu34"
  type: "ReLU"
  bottom: "bn34"
  top: "bn34"
}
layer {
  name: "eltwise5"
  type: "Eltwise"
  bottom: "eltwise4"
  bottom: "bn34"
  top: "eltwise5"
  eltwise_param {
    operation: SUM
  }
}
layer {
  name: "relu5"
  type: "ReLU"
  bottom: "eltwise5"
  top: "eltwise5"
}
layer {
  name: "conv35"
  type: "Convolution"
  bottom: "eltwise5"
  top: "conv35"
  param {
    lr_mult: 1
  }
  param {
    lr_mult: 2
  }
  convolution_param {
    num_output: 128
    pad: 1
    kernel_size: 3
    stride: 1
    weight_filler {
      type: "xavier"
    }
    bias_filler {
      type: "constant"
    }
  }
}
layer {
  name: "bn35"
  type: "BN"
  bottom: "conv35"
  top: "bn35"
  param {
    lr_mult: 1
    decay_mult: 0
  }
  param {
    lr_mult: 1
    decay_mult: 0
  }
  bn_param {
    scale_filler {
      type: "constant"
      value: 1
    }
    shift_filler {
      type: "constant"
      value: 0
    }
  }
}
layer {
  name: "relu35"
  type: "ReLU"
  bottom: "bn35"
  top: "bn35"
}
layer {
  name: "conv36"
  type: "Convolution"
  bottom: "bn35"
  top: "conv36"
  param {
    lr_mult: 1
  }
  param {
    lr_mult: 2
  }
  convolution_param {
    num_output: 128
    pad: 1
    kernel_size: 3
    stride: 1
    weight_filler {
      type: "xavier"
    }
    bias_filler {
      type: "constant"
    }
  }
}
layer {
  name: "bn36"
  type: "BN"
  bottom: "conv36"
  top: "bn36"
  param {
    lr_mult: 1
    decay_mult: 0
  }
  param {
    lr_mult: 1
    decay_mult: 0
  }
  bn_param {
    scale_filler {
      type: "constant"
      value: 1
    }
    shift_filler {
      type: "constant"
      value: 0
    }
  }
}
layer {
  name: "relu36"
  type: "ReLU"
  bottom: "bn36"
  top: "bn36"
}
layer {
  name: "eltwise6"
  type: "Eltwise"
  bottom: "eltwise5"
  bottom: "bn36"
  top: "eltwise6"
  eltwise_param {
    operation: SUM
  }
}
layer {
  name: "relu6"
  type: "ReLU"
  bottom: "eltwise6"
  top: "eltwise6"
}
layer {
  name: "conv37"
  type: "Convolution"
  bottom: "eltwise6"
  top: "conv37"
  param {
    lr_mult: 1
  }
  param {
    lr_mult: 2
  }
  convolution_param {
    num_output: 128
    pad: 1
    kernel_size: 3
    stride: 1
    weight_filler {
      type: "xavier"
    }
    bias_filler {
      type: "constant"
    }
  }
}
layer {
  name: "bn37"
  type: "BN"
  bottom: "conv37"
  top: "bn37"
  param {
    lr_mult: 1
    decay_mult: 0
  }
  param {
    lr_mult: 1
    decay_mult: 0
  }
  bn_param {
    scale_filler {
      type: "constant"
      value: 1
    }
    shift_filler {
      type: "constant"
      value: 0
    }
  }
}
layer {
  name: "relu37"
  type: "ReLU"
  bottom: "bn37"
  top: "bn37"
}
layer {
  name: "conv38"
  type: "Convolution"
  bottom: "bn37"
  top: "conv38"
  param {
    lr_mult: 1
  }
  param {
    lr_mult: 2
  }
  convolution_param {
    num_output: 128
    pad: 1
    kernel_size: 3
    stride: 1
    weight_filler {
      type: "xavier"
    }
    bias_filler {
      type: "constant"
    }
  }
}
layer {
  name: "bn38"
  type: "BN"
  bottom: "conv38"
  top: "bn38"
  param {
    lr_mult: 1
    decay_mult: 0
  }
  param {
    lr_mult: 1
    decay_mult: 0
  }
  bn_param {
    scale_filler {
      type: "constant"
      value: 1
    }
    shift_filler {
      type: "constant"
      value: 0
    }
  }
}
layer {
  name: "relu38"
  type: "ReLU"
  bottom: "bn38"
  top: "bn38"
}
layer {
  name: "eltwise7"
  type: "Eltwise"
  bottom: "eltwise6"
  bottom: "bn38"
  top: "eltwise7"
  eltwise_param {
    operation: SUM
  }
}
layer {
  name: "relu7"
  type: "ReLU"
  bottom: "eltwise7"
  top: "eltwise7"
}
layer {
  name: "relu7_p"
  type: "Convolution"
  bottom: "eltwise7"
  top: "relu7_p"
  param {
    lr_mult: 1
  }
  param {
    lr_mult: 2
  }
  convolution_param {
    num_output: 256
    pad: 0
    kernel_size: 1
    stride: 2
    weight_filler {
      type: "xavier"
    }
    bias_filler {
      type: "constant"
    }
  }
}
layer {
  name: "conv41"
  type: "Convolution"
  bottom: "eltwise7"
  top: "conv41"
  param {
    lr_mult: 1
  }
  param {
    lr_mult: 2
  }
  convolution_param {
    num_output: 256
    pad: 1
    kernel_size: 3
    stride: 2
    weight_filler {
      type: "xavier"
    }
    bias_filler {
      type: "constant"
    }
  }
}
layer {
  name: "bn41"
  type: "BN"
  bottom: "conv41"
  top: "bn41"
  param {
    lr_mult: 1
    decay_mult: 0
  }
  param {
    lr_mult: 1
    decay_mult: 0
  }
  bn_param {
    scale_filler {
      type: "constant"
      value: 1
    }
    shift_filler {
      type: "constant"
      value: 0
    }
  }
}
layer {
  name: "relu41"
  type: "ReLU"
  bottom: "bn41"
  top: "bn41"
}
layer {
  name: "conv42"
  type: "Convolution"
  bottom: "bn41"
  top: "conv42"
  param {
    lr_mult: 1
  }
  param {
    lr_mult: 2
  }
  convolution_param {
    num_output: 256
    pad: 1
    kernel_size: 3
    stride: 1
    weight_filler {
      type: "xavier"
    }
    bias_filler {
      type: "constant"
    }
  }
}
layer {
  name: "bn42"
  type: "BN"
  bottom: "conv42"
  top: "bn42"
  param {
    lr_mult: 1
    decay_mult: 0
  }
  param {
    lr_mult: 1
    decay_mult: 0
  }
  bn_param {
    scale_filler {
      type: "constant"
      value: 1
    }
    shift_filler {
      type: "constant"
      value: 0
    }
  }
}
layer {
  name: "relu42"
  type: "ReLU"
  bottom: "bn42"
  top: "bn42"
}
layer {
  name: "eltwise8"
  type: "Eltwise"
  bottom: "relu7_p"
  bottom: "bn42"
  top: "eltwise8"
  eltwise_param {
    operation: SUM
  }
}
layer {
  name: "relu8"
  type: "ReLU"
  bottom: "eltwise8"
  top: "eltwise8"
}
layer {
  name: "conv43"
  type: "Convolution"
  bottom: "eltwise8"
  top: "conv43"
  param {
    lr_mult: 1
  }
  param {
    lr_mult: 2
  }
  convolution_param {
    num_output: 256
    pad: 1
    kernel_size: 3
    stride: 1
    weight_filler {
      type: "xavier"
    }
    bias_filler {
      type: "constant"
    }
  }
}
layer {
  name: "bn43"
  type: "BN"
  bottom: "conv43"
  top: "bn43"
  param {
    lr_mult: 1
    decay_mult: 0
  }
  param {
    lr_mult: 1
    decay_mult: 0
  }
  bn_param {
    scale_filler {
      type: "constant"
      value: 1
    }
    shift_filler {
      type: "constant"
      value: 0
    }
  }
}
layer {
  name: "relu43"
  type: "ReLU"
  bottom: "bn43"
  top: "bn43"
}
layer {
  name: "conv44"
  type: "Convolution"
  bottom: "bn43"
  top: "conv44"
  param {
    lr_mult: 1
  }
  param {
    lr_mult: 2
  }
  convolution_param {
    num_output: 256
    pad: 1
    kernel_size: 3
    stride: 1
    weight_filler {
      type: "xavier"
    }
    bias_filler {
      type: "constant"
    }
  }
}
layer {
  name: "bn44"
  type: "BN"
  bottom: "conv44"
  top: "bn44"
  param {
    lr_mult: 1
    decay_mult: 0
  }
  param {
    lr_mult: 1
    decay_mult: 0
  }
  bn_param {
    scale_filler {
      type: "constant"
      value: 1
    }
    shift_filler {
      type: "constant"
      value: 0
    }
  }
}
layer {
  name: "relu44"
  type: "ReLU"
  bottom: "bn44"
  top: "bn44"
}
layer {
  name: "eltwise9"
  type: "Eltwise"
  bottom: "eltwise8"
  bottom: "bn44"
  top: "eltwise9"
  eltwise_param {
    operation: SUM
  }
}
layer {
  name: "relu9"
  type: "ReLU"
  bottom: "eltwise9"
  top: "eltwise9"
}
layer {
  name: "conv45"
  type: "Convolution"
  bottom: "eltwise9"
  top: "conv45"
  param {
    lr_mult: 1
  }
  param {
    lr_mult: 2
  }
  convolution_param {
    num_output: 256
    pad: 1
    kernel_size: 3
    stride: 1
    weight_filler {
      type: "xavier"
    }
    bias_filler {
      type: "constant"
    }
  }
}
layer {
  name: "bn45"
  type: "BN"
  bottom: "conv45"
  top: "bn45"
  param {
    lr_mult: 1
    decay_mult: 0
  }
  param {
    lr_mult: 1
    decay_mult: 0
  }
  bn_param {
    scale_filler {
      type: "constant"
      value: 1
    }
    shift_filler {
      type: "constant"
      value: 0
    }
  }
}
layer {
  name: "relu45"
  type: "ReLU"
  bottom: "bn45"
  top: "bn45"
}
layer {
  name: "conv46"
  type: "Convolution"
  bottom: "bn45"
  top: "conv46"
  param {
    lr_mult: 1
  }
  param {
    lr_mult: 2
  }
  convolution_param {
    num_output: 256
    pad: 1
    kernel_size: 3
    stride: 1
    weight_filler {
      type: "xavier"
    }
    bias_filler {
      type: "constant"
    }
  }
}
layer {
  name: "bn46"
  type: "BN"
  bottom: "conv46"
  top: "bn46"
  param {
    lr_mult: 1
    decay_mult: 0
  }
  param {
    lr_mult: 1
    decay_mult: 0
  }
  bn_param {
    scale_filler {
      type: "constant"
      value: 1
    }
    shift_filler {
      type: "constant"
      value: 0
    }
  }
}
layer {
  name: "relu46"
  type: "ReLU"
  bottom: "bn46"
  top: "bn46"
}
layer {
  name: "eltwise10"
  type: "Eltwise"
  bottom: "eltwise9"
  bottom: "bn46"
  top: "eltwise10"
  eltwise_param {
    operation: SUM
  }
}
layer {
  name: "relu10"
  type: "ReLU"
  bottom: "eltwise10"
  top: "eltwise10"
}
layer {
  name: "conv47"
  type: "Convolution"
  bottom: "eltwise10"
  top: "conv47"
  param {
    lr_mult: 1
  }
  param {
    lr_mult: 2
  }
  convolution_param {
    num_output: 256
    pad: 1
    kernel_size: 3
    stride: 1
    weight_filler {
      type: "xavier"
    }
    bias_filler {
      type: "constant"
    }
  }
}
layer {
  name: "bn47"
  type: "BN"
  bottom: "conv47"
  top: "bn47"
  param {
    lr_mult: 1
    decay_mult: 0
  }
  param {
    lr_mult: 1
    decay_mult: 0
  }
  bn_param {
    scale_filler {
      type: "constant"
      value: 1
    }
    shift_filler {
      type: "constant"
      value: 0
    }
  }
}
layer {
  name: "relu47"
  type: "ReLU"
  bottom: "bn47"
  top: "bn47"
}
layer {
  name: "conv48"
  type: "Convolution"
  bottom: "bn47"
  top: "conv48"
  param {
    lr_mult: 1
  }
  param {
    lr_mult: 2
  }
  convolution_param {
    num_output: 256
    pad: 1
    kernel_size: 3
    stride: 1
    weight_filler {
      type: "xavier"
    }
    bias_filler {
      type: "constant"
    }
  }
}
layer {
  name: "bn48"
  type: "BN"
  bottom: "conv48"
  top: "bn48"
  param {
    lr_mult: 1
    decay_mult: 0
  }
  param {
    lr_mult: 1
    decay_mult: 0
  }
  bn_param {
    scale_filler {
      type: "constant"
      value: 1
    }
    shift_filler {
      type: "constant"
      value: 0
    }
  }
}
layer {
  name: "relu48"
  type: "ReLU"
  bottom: "bn48"
  top: "bn48"
}
layer {
  name: "eltwise11"
  type: "Eltwise"
  bottom: "eltwise10"
  bottom: "bn48"
  top: "eltwise11"
  eltwise_param {
    operation: SUM
  }
}
layer {
  name: "relu11"
  type: "ReLU"
  bottom: "eltwise11"
  top: "eltwise11"
}
layer {
  name: "conv49"
  type: "Convolution"
  bottom: "eltwise11"
  top: "conv49"
  param {
    lr_mult: 1
  }
  param {
    lr_mult: 2
  }
  convolution_param {
    num_output: 256
    pad: 1
    kernel_size: 3
    stride: 1
    weight_filler {
      type: "xavier"
    }
    bias_filler {
      type: "constant"
    }
  }
}
layer {
  name: "bn49"
  type: "BN"
  bottom: "conv49"
  top: "bn49"
  param {
    lr_mult: 1
    decay_mult: 0
  }
  param {
    lr_mult: 1
    decay_mult: 0
  }
  bn_param {
    scale_filler {
      type: "constant"
      value: 1
    }
    shift_filler {
      type: "constant"
      value: 0
    }
  }
}
layer {
  name: "relu49"
  type: "ReLU"
  bottom: "bn49"
  top: "bn49"
}
layer {
  name: "conv410"
  type: "Convolution"
  bottom: "bn49"
  top: "conv410"
  param {
    lr_mult: 1
  }
  param {
    lr_mult: 2
  }
  convolution_param {
    num_output: 256
    pad: 1
    kernel_size: 3
    stride: 1
    weight_filler {
      type: "xavier"
    }
    bias_filler {
      type: "constant"
    }
  }
}
layer {
  name: "bn410"
  type: "BN"
  bottom: "conv410"
  top: "bn410"
  param {
    lr_mult: 1
    decay_mult: 0
  }
  param {
    lr_mult: 1
    decay_mult: 0
  }
  bn_param {
    scale_filler {
      type: "constant"
      value: 1
    }
    shift_filler {
      type: "constant"
      value: 0
    }
  }
}
layer {
  name: "relu410"
  type: "ReLU"
  bottom: "bn410"
  top: "bn410"
}
layer {
  name: "eltwise12"
  type: "Eltwise"
  bottom: "eltwise11"
  bottom: "bn410"
  top: "eltwise12"
  eltwise_param {
    operation: SUM
  }
}
layer {
  name: "relu12"
  type: "ReLU"
  bottom: "eltwise12"
  top: "eltwise12"
}
layer {
  name: "conv411"
  type: "Convolution"
  bottom: "eltwise12"
  top: "conv411"
  param {
    lr_mult: 1
  }
  param {
    lr_mult: 2
  }
  convolution_param {
    num_output: 256
    pad: 1
    kernel_size: 3
    stride: 1
    weight_filler {
      type: "xavier"
    }
    bias_filler {
      type: "constant"
    }
  }
}
layer {
  name: "bn411"
  type: "BN"
  bottom: "conv411"
  top: "bn411"
  param {
    lr_mult: 1
    decay_mult: 0
  }
  param {
    lr_mult: 1
    decay_mult: 0
  }
  bn_param {
    scale_filler {
      type: "constant"
      value: 1
    }
    shift_filler {
      type: "constant"
      value: 0
    }
  }
}
layer {
  name: "relu411"
  type: "ReLU"
  bottom: "bn411"
  top: "bn411"
}
layer {
  name: "conv412"
  type: "Convolution"
  bottom: "bn411"
  top: "conv412"
  param {
    lr_mult: 1
  }
  param {
    lr_mult: 2
  }
  convolution_param {
    num_output: 256
    pad: 1
    kernel_size: 3
    stride: 1
    weight_filler {
      type: "xavier"
    }
    bias_filler {
      type: "constant"
    }
  }
}
layer {
  name: "bn412"
  type: "BN"
  bottom: "conv412"
  top: "bn412"
  param {
    lr_mult: 1
    decay_mult: 0
  }
  param {
    lr_mult: 1
    decay_mult: 0
  }
  bn_param {
    scale_filler {
      type: "constant"
      value: 1
    }
    shift_filler {
      type: "constant"
      value: 0
    }
  }
}
layer {
  name: "relu412"
  type: "ReLU"
  bottom: "bn412"
  top: "bn412"
}
layer {
  name: "eltwise13"
  type: "Eltwise"
  bottom: "eltwise12"
  bottom: "bn412"
  top: "eltwise13"
  eltwise_param {
    operation: SUM
  }
}
layer {
  name: "relu13"
  type: "ReLU"
  bottom: "eltwise13"
  top: "eltwise13"
}
layer {
  name: "relu13_p"
  type: "Convolution"
  bottom: "eltwise12"
  top: "relu13_p"
  param {
    lr_mult: 1
  }
  param {
    lr_mult: 2
  }
  convolution_param {
    num_output: 512
    pad: 0
    kernel_size: 1
    stride: 2
    weight_filler {
      type: "xavier"
    }
    bias_filler {
      type: "constant"
    }
  }
}
layer {
  name: "conv51"
  type: "Convolution"
  bottom: "eltwise13"
  top: "conv51"
  param {
    lr_mult: 1
  }
  param {
    lr_mult: 2
  }
  convolution_param {
    num_output: 512
    pad: 1
    kernel_size: 3
    stride: 2
    weight_filler {
      type: "xavier"
    }
    bias_filler {
      type: "constant"
    }
  }
}
layer {
  name: "bn51"
  type: "BN"
  bottom: "conv51"
  top: "bn51"
  param {
    lr_mult: 1
    decay_mult: 0
  }
  param {
    lr_mult: 1
    decay_mult: 0
  }
  bn_param {
    scale_filler {
      type: "constant"
      value: 1
    }
    shift_filler {
      type: "constant"
      value: 0
    }
  }
}
layer {
  name: "relu51"
  type: "ReLU"
  bottom: "bn51"
  top: "bn51"
}
layer {
  name: "conv52"
  type: "Convolution"
  bottom: "bn51"
  top: "conv52"
  param {
    lr_mult: 1
  }
  param {
    lr_mult: 2
  }
  convolution_param {
    num_output: 512
    pad: 1
    kernel_size: 3
    stride: 1
    weight_filler {
      type: "xavier"
    }
    bias_filler {
      type: "constant"
    }
  }
}
layer {
  name: "bn52"
  type: "BN"
  bottom: "conv52"
  top: "bn52"
  param {
    lr_mult: 1
    decay_mult: 0
  }
  param {
    lr_mult: 1
    decay_mult: 0
  }
  bn_param {
    scale_filler {
      type: "constant"
      value: 1
    }
    shift_filler {
      type: "constant"
      value: 0
    }
  }
}
layer {
  name: "relu52"
  type: "ReLU"
  bottom: "bn52"
  top: "bn52"
}
layer {
  name: "eltwise14"
  type: "Eltwise"
  bottom: "relu13_p"
  bottom: "bn52"
  top: "eltwise14"
  eltwise_param {
    operation: SUM
  }
}
layer {
  name: "relu14"
  type: "ReLU"
  bottom: "eltwise14"
  top: "eltwise14"
}
layer {
  name: "conv53"
  type: "Convolution"
  bottom: "eltwise14"
  top: "conv53"
  param {
    lr_mult: 1
  }
  param {
    lr_mult: 2
  }
  convolution_param {
    num_output: 512
    pad: 1
    kernel_size: 3
    stride: 1
    weight_filler {
      type: "xavier"
    }
    bias_filler {
      type: "constant"
    }
  }
}
layer {
  name: "bn53"
  type: "BN"
  bottom: "conv53"
  top: "bn53"
  param {
    lr_mult: 1
    decay_mult: 0
  }
  param {
    lr_mult: 1
    decay_mult: 0
  }
  bn_param {
    scale_filler {
      type: "constant"
      value: 1
    }
    shift_filler {
      type: "constant"
      value: 0
    }
  }
}
layer {
  name: "relu53"
  type: "ReLU"
  bottom: "bn53"
  top: "bn53"
}
layer {
  name: "conv54"
  type: "Convolution"
  bottom: "bn53"
  top: "conv54"
  param {
    lr_mult: 1
  }
  param {
    lr_mult: 2
  }
  convolution_param {
    num_output: 512
    pad: 1
    kernel_size: 3
    stride: 1
    weight_filler {
      type: "xavier"
    }
    bias_filler {
      type: "constant"
    }
  }
}
layer {
  name: "bn54"
  type: "BN"
  bottom: "conv54"
  top: "bn54"
  param {
    lr_mult: 1
    decay_mult: 0
  }
  param {
    lr_mult: 1
    decay_mult: 0
  }
  bn_param {
    scale_filler {
      type: "constant"
      value: 1
    }
    shift_filler {
      type: "constant"
      value: 0
    }
  }
}
layer {
  name: "relu54"
  type: "ReLU"
  bottom: "bn54"
  top: "bn54"
}
layer {
  name: "eltwise15"
  type: "Eltwise"
  bottom: "eltwise14"
  bottom: "bn54"
  top: "eltwise15"
  eltwise_param {
    operation: SUM
  }
}
layer {
  name: "relu15"
  type: "ReLU"
  bottom: "eltwise15"
  top: "eltwise15"
}
layer {
  name: "conv55"
  type: "Convolution"
  bottom: "eltwise15"
  top: "conv55"
  param {
    lr_mult: 1
  }
  param {
    lr_mult: 2
  }
  convolution_param {
    num_output: 512
    pad: 1
    kernel_size: 3
    stride: 1
    weight_filler {
      type: "xavier"
    }
    bias_filler {
      type: "constant"
    }
  }
}
layer {
  name: "bn55"
  type: "BN"
  bottom: "conv55"
  top: "bn55"
  param {
    lr_mult: 1
    decay_mult: 0
  }
  param {
    lr_mult: 1
    decay_mult: 0
  }
  bn_param {
    scale_filler {
      type: "constant"
      value: 1
    }
    shift_filler {
      type: "constant"
      value: 0
    }
  }
}
layer {
  name: "relu55"
  type: "ReLU"
  bottom: "bn55"
  top: "bn55"
}
layer {
  name: "conv56"
  type: "Convolution"
  bottom: "bn55"
  top: "conv56"
  param {
    lr_mult: 1
  }
  param {
    lr_mult: 2
  }
  convolution_param {
    num_output: 512
    pad: 1
    kernel_size: 3
    stride: 1
    weight_filler {
      type: "xavier"
    }
    bias_filler {
      type: "constant"
    }
  }
}
layer {
  name: "bn56"
  type: "BN"
  bottom: "conv56"
  top: "bn56"
  param {
    lr_mult: 1
    decay_mult: 0
  }
  param {
    lr_mult: 1
    decay_mult: 0
  }
  bn_param {
    scale_filler {
      type: "constant"
      value: 1
    }
    shift_filler {
      type: "constant"
      value: 0
    }
  }
}
layer {
  name: "relu56"
  type: "ReLU"
  bottom: "bn56"
  top: "bn56"
}
layer {
  name: "eltwise16"
  type: "Eltwise"
  bottom: "eltwise15"
  bottom: "bn56"
  top: "eltwise16"
  eltwise_param {
    operation: SUM
  }
}
layer {
  name: "relu16"
  type: "ReLU"
  bottom: "eltwise16"
  top: "eltwise16"
}
layer {
  name: "pool5"
  type: "Pooling"
  bottom: "eltwise16"
  top: "pool5"
  pooling_param {
    pool: AVE
    kernel_size: 7
    stride: 1
  }
}
layer {
  name: "ip1"
  type: "InnerProduct"
  bottom: "pool5"
  top: "ip1"
  param {
    lr_mult: 1
  }
  param {
    lr_mult: 2
  }
  inner_product_param {
    num_output: 1000
    weight_filler {
      type: "xavier"
    }
    bias_filler {
      type: "constant"
    }
  }
}
layer {
  name: "accuracy"
  type: "Accuracy"
  bottom: "ip1"
  bottom: "label"
  top: "accuracy"
  include {
    phase: TEST
  }
}
I1231 07:23:08.770642 47127 layer_factory.hpp:76] Creating layer data
I1231 07:23:08.770756 47127 net.cpp:110] Creating Layer data
I1231 07:23:08.770783 47127 net.cpp:433] data -> data
I1231 07:23:08.770804 47127 net.cpp:433] data -> label
I1231 07:23:08.770824 47127 data_transformer.cpp:23] Loading mean file from: ./ilsvrc12_mean.binaryproto
I1231 07:23:08.771680 47132 db_lmdb.cpp:22] Opened lmdb ./ilsvrc12_test_lmdb
I1231 07:23:08.773989 47127 data_layer.cpp:44] output data size: 32,3,224,224
I1231 07:23:08.831924 47127 net.cpp:155] Setting up data
I1231 07:23:08.831995 47127 net.cpp:163] Top shape: 32 3 224 224 (4816896)
I1231 07:23:08.832010 47127 net.cpp:163] Top shape: 32 (32)
I1231 07:23:08.832029 47127 layer_factory.hpp:76] Creating layer conv01
I1231 07:23:08.832108 47127 net.cpp:110] Creating Layer conv01
I1231 07:23:08.832121 47127 net.cpp:477] conv01 <- data
I1231 07:23:08.832149 47127 net.cpp:433] conv01 -> conv01
I1231 07:23:08.832712 47127 net.cpp:155] Setting up conv01
I1231 07:23:08.832751 47127 net.cpp:163] Top shape: 32 64 112 112 (25690112)
I1231 07:23:08.832774 47127 layer_factory.hpp:76] Creating layer bn01
I1231 07:23:08.832813 47127 net.cpp:110] Creating Layer bn01
I1231 07:23:08.832825 47127 net.cpp:477] bn01 <- conv01
I1231 07:23:08.832842 47127 net.cpp:433] bn01 -> bn01
I1231 07:23:08.834964 47127 net.cpp:155] Setting up bn01
I1231 07:23:08.834996 47127 net.cpp:163] Top shape: 32 64 112 112 (25690112)
I1231 07:23:08.835019 47127 layer_factory.hpp:76] Creating layer relu01
I1231 07:23:08.835052 47127 net.cpp:110] Creating Layer relu01
I1231 07:23:08.835062 47127 net.cpp:477] relu01 <- bn01
I1231 07:23:08.835084 47127 net.cpp:419] relu01 -> bn01 (in-place)
I1231 07:23:08.835289 47127 net.cpp:155] Setting up relu01
I1231 07:23:08.835310 47127 net.cpp:163] Top shape: 32 64 112 112 (25690112)
I1231 07:23:08.835324 47127 layer_factory.hpp:76] Creating layer pool1
I1231 07:23:08.835342 47127 net.cpp:110] Creating Layer pool1
I1231 07:23:08.835355 47127 net.cpp:477] pool1 <- bn01
I1231 07:23:08.835371 47127 net.cpp:433] pool1 -> pool1
I1231 07:23:08.835455 47127 net.cpp:155] Setting up pool1
I1231 07:23:08.835512 47127 net.cpp:163] Top shape: 32 64 56 56 (6422528)
I1231 07:23:08.835525 47127 layer_factory.hpp:76] Creating layer pool1_pool1_0_split
I1231 07:23:08.835542 47127 net.cpp:110] Creating Layer pool1_pool1_0_split
I1231 07:23:08.835556 47127 net.cpp:477] pool1_pool1_0_split <- pool1
I1231 07:23:08.835571 47127 net.cpp:433] pool1_pool1_0_split -> pool1_pool1_0_split_0
I1231 07:23:08.835587 47127 net.cpp:433] pool1_pool1_0_split -> pool1_pool1_0_split_1
I1231 07:23:08.835605 47127 net.cpp:155] Setting up pool1_pool1_0_split
I1231 07:23:08.835619 47127 net.cpp:163] Top shape: 32 64 56 56 (6422528)
I1231 07:23:08.835633 47127 net.cpp:163] Top shape: 32 64 56 56 (6422528)
I1231 07:23:08.835644 47127 layer_factory.hpp:76] Creating layer conv21
I1231 07:23:08.835662 47127 net.cpp:110] Creating Layer conv21
I1231 07:23:08.835675 47127 net.cpp:477] conv21 <- pool1_pool1_0_split_0
I1231 07:23:08.835690 47127 net.cpp:433] conv21 -> conv21
I1231 07:23:08.836365 47127 net.cpp:155] Setting up conv21
I1231 07:23:08.836400 47127 net.cpp:163] Top shape: 32 64 56 56 (6422528)
I1231 07:23:08.836416 47127 layer_factory.hpp:76] Creating layer bn21
I1231 07:23:08.836436 47127 net.cpp:110] Creating Layer bn21
I1231 07:23:08.836448 47127 net.cpp:477] bn21 <- conv21
I1231 07:23:08.836463 47127 net.cpp:433] bn21 -> bn21
I1231 07:23:08.836591 47127 net.cpp:155] Setting up bn21
I1231 07:23:08.836611 47127 net.cpp:163] Top shape: 32 64 56 56 (6422528)
I1231 07:23:08.836630 47127 layer_factory.hpp:76] Creating layer relu21
I1231 07:23:08.836649 47127 net.cpp:110] Creating Layer relu21
I1231 07:23:08.836663 47127 net.cpp:477] relu21 <- bn21
I1231 07:23:08.836678 47127 net.cpp:419] relu21 -> bn21 (in-place)
I1231 07:23:08.836760 47127 net.cpp:155] Setting up relu21
I1231 07:23:08.836778 47127 net.cpp:163] Top shape: 32 64 56 56 (6422528)
I1231 07:23:08.836791 47127 layer_factory.hpp:76] Creating layer conv22
I1231 07:23:08.836809 47127 net.cpp:110] Creating Layer conv22
I1231 07:23:08.836822 47127 net.cpp:477] conv22 <- bn21
I1231 07:23:08.836838 47127 net.cpp:433] conv22 -> conv22
I1231 07:23:08.837525 47127 net.cpp:155] Setting up conv22
I1231 07:23:08.837548 47127 net.cpp:163] Top shape: 32 64 56 56 (6422528)
I1231 07:23:08.837563 47127 layer_factory.hpp:76] Creating layer bn22
I1231 07:23:08.837580 47127 net.cpp:110] Creating Layer bn22
I1231 07:23:08.837595 47127 net.cpp:477] bn22 <- conv22
I1231 07:23:08.837611 47127 net.cpp:433] bn22 -> bn22
I1231 07:23:08.837728 47127 net.cpp:155] Setting up bn22
I1231 07:23:08.837744 47127 net.cpp:163] Top shape: 32 64 56 56 (6422528)
I1231 07:23:08.837771 47127 layer_factory.hpp:76] Creating layer relu22
I1231 07:23:08.837786 47127 net.cpp:110] Creating Layer relu22
I1231 07:23:08.837797 47127 net.cpp:477] relu22 <- bn22
I1231 07:23:08.837810 47127 net.cpp:419] relu22 -> bn22 (in-place)
I1231 07:23:08.838012 47127 net.cpp:155] Setting up relu22
I1231 07:23:08.838032 47127 net.cpp:163] Top shape: 32 64 56 56 (6422528)
I1231 07:23:08.838043 47127 layer_factory.hpp:76] Creating layer eltwise1
I1231 07:23:08.838059 47127 net.cpp:110] Creating Layer eltwise1
I1231 07:23:08.838069 47127 net.cpp:477] eltwise1 <- pool1_pool1_0_split_1
I1231 07:23:08.838080 47127 net.cpp:477] eltwise1 <- bn22
I1231 07:23:08.838094 47127 net.cpp:433] eltwise1 -> eltwise1
I1231 07:23:08.838111 47127 net.cpp:155] Setting up eltwise1
I1231 07:23:08.838124 47127 net.cpp:163] Top shape: 32 64 56 56 (6422528)
I1231 07:23:08.838134 47127 layer_factory.hpp:76] Creating layer relu1
I1231 07:23:08.838146 47127 net.cpp:110] Creating Layer relu1
I1231 07:23:08.838156 47127 net.cpp:477] relu1 <- eltwise1
I1231 07:23:08.838168 47127 net.cpp:419] relu1 -> eltwise1 (in-place)
I1231 07:23:08.838238 47127 net.cpp:155] Setting up relu1
I1231 07:23:08.838253 47127 net.cpp:163] Top shape: 32 64 56 56 (6422528)
I1231 07:23:08.838263 47127 layer_factory.hpp:76] Creating layer eltwise1_relu1_0_split
I1231 07:23:08.838276 47127 net.cpp:110] Creating Layer eltwise1_relu1_0_split
I1231 07:23:08.838286 47127 net.cpp:477] eltwise1_relu1_0_split <- eltwise1
I1231 07:23:08.838312 47127 net.cpp:433] eltwise1_relu1_0_split -> eltwise1_relu1_0_split_0
I1231 07:23:08.838327 47127 net.cpp:433] eltwise1_relu1_0_split -> eltwise1_relu1_0_split_1
I1231 07:23:08.838341 47127 net.cpp:155] Setting up eltwise1_relu1_0_split
I1231 07:23:08.838353 47127 net.cpp:163] Top shape: 32 64 56 56 (6422528)
I1231 07:23:08.838363 47127 net.cpp:163] Top shape: 32 64 56 56 (6422528)
I1231 07:23:08.838373 47127 layer_factory.hpp:76] Creating layer conv23
I1231 07:23:08.838389 47127 net.cpp:110] Creating Layer conv23
I1231 07:23:08.838400 47127 net.cpp:477] conv23 <- eltwise1_relu1_0_split_0
I1231 07:23:08.838414 47127 net.cpp:433] conv23 -> conv23
I1231 07:23:08.839087 47127 net.cpp:155] Setting up conv23
I1231 07:23:08.839107 47127 net.cpp:163] Top shape: 32 64 56 56 (6422528)
I1231 07:23:08.839120 47127 layer_factory.hpp:76] Creating layer bn23
I1231 07:23:08.839138 47127 net.cpp:110] Creating Layer bn23
I1231 07:23:08.839149 47127 net.cpp:477] bn23 <- conv23
I1231 07:23:08.839164 47127 net.cpp:433] bn23 -> bn23
I1231 07:23:08.839282 47127 net.cpp:155] Setting up bn23
I1231 07:23:08.839298 47127 net.cpp:163] Top shape: 32 64 56 56 (6422528)
I1231 07:23:08.839313 47127 layer_factory.hpp:76] Creating layer relu23
I1231 07:23:08.839329 47127 net.cpp:110] Creating Layer relu23
I1231 07:23:08.839339 47127 net.cpp:477] relu23 <- bn23
I1231 07:23:08.839350 47127 net.cpp:419] relu23 -> bn23 (in-place)
I1231 07:23:08.839423 47127 net.cpp:155] Setting up relu23
I1231 07:23:08.839438 47127 net.cpp:163] Top shape: 32 64 56 56 (6422528)
I1231 07:23:08.839449 47127 layer_factory.hpp:76] Creating layer conv24
I1231 07:23:08.839464 47127 net.cpp:110] Creating Layer conv24
I1231 07:23:08.839474 47127 net.cpp:477] conv24 <- bn23
I1231 07:23:08.839488 47127 net.cpp:433] conv24 -> conv24
I1231 07:23:08.840162 47127 net.cpp:155] Setting up conv24
I1231 07:23:08.840183 47127 net.cpp:163] Top shape: 32 64 56 56 (6422528)
I1231 07:23:08.840196 47127 layer_factory.hpp:76] Creating layer bn24
I1231 07:23:08.840214 47127 net.cpp:110] Creating Layer bn24
I1231 07:23:08.840224 47127 net.cpp:477] bn24 <- conv24
I1231 07:23:08.840237 47127 net.cpp:433] bn24 -> bn24
I1231 07:23:08.840359 47127 net.cpp:155] Setting up bn24
I1231 07:23:08.840375 47127 net.cpp:163] Top shape: 32 64 56 56 (6422528)
I1231 07:23:08.840391 47127 layer_factory.hpp:76] Creating layer relu24
I1231 07:23:08.840415 47127 net.cpp:110] Creating Layer relu24
I1231 07:23:08.840425 47127 net.cpp:477] relu24 <- bn24
I1231 07:23:08.840438 47127 net.cpp:419] relu24 -> bn24 (in-place)
I1231 07:23:08.840510 47127 net.cpp:155] Setting up relu24
I1231 07:23:08.840526 47127 net.cpp:163] Top shape: 32 64 56 56 (6422528)
I1231 07:23:08.840536 47127 layer_factory.hpp:76] Creating layer bn24_relu24_0_split
I1231 07:23:08.840549 47127 net.cpp:110] Creating Layer bn24_relu24_0_split
I1231 07:23:08.840559 47127 net.cpp:477] bn24_relu24_0_split <- bn24
I1231 07:23:08.840574 47127 net.cpp:433] bn24_relu24_0_split -> bn24_relu24_0_split_0
I1231 07:23:08.840586 47127 net.cpp:433] bn24_relu24_0_split -> bn24_relu24_0_split_1
I1231 07:23:08.840601 47127 net.cpp:155] Setting up bn24_relu24_0_split
I1231 07:23:08.840612 47127 net.cpp:163] Top shape: 32 64 56 56 (6422528)
I1231 07:23:08.840623 47127 net.cpp:163] Top shape: 32 64 56 56 (6422528)
I1231 07:23:08.840633 47127 layer_factory.hpp:76] Creating layer eltwise2
I1231 07:23:08.840646 47127 net.cpp:110] Creating Layer eltwise2
I1231 07:23:08.840656 47127 net.cpp:477] eltwise2 <- eltwise1_relu1_0_split_1
I1231 07:23:08.840668 47127 net.cpp:477] eltwise2 <- bn24_relu24_0_split_0
I1231 07:23:08.840682 47127 net.cpp:433] eltwise2 -> eltwise2
I1231 07:23:08.840708 47127 net.cpp:155] Setting up eltwise2
I1231 07:23:08.840720 47127 net.cpp:163] Top shape: 32 64 56 56 (6422528)
I1231 07:23:08.840731 47127 layer_factory.hpp:76] Creating layer relu2
I1231 07:23:08.840744 47127 net.cpp:110] Creating Layer relu2
I1231 07:23:08.840755 47127 net.cpp:477] relu2 <- eltwise2
I1231 07:23:08.840769 47127 net.cpp:419] relu2 -> eltwise2 (in-place)
I1231 07:23:08.840968 47127 net.cpp:155] Setting up relu2
I1231 07:23:08.840988 47127 net.cpp:163] Top shape: 32 64 56 56 (6422528)
I1231 07:23:08.841012 47127 layer_factory.hpp:76] Creating layer conv25
I1231 07:23:08.841038 47127 net.cpp:110] Creating Layer conv25
I1231 07:23:08.841049 47127 net.cpp:477] conv25 <- bn24_relu24_0_split_1
I1231 07:23:08.841064 47127 net.cpp:433] conv25 -> conv25
I1231 07:23:08.841729 47127 net.cpp:155] Setting up conv25
I1231 07:23:08.841749 47127 net.cpp:163] Top shape: 32 64 56 56 (6422528)
I1231 07:23:08.841776 47127 layer_factory.hpp:76] Creating layer bn25
I1231 07:23:08.841794 47127 net.cpp:110] Creating Layer bn25
I1231 07:23:08.841805 47127 net.cpp:477] bn25 <- conv25
I1231 07:23:08.841820 47127 net.cpp:433] bn25 -> bn25
I1231 07:23:08.841940 47127 net.cpp:155] Setting up bn25
I1231 07:23:08.841956 47127 net.cpp:163] Top shape: 32 64 56 56 (6422528)
I1231 07:23:08.841979 47127 layer_factory.hpp:76] Creating layer relu25
I1231 07:23:08.841995 47127 net.cpp:110] Creating Layer relu25
I1231 07:23:08.842005 47127 net.cpp:477] relu25 <- bn25
I1231 07:23:08.842017 47127 net.cpp:419] relu25 -> bn25 (in-place)
I1231 07:23:08.842106 47127 net.cpp:155] Setting up relu25
I1231 07:23:08.842121 47127 net.cpp:163] Top shape: 32 64 56 56 (6422528)
I1231 07:23:08.842133 47127 layer_factory.hpp:76] Creating layer conv26
I1231 07:23:08.842147 47127 net.cpp:110] Creating Layer conv26
I1231 07:23:08.842157 47127 net.cpp:477] conv26 <- bn25
I1231 07:23:08.842171 47127 net.cpp:433] conv26 -> conv26
I1231 07:23:08.843538 47127 net.cpp:155] Setting up conv26
I1231 07:23:08.843560 47127 net.cpp:163] Top shape: 32 64 56 56 (6422528)
I1231 07:23:08.843575 47127 layer_factory.hpp:76] Creating layer bn26
I1231 07:23:08.843593 47127 net.cpp:110] Creating Layer bn26
I1231 07:23:08.843605 47127 net.cpp:477] bn26 <- conv26
I1231 07:23:08.843618 47127 net.cpp:433] bn26 -> bn26
I1231 07:23:08.843739 47127 net.cpp:155] Setting up bn26
I1231 07:23:08.843755 47127 net.cpp:163] Top shape: 32 64 56 56 (6422528)
I1231 07:23:08.843771 47127 layer_factory.hpp:76] Creating layer relu26
I1231 07:23:08.843786 47127 net.cpp:110] Creating Layer relu26
I1231 07:23:08.843797 47127 net.cpp:477] relu26 <- bn26
I1231 07:23:08.843811 47127 net.cpp:419] relu26 -> bn26 (in-place)
I1231 07:23:08.843888 47127 net.cpp:155] Setting up relu26
I1231 07:23:08.843904 47127 net.cpp:163] Top shape: 32 64 56 56 (6422528)
I1231 07:23:08.843914 47127 layer_factory.hpp:76] Creating layer eltwise3
I1231 07:23:08.843927 47127 net.cpp:110] Creating Layer eltwise3
I1231 07:23:08.843937 47127 net.cpp:477] eltwise3 <- eltwise2
I1231 07:23:08.843950 47127 net.cpp:477] eltwise3 <- bn26
I1231 07:23:08.843962 47127 net.cpp:433] eltwise3 -> eltwise3
I1231 07:23:08.843977 47127 net.cpp:155] Setting up eltwise3
I1231 07:23:08.843989 47127 net.cpp:163] Top shape: 32 64 56 56 (6422528)
I1231 07:23:08.843999 47127 layer_factory.hpp:76] Creating layer relu3
I1231 07:23:08.844012 47127 net.cpp:110] Creating Layer relu3
I1231 07:23:08.844022 47127 net.cpp:477] relu3 <- eltwise3
I1231 07:23:08.844035 47127 net.cpp:419] relu3 -> eltwise3 (in-place)
I1231 07:23:08.844106 47127 net.cpp:155] Setting up relu3
I1231 07:23:08.844122 47127 net.cpp:163] Top shape: 32 64 56 56 (6422528)
I1231 07:23:08.844133 47127 layer_factory.hpp:76] Creating layer eltwise3_relu3_0_split
I1231 07:23:08.844148 47127 net.cpp:110] Creating Layer eltwise3_relu3_0_split
I1231 07:23:08.844159 47127 net.cpp:477] eltwise3_relu3_0_split <- eltwise3
I1231 07:23:08.844173 47127 net.cpp:433] eltwise3_relu3_0_split -> eltwise3_relu3_0_split_0
I1231 07:23:08.844187 47127 net.cpp:433] eltwise3_relu3_0_split -> eltwise3_relu3_0_split_1
I1231 07:23:08.844202 47127 net.cpp:155] Setting up eltwise3_relu3_0_split
I1231 07:23:08.844213 47127 net.cpp:163] Top shape: 32 64 56 56 (6422528)
I1231 07:23:08.844224 47127 net.cpp:163] Top shape: 32 64 56 56 (6422528)
I1231 07:23:08.844234 47127 layer_factory.hpp:76] Creating layer relu3_p
I1231 07:23:08.844246 47127 net.cpp:110] Creating Layer relu3_p
I1231 07:23:08.844271 47127 net.cpp:477] relu3_p <- eltwise3_relu3_0_split_0
I1231 07:23:08.844287 47127 net.cpp:433] relu3_p -> relu3_p
I1231 07:23:08.844743 47127 net.cpp:155] Setting up relu3_p
I1231 07:23:08.844764 47127 net.cpp:163] Top shape: 32 128 28 28 (3211264)
I1231 07:23:08.844779 47127 layer_factory.hpp:76] Creating layer conv31
I1231 07:23:08.844796 47127 net.cpp:110] Creating Layer conv31
I1231 07:23:08.844806 47127 net.cpp:477] conv31 <- eltwise3_relu3_0_split_1
I1231 07:23:08.844822 47127 net.cpp:433] conv31 -> conv31
I1231 07:23:08.845752 47127 net.cpp:155] Setting up conv31
I1231 07:23:08.845773 47127 net.cpp:163] Top shape: 32 128 28 28 (3211264)
I1231 07:23:08.845789 47127 layer_factory.hpp:76] Creating layer bn31
I1231 07:23:08.845805 47127 net.cpp:110] Creating Layer bn31
I1231 07:23:08.845816 47127 net.cpp:477] bn31 <- conv31
I1231 07:23:08.845831 47127 net.cpp:433] bn31 -> bn31
I1231 07:23:08.845937 47127 net.cpp:155] Setting up bn31
I1231 07:23:08.845955 47127 net.cpp:163] Top shape: 32 128 28 28 (3211264)
I1231 07:23:08.845971 47127 layer_factory.hpp:76] Creating layer relu31
I1231 07:23:08.845986 47127 net.cpp:110] Creating Layer relu31
I1231 07:23:08.845998 47127 net.cpp:477] relu31 <- bn31
I1231 07:23:08.846011 47127 net.cpp:419] relu31 -> bn31 (in-place)
I1231 07:23:08.846200 47127 net.cpp:155] Setting up relu31
I1231 07:23:08.846220 47127 net.cpp:163] Top shape: 32 128 28 28 (3211264)
I1231 07:23:08.846232 47127 layer_factory.hpp:76] Creating layer conv32
I1231 07:23:08.846248 47127 net.cpp:110] Creating Layer conv32
I1231 07:23:08.846264 47127 net.cpp:477] conv32 <- bn31
I1231 07:23:08.846279 47127 net.cpp:433] conv32 -> conv32
I1231 07:23:08.848373 47127 net.cpp:155] Setting up conv32
I1231 07:23:08.848395 47127 net.cpp:163] Top shape: 32 128 28 28 (3211264)
I1231 07:23:08.848410 47127 layer_factory.hpp:76] Creating layer bn32
I1231 07:23:08.848428 47127 net.cpp:110] Creating Layer bn32
I1231 07:23:08.848438 47127 net.cpp:477] bn32 <- conv32
I1231 07:23:08.848453 47127 net.cpp:433] bn32 -> bn32
I1231 07:23:08.848557 47127 net.cpp:155] Setting up bn32
I1231 07:23:08.848575 47127 net.cpp:163] Top shape: 32 128 28 28 (3211264)
I1231 07:23:08.848592 47127 layer_factory.hpp:76] Creating layer relu32
I1231 07:23:08.848608 47127 net.cpp:110] Creating Layer relu32
I1231 07:23:08.848618 47127 net.cpp:477] relu32 <- bn32
I1231 07:23:08.848631 47127 net.cpp:419] relu32 -> bn32 (in-place)
I1231 07:23:08.848714 47127 net.cpp:155] Setting up relu32
I1231 07:23:08.848731 47127 net.cpp:163] Top shape: 32 128 28 28 (3211264)
I1231 07:23:08.848742 47127 layer_factory.hpp:76] Creating layer eltwise4
I1231 07:23:08.848757 47127 net.cpp:110] Creating Layer eltwise4
I1231 07:23:08.848767 47127 net.cpp:477] eltwise4 <- relu3_p
I1231 07:23:08.848778 47127 net.cpp:477] eltwise4 <- bn32
I1231 07:23:08.848793 47127 net.cpp:433] eltwise4 -> eltwise4
I1231 07:23:08.848808 47127 net.cpp:155] Setting up eltwise4
I1231 07:23:08.848819 47127 net.cpp:163] Top shape: 32 128 28 28 (3211264)
I1231 07:23:08.848830 47127 layer_factory.hpp:76] Creating layer relu4
I1231 07:23:08.848844 47127 net.cpp:110] Creating Layer relu4
I1231 07:23:08.848876 47127 net.cpp:477] relu4 <- eltwise4
I1231 07:23:08.848891 47127 net.cpp:419] relu4 -> eltwise4 (in-place)
I1231 07:23:08.848964 47127 net.cpp:155] Setting up relu4
I1231 07:23:08.848980 47127 net.cpp:163] Top shape: 32 128 28 28 (3211264)
I1231 07:23:08.848991 47127 layer_factory.hpp:76] Creating layer eltwise4_relu4_0_split
I1231 07:23:08.849005 47127 net.cpp:110] Creating Layer eltwise4_relu4_0_split
I1231 07:23:08.849015 47127 net.cpp:477] eltwise4_relu4_0_split <- eltwise4
I1231 07:23:08.849030 47127 net.cpp:433] eltwise4_relu4_0_split -> eltwise4_relu4_0_split_0
I1231 07:23:08.849043 47127 net.cpp:433] eltwise4_relu4_0_split -> eltwise4_relu4_0_split_1
I1231 07:23:08.849058 47127 net.cpp:155] Setting up eltwise4_relu4_0_split
I1231 07:23:08.849071 47127 net.cpp:163] Top shape: 32 128 28 28 (3211264)
I1231 07:23:08.849081 47127 net.cpp:163] Top shape: 32 128 28 28 (3211264)
I1231 07:23:08.849104 47127 layer_factory.hpp:76] Creating layer conv33
I1231 07:23:08.849122 47127 net.cpp:110] Creating Layer conv33
I1231 07:23:08.849133 47127 net.cpp:477] conv33 <- eltwise4_relu4_0_split_0
I1231 07:23:08.849146 47127 net.cpp:433] conv33 -> conv33
I1231 07:23:08.851233 47127 net.cpp:155] Setting up conv33
I1231 07:23:08.851253 47127 net.cpp:163] Top shape: 32 128 28 28 (3211264)
I1231 07:23:08.851269 47127 layer_factory.hpp:76] Creating layer bn33
I1231 07:23:08.851286 47127 net.cpp:110] Creating Layer bn33
I1231 07:23:08.851301 47127 net.cpp:477] bn33 <- conv33
I1231 07:23:08.851316 47127 net.cpp:433] bn33 -> bn33
I1231 07:23:08.851416 47127 net.cpp:155] Setting up bn33
I1231 07:23:08.851433 47127 net.cpp:163] Top shape: 32 128 28 28 (3211264)
I1231 07:23:08.851449 47127 layer_factory.hpp:76] Creating layer relu33
I1231 07:23:08.851464 47127 net.cpp:110] Creating Layer relu33
I1231 07:23:08.851475 47127 net.cpp:477] relu33 <- bn33
I1231 07:23:08.851487 47127 net.cpp:419] relu33 -> bn33 (in-place)
I1231 07:23:08.851562 47127 net.cpp:155] Setting up relu33
I1231 07:23:08.851578 47127 net.cpp:163] Top shape: 32 128 28 28 (3211264)
I1231 07:23:08.851589 47127 layer_factory.hpp:76] Creating layer conv34
I1231 07:23:08.851604 47127 net.cpp:110] Creating Layer conv34
I1231 07:23:08.851615 47127 net.cpp:477] conv34 <- bn33
I1231 07:23:08.851629 47127 net.cpp:433] conv34 -> conv34
I1231 07:23:08.853740 47127 net.cpp:155] Setting up conv34
I1231 07:23:08.853763 47127 net.cpp:163] Top shape: 32 128 28 28 (3211264)
I1231 07:23:08.853778 47127 layer_factory.hpp:76] Creating layer bn34
I1231 07:23:08.853796 47127 net.cpp:110] Creating Layer bn34
I1231 07:23:08.853806 47127 net.cpp:477] bn34 <- conv34
I1231 07:23:08.853821 47127 net.cpp:433] bn34 -> bn34
I1231 07:23:08.853919 47127 net.cpp:155] Setting up bn34
I1231 07:23:08.853936 47127 net.cpp:163] Top shape: 32 128 28 28 (3211264)
I1231 07:23:08.853965 47127 layer_factory.hpp:76] Creating layer relu34
I1231 07:23:08.853979 47127 net.cpp:110] Creating Layer relu34
I1231 07:23:08.853991 47127 net.cpp:477] relu34 <- bn34
I1231 07:23:08.854003 47127 net.cpp:419] relu34 -> bn34 (in-place)
I1231 07:23:08.854193 47127 net.cpp:155] Setting up relu34
I1231 07:23:08.854212 47127 net.cpp:163] Top shape: 32 128 28 28 (3211264)
I1231 07:23:08.854223 47127 layer_factory.hpp:76] Creating layer eltwise5
I1231 07:23:08.854238 47127 net.cpp:110] Creating Layer eltwise5
I1231 07:23:08.854249 47127 net.cpp:477] eltwise5 <- eltwise4_relu4_0_split_1
I1231 07:23:08.854261 47127 net.cpp:477] eltwise5 <- bn34
I1231 07:23:08.854274 47127 net.cpp:433] eltwise5 -> eltwise5
I1231 07:23:08.854290 47127 net.cpp:155] Setting up eltwise5
I1231 07:23:08.854301 47127 net.cpp:163] Top shape: 32 128 28 28 (3211264)
I1231 07:23:08.854312 47127 layer_factory.hpp:76] Creating layer relu5
I1231 07:23:08.854329 47127 net.cpp:110] Creating Layer relu5
I1231 07:23:08.854341 47127 net.cpp:477] relu5 <- eltwise5
I1231 07:23:08.854353 47127 net.cpp:419] relu5 -> eltwise5 (in-place)
I1231 07:23:08.854430 47127 net.cpp:155] Setting up relu5
I1231 07:23:08.854445 47127 net.cpp:163] Top shape: 32 128 28 28 (3211264)
I1231 07:23:08.854456 47127 layer_factory.hpp:76] Creating layer eltwise5_relu5_0_split
I1231 07:23:08.854470 47127 net.cpp:110] Creating Layer eltwise5_relu5_0_split
I1231 07:23:08.854480 47127 net.cpp:477] eltwise5_relu5_0_split <- eltwise5
I1231 07:23:08.854493 47127 net.cpp:433] eltwise5_relu5_0_split -> eltwise5_relu5_0_split_0
I1231 07:23:08.854507 47127 net.cpp:433] eltwise5_relu5_0_split -> eltwise5_relu5_0_split_1
I1231 07:23:08.854522 47127 net.cpp:155] Setting up eltwise5_relu5_0_split
I1231 07:23:08.854535 47127 net.cpp:163] Top shape: 32 128 28 28 (3211264)
I1231 07:23:08.854547 47127 net.cpp:163] Top shape: 32 128 28 28 (3211264)
I1231 07:23:08.854557 47127 layer_factory.hpp:76] Creating layer conv35
I1231 07:23:08.854573 47127 net.cpp:110] Creating Layer conv35
I1231 07:23:08.854583 47127 net.cpp:477] conv35 <- eltwise5_relu5_0_split_0
I1231 07:23:08.854598 47127 net.cpp:433] conv35 -> conv35
I1231 07:23:08.858757 47127 net.cpp:155] Setting up conv35
I1231 07:23:08.858780 47127 net.cpp:163] Top shape: 32 128 28 28 (3211264)
I1231 07:23:08.858795 47127 layer_factory.hpp:76] Creating layer bn35
I1231 07:23:08.858813 47127 net.cpp:110] Creating Layer bn35
I1231 07:23:08.858822 47127 net.cpp:477] bn35 <- conv35
I1231 07:23:08.858837 47127 net.cpp:433] bn35 -> bn35
I1231 07:23:08.858940 47127 net.cpp:155] Setting up bn35
I1231 07:23:08.858958 47127 net.cpp:163] Top shape: 32 128 28 28 (3211264)
I1231 07:23:08.858973 47127 layer_factory.hpp:76] Creating layer relu35
I1231 07:23:08.858988 47127 net.cpp:110] Creating Layer relu35
I1231 07:23:08.858999 47127 net.cpp:477] relu35 <- bn35
I1231 07:23:08.859020 47127 net.cpp:419] relu35 -> bn35 (in-place)
I1231 07:23:08.859097 47127 net.cpp:155] Setting up relu35
I1231 07:23:08.859112 47127 net.cpp:163] Top shape: 32 128 28 28 (3211264)
I1231 07:23:08.859123 47127 layer_factory.hpp:76] Creating layer conv36
I1231 07:23:08.859139 47127 net.cpp:110] Creating Layer conv36
I1231 07:23:08.859149 47127 net.cpp:477] conv36 <- bn35
I1231 07:23:08.859164 47127 net.cpp:433] conv36 -> conv36
I1231 07:23:08.861280 47127 net.cpp:155] Setting up conv36
I1231 07:23:08.861325 47127 net.cpp:163] Top shape: 32 128 28 28 (3211264)
I1231 07:23:08.861347 47127 layer_factory.hpp:76] Creating layer bn36
I1231 07:23:08.861366 47127 net.cpp:110] Creating Layer bn36
I1231 07:23:08.861377 47127 net.cpp:477] bn36 <- conv36
I1231 07:23:08.861392 47127 net.cpp:433] bn36 -> bn36
I1231 07:23:08.861498 47127 net.cpp:155] Setting up bn36
I1231 07:23:08.861515 47127 net.cpp:163] Top shape: 32 128 28 28 (3211264)
I1231 07:23:08.861531 47127 layer_factory.hpp:76] Creating layer relu36
I1231 07:23:08.861546 47127 net.cpp:110] Creating Layer relu36
I1231 07:23:08.861557 47127 net.cpp:477] relu36 <- bn36
I1231 07:23:08.861569 47127 net.cpp:419] relu36 -> bn36 (in-place)
I1231 07:23:08.861752 47127 net.cpp:155] Setting up relu36
I1231 07:23:08.861773 47127 net.cpp:163] Top shape: 32 128 28 28 (3211264)
I1231 07:23:08.861783 47127 layer_factory.hpp:76] Creating layer eltwise6
I1231 07:23:08.861798 47127 net.cpp:110] Creating Layer eltwise6
I1231 07:23:08.861809 47127 net.cpp:477] eltwise6 <- eltwise5_relu5_0_split_1
I1231 07:23:08.861820 47127 net.cpp:477] eltwise6 <- bn36
I1231 07:23:08.861834 47127 net.cpp:433] eltwise6 -> eltwise6
I1231 07:23:08.861847 47127 net.cpp:155] Setting up eltwise6
I1231 07:23:08.861860 47127 net.cpp:163] Top shape: 32 128 28 28 (3211264)
I1231 07:23:08.861871 47127 layer_factory.hpp:76] Creating layer relu6
I1231 07:23:08.861883 47127 net.cpp:110] Creating Layer relu6
I1231 07:23:08.861893 47127 net.cpp:477] relu6 <- eltwise6
I1231 07:23:08.861907 47127 net.cpp:419] relu6 -> eltwise6 (in-place)
I1231 07:23:08.861976 47127 net.cpp:155] Setting up relu6
I1231 07:23:08.862004 47127 net.cpp:163] Top shape: 32 128 28 28 (3211264)
I1231 07:23:08.862015 47127 layer_factory.hpp:76] Creating layer eltwise6_relu6_0_split
I1231 07:23:08.862030 47127 net.cpp:110] Creating Layer eltwise6_relu6_0_split
I1231 07:23:08.862047 47127 net.cpp:477] eltwise6_relu6_0_split <- eltwise6
I1231 07:23:08.862061 47127 net.cpp:433] eltwise6_relu6_0_split -> eltwise6_relu6_0_split_0
I1231 07:23:08.862076 47127 net.cpp:433] eltwise6_relu6_0_split -> eltwise6_relu6_0_split_1
I1231 07:23:08.862092 47127 net.cpp:155] Setting up eltwise6_relu6_0_split
I1231 07:23:08.862104 47127 net.cpp:163] Top shape: 32 128 28 28 (3211264)
I1231 07:23:08.862117 47127 net.cpp:163] Top shape: 32 128 28 28 (3211264)
I1231 07:23:08.862126 47127 layer_factory.hpp:76] Creating layer conv37
I1231 07:23:08.862143 47127 net.cpp:110] Creating Layer conv37
I1231 07:23:08.862154 47127 net.cpp:477] conv37 <- eltwise6_relu6_0_split_0
I1231 07:23:08.862169 47127 net.cpp:433] conv37 -> conv37
I1231 07:23:08.864282 47127 net.cpp:155] Setting up conv37
I1231 07:23:08.864306 47127 net.cpp:163] Top shape: 32 128 28 28 (3211264)
I1231 07:23:08.864321 47127 layer_factory.hpp:76] Creating layer bn37
I1231 07:23:08.864339 47127 net.cpp:110] Creating Layer bn37
I1231 07:23:08.864363 47127 net.cpp:477] bn37 <- conv37
I1231 07:23:08.864382 47127 net.cpp:433] bn37 -> bn37
I1231 07:23:08.864506 47127 net.cpp:155] Setting up bn37
I1231 07:23:08.864523 47127 net.cpp:163] Top shape: 32 128 28 28 (3211264)
I1231 07:23:08.864539 47127 layer_factory.hpp:76] Creating layer relu37
I1231 07:23:08.864554 47127 net.cpp:110] Creating Layer relu37
I1231 07:23:08.864564 47127 net.cpp:477] relu37 <- bn37
I1231 07:23:08.864578 47127 net.cpp:419] relu37 -> bn37 (in-place)
I1231 07:23:08.864653 47127 net.cpp:155] Setting up relu37
I1231 07:23:08.864670 47127 net.cpp:163] Top shape: 32 128 28 28 (3211264)
I1231 07:23:08.864680 47127 layer_factory.hpp:76] Creating layer conv38
I1231 07:23:08.864701 47127 net.cpp:110] Creating Layer conv38
I1231 07:23:08.864712 47127 net.cpp:477] conv38 <- bn37
I1231 07:23:08.864727 47127 net.cpp:433] conv38 -> conv38
I1231 07:23:08.866863 47127 net.cpp:155] Setting up conv38
I1231 07:23:08.866894 47127 net.cpp:163] Top shape: 32 128 28 28 (3211264)
I1231 07:23:08.866909 47127 layer_factory.hpp:76] Creating layer bn38
I1231 07:23:08.866926 47127 net.cpp:110] Creating Layer bn38
I1231 07:23:08.866937 47127 net.cpp:477] bn38 <- conv38
I1231 07:23:08.866951 47127 net.cpp:433] bn38 -> bn38
I1231 07:23:08.867054 47127 net.cpp:155] Setting up bn38
I1231 07:23:08.867070 47127 net.cpp:163] Top shape: 32 128 28 28 (3211264)
I1231 07:23:08.867086 47127 layer_factory.hpp:76] Creating layer relu38
I1231 07:23:08.867100 47127 net.cpp:110] Creating Layer relu38
I1231 07:23:08.867110 47127 net.cpp:477] relu38 <- bn38
I1231 07:23:08.867123 47127 net.cpp:419] relu38 -> bn38 (in-place)
I1231 07:23:08.867199 47127 net.cpp:155] Setting up relu38
I1231 07:23:08.867213 47127 net.cpp:163] Top shape: 32 128 28 28 (3211264)
I1231 07:23:08.867224 47127 layer_factory.hpp:76] Creating layer eltwise7
I1231 07:23:08.867238 47127 net.cpp:110] Creating Layer eltwise7
I1231 07:23:08.867247 47127 net.cpp:477] eltwise7 <- eltwise6_relu6_0_split_1
I1231 07:23:08.867259 47127 net.cpp:477] eltwise7 <- bn38
I1231 07:23:08.867271 47127 net.cpp:433] eltwise7 -> eltwise7
I1231 07:23:08.867285 47127 net.cpp:155] Setting up eltwise7
I1231 07:23:08.867311 47127 net.cpp:163] Top shape: 32 128 28 28 (3211264)
I1231 07:23:08.867321 47127 layer_factory.hpp:76] Creating layer relu7
I1231 07:23:08.867334 47127 net.cpp:110] Creating Layer relu7
I1231 07:23:08.867344 47127 net.cpp:477] relu7 <- eltwise7
I1231 07:23:08.867357 47127 net.cpp:419] relu7 -> eltwise7 (in-place)
I1231 07:23:08.867550 47127 net.cpp:155] Setting up relu7
I1231 07:23:08.867569 47127 net.cpp:163] Top shape: 32 128 28 28 (3211264)
I1231 07:23:08.867581 47127 layer_factory.hpp:76] Creating layer eltwise7_relu7_0_split
I1231 07:23:08.867594 47127 net.cpp:110] Creating Layer eltwise7_relu7_0_split
I1231 07:23:08.867617 47127 net.cpp:477] eltwise7_relu7_0_split <- eltwise7
I1231 07:23:08.867631 47127 net.cpp:433] eltwise7_relu7_0_split -> eltwise7_relu7_0_split_0
I1231 07:23:08.867646 47127 net.cpp:433] eltwise7_relu7_0_split -> eltwise7_relu7_0_split_1
I1231 07:23:08.867661 47127 net.cpp:155] Setting up eltwise7_relu7_0_split
I1231 07:23:08.867672 47127 net.cpp:163] Top shape: 32 128 28 28 (3211264)
I1231 07:23:08.867683 47127 net.cpp:163] Top shape: 32 128 28 28 (3211264)
I1231 07:23:08.867692 47127 layer_factory.hpp:76] Creating layer relu7_p
I1231 07:23:08.867708 47127 net.cpp:110] Creating Layer relu7_p
I1231 07:23:08.867719 47127 net.cpp:477] relu7_p <- eltwise7_relu7_0_split_0
I1231 07:23:08.867733 47127 net.cpp:433] relu7_p -> relu7_p
I1231 07:23:08.868341 47127 net.cpp:155] Setting up relu7_p
I1231 07:23:08.868373 47127 net.cpp:163] Top shape: 32 256 14 14 (1605632)
I1231 07:23:08.868388 47127 layer_factory.hpp:76] Creating layer conv41
I1231 07:23:08.868405 47127 net.cpp:110] Creating Layer conv41
I1231 07:23:08.868417 47127 net.cpp:477] conv41 <- eltwise7_relu7_0_split_1
I1231 07:23:08.868432 47127 net.cpp:433] conv41 -> conv41
I1231 07:23:08.871613 47127 net.cpp:155] Setting up conv41
I1231 07:23:08.871634 47127 net.cpp:163] Top shape: 32 256 14 14 (1605632)
I1231 07:23:08.871662 47127 layer_factory.hpp:76] Creating layer bn41
I1231 07:23:08.871680 47127 net.cpp:110] Creating Layer bn41
I1231 07:23:08.871691 47127 net.cpp:477] bn41 <- conv41
I1231 07:23:08.871716 47127 net.cpp:433] bn41 -> bn41
I1231 07:23:08.871825 47127 net.cpp:155] Setting up bn41
I1231 07:23:08.871855 47127 net.cpp:163] Top shape: 32 256 14 14 (1605632)
I1231 07:23:08.871870 47127 layer_factory.hpp:76] Creating layer relu41
I1231 07:23:08.871884 47127 net.cpp:110] Creating Layer relu41
I1231 07:23:08.871896 47127 net.cpp:477] relu41 <- bn41
I1231 07:23:08.871908 47127 net.cpp:419] relu41 -> bn41 (in-place)
I1231 07:23:08.871984 47127 net.cpp:155] Setting up relu41
I1231 07:23:08.871999 47127 net.cpp:163] Top shape: 32 256 14 14 (1605632)
I1231 07:23:08.872009 47127 layer_factory.hpp:76] Creating layer conv42
I1231 07:23:08.872025 47127 net.cpp:110] Creating Layer conv42
I1231 07:23:08.872035 47127 net.cpp:477] conv42 <- bn41
I1231 07:23:08.872048 47127 net.cpp:433] conv42 -> conv42
I1231 07:23:08.878731 47127 net.cpp:155] Setting up conv42
I1231 07:23:08.878754 47127 net.cpp:163] Top shape: 32 256 14 14 (1605632)
I1231 07:23:08.878769 47127 layer_factory.hpp:76] Creating layer bn42
I1231 07:23:08.878787 47127 net.cpp:110] Creating Layer bn42
I1231 07:23:08.878798 47127 net.cpp:477] bn42 <- conv42
I1231 07:23:08.878811 47127 net.cpp:433] bn42 -> bn42
I1231 07:23:08.878918 47127 net.cpp:155] Setting up bn42
I1231 07:23:08.878934 47127 net.cpp:163] Top shape: 32 256 14 14 (1605632)
I1231 07:23:08.878949 47127 layer_factory.hpp:76] Creating layer relu42
I1231 07:23:08.878978 47127 net.cpp:110] Creating Layer relu42
I1231 07:23:08.878988 47127 net.cpp:477] relu42 <- bn42
I1231 07:23:08.879001 47127 net.cpp:419] relu42 -> bn42 (in-place)
I1231 07:23:08.879081 47127 net.cpp:155] Setting up relu42
I1231 07:23:08.879096 47127 net.cpp:163] Top shape: 32 256 14 14 (1605632)
I1231 07:23:08.879107 47127 layer_factory.hpp:76] Creating layer eltwise8
I1231 07:23:08.879122 47127 net.cpp:110] Creating Layer eltwise8
I1231 07:23:08.879132 47127 net.cpp:477] eltwise8 <- relu7_p
I1231 07:23:08.879145 47127 net.cpp:477] eltwise8 <- bn42
I1231 07:23:08.879158 47127 net.cpp:433] eltwise8 -> eltwise8
I1231 07:23:08.879173 47127 net.cpp:155] Setting up eltwise8
I1231 07:23:08.879185 47127 net.cpp:163] Top shape: 32 256 14 14 (1605632)
I1231 07:23:08.879196 47127 layer_factory.hpp:76] Creating layer relu8
I1231 07:23:08.879209 47127 net.cpp:110] Creating Layer relu8
I1231 07:23:08.879220 47127 net.cpp:477] relu8 <- eltwise8
I1231 07:23:08.879233 47127 net.cpp:419] relu8 -> eltwise8 (in-place)
I1231 07:23:08.879318 47127 net.cpp:155] Setting up relu8
I1231 07:23:08.879333 47127 net.cpp:163] Top shape: 32 256 14 14 (1605632)
I1231 07:23:08.879344 47127 layer_factory.hpp:76] Creating layer eltwise8_relu8_0_split
I1231 07:23:08.879356 47127 net.cpp:110] Creating Layer eltwise8_relu8_0_split
I1231 07:23:08.879366 47127 net.cpp:477] eltwise8_relu8_0_split <- eltwise8
I1231 07:23:08.879380 47127 net.cpp:433] eltwise8_relu8_0_split -> eltwise8_relu8_0_split_0
I1231 07:23:08.879393 47127 net.cpp:433] eltwise8_relu8_0_split -> eltwise8_relu8_0_split_1
I1231 07:23:08.879417 47127 net.cpp:155] Setting up eltwise8_relu8_0_split
I1231 07:23:08.879429 47127 net.cpp:163] Top shape: 32 256 14 14 (1605632)
I1231 07:23:08.879441 47127 net.cpp:163] Top shape: 32 256 14 14 (1605632)
I1231 07:23:08.889963 47127 layer_factory.hpp:76] Creating layer conv43
I1231 07:23:08.889983 47127 net.cpp:110] Creating Layer conv43
I1231 07:23:08.889994 47127 net.cpp:477] conv43 <- eltwise8_relu8_0_split_0
I1231 07:23:08.890018 47127 net.cpp:433] conv43 -> conv43
I1231 07:23:08.896720 47127 net.cpp:155] Setting up conv43
I1231 07:23:08.896761 47127 net.cpp:163] Top shape: 32 256 14 14 (1605632)
I1231 07:23:08.896802 47127 layer_factory.hpp:76] Creating layer bn43
I1231 07:23:08.896821 47127 net.cpp:110] Creating Layer bn43
I1231 07:23:08.896833 47127 net.cpp:477] bn43 <- conv43
I1231 07:23:08.896857 47127 net.cpp:433] bn43 -> bn43
I1231 07:23:08.897002 47127 net.cpp:155] Setting up bn43
I1231 07:23:08.897032 47127 net.cpp:163] Top shape: 32 256 14 14 (1605632)
I1231 07:23:08.897049 47127 layer_factory.hpp:76] Creating layer relu43
I1231 07:23:08.897064 47127 net.cpp:110] Creating Layer relu43
I1231 07:23:08.897078 47127 net.cpp:477] relu43 <- bn43
I1231 07:23:08.897090 47127 net.cpp:419] relu43 -> bn43 (in-place)
I1231 07:23:08.897289 47127 net.cpp:155] Setting up relu43
I1231 07:23:08.897330 47127 net.cpp:163] Top shape: 32 256 14 14 (1605632)
I1231 07:23:08.897351 47127 layer_factory.hpp:76] Creating layer conv44
I1231 07:23:08.897367 47127 net.cpp:110] Creating Layer conv44
I1231 07:23:08.897379 47127 net.cpp:477] conv44 <- bn43
I1231 07:23:08.897398 47127 net.cpp:433] conv44 -> conv44
I1231 07:23:08.904126 47127 net.cpp:155] Setting up conv44
I1231 07:23:08.904166 47127 net.cpp:163] Top shape: 32 256 14 14 (1605632)
I1231 07:23:08.904182 47127 layer_factory.hpp:76] Creating layer bn44
I1231 07:23:08.904198 47127 net.cpp:110] Creating Layer bn44
I1231 07:23:08.904211 47127 net.cpp:477] bn44 <- conv44
I1231 07:23:08.904240 47127 net.cpp:433] bn44 -> bn44
I1231 07:23:08.904357 47127 net.cpp:155] Setting up bn44
I1231 07:23:08.904381 47127 net.cpp:163] Top shape: 32 256 14 14 (1605632)
I1231 07:23:08.904399 47127 layer_factory.hpp:76] Creating layer relu44
I1231 07:23:08.904413 47127 net.cpp:110] Creating Layer relu44
I1231 07:23:08.904427 47127 net.cpp:477] relu44 <- bn44
I1231 07:23:08.904439 47127 net.cpp:419] relu44 -> bn44 (in-place)
I1231 07:23:08.904522 47127 net.cpp:155] Setting up relu44
I1231 07:23:08.904541 47127 net.cpp:163] Top shape: 32 256 14 14 (1605632)
I1231 07:23:08.904553 47127 layer_factory.hpp:76] Creating layer eltwise9
I1231 07:23:08.904569 47127 net.cpp:110] Creating Layer eltwise9
I1231 07:23:08.904582 47127 net.cpp:477] eltwise9 <- eltwise8_relu8_0_split_1
I1231 07:23:08.904597 47127 net.cpp:477] eltwise9 <- bn44
I1231 07:23:08.904613 47127 net.cpp:433] eltwise9 -> eltwise9
I1231 07:23:08.904630 47127 net.cpp:155] Setting up eltwise9
I1231 07:23:08.904646 47127 net.cpp:163] Top shape: 32 256 14 14 (1605632)
I1231 07:23:08.904659 47127 layer_factory.hpp:76] Creating layer relu9
I1231 07:23:08.904672 47127 net.cpp:110] Creating Layer relu9
I1231 07:23:08.904685 47127 net.cpp:477] relu9 <- eltwise9
I1231 07:23:08.904700 47127 net.cpp:419] relu9 -> eltwise9 (in-place)
I1231 07:23:08.904777 47127 net.cpp:155] Setting up relu9
I1231 07:23:08.904794 47127 net.cpp:163] Top shape: 32 256 14 14 (1605632)
I1231 07:23:08.904808 47127 layer_factory.hpp:76] Creating layer eltwise9_relu9_0_split
I1231 07:23:08.904824 47127 net.cpp:110] Creating Layer eltwise9_relu9_0_split
I1231 07:23:08.904836 47127 net.cpp:477] eltwise9_relu9_0_split <- eltwise9
I1231 07:23:08.904851 47127 net.cpp:433] eltwise9_relu9_0_split -> eltwise9_relu9_0_split_0
I1231 07:23:08.904870 47127 net.cpp:433] eltwise9_relu9_0_split -> eltwise9_relu9_0_split_1
I1231 07:23:08.904887 47127 net.cpp:155] Setting up eltwise9_relu9_0_split
I1231 07:23:08.904902 47127 net.cpp:163] Top shape: 32 256 14 14 (1605632)
I1231 07:23:08.904916 47127 net.cpp:163] Top shape: 32 256 14 14 (1605632)
I1231 07:23:08.904927 47127 layer_factory.hpp:76] Creating layer conv45
I1231 07:23:08.904943 47127 net.cpp:110] Creating Layer conv45
I1231 07:23:08.904956 47127 net.cpp:477] conv45 <- eltwise9_relu9_0_split_0
I1231 07:23:08.904973 47127 net.cpp:433] conv45 -> conv45
I1231 07:23:08.911536 47127 net.cpp:155] Setting up conv45
I1231 07:23:08.911562 47127 net.cpp:163] Top shape: 32 256 14 14 (1605632)
I1231 07:23:08.911586 47127 layer_factory.hpp:76] Creating layer bn45
I1231 07:23:08.911613 47127 net.cpp:110] Creating Layer bn45
I1231 07:23:08.911633 47127 net.cpp:477] bn45 <- conv45
I1231 07:23:08.911655 47127 net.cpp:433] bn45 -> bn45
I1231 07:23:08.911772 47127 net.cpp:155] Setting up bn45
I1231 07:23:08.911795 47127 net.cpp:163] Top shape: 32 256 14 14 (1605632)
I1231 07:23:08.911813 47127 layer_factory.hpp:76] Creating layer relu45
I1231 07:23:08.911829 47127 net.cpp:110] Creating Layer relu45
I1231 07:23:08.911855 47127 net.cpp:477] relu45 <- bn45
I1231 07:23:08.911870 47127 net.cpp:419] relu45 -> bn45 (in-place)
I1231 07:23:08.911955 47127 net.cpp:155] Setting up relu45
I1231 07:23:08.911974 47127 net.cpp:163] Top shape: 32 256 14 14 (1605632)
I1231 07:23:08.911986 47127 layer_factory.hpp:76] Creating layer conv46
I1231 07:23:08.912003 47127 net.cpp:110] Creating Layer conv46
I1231 07:23:08.912014 47127 net.cpp:477] conv46 <- bn45
I1231 07:23:08.912032 47127 net.cpp:433] conv46 -> conv46
I1231 07:23:08.918668 47127 net.cpp:155] Setting up conv46
I1231 07:23:08.918694 47127 net.cpp:163] Top shape: 32 256 14 14 (1605632)
I1231 07:23:08.918709 47127 layer_factory.hpp:76] Creating layer bn46
I1231 07:23:08.918725 47127 net.cpp:110] Creating Layer bn46
I1231 07:23:08.918736 47127 net.cpp:477] bn46 <- conv46
I1231 07:23:08.918753 47127 net.cpp:433] bn46 -> bn46
I1231 07:23:08.918870 47127 net.cpp:155] Setting up bn46
I1231 07:23:08.918887 47127 net.cpp:163] Top shape: 32 256 14 14 (1605632)
I1231 07:23:08.918938 47127 layer_factory.hpp:76] Creating layer relu46
I1231 07:23:08.918954 47127 net.cpp:110] Creating Layer relu46
I1231 07:23:08.918965 47127 net.cpp:477] relu46 <- bn46
I1231 07:23:08.918982 47127 net.cpp:419] relu46 -> bn46 (in-place)
I1231 07:23:08.919170 47127 net.cpp:155] Setting up relu46
I1231 07:23:08.919193 47127 net.cpp:163] Top shape: 32 256 14 14 (1605632)
I1231 07:23:08.919204 47127 layer_factory.hpp:76] Creating layer eltwise10
I1231 07:23:08.919239 47127 net.cpp:110] Creating Layer eltwise10
I1231 07:23:08.919251 47127 net.cpp:477] eltwise10 <- eltwise9_relu9_0_split_1
I1231 07:23:08.919270 47127 net.cpp:477] eltwise10 <- bn46
I1231 07:23:08.919293 47127 net.cpp:433] eltwise10 -> eltwise10
I1231 07:23:08.919311 47127 net.cpp:155] Setting up eltwise10
I1231 07:23:08.919324 47127 net.cpp:163] Top shape: 32 256 14 14 (1605632)
I1231 07:23:08.919337 47127 layer_factory.hpp:76] Creating layer relu10
I1231 07:23:08.919353 47127 net.cpp:110] Creating Layer relu10
I1231 07:23:08.919365 47127 net.cpp:477] relu10 <- eltwise10
I1231 07:23:08.919380 47127 net.cpp:419] relu10 -> eltwise10 (in-place)
I1231 07:23:08.919457 47127 net.cpp:155] Setting up relu10
I1231 07:23:08.919476 47127 net.cpp:163] Top shape: 32 256 14 14 (1605632)
I1231 07:23:08.919487 47127 layer_factory.hpp:76] Creating layer eltwise10_relu10_0_split
I1231 07:23:08.919504 47127 net.cpp:110] Creating Layer eltwise10_relu10_0_split
I1231 07:23:08.919517 47127 net.cpp:477] eltwise10_relu10_0_split <- eltwise10
I1231 07:23:08.919531 47127 net.cpp:433] eltwise10_relu10_0_split -> eltwise10_relu10_0_split_0
I1231 07:23:08.919548 47127 net.cpp:433] eltwise10_relu10_0_split -> eltwise10_relu10_0_split_1
I1231 07:23:08.919564 47127 net.cpp:155] Setting up eltwise10_relu10_0_split
I1231 07:23:08.919577 47127 net.cpp:163] Top shape: 32 256 14 14 (1605632)
I1231 07:23:08.919590 47127 net.cpp:163] Top shape: 32 256 14 14 (1605632)
I1231 07:23:08.919602 47127 layer_factory.hpp:76] Creating layer conv47
I1231 07:23:08.919618 47127 net.cpp:110] Creating Layer conv47
I1231 07:23:08.919630 47127 net.cpp:477] conv47 <- eltwise10_relu10_0_split_0
I1231 07:23:08.919647 47127 net.cpp:433] conv47 -> conv47
I1231 07:23:08.926317 47127 net.cpp:155] Setting up conv47
I1231 07:23:08.926358 47127 net.cpp:163] Top shape: 32 256 14 14 (1605632)
I1231 07:23:08.926386 47127 layer_factory.hpp:76] Creating layer bn47
I1231 07:23:08.926403 47127 net.cpp:110] Creating Layer bn47
I1231 07:23:08.926420 47127 net.cpp:477] bn47 <- conv47
I1231 07:23:08.926443 47127 net.cpp:433] bn47 -> bn47
I1231 07:23:08.926569 47127 net.cpp:155] Setting up bn47
I1231 07:23:08.926589 47127 net.cpp:163] Top shape: 32 256 14 14 (1605632)
I1231 07:23:08.926606 47127 layer_factory.hpp:76] Creating layer relu47
I1231 07:23:08.926622 47127 net.cpp:110] Creating Layer relu47
I1231 07:23:08.926635 47127 net.cpp:477] relu47 <- bn47
I1231 07:23:08.926648 47127 net.cpp:419] relu47 -> bn47 (in-place)
I1231 07:23:08.926733 47127 net.cpp:155] Setting up relu47
I1231 07:23:08.926751 47127 net.cpp:163] Top shape: 32 256 14 14 (1605632)
I1231 07:23:08.926779 47127 layer_factory.hpp:76] Creating layer conv48
I1231 07:23:08.926796 47127 net.cpp:110] Creating Layer conv48
I1231 07:23:08.926810 47127 net.cpp:477] conv48 <- bn47
I1231 07:23:08.926827 47127 net.cpp:433] conv48 -> conv48
I1231 07:23:08.933413 47127 net.cpp:155] Setting up conv48
I1231 07:23:08.933436 47127 net.cpp:163] Top shape: 32 256 14 14 (1605632)
I1231 07:23:08.933451 47127 layer_factory.hpp:76] Creating layer bn48
I1231 07:23:08.933467 47127 net.cpp:110] Creating Layer bn48
I1231 07:23:08.933478 47127 net.cpp:477] bn48 <- conv48
I1231 07:23:08.933495 47127 net.cpp:433] bn48 -> bn48
I1231 07:23:08.933616 47127 net.cpp:155] Setting up bn48
I1231 07:23:08.933634 47127 net.cpp:163] Top shape: 32 256 14 14 (1605632)
I1231 07:23:08.933650 47127 layer_factory.hpp:76] Creating layer relu48
I1231 07:23:08.933662 47127 net.cpp:110] Creating Layer relu48
I1231 07:23:08.933673 47127 net.cpp:477] relu48 <- bn48
I1231 07:23:08.933688 47127 net.cpp:419] relu48 -> bn48 (in-place)
I1231 07:23:08.933898 47127 net.cpp:155] Setting up relu48
I1231 07:23:08.933917 47127 net.cpp:163] Top shape: 32 256 14 14 (1605632)
I1231 07:23:08.933928 47127 layer_factory.hpp:76] Creating layer eltwise11
I1231 07:23:08.933943 47127 net.cpp:110] Creating Layer eltwise11
I1231 07:23:08.933953 47127 net.cpp:477] eltwise11 <- eltwise10_relu10_0_split_1
I1231 07:23:08.933966 47127 net.cpp:477] eltwise11 <- bn48
I1231 07:23:08.933979 47127 net.cpp:433] eltwise11 -> eltwise11
I1231 07:23:08.933995 47127 net.cpp:155] Setting up eltwise11
I1231 07:23:08.934007 47127 net.cpp:163] Top shape: 32 256 14 14 (1605632)
I1231 07:23:08.934017 47127 layer_factory.hpp:76] Creating layer relu11
I1231 07:23:08.934029 47127 net.cpp:110] Creating Layer relu11
I1231 07:23:08.934047 47127 net.cpp:477] relu11 <- eltwise11
I1231 07:23:08.934058 47127 net.cpp:419] relu11 -> eltwise11 (in-place)
I1231 07:23:08.934131 47127 net.cpp:155] Setting up relu11
I1231 07:23:08.934147 47127 net.cpp:163] Top shape: 32 256 14 14 (1605632)
I1231 07:23:08.934159 47127 layer_factory.hpp:76] Creating layer eltwise11_relu11_0_split
I1231 07:23:08.934170 47127 net.cpp:110] Creating Layer eltwise11_relu11_0_split
I1231 07:23:08.934180 47127 net.cpp:477] eltwise11_relu11_0_split <- eltwise11
I1231 07:23:08.934192 47127 net.cpp:433] eltwise11_relu11_0_split -> eltwise11_relu11_0_split_0
I1231 07:23:08.934206 47127 net.cpp:433] eltwise11_relu11_0_split -> eltwise11_relu11_0_split_1
I1231 07:23:08.934221 47127 net.cpp:155] Setting up eltwise11_relu11_0_split
I1231 07:23:08.934232 47127 net.cpp:163] Top shape: 32 256 14 14 (1605632)
I1231 07:23:08.934257 47127 net.cpp:163] Top shape: 32 256 14 14 (1605632)
I1231 07:23:08.934267 47127 layer_factory.hpp:76] Creating layer conv49
I1231 07:23:08.934293 47127 net.cpp:110] Creating Layer conv49
I1231 07:23:08.934304 47127 net.cpp:477] conv49 <- eltwise11_relu11_0_split_0
I1231 07:23:08.934324 47127 net.cpp:433] conv49 -> conv49
I1231 07:23:08.940956 47127 net.cpp:155] Setting up conv49
I1231 07:23:08.940979 47127 net.cpp:163] Top shape: 32 256 14 14 (1605632)
I1231 07:23:08.940992 47127 layer_factory.hpp:76] Creating layer bn49
I1231 07:23:08.941010 47127 net.cpp:110] Creating Layer bn49
I1231 07:23:08.941022 47127 net.cpp:477] bn49 <- conv49
I1231 07:23:08.941037 47127 net.cpp:433] bn49 -> bn49
I1231 07:23:08.941155 47127 net.cpp:155] Setting up bn49
I1231 07:23:08.941172 47127 net.cpp:163] Top shape: 32 256 14 14 (1605632)
I1231 07:23:08.941189 47127 layer_factory.hpp:76] Creating layer relu49
I1231 07:23:08.941205 47127 net.cpp:110] Creating Layer relu49
I1231 07:23:08.941215 47127 net.cpp:477] relu49 <- bn49
I1231 07:23:08.941227 47127 net.cpp:419] relu49 -> bn49 (in-place)
I1231 07:23:08.941321 47127 net.cpp:155] Setting up relu49
I1231 07:23:08.941344 47127 net.cpp:163] Top shape: 32 256 14 14 (1605632)
I1231 07:23:08.941355 47127 layer_factory.hpp:76] Creating layer conv410
I1231 07:23:08.941372 47127 net.cpp:110] Creating Layer conv410
I1231 07:23:08.941383 47127 net.cpp:477] conv410 <- bn49
I1231 07:23:08.941411 47127 net.cpp:433] conv410 -> conv410
I1231 07:23:08.947983 47127 net.cpp:155] Setting up conv410
I1231 07:23:08.948005 47127 net.cpp:163] Top shape: 32 256 14 14 (1605632)
I1231 07:23:08.948020 47127 layer_factory.hpp:76] Creating layer bn410
I1231 07:23:08.948050 47127 net.cpp:110] Creating Layer bn410
I1231 07:23:08.948061 47127 net.cpp:477] bn410 <- conv410
I1231 07:23:08.948078 47127 net.cpp:433] bn410 -> bn410
I1231 07:23:08.948199 47127 net.cpp:155] Setting up bn410
I1231 07:23:08.948217 47127 net.cpp:163] Top shape: 32 256 14 14 (1605632)
I1231 07:23:08.948232 47127 layer_factory.hpp:76] Creating layer relu410
I1231 07:23:08.948246 47127 net.cpp:110] Creating Layer relu410
I1231 07:23:08.948256 47127 net.cpp:477] relu410 <- bn410
I1231 07:23:08.948271 47127 net.cpp:419] relu410 -> bn410 (in-place)
I1231 07:23:08.948369 47127 net.cpp:155] Setting up relu410
I1231 07:23:08.948385 47127 net.cpp:163] Top shape: 32 256 14 14 (1605632)
I1231 07:23:08.948395 47127 layer_factory.hpp:76] Creating layer eltwise12
I1231 07:23:08.948408 47127 net.cpp:110] Creating Layer eltwise12
I1231 07:23:08.948420 47127 net.cpp:477] eltwise12 <- eltwise11_relu11_0_split_1
I1231 07:23:08.948431 47127 net.cpp:477] eltwise12 <- bn410
I1231 07:23:08.948446 47127 net.cpp:433] eltwise12 -> eltwise12
I1231 07:23:08.948462 47127 net.cpp:155] Setting up eltwise12
I1231 07:23:08.948473 47127 net.cpp:163] Top shape: 32 256 14 14 (1605632)
I1231 07:23:08.948484 47127 layer_factory.hpp:76] Creating layer relu12
I1231 07:23:08.948496 47127 net.cpp:110] Creating Layer relu12
I1231 07:23:08.948506 47127 net.cpp:477] relu12 <- eltwise12
I1231 07:23:08.948518 47127 net.cpp:419] relu12 -> eltwise12 (in-place)
I1231 07:23:08.948704 47127 net.cpp:155] Setting up relu12
I1231 07:23:08.948722 47127 net.cpp:163] Top shape: 32 256 14 14 (1605632)
I1231 07:23:08.948734 47127 layer_factory.hpp:76] Creating layer eltwise12_relu12_0_split
I1231 07:23:08.948746 47127 net.cpp:110] Creating Layer eltwise12_relu12_0_split
I1231 07:23:08.948757 47127 net.cpp:477] eltwise12_relu12_0_split <- eltwise12
I1231 07:23:08.948770 47127 net.cpp:433] eltwise12_relu12_0_split -> eltwise12_relu12_0_split_0
I1231 07:23:08.948784 47127 net.cpp:433] eltwise12_relu12_0_split -> eltwise12_relu12_0_split_1
I1231 07:23:08.948798 47127 net.cpp:433] eltwise12_relu12_0_split -> eltwise12_relu12_0_split_2
I1231 07:23:08.948812 47127 net.cpp:155] Setting up eltwise12_relu12_0_split
I1231 07:23:08.948824 47127 net.cpp:163] Top shape: 32 256 14 14 (1605632)
I1231 07:23:08.948835 47127 net.cpp:163] Top shape: 32 256 14 14 (1605632)
I1231 07:23:08.948846 47127 net.cpp:163] Top shape: 32 256 14 14 (1605632)
I1231 07:23:08.948856 47127 layer_factory.hpp:76] Creating layer conv411
I1231 07:23:08.948873 47127 net.cpp:110] Creating Layer conv411
I1231 07:23:08.948884 47127 net.cpp:477] conv411 <- eltwise12_relu12_0_split_0
I1231 07:23:08.948899 47127 net.cpp:433] conv411 -> conv411
I1231 07:23:08.955514 47127 net.cpp:155] Setting up conv411
I1231 07:23:08.955538 47127 net.cpp:163] Top shape: 32 256 14 14 (1605632)
I1231 07:23:08.955554 47127 layer_factory.hpp:76] Creating layer bn411
I1231 07:23:08.955591 47127 net.cpp:110] Creating Layer bn411
I1231 07:23:08.955610 47127 net.cpp:477] bn411 <- conv411
I1231 07:23:08.955631 47127 net.cpp:433] bn411 -> bn411
I1231 07:23:08.955749 47127 net.cpp:155] Setting up bn411
I1231 07:23:08.955775 47127 net.cpp:163] Top shape: 32 256 14 14 (1605632)
I1231 07:23:08.955791 47127 layer_factory.hpp:76] Creating layer relu411
I1231 07:23:08.955811 47127 net.cpp:110] Creating Layer relu411
I1231 07:23:08.955824 47127 net.cpp:477] relu411 <- bn411
I1231 07:23:08.955838 47127 net.cpp:419] relu411 -> bn411 (in-place)
I1231 07:23:08.955926 47127 net.cpp:155] Setting up relu411
I1231 07:23:08.955945 47127 net.cpp:163] Top shape: 32 256 14 14 (1605632)
I1231 07:23:08.955958 47127 layer_factory.hpp:76] Creating layer conv412
I1231 07:23:08.955974 47127 net.cpp:110] Creating Layer conv412
I1231 07:23:08.955987 47127 net.cpp:477] conv412 <- bn411
I1231 07:23:08.956018 47127 net.cpp:433] conv412 -> conv412
I1231 07:23:08.962661 47127 net.cpp:155] Setting up conv412
I1231 07:23:08.962684 47127 net.cpp:163] Top shape: 32 256 14 14 (1605632)
I1231 07:23:08.962699 47127 layer_factory.hpp:76] Creating layer bn412
I1231 07:23:08.962719 47127 net.cpp:110] Creating Layer bn412
I1231 07:23:08.962733 47127 net.cpp:477] bn412 <- conv412
I1231 07:23:08.962746 47127 net.cpp:433] bn412 -> bn412
I1231 07:23:08.962869 47127 net.cpp:155] Setting up bn412
I1231 07:23:08.962887 47127 net.cpp:163] Top shape: 32 256 14 14 (1605632)
I1231 07:23:08.962903 47127 layer_factory.hpp:76] Creating layer relu412
I1231 07:23:08.962918 47127 net.cpp:110] Creating Layer relu412
I1231 07:23:08.962927 47127 net.cpp:477] relu412 <- bn412
I1231 07:23:08.962944 47127 net.cpp:419] relu412 -> bn412 (in-place)
I1231 07:23:08.963024 47127 net.cpp:155] Setting up relu412
I1231 07:23:08.963040 47127 net.cpp:163] Top shape: 32 256 14 14 (1605632)
I1231 07:23:08.963052 47127 layer_factory.hpp:76] Creating layer eltwise13
I1231 07:23:08.963065 47127 net.cpp:110] Creating Layer eltwise13
I1231 07:23:08.963076 47127 net.cpp:477] eltwise13 <- eltwise12_relu12_0_split_1
I1231 07:23:08.963088 47127 net.cpp:477] eltwise13 <- bn412
I1231 07:23:08.963100 47127 net.cpp:433] eltwise13 -> eltwise13
I1231 07:23:08.963116 47127 net.cpp:155] Setting up eltwise13
I1231 07:23:08.963129 47127 net.cpp:163] Top shape: 32 256 14 14 (1605632)
I1231 07:23:08.963140 47127 layer_factory.hpp:76] Creating layer relu13
I1231 07:23:08.963152 47127 net.cpp:110] Creating Layer relu13
I1231 07:23:08.963184 47127 net.cpp:477] relu13 <- eltwise13
I1231 07:23:08.963208 47127 net.cpp:419] relu13 -> eltwise13 (in-place)
I1231 07:23:08.963287 47127 net.cpp:155] Setting up relu13
I1231 07:23:08.963311 47127 net.cpp:163] Top shape: 32 256 14 14 (1605632)
I1231 07:23:08.963325 47127 layer_factory.hpp:76] Creating layer relu13_p
I1231 07:23:08.963340 47127 net.cpp:110] Creating Layer relu13_p
I1231 07:23:08.963352 47127 net.cpp:477] relu13_p <- eltwise12_relu12_0_split_2
I1231 07:23:08.963371 47127 net.cpp:433] relu13_p -> relu13_p
I1231 07:23:08.965381 47127 net.cpp:155] Setting up relu13_p
I1231 07:23:08.965412 47127 net.cpp:163] Top shape: 32 512 7 7 (802816)
I1231 07:23:08.965435 47127 layer_factory.hpp:76] Creating layer conv51
I1231 07:23:08.965452 47127 net.cpp:110] Creating Layer conv51
I1231 07:23:08.965469 47127 net.cpp:477] conv51 <- eltwise13
I1231 07:23:08.965492 47127 net.cpp:433] conv51 -> conv51
I1231 07:23:08.978232 47127 net.cpp:155] Setting up conv51
I1231 07:23:08.978271 47127 net.cpp:163] Top shape: 32 512 7 7 (802816)
I1231 07:23:08.978286 47127 layer_factory.hpp:76] Creating layer bn51
I1231 07:23:08.978313 47127 net.cpp:110] Creating Layer bn51
I1231 07:23:08.978325 47127 net.cpp:477] bn51 <- conv51
I1231 07:23:08.978375 47127 net.cpp:433] bn51 -> bn51
I1231 07:23:08.978497 47127 net.cpp:155] Setting up bn51
I1231 07:23:08.978514 47127 net.cpp:163] Top shape: 32 512 7 7 (802816)
I1231 07:23:08.978531 47127 layer_factory.hpp:76] Creating layer relu51
I1231 07:23:08.978545 47127 net.cpp:110] Creating Layer relu51
I1231 07:23:08.978555 47127 net.cpp:477] relu51 <- bn51
I1231 07:23:08.978571 47127 net.cpp:419] relu51 -> bn51 (in-place)
I1231 07:23:08.978780 47127 net.cpp:155] Setting up relu51
I1231 07:23:08.978801 47127 net.cpp:163] Top shape: 32 512 7 7 (802816)
I1231 07:23:08.978826 47127 layer_factory.hpp:76] Creating layer conv52
I1231 07:23:08.978869 47127 net.cpp:110] Creating Layer conv52
I1231 07:23:08.978883 47127 net.cpp:477] conv52 <- bn51
I1231 07:23:08.978904 47127 net.cpp:433] conv52 -> conv52
I1231 07:23:09.003608 47127 net.cpp:155] Setting up conv52
I1231 07:23:09.003664 47127 net.cpp:163] Top shape: 32 512 7 7 (802816)
I1231 07:23:09.003684 47127 layer_factory.hpp:76] Creating layer bn52
I1231 07:23:09.003706 47127 net.cpp:110] Creating Layer bn52
I1231 07:23:09.003739 47127 net.cpp:477] bn52 <- conv52
I1231 07:23:09.003765 47127 net.cpp:433] bn52 -> bn52
I1231 07:23:09.003895 47127 net.cpp:155] Setting up bn52
I1231 07:23:09.003943 47127 net.cpp:163] Top shape: 32 512 7 7 (802816)
I1231 07:23:09.003968 47127 layer_factory.hpp:76] Creating layer relu52
I1231 07:23:09.003985 47127 net.cpp:110] Creating Layer relu52
I1231 07:23:09.003998 47127 net.cpp:477] relu52 <- bn52
I1231 07:23:09.004012 47127 net.cpp:419] relu52 -> bn52 (in-place)
I1231 07:23:09.004101 47127 net.cpp:155] Setting up relu52
I1231 07:23:09.004118 47127 net.cpp:163] Top shape: 32 512 7 7 (802816)
I1231 07:23:09.004130 47127 layer_factory.hpp:76] Creating layer eltwise14
I1231 07:23:09.004150 47127 net.cpp:110] Creating Layer eltwise14
I1231 07:23:09.004164 47127 net.cpp:477] eltwise14 <- relu13_p
I1231 07:23:09.004179 47127 net.cpp:477] eltwise14 <- bn52
I1231 07:23:09.004192 47127 net.cpp:433] eltwise14 -> eltwise14
I1231 07:23:09.004210 47127 net.cpp:155] Setting up eltwise14
I1231 07:23:09.004225 47127 net.cpp:163] Top shape: 32 512 7 7 (802816)
I1231 07:23:09.004237 47127 layer_factory.hpp:76] Creating layer relu14
I1231 07:23:09.004251 47127 net.cpp:110] Creating Layer relu14
I1231 07:23:09.004263 47127 net.cpp:477] relu14 <- eltwise14
I1231 07:23:09.004277 47127 net.cpp:419] relu14 -> eltwise14 (in-place)
I1231 07:23:09.004355 47127 net.cpp:155] Setting up relu14
I1231 07:23:09.004374 47127 net.cpp:163] Top shape: 32 512 7 7 (802816)
I1231 07:23:09.004386 47127 layer_factory.hpp:76] Creating layer eltwise14_relu14_0_split
I1231 07:23:09.004402 47127 net.cpp:110] Creating Layer eltwise14_relu14_0_split
I1231 07:23:09.004415 47127 net.cpp:477] eltwise14_relu14_0_split <- eltwise14
I1231 07:23:09.004429 47127 net.cpp:433] eltwise14_relu14_0_split -> eltwise14_relu14_0_split_0
I1231 07:23:09.004446 47127 net.cpp:433] eltwise14_relu14_0_split -> eltwise14_relu14_0_split_1
I1231 07:23:09.004462 47127 net.cpp:155] Setting up eltwise14_relu14_0_split
I1231 07:23:09.004475 47127 net.cpp:163] Top shape: 32 512 7 7 (802816)
I1231 07:23:09.004489 47127 net.cpp:163] Top shape: 32 512 7 7 (802816)
I1231 07:23:09.004501 47127 layer_factory.hpp:76] Creating layer conv53
I1231 07:23:09.004524 47127 net.cpp:110] Creating Layer conv53
I1231 07:23:09.004537 47127 net.cpp:477] conv53 <- eltwise14_relu14_0_split_0
I1231 07:23:09.004555 47127 net.cpp:433] conv53 -> conv53
I1231 07:23:09.029345 47127 net.cpp:155] Setting up conv53
I1231 07:23:09.029388 47127 net.cpp:163] Top shape: 32 512 7 7 (802816)
I1231 07:23:09.029407 47127 layer_factory.hpp:76] Creating layer bn53
I1231 07:23:09.029431 47127 net.cpp:110] Creating Layer bn53
I1231 07:23:09.029445 47127 net.cpp:477] bn53 <- conv53
I1231 07:23:09.029491 47127 net.cpp:433] bn53 -> bn53
I1231 07:23:09.029621 47127 net.cpp:155] Setting up bn53
I1231 07:23:09.029647 47127 net.cpp:163] Top shape: 32 512 7 7 (802816)
I1231 07:23:09.029671 47127 layer_factory.hpp:76] Creating layer relu53
I1231 07:23:09.029687 47127 net.cpp:110] Creating Layer relu53
I1231 07:23:09.029700 47127 net.cpp:477] relu53 <- bn53
I1231 07:23:09.029717 47127 net.cpp:419] relu53 -> bn53 (in-place)
I1231 07:23:09.029808 47127 net.cpp:155] Setting up relu53
I1231 07:23:09.029825 47127 net.cpp:163] Top shape: 32 512 7 7 (802816)
I1231 07:23:09.029839 47127 layer_factory.hpp:76] Creating layer conv54
I1231 07:23:09.029858 47127 net.cpp:110] Creating Layer conv54
I1231 07:23:09.029872 47127 net.cpp:477] conv54 <- bn53
I1231 07:23:09.029887 47127 net.cpp:433] conv54 -> conv54
I1231 07:23:09.054596 47127 net.cpp:155] Setting up conv54
I1231 07:23:09.054646 47127 net.cpp:163] Top shape: 32 512 7 7 (802816)
I1231 07:23:09.054666 47127 layer_factory.hpp:76] Creating layer bn54
I1231 07:23:09.054710 47127 net.cpp:110] Creating Layer bn54
I1231 07:23:09.054723 47127 net.cpp:477] bn54 <- conv54
I1231 07:23:09.054749 47127 net.cpp:433] bn54 -> bn54
I1231 07:23:09.054893 47127 net.cpp:155] Setting up bn54
I1231 07:23:09.054913 47127 net.cpp:163] Top shape: 32 512 7 7 (802816)
I1231 07:23:09.054931 47127 layer_factory.hpp:76] Creating layer relu54
I1231 07:23:09.054951 47127 net.cpp:110] Creating Layer relu54
I1231 07:23:09.054965 47127 net.cpp:477] relu54 <- bn54
I1231 07:23:09.054980 47127 net.cpp:419] relu54 -> bn54 (in-place)
I1231 07:23:09.055210 47127 net.cpp:155] Setting up relu54
I1231 07:23:09.055230 47127 net.cpp:163] Top shape: 32 512 7 7 (802816)
I1231 07:23:09.055243 47127 layer_factory.hpp:76] Creating layer eltwise15
I1231 07:23:09.055261 47127 net.cpp:110] Creating Layer eltwise15
I1231 07:23:09.055274 47127 net.cpp:477] eltwise15 <- eltwise14_relu14_0_split_1
I1231 07:23:09.055286 47127 net.cpp:477] eltwise15 <- bn54
I1231 07:23:09.055299 47127 net.cpp:433] eltwise15 -> eltwise15
I1231 07:23:09.055317 47127 net.cpp:155] Setting up eltwise15
I1231 07:23:09.055330 47127 net.cpp:163] Top shape: 32 512 7 7 (802816)
I1231 07:23:09.055341 47127 layer_factory.hpp:76] Creating layer relu15
I1231 07:23:09.055353 47127 net.cpp:110] Creating Layer relu15
I1231 07:23:09.055363 47127 net.cpp:477] relu15 <- eltwise15
I1231 07:23:09.055377 47127 net.cpp:419] relu15 -> eltwise15 (in-place)
I1231 07:23:09.055454 47127 net.cpp:155] Setting up relu15
I1231 07:23:09.055469 47127 net.cpp:163] Top shape: 32 512 7 7 (802816)
I1231 07:23:09.055480 47127 layer_factory.hpp:76] Creating layer eltwise15_relu15_0_split
I1231 07:23:09.055493 47127 net.cpp:110] Creating Layer eltwise15_relu15_0_split
I1231 07:23:09.055505 47127 net.cpp:477] eltwise15_relu15_0_split <- eltwise15
I1231 07:23:09.055519 47127 net.cpp:433] eltwise15_relu15_0_split -> eltwise15_relu15_0_split_0
I1231 07:23:09.055534 47127 net.cpp:433] eltwise15_relu15_0_split -> eltwise15_relu15_0_split_1
I1231 07:23:09.055551 47127 net.cpp:155] Setting up eltwise15_relu15_0_split
I1231 07:23:09.055562 47127 net.cpp:163] Top shape: 32 512 7 7 (802816)
I1231 07:23:09.055574 47127 net.cpp:163] Top shape: 32 512 7 7 (802816)
I1231 07:23:09.055584 47127 layer_factory.hpp:76] Creating layer conv55
I1231 07:23:09.055603 47127 net.cpp:110] Creating Layer conv55
I1231 07:23:09.055614 47127 net.cpp:477] conv55 <- eltwise15_relu15_0_split_0
I1231 07:23:09.055627 47127 net.cpp:433] conv55 -> conv55
I1231 07:23:09.080457 47127 net.cpp:155] Setting up conv55
I1231 07:23:09.080508 47127 net.cpp:163] Top shape: 32 512 7 7 (802816)
I1231 07:23:09.080551 47127 layer_factory.hpp:76] Creating layer bn55
I1231 07:23:09.080575 47127 net.cpp:110] Creating Layer bn55
I1231 07:23:09.080590 47127 net.cpp:477] bn55 <- conv55
I1231 07:23:09.080613 47127 net.cpp:433] bn55 -> bn55
I1231 07:23:09.080749 47127 net.cpp:155] Setting up bn55
I1231 07:23:09.080775 47127 net.cpp:163] Top shape: 32 512 7 7 (802816)
I1231 07:23:09.080793 47127 layer_factory.hpp:76] Creating layer relu55
I1231 07:23:09.080808 47127 net.cpp:110] Creating Layer relu55
I1231 07:23:09.080821 47127 net.cpp:477] relu55 <- bn55
I1231 07:23:09.080837 47127 net.cpp:419] relu55 -> bn55 (in-place)
I1231 07:23:09.080924 47127 net.cpp:155] Setting up relu55
I1231 07:23:09.080942 47127 net.cpp:163] Top shape: 32 512 7 7 (802816)
I1231 07:23:09.080955 47127 layer_factory.hpp:76] Creating layer conv56
I1231 07:23:09.080974 47127 net.cpp:110] Creating Layer conv56
I1231 07:23:09.080987 47127 net.cpp:477] conv56 <- bn55
I1231 07:23:09.081002 47127 net.cpp:433] conv56 -> conv56
I1231 07:23:09.105764 47127 net.cpp:155] Setting up conv56
I1231 07:23:09.105813 47127 net.cpp:163] Top shape: 32 512 7 7 (802816)
I1231 07:23:09.105854 47127 layer_factory.hpp:76] Creating layer bn56
I1231 07:23:09.105875 47127 net.cpp:110] Creating Layer bn56
I1231 07:23:09.105888 47127 net.cpp:477] bn56 <- conv56
I1231 07:23:09.105911 47127 net.cpp:433] bn56 -> bn56
I1231 07:23:09.106041 47127 net.cpp:155] Setting up bn56
I1231 07:23:09.106066 47127 net.cpp:163] Top shape: 32 512 7 7 (802816)
I1231 07:23:09.106086 47127 layer_factory.hpp:76] Creating layer relu56
I1231 07:23:09.106101 47127 net.cpp:110] Creating Layer relu56
I1231 07:23:09.106113 47127 net.cpp:477] relu56 <- bn56
I1231 07:23:09.106129 47127 net.cpp:419] relu56 -> bn56 (in-place)
I1231 07:23:09.106333 47127 net.cpp:155] Setting up relu56
I1231 07:23:09.106355 47127 net.cpp:163] Top shape: 32 512 7 7 (802816)
I1231 07:23:09.106369 47127 layer_factory.hpp:76] Creating layer eltwise16
I1231 07:23:09.106413 47127 net.cpp:110] Creating Layer eltwise16
I1231 07:23:09.106427 47127 net.cpp:477] eltwise16 <- eltwise15_relu15_0_split_1
I1231 07:23:09.106441 47127 net.cpp:477] eltwise16 <- bn56
I1231 07:23:09.106454 47127 net.cpp:433] eltwise16 -> eltwise16
I1231 07:23:09.106474 47127 net.cpp:155] Setting up eltwise16
I1231 07:23:09.106489 47127 net.cpp:163] Top shape: 32 512 7 7 (802816)
I1231 07:23:09.106501 47127 layer_factory.hpp:76] Creating layer relu16
I1231 07:23:09.106518 47127 net.cpp:110] Creating Layer relu16
I1231 07:23:09.106531 47127 net.cpp:477] relu16 <- eltwise16
I1231 07:23:09.106545 47127 net.cpp:419] relu16 -> eltwise16 (in-place)
I1231 07:23:09.106626 47127 net.cpp:155] Setting up relu16
I1231 07:23:09.106645 47127 net.cpp:163] Top shape: 32 512 7 7 (802816)
I1231 07:23:09.106657 47127 layer_factory.hpp:76] Creating layer pool5
I1231 07:23:09.106678 47127 net.cpp:110] Creating Layer pool5
I1231 07:23:09.106691 47127 net.cpp:477] pool5 <- eltwise16
I1231 07:23:09.106709 47127 net.cpp:433] pool5 -> pool5
I1231 07:23:09.106799 47127 net.cpp:155] Setting up pool5
I1231 07:23:09.106818 47127 net.cpp:163] Top shape: 32 512 1 1 (16384)
I1231 07:23:09.106832 47127 layer_factory.hpp:76] Creating layer ip1
I1231 07:23:09.106853 47127 net.cpp:110] Creating Layer ip1
I1231 07:23:09.106866 47127 net.cpp:477] ip1 <- pool5
I1231 07:23:09.106881 47127 net.cpp:433] ip1 -> ip1
I1231 07:23:09.112417 47127 net.cpp:155] Setting up ip1
I1231 07:23:09.112450 47127 net.cpp:163] Top shape: 32 1000 (32000)
I1231 07:23:09.112471 47127 layer_factory.hpp:76] Creating layer accuracy
I1231 07:23:09.112504 47127 net.cpp:110] Creating Layer accuracy
I1231 07:23:09.112516 47127 net.cpp:477] accuracy <- ip1
I1231 07:23:09.112536 47127 net.cpp:477] accuracy <- label
I1231 07:23:09.112551 47127 net.cpp:433] accuracy -> accuracy
I1231 07:23:09.112573 47127 net.cpp:155] Setting up accuracy
I1231 07:23:09.112587 47127 net.cpp:163] Top shape: (1)
…
