…
I0101 05:25:46.220770 10277 net.cpp:339] The NetState phase (0) differed from the phase (1) specified by a rule in layer accuracy
I0101 05:25:46.221619 10277 net.cpp:50] Initializing net from parameters: 
name: "RsdNet34v2"
state {
  phase: TRAIN
}
layer {
  name: "data"
  type: "Data"
  top: "data"
  top: "label"
  include {
    phase: TRAIN
  }
  transform_param {
    scale: 0.0039215689
    mirror: true
    crop_size: 224
    mean_file: "./ilsvrc12_mean.binaryproto"
  }
  data_param {
    source: "./ilsvrc12_train_lmdb"
    batch_size: 64
    backend: LMDB
  }
}
layer {
  name: "conv01"
  type: "Convolution"
  bottom: "data"
  top: "conv01"
  param {
    lr_mult: 1
  }
  param {
    lr_mult: 2
  }
  convolution_param {
    num_output: 64
    pad: 3
    kernel_size: 7
    stride: 2
    weight_filler {
      type: "xavier"
    }
    bias_filler {
      type: "constant"
    }
  }
}
layer {
  name: "bn01"
  type: "BN"
  bottom: "conv01"
  top: "bn01"
  param {
    lr_mult: 1
    decay_mult: 0
  }
  param {
    lr_mult: 1
    decay_mult: 0
  }
  bn_param {
    scale_filler {
      type: "constant"
      value: 1
    }
    shift_filler {
      type: "constant"
      value: 0
    }
  }
}
layer {
  name: "relu01"
  type: "ReLU"
  bottom: "bn01"
  top: "bn01"
}
layer {
  name: "pool1"
  type: "Pooling"
  bottom: "bn01"
  top: "pool1"
  pooling_param {
    pool: MAX
    kernel_size: 3
    stride: 2
  }
}
layer {
  name: "conv21"
  type: "Convolution"
  bottom: "pool1"
  top: "conv21"
  param {
    lr_mult: 1
  }
  param {
    lr_mult: 2
  }
  convolution_param {
    num_output: 64
    pad: 1
    kernel_size: 3
    stride: 1
    weight_filler {
      type: "xavier"
    }
    bias_filler {
      type: "constant"
    }
  }
}
layer {
  name: "bn21"
  type: "BN"
  bottom: "conv21"
  top: "bn21"
  param {
    lr_mult: 1
    decay_mult: 0
  }
  param {
    lr_mult: 1
    decay_mult: 0
  }
  bn_param {
    scale_filler {
      type: "constant"
      value: 1
    }
    shift_filler {
      type: "constant"
      value: 0
    }
  }
}
layer {
  name: "relu21"
  type: "ReLU"
  bottom: "bn21"
  top: "bn21"
}
layer {
  name: "conv22"
  type: "Convolution"
  bottom: "bn21"
  top: "conv22"
  param {
    lr_mult: 1
  }
  param {
    lr_mult: 2
  }
  convolution_param {
    num_output: 64
    pad: 1
    kernel_size: 3
    stride: 1
    weight_filler {
      type: "xavier"
    }
    bias_filler {
      type: "constant"
    }
  }
}
layer {
  name: "bn22"
  type: "BN"
  bottom: "conv22"
  top: "bn22"
  param {
    lr_mult: 1
    decay_mult: 0
  }
  param {
    lr_mult: 1
    decay_mult: 0
  }
  bn_param {
    scale_filler {
      type: "constant"
      value: 1
    }
    shift_filler {
      type: "constant"
      value: 0
    }
  }
}
layer {
  name: "relu22"
  type: "ReLU"
  bottom: "bn22"
  top: "bn22"
}
layer {
  name: "eltwise1"
  type: "Eltwise"
  bottom: "pool1"
  bottom: "bn22"
  top: "eltwise1"
  eltwise_param {
    operation: SUM
  }
}
layer {
  name: "relu1"
  type: "ReLU"
  bottom: "eltwise1"
  top: "eltwise1"
}
layer {
  name: "conv23"
  type: "Convolution"
  bottom: "eltwise1"
  top: "conv23"
  param {
    lr_mult: 1
  }
  param {
    lr_mult: 2
  }
  convolution_param {
    num_output: 64
    pad: 1
    kernel_size: 3
    stride: 1
    weight_filler {
      type: "xavier"
    }
    bias_filler {
      type: "constant"
    }
  }
}
layer {
  name: "bn23"
  type: "BN"
  bottom: "conv23"
  top: "bn23"
  param {
    lr_mult: 1
    decay_mult: 0
  }
  param {
    lr_mult: 1
    decay_mult: 0
  }
  bn_param {
    scale_filler {
      type: "constant"
      value: 1
    }
    shift_filler {
      type: "constant"
      value: 0
    }
  }
}
layer {
  name: "relu23"
  type: "ReLU"
  bottom: "bn23"
  top: "bn23"
}
layer {
  name: "conv24"
  type: "Convolution"
  bottom: "bn23"
  top: "conv24"
  param {
    lr_mult: 1
  }
  param {
    lr_mult: 2
  }
  convolution_param {
    num_output: 64
    pad: 1
    kernel_size: 3
    stride: 1
    weight_filler {
      type: "xavier"
    }
    bias_filler {
      type: "constant"
    }
  }
}
layer {
  name: "bn24"
  type: "BN"
  bottom: "conv24"
  top: "bn24"
  param {
    lr_mult: 1
    decay_mult: 0
  }
  param {
    lr_mult: 1
    decay_mult: 0
  }
  bn_param {
    scale_filler {
      type: "constant"
      value: 1
    }
    shift_filler {
      type: "constant"
      value: 0
    }
  }
}
layer {
  name: "relu24"
  type: "ReLU"
  bottom: "bn24"
  top: "bn24"
}
layer {
  name: "eltwise2"
  type: "Eltwise"
  bottom: "eltwise1"
  bottom: "bn24"
  top: "eltwise2"
  eltwise_param {
    operation: SUM
  }
}
layer {
  name: "relu2"
  type: "ReLU"
  bottom: "eltwise2"
  top: "eltwise2"
}
layer {
  name: "conv25"
  type: "Convolution"
  bottom: "bn24"
  top: "conv25"
  param {
    lr_mult: 1
  }
  param {
    lr_mult: 2
  }
  convolution_param {
    num_output: 64
    pad: 1
    kernel_size: 3
    stride: 1
    weight_filler {
      type: "xavier"
    }
    bias_filler {
      type: "constant"
    }
  }
}
layer {
  name: "bn25"
  type: "BN"
  bottom: "conv25"
  top: "bn25"
  param {
    lr_mult: 1
    decay_mult: 0
  }
  param {
    lr_mult: 1
    decay_mult: 0
  }
  bn_param {
    scale_filler {
      type: "constant"
      value: 1
    }
    shift_filler {
      type: "constant"
      value: 0
    }
  }
}
layer {
  name: "relu25"
  type: "ReLU"
  bottom: "bn25"
  top: "bn25"
}
layer {
  name: "conv26"
  type: "Convolution"
  bottom: "bn25"
  top: "conv26"
  param {
    lr_mult: 1
  }
  param {
    lr_mult: 2
  }
  convolution_param {
    num_output: 64
    pad: 1
    kernel_size: 3
    stride: 1
    weight_filler {
      type: "xavier"
    }
    bias_filler {
      type: "constant"
    }
  }
}
layer {
  name: "bn26"
  type: "BN"
  bottom: "conv26"
  top: "bn26"
  param {
    lr_mult: 1
    decay_mult: 0
  }
  param {
    lr_mult: 1
    decay_mult: 0
  }
  bn_param {
    scale_filler {
      type: "constant"
      value: 1
    }
    shift_filler {
      type: "constant"
      value: 0
    }
  }
}
layer {
  name: "relu26"
  type: "ReLU"
  bottom: "bn26"
  top: "bn26"
}
layer {
  name: "eltwise3"
  type: "Eltwise"
  bottom: "eltwise2"
  bottom: "bn26"
  top: "eltwise3"
  eltwise_param {
    operation: SUM
  }
}
layer {
  name: "relu3"
  type: "ReLU"
  bottom: "eltwise3"
  top: "eltwise3"
}
layer {
  name: "relu3_p"
  type: "Convolution"
  bottom: "eltwise3"
  top: "relu3_p"
  param {
    lr_mult: 1
  }
  param {
    lr_mult: 2
  }
  convolution_param {
    num_output: 128
    pad: 0
    kernel_size: 1
    stride: 2
    weight_filler {
      type: "xavier"
    }
    bias_filler {
      type: "constant"
    }
  }
}
layer {
  name: "conv31"
  type: "Convolution"
  bottom: "eltwise3"
  top: "conv31"
  param {
    lr_mult: 1
  }
  param {
    lr_mult: 2
  }
  convolution_param {
    num_output: 128
    pad: 1
    kernel_size: 3
    stride: 2
    weight_filler {
      type: "xavier"
    }
    bias_filler {
      type: "constant"
    }
  }
}
layer {
  name: "bn31"
  type: "BN"
  bottom: "conv31"
  top: "bn31"
  param {
    lr_mult: 1
    decay_mult: 0
  }
  param {
    lr_mult: 1
    decay_mult: 0
  }
  bn_param {
    scale_filler {
      type: "constant"
      value: 1
    }
    shift_filler {
      type: "constant"
      value: 0
    }
  }
}
layer {
  name: "relu31"
  type: "ReLU"
  bottom: "bn31"
  top: "bn31"
}
layer {
  name: "conv32"
  type: "Convolution"
  bottom: "bn31"
  top: "conv32"
  param {
    lr_mult: 1
  }
  param {
    lr_mult: 2
  }
  convolution_param {
    num_output: 128
    pad: 1
    kernel_size: 3
    stride: 1
    weight_filler {
      type: "xavier"
    }
    bias_filler {
      type: "constant"
    }
  }
}
layer {
  name: "bn32"
  type: "BN"
  bottom: "conv32"
  top: "bn32"
  param {
    lr_mult: 1
    decay_mult: 0
  }
  param {
    lr_mult: 1
    decay_mult: 0
  }
  bn_param {
    scale_filler {
      type: "constant"
      value: 1
    }
    shift_filler {
      type: "constant"
      value: 0
    }
  }
}
layer {
  name: "relu32"
  type: "ReLU"
  bottom: "bn32"
  top: "bn32"
}
layer {
  name: "eltwise4"
  type: "Eltwise"
  bottom: "relu3_p"
  bottom: "bn32"
  top: "eltwise4"
  eltwise_param {
    operation: SUM
  }
}
layer {
  name: "relu4"
  type: "ReLU"
  bottom: "eltwise4"
  top: "eltwise4"
}
layer {
  name: "conv33"
  type: "Convolution"
  bottom: "eltwise4"
  top: "conv33"
  param {
    lr_mult: 1
  }
  param {
    lr_mult: 2
  }
  convolution_param {
    num_output: 128
    pad: 1
    kernel_size: 3
    stride: 1
    weight_filler {
      type: "xavier"
    }
    bias_filler {
      type: "constant"
    }
  }
}
layer {
  name: "bn33"
  type: "BN"
  bottom: "conv33"
  top: "bn33"
  param {
    lr_mult: 1
    decay_mult: 0
  }
  param {
    lr_mult: 1
    decay_mult: 0
  }
  bn_param {
    scale_filler {
      type: "constant"
      value: 1
    }
    shift_filler {
      type: "constant"
      value: 0
    }
  }
}
layer {
  name: "relu33"
  type: "ReLU"
  bottom: "bn33"
  top: "bn33"
}
layer {
  name: "conv34"
  type: "Convolution"
  bottom: "bn33"
  top: "conv34"
  param {
    lr_mult: 1
  }
  param {
    lr_mult: 2
  }
  convolution_param {
    num_output: 128
    pad: 1
    kernel_size: 3
    stride: 1
    weight_filler {
      type: "xavier"
    }
    bias_filler {
      type: "constant"
    }
  }
}
layer {
  name: "bn34"
  type: "BN"
  bottom: "conv34"
  top: "bn34"
  param {
    lr_mult: 1
    decay_mult: 0
  }
  param {
    lr_mult: 1
    decay_mult: 0
  }
  bn_param {
    scale_filler {
      type: "constant"
      value: 1
    }
    shift_filler {
      type: "constant"
      value: 0
    }
  }
}
layer {
  name: "relu34"
  type: "ReLU"
  bottom: "bn34"
  top: "bn34"
}
layer {
  name: "eltwise5"
  type: "Eltwise"
  bottom: "eltwise4"
  bottom: "bn34"
  top: "eltwise5"
  eltwise_param {
    operation: SUM
  }
}
layer {
  name: "relu5"
  type: "ReLU"
  bottom: "eltwise5"
  top: "eltwise5"
}
layer {
  name: "conv35"
  type: "Convolution"
  bottom: "eltwise5"
  top: "conv35"
  param {
    lr_mult: 1
  }
  param {
    lr_mult: 2
  }
  convolution_param {
    num_output: 128
    pad: 1
    kernel_size: 3
    stride: 1
    weight_filler {
      type: "xavier"
    }
    bias_filler {
      type: "constant"
    }
  }
}
layer {
  name: "bn35"
  type: "BN"
  bottom: "conv35"
  top: "bn35"
  param {
    lr_mult: 1
    decay_mult: 0
  }
  param {
    lr_mult: 1
    decay_mult: 0
  }
  bn_param {
    scale_filler {
      type: "constant"
      value: 1
    }
    shift_filler {
      type: "constant"
      value: 0
    }
  }
}
layer {
  name: "relu35"
  type: "ReLU"
  bottom: "bn35"
  top: "bn35"
}
layer {
  name: "conv36"
  type: "Convolution"
  bottom: "bn35"
  top: "conv36"
  param {
    lr_mult: 1
  }
  param {
    lr_mult: 2
  }
  convolution_param {
    num_output: 128
    pad: 1
    kernel_size: 3
    stride: 1
    weight_filler {
      type: "xavier"
    }
    bias_filler {
      type: "constant"
    }
  }
}
layer {
  name: "bn36"
  type: "BN"
  bottom: "conv36"
  top: "bn36"
  param {
    lr_mult: 1
    decay_mult: 0
  }
  param {
    lr_mult: 1
    decay_mult: 0
  }
  bn_param {
    scale_filler {
      type: "constant"
      value: 1
    }
    shift_filler {
      type: "constant"
      value: 0
    }
  }
}
layer {
  name: "relu36"
  type: "ReLU"
  bottom: "bn36"
  top: "bn36"
}
layer {
  name: "eltwise6"
  type: "Eltwise"
  bottom: "eltwise5"
  bottom: "bn36"
  top: "eltwise6"
  eltwise_param {
    operation: SUM
  }
}
layer {
  name: "relu6"
  type: "ReLU"
  bottom: "eltwise6"
  top: "eltwise6"
}
layer {
  name: "conv37"
  type: "Convolution"
  bottom: "eltwise6"
  top: "conv37"
  param {
    lr_mult: 1
  }
  param {
    lr_mult: 2
  }
  convolution_param {
    num_output: 128
    pad: 1
    kernel_size: 3
    stride: 1
    weight_filler {
      type: "xavier"
    }
    bias_filler {
      type: "constant"
    }
  }
}
layer {
  name: "bn37"
  type: "BN"
  bottom: "conv37"
  top: "bn37"
  param {
    lr_mult: 1
    decay_mult: 0
  }
  param {
    lr_mult: 1
    decay_mult: 0
  }
  bn_param {
    scale_filler {
      type: "constant"
      value: 1
    }
    shift_filler {
      type: "constant"
      value: 0
    }
  }
}
layer {
  name: "relu37"
  type: "ReLU"
  bottom: "bn37"
  top: "bn37"
}
layer {
  name: "conv38"
  type: "Convolution"
  bottom: "bn37"
  top: "conv38"
  param {
    lr_mult: 1
  }
  param {
    lr_mult: 2
  }
  convolution_param {
    num_output: 128
    pad: 1
    kernel_size: 3
    stride: 1
    weight_filler {
      type: "xavier"
    }
    bias_filler {
      type: "constant"
    }
  }
}
layer {
  name: "bn38"
  type: "BN"
  bottom: "conv38"
  top: "bn38"
  param {
    lr_mult: 1
    decay_mult: 0
  }
  param {
    lr_mult: 1
    decay_mult: 0
  }
  bn_param {
    scale_filler {
      type: "constant"
      value: 1
    }
    shift_filler {
      type: "constant"
      value: 0
    }
  }
}
layer {
  name: "relu38"
  type: "ReLU"
  bottom: "bn38"
  top: "bn38"
}
layer {
  name: "eltwise7"
  type: "Eltwise"
  bottom: "eltwise6"
  bottom: "bn38"
  top: "eltwise7"
  eltwise_param {
    operation: SUM
  }
}
layer {
  name: "relu7"
  type: "ReLU"
  bottom: "eltwise7"
  top: "eltwise7"
}
layer {
  name: "relu7_p"
  type: "Convolution"
  bottom: "eltwise7"
  top: "relu7_p"
  param {
    lr_mult: 1
  }
  param {
    lr_mult: 2
  }
  convolution_param {
    num_output: 256
    pad: 0
    kernel_size: 1
    stride: 2
    weight_filler {
      type: "xavier"
    }
    bias_filler {
      type: "constant"
    }
  }
}
layer {
  name: "conv41"
  type: "Convolution"
  bottom: "eltwise7"
  top: "conv41"
  param {
    lr_mult: 1
  }
  param {
    lr_mult: 2
  }
  convolution_param {
    num_output: 256
    pad: 1
    kernel_size: 3
    stride: 2
    weight_filler {
      type: "xavier"
    }
    bias_filler {
      type: "constant"
    }
  }
}
layer {
  name: "bn41"
  type: "BN"
  bottom: "conv41"
  top: "bn41"
  param {
    lr_mult: 1
    decay_mult: 0
  }
  param {
    lr_mult: 1
    decay_mult: 0
  }
  bn_param {
    scale_filler {
      type: "constant"
      value: 1
    }
    shift_filler {
      type: "constant"
      value: 0
    }
  }
}
layer {
  name: "relu41"
  type: "ReLU"
  bottom: "bn41"
  top: "bn41"
}
layer {
  name: "conv42"
  type: "Convolution"
  bottom: "bn41"
  top: "conv42"
  param {
    lr_mult: 1
  }
  param {
    lr_mult: 2
  }
  convolution_param {
    num_output: 256
    pad: 1
    kernel_size: 3
    stride: 1
    weight_filler {
      type: "xavier"
    }
    bias_filler {
      type: "constant"
    }
  }
}
layer {
  name: "bn42"
  type: "BN"
  bottom: "conv42"
  top: "bn42"
  param {
    lr_mult: 1
    decay_mult: 0
  }
  param {
    lr_mult: 1
    decay_mult: 0
  }
  bn_param {
    scale_filler {
      type: "constant"
      value: 1
    }
    shift_filler {
      type: "constant"
      value: 0
    }
  }
}
layer {
  name: "relu42"
  type: "ReLU"
  bottom: "bn42"
  top: "bn42"
}
layer {
  name: "eltwise8"
  type: "Eltwise"
  bottom: "relu7_p"
  bottom: "bn42"
  top: "eltwise8"
  eltwise_param {
    operation: SUM
  }
}
layer {
  name: "relu8"
  type: "ReLU"
  bottom: "eltwise8"
  top: "eltwise8"
}
layer {
  name: "conv43"
  type: "Convolution"
  bottom: "eltwise8"
  top: "conv43"
  param {
    lr_mult: 1
  }
  param {
    lr_mult: 2
  }
  convolution_param {
    num_output: 256
    pad: 1
    kernel_size: 3
    stride: 1
    weight_filler {
      type: "xavier"
    }
    bias_filler {
      type: "constant"
    }
  }
}
layer {
  name: "bn43"
  type: "BN"
  bottom: "conv43"
  top: "bn43"
  param {
    lr_mult: 1
    decay_mult: 0
  }
  param {
    lr_mult: 1
    decay_mult: 0
  }
  bn_param {
    scale_filler {
      type: "constant"
      value: 1
    }
    shift_filler {
      type: "constant"
      value: 0
    }
  }
}
layer {
  name: "relu43"
  type: "ReLU"
  bottom: "bn43"
  top: "bn43"
}
layer {
  name: "conv44"
  type: "Convolution"
  bottom: "bn43"
  top: "conv44"
  param {
    lr_mult: 1
  }
  param {
    lr_mult: 2
  }
  convolution_param {
    num_output: 256
    pad: 1
    kernel_size: 3
    stride: 1
    weight_filler {
      type: "xavier"
    }
    bias_filler {
      type: "constant"
    }
  }
}
layer {
  name: "bn44"
  type: "BN"
  bottom: "conv44"
  top: "bn44"
  param {
    lr_mult: 1
    decay_mult: 0
  }
  param {
    lr_mult: 1
    decay_mult: 0
  }
  bn_param {
    scale_filler {
      type: "constant"
      value: 1
    }
    shift_filler {
      type: "constant"
      value: 0
    }
  }
}
layer {
  name: "relu44"
  type: "ReLU"
  bottom: "bn44"
  top: "bn44"
}
layer {
  name: "eltwise9"
  type: "Eltwise"
  bottom: "eltwise8"
  bottom: "bn44"
  top: "eltwise9"
  eltwise_param {
    operation: SUM
  }
}
layer {
  name: "relu9"
  type: "ReLU"
  bottom: "eltwise9"
  top: "eltwise9"
}
layer {
  name: "conv45"
  type: "Convolution"
  bottom: "eltwise9"
  top: "conv45"
  param {
    lr_mult: 1
  }
  param {
    lr_mult: 2
  }
  convolution_param {
    num_output: 256
    pad: 1
    kernel_size: 3
    stride: 1
    weight_filler {
      type: "xavier"
    }
    bias_filler {
      type: "constant"
    }
  }
}
layer {
  name: "bn45"
  type: "BN"
  bottom: "conv45"
  top: "bn45"
  param {
    lr_mult: 1
    decay_mult: 0
  }
  param {
    lr_mult: 1
    decay_mult: 0
  }
  bn_param {
    scale_filler {
      type: "constant"
      value: 1
    }
    shift_filler {
      type: "constant"
      value: 0
    }
  }
}
layer {
  name: "relu45"
  type: "ReLU"
  bottom: "bn45"
  top: "bn45"
}
layer {
  name: "conv46"
  type: "Convolution"
  bottom: "bn45"
  top: "conv46"
  param {
    lr_mult: 1
  }
  param {
    lr_mult: 2
  }
  convolution_param {
    num_output: 256
    pad: 1
    kernel_size: 3
    stride: 1
    weight_filler {
      type: "xavier"
    }
    bias_filler {
      type: "constant"
    }
  }
}
layer {
  name: "bn46"
  type: "BN"
  bottom: "conv46"
  top: "bn46"
  param {
    lr_mult: 1
    decay_mult: 0
  }
  param {
    lr_mult: 1
    decay_mult: 0
  }
  bn_param {
    scale_filler {
      type: "constant"
      value: 1
    }
    shift_filler {
      type: "constant"
      value: 0
    }
  }
}
layer {
  name: "relu46"
  type: "ReLU"
  bottom: "bn46"
  top: "bn46"
}
layer {
  name: "eltwise10"
  type: "Eltwise"
  bottom: "eltwise9"
  bottom: "bn46"
  top: "eltwise10"
  eltwise_param {
    operation: SUM
  }
}
layer {
  name: "relu10"
  type: "ReLU"
  bottom: "eltwise10"
  top: "eltwise10"
}
layer {
  name: "conv47"
  type: "Convolution"
  bottom: "eltwise10"
  top: "conv47"
  param {
    lr_mult: 1
  }
  param {
    lr_mult: 2
  }
  convolution_param {
    num_output: 256
    pad: 1
    kernel_size: 3
    stride: 1
    weight_filler {
      type: "xavier"
    }
    bias_filler {
      type: "constant"
    }
  }
}
layer {
  name: "bn47"
  type: "BN"
  bottom: "conv47"
  top: "bn47"
  param {
    lr_mult: 1
    decay_mult: 0
  }
  param {
    lr_mult: 1
    decay_mult: 0
  }
  bn_param {
    scale_filler {
      type: "constant"
      value: 1
    }
    shift_filler {
      type: "constant"
      value: 0
    }
  }
}
layer {
  name: "relu47"
  type: "ReLU"
  bottom: "bn47"
  top: "bn47"
}
layer {
  name: "conv48"
  type: "Convolution"
  bottom: "bn47"
  top: "conv48"
  param {
    lr_mult: 1
  }
  param {
    lr_mult: 2
  }
  convolution_param {
    num_output: 256
    pad: 1
    kernel_size: 3
    stride: 1
    weight_filler {
      type: "xavier"
    }
    bias_filler {
      type: "constant"
    }
  }
}
layer {
  name: "bn48"
  type: "BN"
  bottom: "conv48"
  top: "bn48"
  param {
    lr_mult: 1
    decay_mult: 0
  }
  param {
    lr_mult: 1
    decay_mult: 0
  }
  bn_param {
    scale_filler {
      type: "constant"
      value: 1
    }
    shift_filler {
      type: "constant"
      value: 0
    }
  }
}
layer {
  name: "relu48"
  type: "ReLU"
  bottom: "bn48"
  top: "bn48"
}
layer {
  name: "eltwise11"
  type: "Eltwise"
  bottom: "eltwise10"
  bottom: "bn48"
  top: "eltwise11"
  eltwise_param {
    operation: SUM
  }
}
layer {
  name: "relu11"
  type: "ReLU"
  bottom: "eltwise11"
  top: "eltwise11"
}
layer {
  name: "conv49"
  type: "Convolution"
  bottom: "eltwise11"
  top: "conv49"
  param {
    lr_mult: 1
  }
  param {
    lr_mult: 2
  }
  convolution_param {
    num_output: 256
    pad: 1
    kernel_size: 3
    stride: 1
    weight_filler {
      type: "xavier"
    }
    bias_filler {
      type: "constant"
    }
  }
}
layer {
  name: "bn49"
  type: "BN"
  bottom: "conv49"
  top: "bn49"
  param {
    lr_mult: 1
    decay_mult: 0
  }
  param {
    lr_mult: 1
    decay_mult: 0
  }
  bn_param {
    scale_filler {
      type: "constant"
      value: 1
    }
    shift_filler {
      type: "constant"
      value: 0
    }
  }
}
layer {
  name: "relu49"
  type: "ReLU"
  bottom: "bn49"
  top: "bn49"
}
layer {
  name: "conv410"
  type: "Convolution"
  bottom: "bn49"
  top: "conv410"
  param {
    lr_mult: 1
  }
  param {
    lr_mult: 2
  }
  convolution_param {
    num_output: 256
    pad: 1
    kernel_size: 3
    stride: 1
    weight_filler {
      type: "xavier"
    }
    bias_filler {
      type: "constant"
    }
  }
}
layer {
  name: "bn410"
  type: "BN"
  bottom: "conv410"
  top: "bn410"
  param {
    lr_mult: 1
    decay_mult: 0
  }
  param {
    lr_mult: 1
    decay_mult: 0
  }
  bn_param {
    scale_filler {
      type: "constant"
      value: 1
    }
    shift_filler {
      type: "constant"
      value: 0
    }
  }
}
layer {
  name: "relu410"
  type: "ReLU"
  bottom: "bn410"
  top: "bn410"
}
layer {
  name: "eltwise12"
  type: "Eltwise"
  bottom: "eltwise11"
  bottom: "bn410"
  top: "eltwise12"
  eltwise_param {
    operation: SUM
  }
}
layer {
  name: "relu12"
  type: "ReLU"
  bottom: "eltwise12"
  top: "eltwise12"
}
layer {
  name: "conv411"
  type: "Convolution"
  bottom: "eltwise12"
  top: "conv411"
  param {
    lr_mult: 1
  }
  param {
    lr_mult: 2
  }
  convolution_param {
    num_output: 256
    pad: 1
    kernel_size: 3
    stride: 1
    weight_filler {
      type: "xavier"
    }
    bias_filler {
      type: "constant"
    }
  }
}
layer {
  name: "bn411"
  type: "BN"
  bottom: "conv411"
  top: "bn411"
  param {
    lr_mult: 1
    decay_mult: 0
  }
  param {
    lr_mult: 1
    decay_mult: 0
  }
  bn_param {
    scale_filler {
      type: "constant"
      value: 1
    }
    shift_filler {
      type: "constant"
      value: 0
    }
  }
}
layer {
  name: "relu411"
  type: "ReLU"
  bottom: "bn411"
  top: "bn411"
}
layer {
  name: "conv412"
  type: "Convolution"
  bottom: "bn411"
  top: "conv412"
  param {
    lr_mult: 1
  }
  param {
    lr_mult: 2
  }
  convolution_param {
    num_output: 256
    pad: 1
    kernel_size: 3
    stride: 1
    weight_filler {
      type: "xavier"
    }
    bias_filler {
      type: "constant"
    }
  }
}
layer {
  name: "bn412"
  type: "BN"
  bottom: "conv412"
  top: "bn412"
  param {
    lr_mult: 1
    decay_mult: 0
  }
  param {
    lr_mult: 1
    decay_mult: 0
  }
  bn_param {
    scale_filler {
      type: "constant"
      value: 1
    }
    shift_filler {
      type: "constant"
      value: 0
    }
  }
}
layer {
  name: "relu412"
  type: "ReLU"
  bottom: "bn412"
  top: "bn412"
}
layer {
  name: "eltwise13"
  type: "Eltwise"
  bottom: "eltwise12"
  bottom: "bn412"
  top: "eltwise13"
  eltwise_param {
    operation: SUM
  }
}
layer {
  name: "relu13"
  type: "ReLU"
  bottom: "eltwise13"
  top: "eltwise13"
}
layer {
  name: "relu13_p"
  type: "Convolution"
  bottom: "eltwise12"
  top: "relu13_p"
  param {
    lr_mult: 1
  }
  param {
    lr_mult: 2
  }
  convolution_param {
    num_output: 512
    pad: 0
    kernel_size: 1
    stride: 2
    weight_filler {
      type: "xavier"
    }
    bias_filler {
      type: "constant"
    }
  }
}
layer {
  name: "conv51"
  type: "Convolution"
  bottom: "eltwise13"
  top: "conv51"
  param {
    lr_mult: 1
  }
  param {
    lr_mult: 2
  }
  convolution_param {
    num_output: 512
    pad: 1
    kernel_size: 3
    stride: 2
    weight_filler {
      type: "xavier"
    }
    bias_filler {
      type: "constant"
    }
  }
}
layer {
  name: "bn51"
  type: "BN"
  bottom: "conv51"
  top: "bn51"
  param {
    lr_mult: 1
    decay_mult: 0
  }
  param {
    lr_mult: 1
    decay_mult: 0
  }
  bn_param {
    scale_filler {
      type: "constant"
      value: 1
    }
    shift_filler {
      type: "constant"
      value: 0
    }
  }
}
layer {
  name: "relu51"
  type: "ReLU"
  bottom: "bn51"
  top: "bn51"
}
layer {
  name: "conv52"
  type: "Convolution"
  bottom: "bn51"
  top: "conv52"
  param {
    lr_mult: 1
  }
  param {
    lr_mult: 2
  }
  convolution_param {
    num_output: 512
    pad: 1
    kernel_size: 3
    stride: 1
    weight_filler {
      type: "xavier"
    }
    bias_filler {
      type: "constant"
    }
  }
}
layer {
  name: "bn52"
  type: "BN"
  bottom: "conv52"
  top: "bn52"
  param {
    lr_mult: 1
    decay_mult: 0
  }
  param {
    lr_mult: 1
    decay_mult: 0
  }
  bn_param {
    scale_filler {
      type: "constant"
      value: 1
    }
    shift_filler {
      type: "constant"
      value: 0
    }
  }
}
layer {
  name: "relu52"
  type: "ReLU"
  bottom: "bn52"
  top: "bn52"
}
layer {
  name: "eltwise14"
  type: "Eltwise"
  bottom: "relu13_p"
  bottom: "bn52"
  top: "eltwise14"
  eltwise_param {
    operation: SUM
  }
}
layer {
  name: "relu14"
  type: "ReLU"
  bottom: "eltwise14"
  top: "eltwise14"
}
layer {
  name: "conv53"
  type: "Convolution"
  bottom: "eltwise14"
  top: "conv53"
  param {
    lr_mult: 1
  }
  param {
    lr_mult: 2
  }
  convolution_param {
    num_output: 512
    pad: 1
    kernel_size: 3
    stride: 1
    weight_filler {
      type: "xavier"
    }
    bias_filler {
      type: "constant"
    }
  }
}
layer {
  name: "bn53"
  type: "BN"
  bottom: "conv53"
  top: "bn53"
  param {
    lr_mult: 1
    decay_mult: 0
  }
  param {
    lr_mult: 1
    decay_mult: 0
  }
  bn_param {
    scale_filler {
      type: "constant"
      value: 1
    }
    shift_filler {
      type: "constant"
      value: 0
    }
  }
}
layer {
  name: "relu53"
  type: "ReLU"
  bottom: "bn53"
  top: "bn53"
}
layer {
  name: "conv54"
  type: "Convolution"
  bottom: "bn53"
  top: "conv54"
  param {
    lr_mult: 1
  }
  param {
    lr_mult: 2
  }
  convolution_param {
    num_output: 512
    pad: 1
    kernel_size: 3
    stride: 1
    weight_filler {
      type: "xavier"
    }
    bias_filler {
      type: "constant"
    }
  }
}
layer {
  name: "bn54"
  type: "BN"
  bottom: "conv54"
  top: "bn54"
  param {
    lr_mult: 1
    decay_mult: 0
  }
  param {
    lr_mult: 1
    decay_mult: 0
  }
  bn_param {
    scale_filler {
      type: "constant"
      value: 1
    }
    shift_filler {
      type: "constant"
      value: 0
    }
  }
}
layer {
  name: "relu54"
  type: "ReLU"
  bottom: "bn54"
  top: "bn54"
}
layer {
  name: "eltwise15"
  type: "Eltwise"
  bottom: "eltwise14"
  bottom: "bn54"
  top: "eltwise15"
  eltwise_param {
    operation: SUM
  }
}
layer {
  name: "relu15"
  type: "ReLU"
  bottom: "eltwise15"
  top: "eltwise15"
}
layer {
  name: "conv55"
  type: "Convolution"
  bottom: "eltwise15"
  top: "conv55"
  param {
    lr_mult: 1
  }
  param {
    lr_mult: 2
  }
  convolution_param {
    num_output: 512
    pad: 1
    kernel_size: 3
    stride: 1
    weight_filler {
      type: "xavier"
    }
    bias_filler {
      type: "constant"
    }
  }
}
layer {
  name: "bn55"
  type: "BN"
  bottom: "conv55"
  top: "bn55"
  param {
    lr_mult: 1
    decay_mult: 0
  }
  param {
    lr_mult: 1
    decay_mult: 0
  }
  bn_param {
    scale_filler {
      type: "constant"
      value: 1
    }
    shift_filler {
      type: "constant"
      value: 0
    }
  }
}
layer {
  name: "relu55"
  type: "ReLU"
  bottom: "bn55"
  top: "bn55"
}
layer {
  name: "conv56"
  type: "Convolution"
  bottom: "bn55"
  top: "conv56"
  param {
    lr_mult: 1
  }
  param {
    lr_mult: 2
  }
  convolution_param {
    num_output: 512
    pad: 1
    kernel_size: 3
    stride: 1
    weight_filler {
      type: "xavier"
    }
    bias_filler {
      type: "constant"
    }
  }
}
layer {
  name: "bn56"
  type: "BN"
  bottom: "conv56"
  top: "bn56"
  param {
    lr_mult: 1
    decay_mult: 0
  }
  param {
    lr_mult: 1
    decay_mult: 0
  }
  bn_param {
    scale_filler {
      type: "constant"
      value: 1
    }
    shift_filler {
      type: "constant"
      value: 0
    }
  }
}
layer {
  name: "relu56"
  type: "ReLU"
  bottom: "bn56"
  top: "bn56"
}
layer {
  name: "eltwise16"
  type: "Eltwise"
  bottom: "eltwise15"
  bottom: "bn56"
  top: "eltwise16"
  eltwise_param {
    operation: SUM
  }
}
layer {
  name: "relu16"
  type: "ReLU"
  bottom: "eltwise16"
  top: "eltwise16"
}
layer {
  name: "pool5"
  type: "Pooling"
  bottom: "eltwise16"
  top: "pool5"
  pooling_param {
    pool: AVE
    kernel_size: 7
    stride: 1
  }
}
layer {
  name: "ip1"
  type: "InnerProduct"
  bottom: "pool5"
  top: "ip1"
  param {
    lr_mult: 1
  }
  param {
    lr_mult: 2
  }
  inner_product_param {
    num_output: 1000
    weight_filler {
      type: "xavier"
    }
    bias_filler {
      type: "constant"
    }
  }
}
layer {
  name: "loss"
  type: "SoftmaxWithLoss"
  bottom: "ip1"
  bottom: "label"
  top: "loss"
  include {
    phase: TRAIN
  }
}
I0101 05:25:46.229940 10277 layer_factory.hpp:76] Creating layer data
I0101 05:25:46.230506 10277 net.cpp:110] Creating Layer data
I0101 05:25:46.230571 10277 net.cpp:433] data -> data
I0101 05:25:46.230625 10277 net.cpp:433] data -> label
I0101 05:25:46.230657 10277 data_transformer.cpp:23] Loading mean file from: ./ilsvrc12_mean.binaryproto
I0101 05:25:46.243150 10280 db_lmdb.cpp:22] Opened lmdb ./ilsvrc12_train_lmdb
I0101 05:25:46.287802 10277 data_layer.cpp:44] output data size: 64,3,224,224
I0101 05:25:46.374413 10277 net.cpp:155] Setting up data
I0101 05:25:46.374478 10277 net.cpp:163] Top shape: 64 3 224 224 (9633792)
I0101 05:25:46.374541 10277 net.cpp:163] Top shape: 64 (64)
I0101 05:25:46.374606 10277 layer_factory.hpp:76] Creating layer conv01
I0101 05:25:46.374642 10277 net.cpp:110] Creating Layer conv01
I0101 05:25:46.374661 10277 net.cpp:477] conv01 <- data
I0101 05:25:46.374701 10277 net.cpp:433] conv01 -> conv01
I0101 05:25:46.687355 10277 net.cpp:155] Setting up conv01
I0101 05:25:46.687427 10277 net.cpp:163] Top shape: 64 64 112 112 (51380224)
I0101 05:25:46.687469 10277 layer_factory.hpp:76] Creating layer bn01
I0101 05:25:46.687551 10277 net.cpp:110] Creating Layer bn01
I0101 05:25:46.687566 10277 net.cpp:477] bn01 <- conv01
I0101 05:25:46.687592 10277 net.cpp:433] bn01 -> bn01
I0101 05:25:46.687722 10277 net.cpp:155] Setting up bn01
I0101 05:25:46.687748 10277 net.cpp:163] Top shape: 64 64 112 112 (51380224)
I0101 05:25:46.687769 10277 layer_factory.hpp:76] Creating layer relu01
I0101 05:25:46.687788 10277 net.cpp:110] Creating Layer relu01
I0101 05:25:46.687800 10277 net.cpp:477] relu01 <- bn01
I0101 05:25:46.687814 10277 net.cpp:419] relu01 -> bn01 (in-place)
I0101 05:25:46.687896 10277 net.cpp:155] Setting up relu01
I0101 05:25:46.687914 10277 net.cpp:163] Top shape: 64 64 112 112 (51380224)
I0101 05:25:46.687927 10277 layer_factory.hpp:76] Creating layer pool1
I0101 05:25:46.687950 10277 net.cpp:110] Creating Layer pool1
I0101 05:25:46.687963 10277 net.cpp:477] pool1 <- bn01
I0101 05:25:46.687978 10277 net.cpp:433] pool1 -> pool1
I0101 05:25:46.688076 10277 net.cpp:155] Setting up pool1
I0101 05:25:46.688096 10277 net.cpp:163] Top shape: 64 64 56 56 (12845056)
I0101 05:25:46.688107 10277 layer_factory.hpp:76] Creating layer pool1_pool1_0_split
I0101 05:25:46.688125 10277 net.cpp:110] Creating Layer pool1_pool1_0_split
I0101 05:25:46.688138 10277 net.cpp:477] pool1_pool1_0_split <- pool1
I0101 05:25:46.688153 10277 net.cpp:433] pool1_pool1_0_split -> pool1_pool1_0_split_0
I0101 05:25:46.688169 10277 net.cpp:433] pool1_pool1_0_split -> pool1_pool1_0_split_1
I0101 05:25:46.688186 10277 net.cpp:155] Setting up pool1_pool1_0_split
I0101 05:25:46.688200 10277 net.cpp:163] Top shape: 64 64 56 56 (12845056)
I0101 05:25:46.688212 10277 net.cpp:163] Top shape: 64 64 56 56 (12845056)
I0101 05:25:46.688225 10277 layer_factory.hpp:76] Creating layer conv21
I0101 05:25:46.688243 10277 net.cpp:110] Creating Layer conv21
I0101 05:25:46.688285 10277 net.cpp:477] conv21 <- pool1_pool1_0_split_0
I0101 05:25:46.688302 10277 net.cpp:433] conv21 -> conv21
I0101 05:25:46.689821 10277 net.cpp:155] Setting up conv21
I0101 05:25:46.689852 10277 net.cpp:163] Top shape: 64 64 56 56 (12845056)
I0101 05:25:46.689873 10277 layer_factory.hpp:76] Creating layer bn21
I0101 05:25:46.689890 10277 net.cpp:110] Creating Layer bn21
I0101 05:25:46.689908 10277 net.cpp:477] bn21 <- conv21
I0101 05:25:46.689927 10277 net.cpp:433] bn21 -> bn21
I0101 05:25:46.690018 10277 net.cpp:155] Setting up bn21
I0101 05:25:46.690037 10277 net.cpp:163] Top shape: 64 64 56 56 (12845056)
I0101 05:25:46.690058 10277 layer_factory.hpp:76] Creating layer relu21
I0101 05:25:46.690074 10277 net.cpp:110] Creating Layer relu21
I0101 05:25:46.690086 10277 net.cpp:477] relu21 <- bn21
I0101 05:25:46.690100 10277 net.cpp:419] relu21 -> bn21 (in-place)
I0101 05:25:46.690172 10277 net.cpp:155] Setting up relu21
I0101 05:25:46.690191 10277 net.cpp:163] Top shape: 64 64 56 56 (12845056)
I0101 05:25:46.690203 10277 layer_factory.hpp:76] Creating layer conv22
I0101 05:25:46.690219 10277 net.cpp:110] Creating Layer conv22
I0101 05:25:46.690232 10277 net.cpp:477] conv22 <- bn21
I0101 05:25:46.690246 10277 net.cpp:433] conv22 -> conv22
I0101 05:25:46.690840 10277 net.cpp:155] Setting up conv22
I0101 05:25:46.690862 10277 net.cpp:163] Top shape: 64 64 56 56 (12845056)
I0101 05:25:46.690879 10277 layer_factory.hpp:76] Creating layer bn22
I0101 05:25:46.690896 10277 net.cpp:110] Creating Layer bn22
I0101 05:25:46.690908 10277 net.cpp:477] bn22 <- conv22
I0101 05:25:46.690924 10277 net.cpp:433] bn22 -> bn22
I0101 05:25:46.691011 10277 net.cpp:155] Setting up bn22
I0101 05:25:46.691030 10277 net.cpp:163] Top shape: 64 64 56 56 (12845056)
I0101 05:25:46.691051 10277 layer_factory.hpp:76] Creating layer relu22
I0101 05:25:46.691067 10277 net.cpp:110] Creating Layer relu22
I0101 05:25:46.691079 10277 net.cpp:477] relu22 <- bn22
I0101 05:25:46.691093 10277 net.cpp:419] relu22 -> bn22 (in-place)
I0101 05:25:46.691269 10277 net.cpp:155] Setting up relu22
I0101 05:25:46.691289 10277 net.cpp:163] Top shape: 64 64 56 56 (12845056)
I0101 05:25:46.691301 10277 layer_factory.hpp:76] Creating layer eltwise1
I0101 05:25:46.691320 10277 net.cpp:110] Creating Layer eltwise1
I0101 05:25:46.691331 10277 net.cpp:477] eltwise1 <- pool1_pool1_0_split_1
I0101 05:25:46.691344 10277 net.cpp:477] eltwise1 <- bn22
I0101 05:25:46.691356 10277 net.cpp:433] eltwise1 -> eltwise1
I0101 05:25:46.691380 10277 net.cpp:155] Setting up eltwise1
I0101 05:25:46.691406 10277 net.cpp:163] Top shape: 64 64 56 56 (12845056)
I0101 05:25:46.691417 10277 layer_factory.hpp:76] Creating layer relu1
I0101 05:25:46.691431 10277 net.cpp:110] Creating Layer relu1
I0101 05:25:46.691440 10277 net.cpp:477] relu1 <- eltwise1
I0101 05:25:46.691452 10277 net.cpp:419] relu1 -> eltwise1 (in-place)
I0101 05:25:46.691515 10277 net.cpp:155] Setting up relu1
I0101 05:25:46.691529 10277 net.cpp:163] Top shape: 64 64 56 56 (12845056)
I0101 05:25:46.691540 10277 layer_factory.hpp:76] Creating layer eltwise1_relu1_0_split
I0101 05:25:46.691552 10277 net.cpp:110] Creating Layer eltwise1_relu1_0_split
I0101 05:25:46.691562 10277 net.cpp:477] eltwise1_relu1_0_split <- eltwise1
I0101 05:25:46.691576 10277 net.cpp:433] eltwise1_relu1_0_split -> eltwise1_relu1_0_split_0
I0101 05:25:46.691589 10277 net.cpp:433] eltwise1_relu1_0_split -> eltwise1_relu1_0_split_1
I0101 05:25:46.691603 10277 net.cpp:155] Setting up eltwise1_relu1_0_split
I0101 05:25:46.691615 10277 net.cpp:163] Top shape: 64 64 56 56 (12845056)
I0101 05:25:46.691627 10277 net.cpp:163] Top shape: 64 64 56 56 (12845056)
I0101 05:25:46.691637 10277 layer_factory.hpp:76] Creating layer conv23
I0101 05:25:46.691650 10277 net.cpp:110] Creating Layer conv23
I0101 05:25:46.691661 10277 net.cpp:477] conv23 <- eltwise1_relu1_0_split_0
I0101 05:25:46.691673 10277 net.cpp:433] conv23 -> conv23
I0101 05:25:46.692239 10277 net.cpp:155] Setting up conv23
I0101 05:25:46.692258 10277 net.cpp:163] Top shape: 64 64 56 56 (12845056)
I0101 05:25:46.692286 10277 layer_factory.hpp:76] Creating layer bn23
I0101 05:25:46.692302 10277 net.cpp:110] Creating Layer bn23
I0101 05:25:46.692313 10277 net.cpp:477] bn23 <- conv23
I0101 05:25:46.692327 10277 net.cpp:433] bn23 -> bn23
I0101 05:25:46.692409 10277 net.cpp:155] Setting up bn23
I0101 05:25:46.692425 10277 net.cpp:163] Top shape: 64 64 56 56 (12845056)
I0101 05:25:46.692440 10277 layer_factory.hpp:76] Creating layer relu23
I0101 05:25:46.692453 10277 net.cpp:110] Creating Layer relu23
I0101 05:25:46.692463 10277 net.cpp:477] relu23 <- bn23
I0101 05:25:46.692476 10277 net.cpp:419] relu23 -> bn23 (in-place)
I0101 05:25:46.692539 10277 net.cpp:155] Setting up relu23
I0101 05:25:46.692554 10277 net.cpp:163] Top shape: 64 64 56 56 (12845056)
I0101 05:25:46.692565 10277 layer_factory.hpp:76] Creating layer conv24
I0101 05:25:46.692579 10277 net.cpp:110] Creating Layer conv24
I0101 05:25:46.692589 10277 net.cpp:477] conv24 <- bn23
I0101 05:25:46.692602 10277 net.cpp:433] conv24 -> conv24
I0101 05:25:46.693179 10277 net.cpp:155] Setting up conv24
I0101 05:25:46.693199 10277 net.cpp:163] Top shape: 64 64 56 56 (12845056)
I0101 05:25:46.693214 10277 layer_factory.hpp:76] Creating layer bn24
I0101 05:25:46.693228 10277 net.cpp:110] Creating Layer bn24
I0101 05:25:46.693239 10277 net.cpp:477] bn24 <- conv24
I0101 05:25:46.693253 10277 net.cpp:433] bn24 -> bn24
I0101 05:25:46.693342 10277 net.cpp:155] Setting up bn24
I0101 05:25:46.693358 10277 net.cpp:163] Top shape: 64 64 56 56 (12845056)
I0101 05:25:46.693373 10277 layer_factory.hpp:76] Creating layer relu24
I0101 05:25:46.693387 10277 net.cpp:110] Creating Layer relu24
I0101 05:25:46.693397 10277 net.cpp:477] relu24 <- bn24
I0101 05:25:46.693408 10277 net.cpp:419] relu24 -> bn24 (in-place)
I0101 05:25:46.693473 10277 net.cpp:155] Setting up relu24
I0101 05:25:46.693488 10277 net.cpp:163] Top shape: 64 64 56 56 (12845056)
I0101 05:25:46.693498 10277 layer_factory.hpp:76] Creating layer bn24_relu24_0_split
I0101 05:25:46.693511 10277 net.cpp:110] Creating Layer bn24_relu24_0_split
I0101 05:25:46.693521 10277 net.cpp:477] bn24_relu24_0_split <- bn24
I0101 05:25:46.693532 10277 net.cpp:433] bn24_relu24_0_split -> bn24_relu24_0_split_0
I0101 05:25:46.693545 10277 net.cpp:433] bn24_relu24_0_split -> bn24_relu24_0_split_1
I0101 05:25:46.693559 10277 net.cpp:155] Setting up bn24_relu24_0_split
I0101 05:25:46.693572 10277 net.cpp:163] Top shape: 64 64 56 56 (12845056)
I0101 05:25:46.693583 10277 net.cpp:163] Top shape: 64 64 56 56 (12845056)
I0101 05:25:46.693593 10277 layer_factory.hpp:76] Creating layer eltwise2
I0101 05:25:46.693605 10277 net.cpp:110] Creating Layer eltwise2
I0101 05:25:46.693615 10277 net.cpp:477] eltwise2 <- eltwise1_relu1_0_split_1
I0101 05:25:46.693626 10277 net.cpp:477] eltwise2 <- bn24_relu24_0_split_0
I0101 05:25:46.693639 10277 net.cpp:433] eltwise2 -> eltwise2
I0101 05:25:46.693653 10277 net.cpp:155] Setting up eltwise2
I0101 05:25:46.693665 10277 net.cpp:163] Top shape: 64 64 56 56 (12845056)
I0101 05:25:46.693675 10277 layer_factory.hpp:76] Creating layer relu2
I0101 05:25:46.693687 10277 net.cpp:110] Creating Layer relu2
I0101 05:25:46.693697 10277 net.cpp:477] relu2 <- eltwise2
I0101 05:25:46.693708 10277 net.cpp:419] relu2 -> eltwise2 (in-place)
I0101 05:25:46.693872 10277 net.cpp:155] Setting up relu2
I0101 05:25:46.693892 10277 net.cpp:163] Top shape: 64 64 56 56 (12845056)
I0101 05:25:46.693902 10277 layer_factory.hpp:76] Creating layer conv25
I0101 05:25:46.693917 10277 net.cpp:110] Creating Layer conv25
I0101 05:25:46.693927 10277 net.cpp:477] conv25 <- bn24_relu24_0_split_1
I0101 05:25:46.693939 10277 net.cpp:433] conv25 -> conv25
I0101 05:25:46.694509 10277 net.cpp:155] Setting up conv25
I0101 05:25:46.694528 10277 net.cpp:163] Top shape: 64 64 56 56 (12845056)
I0101 05:25:46.694542 10277 layer_factory.hpp:76] Creating layer bn25
I0101 05:25:46.694557 10277 net.cpp:110] Creating Layer bn25
I0101 05:25:46.694567 10277 net.cpp:477] bn25 <- conv25
I0101 05:25:46.694581 10277 net.cpp:433] bn25 -> bn25
I0101 05:25:46.694676 10277 net.cpp:155] Setting up bn25
I0101 05:25:46.694692 10277 net.cpp:163] Top shape: 64 64 56 56 (12845056)
I0101 05:25:46.694711 10277 layer_factory.hpp:76] Creating layer relu25
I0101 05:25:46.694725 10277 net.cpp:110] Creating Layer relu25
I0101 05:25:46.694735 10277 net.cpp:477] relu25 <- bn25
I0101 05:25:46.694746 10277 net.cpp:419] relu25 -> bn25 (in-place)
I0101 05:25:46.694816 10277 net.cpp:155] Setting up relu25
I0101 05:25:46.694865 10277 net.cpp:163] Top shape: 64 64 56 56 (12845056)
I0101 05:25:46.694875 10277 layer_factory.hpp:76] Creating layer conv26
I0101 05:25:46.694890 10277 net.cpp:110] Creating Layer conv26
I0101 05:25:46.694898 10277 net.cpp:477] conv26 <- bn25
I0101 05:25:46.694911 10277 net.cpp:433] conv26 -> conv26
I0101 05:25:46.695474 10277 net.cpp:155] Setting up conv26
I0101 05:25:46.695493 10277 net.cpp:163] Top shape: 64 64 56 56 (12845056)
I0101 05:25:46.695508 10277 layer_factory.hpp:76] Creating layer bn26
I0101 05:25:46.695523 10277 net.cpp:110] Creating Layer bn26
I0101 05:25:46.695533 10277 net.cpp:477] bn26 <- conv26
I0101 05:25:46.695554 10277 net.cpp:433] bn26 -> bn26
I0101 05:25:46.695634 10277 net.cpp:155] Setting up bn26
I0101 05:25:46.695650 10277 net.cpp:163] Top shape: 64 64 56 56 (12845056)
I0101 05:25:46.695665 10277 layer_factory.hpp:76] Creating layer relu26
I0101 05:25:46.695677 10277 net.cpp:110] Creating Layer relu26
I0101 05:25:46.695688 10277 net.cpp:477] relu26 <- bn26
I0101 05:25:46.695699 10277 net.cpp:419] relu26 -> bn26 (in-place)
I0101 05:25:46.695762 10277 net.cpp:155] Setting up relu26
I0101 05:25:46.695777 10277 net.cpp:163] Top shape: 64 64 56 56 (12845056)
I0101 05:25:46.695788 10277 layer_factory.hpp:76] Creating layer eltwise3
I0101 05:25:46.695801 10277 net.cpp:110] Creating Layer eltwise3
I0101 05:25:46.695811 10277 net.cpp:477] eltwise3 <- eltwise2
I0101 05:25:46.695822 10277 net.cpp:477] eltwise3 <- bn26
I0101 05:25:46.695834 10277 net.cpp:433] eltwise3 -> eltwise3
I0101 05:25:46.695848 10277 net.cpp:155] Setting up eltwise3
I0101 05:25:46.695860 10277 net.cpp:163] Top shape: 64 64 56 56 (12845056)
I0101 05:25:46.695870 10277 layer_factory.hpp:76] Creating layer relu3
I0101 05:25:46.695881 10277 net.cpp:110] Creating Layer relu3
I0101 05:25:46.695893 10277 net.cpp:477] relu3 <- eltwise3
I0101 05:25:46.695904 10277 net.cpp:419] relu3 -> eltwise3 (in-place)
I0101 05:25:46.695965 10277 net.cpp:155] Setting up relu3
I0101 05:25:46.695978 10277 net.cpp:163] Top shape: 64 64 56 56 (12845056)
I0101 05:25:46.695991 10277 layer_factory.hpp:76] Creating layer eltwise3_relu3_0_split
I0101 05:25:46.696004 10277 net.cpp:110] Creating Layer eltwise3_relu3_0_split
I0101 05:25:46.696014 10277 net.cpp:477] eltwise3_relu3_0_split <- eltwise3
I0101 05:25:46.696027 10277 net.cpp:433] eltwise3_relu3_0_split -> eltwise3_relu3_0_split_0
I0101 05:25:46.696040 10277 net.cpp:433] eltwise3_relu3_0_split -> eltwise3_relu3_0_split_1
I0101 05:25:46.696054 10277 net.cpp:155] Setting up eltwise3_relu3_0_split
I0101 05:25:46.696065 10277 net.cpp:163] Top shape: 64 64 56 56 (12845056)
I0101 05:25:46.696076 10277 net.cpp:163] Top shape: 64 64 56 56 (12845056)
I0101 05:25:46.696086 10277 layer_factory.hpp:76] Creating layer relu3_p
I0101 05:25:46.696100 10277 net.cpp:110] Creating Layer relu3_p
I0101 05:25:46.696110 10277 net.cpp:477] relu3_p <- eltwise3_relu3_0_split_0
I0101 05:25:46.696122 10277 net.cpp:433] relu3_p -> relu3_p
I0101 05:25:46.697021 10277 net.cpp:155] Setting up relu3_p
I0101 05:25:46.697041 10277 net.cpp:163] Top shape: 64 128 28 28 (6422528)
I0101 05:25:46.697055 10277 layer_factory.hpp:76] Creating layer conv31
I0101 05:25:46.697079 10277 net.cpp:110] Creating Layer conv31
I0101 05:25:46.697089 10277 net.cpp:477] conv31 <- eltwise3_relu3_0_split_1
I0101 05:25:46.697103 10277 net.cpp:433] conv31 -> conv31
I0101 05:25:46.698478 10277 net.cpp:155] Setting up conv31
I0101 05:25:46.698500 10277 net.cpp:163] Top shape: 64 128 28 28 (6422528)
I0101 05:25:46.698514 10277 layer_factory.hpp:76] Creating layer bn31
I0101 05:25:46.698530 10277 net.cpp:110] Creating Layer bn31
I0101 05:25:46.698552 10277 net.cpp:477] bn31 <- conv31
I0101 05:25:46.698567 10277 net.cpp:433] bn31 -> bn31
I0101 05:25:46.698642 10277 net.cpp:155] Setting up bn31
I0101 05:25:46.698657 10277 net.cpp:163] Top shape: 64 128 28 28 (6422528)
I0101 05:25:46.698673 10277 layer_factory.hpp:76] Creating layer relu31
I0101 05:25:46.698685 10277 net.cpp:110] Creating Layer relu31
I0101 05:25:46.698696 10277 net.cpp:477] relu31 <- bn31
I0101 05:25:46.698709 10277 net.cpp:419] relu31 -> bn31 (in-place)
I0101 05:25:46.698876 10277 net.cpp:155] Setting up relu31
I0101 05:25:46.698895 10277 net.cpp:163] Top shape: 64 128 28 28 (6422528)
I0101 05:25:46.698906 10277 layer_factory.hpp:76] Creating layer conv32
I0101 05:25:46.698921 10277 net.cpp:110] Creating Layer conv32
I0101 05:25:46.698932 10277 net.cpp:477] conv32 <- bn31
I0101 05:25:46.698945 10277 net.cpp:433] conv32 -> conv32
I0101 05:25:46.700290 10277 net.cpp:155] Setting up conv32
I0101 05:25:46.700311 10277 net.cpp:163] Top shape: 64 128 28 28 (6422528)
I0101 05:25:46.700325 10277 layer_factory.hpp:76] Creating layer bn32
I0101 05:25:46.700341 10277 net.cpp:110] Creating Layer bn32
I0101 05:25:46.700352 10277 net.cpp:477] bn32 <- conv32
I0101 05:25:46.700366 10277 net.cpp:433] bn32 -> bn32
I0101 05:25:46.700445 10277 net.cpp:155] Setting up bn32
I0101 05:25:46.700461 10277 net.cpp:163] Top shape: 64 128 28 28 (6422528)
I0101 05:25:46.700477 10277 layer_factory.hpp:76] Creating layer relu32
I0101 05:25:46.700490 10277 net.cpp:110] Creating Layer relu32
I0101 05:25:46.700500 10277 net.cpp:477] relu32 <- bn32
I0101 05:25:46.700512 10277 net.cpp:419] relu32 -> bn32 (in-place)
I0101 05:25:46.700582 10277 net.cpp:155] Setting up relu32
I0101 05:25:46.700598 10277 net.cpp:163] Top shape: 64 128 28 28 (6422528)
I0101 05:25:46.700608 10277 layer_factory.hpp:76] Creating layer eltwise4
I0101 05:25:46.700623 10277 net.cpp:110] Creating Layer eltwise4
I0101 05:25:46.700633 10277 net.cpp:477] eltwise4 <- relu3_p
I0101 05:25:46.700644 10277 net.cpp:477] eltwise4 <- bn32
I0101 05:25:46.700657 10277 net.cpp:433] eltwise4 -> eltwise4
I0101 05:25:46.700671 10277 net.cpp:155] Setting up eltwise4
I0101 05:25:46.700695 10277 net.cpp:163] Top shape: 64 128 28 28 (6422528)
I0101 05:25:46.700706 10277 layer_factory.hpp:76] Creating layer relu4
I0101 05:25:46.700718 10277 net.cpp:110] Creating Layer relu4
I0101 05:25:46.700729 10277 net.cpp:477] relu4 <- eltwise4
I0101 05:25:46.700742 10277 net.cpp:419] relu4 -> eltwise4 (in-place)
I0101 05:25:46.700806 10277 net.cpp:155] Setting up relu4
I0101 05:25:46.700821 10277 net.cpp:163] Top shape: 64 128 28 28 (6422528)
I0101 05:25:46.700832 10277 layer_factory.hpp:76] Creating layer eltwise4_relu4_0_split
I0101 05:25:46.700845 10277 net.cpp:110] Creating Layer eltwise4_relu4_0_split
I0101 05:25:46.700855 10277 net.cpp:477] eltwise4_relu4_0_split <- eltwise4
I0101 05:25:46.700868 10277 net.cpp:433] eltwise4_relu4_0_split -> eltwise4_relu4_0_split_0
I0101 05:25:46.700882 10277 net.cpp:433] eltwise4_relu4_0_split -> eltwise4_relu4_0_split_1
I0101 05:25:46.700897 10277 net.cpp:155] Setting up eltwise4_relu4_0_split
I0101 05:25:46.700909 10277 net.cpp:163] Top shape: 64 128 28 28 (6422528)
I0101 05:25:46.700920 10277 net.cpp:163] Top shape: 64 128 28 28 (6422528)
I0101 05:25:46.700932 10277 layer_factory.hpp:76] Creating layer conv33
I0101 05:25:46.700945 10277 net.cpp:110] Creating Layer conv33
I0101 05:25:46.700955 10277 net.cpp:477] conv33 <- eltwise4_relu4_0_split_0
I0101 05:25:46.700969 10277 net.cpp:433] conv33 -> conv33
I0101 05:25:46.702879 10277 net.cpp:155] Setting up conv33
I0101 05:25:46.702901 10277 net.cpp:163] Top shape: 64 128 28 28 (6422528)
I0101 05:25:46.702916 10277 layer_factory.hpp:76] Creating layer bn33
I0101 05:25:46.702931 10277 net.cpp:110] Creating Layer bn33
I0101 05:25:46.702942 10277 net.cpp:477] bn33 <- conv33
I0101 05:25:46.702956 10277 net.cpp:433] bn33 -> bn33
I0101 05:25:46.703030 10277 net.cpp:155] Setting up bn33
I0101 05:25:46.703047 10277 net.cpp:163] Top shape: 64 128 28 28 (6422528)
I0101 05:25:46.703063 10277 layer_factory.hpp:76] Creating layer relu33
I0101 05:25:46.703088 10277 net.cpp:110] Creating Layer relu33
I0101 05:25:46.703099 10277 net.cpp:477] relu33 <- bn33
I0101 05:25:46.703112 10277 net.cpp:419] relu33 -> bn33 (in-place)
I0101 05:25:46.703282 10277 net.cpp:155] Setting up relu33
I0101 05:25:46.703302 10277 net.cpp:163] Top shape: 64 128 28 28 (6422528)
I0101 05:25:46.703313 10277 layer_factory.hpp:76] Creating layer conv34
I0101 05:25:46.703328 10277 net.cpp:110] Creating Layer conv34
I0101 05:25:46.703349 10277 net.cpp:477] conv34 <- bn33
I0101 05:25:46.703364 10277 net.cpp:433] conv34 -> conv34
I0101 05:25:46.705243 10277 net.cpp:155] Setting up conv34
I0101 05:25:46.705265 10277 net.cpp:163] Top shape: 64 128 28 28 (6422528)
I0101 05:25:46.705279 10277 layer_factory.hpp:76] Creating layer bn34
I0101 05:25:46.705301 10277 net.cpp:110] Creating Layer bn34
I0101 05:25:46.705312 10277 net.cpp:477] bn34 <- conv34
I0101 05:25:46.705327 10277 net.cpp:433] bn34 -> bn34
I0101 05:25:46.705405 10277 net.cpp:155] Setting up bn34
I0101 05:25:46.705420 10277 net.cpp:163] Top shape: 64 128 28 28 (6422528)
I0101 05:25:46.705451 10277 layer_factory.hpp:76] Creating layer relu34
I0101 05:25:46.705466 10277 net.cpp:110] Creating Layer relu34
I0101 05:25:46.705476 10277 net.cpp:477] relu34 <- bn34
I0101 05:25:46.705489 10277 net.cpp:419] relu34 -> bn34 (in-place)
I0101 05:25:46.705560 10277 net.cpp:155] Setting up relu34
I0101 05:25:46.705576 10277 net.cpp:163] Top shape: 64 128 28 28 (6422528)
I0101 05:25:46.705587 10277 layer_factory.hpp:76] Creating layer eltwise5
I0101 05:25:46.705600 10277 net.cpp:110] Creating Layer eltwise5
I0101 05:25:46.705611 10277 net.cpp:477] eltwise5 <- eltwise4_relu4_0_split_1
I0101 05:25:46.705623 10277 net.cpp:477] eltwise5 <- bn34
I0101 05:25:46.705636 10277 net.cpp:433] eltwise5 -> eltwise5
I0101 05:25:46.705651 10277 net.cpp:155] Setting up eltwise5
I0101 05:25:46.705662 10277 net.cpp:163] Top shape: 64 128 28 28 (6422528)
I0101 05:25:46.705672 10277 layer_factory.hpp:76] Creating layer relu5
I0101 05:25:46.705685 10277 net.cpp:110] Creating Layer relu5
I0101 05:25:46.705695 10277 net.cpp:477] relu5 <- eltwise5
I0101 05:25:46.705708 10277 net.cpp:419] relu5 -> eltwise5 (in-place)
I0101 05:25:46.705778 10277 net.cpp:155] Setting up relu5
I0101 05:25:46.705793 10277 net.cpp:163] Top shape: 64 128 28 28 (6422528)
I0101 05:25:46.705804 10277 layer_factory.hpp:76] Creating layer eltwise5_relu5_0_split
I0101 05:25:46.705817 10277 net.cpp:110] Creating Layer eltwise5_relu5_0_split
I0101 05:25:46.705827 10277 net.cpp:477] eltwise5_relu5_0_split <- eltwise5
I0101 05:25:46.705840 10277 net.cpp:433] eltwise5_relu5_0_split -> eltwise5_relu5_0_split_0
I0101 05:25:46.705853 10277 net.cpp:433] eltwise5_relu5_0_split -> eltwise5_relu5_0_split_1
I0101 05:25:46.705868 10277 net.cpp:155] Setting up eltwise5_relu5_0_split
I0101 05:25:46.705880 10277 net.cpp:163] Top shape: 64 128 28 28 (6422528)
I0101 05:25:46.705891 10277 net.cpp:163] Top shape: 64 128 28 28 (6422528)
I0101 05:25:46.705901 10277 layer_factory.hpp:76] Creating layer conv35
I0101 05:25:46.705915 10277 net.cpp:110] Creating Layer conv35
I0101 05:25:46.705925 10277 net.cpp:477] conv35 <- eltwise5_relu5_0_split_0
I0101 05:25:46.705938 10277 net.cpp:433] conv35 -> conv35
I0101 05:25:46.707829 10277 net.cpp:155] Setting up conv35
I0101 05:25:46.707850 10277 net.cpp:163] Top shape: 64 128 28 28 (6422528)
I0101 05:25:46.707865 10277 layer_factory.hpp:76] Creating layer bn35
I0101 05:25:46.707880 10277 net.cpp:110] Creating Layer bn35
I0101 05:25:46.707890 10277 net.cpp:477] bn35 <- conv35
I0101 05:25:46.707913 10277 net.cpp:433] bn35 -> bn35
I0101 05:25:46.707988 10277 net.cpp:155] Setting up bn35
I0101 05:25:46.708012 10277 net.cpp:163] Top shape: 64 128 28 28 (6422528)
I0101 05:25:46.708027 10277 layer_factory.hpp:76] Creating layer relu35
I0101 05:25:46.708040 10277 net.cpp:110] Creating Layer relu35
I0101 05:25:46.708050 10277 net.cpp:477] relu35 <- bn35
I0101 05:25:46.708063 10277 net.cpp:419] relu35 -> bn35 (in-place)
I0101 05:25:46.708135 10277 net.cpp:155] Setting up relu35
I0101 05:25:46.708163 10277 net.cpp:163] Top shape: 64 128 28 28 (6422528)
I0101 05:25:46.708174 10277 layer_factory.hpp:76] Creating layer conv36
I0101 05:25:46.708190 10277 net.cpp:110] Creating Layer conv36
I0101 05:25:46.708200 10277 net.cpp:477] conv36 <- bn35
I0101 05:25:46.708214 10277 net.cpp:433] conv36 -> conv36
I0101 05:25:46.710124 10277 net.cpp:155] Setting up conv36
I0101 05:25:46.710146 10277 net.cpp:163] Top shape: 64 128 28 28 (6422528)
I0101 05:25:46.710161 10277 layer_factory.hpp:76] Creating layer bn36
I0101 05:25:46.710175 10277 net.cpp:110] Creating Layer bn36
I0101 05:25:46.710186 10277 net.cpp:477] bn36 <- conv36
I0101 05:25:46.710201 10277 net.cpp:433] bn36 -> bn36
I0101 05:25:46.710278 10277 net.cpp:155] Setting up bn36
I0101 05:25:46.710294 10277 net.cpp:163] Top shape: 64 128 28 28 (6422528)
I0101 05:25:46.710309 10277 layer_factory.hpp:76] Creating layer relu36
I0101 05:25:46.710322 10277 net.cpp:110] Creating Layer relu36
I0101 05:25:46.710333 10277 net.cpp:477] relu36 <- bn36
I0101 05:25:46.710345 10277 net.cpp:419] relu36 -> bn36 (in-place)
I0101 05:25:46.710520 10277 net.cpp:155] Setting up relu36
I0101 05:25:46.710538 10277 net.cpp:163] Top shape: 64 128 28 28 (6422528)
I0101 05:25:46.710551 10277 layer_factory.hpp:76] Creating layer eltwise6
I0101 05:25:46.710564 10277 net.cpp:110] Creating Layer eltwise6
I0101 05:25:46.710574 10277 net.cpp:477] eltwise6 <- eltwise5_relu5_0_split_1
I0101 05:25:46.710587 10277 net.cpp:477] eltwise6 <- bn36
I0101 05:25:46.710599 10277 net.cpp:433] eltwise6 -> eltwise6
I0101 05:25:46.710615 10277 net.cpp:155] Setting up eltwise6
I0101 05:25:46.710628 10277 net.cpp:163] Top shape: 64 128 28 28 (6422528)
I0101 05:25:46.710638 10277 layer_factory.hpp:76] Creating layer relu6
I0101 05:25:46.710649 10277 net.cpp:110] Creating Layer relu6
I0101 05:25:46.710660 10277 net.cpp:477] relu6 <- eltwise6
I0101 05:25:46.710672 10277 net.cpp:419] relu6 -> eltwise6 (in-place)
I0101 05:25:46.710739 10277 net.cpp:155] Setting up relu6
I0101 05:25:46.710754 10277 net.cpp:163] Top shape: 64 128 28 28 (6422528)
I0101 05:25:46.710772 10277 layer_factory.hpp:76] Creating layer eltwise6_relu6_0_split
I0101 05:25:46.710784 10277 net.cpp:110] Creating Layer eltwise6_relu6_0_split
I0101 05:25:46.710795 10277 net.cpp:477] eltwise6_relu6_0_split <- eltwise6
I0101 05:25:46.710809 10277 net.cpp:433] eltwise6_relu6_0_split -> eltwise6_relu6_0_split_0
I0101 05:25:46.710824 10277 net.cpp:433] eltwise6_relu6_0_split -> eltwise6_relu6_0_split_1
I0101 05:25:46.710837 10277 net.cpp:155] Setting up eltwise6_relu6_0_split
I0101 05:25:46.710850 10277 net.cpp:163] Top shape: 64 128 28 28 (6422528)
I0101 05:25:46.710860 10277 net.cpp:163] Top shape: 64 128 28 28 (6422528)
I0101 05:25:46.710871 10277 layer_factory.hpp:76] Creating layer conv37
I0101 05:25:46.710886 10277 net.cpp:110] Creating Layer conv37
I0101 05:25:46.710896 10277 net.cpp:477] conv37 <- eltwise6_relu6_0_split_0
I0101 05:25:46.710911 10277 net.cpp:433] conv37 -> conv37
I0101 05:25:46.712842 10277 net.cpp:155] Setting up conv37
I0101 05:25:46.712863 10277 net.cpp:163] Top shape: 64 128 28 28 (6422528)
I0101 05:25:46.712878 10277 layer_factory.hpp:76] Creating layer bn37
I0101 05:25:46.712903 10277 net.cpp:110] Creating Layer bn37
I0101 05:25:46.712913 10277 net.cpp:477] bn37 <- conv37
I0101 05:25:46.714059 10277 net.cpp:433] bn37 -> bn37
I0101 05:25:46.714154 10277 net.cpp:155] Setting up bn37
I0101 05:25:46.714172 10277 net.cpp:163] Top shape: 64 128 28 28 (6422528)
I0101 05:25:46.714190 10277 layer_factory.hpp:76] Creating layer relu37
I0101 05:25:46.714205 10277 net.cpp:110] Creating Layer relu37
I0101 05:25:46.714215 10277 net.cpp:477] relu37 <- bn37
I0101 05:25:46.714228 10277 net.cpp:419] relu37 -> bn37 (in-place)
I0101 05:25:46.714316 10277 net.cpp:155] Setting up relu37
I0101 05:25:46.714332 10277 net.cpp:163] Top shape: 64 128 28 28 (6422528)
I0101 05:25:46.714344 10277 layer_factory.hpp:76] Creating layer conv38
I0101 05:25:46.714365 10277 net.cpp:110] Creating Layer conv38
I0101 05:25:46.714391 10277 net.cpp:477] conv38 <- bn37
I0101 05:25:46.714407 10277 net.cpp:433] conv38 -> conv38
I0101 05:25:46.716330 10277 net.cpp:155] Setting up conv38
I0101 05:25:46.716352 10277 net.cpp:163] Top shape: 64 128 28 28 (6422528)
I0101 05:25:46.716368 10277 layer_factory.hpp:76] Creating layer bn38
I0101 05:25:46.716385 10277 net.cpp:110] Creating Layer bn38
I0101 05:25:46.716397 10277 net.cpp:477] bn38 <- conv38
I0101 05:25:46.716410 10277 net.cpp:433] bn38 -> bn38
I0101 05:25:46.716490 10277 net.cpp:155] Setting up bn38
I0101 05:25:46.716506 10277 net.cpp:163] Top shape: 64 128 28 28 (6422528)
I0101 05:25:46.716522 10277 layer_factory.hpp:76] Creating layer relu38
I0101 05:25:46.716536 10277 net.cpp:110] Creating Layer relu38
I0101 05:25:46.716547 10277 net.cpp:477] relu38 <- bn38
I0101 05:25:46.716562 10277 net.cpp:419] relu38 -> bn38 (in-place)
I0101 05:25:46.716632 10277 net.cpp:155] Setting up relu38
I0101 05:25:46.716648 10277 net.cpp:163] Top shape: 64 128 28 28 (6422528)
I0101 05:25:46.716660 10277 layer_factory.hpp:76] Creating layer eltwise7
I0101 05:25:46.716673 10277 net.cpp:110] Creating Layer eltwise7
I0101 05:25:46.716684 10277 net.cpp:477] eltwise7 <- eltwise6_relu6_0_split_1
I0101 05:25:46.716696 10277 net.cpp:477] eltwise7 <- bn38
I0101 05:25:46.716711 10277 net.cpp:433] eltwise7 -> eltwise7
I0101 05:25:46.716724 10277 net.cpp:155] Setting up eltwise7
I0101 05:25:46.716737 10277 net.cpp:163] Top shape: 64 128 28 28 (6422528)
I0101 05:25:46.716747 10277 layer_factory.hpp:76] Creating layer relu7
I0101 05:25:46.716760 10277 net.cpp:110] Creating Layer relu7
I0101 05:25:46.716770 10277 net.cpp:477] relu7 <- eltwise7
I0101 05:25:46.716784 10277 net.cpp:419] relu7 -> eltwise7 (in-place)
I0101 05:25:46.716961 10277 net.cpp:155] Setting up relu7
I0101 05:25:46.716980 10277 net.cpp:163] Top shape: 64 128 28 28 (6422528)
I0101 05:25:46.716991 10277 layer_factory.hpp:76] Creating layer eltwise7_relu7_0_split
I0101 05:25:46.717005 10277 net.cpp:110] Creating Layer eltwise7_relu7_0_split
I0101 05:25:46.717015 10277 net.cpp:477] eltwise7_relu7_0_split <- eltwise7
I0101 05:25:46.717028 10277 net.cpp:433] eltwise7_relu7_0_split -> eltwise7_relu7_0_split_0
I0101 05:25:46.717042 10277 net.cpp:433] eltwise7_relu7_0_split -> eltwise7_relu7_0_split_1
I0101 05:25:46.717057 10277 net.cpp:155] Setting up eltwise7_relu7_0_split
I0101 05:25:46.717069 10277 net.cpp:163] Top shape: 64 128 28 28 (6422528)
I0101 05:25:46.717080 10277 net.cpp:163] Top shape: 64 128 28 28 (6422528)
I0101 05:25:46.717090 10277 layer_factory.hpp:76] Creating layer relu7_p
I0101 05:25:46.717105 10277 net.cpp:110] Creating Layer relu7_p
I0101 05:25:46.717115 10277 net.cpp:477] relu7_p <- eltwise7_relu7_0_split_0
I0101 05:25:46.717128 10277 net.cpp:433] relu7_p -> relu7_p
I0101 05:25:46.717746 10277 net.cpp:155] Setting up relu7_p
I0101 05:25:46.717772 10277 net.cpp:163] Top shape: 64 256 14 14 (3211264)
I0101 05:25:46.717787 10277 layer_factory.hpp:76] Creating layer conv41
I0101 05:25:46.717803 10277 net.cpp:110] Creating Layer conv41
I0101 05:25:46.717813 10277 net.cpp:477] conv41 <- eltwise7_relu7_0_split_1
I0101 05:25:46.717852 10277 net.cpp:433] conv41 -> conv41
I0101 05:25:46.720824 10277 net.cpp:155] Setting up conv41
I0101 05:25:46.720844 10277 net.cpp:163] Top shape: 64 256 14 14 (3211264)
I0101 05:25:46.720859 10277 layer_factory.hpp:76] Creating layer bn41
I0101 05:25:46.720875 10277 net.cpp:110] Creating Layer bn41
I0101 05:25:46.720885 10277 net.cpp:477] bn41 <- conv41
I0101 05:25:46.720899 10277 net.cpp:433] bn41 -> bn41
I0101 05:25:46.720981 10277 net.cpp:155] Setting up bn41
I0101 05:25:46.720998 10277 net.cpp:163] Top shape: 64 256 14 14 (3211264)
I0101 05:25:46.721014 10277 layer_factory.hpp:76] Creating layer relu41
I0101 05:25:46.721027 10277 net.cpp:110] Creating Layer relu41
I0101 05:25:46.721045 10277 net.cpp:477] relu41 <- bn41
I0101 05:25:46.721058 10277 net.cpp:419] relu41 -> bn41 (in-place)
I0101 05:25:46.721129 10277 net.cpp:155] Setting up relu41
I0101 05:25:46.721144 10277 net.cpp:163] Top shape: 64 256 14 14 (3211264)
I0101 05:25:46.721169 10277 layer_factory.hpp:76] Creating layer conv42
I0101 05:25:46.721185 10277 net.cpp:110] Creating Layer conv42
I0101 05:25:46.721195 10277 net.cpp:477] conv42 <- bn41
I0101 05:25:46.721210 10277 net.cpp:433] conv42 -> conv42
I0101 05:25:46.726941 10277 net.cpp:155] Setting up conv42
I0101 05:25:46.726966 10277 net.cpp:163] Top shape: 64 256 14 14 (3211264)
I0101 05:25:46.726981 10277 layer_factory.hpp:76] Creating layer bn42
I0101 05:25:46.726997 10277 net.cpp:110] Creating Layer bn42
I0101 05:25:46.727008 10277 net.cpp:477] bn42 <- conv42
I0101 05:25:46.727023 10277 net.cpp:433] bn42 -> bn42
I0101 05:25:46.727110 10277 net.cpp:155] Setting up bn42
I0101 05:25:46.727126 10277 net.cpp:163] Top shape: 64 256 14 14 (3211264)
I0101 05:25:46.727143 10277 layer_factory.hpp:76] Creating layer relu42
I0101 05:25:46.727155 10277 net.cpp:110] Creating Layer relu42
I0101 05:25:46.727165 10277 net.cpp:477] relu42 <- bn42
I0101 05:25:46.727179 10277 net.cpp:419] relu42 -> bn42 (in-place)
I0101 05:25:46.727248 10277 net.cpp:155] Setting up relu42
I0101 05:25:46.727263 10277 net.cpp:163] Top shape: 64 256 14 14 (3211264)
I0101 05:25:46.727274 10277 layer_factory.hpp:76] Creating layer eltwise8
I0101 05:25:46.727288 10277 net.cpp:110] Creating Layer eltwise8
I0101 05:25:46.727298 10277 net.cpp:477] eltwise8 <- relu7_p
I0101 05:25:46.727310 10277 net.cpp:477] eltwise8 <- bn42
I0101 05:25:46.727324 10277 net.cpp:433] eltwise8 -> eltwise8
I0101 05:25:46.727339 10277 net.cpp:155] Setting up eltwise8
I0101 05:25:46.727351 10277 net.cpp:163] Top shape: 64 256 14 14 (3211264)
I0101 05:25:46.727361 10277 layer_factory.hpp:76] Creating layer relu8
I0101 05:25:46.727375 10277 net.cpp:110] Creating Layer relu8
I0101 05:25:46.727385 10277 net.cpp:477] relu8 <- eltwise8
I0101 05:25:46.727396 10277 net.cpp:419] relu8 -> eltwise8 (in-place)
I0101 05:25:46.727466 10277 net.cpp:155] Setting up relu8
I0101 05:25:46.727481 10277 net.cpp:163] Top shape: 64 256 14 14 (3211264)
I0101 05:25:46.727493 10277 layer_factory.hpp:76] Creating layer eltwise8_relu8_0_split
I0101 05:25:46.727504 10277 net.cpp:110] Creating Layer eltwise8_relu8_0_split
I0101 05:25:46.727514 10277 net.cpp:477] eltwise8_relu8_0_split <- eltwise8
I0101 05:25:46.727527 10277 net.cpp:433] eltwise8_relu8_0_split -> eltwise8_relu8_0_split_0
I0101 05:25:46.727541 10277 net.cpp:433] eltwise8_relu8_0_split -> eltwise8_relu8_0_split_1
I0101 05:25:46.727566 10277 net.cpp:155] Setting up eltwise8_relu8_0_split
I0101 05:25:46.727577 10277 net.cpp:163] Top shape: 64 256 14 14 (3211264)
I0101 05:25:46.727589 10277 net.cpp:163] Top shape: 64 256 14 14 (3211264)
I0101 05:25:46.727599 10277 layer_factory.hpp:76] Creating layer conv43
I0101 05:25:46.727614 10277 net.cpp:110] Creating Layer conv43
I0101 05:25:46.727624 10277 net.cpp:477] conv43 <- eltwise8_relu8_0_split_0
I0101 05:25:46.727639 10277 net.cpp:433] conv43 -> conv43
I0101 05:25:46.733302 10277 net.cpp:155] Setting up conv43
I0101 05:25:46.733325 10277 net.cpp:163] Top shape: 64 256 14 14 (3211264)
I0101 05:25:46.733340 10277 layer_factory.hpp:76] Creating layer bn43
I0101 05:25:46.733356 10277 net.cpp:110] Creating Layer bn43
I0101 05:25:46.733367 10277 net.cpp:477] bn43 <- conv43
I0101 05:25:46.733382 10277 net.cpp:433] bn43 -> bn43
I0101 05:25:46.733466 10277 net.cpp:155] Setting up bn43
I0101 05:25:46.733482 10277 net.cpp:163] Top shape: 64 256 14 14 (3211264)
I0101 05:25:46.733499 10277 layer_factory.hpp:76] Creating layer relu43
I0101 05:25:46.733512 10277 net.cpp:110] Creating Layer relu43
I0101 05:25:46.733523 10277 net.cpp:477] relu43 <- bn43
I0101 05:25:46.733537 10277 net.cpp:419] relu43 -> bn43 (in-place)
I0101 05:25:46.733731 10277 net.cpp:155] Setting up relu43
I0101 05:25:46.733752 10277 net.cpp:163] Top shape: 64 256 14 14 (3211264)
I0101 05:25:46.733762 10277 layer_factory.hpp:76] Creating layer conv44
I0101 05:25:46.733777 10277 net.cpp:110] Creating Layer conv44
I0101 05:25:46.733788 10277 net.cpp:477] conv44 <- bn43
I0101 05:25:46.733803 10277 net.cpp:433] conv44 -> conv44
I0101 05:25:46.739419 10277 net.cpp:155] Setting up conv44
I0101 05:25:46.739481 10277 net.cpp:163] Top shape: 64 256 14 14 (3211264)
I0101 05:25:46.739497 10277 layer_factory.hpp:76] Creating layer bn44
I0101 05:25:46.739512 10277 net.cpp:110] Creating Layer bn44
I0101 05:25:46.739523 10277 net.cpp:477] bn44 <- conv44
I0101 05:25:46.739537 10277 net.cpp:433] bn44 -> bn44
I0101 05:25:46.739641 10277 net.cpp:155] Setting up bn44
I0101 05:25:46.739658 10277 net.cpp:163] Top shape: 64 256 14 14 (3211264)
I0101 05:25:46.739675 10277 layer_factory.hpp:76] Creating layer relu44
I0101 05:25:46.739688 10277 net.cpp:110] Creating Layer relu44
I0101 05:25:46.739698 10277 net.cpp:477] relu44 <- bn44
I0101 05:25:46.739711 10277 net.cpp:419] relu44 -> bn44 (in-place)
I0101 05:25:46.739785 10277 net.cpp:155] Setting up relu44
I0101 05:25:46.739801 10277 net.cpp:163] Top shape: 64 256 14 14 (3211264)
I0101 05:25:46.739812 10277 layer_factory.hpp:76] Creating layer eltwise9
I0101 05:25:46.739826 10277 net.cpp:110] Creating Layer eltwise9
I0101 05:25:46.739836 10277 net.cpp:477] eltwise9 <- eltwise8_relu8_0_split_1
I0101 05:25:46.739848 10277 net.cpp:477] eltwise9 <- bn44
I0101 05:25:46.739861 10277 net.cpp:433] eltwise9 -> eltwise9
I0101 05:25:46.739876 10277 net.cpp:155] Setting up eltwise9
I0101 05:25:46.739897 10277 net.cpp:163] Top shape: 64 256 14 14 (3211264)
I0101 05:25:46.739907 10277 layer_factory.hpp:76] Creating layer relu9
I0101 05:25:46.739933 10277 net.cpp:110] Creating Layer relu9
I0101 05:25:46.739943 10277 net.cpp:477] relu9 <- eltwise9
I0101 05:25:46.739955 10277 net.cpp:419] relu9 -> eltwise9 (in-place)
I0101 05:25:46.740027 10277 net.cpp:155] Setting up relu9
I0101 05:25:46.740042 10277 net.cpp:163] Top shape: 64 256 14 14 (3211264)
I0101 05:25:46.740053 10277 layer_factory.hpp:76] Creating layer eltwise9_relu9_0_split
I0101 05:25:46.740068 10277 net.cpp:110] Creating Layer eltwise9_relu9_0_split
I0101 05:25:46.740078 10277 net.cpp:477] eltwise9_relu9_0_split <- eltwise9
I0101 05:25:46.740092 10277 net.cpp:433] eltwise9_relu9_0_split -> eltwise9_relu9_0_split_0
I0101 05:25:46.740105 10277 net.cpp:433] eltwise9_relu9_0_split -> eltwise9_relu9_0_split_1
I0101 05:25:46.740118 10277 net.cpp:155] Setting up eltwise9_relu9_0_split
I0101 05:25:46.740130 10277 net.cpp:163] Top shape: 64 256 14 14 (3211264)
I0101 05:25:46.740141 10277 net.cpp:163] Top shape: 64 256 14 14 (3211264)
I0101 05:25:46.740150 10277 layer_factory.hpp:76] Creating layer conv45
I0101 05:25:46.740165 10277 net.cpp:110] Creating Layer conv45
I0101 05:25:46.740175 10277 net.cpp:477] conv45 <- eltwise9_relu9_0_split_0
I0101 05:25:46.740191 10277 net.cpp:433] conv45 -> conv45
I0101 05:25:46.745815 10277 net.cpp:155] Setting up conv45
I0101 05:25:46.745836 10277 net.cpp:163] Top shape: 64 256 14 14 (3211264)
I0101 05:25:46.745851 10277 layer_factory.hpp:76] Creating layer bn45
I0101 05:25:46.745867 10277 net.cpp:110] Creating Layer bn45
I0101 05:25:46.745878 10277 net.cpp:477] bn45 <- conv45
I0101 05:25:46.745894 10277 net.cpp:433] bn45 -> bn45
I0101 05:25:46.745981 10277 net.cpp:155] Setting up bn45
I0101 05:25:46.746001 10277 net.cpp:163] Top shape: 64 256 14 14 (3211264)
I0101 05:25:46.746016 10277 layer_factory.hpp:76] Creating layer relu45
I0101 05:25:46.746029 10277 net.cpp:110] Creating Layer relu45
I0101 05:25:46.746040 10277 net.cpp:477] relu45 <- bn45
I0101 05:25:46.746052 10277 net.cpp:419] relu45 -> bn45 (in-place)
I0101 05:25:46.746239 10277 net.cpp:155] Setting up relu45
I0101 05:25:46.746258 10277 net.cpp:163] Top shape: 64 256 14 14 (3211264)
I0101 05:25:46.746268 10277 layer_factory.hpp:76] Creating layer conv46
I0101 05:25:46.746284 10277 net.cpp:110] Creating Layer conv46
I0101 05:25:46.746294 10277 net.cpp:477] conv46 <- bn45
I0101 05:25:46.746309 10277 net.cpp:433] conv46 -> conv46
I0101 05:25:46.751880 10277 net.cpp:155] Setting up conv46
I0101 05:25:46.751895 10277 net.cpp:163] Top shape: 64 256 14 14 (3211264)
I0101 05:25:46.751945 10277 layer_factory.hpp:76] Creating layer bn46
I0101 05:25:46.751962 10277 net.cpp:110] Creating Layer bn46
I0101 05:25:46.751974 10277 net.cpp:477] bn46 <- conv46
I0101 05:25:46.759915 10277 net.cpp:433] bn46 -> bn46
I0101 05:25:46.760037 10277 net.cpp:155] Setting up bn46
I0101 05:25:46.760059 10277 net.cpp:163] Top shape: 64 256 14 14 (3211264)
I0101 05:25:46.760103 10277 layer_factory.hpp:76] Creating layer relu46
I0101 05:25:46.760121 10277 net.cpp:110] Creating Layer relu46
I0101 05:25:46.760138 10277 net.cpp:477] relu46 <- bn46
I0101 05:25:46.760154 10277 net.cpp:419] relu46 -> bn46 (in-place)
I0101 05:25:46.760239 10277 net.cpp:155] Setting up relu46
I0101 05:25:46.760258 10277 net.cpp:163] Top shape: 64 256 14 14 (3211264)
I0101 05:25:46.760273 10277 layer_factory.hpp:76] Creating layer eltwise10
I0101 05:25:46.760289 10277 net.cpp:110] Creating Layer eltwise10
I0101 05:25:46.760303 10277 net.cpp:477] eltwise10 <- eltwise9_relu9_0_split_1
I0101 05:25:46.760316 10277 net.cpp:477] eltwise10 <- bn46
I0101 05:25:46.760331 10277 net.cpp:433] eltwise10 -> eltwise10
I0101 05:25:46.760349 10277 net.cpp:155] Setting up eltwise10
I0101 05:25:46.760362 10277 net.cpp:163] Top shape: 64 256 14 14 (3211264)
I0101 05:25:46.760375 10277 layer_factory.hpp:76] Creating layer relu10
I0101 05:25:46.760390 10277 net.cpp:110] Creating Layer relu10
I0101 05:25:46.760404 10277 net.cpp:477] relu10 <- eltwise10
I0101 05:25:46.760418 10277 net.cpp:419] relu10 -> eltwise10 (in-place)
I0101 05:25:46.760496 10277 net.cpp:155] Setting up relu10
I0101 05:25:46.760514 10277 net.cpp:163] Top shape: 64 256 14 14 (3211264)
I0101 05:25:46.760526 10277 layer_factory.hpp:76] Creating layer eltwise10_relu10_0_split
I0101 05:25:46.760543 10277 net.cpp:110] Creating Layer eltwise10_relu10_0_split
I0101 05:25:46.760556 10277 net.cpp:477] eltwise10_relu10_0_split <- eltwise10
I0101 05:25:46.760571 10277 net.cpp:433] eltwise10_relu10_0_split -> eltwise10_relu10_0_split_0
I0101 05:25:46.760587 10277 net.cpp:433] eltwise10_relu10_0_split -> eltwise10_relu10_0_split_1
I0101 05:25:46.760603 10277 net.cpp:155] Setting up eltwise10_relu10_0_split
I0101 05:25:46.760617 10277 net.cpp:163] Top shape: 64 256 14 14 (3211264)
I0101 05:25:46.760630 10277 net.cpp:163] Top shape: 64 256 14 14 (3211264)
I0101 05:25:46.760643 10277 layer_factory.hpp:76] Creating layer conv47
I0101 05:25:46.760658 10277 net.cpp:110] Creating Layer conv47
I0101 05:25:46.760670 10277 net.cpp:477] conv47 <- eltwise10_relu10_0_split_0
I0101 05:25:46.760687 10277 net.cpp:433] conv47 -> conv47
I0101 05:25:46.766559 10277 net.cpp:155] Setting up conv47
I0101 05:25:46.766604 10277 net.cpp:163] Top shape: 64 256 14 14 (3211264)
I0101 05:25:46.766628 10277 layer_factory.hpp:76] Creating layer bn47
I0101 05:25:46.766647 10277 net.cpp:110] Creating Layer bn47
I0101 05:25:46.766669 10277 net.cpp:477] bn47 <- conv47
I0101 05:25:46.766692 10277 net.cpp:433] bn47 -> bn47
I0101 05:25:46.766795 10277 net.cpp:155] Setting up bn47
I0101 05:25:46.766816 10277 net.cpp:163] Top shape: 64 256 14 14 (3211264)
I0101 05:25:46.766834 10277 layer_factory.hpp:76] Creating layer relu47
I0101 05:25:46.766850 10277 net.cpp:110] Creating Layer relu47
I0101 05:25:46.766862 10277 net.cpp:477] relu47 <- bn47
I0101 05:25:46.766876 10277 net.cpp:419] relu47 -> bn47 (in-place)
I0101 05:25:46.766963 10277 net.cpp:155] Setting up relu47
I0101 05:25:46.766983 10277 net.cpp:163] Top shape: 64 256 14 14 (3211264)
I0101 05:25:46.766995 10277 layer_factory.hpp:76] Creating layer conv48
I0101 05:25:46.767011 10277 net.cpp:110] Creating Layer conv48
I0101 05:25:46.767024 10277 net.cpp:477] conv48 <- bn47
I0101 05:25:46.767045 10277 net.cpp:433] conv48 -> conv48
I0101 05:25:46.772840 10277 net.cpp:155] Setting up conv48
I0101 05:25:46.772863 10277 net.cpp:163] Top shape: 64 256 14 14 (3211264)
I0101 05:25:46.772888 10277 layer_factory.hpp:76] Creating layer bn48
I0101 05:25:46.772910 10277 net.cpp:110] Creating Layer bn48
I0101 05:25:46.772928 10277 net.cpp:477] bn48 <- conv48
I0101 05:25:46.772949 10277 net.cpp:433] bn48 -> bn48
I0101 05:25:46.773037 10277 net.cpp:155] Setting up bn48
I0101 05:25:46.773054 10277 net.cpp:163] Top shape: 64 256 14 14 (3211264)
I0101 05:25:46.773089 10277 layer_factory.hpp:76] Creating layer relu48
I0101 05:25:46.773107 10277 net.cpp:110] Creating Layer relu48
I0101 05:25:46.773118 10277 net.cpp:477] relu48 <- bn48
I0101 05:25:46.773129 10277 net.cpp:419] relu48 -> bn48 (in-place)
I0101 05:25:46.773327 10277 net.cpp:155] Setting up relu48
I0101 05:25:46.773347 10277 net.cpp:163] Top shape: 64 256 14 14 (3211264)
I0101 05:25:46.773360 10277 layer_factory.hpp:76] Creating layer eltwise11
I0101 05:25:46.773373 10277 net.cpp:110] Creating Layer eltwise11
I0101 05:25:46.773385 10277 net.cpp:477] eltwise11 <- eltwise10_relu10_0_split_1
I0101 05:25:46.773397 10277 net.cpp:477] eltwise11 <- bn48
I0101 05:25:46.773413 10277 net.cpp:433] eltwise11 -> eltwise11
I0101 05:25:46.773429 10277 net.cpp:155] Setting up eltwise11
I0101 05:25:46.773442 10277 net.cpp:163] Top shape: 64 256 14 14 (3211264)
I0101 05:25:46.773453 10277 layer_factory.hpp:76] Creating layer relu11
I0101 05:25:46.773468 10277 net.cpp:110] Creating Layer relu11
I0101 05:25:46.773478 10277 net.cpp:477] relu11 <- eltwise11
I0101 05:25:46.773491 10277 net.cpp:419] relu11 -> eltwise11 (in-place)
I0101 05:25:46.773563 10277 net.cpp:155] Setting up relu11
I0101 05:25:46.773579 10277 net.cpp:163] Top shape: 64 256 14 14 (3211264)
I0101 05:25:46.773596 10277 layer_factory.hpp:76] Creating layer eltwise11_relu11_0_split
I0101 05:25:46.773612 10277 net.cpp:110] Creating Layer eltwise11_relu11_0_split
I0101 05:25:46.773634 10277 net.cpp:477] eltwise11_relu11_0_split <- eltwise11
I0101 05:25:46.773656 10277 net.cpp:433] eltwise11_relu11_0_split -> eltwise11_relu11_0_split_0
I0101 05:25:46.773674 10277 net.cpp:433] eltwise11_relu11_0_split -> eltwise11_relu11_0_split_1
I0101 05:25:46.773689 10277 net.cpp:155] Setting up eltwise11_relu11_0_split
I0101 05:25:46.773700 10277 net.cpp:163] Top shape: 64 256 14 14 (3211264)
I0101 05:25:46.773711 10277 net.cpp:163] Top shape: 64 256 14 14 (3211264)
I0101 05:25:46.773721 10277 layer_factory.hpp:76] Creating layer conv49
I0101 05:25:46.773736 10277 net.cpp:110] Creating Layer conv49
I0101 05:25:46.773746 10277 net.cpp:477] conv49 <- eltwise11_relu11_0_split_0
I0101 05:25:46.773761 10277 net.cpp:433] conv49 -> conv49
I0101 05:25:46.779397 10277 net.cpp:155] Setting up conv49
I0101 05:25:46.779422 10277 net.cpp:163] Top shape: 64 256 14 14 (3211264)
I0101 05:25:46.779438 10277 layer_factory.hpp:76] Creating layer bn49
I0101 05:25:46.779453 10277 net.cpp:110] Creating Layer bn49
I0101 05:25:46.779464 10277 net.cpp:477] bn49 <- conv49
I0101 05:25:46.779479 10277 net.cpp:433] bn49 -> bn49
I0101 05:25:46.779572 10277 net.cpp:155] Setting up bn49
I0101 05:25:46.779587 10277 net.cpp:163] Top shape: 64 256 14 14 (3211264)
I0101 05:25:46.779603 10277 layer_factory.hpp:76] Creating layer relu49
I0101 05:25:46.779616 10277 net.cpp:110] Creating Layer relu49
I0101 05:25:46.779626 10277 net.cpp:477] relu49 <- bn49
I0101 05:25:46.779639 10277 net.cpp:419] relu49 -> bn49 (in-place)
I0101 05:25:46.779714 10277 net.cpp:155] Setting up relu49
I0101 05:25:46.779731 10277 net.cpp:163] Top shape: 64 256 14 14 (3211264)
I0101 05:25:46.779742 10277 layer_factory.hpp:76] Creating layer conv410
I0101 05:25:46.779754 10277 net.cpp:110] Creating Layer conv410
I0101 05:25:46.779765 10277 net.cpp:477] conv410 <- bn49
I0101 05:25:46.779781 10277 net.cpp:433] conv410 -> conv410
I0101 05:25:46.785593 10277 net.cpp:155] Setting up conv410
I0101 05:25:46.785624 10277 net.cpp:163] Top shape: 64 256 14 14 (3211264)
I0101 05:25:46.785640 10277 layer_factory.hpp:76] Creating layer bn410
I0101 05:25:46.785655 10277 net.cpp:110] Creating Layer bn410
I0101 05:25:46.785666 10277 net.cpp:477] bn410 <- conv410
I0101 05:25:46.785691 10277 net.cpp:433] bn410 -> bn410
I0101 05:25:46.785787 10277 net.cpp:155] Setting up bn410
I0101 05:25:46.785805 10277 net.cpp:163] Top shape: 64 256 14 14 (3211264)
I0101 05:25:46.785821 10277 layer_factory.hpp:76] Creating layer relu410
I0101 05:25:46.785835 10277 net.cpp:110] Creating Layer relu410
I0101 05:25:46.785845 10277 net.cpp:477] relu410 <- bn410
I0101 05:25:46.785862 10277 net.cpp:419] relu410 -> bn410 (in-place)
I0101 05:25:46.785956 10277 net.cpp:155] Setting up relu410
I0101 05:25:46.785972 10277 net.cpp:163] Top shape: 64 256 14 14 (3211264)
I0101 05:25:46.785984 10277 layer_factory.hpp:76] Creating layer eltwise12
I0101 05:25:46.785997 10277 net.cpp:110] Creating Layer eltwise12
I0101 05:25:46.786008 10277 net.cpp:477] eltwise12 <- eltwise11_relu11_0_split_1
I0101 05:25:46.786020 10277 net.cpp:477] eltwise12 <- bn410
I0101 05:25:46.786036 10277 net.cpp:433] eltwise12 -> eltwise12
I0101 05:25:46.786051 10277 net.cpp:155] Setting up eltwise12
I0101 05:25:46.786063 10277 net.cpp:163] Top shape: 64 256 14 14 (3211264)
I0101 05:25:46.786074 10277 layer_factory.hpp:76] Creating layer relu12
I0101 05:25:46.786087 10277 net.cpp:110] Creating Layer relu12
I0101 05:25:46.786098 10277 net.cpp:477] relu12 <- eltwise12
I0101 05:25:46.786109 10277 net.cpp:419] relu12 -> eltwise12 (in-place)
I0101 05:25:46.786294 10277 net.cpp:155] Setting up relu12
I0101 05:25:46.786314 10277 net.cpp:163] Top shape: 64 256 14 14 (3211264)
I0101 05:25:46.786325 10277 layer_factory.hpp:76] Creating layer eltwise12_relu12_0_split
I0101 05:25:46.786339 10277 net.cpp:110] Creating Layer eltwise12_relu12_0_split
I0101 05:25:46.786348 10277 net.cpp:477] eltwise12_relu12_0_split <- eltwise12
I0101 05:25:46.786361 10277 net.cpp:433] eltwise12_relu12_0_split -> eltwise12_relu12_0_split_0
I0101 05:25:46.786376 10277 net.cpp:433] eltwise12_relu12_0_split -> eltwise12_relu12_0_split_1
I0101 05:25:46.786391 10277 net.cpp:433] eltwise12_relu12_0_split -> eltwise12_relu12_0_split_2
I0101 05:25:46.786406 10277 net.cpp:155] Setting up eltwise12_relu12_0_split
I0101 05:25:46.786418 10277 net.cpp:163] Top shape: 64 256 14 14 (3211264)
I0101 05:25:46.786430 10277 net.cpp:163] Top shape: 64 256 14 14 (3211264)
I0101 05:25:46.786442 10277 net.cpp:163] Top shape: 64 256 14 14 (3211264)
I0101 05:25:46.786451 10277 layer_factory.hpp:76] Creating layer conv411
I0101 05:25:46.786468 10277 net.cpp:110] Creating Layer conv411
I0101 05:25:46.786479 10277 net.cpp:477] conv411 <- eltwise12_relu12_0_split_0
I0101 05:25:46.786495 10277 net.cpp:433] conv411 -> conv411
I0101 05:25:46.792285 10277 net.cpp:155] Setting up conv411
I0101 05:25:46.792310 10277 net.cpp:163] Top shape: 64 256 14 14 (3211264)
I0101 05:25:46.792357 10277 layer_factory.hpp:76] Creating layer bn411
I0101 05:25:46.792382 10277 net.cpp:110] Creating Layer bn411
I0101 05:25:46.792397 10277 net.cpp:477] bn411 <- conv411
I0101 05:25:46.792420 10277 net.cpp:433] bn411 -> bn411
I0101 05:25:46.792525 10277 net.cpp:155] Setting up bn411
I0101 05:25:46.792543 10277 net.cpp:163] Top shape: 64 256 14 14 (3211264)
I0101 05:25:46.792560 10277 layer_factory.hpp:76] Creating layer relu411
I0101 05:25:46.792579 10277 net.cpp:110] Creating Layer relu411
I0101 05:25:46.792593 10277 net.cpp:477] relu411 <- bn411
I0101 05:25:46.792608 10277 net.cpp:419] relu411 -> bn411 (in-place)
I0101 05:25:46.792688 10277 net.cpp:155] Setting up relu411
I0101 05:25:46.792706 10277 net.cpp:163] Top shape: 64 256 14 14 (3211264)
I0101 05:25:46.792718 10277 layer_factory.hpp:76] Creating layer conv412
I0101 05:25:46.792737 10277 net.cpp:110] Creating Layer conv412
I0101 05:25:46.792750 10277 net.cpp:477] conv412 <- bn411
I0101 05:25:46.792765 10277 net.cpp:433] conv412 -> conv412
I0101 05:25:46.798503 10277 net.cpp:155] Setting up conv412
I0101 05:25:46.798527 10277 net.cpp:163] Top shape: 64 256 14 14 (3211264)
I0101 05:25:46.798542 10277 layer_factory.hpp:76] Creating layer bn412
I0101 05:25:46.798559 10277 net.cpp:110] Creating Layer bn412
I0101 05:25:46.798571 10277 net.cpp:477] bn412 <- conv412
I0101 05:25:46.798588 10277 net.cpp:433] bn412 -> bn412
I0101 05:25:46.798683 10277 net.cpp:155] Setting up bn412
I0101 05:25:46.798701 10277 net.cpp:163] Top shape: 64 256 14 14 (3211264)
I0101 05:25:46.798717 10277 layer_factory.hpp:76] Creating layer relu412
I0101 05:25:46.798732 10277 net.cpp:110] Creating Layer relu412
I0101 05:25:46.798743 10277 net.cpp:477] relu412 <- bn412
I0101 05:25:46.798758 10277 net.cpp:419] relu412 -> bn412 (in-place)
I0101 05:25:46.798851 10277 net.cpp:155] Setting up relu412
I0101 05:25:46.798867 10277 net.cpp:163] Top shape: 64 256 14 14 (3211264)
I0101 05:25:46.798878 10277 layer_factory.hpp:76] Creating layer eltwise13
I0101 05:25:46.798894 10277 net.cpp:110] Creating Layer eltwise13
I0101 05:25:46.798907 10277 net.cpp:477] eltwise13 <- eltwise12_relu12_0_split_1
I0101 05:25:46.798918 10277 net.cpp:477] eltwise13 <- bn412
I0101 05:25:46.798931 10277 net.cpp:433] eltwise13 -> eltwise13
I0101 05:25:46.798948 10277 net.cpp:155] Setting up eltwise13
I0101 05:25:46.798960 10277 net.cpp:163] Top shape: 64 256 14 14 (3211264)
I0101 05:25:46.798971 10277 layer_factory.hpp:76] Creating layer relu13
I0101 05:25:46.798985 10277 net.cpp:110] Creating Layer relu13
I0101 05:25:46.798995 10277 net.cpp:477] relu13 <- eltwise13
I0101 05:25:46.799006 10277 net.cpp:419] relu13 -> eltwise13 (in-place)
I0101 05:25:46.799078 10277 net.cpp:155] Setting up relu13
I0101 05:25:46.799094 10277 net.cpp:163] Top shape: 64 256 14 14 (3211264)
I0101 05:25:46.799105 10277 layer_factory.hpp:76] Creating layer relu13_p
I0101 05:25:46.799120 10277 net.cpp:110] Creating Layer relu13_p
I0101 05:25:46.799131 10277 net.cpp:477] relu13_p <- eltwise12_relu12_0_split_2
I0101 05:25:46.799147 10277 net.cpp:433] relu13_p -> relu13_p
I0101 05:25:46.800976 10277 net.cpp:155] Setting up relu13_p
I0101 05:25:46.800997 10277 net.cpp:163] Top shape: 64 512 7 7 (1605632)
I0101 05:25:46.801012 10277 layer_factory.hpp:76] Creating layer conv51
I0101 05:25:46.801028 10277 net.cpp:110] Creating Layer conv51
I0101 05:25:46.801038 10277 net.cpp:477] conv51 <- eltwise13
I0101 05:25:46.801062 10277 net.cpp:433] conv51 -> conv51
I0101 05:25:46.812082 10277 net.cpp:155] Setting up conv51
I0101 05:25:46.812106 10277 net.cpp:163] Top shape: 64 512 7 7 (1605632)
I0101 05:25:46.812122 10277 layer_factory.hpp:76] Creating layer bn51
I0101 05:25:46.812139 10277 net.cpp:110] Creating Layer bn51
I0101 05:25:46.812150 10277 net.cpp:477] bn51 <- conv51
I0101 05:25:46.812168 10277 net.cpp:433] bn51 -> bn51
I0101 05:25:46.812265 10277 net.cpp:155] Setting up bn51
I0101 05:25:46.812291 10277 net.cpp:163] Top shape: 64 512 7 7 (1605632)
I0101 05:25:46.812309 10277 layer_factory.hpp:76] Creating layer relu51
I0101 05:25:46.812321 10277 net.cpp:110] Creating Layer relu51
I0101 05:25:46.812332 10277 net.cpp:477] relu51 <- bn51
I0101 05:25:46.812347 10277 net.cpp:419] relu51 -> bn51 (in-place)
I0101 05:25:46.812535 10277 net.cpp:155] Setting up relu51
I0101 05:25:46.812554 10277 net.cpp:163] Top shape: 64 512 7 7 (1605632)
I0101 05:25:46.812566 10277 layer_factory.hpp:76] Creating layer conv52
I0101 05:25:46.812600 10277 net.cpp:110] Creating Layer conv52
I0101 05:25:46.812613 10277 net.cpp:477] conv52 <- bn51
I0101 05:25:46.812628 10277 net.cpp:433] conv52 -> conv52
I0101 05:25:46.834394 10277 net.cpp:155] Setting up conv52
I0101 05:25:46.834483 10277 net.cpp:163] Top shape: 64 512 7 7 (1605632)
I0101 05:25:46.834517 10277 layer_factory.hpp:76] Creating layer bn52
I0101 05:25:46.834544 10277 net.cpp:110] Creating Layer bn52
I0101 05:25:46.834558 10277 net.cpp:477] bn52 <- conv52
I0101 05:25:46.834617 10277 net.cpp:433] bn52 -> bn52
I0101 05:25:46.834728 10277 net.cpp:155] Setting up bn52
I0101 05:25:46.834760 10277 net.cpp:163] Top shape: 64 512 7 7 (1605632)
I0101 05:25:46.834784 10277 layer_factory.hpp:76] Creating layer relu52
I0101 05:25:46.834802 10277 net.cpp:110] Creating Layer relu52
I0101 05:25:46.834815 10277 net.cpp:477] relu52 <- bn52
I0101 05:25:46.834830 10277 net.cpp:419] relu52 -> bn52 (in-place)
I0101 05:25:46.834914 10277 net.cpp:155] Setting up relu52
I0101 05:25:46.834933 10277 net.cpp:163] Top shape: 64 512 7 7 (1605632)
I0101 05:25:46.834945 10277 layer_factory.hpp:76] Creating layer eltwise14
I0101 05:25:46.834964 10277 net.cpp:110] Creating Layer eltwise14
I0101 05:25:46.834977 10277 net.cpp:477] eltwise14 <- relu13_p
I0101 05:25:46.834990 10277 net.cpp:477] eltwise14 <- bn52
I0101 05:25:46.835007 10277 net.cpp:433] eltwise14 -> eltwise14
I0101 05:25:46.835054 10277 net.cpp:155] Setting up eltwise14
I0101 05:25:46.835070 10277 net.cpp:163] Top shape: 64 512 7 7 (1605632)
I0101 05:25:46.835083 10277 layer_factory.hpp:76] Creating layer relu14
I0101 05:25:46.835096 10277 net.cpp:110] Creating Layer relu14
I0101 05:25:46.835108 10277 net.cpp:477] relu14 <- eltwise14
I0101 05:25:46.835122 10277 net.cpp:419] relu14 -> eltwise14 (in-place)
I0101 05:25:46.835199 10277 net.cpp:155] Setting up relu14
I0101 05:25:46.835217 10277 net.cpp:163] Top shape: 64 512 7 7 (1605632)
I0101 05:25:46.835230 10277 layer_factory.hpp:76] Creating layer eltwise14_relu14_0_split
I0101 05:25:46.835245 10277 net.cpp:110] Creating Layer eltwise14_relu14_0_split
I0101 05:25:46.835258 10277 net.cpp:477] eltwise14_relu14_0_split <- eltwise14
I0101 05:25:46.835271 10277 net.cpp:433] eltwise14_relu14_0_split -> eltwise14_relu14_0_split_0
I0101 05:25:46.835288 10277 net.cpp:433] eltwise14_relu14_0_split -> eltwise14_relu14_0_split_1
I0101 05:25:46.835304 10277 net.cpp:155] Setting up eltwise14_relu14_0_split
I0101 05:25:46.835317 10277 net.cpp:163] Top shape: 64 512 7 7 (1605632)
I0101 05:25:46.835330 10277 net.cpp:163] Top shape: 64 512 7 7 (1605632)
I0101 05:25:46.835342 10277 layer_factory.hpp:76] Creating layer conv53
I0101 05:25:46.835363 10277 net.cpp:110] Creating Layer conv53
I0101 05:25:46.835377 10277 net.cpp:477] conv53 <- eltwise14_relu14_0_split_0
I0101 05:25:46.835394 10277 net.cpp:433] conv53 -> conv53
I0101 05:25:46.857126 10277 net.cpp:155] Setting up conv53
I0101 05:25:46.857221 10277 net.cpp:163] Top shape: 64 512 7 7 (1605632)
I0101 05:25:46.857241 10277 layer_factory.hpp:76] Creating layer bn53
I0101 05:25:46.857269 10277 net.cpp:110] Creating Layer bn53
I0101 05:25:46.857282 10277 net.cpp:477] bn53 <- conv53
I0101 05:25:46.857313 10277 net.cpp:433] bn53 -> bn53
I0101 05:25:46.857432 10277 net.cpp:155] Setting up bn53
I0101 05:25:46.857451 10277 net.cpp:163] Top shape: 64 512 7 7 (1605632)
I0101 05:25:46.857471 10277 layer_factory.hpp:76] Creating layer relu53
I0101 05:25:46.857487 10277 net.cpp:110] Creating Layer relu53
I0101 05:25:46.857501 10277 net.cpp:477] relu53 <- bn53
I0101 05:25:46.857517 10277 net.cpp:419] relu53 -> bn53 (in-place)
I0101 05:25:46.857718 10277 net.cpp:155] Setting up relu53
I0101 05:25:46.857741 10277 net.cpp:163] Top shape: 64 512 7 7 (1605632)
I0101 05:25:46.857754 10277 layer_factory.hpp:76] Creating layer conv54
I0101 05:25:46.857780 10277 net.cpp:110] Creating Layer conv54
I0101 05:25:46.857795 10277 net.cpp:477] conv54 <- bn53
I0101 05:25:46.857810 10277 net.cpp:433] conv54 -> conv54
I0101 05:25:46.879477 10277 net.cpp:155] Setting up conv54
I0101 05:25:46.879520 10277 net.cpp:163] Top shape: 64 512 7 7 (1605632)
I0101 05:25:46.879539 10277 layer_factory.hpp:76] Creating layer bn54
I0101 05:25:46.879561 10277 net.cpp:110] Creating Layer bn54
I0101 05:25:46.879573 10277 net.cpp:477] bn54 <- conv54
I0101 05:25:46.879593 10277 net.cpp:433] bn54 -> bn54
I0101 05:25:46.879701 10277 net.cpp:155] Setting up bn54
I0101 05:25:46.879719 10277 net.cpp:163] Top shape: 64 512 7 7 (1605632)
I0101 05:25:46.879735 10277 layer_factory.hpp:76] Creating layer relu54
I0101 05:25:46.879751 10277 net.cpp:110] Creating Layer relu54
I0101 05:25:46.879762 10277 net.cpp:477] relu54 <- bn54
I0101 05:25:46.879775 10277 net.cpp:419] relu54 -> bn54 (in-place)
I0101 05:25:46.879855 10277 net.cpp:155] Setting up relu54
I0101 05:25:46.879871 10277 net.cpp:163] Top shape: 64 512 7 7 (1605632)
I0101 05:25:46.879883 10277 layer_factory.hpp:76] Creating layer eltwise15
I0101 05:25:46.879900 10277 net.cpp:110] Creating Layer eltwise15
I0101 05:25:46.879912 10277 net.cpp:477] eltwise15 <- eltwise14_relu14_0_split_1
I0101 05:25:46.879925 10277 net.cpp:477] eltwise15 <- bn54
I0101 05:25:46.879937 10277 net.cpp:433] eltwise15 -> eltwise15
I0101 05:25:46.879962 10277 net.cpp:155] Setting up eltwise15
I0101 05:25:46.879976 10277 net.cpp:163] Top shape: 64 512 7 7 (1605632)
I0101 05:25:46.879986 10277 layer_factory.hpp:76] Creating layer relu15
I0101 05:25:46.879998 10277 net.cpp:110] Creating Layer relu15
I0101 05:25:46.880035 10277 net.cpp:477] relu15 <- eltwise15
I0101 05:25:46.880049 10277 net.cpp:419] relu15 -> eltwise15 (in-place)
I0101 05:25:46.880125 10277 net.cpp:155] Setting up relu15
I0101 05:25:46.880141 10277 net.cpp:163] Top shape: 64 512 7 7 (1605632)
I0101 05:25:46.880151 10277 layer_factory.hpp:76] Creating layer eltwise15_relu15_0_split
I0101 05:25:46.880165 10277 net.cpp:110] Creating Layer eltwise15_relu15_0_split
I0101 05:25:46.880175 10277 net.cpp:477] eltwise15_relu15_0_split <- eltwise15
I0101 05:25:46.880188 10277 net.cpp:433] eltwise15_relu15_0_split -> eltwise15_relu15_0_split_0
I0101 05:25:46.880203 10277 net.cpp:433] eltwise15_relu15_0_split -> eltwise15_relu15_0_split_1
I0101 05:25:46.880218 10277 net.cpp:155] Setting up eltwise15_relu15_0_split
I0101 05:25:46.880230 10277 net.cpp:163] Top shape: 64 512 7 7 (1605632)
I0101 05:25:46.880241 10277 net.cpp:163] Top shape: 64 512 7 7 (1605632)
I0101 05:25:46.880251 10277 layer_factory.hpp:76] Creating layer conv55
I0101 05:25:46.880275 10277 net.cpp:110] Creating Layer conv55
I0101 05:25:46.880286 10277 net.cpp:477] conv55 <- eltwise15_relu15_0_split_0
I0101 05:25:46.880302 10277 net.cpp:433] conv55 -> conv55
I0101 05:25:46.901657 10277 net.cpp:155] Setting up conv55
I0101 05:25:46.901706 10277 net.cpp:163] Top shape: 64 512 7 7 (1605632)
I0101 05:25:46.901724 10277 layer_factory.hpp:76] Creating layer bn55
I0101 05:25:46.901787 10277 net.cpp:110] Creating Layer bn55
I0101 05:25:46.901801 10277 net.cpp:477] bn55 <- conv55
I0101 05:25:46.901829 10277 net.cpp:433] bn55 -> bn55
I0101 05:25:46.901942 10277 net.cpp:155] Setting up bn55
I0101 05:25:46.901962 10277 net.cpp:163] Top shape: 64 512 7 7 (1605632)
I0101 05:25:46.901980 10277 layer_factory.hpp:76] Creating layer relu55
I0101 05:25:46.902005 10277 net.cpp:110] Creating Layer relu55
I0101 05:25:46.902017 10277 net.cpp:477] relu55 <- bn55
I0101 05:25:46.902034 10277 net.cpp:419] relu55 -> bn55 (in-place)
I0101 05:25:46.902115 10277 net.cpp:155] Setting up relu55
I0101 05:25:46.902134 10277 net.cpp:163] Top shape: 64 512 7 7 (1605632)
I0101 05:25:46.902146 10277 layer_factory.hpp:76] Creating layer conv56
I0101 05:25:46.902166 10277 net.cpp:110] Creating Layer conv56
I0101 05:25:46.902180 10277 net.cpp:477] conv56 <- bn55
I0101 05:25:46.902195 10277 net.cpp:433] conv56 -> conv56
I0101 05:25:46.923949 10277 net.cpp:155] Setting up conv56
I0101 05:25:46.924002 10277 net.cpp:163] Top shape: 64 512 7 7 (1605632)
I0101 05:25:46.924021 10277 layer_factory.hpp:76] Creating layer bn56
I0101 05:25:46.924080 10277 net.cpp:110] Creating Layer bn56
I0101 05:25:46.924094 10277 net.cpp:477] bn56 <- conv56
I0101 05:25:46.924123 10277 net.cpp:433] bn56 -> bn56
I0101 05:25:46.924248 10277 net.cpp:155] Setting up bn56
I0101 05:25:46.924268 10277 net.cpp:163] Top shape: 64 512 7 7 (1605632)
I0101 05:25:46.924286 10277 layer_factory.hpp:76] Creating layer relu56
I0101 05:25:46.924306 10277 net.cpp:110] Creating Layer relu56
I0101 05:25:46.924319 10277 net.cpp:477] relu56 <- bn56
I0101 05:25:46.924334 10277 net.cpp:419] relu56 -> bn56 (in-place)
I0101 05:25:46.924532 10277 net.cpp:155] Setting up relu56
I0101 05:25:46.924556 10277 net.cpp:163] Top shape: 64 512 7 7 (1605632)
I0101 05:25:46.924568 10277 layer_factory.hpp:76] Creating layer eltwise16
I0101 05:25:46.924587 10277 net.cpp:110] Creating Layer eltwise16
I0101 05:25:46.924599 10277 net.cpp:477] eltwise16 <- eltwise15_relu15_0_split_1
I0101 05:25:46.924613 10277 net.cpp:477] eltwise16 <- bn56
I0101 05:25:46.924628 10277 net.cpp:433] eltwise16 -> eltwise16
I0101 05:25:46.924648 10277 net.cpp:155] Setting up eltwise16
I0101 05:25:46.924662 10277 net.cpp:163] Top shape: 64 512 7 7 (1605632)
I0101 05:25:46.924674 10277 layer_factory.hpp:76] Creating layer relu16
I0101 05:25:46.924690 10277 net.cpp:110] Creating Layer relu16
I0101 05:25:46.924701 10277 net.cpp:477] relu16 <- eltwise16
I0101 05:25:46.924717 10277 net.cpp:419] relu16 -> eltwise16 (in-place)
I0101 05:25:46.924794 10277 net.cpp:155] Setting up relu16
I0101 05:25:46.924813 10277 net.cpp:163] Top shape: 64 512 7 7 (1605632)
I0101 05:25:46.924851 10277 layer_factory.hpp:76] Creating layer pool5
I0101 05:25:46.924870 10277 net.cpp:110] Creating Layer pool5
I0101 05:25:46.924883 10277 net.cpp:477] pool5 <- eltwise16
I0101 05:25:46.924906 10277 net.cpp:433] pool5 -> pool5
I0101 05:25:46.924993 10277 net.cpp:155] Setting up pool5
I0101 05:25:46.925011 10277 net.cpp:163] Top shape: 64 512 1 1 (32768)
I0101 05:25:46.925024 10277 layer_factory.hpp:76] Creating layer ip1
I0101 05:25:46.925055 10277 net.cpp:110] Creating Layer ip1
I0101 05:25:46.925070 10277 net.cpp:477] ip1 <- pool5
I0101 05:25:46.925084 10277 net.cpp:433] ip1 -> ip1
I0101 05:25:46.929913 10277 net.cpp:155] Setting up ip1
I0101 05:25:46.929944 10277 net.cpp:163] Top shape: 64 1000 (64000)
I0101 05:25:46.929965 10277 layer_factory.hpp:76] Creating layer loss
I0101 05:25:46.929986 10277 net.cpp:110] Creating Layer loss
I0101 05:25:46.929999 10277 net.cpp:477] loss <- ip1
I0101 05:25:46.930019 10277 net.cpp:477] loss <- label
I0101 05:25:46.930035 10277 net.cpp:433] loss -> loss
I0101 05:25:46.930063 10277 layer_factory.hpp:76] Creating layer loss
I0101 05:25:46.930842 10277 net.cpp:155] Setting up loss
…
I0101 05:25:46.938246 10277 net.cpp:339] The NetState phase (1) differed from the phase (0) specified by a rule in layer loss
I0101 05:25:46.939021 10277 net.cpp:50] Initializing net from parameters: 
name: "RsdNet34v2"
state {
  phase: TEST
}
layer {
  name: "data"
  type: "Data"
  top: "data"
  top: "label"
  include {
    phase: TEST
  }
  transform_param {
    scale: 0.0039215689
    mirror: true
    crop_size: 224
    mean_file: "./ilsvrc12_mean.binaryproto"
  }
  data_param {
    source: "./ilsvrc12_test_lmdb"
    batch_size: 32
    backend: LMDB
  }
}
layer {
  name: "conv01"
  type: "Convolution"
  bottom: "data"
  top: "conv01"
  param {
    lr_mult: 1
  }
  param {
    lr_mult: 2
  }
  convolution_param {
    num_output: 64
    pad: 3
    kernel_size: 7
    stride: 2
    weight_filler {
      type: "xavier"
    }
    bias_filler {
      type: "constant"
    }
  }
}
layer {
  name: "bn01"
  type: "BN"
  bottom: "conv01"
  top: "bn01"
  param {
    lr_mult: 1
    decay_mult: 0
  }
  param {
    lr_mult: 1
    decay_mult: 0
  }
  bn_param {
    scale_filler {
      type: "constant"
      value: 1
    }
    shift_filler {
      type: "constant"
      value: 0
    }
  }
}
layer {
  name: "relu01"
  type: "ReLU"
  bottom: "bn01"
  top: "bn01"
}
layer {
  name: "pool1"
  type: "Pooling"
  bottom: "bn01"
  top: "pool1"
  pooling_param {
    pool: MAX
    kernel_size: 3
    stride: 2
  }
}
layer {
  name: "conv21"
  type: "Convolution"
  bottom: "pool1"
  top: "conv21"
  param {
    lr_mult: 1
  }
  param {
    lr_mult: 2
  }
  convolution_param {
    num_output: 64
    pad: 1
    kernel_size: 3
    stride: 1
    weight_filler {
      type: "xavier"
    }
    bias_filler {
      type: "constant"
    }
  }
}
layer {
  name: "bn21"
  type: "BN"
  bottom: "conv21"
  top: "bn21"
  param {
    lr_mult: 1
    decay_mult: 0
  }
  param {
    lr_mult: 1
    decay_mult: 0
  }
  bn_param {
    scale_filler {
      type: "constant"
      value: 1
    }
    shift_filler {
      type: "constant"
      value: 0
    }
  }
}
layer {
  name: "relu21"
  type: "ReLU"
  bottom: "bn21"
  top: "bn21"
}
layer {
  name: "conv22"
  type: "Convolution"
  bottom: "bn21"
  top: "conv22"
  param {
    lr_mult: 1
  }
  param {
    lr_mult: 2
  }
  convolution_param {
    num_output: 64
    pad: 1
    kernel_size: 3
    stride: 1
    weight_filler {
      type: "xavier"
    }
    bias_filler {
      type: "constant"
    }
  }
}
layer {
  name: "bn22"
  type: "BN"
  bottom: "conv22"
  top: "bn22"
  param {
    lr_mult: 1
    decay_mult: 0
  }
  param {
    lr_mult: 1
    decay_mult: 0
  }
  bn_param {
    scale_filler {
      type: "constant"
      value: 1
    }
    shift_filler {
      type: "constant"
      value: 0
    }
  }
}
layer {
  name: "relu22"
  type: "ReLU"
  bottom: "bn22"
  top: "bn22"
}
layer {
  name: "eltwise1"
  type: "Eltwise"
  bottom: "pool1"
  bottom: "bn22"
  top: "eltwise1"
  eltwise_param {
    operation: SUM
  }
}
layer {
  name: "relu1"
  type: "ReLU"
  bottom: "eltwise1"
  top: "eltwise1"
}
layer {
  name: "conv23"
  type: "Convolution"
  bottom: "eltwise1"
  top: "conv23"
  param {
    lr_mult: 1
  }
  param {
    lr_mult: 2
  }
  convolution_param {
    num_output: 64
    pad: 1
    kernel_size: 3
    stride: 1
    weight_filler {
      type: "xavier"
    }
    bias_filler {
      type: "constant"
    }
  }
}
layer {
  name: "bn23"
  type: "BN"
  bottom: "conv23"
  top: "bn23"
  param {
    lr_mult: 1
    decay_mult: 0
  }
  param {
    lr_mult: 1
    decay_mult: 0
  }
  bn_param {
    scale_filler {
      type: "constant"
      value: 1
    }
    shift_filler {
      type: "constant"
      value: 0
    }
  }
}
layer {
  name: "relu23"
  type: "ReLU"
  bottom: "bn23"
  top: "bn23"
}
layer {
  name: "conv24"
  type: "Convolution"
  bottom: "bn23"
  top: "conv24"
  param {
    lr_mult: 1
  }
  param {
    lr_mult: 2
  }
  convolution_param {
    num_output: 64
    pad: 1
    kernel_size: 3
    stride: 1
    weight_filler {
      type: "xavier"
    }
    bias_filler {
      type: "constant"
    }
  }
}
layer {
  name: "bn24"
  type: "BN"
  bottom: "conv24"
  top: "bn24"
  param {
    lr_mult: 1
    decay_mult: 0
  }
  param {
    lr_mult: 1
    decay_mult: 0
  }
  bn_param {
    scale_filler {
      type: "constant"
      value: 1
    }
    shift_filler {
      type: "constant"
      value: 0
    }
  }
}
layer {
  name: "relu24"
  type: "ReLU"
  bottom: "bn24"
  top: "bn24"
}
layer {
  name: "eltwise2"
  type: "Eltwise"
  bottom: "eltwise1"
  bottom: "bn24"
  top: "eltwise2"
  eltwise_param {
    operation: SUM
  }
}
layer {
  name: "relu2"
  type: "ReLU"
  bottom: "eltwise2"
  top: "eltwise2"
}
layer {
  name: "conv25"
  type: "Convolution"
  bottom: "bn24"
  top: "conv25"
  param {
    lr_mult: 1
  }
  param {
    lr_mult: 2
  }
  convolution_param {
    num_output: 64
    pad: 1
    kernel_size: 3
    stride: 1
    weight_filler {
      type: "xavier"
    }
    bias_filler {
      type: "constant"
    }
  }
}
layer {
  name: "bn25"
  type: "BN"
  bottom: "conv25"
  top: "bn25"
  param {
    lr_mult: 1
    decay_mult: 0
  }
  param {
    lr_mult: 1
    decay_mult: 0
  }
  bn_param {
    scale_filler {
      type: "constant"
      value: 1
    }
    shift_filler {
      type: "constant"
      value: 0
    }
  }
}
layer {
  name: "relu25"
  type: "ReLU"
  bottom: "bn25"
  top: "bn25"
}
layer {
  name: "conv26"
  type: "Convolution"
  bottom: "bn25"
  top: "conv26"
  param {
    lr_mult: 1
  }
  param {
    lr_mult: 2
  }
  convolution_param {
    num_output: 64
    pad: 1
    kernel_size: 3
    stride: 1
    weight_filler {
      type: "xavier"
    }
    bias_filler {
      type: "constant"
    }
  }
}
layer {
  name: "bn26"
  type: "BN"
  bottom: "conv26"
  top: "bn26"
  param {
    lr_mult: 1
    decay_mult: 0
  }
  param {
    lr_mult: 1
    decay_mult: 0
  }
  bn_param {
    scale_filler {
      type: "constant"
      value: 1
    }
    shift_filler {
      type: "constant"
      value: 0
    }
  }
}
layer {
  name: "relu26"
  type: "ReLU"
  bottom: "bn26"
  top: "bn26"
}
layer {
  name: "eltwise3"
  type: "Eltwise"
  bottom: "eltwise2"
  bottom: "bn26"
  top: "eltwise3"
  eltwise_param {
    operation: SUM
  }
}
layer {
  name: "relu3"
  type: "ReLU"
  bottom: "eltwise3"
  top: "eltwise3"
}
layer {
  name: "relu3_p"
  type: "Convolution"
  bottom: "eltwise3"
  top: "relu3_p"
  param {
    lr_mult: 1
  }
  param {
    lr_mult: 2
  }
  convolution_param {
    num_output: 128
    pad: 0
    kernel_size: 1
    stride: 2
    weight_filler {
      type: "xavier"
    }
    bias_filler {
      type: "constant"
    }
  }
}
layer {
  name: "conv31"
  type: "Convolution"
  bottom: "eltwise3"
  top: "conv31"
  param {
    lr_mult: 1
  }
  param {
    lr_mult: 2
  }
  convolution_param {
    num_output: 128
    pad: 1
    kernel_size: 3
    stride: 2
    weight_filler {
      type: "xavier"
    }
    bias_filler {
      type: "constant"
    }
  }
}
layer {
  name: "bn31"
  type: "BN"
  bottom: "conv31"
  top: "bn31"
  param {
    lr_mult: 1
    decay_mult: 0
  }
  param {
    lr_mult: 1
    decay_mult: 0
  }
  bn_param {
    scale_filler {
      type: "constant"
      value: 1
    }
    shift_filler {
      type: "constant"
      value: 0
    }
  }
}
layer {
  name: "relu31"
  type: "ReLU"
  bottom: "bn31"
  top: "bn31"
}
layer {
  name: "conv32"
  type: "Convolution"
  bottom: "bn31"
  top: "conv32"
  param {
    lr_mult: 1
  }
  param {
    lr_mult: 2
  }
  convolution_param {
    num_output: 128
    pad: 1
    kernel_size: 3
    stride: 1
    weight_filler {
      type: "xavier"
    }
    bias_filler {
      type: "constant"
    }
  }
}
layer {
  name: "bn32"
  type: "BN"
  bottom: "conv32"
  top: "bn32"
  param {
    lr_mult: 1
    decay_mult: 0
  }
  param {
    lr_mult: 1
    decay_mult: 0
  }
  bn_param {
    scale_filler {
      type: "constant"
      value: 1
    }
    shift_filler {
      type: "constant"
      value: 0
    }
  }
}
layer {
  name: "relu32"
  type: "ReLU"
  bottom: "bn32"
  top: "bn32"
}
layer {
  name: "eltwise4"
  type: "Eltwise"
  bottom: "relu3_p"
  bottom: "bn32"
  top: "eltwise4"
  eltwise_param {
    operation: SUM
  }
}
layer {
  name: "relu4"
  type: "ReLU"
  bottom: "eltwise4"
  top: "eltwise4"
}
layer {
  name: "conv33"
  type: "Convolution"
  bottom: "eltwise4"
  top: "conv33"
  param {
    lr_mult: 1
  }
  param {
    lr_mult: 2
  }
  convolution_param {
    num_output: 128
    pad: 1
    kernel_size: 3
    stride: 1
    weight_filler {
      type: "xavier"
    }
    bias_filler {
      type: "constant"
    }
  }
}
layer {
  name: "bn33"
  type: "BN"
  bottom: "conv33"
  top: "bn33"
  param {
    lr_mult: 1
    decay_mult: 0
  }
  param {
    lr_mult: 1
    decay_mult: 0
  }
  bn_param {
    scale_filler {
      type: "constant"
      value: 1
    }
    shift_filler {
      type: "constant"
      value: 0
    }
  }
}
layer {
  name: "relu33"
  type: "ReLU"
  bottom: "bn33"
  top: "bn33"
}
layer {
  name: "conv34"
  type: "Convolution"
  bottom: "bn33"
  top: "conv34"
  param {
    lr_mult: 1
  }
  param {
    lr_mult: 2
  }
  convolution_param {
    num_output: 128
    pad: 1
    kernel_size: 3
    stride: 1
    weight_filler {
      type: "xavier"
    }
    bias_filler {
      type: "constant"
    }
  }
}
layer {
  name: "bn34"
  type: "BN"
  bottom: "conv34"
  top: "bn34"
  param {
    lr_mult: 1
    decay_mult: 0
  }
  param {
    lr_mult: 1
    decay_mult: 0
  }
  bn_param {
    scale_filler {
      type: "constant"
      value: 1
    }
    shift_filler {
      type: "constant"
      value: 0
    }
  }
}
layer {
  name: "relu34"
  type: "ReLU"
  bottom: "bn34"
  top: "bn34"
}
layer {
  name: "eltwise5"
  type: "Eltwise"
  bottom: "eltwise4"
  bottom: "bn34"
  top: "eltwise5"
  eltwise_param {
    operation: SUM
  }
}
layer {
  name: "relu5"
  type: "ReLU"
  bottom: "eltwise5"
  top: "eltwise5"
}
layer {
  name: "conv35"
  type: "Convolution"
  bottom: "eltwise5"
  top: "conv35"
  param {
    lr_mult: 1
  }
  param {
    lr_mult: 2
  }
  convolution_param {
    num_output: 128
    pad: 1
    kernel_size: 3
    stride: 1
    weight_filler {
      type: "xavier"
    }
    bias_filler {
      type: "constant"
    }
  }
}
layer {
  name: "bn35"
  type: "BN"
  bottom: "conv35"
  top: "bn35"
  param {
    lr_mult: 1
    decay_mult: 0
  }
  param {
    lr_mult: 1
    decay_mult: 0
  }
  bn_param {
    scale_filler {
      type: "constant"
      value: 1
    }
    shift_filler {
      type: "constant"
      value: 0
    }
  }
}
layer {
  name: "relu35"
  type: "ReLU"
  bottom: "bn35"
  top: "bn35"
}
layer {
  name: "conv36"
  type: "Convolution"
  bottom: "bn35"
  top: "conv36"
  param {
    lr_mult: 1
  }
  param {
    lr_mult: 2
  }
  convolution_param {
    num_output: 128
    pad: 1
    kernel_size: 3
    stride: 1
    weight_filler {
      type: "xavier"
    }
    bias_filler {
      type: "constant"
    }
  }
}
layer {
  name: "bn36"
  type: "BN"
  bottom: "conv36"
  top: "bn36"
  param {
    lr_mult: 1
    decay_mult: 0
  }
  param {
    lr_mult: 1
    decay_mult: 0
  }
  bn_param {
    scale_filler {
      type: "constant"
      value: 1
    }
    shift_filler {
      type: "constant"
      value: 0
    }
  }
}
layer {
  name: "relu36"
  type: "ReLU"
  bottom: "bn36"
  top: "bn36"
}
layer {
  name: "eltwise6"
  type: "Eltwise"
  bottom: "eltwise5"
  bottom: "bn36"
  top: "eltwise6"
  eltwise_param {
    operation: SUM
  }
}
layer {
  name: "relu6"
  type: "ReLU"
  bottom: "eltwise6"
  top: "eltwise6"
}
layer {
  name: "conv37"
  type: "Convolution"
  bottom: "eltwise6"
  top: "conv37"
  param {
    lr_mult: 1
  }
  param {
    lr_mult: 2
  }
  convolution_param {
    num_output: 128
    pad: 1
    kernel_size: 3
    stride: 1
    weight_filler {
      type: "xavier"
    }
    bias_filler {
      type: "constant"
    }
  }
}
layer {
  name: "bn37"
  type: "BN"
  bottom: "conv37"
  top: "bn37"
  param {
    lr_mult: 1
    decay_mult: 0
  }
  param {
    lr_mult: 1
    decay_mult: 0
  }
  bn_param {
    scale_filler {
      type: "constant"
      value: 1
    }
    shift_filler {
      type: "constant"
      value: 0
    }
  }
}
layer {
  name: "relu37"
  type: "ReLU"
  bottom: "bn37"
  top: "bn37"
}
layer {
  name: "conv38"
  type: "Convolution"
  bottom: "bn37"
  top: "conv38"
  param {
    lr_mult: 1
  }
  param {
    lr_mult: 2
  }
  convolution_param {
    num_output: 128
    pad: 1
    kernel_size: 3
    stride: 1
    weight_filler {
      type: "xavier"
    }
    bias_filler {
      type: "constant"
    }
  }
}
layer {
  name: "bn38"
  type: "BN"
  bottom: "conv38"
  top: "bn38"
  param {
    lr_mult: 1
    decay_mult: 0
  }
  param {
    lr_mult: 1
    decay_mult: 0
  }
  bn_param {
    scale_filler {
      type: "constant"
      value: 1
    }
    shift_filler {
      type: "constant"
      value: 0
    }
  }
}
layer {
  name: "relu38"
  type: "ReLU"
  bottom: "bn38"
  top: "bn38"
}
layer {
  name: "eltwise7"
  type: "Eltwise"
  bottom: "eltwise6"
  bottom: "bn38"
  top: "eltwise7"
  eltwise_param {
    operation: SUM
  }
}
layer {
  name: "relu7"
  type: "ReLU"
  bottom: "eltwise7"
  top: "eltwise7"
}
layer {
  name: "relu7_p"
  type: "Convolution"
  bottom: "eltwise7"
  top: "relu7_p"
  param {
    lr_mult: 1
  }
  param {
    lr_mult: 2
  }
  convolution_param {
    num_output: 256
    pad: 0
    kernel_size: 1
    stride: 2
    weight_filler {
      type: "xavier"
    }
    bias_filler {
      type: "constant"
    }
  }
}
layer {
  name: "conv41"
  type: "Convolution"
  bottom: "eltwise7"
  top: "conv41"
  param {
    lr_mult: 1
  }
  param {
    lr_mult: 2
  }
  convolution_param {
    num_output: 256
    pad: 1
    kernel_size: 3
    stride: 2
    weight_filler {
      type: "xavier"
    }
    bias_filler {
      type: "constant"
    }
  }
}
layer {
  name: "bn41"
  type: "BN"
  bottom: "conv41"
  top: "bn41"
  param {
    lr_mult: 1
    decay_mult: 0
  }
  param {
    lr_mult: 1
    decay_mult: 0
  }
  bn_param {
    scale_filler {
      type: "constant"
      value: 1
    }
    shift_filler {
      type: "constant"
      value: 0
    }
  }
}
layer {
  name: "relu41"
  type: "ReLU"
  bottom: "bn41"
  top: "bn41"
}
layer {
  name: "conv42"
  type: "Convolution"
  bottom: "bn41"
  top: "conv42"
  param {
    lr_mult: 1
  }
  param {
    lr_mult: 2
  }
  convolution_param {
    num_output: 256
    pad: 1
    kernel_size: 3
    stride: 1
    weight_filler {
      type: "xavier"
    }
    bias_filler {
      type: "constant"
    }
  }
}
layer {
  name: "bn42"
  type: "BN"
  bottom: "conv42"
  top: "bn42"
  param {
    lr_mult: 1
    decay_mult: 0
  }
  param {
    lr_mult: 1
    decay_mult: 0
  }
  bn_param {
    scale_filler {
      type: "constant"
      value: 1
    }
    shift_filler {
      type: "constant"
      value: 0
    }
  }
}
layer {
  name: "relu42"
  type: "ReLU"
  bottom: "bn42"
  top: "bn42"
}
layer {
  name: "eltwise8"
  type: "Eltwise"
  bottom: "relu7_p"
  bottom: "bn42"
  top: "eltwise8"
  eltwise_param {
    operation: SUM
  }
}
layer {
  name: "relu8"
  type: "ReLU"
  bottom: "eltwise8"
  top: "eltwise8"
}
layer {
  name: "conv43"
  type: "Convolution"
  bottom: "eltwise8"
  top: "conv43"
  param {
    lr_mult: 1
  }
  param {
    lr_mult: 2
  }
  convolution_param {
    num_output: 256
    pad: 1
    kernel_size: 3
    stride: 1
    weight_filler {
      type: "xavier"
    }
    bias_filler {
      type: "constant"
    }
  }
}
layer {
  name: "bn43"
  type: "BN"
  bottom: "conv43"
  top: "bn43"
  param {
    lr_mult: 1
    decay_mult: 0
  }
  param {
    lr_mult: 1
    decay_mult: 0
  }
  bn_param {
    scale_filler {
      type: "constant"
      value: 1
    }
    shift_filler {
      type: "constant"
      value: 0
    }
  }
}
layer {
  name: "relu43"
  type: "ReLU"
  bottom: "bn43"
  top: "bn43"
}
layer {
  name: "conv44"
  type: "Convolution"
  bottom: "bn43"
  top: "conv44"
  param {
    lr_mult: 1
  }
  param {
    lr_mult: 2
  }
  convolution_param {
    num_output: 256
    pad: 1
    kernel_size: 3
    stride: 1
    weight_filler {
      type: "xavier"
    }
    bias_filler {
      type: "constant"
    }
  }
}
layer {
  name: "bn44"
  type: "BN"
  bottom: "conv44"
  top: "bn44"
  param {
    lr_mult: 1
    decay_mult: 0
  }
  param {
    lr_mult: 1
    decay_mult: 0
  }
  bn_param {
    scale_filler {
      type: "constant"
      value: 1
    }
    shift_filler {
      type: "constant"
      value: 0
    }
  }
}
layer {
  name: "relu44"
  type: "ReLU"
  bottom: "bn44"
  top: "bn44"
}
layer {
  name: "eltwise9"
  type: "Eltwise"
  bottom: "eltwise8"
  bottom: "bn44"
  top: "eltwise9"
  eltwise_param {
    operation: SUM
  }
}
layer {
  name: "relu9"
  type: "ReLU"
  bottom: "eltwise9"
  top: "eltwise9"
}
layer {
  name: "conv45"
  type: "Convolution"
  bottom: "eltwise9"
  top: "conv45"
  param {
    lr_mult: 1
  }
  param {
    lr_mult: 2
  }
  convolution_param {
    num_output: 256
    pad: 1
    kernel_size: 3
    stride: 1
    weight_filler {
      type: "xavier"
    }
    bias_filler {
      type: "constant"
    }
  }
}
layer {
  name: "bn45"
  type: "BN"
  bottom: "conv45"
  top: "bn45"
  param {
    lr_mult: 1
    decay_mult: 0
  }
  param {
    lr_mult: 1
    decay_mult: 0
  }
  bn_param {
    scale_filler {
      type: "constant"
      value: 1
    }
    shift_filler {
      type: "constant"
      value: 0
    }
  }
}
layer {
  name: "relu45"
  type: "ReLU"
  bottom: "bn45"
  top: "bn45"
}
layer {
  name: "conv46"
  type: "Convolution"
  bottom: "bn45"
  top: "conv46"
  param {
    lr_mult: 1
  }
  param {
    lr_mult: 2
  }
  convolution_param {
    num_output: 256
    pad: 1
    kernel_size: 3
    stride: 1
    weight_filler {
      type: "xavier"
    }
    bias_filler {
      type: "constant"
    }
  }
}
layer {
  name: "bn46"
  type: "BN"
  bottom: "conv46"
  top: "bn46"
  param {
    lr_mult: 1
    decay_mult: 0
  }
  param {
    lr_mult: 1
    decay_mult: 0
  }
  bn_param {
    scale_filler {
      type: "constant"
      value: 1
    }
    shift_filler {
      type: "constant"
      value: 0
    }
  }
}
layer {
  name: "relu46"
  type: "ReLU"
  bottom: "bn46"
  top: "bn46"
}
layer {
  name: "eltwise10"
  type: "Eltwise"
  bottom: "eltwise9"
  bottom: "bn46"
  top: "eltwise10"
  eltwise_param {
    operation: SUM
  }
}
layer {
  name: "relu10"
  type: "ReLU"
  bottom: "eltwise10"
  top: "eltwise10"
}
layer {
  name: "conv47"
  type: "Convolution"
  bottom: "eltwise10"
  top: "conv47"
  param {
    lr_mult: 1
  }
  param {
    lr_mult: 2
  }
  convolution_param {
    num_output: 256
    pad: 1
    kernel_size: 3
    stride: 1
    weight_filler {
      type: "xavier"
    }
    bias_filler {
      type: "constant"
    }
  }
}
layer {
  name: "bn47"
  type: "BN"
  bottom: "conv47"
  top: "bn47"
  param {
    lr_mult: 1
    decay_mult: 0
  }
  param {
    lr_mult: 1
    decay_mult: 0
  }
  bn_param {
    scale_filler {
      type: "constant"
      value: 1
    }
    shift_filler {
      type: "constant"
      value: 0
    }
  }
}
layer {
  name: "relu47"
  type: "ReLU"
  bottom: "bn47"
  top: "bn47"
}
layer {
  name: "conv48"
  type: "Convolution"
  bottom: "bn47"
  top: "conv48"
  param {
    lr_mult: 1
  }
  param {
    lr_mult: 2
  }
  convolution_param {
    num_output: 256
    pad: 1
    kernel_size: 3
    stride: 1
    weight_filler {
      type: "xavier"
    }
    bias_filler {
      type: "constant"
    }
  }
}
layer {
  name: "bn48"
  type: "BN"
  bottom: "conv48"
  top: "bn48"
  param {
    lr_mult: 1
    decay_mult: 0
  }
  param {
    lr_mult: 1
    decay_mult: 0
  }
  bn_param {
    scale_filler {
      type: "constant"
      value: 1
    }
    shift_filler {
      type: "constant"
      value: 0
    }
  }
}
layer {
  name: "relu48"
  type: "ReLU"
  bottom: "bn48"
  top: "bn48"
}
layer {
  name: "eltwise11"
  type: "Eltwise"
  bottom: "eltwise10"
  bottom: "bn48"
  top: "eltwise11"
  eltwise_param {
    operation: SUM
  }
}
layer {
  name: "relu11"
  type: "ReLU"
  bottom: "eltwise11"
  top: "eltwise11"
}
layer {
  name: "conv49"
  type: "Convolution"
  bottom: "eltwise11"
  top: "conv49"
  param {
    lr_mult: 1
  }
  param {
    lr_mult: 2
  }
  convolution_param {
    num_output: 256
    pad: 1
    kernel_size: 3
    stride: 1
    weight_filler {
      type: "xavier"
    }
    bias_filler {
      type: "constant"
    }
  }
}
layer {
  name: "bn49"
  type: "BN"
  bottom: "conv49"
  top: "bn49"
  param {
    lr_mult: 1
    decay_mult: 0
  }
  param {
    lr_mult: 1
    decay_mult: 0
  }
  bn_param {
    scale_filler {
      type: "constant"
      value: 1
    }
    shift_filler {
      type: "constant"
      value: 0
    }
  }
}
layer {
  name: "relu49"
  type: "ReLU"
  bottom: "bn49"
  top: "bn49"
}
layer {
  name: "conv410"
  type: "Convolution"
  bottom: "bn49"
  top: "conv410"
  param {
    lr_mult: 1
  }
  param {
    lr_mult: 2
  }
  convolution_param {
    num_output: 256
    pad: 1
    kernel_size: 3
    stride: 1
    weight_filler {
      type: "xavier"
    }
    bias_filler {
      type: "constant"
    }
  }
}
layer {
  name: "bn410"
  type: "BN"
  bottom: "conv410"
  top: "bn410"
  param {
    lr_mult: 1
    decay_mult: 0
  }
  param {
    lr_mult: 1
    decay_mult: 0
  }
  bn_param {
    scale_filler {
      type: "constant"
      value: 1
    }
    shift_filler {
      type: "constant"
      value: 0
    }
  }
}
layer {
  name: "relu410"
  type: "ReLU"
  bottom: "bn410"
  top: "bn410"
}
layer {
  name: "eltwise12"
  type: "Eltwise"
  bottom: "eltwise11"
  bottom: "bn410"
  top: "eltwise12"
  eltwise_param {
    operation: SUM
  }
}
layer {
  name: "relu12"
  type: "ReLU"
  bottom: "eltwise12"
  top: "eltwise12"
}
layer {
  name: "conv411"
  type: "Convolution"
  bottom: "eltwise12"
  top: "conv411"
  param {
    lr_mult: 1
  }
  param {
    lr_mult: 2
  }
  convolution_param {
    num_output: 256
    pad: 1
    kernel_size: 3
    stride: 1
    weight_filler {
      type: "xavier"
    }
    bias_filler {
      type: "constant"
    }
  }
}
layer {
  name: "bn411"
  type: "BN"
  bottom: "conv411"
  top: "bn411"
  param {
    lr_mult: 1
    decay_mult: 0
  }
  param {
    lr_mult: 1
    decay_mult: 0
  }
  bn_param {
    scale_filler {
      type: "constant"
      value: 1
    }
    shift_filler {
      type: "constant"
      value: 0
    }
  }
}
layer {
  name: "relu411"
  type: "ReLU"
  bottom: "bn411"
  top: "bn411"
}
layer {
  name: "conv412"
  type: "Convolution"
  bottom: "bn411"
  top: "conv412"
  param {
    lr_mult: 1
  }
  param {
    lr_mult: 2
  }
  convolution_param {
    num_output: 256
    pad: 1
    kernel_size: 3
    stride: 1
    weight_filler {
      type: "xavier"
    }
    bias_filler {
      type: "constant"
    }
  }
}
layer {
  name: "bn412"
  type: "BN"
  bottom: "conv412"
  top: "bn412"
  param {
    lr_mult: 1
    decay_mult: 0
  }
  param {
    lr_mult: 1
    decay_mult: 0
  }
  bn_param {
    scale_filler {
      type: "constant"
      value: 1
    }
    shift_filler {
      type: "constant"
      value: 0
    }
  }
}
layer {
  name: "relu412"
  type: "ReLU"
  bottom: "bn412"
  top: "bn412"
}
layer {
  name: "eltwise13"
  type: "Eltwise"
  bottom: "eltwise12"
  bottom: "bn412"
  top: "eltwise13"
  eltwise_param {
    operation: SUM
  }
}
layer {
  name: "relu13"
  type: "ReLU"
  bottom: "eltwise13"
  top: "eltwise13"
}
layer {
  name: "relu13_p"
  type: "Convolution"
  bottom: "eltwise12"
  top: "relu13_p"
  param {
    lr_mult: 1
  }
  param {
    lr_mult: 2
  }
  convolution_param {
    num_output: 512
    pad: 0
    kernel_size: 1
    stride: 2
    weight_filler {
      type: "xavier"
    }
    bias_filler {
      type: "constant"
    }
  }
}
layer {
  name: "conv51"
  type: "Convolution"
  bottom: "eltwise13"
  top: "conv51"
  param {
    lr_mult: 1
  }
  param {
    lr_mult: 2
  }
  convolution_param {
    num_output: 512
    pad: 1
    kernel_size: 3
    stride: 2
    weight_filler {
      type: "xavier"
    }
    bias_filler {
      type: "constant"
    }
  }
}
layer {
  name: "bn51"
  type: "BN"
  bottom: "conv51"
  top: "bn51"
  param {
    lr_mult: 1
    decay_mult: 0
  }
  param {
    lr_mult: 1
    decay_mult: 0
  }
  bn_param {
    scale_filler {
      type: "constant"
      value: 1
    }
    shift_filler {
      type: "constant"
      value: 0
    }
  }
}
layer {
  name: "relu51"
  type: "ReLU"
  bottom: "bn51"
  top: "bn51"
}
layer {
  name: "conv52"
  type: "Convolution"
  bottom: "bn51"
  top: "conv52"
  param {
    lr_mult: 1
  }
  param {
    lr_mult: 2
  }
  convolution_param {
    num_output: 512
    pad: 1
    kernel_size: 3
    stride: 1
    weight_filler {
      type: "xavier"
    }
    bias_filler {
      type: "constant"
    }
  }
}
layer {
  name: "bn52"
  type: "BN"
  bottom: "conv52"
  top: "bn52"
  param {
    lr_mult: 1
    decay_mult: 0
  }
  param {
    lr_mult: 1
    decay_mult: 0
  }
  bn_param {
    scale_filler {
      type: "constant"
      value: 1
    }
    shift_filler {
      type: "constant"
      value: 0
    }
  }
}
layer {
  name: "relu52"
  type: "ReLU"
  bottom: "bn52"
  top: "bn52"
}
layer {
  name: "eltwise14"
  type: "Eltwise"
  bottom: "relu13_p"
  bottom: "bn52"
  top: "eltwise14"
  eltwise_param {
    operation: SUM
  }
}
layer {
  name: "relu14"
  type: "ReLU"
  bottom: "eltwise14"
  top: "eltwise14"
}
layer {
  name: "conv53"
  type: "Convolution"
  bottom: "eltwise14"
  top: "conv53"
  param {
    lr_mult: 1
  }
  param {
    lr_mult: 2
  }
  convolution_param {
    num_output: 512
    pad: 1
    kernel_size: 3
    stride: 1
    weight_filler {
      type: "xavier"
    }
    bias_filler {
      type: "constant"
    }
  }
}
layer {
  name: "bn53"
  type: "BN"
  bottom: "conv53"
  top: "bn53"
  param {
    lr_mult: 1
    decay_mult: 0
  }
  param {
    lr_mult: 1
    decay_mult: 0
  }
  bn_param {
    scale_filler {
      type: "constant"
      value: 1
    }
    shift_filler {
      type: "constant"
      value: 0
    }
  }
}
layer {
  name: "relu53"
  type: "ReLU"
  bottom: "bn53"
  top: "bn53"
}
layer {
  name: "conv54"
  type: "Convolution"
  bottom: "bn53"
  top: "conv54"
  param {
    lr_mult: 1
  }
  param {
    lr_mult: 2
  }
  convolution_param {
    num_output: 512
    pad: 1
    kernel_size: 3
    stride: 1
    weight_filler {
      type: "xavier"
    }
    bias_filler {
      type: "constant"
    }
  }
}
layer {
  name: "bn54"
  type: "BN"
  bottom: "conv54"
  top: "bn54"
  param {
    lr_mult: 1
    decay_mult: 0
  }
  param {
    lr_mult: 1
    decay_mult: 0
  }
  bn_param {
    scale_filler {
      type: "constant"
      value: 1
    }
    shift_filler {
      type: "constant"
      value: 0
    }
  }
}
layer {
  name: "relu54"
  type: "ReLU"
  bottom: "bn54"
  top: "bn54"
}
layer {
  name: "eltwise15"
  type: "Eltwise"
  bottom: "eltwise14"
  bottom: "bn54"
  top: "eltwise15"
  eltwise_param {
    operation: SUM
  }
}
layer {
  name: "relu15"
  type: "ReLU"
  bottom: "eltwise15"
  top: "eltwise15"
}
layer {
  name: "conv55"
  type: "Convolution"
  bottom: "eltwise15"
  top: "conv55"
  param {
    lr_mult: 1
  }
  param {
    lr_mult: 2
  }
  convolution_param {
    num_output: 512
    pad: 1
    kernel_size: 3
    stride: 1
    weight_filler {
      type: "xavier"
    }
    bias_filler {
      type: "constant"
    }
  }
}
layer {
  name: "bn55"
  type: "BN"
  bottom: "conv55"
  top: "bn55"
  param {
    lr_mult: 1
    decay_mult: 0
  }
  param {
    lr_mult: 1
    decay_mult: 0
  }
  bn_param {
    scale_filler {
      type: "constant"
      value: 1
    }
    shift_filler {
      type: "constant"
      value: 0
    }
  }
}
layer {
  name: "relu55"
  type: "ReLU"
  bottom: "bn55"
  top: "bn55"
}
layer {
  name: "conv56"
  type: "Convolution"
  bottom: "bn55"
  top: "conv56"
  param {
    lr_mult: 1
  }
  param {
    lr_mult: 2
  }
  convolution_param {
    num_output: 512
    pad: 1
    kernel_size: 3
    stride: 1
    weight_filler {
      type: "xavier"
    }
    bias_filler {
      type: "constant"
    }
  }
}
layer {
  name: "bn56"
  type: "BN"
  bottom: "conv56"
  top: "bn56"
  param {
    lr_mult: 1
    decay_mult: 0
  }
  param {
    lr_mult: 1
    decay_mult: 0
  }
  bn_param {
    scale_filler {
      type: "constant"
      value: 1
    }
    shift_filler {
      type: "constant"
      value: 0
    }
  }
}
layer {
  name: "relu56"
  type: "ReLU"
  bottom: "bn56"
  top: "bn56"
}
layer {
  name: "eltwise16"
  type: "Eltwise"
  bottom: "eltwise15"
  bottom: "bn56"
  top: "eltwise16"
  eltwise_param {
    operation: SUM
  }
}
layer {
  name: "relu16"
  type: "ReLU"
  bottom: "eltwise16"
  top: "eltwise16"
}
layer {
  name: "pool5"
  type: "Pooling"
  bottom: "eltwise16"
  top: "pool5"
  pooling_param {
    pool: AVE
    kernel_size: 7
    stride: 1
  }
}
layer {
  name: "ip1"
  type: "InnerProduct"
  bottom: "pool5"
  top: "ip1"
  param {
    lr_mult: 1
  }
  param {
    lr_mult: 2
  }
  inner_product_param {
    num_output: 1000
    weight_filler {
      type: "xavier"
    }
    bias_filler {
      type: "constant"
    }
  }
}
layer {
  name: "accuracy"
  type: "Accuracy"
  bottom: "ip1"
  bottom: "label"
  top: "accuracy"
  include {
    phase: TEST
  }
}
I0101 05:25:46.997995 10277 layer_factory.hpp:76] Creating layer data
I0101 05:25:46.998107 10277 net.cpp:110] Creating Layer data
I0101 05:25:46.998126 10277 net.cpp:433] data -> data
I0101 05:25:46.998165 10277 net.cpp:433] data -> label
I0101 05:25:46.998189 10277 data_transformer.cpp:23] Loading mean file from: ./ilsvrc12_mean.binaryproto
I0101 05:25:46.999102 10282 db_lmdb.cpp:22] Opened lmdb ./ilsvrc12_test_lmdb
I0101 05:25:47.000978 10277 data_layer.cpp:44] output data size: 32,3,224,224
I0101 05:25:47.041507 10277 net.cpp:155] Setting up data
I0101 05:25:47.041576 10277 net.cpp:163] Top shape: 32 3 224 224 (4816896)
I0101 05:25:47.041591 10277 net.cpp:163] Top shape: 32 (32)
I0101 05:25:47.041651 10277 layer_factory.hpp:76] Creating layer conv01
I0101 05:25:47.041682 10277 net.cpp:110] Creating Layer conv01
I0101 05:25:47.041702 10277 net.cpp:477] conv01 <- data
I0101 05:25:47.041734 10277 net.cpp:433] conv01 -> conv01
I0101 05:25:47.042377 10277 net.cpp:155] Setting up conv01
I0101 05:25:47.042412 10277 net.cpp:163] Top shape: 32 64 112 112 (25690112)
I0101 05:25:47.042434 10277 layer_factory.hpp:76] Creating layer bn01
I0101 05:25:47.042457 10277 net.cpp:110] Creating Layer bn01
I0101 05:25:47.042470 10277 net.cpp:477] bn01 <- conv01
I0101 05:25:47.042486 10277 net.cpp:433] bn01 -> bn01
I0101 05:25:47.044512 10277 net.cpp:155] Setting up bn01
I0101 05:25:47.044544 10277 net.cpp:163] Top shape: 32 64 112 112 (25690112)
I0101 05:25:47.044566 10277 layer_factory.hpp:76] Creating layer relu01
I0101 05:25:47.044596 10277 net.cpp:110] Creating Layer relu01
I0101 05:25:47.044622 10277 net.cpp:477] relu01 <- bn01
I0101 05:25:47.044643 10277 net.cpp:419] relu01 -> bn01 (in-place)
I0101 05:25:47.044841 10277 net.cpp:155] Setting up relu01
I0101 05:25:47.044862 10277 net.cpp:163] Top shape: 32 64 112 112 (25690112)
I0101 05:25:47.044877 10277 layer_factory.hpp:76] Creating layer pool1
I0101 05:25:47.044905 10277 net.cpp:110] Creating Layer pool1
I0101 05:25:47.044919 10277 net.cpp:477] pool1 <- bn01
I0101 05:25:47.044934 10277 net.cpp:433] pool1 -> pool1
I0101 05:25:47.045016 10277 net.cpp:155] Setting up pool1
I0101 05:25:47.045063 10277 net.cpp:163] Top shape: 32 64 56 56 (6422528)
I0101 05:25:47.045075 10277 layer_factory.hpp:76] Creating layer pool1_pool1_0_split
I0101 05:25:47.045092 10277 net.cpp:110] Creating Layer pool1_pool1_0_split
I0101 05:25:47.045104 10277 net.cpp:477] pool1_pool1_0_split <- pool1
I0101 05:25:47.045120 10277 net.cpp:433] pool1_pool1_0_split -> pool1_pool1_0_split_0
I0101 05:25:47.045135 10277 net.cpp:433] pool1_pool1_0_split -> pool1_pool1_0_split_1
I0101 05:25:47.045152 10277 net.cpp:155] Setting up pool1_pool1_0_split
I0101 05:25:47.045166 10277 net.cpp:163] Top shape: 32 64 56 56 (6422528)
I0101 05:25:47.045179 10277 net.cpp:163] Top shape: 32 64 56 56 (6422528)
I0101 05:25:47.045192 10277 layer_factory.hpp:76] Creating layer conv21
I0101 05:25:47.045208 10277 net.cpp:110] Creating Layer conv21
I0101 05:25:47.045222 10277 net.cpp:477] conv21 <- pool1_pool1_0_split_0
I0101 05:25:47.045238 10277 net.cpp:433] conv21 -> conv21
I0101 05:25:47.045912 10277 net.cpp:155] Setting up conv21
I0101 05:25:47.045945 10277 net.cpp:163] Top shape: 32 64 56 56 (6422528)
I0101 05:25:47.045961 10277 layer_factory.hpp:76] Creating layer bn21
I0101 05:25:47.045986 10277 net.cpp:110] Creating Layer bn21
I0101 05:25:47.046000 10277 net.cpp:477] bn21 <- conv21
I0101 05:25:47.046015 10277 net.cpp:433] bn21 -> bn21
I0101 05:25:47.046131 10277 net.cpp:155] Setting up bn21
I0101 05:25:47.046151 10277 net.cpp:163] Top shape: 32 64 56 56 (6422528)
I0101 05:25:47.046171 10277 layer_factory.hpp:76] Creating layer relu21
I0101 05:25:47.046190 10277 net.cpp:110] Creating Layer relu21
I0101 05:25:47.046202 10277 net.cpp:477] relu21 <- bn21
I0101 05:25:47.046216 10277 net.cpp:419] relu21 -> bn21 (in-place)
I0101 05:25:47.046301 10277 net.cpp:155] Setting up relu21
I0101 05:25:47.046334 10277 net.cpp:163] Top shape: 32 64 56 56 (6422528)
I0101 05:25:47.046346 10277 layer_factory.hpp:76] Creating layer conv22
I0101 05:25:47.046362 10277 net.cpp:110] Creating Layer conv22
I0101 05:25:47.046375 10277 net.cpp:477] conv22 <- bn21
I0101 05:25:47.046391 10277 net.cpp:433] conv22 -> conv22
I0101 05:25:47.047050 10277 net.cpp:155] Setting up conv22
I0101 05:25:47.047085 10277 net.cpp:163] Top shape: 32 64 56 56 (6422528)
I0101 05:25:47.047101 10277 layer_factory.hpp:76] Creating layer bn22
I0101 05:25:47.047117 10277 net.cpp:110] Creating Layer bn22
I0101 05:25:47.047132 10277 net.cpp:477] bn22 <- conv22
I0101 05:25:47.047147 10277 net.cpp:433] bn22 -> bn22
I0101 05:25:47.047260 10277 net.cpp:155] Setting up bn22
I0101 05:25:47.047277 10277 net.cpp:163] Top shape: 32 64 56 56 (6422528)
I0101 05:25:47.047297 10277 layer_factory.hpp:76] Creating layer relu22
I0101 05:25:47.047310 10277 net.cpp:110] Creating Layer relu22
I0101 05:25:47.047322 10277 net.cpp:477] relu22 <- bn22
I0101 05:25:47.047334 10277 net.cpp:419] relu22 -> bn22 (in-place)
I0101 05:25:47.047529 10277 net.cpp:155] Setting up relu22
I0101 05:25:47.047549 10277 net.cpp:163] Top shape: 32 64 56 56 (6422528)
I0101 05:25:47.047559 10277 layer_factory.hpp:76] Creating layer eltwise1
I0101 05:25:47.047580 10277 net.cpp:110] Creating Layer eltwise1
I0101 05:25:47.047590 10277 net.cpp:477] eltwise1 <- pool1_pool1_0_split_1
I0101 05:25:47.047601 10277 net.cpp:477] eltwise1 <- bn22
I0101 05:25:47.047615 10277 net.cpp:433] eltwise1 -> eltwise1
I0101 05:25:47.047631 10277 net.cpp:155] Setting up eltwise1
I0101 05:25:47.047643 10277 net.cpp:163] Top shape: 32 64 56 56 (6422528)
I0101 05:25:47.047653 10277 layer_factory.hpp:76] Creating layer relu1
I0101 05:25:47.047665 10277 net.cpp:110] Creating Layer relu1
I0101 05:25:47.047675 10277 net.cpp:477] relu1 <- eltwise1
I0101 05:25:47.047688 10277 net.cpp:419] relu1 -> eltwise1 (in-place)
I0101 05:25:47.047755 10277 net.cpp:155] Setting up relu1
I0101 05:25:47.047770 10277 net.cpp:163] Top shape: 32 64 56 56 (6422528)
I0101 05:25:47.047780 10277 layer_factory.hpp:76] Creating layer eltwise1_relu1_0_split
I0101 05:25:47.047792 10277 net.cpp:110] Creating Layer eltwise1_relu1_0_split
I0101 05:25:47.047802 10277 net.cpp:477] eltwise1_relu1_0_split <- eltwise1
I0101 05:25:47.047827 10277 net.cpp:433] eltwise1_relu1_0_split -> eltwise1_relu1_0_split_0
I0101 05:25:47.047842 10277 net.cpp:433] eltwise1_relu1_0_split -> eltwise1_relu1_0_split_1
I0101 05:25:47.047857 10277 net.cpp:155] Setting up eltwise1_relu1_0_split
I0101 05:25:47.047869 10277 net.cpp:163] Top shape: 32 64 56 56 (6422528)
I0101 05:25:47.047880 10277 net.cpp:163] Top shape: 32 64 56 56 (6422528)
I0101 05:25:47.047890 10277 layer_factory.hpp:76] Creating layer conv23
I0101 05:25:47.047904 10277 net.cpp:110] Creating Layer conv23
I0101 05:25:47.047915 10277 net.cpp:477] conv23 <- eltwise1_relu1_0_split_0
I0101 05:25:47.047929 10277 net.cpp:433] conv23 -> conv23
I0101 05:25:47.048544 10277 net.cpp:155] Setting up conv23
I0101 05:25:47.048563 10277 net.cpp:163] Top shape: 32 64 56 56 (6422528)
I0101 05:25:47.048578 10277 layer_factory.hpp:76] Creating layer bn23
I0101 05:25:47.048594 10277 net.cpp:110] Creating Layer bn23
I0101 05:25:47.048604 10277 net.cpp:477] bn23 <- conv23
I0101 05:25:47.048619 10277 net.cpp:433] bn23 -> bn23
I0101 05:25:47.048730 10277 net.cpp:155] Setting up bn23
I0101 05:25:47.048746 10277 net.cpp:163] Top shape: 32 64 56 56 (6422528)
I0101 05:25:47.048761 10277 layer_factory.hpp:76] Creating layer relu23
I0101 05:25:47.048775 10277 net.cpp:110] Creating Layer relu23
I0101 05:25:47.048799 10277 net.cpp:477] relu23 <- bn23
I0101 05:25:47.048812 10277 net.cpp:419] relu23 -> bn23 (in-place)
I0101 05:25:47.048888 10277 net.cpp:155] Setting up relu23
I0101 05:25:47.048904 10277 net.cpp:163] Top shape: 32 64 56 56 (6422528)
I0101 05:25:47.048915 10277 layer_factory.hpp:76] Creating layer conv24
I0101 05:25:47.048930 10277 net.cpp:110] Creating Layer conv24
I0101 05:25:47.048940 10277 net.cpp:477] conv24 <- bn23
I0101 05:25:47.048954 10277 net.cpp:433] conv24 -> conv24
I0101 05:25:47.049599 10277 net.cpp:155] Setting up conv24
I0101 05:25:47.049624 10277 net.cpp:163] Top shape: 32 64 56 56 (6422528)
I0101 05:25:47.049638 10277 layer_factory.hpp:76] Creating layer bn24
I0101 05:25:47.049654 10277 net.cpp:110] Creating Layer bn24
I0101 05:25:47.049664 10277 net.cpp:477] bn24 <- conv24
I0101 05:25:47.049677 10277 net.cpp:433] bn24 -> bn24
I0101 05:25:47.049788 10277 net.cpp:155] Setting up bn24
I0101 05:25:47.049805 10277 net.cpp:163] Top shape: 32 64 56 56 (6422528)
I0101 05:25:47.049820 10277 layer_factory.hpp:76] Creating layer relu24
I0101 05:25:47.049834 10277 net.cpp:110] Creating Layer relu24
I0101 05:25:47.049844 10277 net.cpp:477] relu24 <- bn24
I0101 05:25:47.049856 10277 net.cpp:419] relu24 -> bn24 (in-place)
I0101 05:25:47.049934 10277 net.cpp:155] Setting up relu24
I0101 05:25:47.049950 10277 net.cpp:163] Top shape: 32 64 56 56 (6422528)
I0101 05:25:47.049960 10277 layer_factory.hpp:76] Creating layer bn24_relu24_0_split
I0101 05:25:47.049973 10277 net.cpp:110] Creating Layer bn24_relu24_0_split
I0101 05:25:47.049983 10277 net.cpp:477] bn24_relu24_0_split <- bn24
I0101 05:25:47.049995 10277 net.cpp:433] bn24_relu24_0_split -> bn24_relu24_0_split_0
I0101 05:25:47.050009 10277 net.cpp:433] bn24_relu24_0_split -> bn24_relu24_0_split_1
I0101 05:25:47.050024 10277 net.cpp:155] Setting up bn24_relu24_0_split
I0101 05:25:47.050035 10277 net.cpp:163] Top shape: 32 64 56 56 (6422528)
I0101 05:25:47.050046 10277 net.cpp:163] Top shape: 32 64 56 56 (6422528)
I0101 05:25:47.050056 10277 layer_factory.hpp:76] Creating layer eltwise2
I0101 05:25:47.050070 10277 net.cpp:110] Creating Layer eltwise2
I0101 05:25:47.050079 10277 net.cpp:477] eltwise2 <- eltwise1_relu1_0_split_1
I0101 05:25:47.050091 10277 net.cpp:477] eltwise2 <- bn24_relu24_0_split_0
I0101 05:25:47.050104 10277 net.cpp:433] eltwise2 -> eltwise2
I0101 05:25:47.050118 10277 net.cpp:155] Setting up eltwise2
I0101 05:25:47.050129 10277 net.cpp:163] Top shape: 32 64 56 56 (6422528)
I0101 05:25:47.050140 10277 layer_factory.hpp:76] Creating layer relu2
I0101 05:25:47.050153 10277 net.cpp:110] Creating Layer relu2
I0101 05:25:47.050163 10277 net.cpp:477] relu2 <- eltwise2
I0101 05:25:47.050174 10277 net.cpp:419] relu2 -> eltwise2 (in-place)
I0101 05:25:47.050374 10277 net.cpp:155] Setting up relu2
I0101 05:25:47.050392 10277 net.cpp:163] Top shape: 32 64 56 56 (6422528)
I0101 05:25:47.050403 10277 layer_factory.hpp:76] Creating layer conv25
I0101 05:25:47.050418 10277 net.cpp:110] Creating Layer conv25
I0101 05:25:47.050428 10277 net.cpp:477] conv25 <- bn24_relu24_0_split_1
I0101 05:25:47.050442 10277 net.cpp:433] conv25 -> conv25
I0101 05:25:47.051065 10277 net.cpp:155] Setting up conv25
I0101 05:25:47.051084 10277 net.cpp:163] Top shape: 32 64 56 56 (6422528)
I0101 05:25:47.051098 10277 layer_factory.hpp:76] Creating layer bn25
I0101 05:25:47.051113 10277 net.cpp:110] Creating Layer bn25
I0101 05:25:47.051123 10277 net.cpp:477] bn25 <- conv25
I0101 05:25:47.051137 10277 net.cpp:433] bn25 -> bn25
I0101 05:25:47.051249 10277 net.cpp:155] Setting up bn25
I0101 05:25:47.051265 10277 net.cpp:163] Top shape: 32 64 56 56 (6422528)
I0101 05:25:47.051290 10277 layer_factory.hpp:76] Creating layer relu25
I0101 05:25:47.051302 10277 net.cpp:110] Creating Layer relu25
I0101 05:25:47.051313 10277 net.cpp:477] relu25 <- bn25
I0101 05:25:47.051326 10277 net.cpp:419] relu25 -> bn25 (in-place)
I0101 05:25:47.051398 10277 net.cpp:155] Setting up relu25
I0101 05:25:47.051414 10277 net.cpp:163] Top shape: 32 64 56 56 (6422528)
I0101 05:25:47.051424 10277 layer_factory.hpp:76] Creating layer conv26
I0101 05:25:47.051439 10277 net.cpp:110] Creating Layer conv26
I0101 05:25:47.051448 10277 net.cpp:477] conv26 <- bn25
I0101 05:25:47.051461 10277 net.cpp:433] conv26 -> conv26
I0101 05:25:47.052603 10277 net.cpp:155] Setting up conv26
I0101 05:25:47.052624 10277 net.cpp:163] Top shape: 32 64 56 56 (6422528)
I0101 05:25:47.052639 10277 layer_factory.hpp:76] Creating layer bn26
I0101 05:25:47.052654 10277 net.cpp:110] Creating Layer bn26
I0101 05:25:47.052664 10277 net.cpp:477] bn26 <- conv26
I0101 05:25:47.052677 10277 net.cpp:433] bn26 -> bn26
I0101 05:25:47.052788 10277 net.cpp:155] Setting up bn26
I0101 05:25:47.052805 10277 net.cpp:163] Top shape: 32 64 56 56 (6422528)
I0101 05:25:47.052820 10277 layer_factory.hpp:76] Creating layer relu26
I0101 05:25:47.052834 10277 net.cpp:110] Creating Layer relu26
I0101 05:25:47.052844 10277 net.cpp:477] relu26 <- bn26
I0101 05:25:47.052856 10277 net.cpp:419] relu26 -> bn26 (in-place)
I0101 05:25:47.052929 10277 net.cpp:155] Setting up relu26
I0101 05:25:47.052944 10277 net.cpp:163] Top shape: 32 64 56 56 (6422528)
I0101 05:25:47.052954 10277 layer_factory.hpp:76] Creating layer eltwise3
I0101 05:25:47.052968 10277 net.cpp:110] Creating Layer eltwise3
I0101 05:25:47.052978 10277 net.cpp:477] eltwise3 <- eltwise2
I0101 05:25:47.052989 10277 net.cpp:477] eltwise3 <- bn26
I0101 05:25:47.053002 10277 net.cpp:433] eltwise3 -> eltwise3
I0101 05:25:47.053016 10277 net.cpp:155] Setting up eltwise3
I0101 05:25:47.053028 10277 net.cpp:163] Top shape: 32 64 56 56 (6422528)
I0101 05:25:47.053038 10277 layer_factory.hpp:76] Creating layer relu3
I0101 05:25:47.053050 10277 net.cpp:110] Creating Layer relu3
I0101 05:25:47.053061 10277 net.cpp:477] relu3 <- eltwise3
I0101 05:25:47.053073 10277 net.cpp:419] relu3 -> eltwise3 (in-place)
I0101 05:25:47.053141 10277 net.cpp:155] Setting up relu3
I0101 05:25:47.053156 10277 net.cpp:163] Top shape: 32 64 56 56 (6422528)
I0101 05:25:47.053167 10277 layer_factory.hpp:76] Creating layer eltwise3_relu3_0_split
I0101 05:25:47.053181 10277 net.cpp:110] Creating Layer eltwise3_relu3_0_split
I0101 05:25:47.053192 10277 net.cpp:477] eltwise3_relu3_0_split <- eltwise3
I0101 05:25:47.053205 10277 net.cpp:433] eltwise3_relu3_0_split -> eltwise3_relu3_0_split_0
I0101 05:25:47.053220 10277 net.cpp:433] eltwise3_relu3_0_split -> eltwise3_relu3_0_split_1
I0101 05:25:47.053233 10277 net.cpp:155] Setting up eltwise3_relu3_0_split
I0101 05:25:47.053246 10277 net.cpp:163] Top shape: 32 64 56 56 (6422528)
I0101 05:25:47.053256 10277 net.cpp:163] Top shape: 32 64 56 56 (6422528)
I0101 05:25:47.053267 10277 layer_factory.hpp:76] Creating layer relu3_p
I0101 05:25:47.053280 10277 net.cpp:110] Creating Layer relu3_p
I0101 05:25:47.053308 10277 net.cpp:477] relu3_p <- eltwise3_relu3_0_split_0
I0101 05:25:47.053323 10277 net.cpp:433] relu3_p -> relu3_p
I0101 05:25:47.053773 10277 net.cpp:155] Setting up relu3_p
I0101 05:25:47.053793 10277 net.cpp:163] Top shape: 32 128 28 28 (3211264)
I0101 05:25:47.053807 10277 layer_factory.hpp:76] Creating layer conv31
I0101 05:25:47.053823 10277 net.cpp:110] Creating Layer conv31
I0101 05:25:47.053833 10277 net.cpp:477] conv31 <- eltwise3_relu3_0_split_1
I0101 05:25:47.053848 10277 net.cpp:433] conv31 -> conv31
I0101 05:25:47.054718 10277 net.cpp:155] Setting up conv31
I0101 05:25:47.054738 10277 net.cpp:163] Top shape: 32 128 28 28 (3211264)
I0101 05:25:47.058300 10277 layer_factory.hpp:76] Creating layer bn31
I0101 05:25:47.058323 10277 net.cpp:110] Creating Layer bn31
I0101 05:25:47.058336 10277 net.cpp:477] bn31 <- conv31
I0101 05:25:47.058351 10277 net.cpp:433] bn31 -> bn31
I0101 05:25:47.058461 10277 net.cpp:155] Setting up bn31
I0101 05:25:47.058480 10277 net.cpp:163] Top shape: 32 128 28 28 (3211264)
I0101 05:25:47.058496 10277 layer_factory.hpp:76] Creating layer relu31
I0101 05:25:47.058511 10277 net.cpp:110] Creating Layer relu31
I0101 05:25:47.058521 10277 net.cpp:477] relu31 <- bn31
I0101 05:25:47.058534 10277 net.cpp:419] relu31 -> bn31 (in-place)
I0101 05:25:47.058739 10277 net.cpp:155] Setting up relu31
I0101 05:25:47.058759 10277 net.cpp:163] Top shape: 32 128 28 28 (3211264)
I0101 05:25:47.058771 10277 layer_factory.hpp:76] Creating layer conv32
I0101 05:25:47.058786 10277 net.cpp:110] Creating Layer conv32
I0101 05:25:47.058797 10277 net.cpp:477] conv32 <- bn31
I0101 05:25:47.058812 10277 net.cpp:433] conv32 -> conv32
I0101 05:25:47.060757 10277 net.cpp:155] Setting up conv32
I0101 05:25:47.060781 10277 net.cpp:163] Top shape: 32 128 28 28 (3211264)
I0101 05:25:47.060806 10277 layer_factory.hpp:76] Creating layer bn32
I0101 05:25:47.060822 10277 net.cpp:110] Creating Layer bn32
I0101 05:25:47.060833 10277 net.cpp:477] bn32 <- conv32
I0101 05:25:47.060847 10277 net.cpp:433] bn32 -> bn32
I0101 05:25:47.060956 10277 net.cpp:155] Setting up bn32
I0101 05:25:47.060973 10277 net.cpp:163] Top shape: 32 128 28 28 (3211264)
I0101 05:25:47.060989 10277 layer_factory.hpp:76] Creating layer relu32
I0101 05:25:47.061004 10277 net.cpp:110] Creating Layer relu32
I0101 05:25:47.061014 10277 net.cpp:477] relu32 <- bn32
I0101 05:25:47.061028 10277 net.cpp:419] relu32 -> bn32 (in-place)
I0101 05:25:47.061116 10277 net.cpp:155] Setting up relu32
I0101 05:25:47.061133 10277 net.cpp:163] Top shape: 32 128 28 28 (3211264)
I0101 05:25:47.061144 10277 layer_factory.hpp:76] Creating layer eltwise4
I0101 05:25:47.061158 10277 net.cpp:110] Creating Layer eltwise4
I0101 05:25:47.061169 10277 net.cpp:477] eltwise4 <- relu3_p
I0101 05:25:47.061182 10277 net.cpp:477] eltwise4 <- bn32
I0101 05:25:47.061194 10277 net.cpp:433] eltwise4 -> eltwise4
I0101 05:25:47.061210 10277 net.cpp:155] Setting up eltwise4
I0101 05:25:47.061223 10277 net.cpp:163] Top shape: 32 128 28 28 (3211264)
I0101 05:25:47.061233 10277 layer_factory.hpp:76] Creating layer relu4
I0101 05:25:47.061246 10277 net.cpp:110] Creating Layer relu4
I0101 05:25:47.061259 10277 net.cpp:477] relu4 <- eltwise4
I0101 05:25:47.061288 10277 net.cpp:419] relu4 -> eltwise4 (in-place)
I0101 05:25:47.061370 10277 net.cpp:155] Setting up relu4
I0101 05:25:47.061388 10277 net.cpp:163] Top shape: 32 128 28 28 (3211264)
I0101 05:25:47.061398 10277 layer_factory.hpp:76] Creating layer eltwise4_relu4_0_split
I0101 05:25:47.061411 10277 net.cpp:110] Creating Layer eltwise4_relu4_0_split
I0101 05:25:47.061422 10277 net.cpp:477] eltwise4_relu4_0_split <- eltwise4
I0101 05:25:47.061439 10277 net.cpp:433] eltwise4_relu4_0_split -> eltwise4_relu4_0_split_0
I0101 05:25:47.061455 10277 net.cpp:433] eltwise4_relu4_0_split -> eltwise4_relu4_0_split_1
I0101 05:25:47.061468 10277 net.cpp:155] Setting up eltwise4_relu4_0_split
I0101 05:25:47.061480 10277 net.cpp:163] Top shape: 32 128 28 28 (3211264)
I0101 05:25:47.061492 10277 net.cpp:163] Top shape: 32 128 28 28 (3211264)
I0101 05:25:47.061517 10277 layer_factory.hpp:76] Creating layer conv33
I0101 05:25:47.061533 10277 net.cpp:110] Creating Layer conv33
I0101 05:25:47.061544 10277 net.cpp:477] conv33 <- eltwise4_relu4_0_split_0
I0101 05:25:47.061559 10277 net.cpp:433] conv33 -> conv33
I0101 05:25:47.063503 10277 net.cpp:155] Setting up conv33
I0101 05:25:47.063529 10277 net.cpp:163] Top shape: 32 128 28 28 (3211264)
I0101 05:25:47.063544 10277 layer_factory.hpp:76] Creating layer bn33
I0101 05:25:47.063560 10277 net.cpp:110] Creating Layer bn33
I0101 05:25:47.063571 10277 net.cpp:477] bn33 <- conv33
I0101 05:25:47.065207 10277 net.cpp:433] bn33 -> bn33
I0101 05:25:47.065336 10277 net.cpp:155] Setting up bn33
I0101 05:25:47.065357 10277 net.cpp:163] Top shape: 32 128 28 28 (3211264)
I0101 05:25:47.065374 10277 layer_factory.hpp:76] Creating layer relu33
I0101 05:25:47.065389 10277 net.cpp:110] Creating Layer relu33
I0101 05:25:47.065400 10277 net.cpp:477] relu33 <- bn33
I0101 05:25:47.065414 10277 net.cpp:419] relu33 -> bn33 (in-place)
I0101 05:25:47.065498 10277 net.cpp:155] Setting up relu33
I0101 05:25:47.065516 10277 net.cpp:163] Top shape: 32 128 28 28 (3211264)
I0101 05:25:47.065528 10277 layer_factory.hpp:76] Creating layer conv34
I0101 05:25:47.065544 10277 net.cpp:110] Creating Layer conv34
I0101 05:25:47.065556 10277 net.cpp:477] conv34 <- bn33
I0101 05:25:47.065569 10277 net.cpp:433] conv34 -> conv34
I0101 05:25:47.068505 10277 net.cpp:155] Setting up conv34
I0101 05:25:47.068533 10277 net.cpp:163] Top shape: 32 128 28 28 (3211264)
I0101 05:25:47.068552 10277 layer_factory.hpp:76] Creating layer bn34
I0101 05:25:47.068569 10277 net.cpp:110] Creating Layer bn34
I0101 05:25:47.068581 10277 net.cpp:477] bn34 <- conv34
I0101 05:25:47.068595 10277 net.cpp:433] bn34 -> bn34
I0101 05:25:47.068694 10277 net.cpp:155] Setting up bn34
I0101 05:25:47.068714 10277 net.cpp:163] Top shape: 32 128 28 28 (3211264)
I0101 05:25:47.068742 10277 layer_factory.hpp:76] Creating layer relu34
I0101 05:25:47.068758 10277 net.cpp:110] Creating Layer relu34
I0101 05:25:47.068768 10277 net.cpp:477] relu34 <- bn34
I0101 05:25:47.068783 10277 net.cpp:419] relu34 -> bn34 (in-place)
I0101 05:25:47.068964 10277 net.cpp:155] Setting up relu34
I0101 05:25:47.068984 10277 net.cpp:163] Top shape: 32 128 28 28 (3211264)
I0101 05:25:47.068995 10277 layer_factory.hpp:76] Creating layer eltwise5
I0101 05:25:47.069010 10277 net.cpp:110] Creating Layer eltwise5
I0101 05:25:47.069022 10277 net.cpp:477] eltwise5 <- eltwise4_relu4_0_split_1
I0101 05:25:47.069036 10277 net.cpp:477] eltwise5 <- bn34
I0101 05:25:47.069048 10277 net.cpp:433] eltwise5 -> eltwise5
I0101 05:25:47.069064 10277 net.cpp:155] Setting up eltwise5
I0101 05:25:47.069077 10277 net.cpp:163] Top shape: 32 128 28 28 (3211264)
I0101 05:25:47.069087 10277 layer_factory.hpp:76] Creating layer relu5
I0101 05:25:47.069100 10277 net.cpp:110] Creating Layer relu5
I0101 05:25:47.069110 10277 net.cpp:477] relu5 <- eltwise5
I0101 05:25:47.069123 10277 net.cpp:419] relu5 -> eltwise5 (in-place)
I0101 05:25:47.069200 10277 net.cpp:155] Setting up relu5
I0101 05:25:47.069216 10277 net.cpp:163] Top shape: 32 128 28 28 (3211264)
I0101 05:25:47.069226 10277 layer_factory.hpp:76] Creating layer eltwise5_relu5_0_split
I0101 05:25:47.069239 10277 net.cpp:110] Creating Layer eltwise5_relu5_0_split
I0101 05:25:47.069249 10277 net.cpp:477] eltwise5_relu5_0_split <- eltwise5
I0101 05:25:47.069262 10277 net.cpp:433] eltwise5_relu5_0_split -> eltwise5_relu5_0_split_0
I0101 05:25:47.069277 10277 net.cpp:433] eltwise5_relu5_0_split -> eltwise5_relu5_0_split_1
I0101 05:25:47.069290 10277 net.cpp:155] Setting up eltwise5_relu5_0_split
I0101 05:25:47.069310 10277 net.cpp:163] Top shape: 32 128 28 28 (3211264)
I0101 05:25:47.069322 10277 net.cpp:163] Top shape: 32 128 28 28 (3211264)
I0101 05:25:47.069378 10277 layer_factory.hpp:76] Creating layer conv35
I0101 05:25:47.069396 10277 net.cpp:110] Creating Layer conv35
I0101 05:25:47.069406 10277 net.cpp:477] conv35 <- eltwise5_relu5_0_split_0
I0101 05:25:47.069421 10277 net.cpp:433] conv35 -> conv35
I0101 05:25:47.071336 10277 net.cpp:155] Setting up conv35
I0101 05:25:47.071357 10277 net.cpp:163] Top shape: 32 128 28 28 (3211264)
I0101 05:25:47.071374 10277 layer_factory.hpp:76] Creating layer bn35
I0101 05:25:47.071390 10277 net.cpp:110] Creating Layer bn35
I0101 05:25:47.071401 10277 net.cpp:477] bn35 <- conv35
I0101 05:25:47.071416 10277 net.cpp:433] bn35 -> bn35
I0101 05:25:47.071512 10277 net.cpp:155] Setting up bn35
I0101 05:25:47.071530 10277 net.cpp:163] Top shape: 32 128 28 28 (3211264)
I0101 05:25:47.071545 10277 layer_factory.hpp:76] Creating layer relu35
I0101 05:25:47.071559 10277 net.cpp:110] Creating Layer relu35
I0101 05:25:47.071569 10277 net.cpp:477] relu35 <- bn35
I0101 05:25:47.071583 10277 net.cpp:419] relu35 -> bn35 (in-place)
I0101 05:25:47.071652 10277 net.cpp:155] Setting up relu35
I0101 05:25:47.071668 10277 net.cpp:163] Top shape: 32 128 28 28 (3211264)
I0101 05:25:47.071678 10277 layer_factory.hpp:76] Creating layer conv36
I0101 05:25:47.071693 10277 net.cpp:110] Creating Layer conv36
I0101 05:25:47.071703 10277 net.cpp:477] conv36 <- bn35
I0101 05:25:47.071717 10277 net.cpp:433] conv36 -> conv36
I0101 05:25:47.073616 10277 net.cpp:155] Setting up conv36
I0101 05:25:47.073637 10277 net.cpp:163] Top shape: 32 128 28 28 (3211264)
I0101 05:25:47.073652 10277 layer_factory.hpp:76] Creating layer bn36
I0101 05:25:47.073668 10277 net.cpp:110] Creating Layer bn36
I0101 05:25:47.073679 10277 net.cpp:477] bn36 <- conv36
I0101 05:25:47.073694 10277 net.cpp:433] bn36 -> bn36
I0101 05:25:47.073792 10277 net.cpp:155] Setting up bn36
I0101 05:25:47.073809 10277 net.cpp:163] Top shape: 32 128 28 28 (3211264)
I0101 05:25:47.073824 10277 layer_factory.hpp:76] Creating layer relu36
I0101 05:25:47.073838 10277 net.cpp:110] Creating Layer relu36
I0101 05:25:47.073848 10277 net.cpp:477] relu36 <- bn36
I0101 05:25:47.073860 10277 net.cpp:419] relu36 -> bn36 (in-place)
I0101 05:25:47.074043 10277 net.cpp:155] Setting up relu36
I0101 05:25:47.074061 10277 net.cpp:163] Top shape: 32 128 28 28 (3211264)
I0101 05:25:47.074074 10277 layer_factory.hpp:76] Creating layer eltwise6
I0101 05:25:47.074087 10277 net.cpp:110] Creating Layer eltwise6
I0101 05:25:47.074097 10277 net.cpp:477] eltwise6 <- eltwise5_relu5_0_split_1
I0101 05:25:47.074110 10277 net.cpp:477] eltwise6 <- bn36
I0101 05:25:47.074122 10277 net.cpp:433] eltwise6 -> eltwise6
I0101 05:25:47.074137 10277 net.cpp:155] Setting up eltwise6
I0101 05:25:47.074151 10277 net.cpp:163] Top shape: 32 128 28 28 (3211264)
I0101 05:25:47.074161 10277 layer_factory.hpp:76] Creating layer relu6
I0101 05:25:47.074172 10277 net.cpp:110] Creating Layer relu6
I0101 05:25:47.074182 10277 net.cpp:477] relu6 <- eltwise6
I0101 05:25:47.074195 10277 net.cpp:419] relu6 -> eltwise6 (in-place)
I0101 05:25:47.074265 10277 net.cpp:155] Setting up relu6
I0101 05:25:47.074280 10277 net.cpp:163] Top shape: 32 128 28 28 (3211264)
I0101 05:25:47.074291 10277 layer_factory.hpp:76] Creating layer eltwise6_relu6_0_split
I0101 05:25:47.074304 10277 net.cpp:110] Creating Layer eltwise6_relu6_0_split
I0101 05:25:47.074314 10277 net.cpp:477] eltwise6_relu6_0_split <- eltwise6
I0101 05:25:47.074327 10277 net.cpp:433] eltwise6_relu6_0_split -> eltwise6_relu6_0_split_0
I0101 05:25:47.074343 10277 net.cpp:433] eltwise6_relu6_0_split -> eltwise6_relu6_0_split_1
I0101 05:25:47.074381 10277 net.cpp:155] Setting up eltwise6_relu6_0_split
I0101 05:25:47.074393 10277 net.cpp:163] Top shape: 32 128 28 28 (3211264)
I0101 05:25:47.074404 10277 net.cpp:163] Top shape: 32 128 28 28 (3211264)
I0101 05:25:47.074414 10277 layer_factory.hpp:76] Creating layer conv37
I0101 05:25:47.074429 10277 net.cpp:110] Creating Layer conv37
I0101 05:25:47.074440 10277 net.cpp:477] conv37 <- eltwise6_relu6_0_split_0
I0101 05:25:47.074453 10277 net.cpp:433] conv37 -> conv37
I0101 05:25:47.076325 10277 net.cpp:155] Setting up conv37
I0101 05:25:47.076346 10277 net.cpp:163] Top shape: 32 128 28 28 (3211264)
I0101 05:25:47.076361 10277 layer_factory.hpp:76] Creating layer bn37
I0101 05:25:47.076376 10277 net.cpp:110] Creating Layer bn37
I0101 05:25:47.076400 10277 net.cpp:477] bn37 <- conv37
I0101 05:25:47.076416 10277 net.cpp:433] bn37 -> bn37
I0101 05:25:47.076514 10277 net.cpp:155] Setting up bn37
I0101 05:25:47.076531 10277 net.cpp:163] Top shape: 32 128 28 28 (3211264)
I0101 05:25:47.076547 10277 layer_factory.hpp:76] Creating layer relu37
I0101 05:25:47.076561 10277 net.cpp:110] Creating Layer relu37
I0101 05:25:47.076571 10277 net.cpp:477] relu37 <- bn37
I0101 05:25:47.076583 10277 net.cpp:419] relu37 -> bn37 (in-place)
I0101 05:25:47.091351 10277 net.cpp:155] Setting up relu37
I0101 05:25:47.091380 10277 net.cpp:163] Top shape: 32 128 28 28 (3211264)
I0101 05:25:47.091393 10277 layer_factory.hpp:76] Creating layer conv38
I0101 05:25:47.091416 10277 net.cpp:110] Creating Layer conv38
I0101 05:25:47.091428 10277 net.cpp:477] conv38 <- bn37
I0101 05:25:47.091444 10277 net.cpp:433] conv38 -> conv38
I0101 05:25:47.093410 10277 net.cpp:155] Setting up conv38
I0101 05:25:47.093433 10277 net.cpp:163] Top shape: 32 128 28 28 (3211264)
I0101 05:25:47.093449 10277 layer_factory.hpp:76] Creating layer bn38
I0101 05:25:47.093466 10277 net.cpp:110] Creating Layer bn38
I0101 05:25:47.093477 10277 net.cpp:477] bn38 <- conv38
I0101 05:25:47.093492 10277 net.cpp:433] bn38 -> bn38
I0101 05:25:47.093595 10277 net.cpp:155] Setting up bn38
I0101 05:25:47.093612 10277 net.cpp:163] Top shape: 32 128 28 28 (3211264)
I0101 05:25:47.093628 10277 layer_factory.hpp:76] Creating layer relu38
I0101 05:25:47.093642 10277 net.cpp:110] Creating Layer relu38
I0101 05:25:47.093653 10277 net.cpp:477] relu38 <- bn38
I0101 05:25:47.093667 10277 net.cpp:419] relu38 -> bn38 (in-place)
I0101 05:25:47.093747 10277 net.cpp:155] Setting up relu38
I0101 05:25:47.093763 10277 net.cpp:163] Top shape: 32 128 28 28 (3211264)
I0101 05:25:47.093775 10277 layer_factory.hpp:76] Creating layer eltwise7
I0101 05:25:47.093789 10277 net.cpp:110] Creating Layer eltwise7
I0101 05:25:47.093801 10277 net.cpp:477] eltwise7 <- eltwise6_relu6_0_split_1
I0101 05:25:47.093812 10277 net.cpp:477] eltwise7 <- bn38
I0101 05:25:47.093825 10277 net.cpp:433] eltwise7 -> eltwise7
I0101 05:25:47.093840 10277 net.cpp:155] Setting up eltwise7
I0101 05:25:47.093852 10277 net.cpp:163] Top shape: 32 128 28 28 (3211264)
I0101 05:25:47.093863 10277 layer_factory.hpp:76] Creating layer relu7
I0101 05:25:47.093875 10277 net.cpp:110] Creating Layer relu7
I0101 05:25:47.093885 10277 net.cpp:477] relu7 <- eltwise7
I0101 05:25:47.093899 10277 net.cpp:419] relu7 -> eltwise7 (in-place)
I0101 05:25:47.094080 10277 net.cpp:155] Setting up relu7
I0101 05:25:47.094099 10277 net.cpp:163] Top shape: 32 128 28 28 (3211264)
I0101 05:25:47.094111 10277 layer_factory.hpp:76] Creating layer eltwise7_relu7_0_split
I0101 05:25:47.094125 10277 net.cpp:110] Creating Layer eltwise7_relu7_0_split
I0101 05:25:47.094135 10277 net.cpp:477] eltwise7_relu7_0_split <- eltwise7
I0101 05:25:47.094148 10277 net.cpp:433] eltwise7_relu7_0_split -> eltwise7_relu7_0_split_0
I0101 05:25:47.094162 10277 net.cpp:433] eltwise7_relu7_0_split -> eltwise7_relu7_0_split_1
I0101 05:25:47.094177 10277 net.cpp:155] Setting up eltwise7_relu7_0_split
I0101 05:25:47.094189 10277 net.cpp:163] Top shape: 32 128 28 28 (3211264)
I0101 05:25:47.094200 10277 net.cpp:163] Top shape: 32 128 28 28 (3211264)
I0101 05:25:47.094211 10277 layer_factory.hpp:76] Creating layer relu7_p
I0101 05:25:47.094226 10277 net.cpp:110] Creating Layer relu7_p
I0101 05:25:47.094238 10277 net.cpp:477] relu7_p <- eltwise7_relu7_0_split_0
I0101 05:25:47.094250 10277 net.cpp:433] relu7_p -> relu7_p
I0101 05:25:47.094864 10277 net.cpp:155] Setting up relu7_p
I0101 05:25:47.094884 10277 net.cpp:163] Top shape: 32 256 14 14 (1605632)
I0101 05:25:47.094898 10277 layer_factory.hpp:76] Creating layer conv41
I0101 05:25:47.094915 10277 net.cpp:110] Creating Layer conv41
I0101 05:25:47.094925 10277 net.cpp:477] conv41 <- eltwise7_relu7_0_split_1
I0101 05:25:47.094939 10277 net.cpp:433] conv41 -> conv41
I0101 05:25:47.097932 10277 net.cpp:155] Setting up conv41
I0101 05:25:47.097955 10277 net.cpp:163] Top shape: 32 256 14 14 (1605632)
I0101 05:25:47.097985 10277 layer_factory.hpp:76] Creating layer bn41
I0101 05:25:47.098006 10277 net.cpp:110] Creating Layer bn41
I0101 05:25:47.098016 10277 net.cpp:477] bn41 <- conv41
I0101 05:25:47.098031 10277 net.cpp:433] bn41 -> bn41
I0101 05:25:47.098134 10277 net.cpp:155] Setting up bn41
I0101 05:25:47.098160 10277 net.cpp:163] Top shape: 32 256 14 14 (1605632)
I0101 05:25:47.098175 10277 layer_factory.hpp:76] Creating layer relu41
I0101 05:25:47.098188 10277 net.cpp:110] Creating Layer relu41
I0101 05:25:47.098199 10277 net.cpp:477] relu41 <- bn41
I0101 05:25:47.098212 10277 net.cpp:419] relu41 -> bn41 (in-place)
I0101 05:25:47.098284 10277 net.cpp:155] Setting up relu41
I0101 05:25:47.098299 10277 net.cpp:163] Top shape: 32 256 14 14 (1605632)
I0101 05:25:47.098310 10277 layer_factory.hpp:76] Creating layer conv42
I0101 05:25:47.098325 10277 net.cpp:110] Creating Layer conv42
I0101 05:25:47.098335 10277 net.cpp:477] conv42 <- bn41
I0101 05:25:47.098350 10277 net.cpp:433] conv42 -> conv42
I0101 05:25:47.103893 10277 net.cpp:155] Setting up conv42
I0101 05:25:47.103917 10277 net.cpp:163] Top shape: 32 256 14 14 (1605632)
I0101 05:25:47.103932 10277 layer_factory.hpp:76] Creating layer bn42
I0101 05:25:47.103947 10277 net.cpp:110] Creating Layer bn42
I0101 05:25:47.103958 10277 net.cpp:477] bn42 <- conv42
I0101 05:25:47.103973 10277 net.cpp:433] bn42 -> bn42
I0101 05:25:47.104082 10277 net.cpp:155] Setting up bn42
I0101 05:25:47.104100 10277 net.cpp:163] Top shape: 32 256 14 14 (1605632)
I0101 05:25:47.104115 10277 layer_factory.hpp:76] Creating layer relu42
I0101 05:25:47.104128 10277 net.cpp:110] Creating Layer relu42
I0101 05:25:47.104140 10277 net.cpp:477] relu42 <- bn42
I0101 05:25:47.104151 10277 net.cpp:419] relu42 -> bn42 (in-place)
I0101 05:25:47.104221 10277 net.cpp:155] Setting up relu42
I0101 05:25:47.104236 10277 net.cpp:163] Top shape: 32 256 14 14 (1605632)
I0101 05:25:47.104248 10277 layer_factory.hpp:76] Creating layer eltwise8
I0101 05:25:47.104261 10277 net.cpp:110] Creating Layer eltwise8
I0101 05:25:47.104271 10277 net.cpp:477] eltwise8 <- relu7_p
I0101 05:25:47.104284 10277 net.cpp:477] eltwise8 <- bn42
I0101 05:25:47.104302 10277 net.cpp:433] eltwise8 -> eltwise8
I0101 05:25:47.104318 10277 net.cpp:155] Setting up eltwise8
I0101 05:25:47.104331 10277 net.cpp:163] Top shape: 32 256 14 14 (1605632)
I0101 05:25:47.104341 10277 layer_factory.hpp:76] Creating layer relu8
I0101 05:25:47.104357 10277 net.cpp:110] Creating Layer relu8
I0101 05:25:47.104368 10277 net.cpp:477] relu8 <- eltwise8
I0101 05:25:47.104382 10277 net.cpp:419] relu8 -> eltwise8 (in-place)
I0101 05:25:47.104449 10277 net.cpp:155] Setting up relu8
I0101 05:25:47.104465 10277 net.cpp:163] Top shape: 32 256 14 14 (1605632)
I0101 05:25:47.104475 10277 layer_factory.hpp:76] Creating layer eltwise8_relu8_0_split
I0101 05:25:47.104487 10277 net.cpp:110] Creating Layer eltwise8_relu8_0_split
I0101 05:25:47.104497 10277 net.cpp:477] eltwise8_relu8_0_split <- eltwise8
I0101 05:25:47.104511 10277 net.cpp:433] eltwise8_relu8_0_split -> eltwise8_relu8_0_split_0
I0101 05:25:47.104524 10277 net.cpp:433] eltwise8_relu8_0_split -> eltwise8_relu8_0_split_1
I0101 05:25:47.104547 10277 net.cpp:155] Setting up eltwise8_relu8_0_split
I0101 05:25:47.104559 10277 net.cpp:163] Top shape: 32 256 14 14 (1605632)
I0101 05:25:47.104571 10277 net.cpp:163] Top shape: 32 256 14 14 (1605632)
I0101 05:25:47.104581 10277 layer_factory.hpp:76] Creating layer conv43
I0101 05:25:47.104596 10277 net.cpp:110] Creating Layer conv43
I0101 05:25:47.104615 10277 net.cpp:477] conv43 <- eltwise8_relu8_0_split_0
I0101 05:25:47.104629 10277 net.cpp:433] conv43 -> conv43
I0101 05:25:47.110368 10277 net.cpp:155] Setting up conv43
I0101 05:25:47.110390 10277 net.cpp:163] Top shape: 32 256 14 14 (1605632)
I0101 05:25:47.110407 10277 layer_factory.hpp:76] Creating layer bn43
I0101 05:25:47.110424 10277 net.cpp:110] Creating Layer bn43
I0101 05:25:47.110436 10277 net.cpp:477] bn43 <- conv43
I0101 05:25:47.110453 10277 net.cpp:433] bn43 -> bn43
I0101 05:25:47.110579 10277 net.cpp:155] Setting up bn43
I0101 05:25:47.110596 10277 net.cpp:163] Top shape: 32 256 14 14 (1605632)
I0101 05:25:47.110612 10277 layer_factory.hpp:76] Creating layer relu43
I0101 05:25:47.110627 10277 net.cpp:110] Creating Layer relu43
I0101 05:25:47.110638 10277 net.cpp:477] relu43 <- bn43
I0101 05:25:47.110651 10277 net.cpp:419] relu43 -> bn43 (in-place)
I0101 05:25:47.110855 10277 net.cpp:155] Setting up relu43
I0101 05:25:47.110875 10277 net.cpp:163] Top shape: 32 256 14 14 (1605632)
I0101 05:25:47.110887 10277 layer_factory.hpp:76] Creating layer conv44
I0101 05:25:47.110905 10277 net.cpp:110] Creating Layer conv44
I0101 05:25:47.110918 10277 net.cpp:477] conv44 <- bn43
I0101 05:25:47.110931 10277 net.cpp:433] conv44 -> conv44
I0101 05:25:47.116675 10277 net.cpp:155] Setting up conv44
I0101 05:25:47.116703 10277 net.cpp:163] Top shape: 32 256 14 14 (1605632)
I0101 05:25:47.116719 10277 layer_factory.hpp:76] Creating layer bn44
I0101 05:25:47.116735 10277 net.cpp:110] Creating Layer bn44
I0101 05:25:47.116747 10277 net.cpp:477] bn44 <- conv44
I0101 05:25:47.116763 10277 net.cpp:433] bn44 -> bn44
I0101 05:25:47.116876 10277 net.cpp:155] Setting up bn44
I0101 05:25:47.116894 10277 net.cpp:163] Top shape: 32 256 14 14 (1605632)
I0101 05:25:47.116915 10277 layer_factory.hpp:76] Creating layer relu44
I0101 05:25:47.116931 10277 net.cpp:110] Creating Layer relu44
I0101 05:25:47.116942 10277 net.cpp:477] relu44 <- bn44
I0101 05:25:47.116957 10277 net.cpp:419] relu44 -> bn44 (in-place)
I0101 05:25:47.117035 10277 net.cpp:155] Setting up relu44
I0101 05:25:47.117051 10277 net.cpp:163] Top shape: 32 256 14 14 (1605632)
I0101 05:25:47.117063 10277 layer_factory.hpp:76] Creating layer eltwise9
I0101 05:25:47.117076 10277 net.cpp:110] Creating Layer eltwise9
I0101 05:25:47.117087 10277 net.cpp:477] eltwise9 <- eltwise8_relu8_0_split_1
I0101 05:25:47.117100 10277 net.cpp:477] eltwise9 <- bn44
I0101 05:25:47.117112 10277 net.cpp:433] eltwise9 -> eltwise9
I0101 05:25:47.117128 10277 net.cpp:155] Setting up eltwise9
I0101 05:25:47.117141 10277 net.cpp:163] Top shape: 32 256 14 14 (1605632)
I0101 05:25:47.117151 10277 layer_factory.hpp:76] Creating layer relu9
I0101 05:25:47.117163 10277 net.cpp:110] Creating Layer relu9
I0101 05:25:47.117174 10277 net.cpp:477] relu9 <- eltwise9
I0101 05:25:47.117189 10277 net.cpp:419] relu9 -> eltwise9 (in-place)
I0101 05:25:47.117264 10277 net.cpp:155] Setting up relu9
I0101 05:25:47.117282 10277 net.cpp:163] Top shape: 32 256 14 14 (1605632)
I0101 05:25:47.117298 10277 layer_factory.hpp:76] Creating layer eltwise9_relu9_0_split
I0101 05:25:47.117311 10277 net.cpp:110] Creating Layer eltwise9_relu9_0_split
I0101 05:25:47.117323 10277 net.cpp:477] eltwise9_relu9_0_split <- eltwise9
I0101 05:25:47.117343 10277 net.cpp:433] eltwise9_relu9_0_split -> eltwise9_relu9_0_split_0
I0101 05:25:47.117401 10277 net.cpp:433] eltwise9_relu9_0_split -> eltwise9_relu9_0_split_1
I0101 05:25:47.117416 10277 net.cpp:155] Setting up eltwise9_relu9_0_split
I0101 05:25:47.117429 10277 net.cpp:163] Top shape: 32 256 14 14 (1605632)
I0101 05:25:47.117440 10277 net.cpp:163] Top shape: 32 256 14 14 (1605632)
I0101 05:25:47.117450 10277 layer_factory.hpp:76] Creating layer conv45
I0101 05:25:47.117467 10277 net.cpp:110] Creating Layer conv45
I0101 05:25:47.117478 10277 net.cpp:477] conv45 <- eltwise9_relu9_0_split_0
I0101 05:25:47.117493 10277 net.cpp:433] conv45 -> conv45
I0101 05:25:47.123250 10277 net.cpp:155] Setting up conv45
I0101 05:25:47.123275 10277 net.cpp:163] Top shape: 32 256 14 14 (1605632)
I0101 05:25:47.123291 10277 layer_factory.hpp:76] Creating layer bn45
I0101 05:25:47.123312 10277 net.cpp:110] Creating Layer bn45
I0101 05:25:47.123324 10277 net.cpp:477] bn45 <- conv45
I0101 05:25:47.123352 10277 net.cpp:433] bn45 -> bn45
I0101 05:25:47.123466 10277 net.cpp:155] Setting up bn45
I0101 05:25:47.123482 10277 net.cpp:163] Top shape: 32 256 14 14 (1605632)
I0101 05:25:47.123498 10277 layer_factory.hpp:76] Creating layer relu45
I0101 05:25:47.123513 10277 net.cpp:110] Creating Layer relu45
I0101 05:25:47.123539 10277 net.cpp:477] relu45 <- bn45
I0101 05:25:47.123553 10277 net.cpp:419] relu45 -> bn45 (in-place)
I0101 05:25:47.123633 10277 net.cpp:155] Setting up relu45
I0101 05:25:47.123649 10277 net.cpp:163] Top shape: 32 256 14 14 (1605632)
I0101 05:25:47.123661 10277 layer_factory.hpp:76] Creating layer conv46
I0101 05:25:47.123677 10277 net.cpp:110] Creating Layer conv46
I0101 05:25:47.123687 10277 net.cpp:477] conv46 <- bn45
I0101 05:25:47.123700 10277 net.cpp:433] conv46 -> conv46
I0101 05:25:47.129472 10277 net.cpp:155] Setting up conv46
I0101 05:25:47.129510 10277 net.cpp:163] Top shape: 32 256 14 14 (1605632)
I0101 05:25:47.129525 10277 layer_factory.hpp:76] Creating layer bn46
I0101 05:25:47.129544 10277 net.cpp:110] Creating Layer bn46
I0101 05:25:47.129554 10277 net.cpp:477] bn46 <- conv46
I0101 05:25:47.129570 10277 net.cpp:433] bn46 -> bn46
I0101 05:25:47.129679 10277 net.cpp:155] Setting up bn46
I0101 05:25:47.129698 10277 net.cpp:163] Top shape: 32 256 14 14 (1605632)
I0101 05:25:47.129739 10277 layer_factory.hpp:76] Creating layer relu46
I0101 05:25:47.129757 10277 net.cpp:110] Creating Layer relu46
I0101 05:25:47.129768 10277 net.cpp:477] relu46 <- bn46
I0101 05:25:47.129781 10277 net.cpp:419] relu46 -> bn46 (in-place)
I0101 05:25:47.129962 10277 net.cpp:155] Setting up relu46
I0101 05:25:47.129981 10277 net.cpp:163] Top shape: 32 256 14 14 (1605632)
I0101 05:25:47.129997 10277 layer_factory.hpp:76] Creating layer eltwise10
I0101 05:25:47.130014 10277 net.cpp:110] Creating Layer eltwise10
I0101 05:25:47.130026 10277 net.cpp:477] eltwise10 <- eltwise9_relu9_0_split_1
I0101 05:25:47.130038 10277 net.cpp:477] eltwise10 <- bn46
I0101 05:25:47.130051 10277 net.cpp:433] eltwise10 -> eltwise10
I0101 05:25:47.130067 10277 net.cpp:155] Setting up eltwise10
I0101 05:25:47.130079 10277 net.cpp:163] Top shape: 32 256 14 14 (1605632)
I0101 05:25:47.130089 10277 layer_factory.hpp:76] Creating layer relu10
I0101 05:25:47.130102 10277 net.cpp:110] Creating Layer relu10
I0101 05:25:47.130112 10277 net.cpp:477] relu10 <- eltwise10
I0101 05:25:47.130125 10277 net.cpp:419] relu10 -> eltwise10 (in-place)
I0101 05:25:47.130195 10277 net.cpp:155] Setting up relu10
I0101 05:25:47.130210 10277 net.cpp:163] Top shape: 32 256 14 14 (1605632)
I0101 05:25:47.130221 10277 layer_factory.hpp:76] Creating layer eltwise10_relu10_0_split
I0101 05:25:47.130234 10277 net.cpp:110] Creating Layer eltwise10_relu10_0_split
I0101 05:25:47.130244 10277 net.cpp:477] eltwise10_relu10_0_split <- eltwise10
I0101 05:25:47.130256 10277 net.cpp:433] eltwise10_relu10_0_split -> eltwise10_relu10_0_split_0
I0101 05:25:47.130270 10277 net.cpp:433] eltwise10_relu10_0_split -> eltwise10_relu10_0_split_1
I0101 05:25:47.130283 10277 net.cpp:155] Setting up eltwise10_relu10_0_split
I0101 05:25:47.130295 10277 net.cpp:163] Top shape: 32 256 14 14 (1605632)
I0101 05:25:47.130306 10277 net.cpp:163] Top shape: 32 256 14 14 (1605632)
I0101 05:25:47.130316 10277 layer_factory.hpp:76] Creating layer conv47
I0101 05:25:47.130333 10277 net.cpp:110] Creating Layer conv47
I0101 05:25:47.130343 10277 net.cpp:477] conv47 <- eltwise10_relu10_0_split_0
I0101 05:25:47.130359 10277 net.cpp:433] conv47 -> conv47
I0101 05:25:47.135967 10277 net.cpp:155] Setting up conv47
I0101 05:25:47.135990 10277 net.cpp:163] Top shape: 32 256 14 14 (1605632)
I0101 05:25:47.136004 10277 layer_factory.hpp:76] Creating layer bn47
I0101 05:25:47.136021 10277 net.cpp:110] Creating Layer bn47
I0101 05:25:47.136034 10277 net.cpp:477] bn47 <- conv47
I0101 05:25:47.136049 10277 net.cpp:433] bn47 -> bn47
I0101 05:25:47.136168 10277 net.cpp:155] Setting up bn47
I0101 05:25:47.136185 10277 net.cpp:163] Top shape: 32 256 14 14 (1605632)
I0101 05:25:47.136200 10277 layer_factory.hpp:76] Creating layer relu47
I0101 05:25:47.136216 10277 net.cpp:110] Creating Layer relu47
I0101 05:25:47.136226 10277 net.cpp:477] relu47 <- bn47
I0101 05:25:47.136240 10277 net.cpp:419] relu47 -> bn47 (in-place)
I0101 05:25:47.136315 10277 net.cpp:155] Setting up relu47
I0101 05:25:47.136330 10277 net.cpp:163] Top shape: 32 256 14 14 (1605632)
I0101 05:25:47.136356 10277 layer_factory.hpp:76] Creating layer conv48
I0101 05:25:47.136373 10277 net.cpp:110] Creating Layer conv48
I0101 05:25:47.136384 10277 net.cpp:477] conv48 <- bn47
I0101 05:25:47.136399 10277 net.cpp:433] conv48 -> conv48
I0101 05:25:47.141981 10277 net.cpp:155] Setting up conv48
I0101 05:25:47.142004 10277 net.cpp:163] Top shape: 32 256 14 14 (1605632)
I0101 05:25:47.142019 10277 layer_factory.hpp:76] Creating layer bn48
I0101 05:25:47.142035 10277 net.cpp:110] Creating Layer bn48
I0101 05:25:47.142046 10277 net.cpp:477] bn48 <- conv48
I0101 05:25:47.142061 10277 net.cpp:433] bn48 -> bn48
I0101 05:25:47.142175 10277 net.cpp:155] Setting up bn48
I0101 05:25:47.142191 10277 net.cpp:163] Top shape: 32 256 14 14 (1605632)
I0101 05:25:47.142207 10277 layer_factory.hpp:76] Creating layer relu48
I0101 05:25:47.142220 10277 net.cpp:110] Creating Layer relu48
I0101 05:25:47.142230 10277 net.cpp:477] relu48 <- bn48
I0101 05:25:47.142243 10277 net.cpp:419] relu48 -> bn48 (in-place)
I0101 05:25:47.142427 10277 net.cpp:155] Setting up relu48
I0101 05:25:47.142446 10277 net.cpp:163] Top shape: 32 256 14 14 (1605632)
I0101 05:25:47.142457 10277 layer_factory.hpp:76] Creating layer eltwise11
I0101 05:25:47.142472 10277 net.cpp:110] Creating Layer eltwise11
I0101 05:25:47.142482 10277 net.cpp:477] eltwise11 <- eltwise10_relu10_0_split_1
I0101 05:25:47.142493 10277 net.cpp:477] eltwise11 <- bn48
I0101 05:25:47.142505 10277 net.cpp:433] eltwise11 -> eltwise11
I0101 05:25:47.142525 10277 net.cpp:155] Setting up eltwise11
I0101 05:25:47.142537 10277 net.cpp:163] Top shape: 32 256 14 14 (1605632)
I0101 05:25:47.142547 10277 layer_factory.hpp:76] Creating layer relu11
I0101 05:25:47.142560 10277 net.cpp:110] Creating Layer relu11
I0101 05:25:47.142571 10277 net.cpp:477] relu11 <- eltwise11
I0101 05:25:47.142585 10277 net.cpp:419] relu11 -> eltwise11 (in-place)
I0101 05:25:47.142655 10277 net.cpp:155] Setting up relu11
I0101 05:25:47.142671 10277 net.cpp:163] Top shape: 32 256 14 14 (1605632)
I0101 05:25:47.142681 10277 layer_factory.hpp:76] Creating layer eltwise11_relu11_0_split
I0101 05:25:47.142694 10277 net.cpp:110] Creating Layer eltwise11_relu11_0_split
I0101 05:25:47.142704 10277 net.cpp:477] eltwise11_relu11_0_split <- eltwise11
I0101 05:25:47.142719 10277 net.cpp:433] eltwise11_relu11_0_split -> eltwise11_relu11_0_split_0
I0101 05:25:47.142734 10277 net.cpp:433] eltwise11_relu11_0_split -> eltwise11_relu11_0_split_1
I0101 05:25:47.142746 10277 net.cpp:155] Setting up eltwise11_relu11_0_split
I0101 05:25:47.142758 10277 net.cpp:163] Top shape: 32 256 14 14 (1605632)
I0101 05:25:47.142770 10277 net.cpp:163] Top shape: 32 256 14 14 (1605632)
I0101 05:25:47.142779 10277 layer_factory.hpp:76] Creating layer conv49
I0101 05:25:47.142796 10277 net.cpp:110] Creating Layer conv49
I0101 05:25:47.142807 10277 net.cpp:477] conv49 <- eltwise11_relu11_0_split_0
I0101 05:25:47.142830 10277 net.cpp:433] conv49 -> conv49
I0101 05:25:47.148424 10277 net.cpp:155] Setting up conv49
I0101 05:25:47.148445 10277 net.cpp:163] Top shape: 32 256 14 14 (1605632)
I0101 05:25:47.148460 10277 layer_factory.hpp:76] Creating layer bn49
I0101 05:25:47.148478 10277 net.cpp:110] Creating Layer bn49
I0101 05:25:47.148488 10277 net.cpp:477] bn49 <- conv49
I0101 05:25:47.148501 10277 net.cpp:433] bn49 -> bn49
I0101 05:25:47.148612 10277 net.cpp:155] Setting up bn49
I0101 05:25:47.148627 10277 net.cpp:163] Top shape: 32 256 14 14 (1605632)
I0101 05:25:47.148643 10277 layer_factory.hpp:76] Creating layer relu49
I0101 05:25:47.148659 10277 net.cpp:110] Creating Layer relu49
I0101 05:25:47.148670 10277 net.cpp:477] relu49 <- bn49
I0101 05:25:47.148684 10277 net.cpp:419] relu49 -> bn49 (in-place)
I0101 05:25:47.148766 10277 net.cpp:155] Setting up relu49
I0101 05:25:47.148780 10277 net.cpp:163] Top shape: 32 256 14 14 (1605632)
I0101 05:25:47.148792 10277 layer_factory.hpp:76] Creating layer conv410
I0101 05:25:47.148805 10277 net.cpp:110] Creating Layer conv410
I0101 05:25:47.148815 10277 net.cpp:477] conv410 <- bn49
I0101 05:25:47.148841 10277 net.cpp:433] conv410 -> conv410
I0101 05:25:47.154605 10277 net.cpp:155] Setting up conv410
I0101 05:25:47.154631 10277 net.cpp:163] Top shape: 32 256 14 14 (1605632)
I0101 05:25:47.154646 10277 layer_factory.hpp:76] Creating layer bn410
I0101 05:25:47.154665 10277 net.cpp:110] Creating Layer bn410
I0101 05:25:47.154677 10277 net.cpp:477] bn410 <- conv410
I0101 05:25:47.154691 10277 net.cpp:433] bn410 -> bn410
I0101 05:25:47.154811 10277 net.cpp:155] Setting up bn410
I0101 05:25:47.154829 10277 net.cpp:163] Top shape: 32 256 14 14 (1605632)
I0101 05:25:47.154845 10277 layer_factory.hpp:76] Creating layer relu410
I0101 05:25:47.154858 10277 net.cpp:110] Creating Layer relu410
I0101 05:25:47.154870 10277 net.cpp:477] relu410 <- bn410
I0101 05:25:47.154886 10277 net.cpp:419] relu410 -> bn410 (in-place)
I0101 05:25:47.154963 10277 net.cpp:155] Setting up relu410
I0101 05:25:47.154979 10277 net.cpp:163] Top shape: 32 256 14 14 (1605632)
I0101 05:25:47.154990 10277 layer_factory.hpp:76] Creating layer eltwise12
I0101 05:25:47.155005 10277 net.cpp:110] Creating Layer eltwise12
I0101 05:25:47.155016 10277 net.cpp:477] eltwise12 <- eltwise11_relu11_0_split_1
I0101 05:25:47.155028 10277 net.cpp:477] eltwise12 <- bn410
I0101 05:25:47.155040 10277 net.cpp:433] eltwise12 -> eltwise12
I0101 05:25:47.155055 10277 net.cpp:155] Setting up eltwise12
I0101 05:25:47.155068 10277 net.cpp:163] Top shape: 32 256 14 14 (1605632)
I0101 05:25:47.155078 10277 layer_factory.hpp:76] Creating layer relu12
I0101 05:25:47.155092 10277 net.cpp:110] Creating Layer relu12
I0101 05:25:47.155102 10277 net.cpp:477] relu12 <- eltwise12
I0101 05:25:47.155117 10277 net.cpp:419] relu12 -> eltwise12 (in-place)
I0101 05:25:47.155303 10277 net.cpp:155] Setting up relu12
I0101 05:25:47.155323 10277 net.cpp:163] Top shape: 32 256 14 14 (1605632)
I0101 05:25:47.155334 10277 layer_factory.hpp:76] Creating layer eltwise12_relu12_0_split
I0101 05:25:47.155347 10277 net.cpp:110] Creating Layer eltwise12_relu12_0_split
I0101 05:25:47.155359 10277 net.cpp:477] eltwise12_relu12_0_split <- eltwise12
I0101 05:25:47.155374 10277 net.cpp:433] eltwise12_relu12_0_split -> eltwise12_relu12_0_split_0
I0101 05:25:47.155388 10277 net.cpp:433] eltwise12_relu12_0_split -> eltwise12_relu12_0_split_1
I0101 05:25:47.155403 10277 net.cpp:433] eltwise12_relu12_0_split -> eltwise12_relu12_0_split_2
I0101 05:25:47.155418 10277 net.cpp:155] Setting up eltwise12_relu12_0_split
I0101 05:25:47.155433 10277 net.cpp:163] Top shape: 32 256 14 14 (1605632)
I0101 05:25:47.155446 10277 net.cpp:163] Top shape: 32 256 14 14 (1605632)
I0101 05:25:47.155457 10277 net.cpp:163] Top shape: 32 256 14 14 (1605632)
I0101 05:25:47.155467 10277 layer_factory.hpp:76] Creating layer conv411
I0101 05:25:47.155483 10277 net.cpp:110] Creating Layer conv411
I0101 05:25:47.155493 10277 net.cpp:477] conv411 <- eltwise12_relu12_0_split_0
I0101 05:25:47.155508 10277 net.cpp:433] conv411 -> conv411
I0101 05:25:47.161192 10277 net.cpp:155] Setting up conv411
I0101 05:25:47.161232 10277 net.cpp:163] Top shape: 32 256 14 14 (1605632)
I0101 05:25:47.161248 10277 layer_factory.hpp:76] Creating layer bn411
I0101 05:25:47.161267 10277 net.cpp:110] Creating Layer bn411
I0101 05:25:47.161280 10277 net.cpp:477] bn411 <- conv411
I0101 05:25:47.161345 10277 net.cpp:433] bn411 -> bn411
I0101 05:25:47.161492 10277 net.cpp:155] Setting up bn411
I0101 05:25:47.161519 10277 net.cpp:163] Top shape: 32 256 14 14 (1605632)
I0101 05:25:47.161536 10277 layer_factory.hpp:76] Creating layer relu411
I0101 05:25:47.161550 10277 net.cpp:110] Creating Layer relu411
I0101 05:25:47.161563 10277 net.cpp:477] relu411 <- bn411
I0101 05:25:47.161579 10277 net.cpp:419] relu411 -> bn411 (in-place)
I0101 05:25:47.161667 10277 net.cpp:155] Setting up relu411
I0101 05:25:47.161686 10277 net.cpp:163] Top shape: 32 256 14 14 (1605632)
I0101 05:25:47.161700 10277 layer_factory.hpp:76] Creating layer conv412
I0101 05:25:47.161720 10277 net.cpp:110] Creating Layer conv412
I0101 05:25:47.161733 10277 net.cpp:477] conv412 <- bn411
I0101 05:25:47.161770 10277 net.cpp:433] conv412 -> conv412
I0101 05:25:47.167333 10277 net.cpp:155] Setting up conv412
I0101 05:25:47.167358 10277 net.cpp:163] Top shape: 32 256 14 14 (1605632)
I0101 05:25:47.167374 10277 layer_factory.hpp:76] Creating layer bn412
I0101 05:25:47.167393 10277 net.cpp:110] Creating Layer bn412
I0101 05:25:47.167405 10277 net.cpp:477] bn412 <- conv412
I0101 05:25:47.167423 10277 net.cpp:433] bn412 -> bn412
I0101 05:25:47.167554 10277 net.cpp:155] Setting up bn412
I0101 05:25:47.167572 10277 net.cpp:163] Top shape: 32 256 14 14 (1605632)
I0101 05:25:47.167600 10277 layer_factory.hpp:76] Creating layer relu412
I0101 05:25:47.167614 10277 net.cpp:110] Creating Layer relu412
I0101 05:25:47.167625 10277 net.cpp:477] relu412 <- bn412
I0101 05:25:47.167637 10277 net.cpp:419] relu412 -> bn412 (in-place)
I0101 05:25:47.167726 10277 net.cpp:155] Setting up relu412
I0101 05:25:47.167742 10277 net.cpp:163] Top shape: 32 256 14 14 (1605632)
I0101 05:25:47.167753 10277 layer_factory.hpp:76] Creating layer eltwise13
I0101 05:25:47.167768 10277 net.cpp:110] Creating Layer eltwise13
I0101 05:25:47.167778 10277 net.cpp:477] eltwise13 <- eltwise12_relu12_0_split_1
I0101 05:25:47.167790 10277 net.cpp:477] eltwise13 <- bn412
I0101 05:25:47.167807 10277 net.cpp:433] eltwise13 -> eltwise13
I0101 05:25:47.167824 10277 net.cpp:155] Setting up eltwise13
I0101 05:25:47.167836 10277 net.cpp:163] Top shape: 32 256 14 14 (1605632)
I0101 05:25:47.167846 10277 layer_factory.hpp:76] Creating layer relu13
I0101 05:25:47.167860 10277 net.cpp:110] Creating Layer relu13
I0101 05:25:47.167870 10277 net.cpp:477] relu13 <- eltwise13
I0101 05:25:47.167882 10277 net.cpp:419] relu13 -> eltwise13 (in-place)
I0101 05:25:47.167968 10277 net.cpp:155] Setting up relu13
I0101 05:25:47.167984 10277 net.cpp:163] Top shape: 32 256 14 14 (1605632)
I0101 05:25:47.167994 10277 layer_factory.hpp:76] Creating layer relu13_p
I0101 05:25:47.168010 10277 net.cpp:110] Creating Layer relu13_p
I0101 05:25:47.168021 10277 net.cpp:477] relu13_p <- eltwise12_relu12_0_split_2
I0101 05:25:47.168037 10277 net.cpp:433] relu13_p -> relu13_p
I0101 05:25:47.169880 10277 net.cpp:155] Setting up relu13_p
I0101 05:25:47.169900 10277 net.cpp:163] Top shape: 32 512 7 7 (802816)
I0101 05:25:47.169915 10277 layer_factory.hpp:76] Creating layer conv51
I0101 05:25:47.169932 10277 net.cpp:110] Creating Layer conv51
I0101 05:25:47.169944 10277 net.cpp:477] conv51 <- eltwise13
I0101 05:25:47.169960 10277 net.cpp:433] conv51 -> conv51
I0101 05:25:47.180824 10277 net.cpp:155] Setting up conv51
I0101 05:25:47.180847 10277 net.cpp:163] Top shape: 32 512 7 7 (802816)
I0101 05:25:47.180863 10277 layer_factory.hpp:76] Creating layer bn51
I0101 05:25:47.180907 10277 net.cpp:110] Creating Layer bn51
I0101 05:25:47.180918 10277 net.cpp:477] bn51 <- conv51
I0101 05:25:47.180933 10277 net.cpp:433] bn51 -> bn51
I0101 05:25:47.181051 10277 net.cpp:155] Setting up bn51
I0101 05:25:47.181068 10277 net.cpp:163] Top shape: 32 512 7 7 (802816)
I0101 05:25:47.181084 10277 layer_factory.hpp:76] Creating layer relu51
I0101 05:25:47.181097 10277 net.cpp:110] Creating Layer relu51
I0101 05:25:47.181108 10277 net.cpp:477] relu51 <- bn51
I0101 05:25:47.181123 10277 net.cpp:419] relu51 -> bn51 (in-place)
I0101 05:25:47.181329 10277 net.cpp:155] Setting up relu51
I0101 05:25:47.181350 10277 net.cpp:163] Top shape: 32 512 7 7 (802816)
I0101 05:25:47.181362 10277 layer_factory.hpp:76] Creating layer conv52
I0101 05:25:47.181396 10277 net.cpp:110] Creating Layer conv52
I0101 05:25:47.181424 10277 net.cpp:477] conv52 <- bn51
I0101 05:25:47.181442 10277 net.cpp:433] conv52 -> conv52
I0101 05:25:47.203016 10277 net.cpp:155] Setting up conv52
I0101 05:25:47.203085 10277 net.cpp:163] Top shape: 32 512 7 7 (802816)
I0101 05:25:47.203107 10277 layer_factory.hpp:76] Creating layer bn52
I0101 05:25:47.203169 10277 net.cpp:110] Creating Layer bn52
I0101 05:25:47.203183 10277 net.cpp:477] bn52 <- conv52
I0101 05:25:47.203218 10277 net.cpp:433] bn52 -> bn52
I0101 05:25:47.203354 10277 net.cpp:155] Setting up bn52
I0101 05:25:47.203405 10277 net.cpp:163] Top shape: 32 512 7 7 (802816)
I0101 05:25:47.203424 10277 layer_factory.hpp:76] Creating layer relu52
I0101 05:25:47.203443 10277 net.cpp:110] Creating Layer relu52
I0101 05:25:47.203456 10277 net.cpp:477] relu52 <- bn52
I0101 05:25:47.203470 10277 net.cpp:419] relu52 -> bn52 (in-place)
I0101 05:25:47.203562 10277 net.cpp:155] Setting up relu52
I0101 05:25:47.203583 10277 net.cpp:163] Top shape: 32 512 7 7 (802816)
I0101 05:25:47.203596 10277 layer_factory.hpp:76] Creating layer eltwise14
I0101 05:25:47.203614 10277 net.cpp:110] Creating Layer eltwise14
I0101 05:25:47.203627 10277 net.cpp:477] eltwise14 <- relu13_p
I0101 05:25:47.203640 10277 net.cpp:477] eltwise14 <- bn52
I0101 05:25:47.203655 10277 net.cpp:433] eltwise14 -> eltwise14
I0101 05:25:47.203673 10277 net.cpp:155] Setting up eltwise14
I0101 05:25:47.203688 10277 net.cpp:163] Top shape: 32 512 7 7 (802816)
I0101 05:25:47.203701 10277 layer_factory.hpp:76] Creating layer relu14
I0101 05:25:47.203717 10277 net.cpp:110] Creating Layer relu14
I0101 05:25:47.203730 10277 net.cpp:477] relu14 <- eltwise14
I0101 05:25:47.203744 10277 net.cpp:419] relu14 -> eltwise14 (in-place)
I0101 05:25:47.203821 10277 net.cpp:155] Setting up relu14
I0101 05:25:47.203840 10277 net.cpp:163] Top shape: 32 512 7 7 (802816)
I0101 05:25:47.203852 10277 layer_factory.hpp:76] Creating layer eltwise14_relu14_0_split
I0101 05:25:47.203866 10277 net.cpp:110] Creating Layer eltwise14_relu14_0_split
I0101 05:25:47.203878 10277 net.cpp:477] eltwise14_relu14_0_split <- eltwise14
I0101 05:25:47.203894 10277 net.cpp:433] eltwise14_relu14_0_split -> eltwise14_relu14_0_split_0
I0101 05:25:47.203910 10277 net.cpp:433] eltwise14_relu14_0_split -> eltwise14_relu14_0_split_1
I0101 05:25:47.203927 10277 net.cpp:155] Setting up eltwise14_relu14_0_split
I0101 05:25:47.203940 10277 net.cpp:163] Top shape: 32 512 7 7 (802816)
I0101 05:25:47.203953 10277 net.cpp:163] Top shape: 32 512 7 7 (802816)
I0101 05:25:47.203964 10277 layer_factory.hpp:76] Creating layer conv53
I0101 05:25:47.203985 10277 net.cpp:110] Creating Layer conv53
I0101 05:25:47.203999 10277 net.cpp:477] conv53 <- eltwise14_relu14_0_split_0
I0101 05:25:47.204013 10277 net.cpp:433] conv53 -> conv53
I0101 05:25:47.225675 10277 net.cpp:155] Setting up conv53
I0101 05:25:47.225729 10277 net.cpp:163] Top shape: 32 512 7 7 (802816)
I0101 05:25:47.225749 10277 layer_factory.hpp:76] Creating layer bn53
I0101 05:25:47.225811 10277 net.cpp:110] Creating Layer bn53
I0101 05:25:47.225824 10277 net.cpp:477] bn53 <- conv53
I0101 05:25:47.225850 10277 net.cpp:433] bn53 -> bn53
I0101 05:25:47.225989 10277 net.cpp:155] Setting up bn53
I0101 05:25:47.226014 10277 net.cpp:163] Top shape: 32 512 7 7 (802816)
I0101 05:25:47.226032 10277 layer_factory.hpp:76] Creating layer relu53
I0101 05:25:47.226052 10277 net.cpp:110] Creating Layer relu53
I0101 05:25:47.226063 10277 net.cpp:477] relu53 <- bn53
I0101 05:25:47.226078 10277 net.cpp:419] relu53 -> bn53 (in-place)
I0101 05:25:47.226161 10277 net.cpp:155] Setting up relu53
I0101 05:25:47.226179 10277 net.cpp:163] Top shape: 32 512 7 7 (802816)
I0101 05:25:47.226192 10277 layer_factory.hpp:76] Creating layer conv54
I0101 05:25:47.226210 10277 net.cpp:110] Creating Layer conv54
I0101 05:25:47.226222 10277 net.cpp:477] conv54 <- bn53
I0101 05:25:47.226239 10277 net.cpp:433] conv54 -> conv54
I0101 05:25:47.247759 10277 net.cpp:155] Setting up conv54
I0101 05:25:47.247805 10277 net.cpp:163] Top shape: 32 512 7 7 (802816)
I0101 05:25:47.247822 10277 layer_factory.hpp:76] Creating layer bn54
I0101 05:25:47.247845 10277 net.cpp:110] Creating Layer bn54
I0101 05:25:47.247858 10277 net.cpp:477] bn54 <- conv54
I0101 05:25:47.247877 10277 net.cpp:433] bn54 -> bn54
I0101 05:25:47.248029 10277 net.cpp:155] Setting up bn54
I0101 05:25:47.248049 10277 net.cpp:163] Top shape: 32 512 7 7 (802816)
I0101 05:25:47.248070 10277 layer_factory.hpp:76] Creating layer relu54
I0101 05:25:47.248088 10277 net.cpp:110] Creating Layer relu54
I0101 05:25:47.248101 10277 net.cpp:477] relu54 <- bn54
I0101 05:25:47.248116 10277 net.cpp:419] relu54 -> bn54 (in-place)
I0101 05:25:47.248363 10277 net.cpp:155] Setting up relu54
I0101 05:25:47.248385 10277 net.cpp:163] Top shape: 32 512 7 7 (802816)
I0101 05:25:47.248399 10277 layer_factory.hpp:76] Creating layer eltwise15
I0101 05:25:47.248416 10277 net.cpp:110] Creating Layer eltwise15
I0101 05:25:47.248430 10277 net.cpp:477] eltwise15 <- eltwise14_relu14_0_split_1
I0101 05:25:47.248443 10277 net.cpp:477] eltwise15 <- bn54
I0101 05:25:47.248457 10277 net.cpp:433] eltwise15 -> eltwise15
I0101 05:25:47.248476 10277 net.cpp:155] Setting up eltwise15
I0101 05:25:47.248492 10277 net.cpp:163] Top shape: 32 512 7 7 (802816)
I0101 05:25:47.248503 10277 layer_factory.hpp:76] Creating layer relu15
I0101 05:25:47.248520 10277 net.cpp:110] Creating Layer relu15
I0101 05:25:47.248533 10277 net.cpp:477] relu15 <- eltwise15
I0101 05:25:47.248548 10277 net.cpp:419] relu15 -> eltwise15 (in-place)
I0101 05:25:47.248623 10277 net.cpp:155] Setting up relu15
I0101 05:25:47.248641 10277 net.cpp:163] Top shape: 32 512 7 7 (802816)
I0101 05:25:47.248654 10277 layer_factory.hpp:76] Creating layer eltwise15_relu15_0_split
I0101 05:25:47.248672 10277 net.cpp:110] Creating Layer eltwise15_relu15_0_split
I0101 05:25:47.248685 10277 net.cpp:477] eltwise15_relu15_0_split <- eltwise15
I0101 05:25:47.248702 10277 net.cpp:433] eltwise15_relu15_0_split -> eltwise15_relu15_0_split_0
I0101 05:25:47.248718 10277 net.cpp:433] eltwise15_relu15_0_split -> eltwise15_relu15_0_split_1
I0101 05:25:47.248735 10277 net.cpp:155] Setting up eltwise15_relu15_0_split
I0101 05:25:47.248750 10277 net.cpp:163] Top shape: 32 512 7 7 (802816)
I0101 05:25:47.248764 10277 net.cpp:163] Top shape: 32 512 7 7 (802816)
I0101 05:25:47.248776 10277 layer_factory.hpp:76] Creating layer conv55
I0101 05:25:47.248795 10277 net.cpp:110] Creating Layer conv55
I0101 05:25:47.248807 10277 net.cpp:477] conv55 <- eltwise15_relu15_0_split_0
I0101 05:25:47.248826 10277 net.cpp:433] conv55 -> conv55
I0101 05:25:47.269939 10277 net.cpp:155] Setting up conv55
I0101 05:25:47.269996 10277 net.cpp:163] Top shape: 32 512 7 7 (802816)
I0101 05:25:47.270015 10277 layer_factory.hpp:76] Creating layer bn55
I0101 05:25:47.270033 10277 net.cpp:110] Creating Layer bn55
I0101 05:25:47.270084 10277 net.cpp:477] bn55 <- conv55
I0101 05:25:47.270110 10277 net.cpp:433] bn55 -> bn55
I0101 05:25:47.270244 10277 net.cpp:155] Setting up bn55
I0101 05:25:47.270270 10277 net.cpp:163] Top shape: 32 512 7 7 (802816)
I0101 05:25:47.270294 10277 layer_factory.hpp:76] Creating layer relu55
I0101 05:25:47.270308 10277 net.cpp:110] Creating Layer relu55
I0101 05:25:47.270329 10277 net.cpp:477] relu55 <- bn55
I0101 05:25:47.270344 10277 net.cpp:419] relu55 -> bn55 (in-place)
I0101 05:25:47.270431 10277 net.cpp:155] Setting up relu55
I0101 05:25:47.270450 10277 net.cpp:163] Top shape: 32 512 7 7 (802816)
I0101 05:25:47.270463 10277 layer_factory.hpp:76] Creating layer conv56
I0101 05:25:47.270481 10277 net.cpp:110] Creating Layer conv56
I0101 05:25:47.270493 10277 net.cpp:477] conv56 <- bn55
I0101 05:25:47.270511 10277 net.cpp:433] conv56 -> conv56
I0101 05:25:47.292071 10277 net.cpp:155] Setting up conv56
I0101 05:25:47.292135 10277 net.cpp:163] Top shape: 32 512 7 7 (802816)
I0101 05:25:47.292191 10277 layer_factory.hpp:76] Creating layer bn56
I0101 05:25:47.292214 10277 net.cpp:110] Creating Layer bn56
I0101 05:25:47.292228 10277 net.cpp:477] bn56 <- conv56
I0101 05:25:47.292256 10277 net.cpp:433] bn56 -> bn56
I0101 05:25:47.292397 10277 net.cpp:155] Setting up bn56
I0101 05:25:47.292423 10277 net.cpp:163] Top shape: 32 512 7 7 (802816)
I0101 05:25:47.292441 10277 layer_factory.hpp:76] Creating layer relu56
I0101 05:25:47.292457 10277 net.cpp:110] Creating Layer relu56
I0101 05:25:47.292470 10277 net.cpp:477] relu56 <- bn56
I0101 05:25:47.292486 10277 net.cpp:419] relu56 -> bn56 (in-place)
I0101 05:25:47.292686 10277 net.cpp:155] Setting up relu56
I0101 05:25:47.292716 10277 net.cpp:163] Top shape: 32 512 7 7 (802816)
I0101 05:25:47.292731 10277 layer_factory.hpp:76] Creating layer eltwise16
I0101 05:25:47.292786 10277 net.cpp:110] Creating Layer eltwise16
I0101 05:25:47.292803 10277 net.cpp:477] eltwise16 <- eltwise15_relu15_0_split_1
I0101 05:25:47.292817 10277 net.cpp:477] eltwise16 <- bn56
I0101 05:25:47.292832 10277 net.cpp:433] eltwise16 -> eltwise16
I0101 05:25:47.292851 10277 net.cpp:155] Setting up eltwise16
I0101 05:25:47.292865 10277 net.cpp:163] Top shape: 32 512 7 7 (802816)
I0101 05:25:47.292877 10277 layer_factory.hpp:76] Creating layer relu16
I0101 05:25:47.292891 10277 net.cpp:110] Creating Layer relu16
I0101 05:25:47.292904 10277 net.cpp:477] relu16 <- eltwise16
I0101 05:25:47.292918 10277 net.cpp:419] relu16 -> eltwise16 (in-place)
I0101 05:25:47.292995 10277 net.cpp:155] Setting up relu16
I0101 05:25:47.293020 10277 net.cpp:163] Top shape: 32 512 7 7 (802816)
I0101 05:25:47.293032 10277 layer_factory.hpp:76] Creating layer pool5
I0101 05:25:47.293051 10277 net.cpp:110] Creating Layer pool5
I0101 05:25:47.293061 10277 net.cpp:477] pool5 <- eltwise16
I0101 05:25:47.293079 10277 net.cpp:433] pool5 -> pool5
I0101 05:25:47.293169 10277 net.cpp:155] Setting up pool5
I0101 05:25:47.293187 10277 net.cpp:163] Top shape: 32 512 1 1 (16384)
I0101 05:25:47.293200 10277 layer_factory.hpp:76] Creating layer ip1
I0101 05:25:47.293217 10277 net.cpp:110] Creating Layer ip1
I0101 05:25:47.293229 10277 net.cpp:477] ip1 <- pool5
I0101 05:25:47.293246 10277 net.cpp:433] ip1 -> ip1
I0101 05:25:47.297874 10277 net.cpp:155] Setting up ip1
I0101 05:25:47.297909 10277 net.cpp:163] Top shape: 32 1000 (32000)
I0101 05:25:47.297924 10277 layer_factory.hpp:76] Creating layer accuracy
I0101 05:25:47.297973 10277 net.cpp:110] Creating Layer accuracy
I0101 05:25:47.297986 10277 net.cpp:477] accuracy <- ip1
I0101 05:25:47.298007 10277 net.cpp:477] accuracy <- label
I0101 05:25:47.298027 10277 net.cpp:433] accuracy -> accuracy
I0101 05:25:47.298054 10277 net.cpp:155] Setting up accuracy
I0101 05:25:47.298069 10277 net.cpp:163] Top shape: (1)
…
