…
I0102 03:29:14.590340 19302 net.cpp:339] The NetState phase (0) differed from the phase (1) specified by a rule in layer accuracy
I0102 03:29:14.591140 19302 net.cpp:50] Initializing net from parameters: 
name: "RsdNet34v2"
state {
  phase: TRAIN
}
layer {
  name: "data"
  type: "Data"
  top: "data"
  top: "label"
  include {
    phase: TRAIN
  }
  transform_param {
    scale: 0.0039215689
    mirror: true
    crop_size: 224
    mean_file: "./ilsvrc12_mean.binaryproto"
  }
  data_param {
    source: "./ilsvrc12_train_lmdb"
    batch_size: 64
    backend: LMDB
  }
}
layer {
  name: "conv01"
  type: "Convolution"
  bottom: "data"
  top: "conv01"
  param {
    lr_mult: 1
  }
  param {
    lr_mult: 2
  }
  convolution_param {
    num_output: 64
    pad: 3
    kernel_size: 7
    stride: 2
    weight_filler {
      type: "xavier"
    }
    bias_filler {
      type: "constant"
    }
  }
}
layer {
  name: "bn01"
  type: "BN"
  bottom: "conv01"
  top: "bn01"
  param {
    lr_mult: 1
    decay_mult: 0
  }
  param {
    lr_mult: 1
    decay_mult: 0
  }
  bn_param {
    scale_filler {
      type: "constant"
      value: 1
    }
    shift_filler {
      type: "constant"
      value: 0
    }
  }
}
layer {
  name: "relu01"
  type: "ReLU"
  bottom: "bn01"
  top: "bn01"
}
layer {
  name: "pool1"
  type: "Pooling"
  bottom: "bn01"
  top: "pool1"
  pooling_param {
    pool: MAX
    kernel_size: 3
    stride: 2
  }
}
layer {
  name: "conv21"
  type: "Convolution"
  bottom: "pool1"
  top: "conv21"
  param {
    lr_mult: 1
  }
  param {
    lr_mult: 2
  }
  convolution_param {
    num_output: 64
    pad: 1
    kernel_size: 3
    stride: 1
    weight_filler {
      type: "xavier"
    }
    bias_filler {
      type: "constant"
    }
  }
}
layer {
  name: "bn21"
  type: "BN"
  bottom: "conv21"
  top: "bn21"
  param {
    lr_mult: 1
    decay_mult: 0
  }
  param {
    lr_mult: 1
    decay_mult: 0
  }
  bn_param {
    scale_filler {
      type: "constant"
      value: 1
    }
    shift_filler {
      type: "constant"
      value: 0
    }
  }
}
layer {
  name: "relu21"
  type: "ReLU"
  bottom: "bn21"
  top: "bn21"
}
layer {
  name: "conv22"
  type: "Convolution"
  bottom: "bn21"
  top: "conv22"
  param {
    lr_mult: 1
  }
  param {
    lr_mult: 2
  }
  convolution_param {
    num_output: 64
    pad: 1
    kernel_size: 3
    stride: 1
    weight_filler {
      type: "xavier"
    }
    bias_filler {
      type: "constant"
    }
  }
}
layer {
  name: "bn22"
  type: "BN"
  bottom: "conv22"
  top: "bn22"
  param {
    lr_mult: 1
    decay_mult: 0
  }
  param {
    lr_mult: 1
    decay_mult: 0
  }
  bn_param {
    scale_filler {
      type: "constant"
      value: 1
    }
    shift_filler {
      type: "constant"
      value: 0
    }
  }
}
layer {
  name: "relu22"
  type: "ReLU"
  bottom: "bn22"
  top: "bn22"
}
layer {
  name: "eltwise1"
  type: "Eltwise"
  bottom: "pool1"
  bottom: "bn22"
  top: "eltwise1"
  eltwise_param {
    operation: SUM
  }
}
layer {
  name: "relu1"
  type: "ReLU"
  bottom: "eltwise1"
  top: "eltwise1"
}
layer {
  name: "conv23"
  type: "Convolution"
  bottom: "eltwise1"
  top: "conv23"
  param {
    lr_mult: 1
  }
  param {
    lr_mult: 2
  }
  convolution_param {
    num_output: 64
    pad: 1
    kernel_size: 3
    stride: 1
    weight_filler {
      type: "xavier"
    }
    bias_filler {
      type: "constant"
    }
  }
}
layer {
  name: "bn23"
  type: "BN"
  bottom: "conv23"
  top: "bn23"
  param {
    lr_mult: 1
    decay_mult: 0
  }
  param {
    lr_mult: 1
    decay_mult: 0
  }
  bn_param {
    scale_filler {
      type: "constant"
      value: 1
    }
    shift_filler {
      type: "constant"
      value: 0
    }
  }
}
layer {
  name: "relu23"
  type: "ReLU"
  bottom: "bn23"
  top: "bn23"
}
layer {
  name: "conv24"
  type: "Convolution"
  bottom: "bn23"
  top: "conv24"
  param {
    lr_mult: 1
  }
  param {
    lr_mult: 2
  }
  convolution_param {
    num_output: 64
    pad: 1
    kernel_size: 3
    stride: 1
    weight_filler {
      type: "xavier"
    }
    bias_filler {
      type: "constant"
    }
  }
}
layer {
  name: "bn24"
  type: "BN"
  bottom: "conv24"
  top: "bn24"
  param {
    lr_mult: 1
    decay_mult: 0
  }
  param {
    lr_mult: 1
    decay_mult: 0
  }
  bn_param {
    scale_filler {
      type: "constant"
      value: 1
    }
    shift_filler {
      type: "constant"
      value: 0
    }
  }
}
layer {
  name: "relu24"
  type: "ReLU"
  bottom: "bn24"
  top: "bn24"
}
layer {
  name: "eltwise2"
  type: "Eltwise"
  bottom: "eltwise1"
  bottom: "bn24"
  top: "eltwise2"
  eltwise_param {
    operation: SUM
  }
}
layer {
  name: "relu2"
  type: "ReLU"
  bottom: "eltwise2"
  top: "eltwise2"
}
layer {
  name: "conv25"
  type: "Convolution"
  bottom: "bn24"
  top: "conv25"
  param {
    lr_mult: 1
  }
  param {
    lr_mult: 2
  }
  convolution_param {
    num_output: 64
    pad: 1
    kernel_size: 3
    stride: 1
    weight_filler {
      type: "xavier"
    }
    bias_filler {
      type: "constant"
    }
  }
}
layer {
  name: "bn25"
  type: "BN"
  bottom: "conv25"
  top: "bn25"
  param {
    lr_mult: 1
    decay_mult: 0
  }
  param {
    lr_mult: 1
    decay_mult: 0
  }
  bn_param {
    scale_filler {
      type: "constant"
      value: 1
    }
    shift_filler {
      type: "constant"
      value: 0
    }
  }
}
layer {
  name: "relu25"
  type: "ReLU"
  bottom: "bn25"
  top: "bn25"
}
layer {
  name: "conv26"
  type: "Convolution"
  bottom: "bn25"
  top: "conv26"
  param {
    lr_mult: 1
  }
  param {
    lr_mult: 2
  }
  convolution_param {
    num_output: 64
    pad: 1
    kernel_size: 3
    stride: 1
    weight_filler {
      type: "xavier"
    }
    bias_filler {
      type: "constant"
    }
  }
}
layer {
  name: "bn26"
  type: "BN"
  bottom: "conv26"
  top: "bn26"
  param {
    lr_mult: 1
    decay_mult: 0
  }
  param {
    lr_mult: 1
    decay_mult: 0
  }
  bn_param {
    scale_filler {
      type: "constant"
      value: 1
    }
    shift_filler {
      type: "constant"
      value: 0
    }
  }
}
layer {
  name: "relu26"
  type: "ReLU"
  bottom: "bn26"
  top: "bn26"
}
layer {
  name: "eltwise3"
  type: "Eltwise"
  bottom: "eltwise2"
  bottom: "bn26"
  top: "eltwise3"
  eltwise_param {
    operation: SUM
  }
}
layer {
  name: "relu3"
  type: "ReLU"
  bottom: "eltwise3"
  top: "eltwise3"
}
layer {
  name: "relu3_p"
  type: "Convolution"
  bottom: "eltwise3"
  top: "relu3_p"
  param {
    lr_mult: 1
  }
  param {
    lr_mult: 2
  }
  convolution_param {
    num_output: 128
    pad: 0
    kernel_size: 1
    stride: 2
    weight_filler {
      type: "xavier"
    }
    bias_filler {
      type: "constant"
    }
  }
}
layer {
  name: "conv31"
  type: "Convolution"
  bottom: "eltwise3"
  top: "conv31"
  param {
    lr_mult: 1
  }
  param {
    lr_mult: 2
  }
  convolution_param {
    num_output: 128
    pad: 1
    kernel_size: 3
    stride: 2
    weight_filler {
      type: "xavier"
    }
    bias_filler {
      type: "constant"
    }
  }
}
layer {
  name: "bn31"
  type: "BN"
  bottom: "conv31"
  top: "bn31"
  param {
    lr_mult: 1
    decay_mult: 0
  }
  param {
    lr_mult: 1
    decay_mult: 0
  }
  bn_param {
    scale_filler {
      type: "constant"
      value: 1
    }
    shift_filler {
      type: "constant"
      value: 0
    }
  }
}
layer {
  name: "relu31"
  type: "ReLU"
  bottom: "bn31"
  top: "bn31"
}
layer {
  name: "conv32"
  type: "Convolution"
  bottom: "bn31"
  top: "conv32"
  param {
    lr_mult: 1
  }
  param {
    lr_mult: 2
  }
  convolution_param {
    num_output: 128
    pad: 1
    kernel_size: 3
    stride: 1
    weight_filler {
      type: "xavier"
    }
    bias_filler {
      type: "constant"
    }
  }
}
layer {
  name: "bn32"
  type: "BN"
  bottom: "conv32"
  top: "bn32"
  param {
    lr_mult: 1
    decay_mult: 0
  }
  param {
    lr_mult: 1
    decay_mult: 0
  }
  bn_param {
    scale_filler {
      type: "constant"
      value: 1
    }
    shift_filler {
      type: "constant"
      value: 0
    }
  }
}
layer {
  name: "relu32"
  type: "ReLU"
  bottom: "bn32"
  top: "bn32"
}
layer {
  name: "eltwise4"
  type: "Eltwise"
  bottom: "relu3_p"
  bottom: "bn32"
  top: "eltwise4"
  eltwise_param {
    operation: SUM
  }
}
layer {
  name: "relu4"
  type: "ReLU"
  bottom: "eltwise4"
  top: "eltwise4"
}
layer {
  name: "conv33"
  type: "Convolution"
  bottom: "eltwise4"
  top: "conv33"
  param {
    lr_mult: 1
  }
  param {
    lr_mult: 2
  }
  convolution_param {
    num_output: 128
    pad: 1
    kernel_size: 3
    stride: 1
    weight_filler {
      type: "xavier"
    }
    bias_filler {
      type: "constant"
    }
  }
}
layer {
  name: "bn33"
  type: "BN"
  bottom: "conv33"
  top: "bn33"
  param {
    lr_mult: 1
    decay_mult: 0
  }
  param {
    lr_mult: 1
    decay_mult: 0
  }
  bn_param {
    scale_filler {
      type: "constant"
      value: 1
    }
    shift_filler {
      type: "constant"
      value: 0
    }
  }
}
layer {
  name: "relu33"
  type: "ReLU"
  bottom: "bn33"
  top: "bn33"
}
layer {
  name: "conv34"
  type: "Convolution"
  bottom: "bn33"
  top: "conv34"
  param {
    lr_mult: 1
  }
  param {
    lr_mult: 2
  }
  convolution_param {
    num_output: 128
    pad: 1
    kernel_size: 3
    stride: 1
    weight_filler {
      type: "xavier"
    }
    bias_filler {
      type: "constant"
    }
  }
}
layer {
  name: "bn34"
  type: "BN"
  bottom: "conv34"
  top: "bn34"
  param {
    lr_mult: 1
    decay_mult: 0
  }
  param {
    lr_mult: 1
    decay_mult: 0
  }
  bn_param {
    scale_filler {
      type: "constant"
      value: 1
    }
    shift_filler {
      type: "constant"
      value: 0
    }
  }
}
layer {
  name: "relu34"
  type: "ReLU"
  bottom: "bn34"
  top: "bn34"
}
layer {
  name: "eltwise5"
  type: "Eltwise"
  bottom: "eltwise4"
  bottom: "bn34"
  top: "eltwise5"
  eltwise_param {
    operation: SUM
  }
}
layer {
  name: "relu5"
  type: "ReLU"
  bottom: "eltwise5"
  top: "eltwise5"
}
layer {
  name: "conv35"
  type: "Convolution"
  bottom: "eltwise5"
  top: "conv35"
  param {
    lr_mult: 1
  }
  param {
    lr_mult: 2
  }
  convolution_param {
    num_output: 128
    pad: 1
    kernel_size: 3
    stride: 1
    weight_filler {
      type: "xavier"
    }
    bias_filler {
      type: "constant"
    }
  }
}
layer {
  name: "bn35"
  type: "BN"
  bottom: "conv35"
  top: "bn35"
  param {
    lr_mult: 1
    decay_mult: 0
  }
  param {
    lr_mult: 1
    decay_mult: 0
  }
  bn_param {
    scale_filler {
      type: "constant"
      value: 1
    }
    shift_filler {
      type: "constant"
      value: 0
    }
  }
}
layer {
  name: "relu35"
  type: "ReLU"
  bottom: "bn35"
  top: "bn35"
}
layer {
  name: "conv36"
  type: "Convolution"
  bottom: "bn35"
  top: "conv36"
  param {
    lr_mult: 1
  }
  param {
    lr_mult: 2
  }
  convolution_param {
    num_output: 128
    pad: 1
    kernel_size: 3
    stride: 1
    weight_filler {
      type: "xavier"
    }
    bias_filler {
      type: "constant"
    }
  }
}
layer {
  name: "bn36"
  type: "BN"
  bottom: "conv36"
  top: "bn36"
  param {
    lr_mult: 1
    decay_mult: 0
  }
  param {
    lr_mult: 1
    decay_mult: 0
  }
  bn_param {
    scale_filler {
      type: "constant"
      value: 1
    }
    shift_filler {
      type: "constant"
      value: 0
    }
  }
}
layer {
  name: "relu36"
  type: "ReLU"
  bottom: "bn36"
  top: "bn36"
}
layer {
  name: "eltwise6"
  type: "Eltwise"
  bottom: "eltwise5"
  bottom: "bn36"
  top: "eltwise6"
  eltwise_param {
    operation: SUM
  }
}
layer {
  name: "relu6"
  type: "ReLU"
  bottom: "eltwise6"
  top: "eltwise6"
}
layer {
  name: "conv37"
  type: "Convolution"
  bottom: "eltwise6"
  top: "conv37"
  param {
    lr_mult: 1
  }
  param {
    lr_mult: 2
  }
  convolution_param {
    num_output: 128
    pad: 1
    kernel_size: 3
    stride: 1
    weight_filler {
      type: "xavier"
    }
    bias_filler {
      type: "constant"
    }
  }
}
layer {
  name: "bn37"
  type: "BN"
  bottom: "conv37"
  top: "bn37"
  param {
    lr_mult: 1
    decay_mult: 0
  }
  param {
    lr_mult: 1
    decay_mult: 0
  }
  bn_param {
    scale_filler {
      type: "constant"
      value: 1
    }
    shift_filler {
      type: "constant"
      value: 0
    }
  }
}
layer {
  name: "relu37"
  type: "ReLU"
  bottom: "bn37"
  top: "bn37"
}
layer {
  name: "conv38"
  type: "Convolution"
  bottom: "bn37"
  top: "conv38"
  param {
    lr_mult: 1
  }
  param {
    lr_mult: 2
  }
  convolution_param {
    num_output: 128
    pad: 1
    kernel_size: 3
    stride: 1
    weight_filler {
      type: "xavier"
    }
    bias_filler {
      type: "constant"
    }
  }
}
layer {
  name: "bn38"
  type: "BN"
  bottom: "conv38"
  top: "bn38"
  param {
    lr_mult: 1
    decay_mult: 0
  }
  param {
    lr_mult: 1
    decay_mult: 0
  }
  bn_param {
    scale_filler {
      type: "constant"
      value: 1
    }
    shift_filler {
      type: "constant"
      value: 0
    }
  }
}
layer {
  name: "relu38"
  type: "ReLU"
  bottom: "bn38"
  top: "bn38"
}
layer {
  name: "eltwise7"
  type: "Eltwise"
  bottom: "eltwise6"
  bottom: "bn38"
  top: "eltwise7"
  eltwise_param {
    operation: SUM
  }
}
layer {
  name: "relu7"
  type: "ReLU"
  bottom: "eltwise7"
  top: "eltwise7"
}
layer {
  name: "relu7_p"
  type: "Convolution"
  bottom: "eltwise7"
  top: "relu7_p"
  param {
    lr_mult: 1
  }
  param {
    lr_mult: 2
  }
  convolution_param {
    num_output: 256
    pad: 0
    kernel_size: 1
    stride: 2
    weight_filler {
      type: "xavier"
    }
    bias_filler {
      type: "constant"
    }
  }
}
layer {
  name: "conv41"
  type: "Convolution"
  bottom: "eltwise7"
  top: "conv41"
  param {
    lr_mult: 1
  }
  param {
    lr_mult: 2
  }
  convolution_param {
    num_output: 256
    pad: 1
    kernel_size: 3
    stride: 2
    weight_filler {
      type: "xavier"
    }
    bias_filler {
      type: "constant"
    }
  }
}
layer {
  name: "bn41"
  type: "BN"
  bottom: "conv41"
  top: "bn41"
  param {
    lr_mult: 1
    decay_mult: 0
  }
  param {
    lr_mult: 1
    decay_mult: 0
  }
  bn_param {
    scale_filler {
      type: "constant"
      value: 1
    }
    shift_filler {
      type: "constant"
      value: 0
    }
  }
}
layer {
  name: "relu41"
  type: "ReLU"
  bottom: "bn41"
  top: "bn41"
}
layer {
  name: "conv42"
  type: "Convolution"
  bottom: "bn41"
  top: "conv42"
  param {
    lr_mult: 1
  }
  param {
    lr_mult: 2
  }
  convolution_param {
    num_output: 256
    pad: 1
    kernel_size: 3
    stride: 1
    weight_filler {
      type: "xavier"
    }
    bias_filler {
      type: "constant"
    }
  }
}
layer {
  name: "bn42"
  type: "BN"
  bottom: "conv42"
  top: "bn42"
  param {
    lr_mult: 1
    decay_mult: 0
  }
  param {
    lr_mult: 1
    decay_mult: 0
  }
  bn_param {
    scale_filler {
      type: "constant"
      value: 1
    }
    shift_filler {
      type: "constant"
      value: 0
    }
  }
}
layer {
  name: "relu42"
  type: "ReLU"
  bottom: "bn42"
  top: "bn42"
}
layer {
  name: "eltwise8"
  type: "Eltwise"
  bottom: "relu7_p"
  bottom: "bn42"
  top: "eltwise8"
  eltwise_param {
    operation: SUM
  }
}
layer {
  name: "relu8"
  type: "ReLU"
  bottom: "eltwise8"
  top: "eltwise8"
}
layer {
  name: "conv43"
  type: "Convolution"
  bottom: "eltwise8"
  top: "conv43"
  param {
    lr_mult: 1
  }
  param {
    lr_mult: 2
  }
  convolution_param {
    num_output: 256
    pad: 1
    kernel_size: 3
    stride: 1
    weight_filler {
      type: "xavier"
    }
    bias_filler {
      type: "constant"
    }
  }
}
layer {
  name: "bn43"
  type: "BN"
  bottom: "conv43"
  top: "bn43"
  param {
    lr_mult: 1
    decay_mult: 0
  }
  param {
    lr_mult: 1
    decay_mult: 0
  }
  bn_param {
    scale_filler {
      type: "constant"
      value: 1
    }
    shift_filler {
      type: "constant"
      value: 0
    }
  }
}
layer {
  name: "relu43"
  type: "ReLU"
  bottom: "bn43"
  top: "bn43"
}
layer {
  name: "conv44"
  type: "Convolution"
  bottom: "bn43"
  top: "conv44"
  param {
    lr_mult: 1
  }
  param {
    lr_mult: 2
  }
  convolution_param {
    num_output: 256
    pad: 1
    kernel_size: 3
    stride: 1
    weight_filler {
      type: "xavier"
    }
    bias_filler {
      type: "constant"
    }
  }
}
layer {
  name: "bn44"
  type: "BN"
  bottom: "conv44"
  top: "bn44"
  param {
    lr_mult: 1
    decay_mult: 0
  }
  param {
    lr_mult: 1
    decay_mult: 0
  }
  bn_param {
    scale_filler {
      type: "constant"
      value: 1
    }
    shift_filler {
      type: "constant"
      value: 0
    }
  }
}
layer {
  name: "relu44"
  type: "ReLU"
  bottom: "bn44"
  top: "bn44"
}
layer {
  name: "eltwise9"
  type: "Eltwise"
  bottom: "eltwise8"
  bottom: "bn44"
  top: "eltwise9"
  eltwise_param {
    operation: SUM
  }
}
layer {
  name: "relu9"
  type: "ReLU"
  bottom: "eltwise9"
  top: "eltwise9"
}
layer {
  name: "conv45"
  type: "Convolution"
  bottom: "eltwise9"
  top: "conv45"
  param {
    lr_mult: 1
  }
  param {
    lr_mult: 2
  }
  convolution_param {
    num_output: 256
    pad: 1
    kernel_size: 3
    stride: 1
    weight_filler {
      type: "xavier"
    }
    bias_filler {
      type: "constant"
    }
  }
}
layer {
  name: "bn45"
  type: "BN"
  bottom: "conv45"
  top: "bn45"
  param {
    lr_mult: 1
    decay_mult: 0
  }
  param {
    lr_mult: 1
    decay_mult: 0
  }
  bn_param {
    scale_filler {
      type: "constant"
      value: 1
    }
    shift_filler {
      type: "constant"
      value: 0
    }
  }
}
layer {
  name: "relu45"
  type: "ReLU"
  bottom: "bn45"
  top: "bn45"
}
layer {
  name: "conv46"
  type: "Convolution"
  bottom: "bn45"
  top: "conv46"
  param {
    lr_mult: 1
  }
  param {
    lr_mult: 2
  }
  convolution_param {
    num_output: 256
    pad: 1
    kernel_size: 3
    stride: 1
    weight_filler {
      type: "xavier"
    }
    bias_filler {
      type: "constant"
    }
  }
}
layer {
  name: "bn46"
  type: "BN"
  bottom: "conv46"
  top: "bn46"
  param {
    lr_mult: 1
    decay_mult: 0
  }
  param {
    lr_mult: 1
    decay_mult: 0
  }
  bn_param {
    scale_filler {
      type: "constant"
      value: 1
    }
    shift_filler {
      type: "constant"
      value: 0
    }
  }
}
layer {
  name: "relu46"
  type: "ReLU"
  bottom: "bn46"
  top: "bn46"
}
layer {
  name: "eltwise10"
  type: "Eltwise"
  bottom: "eltwise9"
  bottom: "bn46"
  top: "eltwise10"
  eltwise_param {
    operation: SUM
  }
}
layer {
  name: "relu10"
  type: "ReLU"
  bottom: "eltwise10"
  top: "eltwise10"
}
layer {
  name: "conv47"
  type: "Convolution"
  bottom: "eltwise10"
  top: "conv47"
  param {
    lr_mult: 1
  }
  param {
    lr_mult: 2
  }
  convolution_param {
    num_output: 256
    pad: 1
    kernel_size: 3
    stride: 1
    weight_filler {
      type: "xavier"
    }
    bias_filler {
      type: "constant"
    }
  }
}
layer {
  name: "bn47"
  type: "BN"
  bottom: "conv47"
  top: "bn47"
  param {
    lr_mult: 1
    decay_mult: 0
  }
  param {
    lr_mult: 1
    decay_mult: 0
  }
  bn_param {
    scale_filler {
      type: "constant"
      value: 1
    }
    shift_filler {
      type: "constant"
      value: 0
    }
  }
}
layer {
  name: "relu47"
  type: "ReLU"
  bottom: "bn47"
  top: "bn47"
}
layer {
  name: "conv48"
  type: "Convolution"
  bottom: "bn47"
  top: "conv48"
  param {
    lr_mult: 1
  }
  param {
    lr_mult: 2
  }
  convolution_param {
    num_output: 256
    pad: 1
    kernel_size: 3
    stride: 1
    weight_filler {
      type: "xavier"
    }
    bias_filler {
      type: "constant"
    }
  }
}
layer {
  name: "bn48"
  type: "BN"
  bottom: "conv48"
  top: "bn48"
  param {
    lr_mult: 1
    decay_mult: 0
  }
  param {
    lr_mult: 1
    decay_mult: 0
  }
  bn_param {
    scale_filler {
      type: "constant"
      value: 1
    }
    shift_filler {
      type: "constant"
      value: 0
    }
  }
}
layer {
  name: "relu48"
  type: "ReLU"
  bottom: "bn48"
  top: "bn48"
}
layer {
  name: "eltwise11"
  type: "Eltwise"
  bottom: "eltwise10"
  bottom: "bn48"
  top: "eltwise11"
  eltwise_param {
    operation: SUM
  }
}
layer {
  name: "relu11"
  type: "ReLU"
  bottom: "eltwise11"
  top: "eltwise11"
}
layer {
  name: "conv49"
  type: "Convolution"
  bottom: "eltwise11"
  top: "conv49"
  param {
    lr_mult: 1
  }
  param {
    lr_mult: 2
  }
  convolution_param {
    num_output: 256
    pad: 1
    kernel_size: 3
    stride: 1
    weight_filler {
      type: "xavier"
    }
    bias_filler {
      type: "constant"
    }
  }
}
layer {
  name: "bn49"
  type: "BN"
  bottom: "conv49"
  top: "bn49"
  param {
    lr_mult: 1
    decay_mult: 0
  }
  param {
    lr_mult: 1
    decay_mult: 0
  }
  bn_param {
    scale_filler {
      type: "constant"
      value: 1
    }
    shift_filler {
      type: "constant"
      value: 0
    }
  }
}
layer {
  name: "relu49"
  type: "ReLU"
  bottom: "bn49"
  top: "bn49"
}
layer {
  name: "conv410"
  type: "Convolution"
  bottom: "bn49"
  top: "conv410"
  param {
    lr_mult: 1
  }
  param {
    lr_mult: 2
  }
  convolution_param {
    num_output: 256
    pad: 1
    kernel_size: 3
    stride: 1
    weight_filler {
      type: "xavier"
    }
    bias_filler {
      type: "constant"
    }
  }
}
layer {
  name: "bn410"
  type: "BN"
  bottom: "conv410"
  top: "bn410"
  param {
    lr_mult: 1
    decay_mult: 0
  }
  param {
    lr_mult: 1
    decay_mult: 0
  }
  bn_param {
    scale_filler {
      type: "constant"
      value: 1
    }
    shift_filler {
      type: "constant"
      value: 0
    }
  }
}
layer {
  name: "relu410"
  type: "ReLU"
  bottom: "bn410"
  top: "bn410"
}
layer {
  name: "eltwise12"
  type: "Eltwise"
  bottom: "eltwise11"
  bottom: "bn410"
  top: "eltwise12"
  eltwise_param {
    operation: SUM
  }
}
layer {
  name: "relu12"
  type: "ReLU"
  bottom: "eltwise12"
  top: "eltwise12"
}
layer {
  name: "conv411"
  type: "Convolution"
  bottom: "eltwise12"
  top: "conv411"
  param {
    lr_mult: 1
  }
  param {
    lr_mult: 2
  }
  convolution_param {
    num_output: 256
    pad: 1
    kernel_size: 3
    stride: 1
    weight_filler {
      type: "xavier"
    }
    bias_filler {
      type: "constant"
    }
  }
}
layer {
  name: "bn411"
  type: "BN"
  bottom: "conv411"
  top: "bn411"
  param {
    lr_mult: 1
    decay_mult: 0
  }
  param {
    lr_mult: 1
    decay_mult: 0
  }
  bn_param {
    scale_filler {
      type: "constant"
      value: 1
    }
    shift_filler {
      type: "constant"
      value: 0
    }
  }
}
layer {
  name: "relu411"
  type: "ReLU"
  bottom: "bn411"
  top: "bn411"
}
layer {
  name: "conv412"
  type: "Convolution"
  bottom: "bn411"
  top: "conv412"
  param {
    lr_mult: 1
  }
  param {
    lr_mult: 2
  }
  convolution_param {
    num_output: 256
    pad: 1
    kernel_size: 3
    stride: 1
    weight_filler {
      type: "xavier"
    }
    bias_filler {
      type: "constant"
    }
  }
}
layer {
  name: "bn412"
  type: "BN"
  bottom: "conv412"
  top: "bn412"
  param {
    lr_mult: 1
    decay_mult: 0
  }
  param {
    lr_mult: 1
    decay_mult: 0
  }
  bn_param {
    scale_filler {
      type: "constant"
      value: 1
    }
    shift_filler {
      type: "constant"
      value: 0
    }
  }
}
layer {
  name: "relu412"
  type: "ReLU"
  bottom: "bn412"
  top: "bn412"
}
layer {
  name: "eltwise13"
  type: "Eltwise"
  bottom: "eltwise12"
  bottom: "bn412"
  top: "eltwise13"
  eltwise_param {
    operation: SUM
  }
}
layer {
  name: "relu13"
  type: "ReLU"
  bottom: "eltwise13"
  top: "eltwise13"
}
layer {
  name: "relu13_p"
  type: "Convolution"
  bottom: "eltwise12"
  top: "relu13_p"
  param {
    lr_mult: 1
  }
  param {
    lr_mult: 2
  }
  convolution_param {
    num_output: 512
    pad: 0
    kernel_size: 1
    stride: 2
    weight_filler {
      type: "xavier"
    }
    bias_filler {
      type: "constant"
    }
  }
}
layer {
  name: "conv51"
  type: "Convolution"
  bottom: "eltwise13"
  top: "conv51"
  param {
    lr_mult: 1
  }
  param {
    lr_mult: 2
  }
  convolution_param {
    num_output: 512
    pad: 1
    kernel_size: 3
    stride: 2
    weight_filler {
      type: "xavier"
    }
    bias_filler {
      type: "constant"
    }
  }
}
layer {
  name: "bn51"
  type: "BN"
  bottom: "conv51"
  top: "bn51"
  param {
    lr_mult: 1
    decay_mult: 0
  }
  param {
    lr_mult: 1
    decay_mult: 0
  }
  bn_param {
    scale_filler {
      type: "constant"
      value: 1
    }
    shift_filler {
      type: "constant"
      value: 0
    }
  }
}
layer {
  name: "relu51"
  type: "ReLU"
  bottom: "bn51"
  top: "bn51"
}
layer {
  name: "conv52"
  type: "Convolution"
  bottom: "bn51"
  top: "conv52"
  param {
    lr_mult: 1
  }
  param {
    lr_mult: 2
  }
  convolution_param {
    num_output: 512
    pad: 1
    kernel_size: 3
    stride: 1
    weight_filler {
      type: "xavier"
    }
    bias_filler {
      type: "constant"
    }
  }
}
layer {
  name: "bn52"
  type: "BN"
  bottom: "conv52"
  top: "bn52"
  param {
    lr_mult: 1
    decay_mult: 0
  }
  param {
    lr_mult: 1
    decay_mult: 0
  }
  bn_param {
    scale_filler {
      type: "constant"
      value: 1
    }
    shift_filler {
      type: "constant"
      value: 0
    }
  }
}
layer {
  name: "relu52"
  type: "ReLU"
  bottom: "bn52"
  top: "bn52"
}
layer {
  name: "eltwise14"
  type: "Eltwise"
  bottom: "relu13_p"
  bottom: "bn52"
  top: "eltwise14"
  eltwise_param {
    operation: SUM
  }
}
layer {
  name: "relu14"
  type: "ReLU"
  bottom: "eltwise14"
  top: "eltwise14"
}
layer {
  name: "conv53"
  type: "Convolution"
  bottom: "eltwise14"
  top: "conv53"
  param {
    lr_mult: 1
  }
  param {
    lr_mult: 2
  }
  convolution_param {
    num_output: 512
    pad: 1
    kernel_size: 3
    stride: 1
    weight_filler {
      type: "xavier"
    }
    bias_filler {
      type: "constant"
    }
  }
}
layer {
  name: "bn53"
  type: "BN"
  bottom: "conv53"
  top: "bn53"
  param {
    lr_mult: 1
    decay_mult: 0
  }
  param {
    lr_mult: 1
    decay_mult: 0
  }
  bn_param {
    scale_filler {
      type: "constant"
      value: 1
    }
    shift_filler {
      type: "constant"
      value: 0
    }
  }
}
layer {
  name: "relu53"
  type: "ReLU"
  bottom: "bn53"
  top: "bn53"
}
layer {
  name: "conv54"
  type: "Convolution"
  bottom: "bn53"
  top: "conv54"
  param {
    lr_mult: 1
  }
  param {
    lr_mult: 2
  }
  convolution_param {
    num_output: 512
    pad: 1
    kernel_size: 3
    stride: 1
    weight_filler {
      type: "xavier"
    }
    bias_filler {
      type: "constant"
    }
  }
}
layer {
  name: "bn54"
  type: "BN"
  bottom: "conv54"
  top: "bn54"
  param {
    lr_mult: 1
    decay_mult: 0
  }
  param {
    lr_mult: 1
    decay_mult: 0
  }
  bn_param {
    scale_filler {
      type: "constant"
      value: 1
    }
    shift_filler {
      type: "constant"
      value: 0
    }
  }
}
layer {
  name: "relu54"
  type: "ReLU"
  bottom: "bn54"
  top: "bn54"
}
layer {
  name: "eltwise15"
  type: "Eltwise"
  bottom: "eltwise14"
  bottom: "bn54"
  top: "eltwise15"
  eltwise_param {
    operation: SUM
  }
}
layer {
  name: "relu15"
  type: "ReLU"
  bottom: "eltwise15"
  top: "eltwise15"
}
layer {
  name: "conv55"
  type: "Convolution"
  bottom: "eltwise15"
  top: "conv55"
  param {
    lr_mult: 1
  }
  param {
    lr_mult: 2
  }
  convolution_param {
    num_output: 512
    pad: 1
    kernel_size: 3
    stride: 1
    weight_filler {
      type: "xavier"
    }
    bias_filler {
      type: "constant"
    }
  }
}
layer {
  name: "bn55"
  type: "BN"
  bottom: "conv55"
  top: "bn55"
  param {
    lr_mult: 1
    decay_mult: 0
  }
  param {
    lr_mult: 1
    decay_mult: 0
  }
  bn_param {
    scale_filler {
      type: "constant"
      value: 1
    }
    shift_filler {
      type: "constant"
      value: 0
    }
  }
}
layer {
  name: "relu55"
  type: "ReLU"
  bottom: "bn55"
  top: "bn55"
}
layer {
  name: "conv56"
  type: "Convolution"
  bottom: "bn55"
  top: "conv56"
  param {
    lr_mult: 1
  }
  param {
    lr_mult: 2
  }
  convolution_param {
    num_output: 512
    pad: 1
    kernel_size: 3
    stride: 1
    weight_filler {
      type: "xavier"
    }
    bias_filler {
      type: "constant"
    }
  }
}
layer {
  name: "bn56"
  type: "BN"
  bottom: "conv56"
  top: "bn56"
  param {
    lr_mult: 1
    decay_mult: 0
  }
  param {
    lr_mult: 1
    decay_mult: 0
  }
  bn_param {
    scale_filler {
      type: "constant"
      value: 1
    }
    shift_filler {
      type: "constant"
      value: 0
    }
  }
}
layer {
  name: "relu56"
  type: "ReLU"
  bottom: "bn56"
  top: "bn56"
}
layer {
  name: "eltwise16"
  type: "Eltwise"
  bottom: "eltwise15"
  bottom: "bn56"
  top: "eltwise16"
  eltwise_param {
    operation: SUM
  }
}
layer {
  name: "relu16"
  type: "ReLU"
  bottom: "eltwise16"
  top: "eltwise16"
}
layer {
  name: "pool5"
  type: "Pooling"
  bottom: "eltwise16"
  top: "pool5"
  pooling_param {
    pool: AVE
    kernel_size: 7
    stride: 1
  }
}
layer {
  name: "ip1"
  type: "InnerProduct"
  bottom: "pool5"
  top: "ip1"
  param {
    lr_mult: 1
  }
  param {
    lr_mult: 2
  }
  inner_product_param {
    num_output: 1000
    weight_filler {
      type: "xavier"
    }
    bias_filler {
      type: "constant"
    }
  }
}
layer {
  name: "loss"
  type: "SoftmaxWithLoss"
  bottom: "ip1"
  bottom: "label"
  top: "loss"
  include {
    phase: TRAIN
  }
}
I0102 03:29:14.631415 19302 layer_factory.hpp:76] Creating layer data
I0102 03:29:14.632012 19302 net.cpp:110] Creating Layer data
I0102 03:29:14.632055 19302 net.cpp:433] data -> data
I0102 03:29:14.632109 19302 net.cpp:433] data -> label
I0102 03:29:14.632140 19302 data_transformer.cpp:23] Loading mean file from: ./ilsvrc12_mean.binaryproto
I0102 03:29:14.632982 19305 db_lmdb.cpp:22] Opened lmdb ./ilsvrc12_train_lmdb
I0102 03:29:14.687842 19302 data_layer.cpp:44] output data size: 64,3,224,224
I0102 03:29:14.771154 19302 net.cpp:155] Setting up data
I0102 03:29:14.771221 19302 net.cpp:163] Top shape: 64 3 224 224 (9633792)
I0102 03:29:14.771237 19302 net.cpp:163] Top shape: 64 (64)
I0102 03:29:14.771258 19302 layer_factory.hpp:76] Creating layer conv01
I0102 03:29:14.771344 19302 net.cpp:110] Creating Layer conv01
I0102 03:29:14.771361 19302 net.cpp:477] conv01 <- data
I0102 03:29:14.771400 19302 net.cpp:433] conv01 -> conv01
I0102 03:29:15.093703 19302 net.cpp:155] Setting up conv01
I0102 03:29:15.093767 19302 net.cpp:163] Top shape: 64 64 112 112 (51380224)
I0102 03:29:15.093809 19302 layer_factory.hpp:76] Creating layer bn01
I0102 03:29:15.093894 19302 net.cpp:110] Creating Layer bn01
I0102 03:29:15.093909 19302 net.cpp:477] bn01 <- conv01
I0102 03:29:15.093936 19302 net.cpp:433] bn01 -> bn01
I0102 03:29:15.094064 19302 net.cpp:155] Setting up bn01
I0102 03:29:15.094084 19302 net.cpp:163] Top shape: 64 64 112 112 (51380224)
I0102 03:29:15.094105 19302 layer_factory.hpp:76] Creating layer relu01
I0102 03:29:15.094123 19302 net.cpp:110] Creating Layer relu01
I0102 03:29:15.094135 19302 net.cpp:477] relu01 <- bn01
I0102 03:29:15.094151 19302 net.cpp:419] relu01 -> bn01 (in-place)
I0102 03:29:15.094243 19302 net.cpp:155] Setting up relu01
I0102 03:29:15.094260 19302 net.cpp:163] Top shape: 64 64 112 112 (51380224)
I0102 03:29:15.094274 19302 layer_factory.hpp:76] Creating layer pool1
I0102 03:29:15.094298 19302 net.cpp:110] Creating Layer pool1
I0102 03:29:15.094312 19302 net.cpp:477] pool1 <- bn01
I0102 03:29:15.094326 19302 net.cpp:433] pool1 -> pool1
I0102 03:29:15.094439 19302 net.cpp:155] Setting up pool1
I0102 03:29:15.094460 19302 net.cpp:163] Top shape: 64 64 56 56 (12845056)
I0102 03:29:15.094473 19302 layer_factory.hpp:76] Creating layer pool1_pool1_0_split
I0102 03:29:15.094491 19302 net.cpp:110] Creating Layer pool1_pool1_0_split
I0102 03:29:15.094508 19302 net.cpp:477] pool1_pool1_0_split <- pool1
I0102 03:29:15.094521 19302 net.cpp:433] pool1_pool1_0_split -> pool1_pool1_0_split_0
I0102 03:29:15.094537 19302 net.cpp:433] pool1_pool1_0_split -> pool1_pool1_0_split_1
I0102 03:29:15.094557 19302 net.cpp:155] Setting up pool1_pool1_0_split
I0102 03:29:15.094570 19302 net.cpp:163] Top shape: 64 64 56 56 (12845056)
I0102 03:29:15.094583 19302 net.cpp:163] Top shape: 64 64 56 56 (12845056)
I0102 03:29:15.094595 19302 layer_factory.hpp:76] Creating layer conv21
I0102 03:29:15.094615 19302 net.cpp:110] Creating Layer conv21
I0102 03:29:15.094658 19302 net.cpp:477] conv21 <- pool1_pool1_0_split_0
I0102 03:29:15.094676 19302 net.cpp:433] conv21 -> conv21
I0102 03:29:15.096251 19302 net.cpp:155] Setting up conv21
I0102 03:29:15.096282 19302 net.cpp:163] Top shape: 64 64 56 56 (12845056)
I0102 03:29:15.096303 19302 layer_factory.hpp:76] Creating layer bn21
I0102 03:29:15.096328 19302 net.cpp:110] Creating Layer bn21
I0102 03:29:15.096345 19302 net.cpp:477] bn21 <- conv21
I0102 03:29:15.096366 19302 net.cpp:433] bn21 -> bn21
I0102 03:29:15.096462 19302 net.cpp:155] Setting up bn21
I0102 03:29:15.096482 19302 net.cpp:163] Top shape: 64 64 56 56 (12845056)
I0102 03:29:15.096503 19302 layer_factory.hpp:76] Creating layer relu21
I0102 03:29:15.096520 19302 net.cpp:110] Creating Layer relu21
I0102 03:29:15.096532 19302 net.cpp:477] relu21 <- bn21
I0102 03:29:15.096544 19302 net.cpp:419] relu21 -> bn21 (in-place)
I0102 03:29:15.096621 19302 net.cpp:155] Setting up relu21
I0102 03:29:15.096643 19302 net.cpp:163] Top shape: 64 64 56 56 (12845056)
I0102 03:29:15.096657 19302 layer_factory.hpp:76] Creating layer conv22
I0102 03:29:15.096673 19302 net.cpp:110] Creating Layer conv22
I0102 03:29:15.096686 19302 net.cpp:477] conv22 <- bn21
I0102 03:29:15.096703 19302 net.cpp:433] conv22 -> conv22
I0102 03:29:15.097321 19302 net.cpp:155] Setting up conv22
I0102 03:29:15.097354 19302 net.cpp:163] Top shape: 64 64 56 56 (12845056)
I0102 03:29:15.097373 19302 layer_factory.hpp:76] Creating layer bn22
I0102 03:29:15.097401 19302 net.cpp:110] Creating Layer bn22
I0102 03:29:15.097414 19302 net.cpp:477] bn22 <- conv22
I0102 03:29:15.097430 19302 net.cpp:433] bn22 -> bn22
I0102 03:29:15.097532 19302 net.cpp:155] Setting up bn22
I0102 03:29:15.097551 19302 net.cpp:163] Top shape: 64 64 56 56 (12845056)
I0102 03:29:15.097574 19302 layer_factory.hpp:76] Creating layer relu22
I0102 03:29:15.097592 19302 net.cpp:110] Creating Layer relu22
I0102 03:29:15.097605 19302 net.cpp:477] relu22 <- bn22
I0102 03:29:15.097620 19302 net.cpp:419] relu22 -> bn22 (in-place)
I0102 03:29:15.097807 19302 net.cpp:155] Setting up relu22
I0102 03:29:15.097837 19302 net.cpp:163] Top shape: 64 64 56 56 (12845056)
I0102 03:29:15.097849 19302 layer_factory.hpp:76] Creating layer eltwise1
I0102 03:29:15.097869 19302 net.cpp:110] Creating Layer eltwise1
I0102 03:29:15.097880 19302 net.cpp:477] eltwise1 <- pool1_pool1_0_split_1
I0102 03:29:15.097892 19302 net.cpp:477] eltwise1 <- bn22
I0102 03:29:15.097918 19302 net.cpp:433] eltwise1 -> eltwise1
I0102 03:29:15.097941 19302 net.cpp:155] Setting up eltwise1
I0102 03:29:15.097956 19302 net.cpp:163] Top shape: 64 64 56 56 (12845056)
I0102 03:29:15.097966 19302 layer_factory.hpp:76] Creating layer relu1
I0102 03:29:15.097980 19302 net.cpp:110] Creating Layer relu1
I0102 03:29:15.097988 19302 net.cpp:477] relu1 <- eltwise1
I0102 03:29:15.098001 19302 net.cpp:419] relu1 -> eltwise1 (in-place)
I0102 03:29:15.098067 19302 net.cpp:155] Setting up relu1
I0102 03:29:15.098083 19302 net.cpp:163] Top shape: 64 64 56 56 (12845056)
I0102 03:29:15.098094 19302 layer_factory.hpp:76] Creating layer eltwise1_relu1_0_split
I0102 03:29:15.098109 19302 net.cpp:110] Creating Layer eltwise1_relu1_0_split
I0102 03:29:15.098119 19302 net.cpp:477] eltwise1_relu1_0_split <- eltwise1
I0102 03:29:15.098130 19302 net.cpp:433] eltwise1_relu1_0_split -> eltwise1_relu1_0_split_0
I0102 03:29:15.098145 19302 net.cpp:433] eltwise1_relu1_0_split -> eltwise1_relu1_0_split_1
I0102 03:29:15.098157 19302 net.cpp:155] Setting up eltwise1_relu1_0_split
I0102 03:29:15.098170 19302 net.cpp:163] Top shape: 64 64 56 56 (12845056)
I0102 03:29:15.098181 19302 net.cpp:163] Top shape: 64 64 56 56 (12845056)
I0102 03:29:15.098191 19302 layer_factory.hpp:76] Creating layer conv23
I0102 03:29:15.098206 19302 net.cpp:110] Creating Layer conv23
I0102 03:29:15.098217 19302 net.cpp:477] conv23 <- eltwise1_relu1_0_split_0
I0102 03:29:15.098232 19302 net.cpp:433] conv23 -> conv23
I0102 03:29:15.098819 19302 net.cpp:155] Setting up conv23
I0102 03:29:15.098839 19302 net.cpp:163] Top shape: 64 64 56 56 (12845056)
I0102 03:29:15.098865 19302 layer_factory.hpp:76] Creating layer bn23
I0102 03:29:15.098883 19302 net.cpp:110] Creating Layer bn23
I0102 03:29:15.098894 19302 net.cpp:477] bn23 <- conv23
I0102 03:29:15.098909 19302 net.cpp:433] bn23 -> bn23
I0102 03:29:15.099000 19302 net.cpp:155] Setting up bn23
I0102 03:29:15.099016 19302 net.cpp:163] Top shape: 64 64 56 56 (12845056)
I0102 03:29:15.099031 19302 layer_factory.hpp:76] Creating layer relu23
I0102 03:29:15.099045 19302 net.cpp:110] Creating Layer relu23
I0102 03:29:15.099055 19302 net.cpp:477] relu23 <- bn23
I0102 03:29:15.099066 19302 net.cpp:419] relu23 -> bn23 (in-place)
I0102 03:29:15.099138 19302 net.cpp:155] Setting up relu23
I0102 03:29:15.099154 19302 net.cpp:163] Top shape: 64 64 56 56 (12845056)
I0102 03:29:15.099164 19302 layer_factory.hpp:76] Creating layer conv24
I0102 03:29:15.099179 19302 net.cpp:110] Creating Layer conv24
I0102 03:29:15.099189 19302 net.cpp:477] conv24 <- bn23
I0102 03:29:15.099205 19302 net.cpp:433] conv24 -> conv24
I0102 03:29:15.099787 19302 net.cpp:155] Setting up conv24
I0102 03:29:15.099808 19302 net.cpp:163] Top shape: 64 64 56 56 (12845056)
I0102 03:29:15.099822 19302 layer_factory.hpp:76] Creating layer bn24
I0102 03:29:15.099838 19302 net.cpp:110] Creating Layer bn24
I0102 03:29:15.099849 19302 net.cpp:477] bn24 <- conv24
I0102 03:29:15.099864 19302 net.cpp:433] bn24 -> bn24
I0102 03:29:15.099956 19302 net.cpp:155] Setting up bn24
I0102 03:29:15.099972 19302 net.cpp:163] Top shape: 64 64 56 56 (12845056)
I0102 03:29:15.099987 19302 layer_factory.hpp:76] Creating layer relu24
I0102 03:29:15.100003 19302 net.cpp:110] Creating Layer relu24
I0102 03:29:15.100013 19302 net.cpp:477] relu24 <- bn24
I0102 03:29:15.100025 19302 net.cpp:419] relu24 -> bn24 (in-place)
I0102 03:29:15.100095 19302 net.cpp:155] Setting up relu24
I0102 03:29:15.100109 19302 net.cpp:163] Top shape: 64 64 56 56 (12845056)
I0102 03:29:15.100121 19302 layer_factory.hpp:76] Creating layer bn24_relu24_0_split
I0102 03:29:15.100134 19302 net.cpp:110] Creating Layer bn24_relu24_0_split
I0102 03:29:15.100144 19302 net.cpp:477] bn24_relu24_0_split <- bn24
I0102 03:29:15.100157 19302 net.cpp:433] bn24_relu24_0_split -> bn24_relu24_0_split_0
I0102 03:29:15.100169 19302 net.cpp:433] bn24_relu24_0_split -> bn24_relu24_0_split_1
I0102 03:29:15.100183 19302 net.cpp:155] Setting up bn24_relu24_0_split
I0102 03:29:15.100195 19302 net.cpp:163] Top shape: 64 64 56 56 (12845056)
I0102 03:29:15.100206 19302 net.cpp:163] Top shape: 64 64 56 56 (12845056)
I0102 03:29:15.100216 19302 layer_factory.hpp:76] Creating layer eltwise2
I0102 03:29:15.100229 19302 net.cpp:110] Creating Layer eltwise2
I0102 03:29:15.100239 19302 net.cpp:477] eltwise2 <- eltwise1_relu1_0_split_1
I0102 03:29:15.100250 19302 net.cpp:477] eltwise2 <- bn24_relu24_0_split_0
I0102 03:29:15.100262 19302 net.cpp:433] eltwise2 -> eltwise2
I0102 03:29:15.100276 19302 net.cpp:155] Setting up eltwise2
I0102 03:29:15.100288 19302 net.cpp:163] Top shape: 64 64 56 56 (12845056)
I0102 03:29:15.100298 19302 layer_factory.hpp:76] Creating layer relu2
I0102 03:29:15.100312 19302 net.cpp:110] Creating Layer relu2
I0102 03:29:15.100322 19302 net.cpp:477] relu2 <- eltwise2
I0102 03:29:15.100334 19302 net.cpp:419] relu2 -> eltwise2 (in-place)
I0102 03:29:15.100523 19302 net.cpp:155] Setting up relu2
I0102 03:29:15.100543 19302 net.cpp:163] Top shape: 64 64 56 56 (12845056)
I0102 03:29:15.100555 19302 layer_factory.hpp:76] Creating layer conv25
I0102 03:29:15.100571 19302 net.cpp:110] Creating Layer conv25
I0102 03:29:15.100584 19302 net.cpp:477] conv25 <- bn24_relu24_0_split_1
I0102 03:29:15.100597 19302 net.cpp:433] conv25 -> conv25
I0102 03:29:15.101205 19302 net.cpp:155] Setting up conv25
I0102 03:29:15.101234 19302 net.cpp:163] Top shape: 64 64 56 56 (12845056)
I0102 03:29:15.101248 19302 layer_factory.hpp:76] Creating layer bn25
I0102 03:29:15.101266 19302 net.cpp:110] Creating Layer bn25
I0102 03:29:15.101277 19302 net.cpp:477] bn25 <- conv25
I0102 03:29:15.101292 19302 net.cpp:433] bn25 -> bn25
I0102 03:29:15.101411 19302 net.cpp:155] Setting up bn25
I0102 03:29:15.101429 19302 net.cpp:163] Top shape: 64 64 56 56 (12845056)
I0102 03:29:15.101449 19302 layer_factory.hpp:76] Creating layer relu25
I0102 03:29:15.101464 19302 net.cpp:110] Creating Layer relu25
I0102 03:29:15.101475 19302 net.cpp:477] relu25 <- bn25
I0102 03:29:15.101486 19302 net.cpp:419] relu25 -> bn25 (in-place)
I0102 03:29:15.101557 19302 net.cpp:155] Setting up relu25
I0102 03:29:15.101572 19302 net.cpp:163] Top shape: 64 64 56 56 (12845056)
I0102 03:29:15.101583 19302 layer_factory.hpp:76] Creating layer conv26
I0102 03:29:15.101598 19302 net.cpp:110] Creating Layer conv26
I0102 03:29:15.101609 19302 net.cpp:477] conv26 <- bn25
I0102 03:29:15.101621 19302 net.cpp:433] conv26 -> conv26
I0102 03:29:15.102207 19302 net.cpp:155] Setting up conv26
I0102 03:29:15.102227 19302 net.cpp:163] Top shape: 64 64 56 56 (12845056)
I0102 03:29:15.102241 19302 layer_factory.hpp:76] Creating layer bn26
I0102 03:29:15.102257 19302 net.cpp:110] Creating Layer bn26
I0102 03:29:15.102267 19302 net.cpp:477] bn26 <- conv26
I0102 03:29:15.102293 19302 net.cpp:433] bn26 -> bn26
I0102 03:29:15.102383 19302 net.cpp:155] Setting up bn26
I0102 03:29:15.102401 19302 net.cpp:163] Top shape: 64 64 56 56 (12845056)
I0102 03:29:15.102416 19302 layer_factory.hpp:76] Creating layer relu26
I0102 03:29:15.102428 19302 net.cpp:110] Creating Layer relu26
I0102 03:29:15.102438 19302 net.cpp:477] relu26 <- bn26
I0102 03:29:15.102450 19302 net.cpp:419] relu26 -> bn26 (in-place)
I0102 03:29:15.102524 19302 net.cpp:155] Setting up relu26
I0102 03:29:15.102540 19302 net.cpp:163] Top shape: 64 64 56 56 (12845056)
I0102 03:29:15.102550 19302 layer_factory.hpp:76] Creating layer eltwise3
I0102 03:29:15.102562 19302 net.cpp:110] Creating Layer eltwise3
I0102 03:29:15.102572 19302 net.cpp:477] eltwise3 <- eltwise2
I0102 03:29:15.102583 19302 net.cpp:477] eltwise3 <- bn26
I0102 03:29:15.102596 19302 net.cpp:433] eltwise3 -> eltwise3
I0102 03:29:15.102609 19302 net.cpp:155] Setting up eltwise3
I0102 03:29:15.102622 19302 net.cpp:163] Top shape: 64 64 56 56 (12845056)
I0102 03:29:15.102632 19302 layer_factory.hpp:76] Creating layer relu3
I0102 03:29:15.102645 19302 net.cpp:110] Creating Layer relu3
I0102 03:29:15.102656 19302 net.cpp:477] relu3 <- eltwise3
I0102 03:29:15.102669 19302 net.cpp:419] relu3 -> eltwise3 (in-place)
I0102 03:29:15.102736 19302 net.cpp:155] Setting up relu3
I0102 03:29:15.102751 19302 net.cpp:163] Top shape: 64 64 56 56 (12845056)
I0102 03:29:15.102761 19302 layer_factory.hpp:76] Creating layer eltwise3_relu3_0_split
I0102 03:29:15.102777 19302 net.cpp:110] Creating Layer eltwise3_relu3_0_split
I0102 03:29:15.102788 19302 net.cpp:477] eltwise3_relu3_0_split <- eltwise3
I0102 03:29:15.102800 19302 net.cpp:433] eltwise3_relu3_0_split -> eltwise3_relu3_0_split_0
I0102 03:29:15.102815 19302 net.cpp:433] eltwise3_relu3_0_split -> eltwise3_relu3_0_split_1
I0102 03:29:15.102830 19302 net.cpp:155] Setting up eltwise3_relu3_0_split
I0102 03:29:15.102843 19302 net.cpp:163] Top shape: 64 64 56 56 (12845056)
I0102 03:29:15.102854 19302 net.cpp:163] Top shape: 64 64 56 56 (12845056)
I0102 03:29:15.102864 19302 layer_factory.hpp:76] Creating layer relu3_p
I0102 03:29:15.102876 19302 net.cpp:110] Creating Layer relu3_p
I0102 03:29:15.102886 19302 net.cpp:477] relu3_p <- eltwise3_relu3_0_split_0
I0102 03:29:15.102900 19302 net.cpp:433] relu3_p -> relu3_p
I0102 03:29:15.103677 19302 net.cpp:155] Setting up relu3_p
I0102 03:29:15.103698 19302 net.cpp:163] Top shape: 64 128 28 28 (6422528)
I0102 03:29:15.103711 19302 layer_factory.hpp:76] Creating layer conv31
I0102 03:29:15.103726 19302 net.cpp:110] Creating Layer conv31
I0102 03:29:15.103737 19302 net.cpp:477] conv31 <- eltwise3_relu3_0_split_1
I0102 03:29:15.103751 19302 net.cpp:433] conv31 -> conv31
I0102 03:29:15.105043 19302 net.cpp:155] Setting up conv31
I0102 03:29:15.105058 19302 net.cpp:163] Top shape: 64 128 28 28 (6422528)
I0102 03:29:15.105068 19302 layer_factory.hpp:76] Creating layer bn31
I0102 03:29:15.105080 19302 net.cpp:110] Creating Layer bn31
I0102 03:29:15.105098 19302 net.cpp:477] bn31 <- conv31
I0102 03:29:15.105113 19302 net.cpp:433] bn31 -> bn31
I0102 03:29:15.105195 19302 net.cpp:155] Setting up bn31
I0102 03:29:15.105206 19302 net.cpp:163] Top shape: 64 128 28 28 (6422528)
I0102 03:29:15.105216 19302 layer_factory.hpp:76] Creating layer relu31
I0102 03:29:15.106564 19302 net.cpp:110] Creating Layer relu31
I0102 03:29:15.106575 19302 net.cpp:477] relu31 <- bn31
I0102 03:29:15.106590 19302 net.cpp:419] relu31 -> bn31 (in-place)
I0102 03:29:15.106770 19302 net.cpp:155] Setting up relu31
I0102 03:29:15.106791 19302 net.cpp:163] Top shape: 64 128 28 28 (6422528)
I0102 03:29:15.106801 19302 layer_factory.hpp:76] Creating layer conv32
I0102 03:29:15.106819 19302 net.cpp:110] Creating Layer conv32
I0102 03:29:15.106830 19302 net.cpp:477] conv32 <- bn31
I0102 03:29:15.106843 19302 net.cpp:433] conv32 -> conv32
I0102 03:29:15.108203 19302 net.cpp:155] Setting up conv32
I0102 03:29:15.108223 19302 net.cpp:163] Top shape: 64 128 28 28 (6422528)
I0102 03:29:15.108237 19302 layer_factory.hpp:76] Creating layer bn32
I0102 03:29:15.108254 19302 net.cpp:110] Creating Layer bn32
I0102 03:29:15.108266 19302 net.cpp:477] bn32 <- conv32
I0102 03:29:15.108283 19302 net.cpp:433] bn32 -> bn32
I0102 03:29:15.108366 19302 net.cpp:155] Setting up bn32
I0102 03:29:15.108383 19302 net.cpp:163] Top shape: 64 128 28 28 (6422528)
I0102 03:29:15.108398 19302 layer_factory.hpp:76] Creating layer relu32
I0102 03:29:15.108414 19302 net.cpp:110] Creating Layer relu32
I0102 03:29:15.108425 19302 net.cpp:477] relu32 <- bn32
I0102 03:29:15.108438 19302 net.cpp:419] relu32 -> bn32 (in-place)
I0102 03:29:15.108517 19302 net.cpp:155] Setting up relu32
I0102 03:29:15.108533 19302 net.cpp:163] Top shape: 64 128 28 28 (6422528)
I0102 03:29:15.108544 19302 layer_factory.hpp:76] Creating layer eltwise4
I0102 03:29:15.108557 19302 net.cpp:110] Creating Layer eltwise4
I0102 03:29:15.108568 19302 net.cpp:477] eltwise4 <- relu3_p
I0102 03:29:15.108582 19302 net.cpp:477] eltwise4 <- bn32
I0102 03:29:15.108595 19302 net.cpp:433] eltwise4 -> eltwise4
I0102 03:29:15.108610 19302 net.cpp:155] Setting up eltwise4
I0102 03:29:15.108623 19302 net.cpp:163] Top shape: 64 128 28 28 (6422528)
I0102 03:29:15.108633 19302 layer_factory.hpp:76] Creating layer relu4
I0102 03:29:15.108645 19302 net.cpp:110] Creating Layer relu4
I0102 03:29:15.108655 19302 net.cpp:477] relu4 <- eltwise4
I0102 03:29:15.108669 19302 net.cpp:419] relu4 -> eltwise4 (in-place)
I0102 03:29:15.108737 19302 net.cpp:155] Setting up relu4
I0102 03:29:15.108753 19302 net.cpp:163] Top shape: 64 128 28 28 (6422528)
I0102 03:29:15.108764 19302 layer_factory.hpp:76] Creating layer eltwise4_relu4_0_split
I0102 03:29:15.108777 19302 net.cpp:110] Creating Layer eltwise4_relu4_0_split
I0102 03:29:15.108788 19302 net.cpp:477] eltwise4_relu4_0_split <- eltwise4
I0102 03:29:15.108799 19302 net.cpp:433] eltwise4_relu4_0_split -> eltwise4_relu4_0_split_0
I0102 03:29:15.108814 19302 net.cpp:433] eltwise4_relu4_0_split -> eltwise4_relu4_0_split_1
I0102 03:29:15.108827 19302 net.cpp:155] Setting up eltwise4_relu4_0_split
I0102 03:29:15.108839 19302 net.cpp:163] Top shape: 64 128 28 28 (6422528)
I0102 03:29:15.108851 19302 net.cpp:163] Top shape: 64 128 28 28 (6422528)
I0102 03:29:15.108861 19302 layer_factory.hpp:76] Creating layer conv33
I0102 03:29:15.108877 19302 net.cpp:110] Creating Layer conv33
I0102 03:29:15.108888 19302 net.cpp:477] conv33 <- eltwise4_relu4_0_split_0
I0102 03:29:15.108903 19302 net.cpp:433] conv33 -> conv33
I0102 03:29:15.110823 19302 net.cpp:155] Setting up conv33
I0102 03:29:15.110844 19302 net.cpp:163] Top shape: 64 128 28 28 (6422528)
I0102 03:29:15.110864 19302 layer_factory.hpp:76] Creating layer bn33
I0102 03:29:15.110882 19302 net.cpp:110] Creating Layer bn33
I0102 03:29:15.110893 19302 net.cpp:477] bn33 <- conv33
I0102 03:29:15.110908 19302 net.cpp:433] bn33 -> bn33
I0102 03:29:15.110991 19302 net.cpp:155] Setting up bn33
I0102 03:29:15.111008 19302 net.cpp:163] Top shape: 64 128 28 28 (6422528)
I0102 03:29:15.111023 19302 layer_factory.hpp:76] Creating layer relu33
I0102 03:29:15.111050 19302 net.cpp:110] Creating Layer relu33
I0102 03:29:15.111063 19302 net.cpp:477] relu33 <- bn33
I0102 03:29:15.111078 19302 net.cpp:419] relu33 -> bn33 (in-place)
I0102 03:29:15.111255 19302 net.cpp:155] Setting up relu33
I0102 03:29:15.111275 19302 net.cpp:163] Top shape: 64 128 28 28 (6422528)
I0102 03:29:15.111286 19302 layer_factory.hpp:76] Creating layer conv34
I0102 03:29:15.111301 19302 net.cpp:110] Creating Layer conv34
I0102 03:29:15.111311 19302 net.cpp:477] conv34 <- bn33
I0102 03:29:15.111327 19302 net.cpp:433] conv34 -> conv34
I0102 03:29:15.113242 19302 net.cpp:155] Setting up conv34
I0102 03:29:15.113263 19302 net.cpp:163] Top shape: 64 128 28 28 (6422528)
I0102 03:29:15.113277 19302 layer_factory.hpp:76] Creating layer bn34
I0102 03:29:15.113298 19302 net.cpp:110] Creating Layer bn34
I0102 03:29:15.113311 19302 net.cpp:477] bn34 <- conv34
I0102 03:29:15.113327 19302 net.cpp:433] bn34 -> bn34
I0102 03:29:15.113411 19302 net.cpp:155] Setting up bn34
I0102 03:29:15.113427 19302 net.cpp:163] Top shape: 64 128 28 28 (6422528)
I0102 03:29:15.113454 19302 layer_factory.hpp:76] Creating layer relu34
I0102 03:29:15.113469 19302 net.cpp:110] Creating Layer relu34
I0102 03:29:15.113479 19302 net.cpp:477] relu34 <- bn34
I0102 03:29:15.113494 19302 net.cpp:419] relu34 -> bn34 (in-place)
I0102 03:29:15.113570 19302 net.cpp:155] Setting up relu34
I0102 03:29:15.113585 19302 net.cpp:163] Top shape: 64 128 28 28 (6422528)
I0102 03:29:15.113596 19302 layer_factory.hpp:76] Creating layer eltwise5
I0102 03:29:15.113610 19302 net.cpp:110] Creating Layer eltwise5
I0102 03:29:15.113620 19302 net.cpp:477] eltwise5 <- eltwise4_relu4_0_split_1
I0102 03:29:15.113637 19302 net.cpp:477] eltwise5 <- bn34
I0102 03:29:15.113649 19302 net.cpp:433] eltwise5 -> eltwise5
I0102 03:29:15.113663 19302 net.cpp:155] Setting up eltwise5
I0102 03:29:15.113677 19302 net.cpp:163] Top shape: 64 128 28 28 (6422528)
I0102 03:29:15.113687 19302 layer_factory.hpp:76] Creating layer relu5
I0102 03:29:15.113698 19302 net.cpp:110] Creating Layer relu5
I0102 03:29:15.113708 19302 net.cpp:477] relu5 <- eltwise5
I0102 03:29:15.113723 19302 net.cpp:419] relu5 -> eltwise5 (in-place)
I0102 03:29:15.113792 19302 net.cpp:155] Setting up relu5
I0102 03:29:15.113808 19302 net.cpp:163] Top shape: 64 128 28 28 (6422528)
I0102 03:29:15.113818 19302 layer_factory.hpp:76] Creating layer eltwise5_relu5_0_split
I0102 03:29:15.113833 19302 net.cpp:110] Creating Layer eltwise5_relu5_0_split
I0102 03:29:15.113844 19302 net.cpp:477] eltwise5_relu5_0_split <- eltwise5
I0102 03:29:15.113857 19302 net.cpp:433] eltwise5_relu5_0_split -> eltwise5_relu5_0_split_0
I0102 03:29:15.113870 19302 net.cpp:433] eltwise5_relu5_0_split -> eltwise5_relu5_0_split_1
I0102 03:29:15.113884 19302 net.cpp:155] Setting up eltwise5_relu5_0_split
I0102 03:29:15.113895 19302 net.cpp:163] Top shape: 64 128 28 28 (6422528)
I0102 03:29:15.113908 19302 net.cpp:163] Top shape: 64 128 28 28 (6422528)
I0102 03:29:15.113917 19302 layer_factory.hpp:76] Creating layer conv35
I0102 03:29:15.113931 19302 net.cpp:110] Creating Layer conv35
I0102 03:29:15.113941 19302 net.cpp:477] conv35 <- eltwise5_relu5_0_split_0
I0102 03:29:15.113957 19302 net.cpp:433] conv35 -> conv35
I0102 03:29:15.115881 19302 net.cpp:155] Setting up conv35
I0102 03:29:15.115914 19302 net.cpp:163] Top shape: 64 128 28 28 (6422528)
I0102 03:29:15.115928 19302 layer_factory.hpp:76] Creating layer bn35
I0102 03:29:15.115945 19302 net.cpp:110] Creating Layer bn35
I0102 03:29:15.115957 19302 net.cpp:477] bn35 <- conv35
I0102 03:29:15.115970 19302 net.cpp:433] bn35 -> bn35
I0102 03:29:15.116057 19302 net.cpp:155] Setting up bn35
I0102 03:29:15.116073 19302 net.cpp:163] Top shape: 64 128 28 28 (6422528)
I0102 03:29:15.116089 19302 layer_factory.hpp:76] Creating layer relu35
I0102 03:29:15.116102 19302 net.cpp:110] Creating Layer relu35
I0102 03:29:15.116112 19302 net.cpp:477] relu35 <- bn35
I0102 03:29:15.116127 19302 net.cpp:419] relu35 -> bn35 (in-place)
I0102 03:29:15.116212 19302 net.cpp:155] Setting up relu35
I0102 03:29:15.116240 19302 net.cpp:163] Top shape: 64 128 28 28 (6422528)
I0102 03:29:15.116252 19302 layer_factory.hpp:76] Creating layer conv36
I0102 03:29:15.116266 19302 net.cpp:110] Creating Layer conv36
I0102 03:29:15.116277 19302 net.cpp:477] conv36 <- bn35
I0102 03:29:15.116296 19302 net.cpp:433] conv36 -> conv36
I0102 03:29:15.118201 19302 net.cpp:155] Setting up conv36
I0102 03:29:15.118221 19302 net.cpp:163] Top shape: 64 128 28 28 (6422528)
I0102 03:29:15.118235 19302 layer_factory.hpp:76] Creating layer bn36
I0102 03:29:15.118252 19302 net.cpp:110] Creating Layer bn36
I0102 03:29:15.118263 19302 net.cpp:477] bn36 <- conv36
I0102 03:29:15.118278 19302 net.cpp:433] bn36 -> bn36
I0102 03:29:15.118363 19302 net.cpp:155] Setting up bn36
I0102 03:29:15.118381 19302 net.cpp:163] Top shape: 64 128 28 28 (6422528)
I0102 03:29:15.118396 19302 layer_factory.hpp:76] Creating layer relu36
I0102 03:29:15.118408 19302 net.cpp:110] Creating Layer relu36
I0102 03:29:15.118418 19302 net.cpp:477] relu36 <- bn36
I0102 03:29:15.118433 19302 net.cpp:419] relu36 -> bn36 (in-place)
I0102 03:29:15.118613 19302 net.cpp:155] Setting up relu36
I0102 03:29:15.118633 19302 net.cpp:163] Top shape: 64 128 28 28 (6422528)
I0102 03:29:15.118643 19302 layer_factory.hpp:76] Creating layer eltwise6
I0102 03:29:15.118659 19302 net.cpp:110] Creating Layer eltwise6
I0102 03:29:15.118670 19302 net.cpp:477] eltwise6 <- eltwise5_relu5_0_split_1
I0102 03:29:15.118682 19302 net.cpp:477] eltwise6 <- bn36
I0102 03:29:15.118695 19302 net.cpp:433] eltwise6 -> eltwise6
I0102 03:29:15.118710 19302 net.cpp:155] Setting up eltwise6
I0102 03:29:15.118722 19302 net.cpp:163] Top shape: 64 128 28 28 (6422528)
I0102 03:29:15.118733 19302 layer_factory.hpp:76] Creating layer relu6
I0102 03:29:15.118746 19302 net.cpp:110] Creating Layer relu6
I0102 03:29:15.118755 19302 net.cpp:477] relu6 <- eltwise6
I0102 03:29:15.118767 19302 net.cpp:419] relu6 -> eltwise6 (in-place)
I0102 03:29:15.118840 19302 net.cpp:155] Setting up relu6
I0102 03:29:15.118856 19302 net.cpp:163] Top shape: 64 128 28 28 (6422528)
I0102 03:29:15.118867 19302 layer_factory.hpp:76] Creating layer eltwise6_relu6_0_split
I0102 03:29:15.118880 19302 net.cpp:110] Creating Layer eltwise6_relu6_0_split
I0102 03:29:15.118890 19302 net.cpp:477] eltwise6_relu6_0_split <- eltwise6
I0102 03:29:15.118902 19302 net.cpp:433] eltwise6_relu6_0_split -> eltwise6_relu6_0_split_0
I0102 03:29:15.118916 19302 net.cpp:433] eltwise6_relu6_0_split -> eltwise6_relu6_0_split_1
I0102 03:29:15.118930 19302 net.cpp:155] Setting up eltwise6_relu6_0_split
I0102 03:29:15.118942 19302 net.cpp:163] Top shape: 64 128 28 28 (6422528)
I0102 03:29:15.118953 19302 net.cpp:163] Top shape: 64 128 28 28 (6422528)
I0102 03:29:15.120635 19302 layer_factory.hpp:76] Creating layer conv37
I0102 03:29:15.120653 19302 net.cpp:110] Creating Layer conv37
I0102 03:29:15.120666 19302 net.cpp:477] conv37 <- eltwise6_relu6_0_split_0
I0102 03:29:15.120681 19302 net.cpp:433] conv37 -> conv37
I0102 03:29:15.122630 19302 net.cpp:155] Setting up conv37
I0102 03:29:15.122653 19302 net.cpp:163] Top shape: 64 128 28 28 (6422528)
I0102 03:29:15.122668 19302 layer_factory.hpp:76] Creating layer bn37
I0102 03:29:15.122684 19302 net.cpp:110] Creating Layer bn37
I0102 03:29:15.122696 19302 net.cpp:477] bn37 <- conv37
I0102 03:29:15.122712 19302 net.cpp:433] bn37 -> bn37
I0102 03:29:15.122797 19302 net.cpp:155] Setting up bn37
I0102 03:29:15.122814 19302 net.cpp:163] Top shape: 64 128 28 28 (6422528)
I0102 03:29:15.122829 19302 layer_factory.hpp:76] Creating layer relu37
I0102 03:29:15.122845 19302 net.cpp:110] Creating Layer relu37
I0102 03:29:15.122856 19302 net.cpp:477] relu37 <- bn37
I0102 03:29:15.122869 19302 net.cpp:419] relu37 -> bn37 (in-place)
I0102 03:29:15.122946 19302 net.cpp:155] Setting up relu37
I0102 03:29:15.122962 19302 net.cpp:163] Top shape: 64 128 28 28 (6422528)
I0102 03:29:15.122973 19302 layer_factory.hpp:76] Creating layer conv38
I0102 03:29:15.122997 19302 net.cpp:110] Creating Layer conv38
I0102 03:29:15.123023 19302 net.cpp:477] conv38 <- bn37
I0102 03:29:15.123040 19302 net.cpp:433] conv38 -> conv38
I0102 03:29:15.124955 19302 net.cpp:155] Setting up conv38
I0102 03:29:15.124977 19302 net.cpp:163] Top shape: 64 128 28 28 (6422528)
I0102 03:29:15.124992 19302 layer_factory.hpp:76] Creating layer bn38
I0102 03:29:15.125010 19302 net.cpp:110] Creating Layer bn38
I0102 03:29:15.125021 19302 net.cpp:477] bn38 <- conv38
I0102 03:29:15.125037 19302 net.cpp:433] bn38 -> bn38
I0102 03:29:15.125123 19302 net.cpp:155] Setting up bn38
I0102 03:29:15.125139 19302 net.cpp:163] Top shape: 64 128 28 28 (6422528)
I0102 03:29:15.125155 19302 layer_factory.hpp:76] Creating layer relu38
I0102 03:29:15.125169 19302 net.cpp:110] Creating Layer relu38
I0102 03:29:15.125179 19302 net.cpp:477] relu38 <- bn38
I0102 03:29:15.125193 19302 net.cpp:419] relu38 -> bn38 (in-place)
I0102 03:29:15.125270 19302 net.cpp:155] Setting up relu38
I0102 03:29:15.125286 19302 net.cpp:163] Top shape: 64 128 28 28 (6422528)
I0102 03:29:15.125303 19302 layer_factory.hpp:76] Creating layer eltwise7
I0102 03:29:15.125321 19302 net.cpp:110] Creating Layer eltwise7
I0102 03:29:15.125332 19302 net.cpp:477] eltwise7 <- eltwise6_relu6_0_split_1
I0102 03:29:15.125345 19302 net.cpp:477] eltwise7 <- bn38
I0102 03:29:15.125360 19302 net.cpp:433] eltwise7 -> eltwise7
I0102 03:29:15.125376 19302 net.cpp:155] Setting up eltwise7
I0102 03:29:15.125388 19302 net.cpp:163] Top shape: 64 128 28 28 (6422528)
I0102 03:29:15.125399 19302 layer_factory.hpp:76] Creating layer relu7
I0102 03:29:15.125411 19302 net.cpp:110] Creating Layer relu7
I0102 03:29:15.125422 19302 net.cpp:477] relu7 <- eltwise7
I0102 03:29:15.125433 19302 net.cpp:419] relu7 -> eltwise7 (in-place)
I0102 03:29:15.125617 19302 net.cpp:155] Setting up relu7
I0102 03:29:15.125635 19302 net.cpp:163] Top shape: 64 128 28 28 (6422528)
I0102 03:29:15.125646 19302 layer_factory.hpp:76] Creating layer eltwise7_relu7_0_split
I0102 03:29:15.125659 19302 net.cpp:110] Creating Layer eltwise7_relu7_0_split
I0102 03:29:15.125669 19302 net.cpp:477] eltwise7_relu7_0_split <- eltwise7
I0102 03:29:15.125682 19302 net.cpp:433] eltwise7_relu7_0_split -> eltwise7_relu7_0_split_0
I0102 03:29:15.125697 19302 net.cpp:433] eltwise7_relu7_0_split -> eltwise7_relu7_0_split_1
I0102 03:29:15.125711 19302 net.cpp:155] Setting up eltwise7_relu7_0_split
I0102 03:29:15.125723 19302 net.cpp:163] Top shape: 64 128 28 28 (6422528)
I0102 03:29:15.125735 19302 net.cpp:163] Top shape: 64 128 28 28 (6422528)
I0102 03:29:15.125748 19302 layer_factory.hpp:76] Creating layer relu7_p
I0102 03:29:15.125766 19302 net.cpp:110] Creating Layer relu7_p
I0102 03:29:15.125777 19302 net.cpp:477] relu7_p <- eltwise7_relu7_0_split_0
I0102 03:29:15.125793 19302 net.cpp:433] relu7_p -> relu7_p
I0102 03:29:15.126392 19302 net.cpp:155] Setting up relu7_p
I0102 03:29:15.126415 19302 net.cpp:163] Top shape: 64 256 14 14 (3211264)
I0102 03:29:15.126430 19302 layer_factory.hpp:76] Creating layer conv41
I0102 03:29:15.126444 19302 net.cpp:110] Creating Layer conv41
I0102 03:29:15.126456 19302 net.cpp:477] conv41 <- eltwise7_relu7_0_split_1
I0102 03:29:15.126471 19302 net.cpp:433] conv41 -> conv41
I0102 03:29:15.129489 19302 net.cpp:155] Setting up conv41
I0102 03:29:15.129513 19302 net.cpp:163] Top shape: 64 256 14 14 (3211264)
I0102 03:29:15.129528 19302 layer_factory.hpp:76] Creating layer bn41
I0102 03:29:15.129544 19302 net.cpp:110] Creating Layer bn41
I0102 03:29:15.129554 19302 net.cpp:477] bn41 <- conv41
I0102 03:29:15.129573 19302 net.cpp:433] bn41 -> bn41
I0102 03:29:15.129675 19302 net.cpp:155] Setting up bn41
I0102 03:29:15.129691 19302 net.cpp:163] Top shape: 64 256 14 14 (3211264)
I0102 03:29:15.129708 19302 layer_factory.hpp:76] Creating layer relu41
I0102 03:29:15.129720 19302 net.cpp:110] Creating Layer relu41
I0102 03:29:15.129731 19302 net.cpp:477] relu41 <- bn41
I0102 03:29:15.129745 19302 net.cpp:419] relu41 -> bn41 (in-place)
I0102 03:29:15.129823 19302 net.cpp:155] Setting up relu41
I0102 03:29:15.129838 19302 net.cpp:163] Top shape: 64 256 14 14 (3211264)
I0102 03:29:15.129863 19302 layer_factory.hpp:76] Creating layer conv42
I0102 03:29:15.129879 19302 net.cpp:110] Creating Layer conv42
I0102 03:29:15.129890 19302 net.cpp:477] conv42 <- bn41
I0102 03:29:15.129904 19302 net.cpp:433] conv42 -> conv42
I0102 03:29:15.135502 19302 net.cpp:155] Setting up conv42
I0102 03:29:15.135524 19302 net.cpp:163] Top shape: 64 256 14 14 (3211264)
I0102 03:29:15.135540 19302 layer_factory.hpp:76] Creating layer bn42
I0102 03:29:15.135556 19302 net.cpp:110] Creating Layer bn42
I0102 03:29:15.135567 19302 net.cpp:477] bn42 <- conv42
I0102 03:29:15.135581 19302 net.cpp:433] bn42 -> bn42
I0102 03:29:15.135670 19302 net.cpp:155] Setting up bn42
I0102 03:29:15.135687 19302 net.cpp:163] Top shape: 64 256 14 14 (3211264)
I0102 03:29:15.135702 19302 layer_factory.hpp:76] Creating layer relu42
I0102 03:29:15.135715 19302 net.cpp:110] Creating Layer relu42
I0102 03:29:15.135725 19302 net.cpp:477] relu42 <- bn42
I0102 03:29:15.135740 19302 net.cpp:419] relu42 -> bn42 (in-place)
I0102 03:29:15.135817 19302 net.cpp:155] Setting up relu42
I0102 03:29:15.135831 19302 net.cpp:163] Top shape: 64 256 14 14 (3211264)
I0102 03:29:15.135843 19302 layer_factory.hpp:76] Creating layer eltwise8
I0102 03:29:15.135859 19302 net.cpp:110] Creating Layer eltwise8
I0102 03:29:15.135869 19302 net.cpp:477] eltwise8 <- relu7_p
I0102 03:29:15.135881 19302 net.cpp:477] eltwise8 <- bn42
I0102 03:29:15.135893 19302 net.cpp:433] eltwise8 -> eltwise8
I0102 03:29:15.135908 19302 net.cpp:155] Setting up eltwise8
I0102 03:29:15.135921 19302 net.cpp:163] Top shape: 64 256 14 14 (3211264)
I0102 03:29:15.135931 19302 layer_factory.hpp:76] Creating layer relu8
I0102 03:29:15.135942 19302 net.cpp:110] Creating Layer relu8
I0102 03:29:15.135952 19302 net.cpp:477] relu8 <- eltwise8
I0102 03:29:15.135964 19302 net.cpp:419] relu8 -> eltwise8 (in-place)
I0102 03:29:15.136035 19302 net.cpp:155] Setting up relu8
I0102 03:29:15.136052 19302 net.cpp:163] Top shape: 64 256 14 14 (3211264)
I0102 03:29:15.136064 19302 layer_factory.hpp:76] Creating layer eltwise8_relu8_0_split
I0102 03:29:15.136075 19302 net.cpp:110] Creating Layer eltwise8_relu8_0_split
I0102 03:29:15.136085 19302 net.cpp:477] eltwise8_relu8_0_split <- eltwise8
I0102 03:29:15.136111 19302 net.cpp:433] eltwise8_relu8_0_split -> eltwise8_relu8_0_split_0
I0102 03:29:15.136126 19302 net.cpp:433] eltwise8_relu8_0_split -> eltwise8_relu8_0_split_1
I0102 03:29:15.136158 19302 net.cpp:155] Setting up eltwise8_relu8_0_split
I0102 03:29:15.136183 19302 net.cpp:163] Top shape: 64 256 14 14 (3211264)
I0102 03:29:15.136198 19302 net.cpp:163] Top shape: 64 256 14 14 (3211264)
I0102 03:29:15.136209 19302 layer_factory.hpp:76] Creating layer conv43
I0102 03:29:15.136224 19302 net.cpp:110] Creating Layer conv43
I0102 03:29:15.136235 19302 net.cpp:477] conv43 <- eltwise8_relu8_0_split_0
I0102 03:29:15.136250 19302 net.cpp:433] conv43 -> conv43
I0102 03:29:15.141906 19302 net.cpp:155] Setting up conv43
I0102 03:29:15.141927 19302 net.cpp:163] Top shape: 64 256 14 14 (3211264)
I0102 03:29:15.141942 19302 layer_factory.hpp:76] Creating layer bn43
I0102 03:29:15.141959 19302 net.cpp:110] Creating Layer bn43
I0102 03:29:15.141970 19302 net.cpp:477] bn43 <- conv43
I0102 03:29:15.141986 19302 net.cpp:433] bn43 -> bn43
I0102 03:29:15.142086 19302 net.cpp:155] Setting up bn43
I0102 03:29:15.142102 19302 net.cpp:163] Top shape: 64 256 14 14 (3211264)
I0102 03:29:15.142117 19302 layer_factory.hpp:76] Creating layer relu43
I0102 03:29:15.142130 19302 net.cpp:110] Creating Layer relu43
I0102 03:29:15.142140 19302 net.cpp:477] relu43 <- bn43
I0102 03:29:15.142154 19302 net.cpp:419] relu43 -> bn43 (in-place)
I0102 03:29:15.142325 19302 net.cpp:155] Setting up relu43
I0102 03:29:15.142344 19302 net.cpp:163] Top shape: 64 256 14 14 (3211264)
I0102 03:29:15.142355 19302 layer_factory.hpp:76] Creating layer conv44
I0102 03:29:15.142369 19302 net.cpp:110] Creating Layer conv44
I0102 03:29:15.142379 19302 net.cpp:477] conv44 <- bn43
I0102 03:29:15.142395 19302 net.cpp:433] conv44 -> conv44
I0102 03:29:15.148042 19302 net.cpp:155] Setting up conv44
I0102 03:29:15.148075 19302 net.cpp:163] Top shape: 64 256 14 14 (3211264)
I0102 03:29:15.148089 19302 layer_factory.hpp:76] Creating layer bn44
I0102 03:29:15.148108 19302 net.cpp:110] Creating Layer bn44
I0102 03:29:15.148118 19302 net.cpp:477] bn44 <- conv44
I0102 03:29:15.148138 19302 net.cpp:433] bn44 -> bn44
I0102 03:29:15.148227 19302 net.cpp:155] Setting up bn44
I0102 03:29:15.148243 19302 net.cpp:163] Top shape: 64 256 14 14 (3211264)
I0102 03:29:15.148259 19302 layer_factory.hpp:76] Creating layer relu44
I0102 03:29:15.148272 19302 net.cpp:110] Creating Layer relu44
I0102 03:29:15.148283 19302 net.cpp:477] relu44 <- bn44
I0102 03:29:15.148294 19302 net.cpp:419] relu44 -> bn44 (in-place)
I0102 03:29:15.148370 19302 net.cpp:155] Setting up relu44
I0102 03:29:15.148386 19302 net.cpp:163] Top shape: 64 256 14 14 (3211264)
I0102 03:29:15.148396 19302 layer_factory.hpp:76] Creating layer eltwise9
I0102 03:29:15.148409 19302 net.cpp:110] Creating Layer eltwise9
I0102 03:29:15.148419 19302 net.cpp:477] eltwise9 <- eltwise8_relu8_0_split_1
I0102 03:29:15.148430 19302 net.cpp:477] eltwise9 <- bn44
I0102 03:29:15.148442 19302 net.cpp:433] eltwise9 -> eltwise9
I0102 03:29:15.148457 19302 net.cpp:155] Setting up eltwise9
I0102 03:29:15.148468 19302 net.cpp:163] Top shape: 64 256 14 14 (3211264)
I0102 03:29:15.148478 19302 layer_factory.hpp:76] Creating layer relu9
I0102 03:29:15.148490 19302 net.cpp:110] Creating Layer relu9
I0102 03:29:15.148499 19302 net.cpp:477] relu9 <- eltwise9
I0102 03:29:15.148514 19302 net.cpp:419] relu9 -> eltwise9 (in-place)
I0102 03:29:15.148583 19302 net.cpp:155] Setting up relu9
I0102 03:29:15.148597 19302 net.cpp:163] Top shape: 64 256 14 14 (3211264)
I0102 03:29:15.148608 19302 layer_factory.hpp:76] Creating layer eltwise9_relu9_0_split
I0102 03:29:15.148622 19302 net.cpp:110] Creating Layer eltwise9_relu9_0_split
I0102 03:29:15.148633 19302 net.cpp:477] eltwise9_relu9_0_split <- eltwise9
I0102 03:29:15.148644 19302 net.cpp:433] eltwise9_relu9_0_split -> eltwise9_relu9_0_split_0
I0102 03:29:15.148658 19302 net.cpp:433] eltwise9_relu9_0_split -> eltwise9_relu9_0_split_1
I0102 03:29:15.148671 19302 net.cpp:155] Setting up eltwise9_relu9_0_split
I0102 03:29:15.148685 19302 net.cpp:163] Top shape: 64 256 14 14 (3211264)
I0102 03:29:15.148697 19302 net.cpp:163] Top shape: 64 256 14 14 (3211264)
I0102 03:29:15.148706 19302 layer_factory.hpp:76] Creating layer conv45
I0102 03:29:15.148721 19302 net.cpp:110] Creating Layer conv45
I0102 03:29:15.148731 19302 net.cpp:477] conv45 <- eltwise9_relu9_0_split_0
I0102 03:29:15.148747 19302 net.cpp:433] conv45 -> conv45
I0102 03:29:15.154338 19302 net.cpp:155] Setting up conv45
I0102 03:29:15.154359 19302 net.cpp:163] Top shape: 64 256 14 14 (3211264)
I0102 03:29:15.154373 19302 layer_factory.hpp:76] Creating layer bn45
I0102 03:29:15.154391 19302 net.cpp:110] Creating Layer bn45
I0102 03:29:15.154402 19302 net.cpp:477] bn45 <- conv45
I0102 03:29:15.154417 19302 net.cpp:433] bn45 -> bn45
I0102 03:29:15.154505 19302 net.cpp:155] Setting up bn45
I0102 03:29:15.154521 19302 net.cpp:163] Top shape: 64 256 14 14 (3211264)
I0102 03:29:15.154538 19302 layer_factory.hpp:76] Creating layer relu45
I0102 03:29:15.154553 19302 net.cpp:110] Creating Layer relu45
I0102 03:29:15.154564 19302 net.cpp:477] relu45 <- bn45
I0102 03:29:15.154577 19302 net.cpp:419] relu45 -> bn45 (in-place)
I0102 03:29:15.154755 19302 net.cpp:155] Setting up relu45
I0102 03:29:15.154774 19302 net.cpp:163] Top shape: 64 256 14 14 (3211264)
I0102 03:29:15.154785 19302 layer_factory.hpp:76] Creating layer conv46
I0102 03:29:15.154799 19302 net.cpp:110] Creating Layer conv46
I0102 03:29:15.154809 19302 net.cpp:477] conv46 <- bn45
I0102 03:29:15.154824 19302 net.cpp:433] conv46 -> conv46
I0102 03:29:15.160537 19302 net.cpp:155] Setting up conv46
I0102 03:29:15.160558 19302 net.cpp:163] Top shape: 64 256 14 14 (3211264)
I0102 03:29:15.160573 19302 layer_factory.hpp:76] Creating layer bn46
I0102 03:29:15.160593 19302 net.cpp:110] Creating Layer bn46
I0102 03:29:15.160604 19302 net.cpp:477] bn46 <- conv46
I0102 03:29:15.160640 19302 net.cpp:433] bn46 -> bn46
I0102 03:29:15.160734 19302 net.cpp:155] Setting up bn46
I0102 03:29:15.160753 19302 net.cpp:163] Top shape: 64 256 14 14 (3211264)
I0102 03:29:15.160795 19302 layer_factory.hpp:76] Creating layer relu46
I0102 03:29:15.160811 19302 net.cpp:110] Creating Layer relu46
I0102 03:29:15.160822 19302 net.cpp:477] relu46 <- bn46
I0102 03:29:15.160837 19302 net.cpp:419] relu46 -> bn46 (in-place)
I0102 03:29:15.160912 19302 net.cpp:155] Setting up relu46
I0102 03:29:15.160931 19302 net.cpp:163] Top shape: 64 256 14 14 (3211264)
I0102 03:29:15.160943 19302 layer_factory.hpp:76] Creating layer eltwise10
I0102 03:29:15.160959 19302 net.cpp:110] Creating Layer eltwise10
I0102 03:29:15.160970 19302 net.cpp:477] eltwise10 <- eltwise9_relu9_0_split_1
I0102 03:29:15.160982 19302 net.cpp:477] eltwise10 <- bn46
I0102 03:29:15.160995 19302 net.cpp:433] eltwise10 -> eltwise10
I0102 03:29:15.161010 19302 net.cpp:155] Setting up eltwise10
I0102 03:29:15.161022 19302 net.cpp:163] Top shape: 64 256 14 14 (3211264)
I0102 03:29:15.161033 19302 layer_factory.hpp:76] Creating layer relu10
I0102 03:29:15.161048 19302 net.cpp:110] Creating Layer relu10
I0102 03:29:15.161059 19302 net.cpp:477] relu10 <- eltwise10
I0102 03:29:15.161072 19302 net.cpp:419] relu10 -> eltwise10 (in-place)
I0102 03:29:15.161145 19302 net.cpp:155] Setting up relu10
I0102 03:29:15.161161 19302 net.cpp:163] Top shape: 64 256 14 14 (3211264)
I0102 03:29:15.161172 19302 layer_factory.hpp:76] Creating layer eltwise10_relu10_0_split
I0102 03:29:15.161186 19302 net.cpp:110] Creating Layer eltwise10_relu10_0_split
I0102 03:29:15.161197 19302 net.cpp:477] eltwise10_relu10_0_split <- eltwise10
I0102 03:29:15.161211 19302 net.cpp:433] eltwise10_relu10_0_split -> eltwise10_relu10_0_split_0
I0102 03:29:15.161224 19302 net.cpp:433] eltwise10_relu10_0_split -> eltwise10_relu10_0_split_1
I0102 03:29:15.161239 19302 net.cpp:155] Setting up eltwise10_relu10_0_split
I0102 03:29:15.161252 19302 net.cpp:163] Top shape: 64 256 14 14 (3211264)
I0102 03:29:15.161263 19302 net.cpp:163] Top shape: 64 256 14 14 (3211264)
I0102 03:29:15.161273 19302 layer_factory.hpp:76] Creating layer conv47
I0102 03:29:15.161288 19302 net.cpp:110] Creating Layer conv47
I0102 03:29:15.161305 19302 net.cpp:477] conv47 <- eltwise10_relu10_0_split_0
I0102 03:29:15.161324 19302 net.cpp:433] conv47 -> conv47
I0102 03:29:15.167099 19302 net.cpp:155] Setting up conv47
I0102 03:29:15.167126 19302 net.cpp:163] Top shape: 64 256 14 14 (3211264)
I0102 03:29:15.167145 19302 layer_factory.hpp:76] Creating layer bn47
I0102 03:29:15.167165 19302 net.cpp:110] Creating Layer bn47
I0102 03:29:15.167176 19302 net.cpp:477] bn47 <- conv47
I0102 03:29:15.167196 19302 net.cpp:433] bn47 -> bn47
I0102 03:29:15.167290 19302 net.cpp:155] Setting up bn47
I0102 03:29:15.167312 19302 net.cpp:163] Top shape: 64 256 14 14 (3211264)
I0102 03:29:15.167337 19302 layer_factory.hpp:76] Creating layer relu47
I0102 03:29:15.167352 19302 net.cpp:110] Creating Layer relu47
I0102 03:29:15.167363 19302 net.cpp:477] relu47 <- bn47
I0102 03:29:15.167376 19302 net.cpp:419] relu47 -> bn47 (in-place)
I0102 03:29:15.167457 19302 net.cpp:155] Setting up relu47
I0102 03:29:15.167474 19302 net.cpp:163] Top shape: 64 256 14 14 (3211264)
I0102 03:29:15.167485 19302 layer_factory.hpp:76] Creating layer conv48
I0102 03:29:15.167500 19302 net.cpp:110] Creating Layer conv48
I0102 03:29:15.167510 19302 net.cpp:477] conv48 <- bn47
I0102 03:29:15.167526 19302 net.cpp:433] conv48 -> conv48
I0102 03:29:15.173177 19302 net.cpp:155] Setting up conv48
I0102 03:29:15.173198 19302 net.cpp:163] Top shape: 64 256 14 14 (3211264)
I0102 03:29:15.173213 19302 layer_factory.hpp:76] Creating layer bn48
I0102 03:29:15.173228 19302 net.cpp:110] Creating Layer bn48
I0102 03:29:15.173239 19302 net.cpp:477] bn48 <- conv48
I0102 03:29:15.173254 19302 net.cpp:433] bn48 -> bn48
I0102 03:29:15.173359 19302 net.cpp:155] Setting up bn48
I0102 03:29:15.173377 19302 net.cpp:163] Top shape: 64 256 14 14 (3211264)
I0102 03:29:15.173409 19302 layer_factory.hpp:76] Creating layer relu48
I0102 03:29:15.173434 19302 net.cpp:110] Creating Layer relu48
I0102 03:29:15.173445 19302 net.cpp:477] relu48 <- bn48
I0102 03:29:15.173460 19302 net.cpp:419] relu48 -> bn48 (in-place)
I0102 03:29:15.173660 19302 net.cpp:155] Setting up relu48
I0102 03:29:15.173679 19302 net.cpp:163] Top shape: 64 256 14 14 (3211264)
I0102 03:29:15.173691 19302 layer_factory.hpp:76] Creating layer eltwise11
I0102 03:29:15.173705 19302 net.cpp:110] Creating Layer eltwise11
I0102 03:29:15.173717 19302 net.cpp:477] eltwise11 <- eltwise10_relu10_0_split_1
I0102 03:29:15.173727 19302 net.cpp:477] eltwise11 <- bn48
I0102 03:29:15.173743 19302 net.cpp:433] eltwise11 -> eltwise11
I0102 03:29:15.173759 19302 net.cpp:155] Setting up eltwise11
I0102 03:29:15.173771 19302 net.cpp:163] Top shape: 64 256 14 14 (3211264)
I0102 03:29:15.173782 19302 layer_factory.hpp:76] Creating layer relu11
I0102 03:29:15.173796 19302 net.cpp:110] Creating Layer relu11
I0102 03:29:15.173807 19302 net.cpp:477] relu11 <- eltwise11
I0102 03:29:15.173820 19302 net.cpp:419] relu11 -> eltwise11 (in-place)
I0102 03:29:15.173895 19302 net.cpp:155] Setting up relu11
I0102 03:29:15.173910 19302 net.cpp:163] Top shape: 64 256 14 14 (3211264)
I0102 03:29:15.173921 19302 layer_factory.hpp:76] Creating layer eltwise11_relu11_0_split
I0102 03:29:15.173938 19302 net.cpp:110] Creating Layer eltwise11_relu11_0_split
I0102 03:29:15.173950 19302 net.cpp:477] eltwise11_relu11_0_split <- eltwise11
I0102 03:29:15.173965 19302 net.cpp:433] eltwise11_relu11_0_split -> eltwise11_relu11_0_split_0
I0102 03:29:15.173981 19302 net.cpp:433] eltwise11_relu11_0_split -> eltwise11_relu11_0_split_1
I0102 03:29:15.173995 19302 net.cpp:155] Setting up eltwise11_relu11_0_split
I0102 03:29:15.174007 19302 net.cpp:163] Top shape: 64 256 14 14 (3211264)
I0102 03:29:15.174018 19302 net.cpp:163] Top shape: 64 256 14 14 (3211264)
I0102 03:29:15.174028 19302 layer_factory.hpp:76] Creating layer conv49
I0102 03:29:15.174042 19302 net.cpp:110] Creating Layer conv49
I0102 03:29:15.174053 19302 net.cpp:477] conv49 <- eltwise11_relu11_0_split_0
I0102 03:29:15.174068 19302 net.cpp:433] conv49 -> conv49
I0102 03:29:15.179695 19302 net.cpp:155] Setting up conv49
I0102 03:29:15.179718 19302 net.cpp:163] Top shape: 64 256 14 14 (3211264)
I0102 03:29:15.179738 19302 layer_factory.hpp:76] Creating layer bn49
I0102 03:29:15.179754 19302 net.cpp:110] Creating Layer bn49
I0102 03:29:15.179764 19302 net.cpp:477] bn49 <- conv49
I0102 03:29:15.179780 19302 net.cpp:433] bn49 -> bn49
I0102 03:29:15.179872 19302 net.cpp:155] Setting up bn49
I0102 03:29:15.179889 19302 net.cpp:163] Top shape: 64 256 14 14 (3211264)
I0102 03:29:15.179904 19302 layer_factory.hpp:76] Creating layer relu49
I0102 03:29:15.179918 19302 net.cpp:110] Creating Layer relu49
I0102 03:29:15.179927 19302 net.cpp:477] relu49 <- bn49
I0102 03:29:15.179939 19302 net.cpp:419] relu49 -> bn49 (in-place)
I0102 03:29:15.180016 19302 net.cpp:155] Setting up relu49
I0102 03:29:15.180030 19302 net.cpp:163] Top shape: 64 256 14 14 (3211264)
I0102 03:29:15.180042 19302 layer_factory.hpp:76] Creating layer conv410
I0102 03:29:15.180055 19302 net.cpp:110] Creating Layer conv410
I0102 03:29:15.180065 19302 net.cpp:477] conv410 <- bn49
I0102 03:29:15.180081 19302 net.cpp:433] conv410 -> conv410
I0102 03:29:15.185714 19302 net.cpp:155] Setting up conv410
I0102 03:29:15.185734 19302 net.cpp:163] Top shape: 64 256 14 14 (3211264)
I0102 03:29:15.185747 19302 layer_factory.hpp:76] Creating layer bn410
I0102 03:29:15.185762 19302 net.cpp:110] Creating Layer bn410
I0102 03:29:15.185772 19302 net.cpp:477] bn410 <- conv410
I0102 03:29:15.185788 19302 net.cpp:433] bn410 -> bn410
I0102 03:29:15.185881 19302 net.cpp:155] Setting up bn410
I0102 03:29:15.185899 19302 net.cpp:163] Top shape: 64 256 14 14 (3211264)
I0102 03:29:15.185914 19302 layer_factory.hpp:76] Creating layer relu410
I0102 03:29:15.185925 19302 net.cpp:110] Creating Layer relu410
I0102 03:29:15.185936 19302 net.cpp:477] relu410 <- bn410
I0102 03:29:15.185950 19302 net.cpp:419] relu410 -> bn410 (in-place)
I0102 03:29:15.186038 19302 net.cpp:155] Setting up relu410
I0102 03:29:15.186053 19302 net.cpp:163] Top shape: 64 256 14 14 (3211264)
I0102 03:29:15.186064 19302 layer_factory.hpp:76] Creating layer eltwise12
I0102 03:29:15.186076 19302 net.cpp:110] Creating Layer eltwise12
I0102 03:29:15.186086 19302 net.cpp:477] eltwise12 <- eltwise11_relu11_0_split_1
I0102 03:29:15.186099 19302 net.cpp:477] eltwise12 <- bn410
I0102 03:29:15.186112 19302 net.cpp:433] eltwise12 -> eltwise12
I0102 03:29:15.186127 19302 net.cpp:155] Setting up eltwise12
I0102 03:29:15.186139 19302 net.cpp:163] Top shape: 64 256 14 14 (3211264)
I0102 03:29:15.186149 19302 layer_factory.hpp:76] Creating layer relu12
I0102 03:29:15.186162 19302 net.cpp:110] Creating Layer relu12
I0102 03:29:15.186172 19302 net.cpp:477] relu12 <- eltwise12
I0102 03:29:15.186183 19302 net.cpp:419] relu12 -> eltwise12 (in-place)
I0102 03:29:15.186360 19302 net.cpp:155] Setting up relu12
I0102 03:29:15.186378 19302 net.cpp:163] Top shape: 64 256 14 14 (3211264)
I0102 03:29:15.186390 19302 layer_factory.hpp:76] Creating layer eltwise12_relu12_0_split
I0102 03:29:15.186403 19302 net.cpp:110] Creating Layer eltwise12_relu12_0_split
I0102 03:29:15.186413 19302 net.cpp:477] eltwise12_relu12_0_split <- eltwise12
I0102 03:29:15.186425 19302 net.cpp:433] eltwise12_relu12_0_split -> eltwise12_relu12_0_split_0
I0102 03:29:15.186439 19302 net.cpp:433] eltwise12_relu12_0_split -> eltwise12_relu12_0_split_1
I0102 03:29:15.186453 19302 net.cpp:433] eltwise12_relu12_0_split -> eltwise12_relu12_0_split_2
I0102 03:29:15.186480 19302 net.cpp:155] Setting up eltwise12_relu12_0_split
I0102 03:29:15.186492 19302 net.cpp:163] Top shape: 64 256 14 14 (3211264)
I0102 03:29:15.186503 19302 net.cpp:163] Top shape: 64 256 14 14 (3211264)
I0102 03:29:15.186519 19302 net.cpp:163] Top shape: 64 256 14 14 (3211264)
I0102 03:29:15.186529 19302 layer_factory.hpp:76] Creating layer conv411
I0102 03:29:15.186547 19302 net.cpp:110] Creating Layer conv411
I0102 03:29:15.186558 19302 net.cpp:477] conv411 <- eltwise12_relu12_0_split_0
I0102 03:29:15.186573 19302 net.cpp:433] conv411 -> conv411
I0102 03:29:15.192240 19302 net.cpp:155] Setting up conv411
I0102 03:29:15.192263 19302 net.cpp:163] Top shape: 64 256 14 14 (3211264)
I0102 03:29:15.192278 19302 layer_factory.hpp:76] Creating layer bn411
I0102 03:29:15.192296 19302 net.cpp:110] Creating Layer bn411
I0102 03:29:15.192307 19302 net.cpp:477] bn411 <- conv411
I0102 03:29:15.192325 19302 net.cpp:433] bn411 -> bn411
I0102 03:29:15.192420 19302 net.cpp:155] Setting up bn411
I0102 03:29:15.192437 19302 net.cpp:163] Top shape: 64 256 14 14 (3211264)
I0102 03:29:15.192453 19302 layer_factory.hpp:76] Creating layer relu411
I0102 03:29:15.192469 19302 net.cpp:110] Creating Layer relu411
I0102 03:29:15.192481 19302 net.cpp:477] relu411 <- bn411
I0102 03:29:15.192493 19302 net.cpp:419] relu411 -> bn411 (in-place)
I0102 03:29:15.192569 19302 net.cpp:155] Setting up relu411
I0102 03:29:15.192585 19302 net.cpp:163] Top shape: 64 256 14 14 (3211264)
I0102 03:29:15.192605 19302 layer_factory.hpp:76] Creating layer conv412
I0102 03:29:15.192623 19302 net.cpp:110] Creating Layer conv412
I0102 03:29:15.192646 19302 net.cpp:477] conv412 <- bn411
I0102 03:29:15.192659 19302 net.cpp:433] conv412 -> conv412
I0102 03:29:15.198431 19302 net.cpp:155] Setting up conv412
I0102 03:29:15.198456 19302 net.cpp:163] Top shape: 64 256 14 14 (3211264)
I0102 03:29:15.198470 19302 layer_factory.hpp:76] Creating layer bn412
I0102 03:29:15.198488 19302 net.cpp:110] Creating Layer bn412
I0102 03:29:15.198499 19302 net.cpp:477] bn412 <- conv412
I0102 03:29:15.198516 19302 net.cpp:433] bn412 -> bn412
I0102 03:29:15.198612 19302 net.cpp:155] Setting up bn412
I0102 03:29:15.198628 19302 net.cpp:163] Top shape: 64 256 14 14 (3211264)
I0102 03:29:15.198644 19302 layer_factory.hpp:76] Creating layer relu412
I0102 03:29:15.198659 19302 net.cpp:110] Creating Layer relu412
I0102 03:29:15.198671 19302 net.cpp:477] relu412 <- bn412
I0102 03:29:15.198685 19302 net.cpp:419] relu412 -> bn412 (in-place)
I0102 03:29:15.198776 19302 net.cpp:155] Setting up relu412
I0102 03:29:15.198792 19302 net.cpp:163] Top shape: 64 256 14 14 (3211264)
I0102 03:29:15.198803 19302 layer_factory.hpp:76] Creating layer eltwise13
I0102 03:29:15.198820 19302 net.cpp:110] Creating Layer eltwise13
I0102 03:29:15.198832 19302 net.cpp:477] eltwise13 <- eltwise12_relu12_0_split_1
I0102 03:29:15.198843 19302 net.cpp:477] eltwise13 <- bn412
I0102 03:29:15.198855 19302 net.cpp:433] eltwise13 -> eltwise13
I0102 03:29:15.198873 19302 net.cpp:155] Setting up eltwise13
I0102 03:29:15.198884 19302 net.cpp:163] Top shape: 64 256 14 14 (3211264)
I0102 03:29:15.198894 19302 layer_factory.hpp:76] Creating layer relu13
I0102 03:29:15.198906 19302 net.cpp:110] Creating Layer relu13
I0102 03:29:15.198916 19302 net.cpp:477] relu13 <- eltwise13
I0102 03:29:15.198927 19302 net.cpp:419] relu13 -> eltwise13 (in-place)
I0102 03:29:15.199000 19302 net.cpp:155] Setting up relu13
I0102 03:29:15.199015 19302 net.cpp:163] Top shape: 64 256 14 14 (3211264)
I0102 03:29:15.199026 19302 layer_factory.hpp:76] Creating layer relu13_p
I0102 03:29:15.199040 19302 net.cpp:110] Creating Layer relu13_p
I0102 03:29:15.199050 19302 net.cpp:477] relu13_p <- eltwise12_relu12_0_split_2
I0102 03:29:15.199066 19302 net.cpp:433] relu13_p -> relu13_p
I0102 03:29:15.200830 19302 net.cpp:155] Setting up relu13_p
I0102 03:29:15.200851 19302 net.cpp:163] Top shape: 64 512 7 7 (1605632)
I0102 03:29:15.200865 19302 layer_factory.hpp:76] Creating layer conv51
I0102 03:29:15.200881 19302 net.cpp:110] Creating Layer conv51
I0102 03:29:15.200891 19302 net.cpp:477] conv51 <- eltwise13
I0102 03:29:15.200908 19302 net.cpp:433] conv51 -> conv51
I0102 03:29:15.211709 19302 net.cpp:155] Setting up conv51
I0102 03:29:15.211732 19302 net.cpp:163] Top shape: 64 512 7 7 (1605632)
I0102 03:29:15.211746 19302 layer_factory.hpp:76] Creating layer bn51
I0102 03:29:15.211761 19302 net.cpp:110] Creating Layer bn51
I0102 03:29:15.211772 19302 net.cpp:477] bn51 <- conv51
I0102 03:29:15.211789 19302 net.cpp:433] bn51 -> bn51
I0102 03:29:15.211891 19302 net.cpp:155] Setting up bn51
I0102 03:29:15.211908 19302 net.cpp:163] Top shape: 64 512 7 7 (1605632)
I0102 03:29:15.211925 19302 layer_factory.hpp:76] Creating layer relu51
I0102 03:29:15.211937 19302 net.cpp:110] Creating Layer relu51
I0102 03:29:15.211947 19302 net.cpp:477] relu51 <- bn51
I0102 03:29:15.211962 19302 net.cpp:419] relu51 -> bn51 (in-place)
I0102 03:29:15.212141 19302 net.cpp:155] Setting up relu51
I0102 03:29:15.212162 19302 net.cpp:163] Top shape: 64 512 7 7 (1605632)
I0102 03:29:15.212172 19302 layer_factory.hpp:76] Creating layer conv52
I0102 03:29:15.212205 19302 net.cpp:110] Creating Layer conv52
I0102 03:29:15.212218 19302 net.cpp:477] conv52 <- bn51
I0102 03:29:15.212231 19302 net.cpp:433] conv52 -> conv52
I0102 03:29:15.233716 19302 net.cpp:155] Setting up conv52
I0102 03:29:15.233783 19302 net.cpp:163] Top shape: 64 512 7 7 (1605632)
I0102 03:29:15.233805 19302 layer_factory.hpp:76] Creating layer bn52
I0102 03:29:15.233875 19302 net.cpp:110] Creating Layer bn52
I0102 03:29:15.233891 19302 net.cpp:477] bn52 <- conv52
I0102 03:29:15.233916 19302 net.cpp:433] bn52 -> bn52
I0102 03:29:15.234028 19302 net.cpp:155] Setting up bn52
I0102 03:29:15.234053 19302 net.cpp:163] Top shape: 64 512 7 7 (1605632)
I0102 03:29:15.234071 19302 layer_factory.hpp:76] Creating layer relu52
I0102 03:29:15.234091 19302 net.cpp:110] Creating Layer relu52
I0102 03:29:15.234104 19302 net.cpp:477] relu52 <- bn52
I0102 03:29:15.234118 19302 net.cpp:419] relu52 -> bn52 (in-place)
I0102 03:29:15.234201 19302 net.cpp:155] Setting up relu52
I0102 03:29:15.234223 19302 net.cpp:163] Top shape: 64 512 7 7 (1605632)
I0102 03:29:15.234236 19302 layer_factory.hpp:76] Creating layer eltwise14
I0102 03:29:15.234253 19302 net.cpp:110] Creating Layer eltwise14
I0102 03:29:15.234266 19302 net.cpp:477] eltwise14 <- relu13_p
I0102 03:29:15.234279 19302 net.cpp:477] eltwise14 <- bn52
I0102 03:29:15.234297 19302 net.cpp:433] eltwise14 -> eltwise14
I0102 03:29:15.234343 19302 net.cpp:155] Setting up eltwise14
I0102 03:29:15.234359 19302 net.cpp:163] Top shape: 64 512 7 7 (1605632)
I0102 03:29:15.234371 19302 layer_factory.hpp:76] Creating layer relu14
I0102 03:29:15.234385 19302 net.cpp:110] Creating Layer relu14
I0102 03:29:15.234398 19302 net.cpp:477] relu14 <- eltwise14
I0102 03:29:15.234411 19302 net.cpp:419] relu14 -> eltwise14 (in-place)
I0102 03:29:15.234488 19302 net.cpp:155] Setting up relu14
I0102 03:29:15.234505 19302 net.cpp:163] Top shape: 64 512 7 7 (1605632)
I0102 03:29:15.234520 19302 layer_factory.hpp:76] Creating layer eltwise14_relu14_0_split
I0102 03:29:15.234535 19302 net.cpp:110] Creating Layer eltwise14_relu14_0_split
I0102 03:29:15.234547 19302 net.cpp:477] eltwise14_relu14_0_split <- eltwise14
I0102 03:29:15.234561 19302 net.cpp:433] eltwise14_relu14_0_split -> eltwise14_relu14_0_split_0
I0102 03:29:15.234577 19302 net.cpp:433] eltwise14_relu14_0_split -> eltwise14_relu14_0_split_1
I0102 03:29:15.234593 19302 net.cpp:155] Setting up eltwise14_relu14_0_split
I0102 03:29:15.234608 19302 net.cpp:163] Top shape: 64 512 7 7 (1605632)
I0102 03:29:15.234622 19302 net.cpp:163] Top shape: 64 512 7 7 (1605632)
I0102 03:29:15.234634 19302 layer_factory.hpp:76] Creating layer conv53
I0102 03:29:15.234654 19302 net.cpp:110] Creating Layer conv53
I0102 03:29:15.234668 19302 net.cpp:477] conv53 <- eltwise14_relu14_0_split_0
I0102 03:29:15.234684 19302 net.cpp:433] conv53 -> conv53
I0102 03:29:15.256335 19302 net.cpp:155] Setting up conv53
I0102 03:29:15.256377 19302 net.cpp:163] Top shape: 64 512 7 7 (1605632)
I0102 03:29:15.256397 19302 layer_factory.hpp:76] Creating layer bn53
I0102 03:29:15.256420 19302 net.cpp:110] Creating Layer bn53
I0102 03:29:15.256433 19302 net.cpp:477] bn53 <- conv53
I0102 03:29:15.256449 19302 net.cpp:433] bn53 -> bn53
I0102 03:29:15.256556 19302 net.cpp:155] Setting up bn53
I0102 03:29:15.256572 19302 net.cpp:163] Top shape: 64 512 7 7 (1605632)
I0102 03:29:15.256595 19302 layer_factory.hpp:76] Creating layer relu53
I0102 03:29:15.256610 19302 net.cpp:110] Creating Layer relu53
I0102 03:29:15.256621 19302 net.cpp:477] relu53 <- bn53
I0102 03:29:15.256636 19302 net.cpp:419] relu53 -> bn53 (in-place)
I0102 03:29:15.256824 19302 net.cpp:155] Setting up relu53
I0102 03:29:15.256844 19302 net.cpp:163] Top shape: 64 512 7 7 (1605632)
I0102 03:29:15.256856 19302 layer_factory.hpp:76] Creating layer conv54
I0102 03:29:15.256886 19302 net.cpp:110] Creating Layer conv54
I0102 03:29:15.256897 19302 net.cpp:477] conv54 <- bn53
I0102 03:29:15.256912 19302 net.cpp:433] conv54 -> conv54
I0102 03:29:15.277966 19302 net.cpp:155] Setting up conv54
I0102 03:29:15.278028 19302 net.cpp:163] Top shape: 64 512 7 7 (1605632)
I0102 03:29:15.278046 19302 layer_factory.hpp:76] Creating layer bn54
I0102 03:29:15.278120 19302 net.cpp:110] Creating Layer bn54
I0102 03:29:15.278139 19302 net.cpp:477] bn54 <- conv54
I0102 03:29:15.278167 19302 net.cpp:433] bn54 -> bn54
I0102 03:29:15.278285 19302 net.cpp:155] Setting up bn54
I0102 03:29:15.278302 19302 net.cpp:163] Top shape: 64 512 7 7 (1605632)
I0102 03:29:15.278326 19302 layer_factory.hpp:76] Creating layer relu54
I0102 03:29:15.278344 19302 net.cpp:110] Creating Layer relu54
I0102 03:29:15.278357 19302 net.cpp:477] relu54 <- bn54
I0102 03:29:15.278372 19302 net.cpp:419] relu54 -> bn54 (in-place)
I0102 03:29:15.278455 19302 net.cpp:155] Setting up relu54
I0102 03:29:15.278472 19302 net.cpp:163] Top shape: 64 512 7 7 (1605632)
I0102 03:29:15.278493 19302 layer_factory.hpp:76] Creating layer eltwise15
I0102 03:29:15.278512 19302 net.cpp:110] Creating Layer eltwise15
I0102 03:29:15.278527 19302 net.cpp:477] eltwise15 <- eltwise14_relu14_0_split_1
I0102 03:29:15.278540 19302 net.cpp:477] eltwise15 <- bn54
I0102 03:29:15.278554 19302 net.cpp:433] eltwise15 -> eltwise15
I0102 03:29:15.278573 19302 net.cpp:155] Setting up eltwise15
I0102 03:29:15.278587 19302 net.cpp:163] Top shape: 64 512 7 7 (1605632)
I0102 03:29:15.278599 19302 layer_factory.hpp:76] Creating layer relu15
I0102 03:29:15.278614 19302 net.cpp:110] Creating Layer relu15
I0102 03:29:15.278652 19302 net.cpp:477] relu15 <- eltwise15
I0102 03:29:15.278667 19302 net.cpp:419] relu15 -> eltwise15 (in-place)
I0102 03:29:15.278743 19302 net.cpp:155] Setting up relu15
I0102 03:29:15.278760 19302 net.cpp:163] Top shape: 64 512 7 7 (1605632)
I0102 03:29:15.278774 19302 layer_factory.hpp:76] Creating layer eltwise15_relu15_0_split
I0102 03:29:15.278789 19302 net.cpp:110] Creating Layer eltwise15_relu15_0_split
I0102 03:29:15.278801 19302 net.cpp:477] eltwise15_relu15_0_split <- eltwise15
I0102 03:29:15.278815 19302 net.cpp:433] eltwise15_relu15_0_split -> eltwise15_relu15_0_split_0
I0102 03:29:15.278833 19302 net.cpp:433] eltwise15_relu15_0_split -> eltwise15_relu15_0_split_1
I0102 03:29:15.278849 19302 net.cpp:155] Setting up eltwise15_relu15_0_split
I0102 03:29:15.278864 19302 net.cpp:163] Top shape: 64 512 7 7 (1605632)
I0102 03:29:15.278877 19302 net.cpp:163] Top shape: 64 512 7 7 (1605632)
I0102 03:29:15.278890 19302 layer_factory.hpp:76] Creating layer conv55
I0102 03:29:15.278910 19302 net.cpp:110] Creating Layer conv55
I0102 03:29:15.278923 19302 net.cpp:477] conv55 <- eltwise15_relu15_0_split_0
I0102 03:29:15.278939 19302 net.cpp:433] conv55 -> conv55
I0102 03:29:15.300657 19302 net.cpp:155] Setting up conv55
I0102 03:29:15.300719 19302 net.cpp:163] Top shape: 64 512 7 7 (1605632)
I0102 03:29:15.300740 19302 layer_factory.hpp:76] Creating layer bn55
I0102 03:29:15.300765 19302 net.cpp:110] Creating Layer bn55
I0102 03:29:15.300779 19302 net.cpp:477] bn55 <- conv55
I0102 03:29:15.300834 19302 net.cpp:433] bn55 -> bn55
I0102 03:29:15.300952 19302 net.cpp:155] Setting up bn55
I0102 03:29:15.300977 19302 net.cpp:163] Top shape: 64 512 7 7 (1605632)
I0102 03:29:15.301002 19302 layer_factory.hpp:76] Creating layer relu55
I0102 03:29:15.301020 19302 net.cpp:110] Creating Layer relu55
I0102 03:29:15.301033 19302 net.cpp:477] relu55 <- bn55
I0102 03:29:15.301050 19302 net.cpp:419] relu55 -> bn55 (in-place)
I0102 03:29:15.301131 19302 net.cpp:155] Setting up relu55
I0102 03:29:15.301151 19302 net.cpp:163] Top shape: 64 512 7 7 (1605632)
I0102 03:29:15.301163 19302 layer_factory.hpp:76] Creating layer conv56
I0102 03:29:15.301184 19302 net.cpp:110] Creating Layer conv56
I0102 03:29:15.301197 19302 net.cpp:477] conv56 <- bn55
I0102 03:29:15.301211 19302 net.cpp:433] conv56 -> conv56
I0102 03:29:15.322850 19302 net.cpp:155] Setting up conv56
I0102 03:29:15.322913 19302 net.cpp:163] Top shape: 64 512 7 7 (1605632)
I0102 03:29:15.322934 19302 layer_factory.hpp:76] Creating layer bn56
I0102 03:29:15.322995 19302 net.cpp:110] Creating Layer bn56
I0102 03:29:15.323016 19302 net.cpp:477] bn56 <- conv56
I0102 03:29:15.323045 19302 net.cpp:433] bn56 -> bn56
I0102 03:29:15.323178 19302 net.cpp:155] Setting up bn56
I0102 03:29:15.323197 19302 net.cpp:163] Top shape: 64 512 7 7 (1605632)
I0102 03:29:15.323215 19302 layer_factory.hpp:76] Creating layer relu56
I0102 03:29:15.323235 19302 net.cpp:110] Creating Layer relu56
I0102 03:29:15.323248 19302 net.cpp:477] relu56 <- bn56
I0102 03:29:15.323262 19302 net.cpp:419] relu56 -> bn56 (in-place)
I0102 03:29:15.323456 19302 net.cpp:155] Setting up relu56
I0102 03:29:15.323477 19302 net.cpp:163] Top shape: 64 512 7 7 (1605632)
I0102 03:29:15.323492 19302 layer_factory.hpp:76] Creating layer eltwise16
I0102 03:29:15.323508 19302 net.cpp:110] Creating Layer eltwise16
I0102 03:29:15.323521 19302 net.cpp:477] eltwise16 <- eltwise15_relu15_0_split_1
I0102 03:29:15.323536 19302 net.cpp:477] eltwise16 <- bn56
I0102 03:29:15.323551 19302 net.cpp:433] eltwise16 -> eltwise16
I0102 03:29:15.323570 19302 net.cpp:155] Setting up eltwise16
I0102 03:29:15.323585 19302 net.cpp:163] Top shape: 64 512 7 7 (1605632)
I0102 03:29:15.323596 19302 layer_factory.hpp:76] Creating layer relu16
I0102 03:29:15.323611 19302 net.cpp:110] Creating Layer relu16
I0102 03:29:15.323622 19302 net.cpp:477] relu16 <- eltwise16
I0102 03:29:15.323638 19302 net.cpp:419] relu16 -> eltwise16 (in-place)
I0102 03:29:15.323714 19302 net.cpp:155] Setting up relu16
I0102 03:29:15.323732 19302 net.cpp:163] Top shape: 64 512 7 7 (1605632)
I0102 03:29:15.323768 19302 layer_factory.hpp:76] Creating layer pool5
I0102 03:29:15.323786 19302 net.cpp:110] Creating Layer pool5
I0102 03:29:15.323799 19302 net.cpp:477] pool5 <- eltwise16
I0102 03:29:15.323828 19302 net.cpp:433] pool5 -> pool5
I0102 03:29:15.323911 19302 net.cpp:155] Setting up pool5
I0102 03:29:15.323930 19302 net.cpp:163] Top shape: 64 512 1 1 (32768)
I0102 03:29:15.323941 19302 layer_factory.hpp:76] Creating layer ip1
I0102 03:29:15.323971 19302 net.cpp:110] Creating Layer ip1
I0102 03:29:15.323987 19302 net.cpp:477] ip1 <- pool5
I0102 03:29:15.324002 19302 net.cpp:433] ip1 -> ip1
I0102 03:29:15.328699 19302 net.cpp:155] Setting up ip1
I0102 03:29:15.328722 19302 net.cpp:163] Top shape: 64 1000 (64000)
I0102 03:29:15.328737 19302 layer_factory.hpp:76] Creating layer loss
I0102 03:29:15.328758 19302 net.cpp:110] Creating Layer loss
I0102 03:29:15.328783 19302 net.cpp:477] loss <- ip1
I0102 03:29:15.328802 19302 net.cpp:477] loss <- label
I0102 03:29:15.328826 19302 net.cpp:433] loss -> loss
I0102 03:29:15.328858 19302 layer_factory.hpp:76] Creating layer loss
I0102 03:29:15.329709 19302 net.cpp:155] Setting up loss
…
I0102 03:29:15.345129 19302 net.cpp:339] The NetState phase (1) differed from the phase (0) specified by a rule in layer loss
I0102 03:29:15.345939 19302 net.cpp:50] Initializing net from parameters: 
name: "RsdNet34v2"
state {
  phase: TEST
}
layer {
  name: "data"
  type: "Data"
  top: "data"
  top: "label"
  include {
    phase: TEST
  }
  transform_param {
    scale: 0.0039215689
    mirror: true
    crop_size: 224
    mean_file: "./ilsvrc12_mean.binaryproto"
  }
  data_param {
    source: "./ilsvrc12_test_lmdb"
    batch_size: 32
    backend: LMDB
  }
}
layer {
  name: "conv01"
  type: "Convolution"
  bottom: "data"
  top: "conv01"
  param {
    lr_mult: 1
  }
  param {
    lr_mult: 2
  }
  convolution_param {
    num_output: 64
    pad: 3
    kernel_size: 7
    stride: 2
    weight_filler {
      type: "xavier"
    }
    bias_filler {
      type: "constant"
    }
  }
}
layer {
  name: "bn01"
  type: "BN"
  bottom: "conv01"
  top: "bn01"
  param {
    lr_mult: 1
    decay_mult: 0
  }
  param {
    lr_mult: 1
    decay_mult: 0
  }
  bn_param {
    scale_filler {
      type: "constant"
      value: 1
    }
    shift_filler {
      type: "constant"
      value: 0
    }
  }
}
layer {
  name: "relu01"
  type: "ReLU"
  bottom: "bn01"
  top: "bn01"
}
layer {
  name: "pool1"
  type: "Pooling"
  bottom: "bn01"
  top: "pool1"
  pooling_param {
    pool: MAX
    kernel_size: 3
    stride: 2
  }
}
layer {
  name: "conv21"
  type: "Convolution"
  bottom: "pool1"
  top: "conv21"
  param {
    lr_mult: 1
  }
  param {
    lr_mult: 2
  }
  convolution_param {
    num_output: 64
    pad: 1
    kernel_size: 3
    stride: 1
    weight_filler {
      type: "xavier"
    }
    bias_filler {
      type: "constant"
    }
  }
}
layer {
  name: "bn21"
  type: "BN"
  bottom: "conv21"
  top: "bn21"
  param {
    lr_mult: 1
    decay_mult: 0
  }
  param {
    lr_mult: 1
    decay_mult: 0
  }
  bn_param {
    scale_filler {
      type: "constant"
      value: 1
    }
    shift_filler {
      type: "constant"
      value: 0
    }
  }
}
layer {
  name: "relu21"
  type: "ReLU"
  bottom: "bn21"
  top: "bn21"
}
layer {
  name: "conv22"
  type: "Convolution"
  bottom: "bn21"
  top: "conv22"
  param {
    lr_mult: 1
  }
  param {
    lr_mult: 2
  }
  convolution_param {
    num_output: 64
    pad: 1
    kernel_size: 3
    stride: 1
    weight_filler {
      type: "xavier"
    }
    bias_filler {
      type: "constant"
    }
  }
}
layer {
  name: "bn22"
  type: "BN"
  bottom: "conv22"
  top: "bn22"
  param {
    lr_mult: 1
    decay_mult: 0
  }
  param {
    lr_mult: 1
    decay_mult: 0
  }
  bn_param {
    scale_filler {
      type: "constant"
      value: 1
    }
    shift_filler {
      type: "constant"
      value: 0
    }
  }
}
layer {
  name: "relu22"
  type: "ReLU"
  bottom: "bn22"
  top: "bn22"
}
layer {
  name: "eltwise1"
  type: "Eltwise"
  bottom: "pool1"
  bottom: "bn22"
  top: "eltwise1"
  eltwise_param {
    operation: SUM
  }
}
layer {
  name: "relu1"
  type: "ReLU"
  bottom: "eltwise1"
  top: "eltwise1"
}
layer {
  name: "conv23"
  type: "Convolution"
  bottom: "eltwise1"
  top: "conv23"
  param {
    lr_mult: 1
  }
  param {
    lr_mult: 2
  }
  convolution_param {
    num_output: 64
    pad: 1
    kernel_size: 3
    stride: 1
    weight_filler {
      type: "xavier"
    }
    bias_filler {
      type: "constant"
    }
  }
}
layer {
  name: "bn23"
  type: "BN"
  bottom: "conv23"
  top: "bn23"
  param {
    lr_mult: 1
    decay_mult: 0
  }
  param {
    lr_mult: 1
    decay_mult: 0
  }
  bn_param {
    scale_filler {
      type: "constant"
      value: 1
    }
    shift_filler {
      type: "constant"
      value: 0
    }
  }
}
layer {
  name: "relu23"
  type: "ReLU"
  bottom: "bn23"
  top: "bn23"
}
layer {
  name: "conv24"
  type: "Convolution"
  bottom: "bn23"
  top: "conv24"
  param {
    lr_mult: 1
  }
  param {
    lr_mult: 2
  }
  convolution_param {
    num_output: 64
    pad: 1
    kernel_size: 3
    stride: 1
    weight_filler {
      type: "xavier"
    }
    bias_filler {
      type: "constant"
    }
  }
}
layer {
  name: "bn24"
  type: "BN"
  bottom: "conv24"
  top: "bn24"
  param {
    lr_mult: 1
    decay_mult: 0
  }
  param {
    lr_mult: 1
    decay_mult: 0
  }
  bn_param {
    scale_filler {
      type: "constant"
      value: 1
    }
    shift_filler {
      type: "constant"
      value: 0
    }
  }
}
layer {
  name: "relu24"
  type: "ReLU"
  bottom: "bn24"
  top: "bn24"
}
layer {
  name: "eltwise2"
  type: "Eltwise"
  bottom: "eltwise1"
  bottom: "bn24"
  top: "eltwise2"
  eltwise_param {
    operation: SUM
  }
}
layer {
  name: "relu2"
  type: "ReLU"
  bottom: "eltwise2"
  top: "eltwise2"
}
layer {
  name: "conv25"
  type: "Convolution"
  bottom: "bn24"
  top: "conv25"
  param {
    lr_mult: 1
  }
  param {
    lr_mult: 2
  }
  convolution_param {
    num_output: 64
    pad: 1
    kernel_size: 3
    stride: 1
    weight_filler {
      type: "xavier"
    }
    bias_filler {
      type: "constant"
    }
  }
}
layer {
  name: "bn25"
  type: "BN"
  bottom: "conv25"
  top: "bn25"
  param {
    lr_mult: 1
    decay_mult: 0
  }
  param {
    lr_mult: 1
    decay_mult: 0
  }
  bn_param {
    scale_filler {
      type: "constant"
      value: 1
    }
    shift_filler {
      type: "constant"
      value: 0
    }
  }
}
layer {
  name: "relu25"
  type: "ReLU"
  bottom: "bn25"
  top: "bn25"
}
layer {
  name: "conv26"
  type: "Convolution"
  bottom: "bn25"
  top: "conv26"
  param {
    lr_mult: 1
  }
  param {
    lr_mult: 2
  }
  convolution_param {
    num_output: 64
    pad: 1
    kernel_size: 3
    stride: 1
    weight_filler {
      type: "xavier"
    }
    bias_filler {
      type: "constant"
    }
  }
}
layer {
  name: "bn26"
  type: "BN"
  bottom: "conv26"
  top: "bn26"
  param {
    lr_mult: 1
    decay_mult: 0
  }
  param {
    lr_mult: 1
    decay_mult: 0
  }
  bn_param {
    scale_filler {
      type: "constant"
      value: 1
    }
    shift_filler {
      type: "constant"
      value: 0
    }
  }
}
layer {
  name: "relu26"
  type: "ReLU"
  bottom: "bn26"
  top: "bn26"
}
layer {
  name: "eltwise3"
  type: "Eltwise"
  bottom: "eltwise2"
  bottom: "bn26"
  top: "eltwise3"
  eltwise_param {
    operation: SUM
  }
}
layer {
  name: "relu3"
  type: "ReLU"
  bottom: "eltwise3"
  top: "eltwise3"
}
layer {
  name: "relu3_p"
  type: "Convolution"
  bottom: "eltwise3"
  top: "relu3_p"
  param {
    lr_mult: 1
  }
  param {
    lr_mult: 2
  }
  convolution_param {
    num_output: 128
    pad: 0
    kernel_size: 1
    stride: 2
    weight_filler {
      type: "xavier"
    }
    bias_filler {
      type: "constant"
    }
  }
}
layer {
  name: "conv31"
  type: "Convolution"
  bottom: "eltwise3"
  top: "conv31"
  param {
    lr_mult: 1
  }
  param {
    lr_mult: 2
  }
  convolution_param {
    num_output: 128
    pad: 1
    kernel_size: 3
    stride: 2
    weight_filler {
      type: "xavier"
    }
    bias_filler {
      type: "constant"
    }
  }
}
layer {
  name: "bn31"
  type: "BN"
  bottom: "conv31"
  top: "bn31"
  param {
    lr_mult: 1
    decay_mult: 0
  }
  param {
    lr_mult: 1
    decay_mult: 0
  }
  bn_param {
    scale_filler {
      type: "constant"
      value: 1
    }
    shift_filler {
      type: "constant"
      value: 0
    }
  }
}
layer {
  name: "relu31"
  type: "ReLU"
  bottom: "bn31"
  top: "bn31"
}
layer {
  name: "conv32"
  type: "Convolution"
  bottom: "bn31"
  top: "conv32"
  param {
    lr_mult: 1
  }
  param {
    lr_mult: 2
  }
  convolution_param {
    num_output: 128
    pad: 1
    kernel_size: 3
    stride: 1
    weight_filler {
      type: "xavier"
    }
    bias_filler {
      type: "constant"
    }
  }
}
layer {
  name: "bn32"
  type: "BN"
  bottom: "conv32"
  top: "bn32"
  param {
    lr_mult: 1
    decay_mult: 0
  }
  param {
    lr_mult: 1
    decay_mult: 0
  }
  bn_param {
    scale_filler {
      type: "constant"
      value: 1
    }
    shift_filler {
      type: "constant"
      value: 0
    }
  }
}
layer {
  name: "relu32"
  type: "ReLU"
  bottom: "bn32"
  top: "bn32"
}
layer {
  name: "eltwise4"
  type: "Eltwise"
  bottom: "relu3_p"
  bottom: "bn32"
  top: "eltwise4"
  eltwise_param {
    operation: SUM
  }
}
layer {
  name: "relu4"
  type: "ReLU"
  bottom: "eltwise4"
  top: "eltwise4"
}
layer {
  name: "conv33"
  type: "Convolution"
  bottom: "eltwise4"
  top: "conv33"
  param {
    lr_mult: 1
  }
  param {
    lr_mult: 2
  }
  convolution_param {
    num_output: 128
    pad: 1
    kernel_size: 3
    stride: 1
    weight_filler {
      type: "xavier"
    }
    bias_filler {
      type: "constant"
    }
  }
}
layer {
  name: "bn33"
  type: "BN"
  bottom: "conv33"
  top: "bn33"
  param {
    lr_mult: 1
    decay_mult: 0
  }
  param {
    lr_mult: 1
    decay_mult: 0
  }
  bn_param {
    scale_filler {
      type: "constant"
      value: 1
    }
    shift_filler {
      type: "constant"
      value: 0
    }
  }
}
layer {
  name: "relu33"
  type: "ReLU"
  bottom: "bn33"
  top: "bn33"
}
layer {
  name: "conv34"
  type: "Convolution"
  bottom: "bn33"
  top: "conv34"
  param {
    lr_mult: 1
  }
  param {
    lr_mult: 2
  }
  convolution_param {
    num_output: 128
    pad: 1
    kernel_size: 3
    stride: 1
    weight_filler {
      type: "xavier"
    }
    bias_filler {
      type: "constant"
    }
  }
}
layer {
  name: "bn34"
  type: "BN"
  bottom: "conv34"
  top: "bn34"
  param {
    lr_mult: 1
    decay_mult: 0
  }
  param {
    lr_mult: 1
    decay_mult: 0
  }
  bn_param {
    scale_filler {
      type: "constant"
      value: 1
    }
    shift_filler {
      type: "constant"
      value: 0
    }
  }
}
layer {
  name: "relu34"
  type: "ReLU"
  bottom: "bn34"
  top: "bn34"
}
layer {
  name: "eltwise5"
  type: "Eltwise"
  bottom: "eltwise4"
  bottom: "bn34"
  top: "eltwise5"
  eltwise_param {
    operation: SUM
  }
}
layer {
  name: "relu5"
  type: "ReLU"
  bottom: "eltwise5"
  top: "eltwise5"
}
layer {
  name: "conv35"
  type: "Convolution"
  bottom: "eltwise5"
  top: "conv35"
  param {
    lr_mult: 1
  }
  param {
    lr_mult: 2
  }
  convolution_param {
    num_output: 128
    pad: 1
    kernel_size: 3
    stride: 1
    weight_filler {
      type: "xavier"
    }
    bias_filler {
      type: "constant"
    }
  }
}
layer {
  name: "bn35"
  type: "BN"
  bottom: "conv35"
  top: "bn35"
  param {
    lr_mult: 1
    decay_mult: 0
  }
  param {
    lr_mult: 1
    decay_mult: 0
  }
  bn_param {
    scale_filler {
      type: "constant"
      value: 1
    }
    shift_filler {
      type: "constant"
      value: 0
    }
  }
}
layer {
  name: "relu35"
  type: "ReLU"
  bottom: "bn35"
  top: "bn35"
}
layer {
  name: "conv36"
  type: "Convolution"
  bottom: "bn35"
  top: "conv36"
  param {
    lr_mult: 1
  }
  param {
    lr_mult: 2
  }
  convolution_param {
    num_output: 128
    pad: 1
    kernel_size: 3
    stride: 1
    weight_filler {
      type: "xavier"
    }
    bias_filler {
      type: "constant"
    }
  }
}
layer {
  name: "bn36"
  type: "BN"
  bottom: "conv36"
  top: "bn36"
  param {
    lr_mult: 1
    decay_mult: 0
  }
  param {
    lr_mult: 1
    decay_mult: 0
  }
  bn_param {
    scale_filler {
      type: "constant"
      value: 1
    }
    shift_filler {
      type: "constant"
      value: 0
    }
  }
}
layer {
  name: "relu36"
  type: "ReLU"
  bottom: "bn36"
  top: "bn36"
}
layer {
  name: "eltwise6"
  type: "Eltwise"
  bottom: "eltwise5"
  bottom: "bn36"
  top: "eltwise6"
  eltwise_param {
    operation: SUM
  }
}
layer {
  name: "relu6"
  type: "ReLU"
  bottom: "eltwise6"
  top: "eltwise6"
}
layer {
  name: "conv37"
  type: "Convolution"
  bottom: "eltwise6"
  top: "conv37"
  param {
    lr_mult: 1
  }
  param {
    lr_mult: 2
  }
  convolution_param {
    num_output: 128
    pad: 1
    kernel_size: 3
    stride: 1
    weight_filler {
      type: "xavier"
    }
    bias_filler {
      type: "constant"
    }
  }
}
layer {
  name: "bn37"
  type: "BN"
  bottom: "conv37"
  top: "bn37"
  param {
    lr_mult: 1
    decay_mult: 0
  }
  param {
    lr_mult: 1
    decay_mult: 0
  }
  bn_param {
    scale_filler {
      type: "constant"
      value: 1
    }
    shift_filler {
      type: "constant"
      value: 0
    }
  }
}
layer {
  name: "relu37"
  type: "ReLU"
  bottom: "bn37"
  top: "bn37"
}
layer {
  name: "conv38"
  type: "Convolution"
  bottom: "bn37"
  top: "conv38"
  param {
    lr_mult: 1
  }
  param {
    lr_mult: 2
  }
  convolution_param {
    num_output: 128
    pad: 1
    kernel_size: 3
    stride: 1
    weight_filler {
      type: "xavier"
    }
    bias_filler {
      type: "constant"
    }
  }
}
layer {
  name: "bn38"
  type: "BN"
  bottom: "conv38"
  top: "bn38"
  param {
    lr_mult: 1
    decay_mult: 0
  }
  param {
    lr_mult: 1
    decay_mult: 0
  }
  bn_param {
    scale_filler {
      type: "constant"
      value: 1
    }
    shift_filler {
      type: "constant"
      value: 0
    }
  }
}
layer {
  name: "relu38"
  type: "ReLU"
  bottom: "bn38"
  top: "bn38"
}
layer {
  name: "eltwise7"
  type: "Eltwise"
  bottom: "eltwise6"
  bottom: "bn38"
  top: "eltwise7"
  eltwise_param {
    operation: SUM
  }
}
layer {
  name: "relu7"
  type: "ReLU"
  bottom: "eltwise7"
  top: "eltwise7"
}
layer {
  name: "relu7_p"
  type: "Convolution"
  bottom: "eltwise7"
  top: "relu7_p"
  param {
    lr_mult: 1
  }
  param {
    lr_mult: 2
  }
  convolution_param {
    num_output: 256
    pad: 0
    kernel_size: 1
    stride: 2
    weight_filler {
      type: "xavier"
    }
    bias_filler {
      type: "constant"
    }
  }
}
layer {
  name: "conv41"
  type: "Convolution"
  bottom: "eltwise7"
  top: "conv41"
  param {
    lr_mult: 1
  }
  param {
    lr_mult: 2
  }
  convolution_param {
    num_output: 256
    pad: 1
    kernel_size: 3
    stride: 2
    weight_filler {
      type: "xavier"
    }
    bias_filler {
      type: "constant"
    }
  }
}
layer {
  name: "bn41"
  type: "BN"
  bottom: "conv41"
  top: "bn41"
  param {
    lr_mult: 1
    decay_mult: 0
  }
  param {
    lr_mult: 1
    decay_mult: 0
  }
  bn_param {
    scale_filler {
      type: "constant"
      value: 1
    }
    shift_filler {
      type: "constant"
      value: 0
    }
  }
}
layer {
  name: "relu41"
  type: "ReLU"
  bottom: "bn41"
  top: "bn41"
}
layer {
  name: "conv42"
  type: "Convolution"
  bottom: "bn41"
  top: "conv42"
  param {
    lr_mult: 1
  }
  param {
    lr_mult: 2
  }
  convolution_param {
    num_output: 256
    pad: 1
    kernel_size: 3
    stride: 1
    weight_filler {
      type: "xavier"
    }
    bias_filler {
      type: "constant"
    }
  }
}
layer {
  name: "bn42"
  type: "BN"
  bottom: "conv42"
  top: "bn42"
  param {
    lr_mult: 1
    decay_mult: 0
  }
  param {
    lr_mult: 1
    decay_mult: 0
  }
  bn_param {
    scale_filler {
      type: "constant"
      value: 1
    }
    shift_filler {
      type: "constant"
      value: 0
    }
  }
}
layer {
  name: "relu42"
  type: "ReLU"
  bottom: "bn42"
  top: "bn42"
}
layer {
  name: "eltwise8"
  type: "Eltwise"
  bottom: "relu7_p"
  bottom: "bn42"
  top: "eltwise8"
  eltwise_param {
    operation: SUM
  }
}
layer {
  name: "relu8"
  type: "ReLU"
  bottom: "eltwise8"
  top: "eltwise8"
}
layer {
  name: "conv43"
  type: "Convolution"
  bottom: "eltwise8"
  top: "conv43"
  param {
    lr_mult: 1
  }
  param {
    lr_mult: 2
  }
  convolution_param {
    num_output: 256
    pad: 1
    kernel_size: 3
    stride: 1
    weight_filler {
      type: "xavier"
    }
    bias_filler {
      type: "constant"
    }
  }
}
layer {
  name: "bn43"
  type: "BN"
  bottom: "conv43"
  top: "bn43"
  param {
    lr_mult: 1
    decay_mult: 0
  }
  param {
    lr_mult: 1
    decay_mult: 0
  }
  bn_param {
    scale_filler {
      type: "constant"
      value: 1
    }
    shift_filler {
      type: "constant"
      value: 0
    }
  }
}
layer {
  name: "relu43"
  type: "ReLU"
  bottom: "bn43"
  top: "bn43"
}
layer {
  name: "conv44"
  type: "Convolution"
  bottom: "bn43"
  top: "conv44"
  param {
    lr_mult: 1
  }
  param {
    lr_mult: 2
  }
  convolution_param {
    num_output: 256
    pad: 1
    kernel_size: 3
    stride: 1
    weight_filler {
      type: "xavier"
    }
    bias_filler {
      type: "constant"
    }
  }
}
layer {
  name: "bn44"
  type: "BN"
  bottom: "conv44"
  top: "bn44"
  param {
    lr_mult: 1
    decay_mult: 0
  }
  param {
    lr_mult: 1
    decay_mult: 0
  }
  bn_param {
    scale_filler {
      type: "constant"
      value: 1
    }
    shift_filler {
      type: "constant"
      value: 0
    }
  }
}
layer {
  name: "relu44"
  type: "ReLU"
  bottom: "bn44"
  top: "bn44"
}
layer {
  name: "eltwise9"
  type: "Eltwise"
  bottom: "eltwise8"
  bottom: "bn44"
  top: "eltwise9"
  eltwise_param {
    operation: SUM
  }
}
layer {
  name: "relu9"
  type: "ReLU"
  bottom: "eltwise9"
  top: "eltwise9"
}
layer {
  name: "conv45"
  type: "Convolution"
  bottom: "eltwise9"
  top: "conv45"
  param {
    lr_mult: 1
  }
  param {
    lr_mult: 2
  }
  convolution_param {
    num_output: 256
    pad: 1
    kernel_size: 3
    stride: 1
    weight_filler {
      type: "xavier"
    }
    bias_filler {
      type: "constant"
    }
  }
}
layer {
  name: "bn45"
  type: "BN"
  bottom: "conv45"
  top: "bn45"
  param {
    lr_mult: 1
    decay_mult: 0
  }
  param {
    lr_mult: 1
    decay_mult: 0
  }
  bn_param {
    scale_filler {
      type: "constant"
      value: 1
    }
    shift_filler {
      type: "constant"
      value: 0
    }
  }
}
layer {
  name: "relu45"
  type: "ReLU"
  bottom: "bn45"
  top: "bn45"
}
layer {
  name: "conv46"
  type: "Convolution"
  bottom: "bn45"
  top: "conv46"
  param {
    lr_mult: 1
  }
  param {
    lr_mult: 2
  }
  convolution_param {
    num_output: 256
    pad: 1
    kernel_size: 3
    stride: 1
    weight_filler {
      type: "xavier"
    }
    bias_filler {
      type: "constant"
    }
  }
}
layer {
  name: "bn46"
  type: "BN"
  bottom: "conv46"
  top: "bn46"
  param {
    lr_mult: 1
    decay_mult: 0
  }
  param {
    lr_mult: 1
    decay_mult: 0
  }
  bn_param {
    scale_filler {
      type: "constant"
      value: 1
    }
    shift_filler {
      type: "constant"
      value: 0
    }
  }
}
layer {
  name: "relu46"
  type: "ReLU"
  bottom: "bn46"
  top: "bn46"
}
layer {
  name: "eltwise10"
  type: "Eltwise"
  bottom: "eltwise9"
  bottom: "bn46"
  top: "eltwise10"
  eltwise_param {
    operation: SUM
  }
}
layer {
  name: "relu10"
  type: "ReLU"
  bottom: "eltwise10"
  top: "eltwise10"
}
layer {
  name: "conv47"
  type: "Convolution"
  bottom: "eltwise10"
  top: "conv47"
  param {
    lr_mult: 1
  }
  param {
    lr_mult: 2
  }
  convolution_param {
    num_output: 256
    pad: 1
    kernel_size: 3
    stride: 1
    weight_filler {
      type: "xavier"
    }
    bias_filler {
      type: "constant"
    }
  }
}
layer {
  name: "bn47"
  type: "BN"
  bottom: "conv47"
  top: "bn47"
  param {
    lr_mult: 1
    decay_mult: 0
  }
  param {
    lr_mult: 1
    decay_mult: 0
  }
  bn_param {
    scale_filler {
      type: "constant"
      value: 1
    }
    shift_filler {
      type: "constant"
      value: 0
    }
  }
}
layer {
  name: "relu47"
  type: "ReLU"
  bottom: "bn47"
  top: "bn47"
}
layer {
  name: "conv48"
  type: "Convolution"
  bottom: "bn47"
  top: "conv48"
  param {
    lr_mult: 1
  }
  param {
    lr_mult: 2
  }
  convolution_param {
    num_output: 256
    pad: 1
    kernel_size: 3
    stride: 1
    weight_filler {
      type: "xavier"
    }
    bias_filler {
      type: "constant"
    }
  }
}
layer {
  name: "bn48"
  type: "BN"
  bottom: "conv48"
  top: "bn48"
  param {
    lr_mult: 1
    decay_mult: 0
  }
  param {
    lr_mult: 1
    decay_mult: 0
  }
  bn_param {
    scale_filler {
      type: "constant"
      value: 1
    }
    shift_filler {
      type: "constant"
      value: 0
    }
  }
}
layer {
  name: "relu48"
  type: "ReLU"
  bottom: "bn48"
  top: "bn48"
}
layer {
  name: "eltwise11"
  type: "Eltwise"
  bottom: "eltwise10"
  bottom: "bn48"
  top: "eltwise11"
  eltwise_param {
    operation: SUM
  }
}
layer {
  name: "relu11"
  type: "ReLU"
  bottom: "eltwise11"
  top: "eltwise11"
}
layer {
  name: "conv49"
  type: "Convolution"
  bottom: "eltwise11"
  top: "conv49"
  param {
    lr_mult: 1
  }
  param {
    lr_mult: 2
  }
  convolution_param {
    num_output: 256
    pad: 1
    kernel_size: 3
    stride: 1
    weight_filler {
      type: "xavier"
    }
    bias_filler {
      type: "constant"
    }
  }
}
layer {
  name: "bn49"
  type: "BN"
  bottom: "conv49"
  top: "bn49"
  param {
    lr_mult: 1
    decay_mult: 0
  }
  param {
    lr_mult: 1
    decay_mult: 0
  }
  bn_param {
    scale_filler {
      type: "constant"
      value: 1
    }
    shift_filler {
      type: "constant"
      value: 0
    }
  }
}
layer {
  name: "relu49"
  type: "ReLU"
  bottom: "bn49"
  top: "bn49"
}
layer {
  name: "conv410"
  type: "Convolution"
  bottom: "bn49"
  top: "conv410"
  param {
    lr_mult: 1
  }
  param {
    lr_mult: 2
  }
  convolution_param {
    num_output: 256
    pad: 1
    kernel_size: 3
    stride: 1
    weight_filler {
      type: "xavier"
    }
    bias_filler {
      type: "constant"
    }
  }
}
layer {
  name: "bn410"
  type: "BN"
  bottom: "conv410"
  top: "bn410"
  param {
    lr_mult: 1
    decay_mult: 0
  }
  param {
    lr_mult: 1
    decay_mult: 0
  }
  bn_param {
    scale_filler {
      type: "constant"
      value: 1
    }
    shift_filler {
      type: "constant"
      value: 0
    }
  }
}
layer {
  name: "relu410"
  type: "ReLU"
  bottom: "bn410"
  top: "bn410"
}
layer {
  name: "eltwise12"
  type: "Eltwise"
  bottom: "eltwise11"
  bottom: "bn410"
  top: "eltwise12"
  eltwise_param {
    operation: SUM
  }
}
layer {
  name: "relu12"
  type: "ReLU"
  bottom: "eltwise12"
  top: "eltwise12"
}
layer {
  name: "conv411"
  type: "Convolution"
  bottom: "eltwise12"
  top: "conv411"
  param {
    lr_mult: 1
  }
  param {
    lr_mult: 2
  }
  convolution_param {
    num_output: 256
    pad: 1
    kernel_size: 3
    stride: 1
    weight_filler {
      type: "xavier"
    }
    bias_filler {
      type: "constant"
    }
  }
}
layer {
  name: "bn411"
  type: "BN"
  bottom: "conv411"
  top: "bn411"
  param {
    lr_mult: 1
    decay_mult: 0
  }
  param {
    lr_mult: 1
    decay_mult: 0
  }
  bn_param {
    scale_filler {
      type: "constant"
      value: 1
    }
    shift_filler {
      type: "constant"
      value: 0
    }
  }
}
layer {
  name: "relu411"
  type: "ReLU"
  bottom: "bn411"
  top: "bn411"
}
layer {
  name: "conv412"
  type: "Convolution"
  bottom: "bn411"
  top: "conv412"
  param {
    lr_mult: 1
  }
  param {
    lr_mult: 2
  }
  convolution_param {
    num_output: 256
    pad: 1
    kernel_size: 3
    stride: 1
    weight_filler {
      type: "xavier"
    }
    bias_filler {
      type: "constant"
    }
  }
}
layer {
  name: "bn412"
  type: "BN"
  bottom: "conv412"
  top: "bn412"
  param {
    lr_mult: 1
    decay_mult: 0
  }
  param {
    lr_mult: 1
    decay_mult: 0
  }
  bn_param {
    scale_filler {
      type: "constant"
      value: 1
    }
    shift_filler {
      type: "constant"
      value: 0
    }
  }
}
layer {
  name: "relu412"
  type: "ReLU"
  bottom: "bn412"
  top: "bn412"
}
layer {
  name: "eltwise13"
  type: "Eltwise"
  bottom: "eltwise12"
  bottom: "bn412"
  top: "eltwise13"
  eltwise_param {
    operation: SUM
  }
}
layer {
  name: "relu13"
  type: "ReLU"
  bottom: "eltwise13"
  top: "eltwise13"
}
layer {
  name: "relu13_p"
  type: "Convolution"
  bottom: "eltwise12"
  top: "relu13_p"
  param {
    lr_mult: 1
  }
  param {
    lr_mult: 2
  }
  convolution_param {
    num_output: 512
    pad: 0
    kernel_size: 1
    stride: 2
    weight_filler {
      type: "xavier"
    }
    bias_filler {
      type: "constant"
    }
  }
}
layer {
  name: "conv51"
  type: "Convolution"
  bottom: "eltwise13"
  top: "conv51"
  param {
    lr_mult: 1
  }
  param {
    lr_mult: 2
  }
  convolution_param {
    num_output: 512
    pad: 1
    kernel_size: 3
    stride: 2
    weight_filler {
      type: "xavier"
    }
    bias_filler {
      type: "constant"
    }
  }
}
layer {
  name: "bn51"
  type: "BN"
  bottom: "conv51"
  top: "bn51"
  param {
    lr_mult: 1
    decay_mult: 0
  }
  param {
    lr_mult: 1
    decay_mult: 0
  }
  bn_param {
    scale_filler {
      type: "constant"
      value: 1
    }
    shift_filler {
      type: "constant"
      value: 0
    }
  }
}
layer {
  name: "relu51"
  type: "ReLU"
  bottom: "bn51"
  top: "bn51"
}
layer {
  name: "conv52"
  type: "Convolution"
  bottom: "bn51"
  top: "conv52"
  param {
    lr_mult: 1
  }
  param {
    lr_mult: 2
  }
  convolution_param {
    num_output: 512
    pad: 1
    kernel_size: 3
    stride: 1
    weight_filler {
      type: "xavier"
    }
    bias_filler {
      type: "constant"
    }
  }
}
layer {
  name: "bn52"
  type: "BN"
  bottom: "conv52"
  top: "bn52"
  param {
    lr_mult: 1
    decay_mult: 0
  }
  param {
    lr_mult: 1
    decay_mult: 0
  }
  bn_param {
    scale_filler {
      type: "constant"
      value: 1
    }
    shift_filler {
      type: "constant"
      value: 0
    }
  }
}
layer {
  name: "relu52"
  type: "ReLU"
  bottom: "bn52"
  top: "bn52"
}
layer {
  name: "eltwise14"
  type: "Eltwise"
  bottom: "relu13_p"
  bottom: "bn52"
  top: "eltwise14"
  eltwise_param {
    operation: SUM
  }
}
layer {
  name: "relu14"
  type: "ReLU"
  bottom: "eltwise14"
  top: "eltwise14"
}
layer {
  name: "conv53"
  type: "Convolution"
  bottom: "eltwise14"
  top: "conv53"
  param {
    lr_mult: 1
  }
  param {
    lr_mult: 2
  }
  convolution_param {
    num_output: 512
    pad: 1
    kernel_size: 3
    stride: 1
    weight_filler {
      type: "xavier"
    }
    bias_filler {
      type: "constant"
    }
  }
}
layer {
  name: "bn53"
  type: "BN"
  bottom: "conv53"
  top: "bn53"
  param {
    lr_mult: 1
    decay_mult: 0
  }
  param {
    lr_mult: 1
    decay_mult: 0
  }
  bn_param {
    scale_filler {
      type: "constant"
      value: 1
    }
    shift_filler {
      type: "constant"
      value: 0
    }
  }
}
layer {
  name: "relu53"
  type: "ReLU"
  bottom: "bn53"
  top: "bn53"
}
layer {
  name: "conv54"
  type: "Convolution"
  bottom: "bn53"
  top: "conv54"
  param {
    lr_mult: 1
  }
  param {
    lr_mult: 2
  }
  convolution_param {
    num_output: 512
    pad: 1
    kernel_size: 3
    stride: 1
    weight_filler {
      type: "xavier"
    }
    bias_filler {
      type: "constant"
    }
  }
}
layer {
  name: "bn54"
  type: "BN"
  bottom: "conv54"
  top: "bn54"
  param {
    lr_mult: 1
    decay_mult: 0
  }
  param {
    lr_mult: 1
    decay_mult: 0
  }
  bn_param {
    scale_filler {
      type: "constant"
      value: 1
    }
    shift_filler {
      type: "constant"
      value: 0
    }
  }
}
layer {
  name: "relu54"
  type: "ReLU"
  bottom: "bn54"
  top: "bn54"
}
layer {
  name: "eltwise15"
  type: "Eltwise"
  bottom: "eltwise14"
  bottom: "bn54"
  top: "eltwise15"
  eltwise_param {
    operation: SUM
  }
}
layer {
  name: "relu15"
  type: "ReLU"
  bottom: "eltwise15"
  top: "eltwise15"
}
layer {
  name: "conv55"
  type: "Convolution"
  bottom: "eltwise15"
  top: "conv55"
  param {
    lr_mult: 1
  }
  param {
    lr_mult: 2
  }
  convolution_param {
    num_output: 512
    pad: 1
    kernel_size: 3
    stride: 1
    weight_filler {
      type: "xavier"
    }
    bias_filler {
      type: "constant"
    }
  }
}
layer {
  name: "bn55"
  type: "BN"
  bottom: "conv55"
  top: "bn55"
  param {
    lr_mult: 1
    decay_mult: 0
  }
  param {
    lr_mult: 1
    decay_mult: 0
  }
  bn_param {
    scale_filler {
      type: "constant"
      value: 1
    }
    shift_filler {
      type: "constant"
      value: 0
    }
  }
}
layer {
  name: "relu55"
  type: "ReLU"
  bottom: "bn55"
  top: "bn55"
}
layer {
  name: "conv56"
  type: "Convolution"
  bottom: "bn55"
  top: "conv56"
  param {
    lr_mult: 1
  }
  param {
    lr_mult: 2
  }
  convolution_param {
    num_output: 512
    pad: 1
    kernel_size: 3
    stride: 1
    weight_filler {
      type: "xavier"
    }
    bias_filler {
      type: "constant"
    }
  }
}
layer {
  name: "bn56"
  type: "BN"
  bottom: "conv56"
  top: "bn56"
  param {
    lr_mult: 1
    decay_mult: 0
  }
  param {
    lr_mult: 1
    decay_mult: 0
  }
  bn_param {
    scale_filler {
      type: "constant"
      value: 1
    }
    shift_filler {
      type: "constant"
      value: 0
    }
  }
}
layer {
  name: "relu56"
  type: "ReLU"
  bottom: "bn56"
  top: "bn56"
}
layer {
  name: "eltwise16"
  type: "Eltwise"
  bottom: "eltwise15"
  bottom: "bn56"
  top: "eltwise16"
  eltwise_param {
    operation: SUM
  }
}
layer {
  name: "relu16"
  type: "ReLU"
  bottom: "eltwise16"
  top: "eltwise16"
}
layer {
  name: "pool5"
  type: "Pooling"
  bottom: "eltwise16"
  top: "pool5"
  pooling_param {
    pool: AVE
    kernel_size: 7
    stride: 1
  }
}
layer {
  name: "ip1"
  type: "InnerProduct"
  bottom: "pool5"
  top: "ip1"
  param {
    lr_mult: 1
  }
  param {
    lr_mult: 2
  }
  inner_product_param {
    num_output: 1000
    weight_filler {
      type: "xavier"
    }
    bias_filler {
      type: "constant"
    }
  }
}
layer {
  name: "accuracy"
  type: "Accuracy"
  bottom: "ip1"
  bottom: "label"
  top: "accuracy"
  include {
    phase: TEST
  }
}
I0102 03:29:15.404255 19302 layer_factory.hpp:76] Creating layer data
I0102 03:29:15.404362 19302 net.cpp:110] Creating Layer data
I0102 03:29:15.404381 19302 net.cpp:433] data -> data
I0102 03:29:15.404394 19302 net.cpp:433] data -> label
I0102 03:29:15.404407 19302 data_transformer.cpp:23] Loading mean file from: ./ilsvrc12_mean.binaryproto
I0102 03:29:15.409962 19307 db_lmdb.cpp:22] Opened lmdb ./ilsvrc12_test_lmdb
I0102 03:29:15.410321 19302 data_layer.cpp:44] output data size: 32,3,224,224
I0102 03:29:15.452760 19302 net.cpp:155] Setting up data
I0102 03:29:15.452855 19302 net.cpp:163] Top shape: 32 3 224 224 (4816896)
I0102 03:29:15.452893 19302 net.cpp:163] Top shape: 32 (32)
I0102 03:29:15.452920 19302 layer_factory.hpp:76] Creating layer conv01
I0102 03:29:15.452955 19302 net.cpp:110] Creating Layer conv01
I0102 03:29:15.452970 19302 net.cpp:477] conv01 <- data
I0102 03:29:15.452999 19302 net.cpp:433] conv01 -> conv01
I0102 03:29:15.453570 19302 net.cpp:155] Setting up conv01
I0102 03:29:15.453594 19302 net.cpp:163] Top shape: 32 64 112 112 (25690112)
I0102 03:29:15.453621 19302 layer_factory.hpp:76] Creating layer bn01
I0102 03:29:15.453647 19302 net.cpp:110] Creating Layer bn01
I0102 03:29:15.453665 19302 net.cpp:477] bn01 <- conv01
I0102 03:29:15.453683 19302 net.cpp:433] bn01 -> bn01
I0102 03:29:15.453832 19302 net.cpp:155] Setting up bn01
I0102 03:29:15.453853 19302 net.cpp:163] Top shape: 32 64 112 112 (25690112)
I0102 03:29:15.453877 19302 layer_factory.hpp:76] Creating layer relu01
I0102 03:29:15.453896 19302 net.cpp:110] Creating Layer relu01
I0102 03:29:15.453910 19302 net.cpp:477] relu01 <- bn01
I0102 03:29:15.453929 19302 net.cpp:419] relu01 -> bn01 (in-place)
I0102 03:29:15.456107 19302 net.cpp:155] Setting up relu01
I0102 03:29:15.456142 19302 net.cpp:163] Top shape: 32 64 112 112 (25690112)
I0102 03:29:15.456176 19302 layer_factory.hpp:76] Creating layer pool1
I0102 03:29:15.456204 19302 net.cpp:110] Creating Layer pool1
I0102 03:29:15.456218 19302 net.cpp:477] pool1 <- bn01
I0102 03:29:15.456248 19302 net.cpp:433] pool1 -> pool1
I0102 03:29:15.456348 19302 net.cpp:155] Setting up pool1
I0102 03:29:15.456401 19302 net.cpp:163] Top shape: 32 64 56 56 (6422528)
I0102 03:29:15.456418 19302 layer_factory.hpp:76] Creating layer pool1_pool1_0_split
I0102 03:29:15.456435 19302 net.cpp:110] Creating Layer pool1_pool1_0_split
I0102 03:29:15.456449 19302 net.cpp:477] pool1_pool1_0_split <- pool1
I0102 03:29:15.456466 19302 net.cpp:433] pool1_pool1_0_split -> pool1_pool1_0_split_0
I0102 03:29:15.456485 19302 net.cpp:433] pool1_pool1_0_split -> pool1_pool1_0_split_1
I0102 03:29:15.456506 19302 net.cpp:155] Setting up pool1_pool1_0_split
I0102 03:29:15.456523 19302 net.cpp:163] Top shape: 32 64 56 56 (6422528)
I0102 03:29:15.456539 19302 net.cpp:163] Top shape: 32 64 56 56 (6422528)
I0102 03:29:15.456553 19302 layer_factory.hpp:76] Creating layer conv21
I0102 03:29:15.456573 19302 net.cpp:110] Creating Layer conv21
I0102 03:29:15.456586 19302 net.cpp:477] conv21 <- pool1_pool1_0_split_0
I0102 03:29:15.456604 19302 net.cpp:433] conv21 -> conv21
I0102 03:29:15.457268 19302 net.cpp:155] Setting up conv21
I0102 03:29:15.457291 19302 net.cpp:163] Top shape: 32 64 56 56 (6422528)
I0102 03:29:15.457317 19302 layer_factory.hpp:76] Creating layer bn21
I0102 03:29:15.457339 19302 net.cpp:110] Creating Layer bn21
I0102 03:29:15.457352 19302 net.cpp:477] bn21 <- conv21
I0102 03:29:15.457370 19302 net.cpp:433] bn21 -> bn21
I0102 03:29:15.457490 19302 net.cpp:155] Setting up bn21
I0102 03:29:15.457511 19302 net.cpp:163] Top shape: 32 64 56 56 (6422528)
I0102 03:29:15.457535 19302 layer_factory.hpp:76] Creating layer relu21
I0102 03:29:15.457553 19302 net.cpp:110] Creating Layer relu21
I0102 03:29:15.457568 19302 net.cpp:477] relu21 <- bn21
I0102 03:29:15.457586 19302 net.cpp:419] relu21 -> bn21 (in-place)
I0102 03:29:15.457664 19302 net.cpp:155] Setting up relu21
I0102 03:29:15.457681 19302 net.cpp:163] Top shape: 32 64 56 56 (6422528)
I0102 03:29:15.457695 19302 layer_factory.hpp:76] Creating layer conv22
I0102 03:29:15.457715 19302 net.cpp:110] Creating Layer conv22
I0102 03:29:15.457731 19302 net.cpp:477] conv22 <- bn21
I0102 03:29:15.457747 19302 net.cpp:433] conv22 -> conv22
I0102 03:29:15.458385 19302 net.cpp:155] Setting up conv22
I0102 03:29:15.458408 19302 net.cpp:163] Top shape: 32 64 56 56 (6422528)
I0102 03:29:15.458427 19302 layer_factory.hpp:76] Creating layer bn22
I0102 03:29:15.458448 19302 net.cpp:110] Creating Layer bn22
I0102 03:29:15.458462 19302 net.cpp:477] bn22 <- conv22
I0102 03:29:15.458480 19302 net.cpp:433] bn22 -> bn22
I0102 03:29:15.458600 19302 net.cpp:155] Setting up bn22
I0102 03:29:15.458617 19302 net.cpp:163] Top shape: 32 64 56 56 (6422528)
I0102 03:29:15.458638 19302 layer_factory.hpp:76] Creating layer relu22
I0102 03:29:15.458654 19302 net.cpp:110] Creating Layer relu22
I0102 03:29:15.458664 19302 net.cpp:477] relu22 <- bn22
I0102 03:29:15.458678 19302 net.cpp:419] relu22 -> bn22 (in-place)
I0102 03:29:15.458858 19302 net.cpp:155] Setting up relu22
I0102 03:29:15.458878 19302 net.cpp:163] Top shape: 32 64 56 56 (6422528)
I0102 03:29:15.458889 19302 layer_factory.hpp:76] Creating layer eltwise1
I0102 03:29:15.458906 19302 net.cpp:110] Creating Layer eltwise1
I0102 03:29:15.458916 19302 net.cpp:477] eltwise1 <- pool1_pool1_0_split_1
I0102 03:29:15.458928 19302 net.cpp:477] eltwise1 <- bn22
I0102 03:29:15.458942 19302 net.cpp:433] eltwise1 -> eltwise1
I0102 03:29:15.458958 19302 net.cpp:155] Setting up eltwise1
I0102 03:29:15.458971 19302 net.cpp:163] Top shape: 32 64 56 56 (6422528)
I0102 03:29:15.458982 19302 layer_factory.hpp:76] Creating layer relu1
I0102 03:29:15.458995 19302 net.cpp:110] Creating Layer relu1
I0102 03:29:15.459007 19302 net.cpp:477] relu1 <- eltwise1
I0102 03:29:15.459020 19302 net.cpp:419] relu1 -> eltwise1 (in-place)
I0102 03:29:15.459091 19302 net.cpp:155] Setting up relu1
I0102 03:29:15.459107 19302 net.cpp:163] Top shape: 32 64 56 56 (6422528)
I0102 03:29:15.459118 19302 layer_factory.hpp:76] Creating layer eltwise1_relu1_0_split
I0102 03:29:15.459131 19302 net.cpp:110] Creating Layer eltwise1_relu1_0_split
I0102 03:29:15.459142 19302 net.cpp:477] eltwise1_relu1_0_split <- eltwise1
I0102 03:29:15.459168 19302 net.cpp:433] eltwise1_relu1_0_split -> eltwise1_relu1_0_split_0
I0102 03:29:15.459184 19302 net.cpp:433] eltwise1_relu1_0_split -> eltwise1_relu1_0_split_1
I0102 03:29:15.459199 19302 net.cpp:155] Setting up eltwise1_relu1_0_split
I0102 03:29:15.459211 19302 net.cpp:163] Top shape: 32 64 56 56 (6422528)
I0102 03:29:15.459223 19302 net.cpp:163] Top shape: 32 64 56 56 (6422528)
I0102 03:29:15.459234 19302 layer_factory.hpp:76] Creating layer conv23
I0102 03:29:15.459250 19302 net.cpp:110] Creating Layer conv23
I0102 03:29:15.459260 19302 net.cpp:477] conv23 <- eltwise1_relu1_0_split_0
I0102 03:29:15.459275 19302 net.cpp:433] conv23 -> conv23
I0102 03:29:15.459923 19302 net.cpp:155] Setting up conv23
I0102 03:29:15.459944 19302 net.cpp:163] Top shape: 32 64 56 56 (6422528)
I0102 03:29:15.459959 19302 layer_factory.hpp:76] Creating layer bn23
I0102 03:29:15.459977 19302 net.cpp:110] Creating Layer bn23
I0102 03:29:15.459988 19302 net.cpp:477] bn23 <- conv23
I0102 03:29:15.460003 19302 net.cpp:433] bn23 -> bn23
I0102 03:29:15.460130 19302 net.cpp:155] Setting up bn23
I0102 03:29:15.460147 19302 net.cpp:163] Top shape: 32 64 56 56 (6422528)
I0102 03:29:15.460163 19302 layer_factory.hpp:76] Creating layer relu23
I0102 03:29:15.460180 19302 net.cpp:110] Creating Layer relu23
I0102 03:29:15.460189 19302 net.cpp:477] relu23 <- bn23
I0102 03:29:15.460203 19302 net.cpp:419] relu23 -> bn23 (in-place)
I0102 03:29:15.460279 19302 net.cpp:155] Setting up relu23
I0102 03:29:15.460295 19302 net.cpp:163] Top shape: 32 64 56 56 (6422528)
I0102 03:29:15.460306 19302 layer_factory.hpp:76] Creating layer conv24
I0102 03:29:15.460324 19302 net.cpp:110] Creating Layer conv24
I0102 03:29:15.460333 19302 net.cpp:477] conv24 <- bn23
I0102 03:29:15.460347 19302 net.cpp:433] conv24 -> conv24
I0102 03:29:15.461001 19302 net.cpp:155] Setting up conv24
I0102 03:29:15.461022 19302 net.cpp:163] Top shape: 32 64 56 56 (6422528)
I0102 03:29:15.461037 19302 layer_factory.hpp:76] Creating layer bn24
I0102 03:29:15.461053 19302 net.cpp:110] Creating Layer bn24
I0102 03:29:15.461064 19302 net.cpp:477] bn24 <- conv24
I0102 03:29:15.461078 19302 net.cpp:433] bn24 -> bn24
I0102 03:29:15.461199 19302 net.cpp:155] Setting up bn24
I0102 03:29:15.461216 19302 net.cpp:163] Top shape: 32 64 56 56 (6422528)
I0102 03:29:15.461232 19302 layer_factory.hpp:76] Creating layer relu24
I0102 03:29:15.461246 19302 net.cpp:110] Creating Layer relu24
I0102 03:29:15.461257 19302 net.cpp:477] relu24 <- bn24
I0102 03:29:15.461271 19302 net.cpp:419] relu24 -> bn24 (in-place)
I0102 03:29:15.461349 19302 net.cpp:155] Setting up relu24
I0102 03:29:15.461365 19302 net.cpp:163] Top shape: 32 64 56 56 (6422528)
I0102 03:29:15.461376 19302 layer_factory.hpp:76] Creating layer bn24_relu24_0_split
I0102 03:29:15.461390 19302 net.cpp:110] Creating Layer bn24_relu24_0_split
I0102 03:29:15.461400 19302 net.cpp:477] bn24_relu24_0_split <- bn24
I0102 03:29:15.461413 19302 net.cpp:433] bn24_relu24_0_split -> bn24_relu24_0_split_0
I0102 03:29:15.461427 19302 net.cpp:433] bn24_relu24_0_split -> bn24_relu24_0_split_1
I0102 03:29:15.461441 19302 net.cpp:155] Setting up bn24_relu24_0_split
I0102 03:29:15.461454 19302 net.cpp:163] Top shape: 32 64 56 56 (6422528)
I0102 03:29:15.461465 19302 net.cpp:163] Top shape: 32 64 56 56 (6422528)
I0102 03:29:15.461475 19302 layer_factory.hpp:76] Creating layer eltwise2
I0102 03:29:15.461490 19302 net.cpp:110] Creating Layer eltwise2
I0102 03:29:15.461500 19302 net.cpp:477] eltwise2 <- eltwise1_relu1_0_split_1
I0102 03:29:15.461513 19302 net.cpp:477] eltwise2 <- bn24_relu24_0_split_0
I0102 03:29:15.461526 19302 net.cpp:433] eltwise2 -> eltwise2
I0102 03:29:15.461540 19302 net.cpp:155] Setting up eltwise2
I0102 03:29:15.461552 19302 net.cpp:163] Top shape: 32 64 56 56 (6422528)
I0102 03:29:15.461563 19302 layer_factory.hpp:76] Creating layer relu2
I0102 03:29:15.461576 19302 net.cpp:110] Creating Layer relu2
I0102 03:29:15.461586 19302 net.cpp:477] relu2 <- eltwise2
I0102 03:29:15.461599 19302 net.cpp:419] relu2 -> eltwise2 (in-place)
I0102 03:29:15.461793 19302 net.cpp:155] Setting up relu2
I0102 03:29:15.461813 19302 net.cpp:163] Top shape: 32 64 56 56 (6422528)
I0102 03:29:15.461825 19302 layer_factory.hpp:76] Creating layer conv25
I0102 03:29:15.461840 19302 net.cpp:110] Creating Layer conv25
I0102 03:29:15.461851 19302 net.cpp:477] conv25 <- bn24_relu24_0_split_1
I0102 03:29:15.461865 19302 net.cpp:433] conv25 -> conv25
I0102 03:29:15.462504 19302 net.cpp:155] Setting up conv25
I0102 03:29:15.462524 19302 net.cpp:163] Top shape: 32 64 56 56 (6422528)
I0102 03:29:15.462538 19302 layer_factory.hpp:76] Creating layer bn25
I0102 03:29:15.462555 19302 net.cpp:110] Creating Layer bn25
I0102 03:29:15.462565 19302 net.cpp:477] bn25 <- conv25
I0102 03:29:15.462580 19302 net.cpp:433] bn25 -> bn25
I0102 03:29:15.462694 19302 net.cpp:155] Setting up bn25
I0102 03:29:15.462712 19302 net.cpp:163] Top shape: 32 64 56 56 (6422528)
I0102 03:29:15.462733 19302 layer_factory.hpp:76] Creating layer relu25
I0102 03:29:15.462746 19302 net.cpp:110] Creating Layer relu25
I0102 03:29:15.462757 19302 net.cpp:477] relu25 <- bn25
I0102 03:29:15.462770 19302 net.cpp:419] relu25 -> bn25 (in-place)
I0102 03:29:15.462846 19302 net.cpp:155] Setting up relu25
I0102 03:29:15.462860 19302 net.cpp:163] Top shape: 32 64 56 56 (6422528)
I0102 03:29:15.462872 19302 layer_factory.hpp:76] Creating layer conv26
I0102 03:29:15.462887 19302 net.cpp:110] Creating Layer conv26
I0102 03:29:15.462898 19302 net.cpp:477] conv26 <- bn25
I0102 03:29:15.462910 19302 net.cpp:433] conv26 -> conv26
I0102 03:29:15.464092 19302 net.cpp:155] Setting up conv26
I0102 03:29:15.464113 19302 net.cpp:163] Top shape: 32 64 56 56 (6422528)
I0102 03:29:15.464128 19302 layer_factory.hpp:76] Creating layer bn26
I0102 03:29:15.464144 19302 net.cpp:110] Creating Layer bn26
I0102 03:29:15.464155 19302 net.cpp:477] bn26 <- conv26
I0102 03:29:15.464170 19302 net.cpp:433] bn26 -> bn26
I0102 03:29:15.464287 19302 net.cpp:155] Setting up bn26
I0102 03:29:15.464303 19302 net.cpp:163] Top shape: 32 64 56 56 (6422528)
I0102 03:29:15.464318 19302 layer_factory.hpp:76] Creating layer relu26
I0102 03:29:15.464334 19302 net.cpp:110] Creating Layer relu26
I0102 03:29:15.464344 19302 net.cpp:477] relu26 <- bn26
I0102 03:29:15.464356 19302 net.cpp:419] relu26 -> bn26 (in-place)
I0102 03:29:15.464432 19302 net.cpp:155] Setting up relu26
I0102 03:29:15.464447 19302 net.cpp:163] Top shape: 32 64 56 56 (6422528)
I0102 03:29:15.464458 19302 layer_factory.hpp:76] Creating layer eltwise3
I0102 03:29:15.464473 19302 net.cpp:110] Creating Layer eltwise3
I0102 03:29:15.464483 19302 net.cpp:477] eltwise3 <- eltwise2
I0102 03:29:15.464494 19302 net.cpp:477] eltwise3 <- bn26
I0102 03:29:15.464507 19302 net.cpp:433] eltwise3 -> eltwise3
I0102 03:29:15.464521 19302 net.cpp:155] Setting up eltwise3
I0102 03:29:15.464534 19302 net.cpp:163] Top shape: 32 64 56 56 (6422528)
I0102 03:29:15.464545 19302 layer_factory.hpp:76] Creating layer relu3
I0102 03:29:15.464556 19302 net.cpp:110] Creating Layer relu3
I0102 03:29:15.464563 19302 net.cpp:477] relu3 <- eltwise3
I0102 03:29:15.464581 19302 net.cpp:419] relu3 -> eltwise3 (in-place)
I0102 03:29:15.464653 19302 net.cpp:155] Setting up relu3
I0102 03:29:15.464668 19302 net.cpp:163] Top shape: 32 64 56 56 (6422528)
I0102 03:29:15.464679 19302 layer_factory.hpp:76] Creating layer eltwise3_relu3_0_split
I0102 03:29:15.464695 19302 net.cpp:110] Creating Layer eltwise3_relu3_0_split
I0102 03:29:15.464705 19302 net.cpp:477] eltwise3_relu3_0_split <- eltwise3
I0102 03:29:15.464720 19302 net.cpp:433] eltwise3_relu3_0_split -> eltwise3_relu3_0_split_0
I0102 03:29:15.464733 19302 net.cpp:433] eltwise3_relu3_0_split -> eltwise3_relu3_0_split_1
I0102 03:29:15.464747 19302 net.cpp:155] Setting up eltwise3_relu3_0_split
I0102 03:29:15.464759 19302 net.cpp:163] Top shape: 32 64 56 56 (6422528)
I0102 03:29:15.464771 19302 net.cpp:163] Top shape: 32 64 56 56 (6422528)
I0102 03:29:15.464781 19302 layer_factory.hpp:76] Creating layer relu3_p
I0102 03:29:15.464797 19302 net.cpp:110] Creating Layer relu3_p
I0102 03:29:15.464819 19302 net.cpp:477] relu3_p <- eltwise3_relu3_0_split_0
I0102 03:29:15.464834 19302 net.cpp:433] relu3_p -> relu3_p
I0102 03:29:15.465277 19302 net.cpp:155] Setting up relu3_p
I0102 03:29:15.465302 19302 net.cpp:163] Top shape: 32 128 28 28 (3211264)
I0102 03:29:15.465317 19302 layer_factory.hpp:76] Creating layer conv31
I0102 03:29:15.465334 19302 net.cpp:110] Creating Layer conv31
I0102 03:29:15.465344 19302 net.cpp:477] conv31 <- eltwise3_relu3_0_split_1
I0102 03:29:15.465359 19302 net.cpp:433] conv31 -> conv31
I0102 03:29:15.466264 19302 net.cpp:155] Setting up conv31
I0102 03:29:15.466284 19302 net.cpp:163] Top shape: 32 128 28 28 (3211264)
I0102 03:29:15.466297 19302 layer_factory.hpp:76] Creating layer bn31
I0102 03:29:15.466315 19302 net.cpp:110] Creating Layer bn31
I0102 03:29:15.466325 19302 net.cpp:477] bn31 <- conv31
I0102 03:29:15.466356 19302 net.cpp:433] bn31 -> bn31
I0102 03:29:15.466454 19302 net.cpp:155] Setting up bn31
I0102 03:29:15.466470 19302 net.cpp:163] Top shape: 32 128 28 28 (3211264)
I0102 03:29:15.466485 19302 layer_factory.hpp:76] Creating layer relu31
I0102 03:29:15.466500 19302 net.cpp:110] Creating Layer relu31
I0102 03:29:15.466511 19302 net.cpp:477] relu31 <- bn31
I0102 03:29:15.466524 19302 net.cpp:419] relu31 -> bn31 (in-place)
I0102 03:29:15.466701 19302 net.cpp:155] Setting up relu31
I0102 03:29:15.466720 19302 net.cpp:163] Top shape: 32 128 28 28 (3211264)
I0102 03:29:15.466732 19302 layer_factory.hpp:76] Creating layer conv32
I0102 03:29:15.466747 19302 net.cpp:110] Creating Layer conv32
I0102 03:29:15.466758 19302 net.cpp:477] conv32 <- bn31
I0102 03:29:15.466771 19302 net.cpp:433] conv32 -> conv32
I0102 03:29:15.468688 19302 net.cpp:155] Setting up conv32
I0102 03:29:15.468710 19302 net.cpp:163] Top shape: 32 128 28 28 (3211264)
I0102 03:29:15.468725 19302 layer_factory.hpp:76] Creating layer bn32
I0102 03:29:15.468742 19302 net.cpp:110] Creating Layer bn32
I0102 03:29:15.468754 19302 net.cpp:477] bn32 <- conv32
I0102 03:29:15.468768 19302 net.cpp:433] bn32 -> bn32
I0102 03:29:15.468870 19302 net.cpp:155] Setting up bn32
I0102 03:29:15.468888 19302 net.cpp:163] Top shape: 32 128 28 28 (3211264)
I0102 03:29:15.468904 19302 layer_factory.hpp:76] Creating layer relu32
I0102 03:29:15.468917 19302 net.cpp:110] Creating Layer relu32
I0102 03:29:15.468927 19302 net.cpp:477] relu32 <- bn32
I0102 03:29:15.468940 19302 net.cpp:419] relu32 -> bn32 (in-place)
I0102 03:29:15.469014 19302 net.cpp:155] Setting up relu32
I0102 03:29:15.469029 19302 net.cpp:163] Top shape: 32 128 28 28 (3211264)
I0102 03:29:15.469040 19302 layer_factory.hpp:76] Creating layer eltwise4
I0102 03:29:15.469054 19302 net.cpp:110] Creating Layer eltwise4
I0102 03:29:15.469064 19302 net.cpp:477] eltwise4 <- relu3_p
I0102 03:29:15.469076 19302 net.cpp:477] eltwise4 <- bn32
I0102 03:29:15.469089 19302 net.cpp:433] eltwise4 -> eltwise4
I0102 03:29:15.469105 19302 net.cpp:155] Setting up eltwise4
I0102 03:29:15.469116 19302 net.cpp:163] Top shape: 32 128 28 28 (3211264)
I0102 03:29:15.469127 19302 layer_factory.hpp:76] Creating layer relu4
I0102 03:29:15.469141 19302 net.cpp:110] Creating Layer relu4
I0102 03:29:15.469151 19302 net.cpp:477] relu4 <- eltwise4
I0102 03:29:15.469163 19302 net.cpp:419] relu4 -> eltwise4 (in-place)
I0102 03:29:15.469233 19302 net.cpp:155] Setting up relu4
I0102 03:29:15.469249 19302 net.cpp:163] Top shape: 32 128 28 28 (3211264)
I0102 03:29:15.469259 19302 layer_factory.hpp:76] Creating layer eltwise4_relu4_0_split
I0102 03:29:15.469274 19302 net.cpp:110] Creating Layer eltwise4_relu4_0_split
I0102 03:29:15.469283 19302 net.cpp:477] eltwise4_relu4_0_split <- eltwise4
I0102 03:29:15.469302 19302 net.cpp:433] eltwise4_relu4_0_split -> eltwise4_relu4_0_split_0
I0102 03:29:15.469321 19302 net.cpp:433] eltwise4_relu4_0_split -> eltwise4_relu4_0_split_1
I0102 03:29:15.469347 19302 net.cpp:155] Setting up eltwise4_relu4_0_split
I0102 03:29:15.469360 19302 net.cpp:163] Top shape: 32 128 28 28 (3211264)
I0102 03:29:15.469372 19302 net.cpp:163] Top shape: 32 128 28 28 (3211264)
I0102 03:29:15.469395 19302 layer_factory.hpp:76] Creating layer conv33
I0102 03:29:15.469413 19302 net.cpp:110] Creating Layer conv33
I0102 03:29:15.469434 19302 net.cpp:477] conv33 <- eltwise4_relu4_0_split_0
I0102 03:29:15.469449 19302 net.cpp:433] conv33 -> conv33
I0102 03:29:15.471385 19302 net.cpp:155] Setting up conv33
I0102 03:29:15.471410 19302 net.cpp:163] Top shape: 32 128 28 28 (3211264)
I0102 03:29:15.471426 19302 layer_factory.hpp:76] Creating layer bn33
I0102 03:29:15.471442 19302 net.cpp:110] Creating Layer bn33
I0102 03:29:15.471453 19302 net.cpp:477] bn33 <- conv33
I0102 03:29:15.471468 19302 net.cpp:433] bn33 -> bn33
I0102 03:29:15.471570 19302 net.cpp:155] Setting up bn33
I0102 03:29:15.471586 19302 net.cpp:163] Top shape: 32 128 28 28 (3211264)
I0102 03:29:15.471602 19302 layer_factory.hpp:76] Creating layer relu33
I0102 03:29:15.471616 19302 net.cpp:110] Creating Layer relu33
I0102 03:29:15.471627 19302 net.cpp:477] relu33 <- bn33
I0102 03:29:15.471640 19302 net.cpp:419] relu33 -> bn33 (in-place)
I0102 03:29:15.471714 19302 net.cpp:155] Setting up relu33
I0102 03:29:15.471730 19302 net.cpp:163] Top shape: 32 128 28 28 (3211264)
I0102 03:29:15.471741 19302 layer_factory.hpp:76] Creating layer conv34
I0102 03:29:15.471756 19302 net.cpp:110] Creating Layer conv34
I0102 03:29:15.471767 19302 net.cpp:477] conv34 <- bn33
I0102 03:29:15.471781 19302 net.cpp:433] conv34 -> conv34
I0102 03:29:15.473748 19302 net.cpp:155] Setting up conv34
I0102 03:29:15.473773 19302 net.cpp:163] Top shape: 32 128 28 28 (3211264)
I0102 03:29:15.473788 19302 layer_factory.hpp:76] Creating layer bn34
I0102 03:29:15.473805 19302 net.cpp:110] Creating Layer bn34
I0102 03:29:15.473817 19302 net.cpp:477] bn34 <- conv34
I0102 03:29:15.473831 19302 net.cpp:433] bn34 -> bn34
I0102 03:29:15.473937 19302 net.cpp:155] Setting up bn34
I0102 03:29:15.473953 19302 net.cpp:163] Top shape: 32 128 28 28 (3211264)
I0102 03:29:15.473981 19302 layer_factory.hpp:76] Creating layer relu34
I0102 03:29:15.473996 19302 net.cpp:110] Creating Layer relu34
I0102 03:29:15.474007 19302 net.cpp:477] relu34 <- bn34
I0102 03:29:15.474021 19302 net.cpp:419] relu34 -> bn34 (in-place)
I0102 03:29:15.474198 19302 net.cpp:155] Setting up relu34
I0102 03:29:15.474217 19302 net.cpp:163] Top shape: 32 128 28 28 (3211264)
I0102 03:29:15.474230 19302 layer_factory.hpp:76] Creating layer eltwise5
I0102 03:29:15.474243 19302 net.cpp:110] Creating Layer eltwise5
I0102 03:29:15.474256 19302 net.cpp:477] eltwise5 <- eltwise4_relu4_0_split_1
I0102 03:29:15.474269 19302 net.cpp:477] eltwise5 <- bn34
I0102 03:29:15.474282 19302 net.cpp:433] eltwise5 -> eltwise5
I0102 03:29:15.474298 19302 net.cpp:155] Setting up eltwise5
I0102 03:29:15.474310 19302 net.cpp:163] Top shape: 32 128 28 28 (3211264)
I0102 03:29:15.474321 19302 layer_factory.hpp:76] Creating layer relu5
I0102 03:29:15.474334 19302 net.cpp:110] Creating Layer relu5
I0102 03:29:15.474345 19302 net.cpp:477] relu5 <- eltwise5
I0102 03:29:15.474359 19302 net.cpp:419] relu5 -> eltwise5 (in-place)
I0102 03:29:15.474437 19302 net.cpp:155] Setting up relu5
I0102 03:29:15.474452 19302 net.cpp:163] Top shape: 32 128 28 28 (3211264)
I0102 03:29:15.474463 19302 layer_factory.hpp:76] Creating layer eltwise5_relu5_0_split
I0102 03:29:15.474478 19302 net.cpp:110] Creating Layer eltwise5_relu5_0_split
I0102 03:29:15.474488 19302 net.cpp:477] eltwise5_relu5_0_split <- eltwise5
I0102 03:29:15.474501 19302 net.cpp:433] eltwise5_relu5_0_split -> eltwise5_relu5_0_split_0
I0102 03:29:15.474516 19302 net.cpp:433] eltwise5_relu5_0_split -> eltwise5_relu5_0_split_1
I0102 03:29:15.474530 19302 net.cpp:155] Setting up eltwise5_relu5_0_split
I0102 03:29:15.474544 19302 net.cpp:163] Top shape: 32 128 28 28 (3211264)
I0102 03:29:15.474555 19302 net.cpp:163] Top shape: 32 128 28 28 (3211264)
I0102 03:29:15.474565 19302 layer_factory.hpp:76] Creating layer conv35
I0102 03:29:15.474581 19302 net.cpp:110] Creating Layer conv35
I0102 03:29:15.474594 19302 net.cpp:477] conv35 <- eltwise5_relu5_0_split_0
I0102 03:29:15.474609 19302 net.cpp:433] conv35 -> conv35
I0102 03:29:15.476568 19302 net.cpp:155] Setting up conv35
I0102 03:29:15.476590 19302 net.cpp:163] Top shape: 32 128 28 28 (3211264)
I0102 03:29:15.476605 19302 layer_factory.hpp:76] Creating layer bn35
I0102 03:29:15.476624 19302 net.cpp:110] Creating Layer bn35
I0102 03:29:15.476634 19302 net.cpp:477] bn35 <- conv35
I0102 03:29:15.476651 19302 net.cpp:433] bn35 -> bn35
I0102 03:29:15.476755 19302 net.cpp:155] Setting up bn35
I0102 03:29:15.476773 19302 net.cpp:163] Top shape: 32 128 28 28 (3211264)
I0102 03:29:15.476788 19302 layer_factory.hpp:76] Creating layer relu35
I0102 03:29:15.476802 19302 net.cpp:110] Creating Layer relu35
I0102 03:29:15.476814 19302 net.cpp:477] relu35 <- bn35
I0102 03:29:15.476830 19302 net.cpp:419] relu35 -> bn35 (in-place)
I0102 03:29:15.476905 19302 net.cpp:155] Setting up relu35
I0102 03:29:15.476920 19302 net.cpp:163] Top shape: 32 128 28 28 (3211264)
I0102 03:29:15.476932 19302 layer_factory.hpp:76] Creating layer conv36
I0102 03:29:15.476948 19302 net.cpp:110] Creating Layer conv36
I0102 03:29:15.476959 19302 net.cpp:477] conv36 <- bn35
I0102 03:29:15.476974 19302 net.cpp:433] conv36 -> conv36
I0102 03:29:15.480028 19302 net.cpp:155] Setting up conv36
I0102 03:29:15.480059 19302 net.cpp:163] Top shape: 32 128 28 28 (3211264)
I0102 03:29:15.480077 19302 layer_factory.hpp:76] Creating layer bn36
I0102 03:29:15.480095 19302 net.cpp:110] Creating Layer bn36
I0102 03:29:15.480108 19302 net.cpp:477] bn36 <- conv36
I0102 03:29:15.480123 19302 net.cpp:433] bn36 -> bn36
I0102 03:29:15.480233 19302 net.cpp:155] Setting up bn36
I0102 03:29:15.480250 19302 net.cpp:163] Top shape: 32 128 28 28 (3211264)
I0102 03:29:15.480268 19302 layer_factory.hpp:76] Creating layer relu36
I0102 03:29:15.480283 19302 net.cpp:110] Creating Layer relu36
I0102 03:29:15.480293 19302 net.cpp:477] relu36 <- bn36
I0102 03:29:15.480306 19302 net.cpp:419] relu36 -> bn36 (in-place)
I0102 03:29:15.480490 19302 net.cpp:155] Setting up relu36
I0102 03:29:15.480510 19302 net.cpp:163] Top shape: 32 128 28 28 (3211264)
I0102 03:29:15.480521 19302 layer_factory.hpp:76] Creating layer eltwise6
I0102 03:29:15.480540 19302 net.cpp:110] Creating Layer eltwise6
I0102 03:29:15.480551 19302 net.cpp:477] eltwise6 <- eltwise5_relu5_0_split_1
I0102 03:29:15.480564 19302 net.cpp:477] eltwise6 <- bn36
I0102 03:29:15.480577 19302 net.cpp:433] eltwise6 -> eltwise6
I0102 03:29:15.480594 19302 net.cpp:155] Setting up eltwise6
I0102 03:29:15.480607 19302 net.cpp:163] Top shape: 32 128 28 28 (3211264)
I0102 03:29:15.480618 19302 layer_factory.hpp:76] Creating layer relu6
I0102 03:29:15.480630 19302 net.cpp:110] Creating Layer relu6
I0102 03:29:15.480641 19302 net.cpp:477] relu6 <- eltwise6
I0102 03:29:15.480654 19302 net.cpp:419] relu6 -> eltwise6 (in-place)
I0102 03:29:15.480731 19302 net.cpp:155] Setting up relu6
I0102 03:29:15.480746 19302 net.cpp:163] Top shape: 32 128 28 28 (3211264)
I0102 03:29:15.480757 19302 layer_factory.hpp:76] Creating layer eltwise6_relu6_0_split
I0102 03:29:15.480772 19302 net.cpp:110] Creating Layer eltwise6_relu6_0_split
I0102 03:29:15.480783 19302 net.cpp:477] eltwise6_relu6_0_split <- eltwise6
I0102 03:29:15.480797 19302 net.cpp:433] eltwise6_relu6_0_split -> eltwise6_relu6_0_split_0
I0102 03:29:15.480811 19302 net.cpp:433] eltwise6_relu6_0_split -> eltwise6_relu6_0_split_1
I0102 03:29:15.480825 19302 net.cpp:155] Setting up eltwise6_relu6_0_split
I0102 03:29:15.480839 19302 net.cpp:163] Top shape: 32 128 28 28 (3211264)
I0102 03:29:15.480849 19302 net.cpp:163] Top shape: 32 128 28 28 (3211264)
I0102 03:29:15.480859 19302 layer_factory.hpp:76] Creating layer conv37
I0102 03:29:15.480878 19302 net.cpp:110] Creating Layer conv37
I0102 03:29:15.480890 19302 net.cpp:477] conv37 <- eltwise6_relu6_0_split_0
I0102 03:29:15.480904 19302 net.cpp:433] conv37 -> conv37
I0102 03:29:15.482878 19302 net.cpp:155] Setting up conv37
I0102 03:29:15.482903 19302 net.cpp:163] Top shape: 32 128 28 28 (3211264)
I0102 03:29:15.482919 19302 layer_factory.hpp:76] Creating layer bn37
I0102 03:29:15.482935 19302 net.cpp:110] Creating Layer bn37
I0102 03:29:15.482981 19302 net.cpp:477] bn37 <- conv37
I0102 03:29:15.482997 19302 net.cpp:433] bn37 -> bn37
I0102 03:29:15.483108 19302 net.cpp:155] Setting up bn37
I0102 03:29:15.483126 19302 net.cpp:163] Top shape: 32 128 28 28 (3211264)
I0102 03:29:15.483142 19302 layer_factory.hpp:76] Creating layer relu37
I0102 03:29:15.483157 19302 net.cpp:110] Creating Layer relu37
I0102 03:29:15.483167 19302 net.cpp:477] relu37 <- bn37
I0102 03:29:15.483181 19302 net.cpp:419] relu37 -> bn37 (in-place)
I0102 03:29:15.495642 19302 net.cpp:155] Setting up relu37
I0102 03:29:15.495668 19302 net.cpp:163] Top shape: 32 128 28 28 (3211264)
I0102 03:29:15.495681 19302 layer_factory.hpp:76] Creating layer conv38
I0102 03:29:15.495708 19302 net.cpp:110] Creating Layer conv38
I0102 03:29:15.495720 19302 net.cpp:477] conv38 <- bn37
I0102 03:29:15.495736 19302 net.cpp:433] conv38 -> conv38
I0102 03:29:15.497779 19302 net.cpp:155] Setting up conv38
I0102 03:29:15.497808 19302 net.cpp:163] Top shape: 32 128 28 28 (3211264)
I0102 03:29:15.497825 19302 layer_factory.hpp:76] Creating layer bn38
I0102 03:29:15.497844 19302 net.cpp:110] Creating Layer bn38
I0102 03:29:15.497855 19302 net.cpp:477] bn38 <- conv38
I0102 03:29:15.497869 19302 net.cpp:433] bn38 -> bn38
I0102 03:29:15.497982 19302 net.cpp:155] Setting up bn38
I0102 03:29:15.497998 19302 net.cpp:163] Top shape: 32 128 28 28 (3211264)
I0102 03:29:15.498014 19302 layer_factory.hpp:76] Creating layer relu38
I0102 03:29:15.498029 19302 net.cpp:110] Creating Layer relu38
I0102 03:29:15.498040 19302 net.cpp:477] relu38 <- bn38
I0102 03:29:15.498054 19302 net.cpp:419] relu38 -> bn38 (in-place)
I0102 03:29:15.498133 19302 net.cpp:155] Setting up relu38
I0102 03:29:15.498148 19302 net.cpp:163] Top shape: 32 128 28 28 (3211264)
I0102 03:29:15.498159 19302 layer_factory.hpp:76] Creating layer eltwise7
I0102 03:29:15.498175 19302 net.cpp:110] Creating Layer eltwise7
I0102 03:29:15.498188 19302 net.cpp:477] eltwise7 <- eltwise6_relu6_0_split_1
I0102 03:29:15.498199 19302 net.cpp:477] eltwise7 <- bn38
I0102 03:29:15.498211 19302 net.cpp:433] eltwise7 -> eltwise7
I0102 03:29:15.498227 19302 net.cpp:155] Setting up eltwise7
I0102 03:29:15.498239 19302 net.cpp:163] Top shape: 32 128 28 28 (3211264)
I0102 03:29:15.498250 19302 layer_factory.hpp:76] Creating layer relu7
I0102 03:29:15.498262 19302 net.cpp:110] Creating Layer relu7
I0102 03:29:15.498272 19302 net.cpp:477] relu7 <- eltwise7
I0102 03:29:15.498286 19302 net.cpp:419] relu7 -> eltwise7 (in-place)
I0102 03:29:15.498468 19302 net.cpp:155] Setting up relu7
I0102 03:29:15.498487 19302 net.cpp:163] Top shape: 32 128 28 28 (3211264)
I0102 03:29:15.498499 19302 layer_factory.hpp:76] Creating layer eltwise7_relu7_0_split
I0102 03:29:15.498513 19302 net.cpp:110] Creating Layer eltwise7_relu7_0_split
I0102 03:29:15.498523 19302 net.cpp:477] eltwise7_relu7_0_split <- eltwise7
I0102 03:29:15.498538 19302 net.cpp:433] eltwise7_relu7_0_split -> eltwise7_relu7_0_split_0
I0102 03:29:15.498553 19302 net.cpp:433] eltwise7_relu7_0_split -> eltwise7_relu7_0_split_1
I0102 03:29:15.498567 19302 net.cpp:155] Setting up eltwise7_relu7_0_split
I0102 03:29:15.498580 19302 net.cpp:163] Top shape: 32 128 28 28 (3211264)
I0102 03:29:15.498591 19302 net.cpp:163] Top shape: 32 128 28 28 (3211264)
I0102 03:29:15.498602 19302 layer_factory.hpp:76] Creating layer relu7_p
I0102 03:29:15.498618 19302 net.cpp:110] Creating Layer relu7_p
I0102 03:29:15.498630 19302 net.cpp:477] relu7_p <- eltwise7_relu7_0_split_0
I0102 03:29:15.498643 19302 net.cpp:433] relu7_p -> relu7_p
I0102 03:29:15.499321 19302 net.cpp:155] Setting up relu7_p
I0102 03:29:15.499341 19302 net.cpp:163] Top shape: 32 256 14 14 (1605632)
I0102 03:29:15.499356 19302 layer_factory.hpp:76] Creating layer conv41
I0102 03:29:15.499374 19302 net.cpp:110] Creating Layer conv41
I0102 03:29:15.499384 19302 net.cpp:477] conv41 <- eltwise7_relu7_0_split_1
I0102 03:29:15.499399 19302 net.cpp:433] conv41 -> conv41
I0102 03:29:15.502835 19302 net.cpp:155] Setting up conv41
I0102 03:29:15.502863 19302 net.cpp:163] Top shape: 32 256 14 14 (1605632)
I0102 03:29:15.502909 19302 layer_factory.hpp:76] Creating layer bn41
I0102 03:29:15.502928 19302 net.cpp:110] Creating Layer bn41
I0102 03:29:15.502939 19302 net.cpp:477] bn41 <- conv41
I0102 03:29:15.502954 19302 net.cpp:433] bn41 -> bn41
I0102 03:29:15.503067 19302 net.cpp:155] Setting up bn41
I0102 03:29:15.503084 19302 net.cpp:163] Top shape: 32 256 14 14 (1605632)
I0102 03:29:15.503100 19302 layer_factory.hpp:76] Creating layer relu41
I0102 03:29:15.503115 19302 net.cpp:110] Creating Layer relu41
I0102 03:29:15.503125 19302 net.cpp:477] relu41 <- bn41
I0102 03:29:15.503139 19302 net.cpp:419] relu41 -> bn41 (in-place)
I0102 03:29:15.503214 19302 net.cpp:155] Setting up relu41
I0102 03:29:15.503229 19302 net.cpp:163] Top shape: 32 256 14 14 (1605632)
I0102 03:29:15.503240 19302 layer_factory.hpp:76] Creating layer conv42
I0102 03:29:15.503257 19302 net.cpp:110] Creating Layer conv42
I0102 03:29:15.503268 19302 net.cpp:477] conv42 <- bn41
I0102 03:29:15.503288 19302 net.cpp:433] conv42 -> conv42
I0102 03:29:15.509069 19302 net.cpp:155] Setting up conv42
I0102 03:29:15.509095 19302 net.cpp:163] Top shape: 32 256 14 14 (1605632)
I0102 03:29:15.509110 19302 layer_factory.hpp:76] Creating layer bn42
I0102 03:29:15.509127 19302 net.cpp:110] Creating Layer bn42
I0102 03:29:15.509140 19302 net.cpp:477] bn42 <- conv42
I0102 03:29:15.509155 19302 net.cpp:433] bn42 -> bn42
I0102 03:29:15.509266 19302 net.cpp:155] Setting up bn42
I0102 03:29:15.509284 19302 net.cpp:163] Top shape: 32 256 14 14 (1605632)
I0102 03:29:15.509305 19302 layer_factory.hpp:76] Creating layer relu42
I0102 03:29:15.509351 19302 net.cpp:110] Creating Layer relu42
I0102 03:29:15.509363 19302 net.cpp:477] relu42 <- bn42
I0102 03:29:15.509377 19302 net.cpp:419] relu42 -> bn42 (in-place)
I0102 03:29:15.509454 19302 net.cpp:155] Setting up relu42
I0102 03:29:15.509469 19302 net.cpp:163] Top shape: 32 256 14 14 (1605632)
I0102 03:29:15.509480 19302 layer_factory.hpp:76] Creating layer eltwise8
I0102 03:29:15.509496 19302 net.cpp:110] Creating Layer eltwise8
I0102 03:29:15.509507 19302 net.cpp:477] eltwise8 <- relu7_p
I0102 03:29:15.509519 19302 net.cpp:477] eltwise8 <- bn42
I0102 03:29:15.509533 19302 net.cpp:433] eltwise8 -> eltwise8
I0102 03:29:15.509549 19302 net.cpp:155] Setting up eltwise8
I0102 03:29:15.509562 19302 net.cpp:163] Top shape: 32 256 14 14 (1605632)
I0102 03:29:15.509572 19302 layer_factory.hpp:76] Creating layer relu8
I0102 03:29:15.509587 19302 net.cpp:110] Creating Layer relu8
I0102 03:29:15.509596 19302 net.cpp:477] relu8 <- eltwise8
I0102 03:29:15.509610 19302 net.cpp:419] relu8 -> eltwise8 (in-place)
I0102 03:29:15.509683 19302 net.cpp:155] Setting up relu8
I0102 03:29:15.509698 19302 net.cpp:163] Top shape: 32 256 14 14 (1605632)
I0102 03:29:15.509709 19302 layer_factory.hpp:76] Creating layer eltwise8_relu8_0_split
I0102 03:29:15.509723 19302 net.cpp:110] Creating Layer eltwise8_relu8_0_split
I0102 03:29:15.509734 19302 net.cpp:477] eltwise8_relu8_0_split <- eltwise8
I0102 03:29:15.509747 19302 net.cpp:433] eltwise8_relu8_0_split -> eltwise8_relu8_0_split_0
I0102 03:29:15.509763 19302 net.cpp:433] eltwise8_relu8_0_split -> eltwise8_relu8_0_split_1
I0102 03:29:15.509788 19302 net.cpp:155] Setting up eltwise8_relu8_0_split
I0102 03:29:15.509800 19302 net.cpp:163] Top shape: 32 256 14 14 (1605632)
I0102 03:29:15.509812 19302 net.cpp:163] Top shape: 32 256 14 14 (1605632)
I0102 03:29:15.509824 19302 layer_factory.hpp:76] Creating layer conv43
I0102 03:29:15.509840 19302 net.cpp:110] Creating Layer conv43
I0102 03:29:15.509851 19302 net.cpp:477] conv43 <- eltwise8_relu8_0_split_0
I0102 03:29:15.509865 19302 net.cpp:433] conv43 -> conv43
I0102 03:29:15.515630 19302 net.cpp:155] Setting up conv43
I0102 03:29:15.515653 19302 net.cpp:163] Top shape: 32 256 14 14 (1605632)
I0102 03:29:15.515669 19302 layer_factory.hpp:76] Creating layer bn43
I0102 03:29:15.515688 19302 net.cpp:110] Creating Layer bn43
I0102 03:29:15.515702 19302 net.cpp:477] bn43 <- conv43
I0102 03:29:15.515718 19302 net.cpp:433] bn43 -> bn43
I0102 03:29:15.515856 19302 net.cpp:155] Setting up bn43
I0102 03:29:15.515874 19302 net.cpp:163] Top shape: 32 256 14 14 (1605632)
I0102 03:29:15.515890 19302 layer_factory.hpp:76] Creating layer relu43
I0102 03:29:15.515908 19302 net.cpp:110] Creating Layer relu43
I0102 03:29:15.515918 19302 net.cpp:477] relu43 <- bn43
I0102 03:29:15.515933 19302 net.cpp:419] relu43 -> bn43 (in-place)
I0102 03:29:15.516121 19302 net.cpp:155] Setting up relu43
I0102 03:29:15.516141 19302 net.cpp:163] Top shape: 32 256 14 14 (1605632)
I0102 03:29:15.516152 19302 layer_factory.hpp:76] Creating layer conv44
I0102 03:29:15.516168 19302 net.cpp:110] Creating Layer conv44
I0102 03:29:15.516180 19302 net.cpp:477] conv44 <- bn43
I0102 03:29:15.516193 19302 net.cpp:433] conv44 -> conv44
I0102 03:29:15.521956 19302 net.cpp:155] Setting up conv44
I0102 03:29:15.521983 19302 net.cpp:163] Top shape: 32 256 14 14 (1605632)
I0102 03:29:15.521999 19302 layer_factory.hpp:76] Creating layer bn44
I0102 03:29:15.522018 19302 net.cpp:110] Creating Layer bn44
I0102 03:29:15.522030 19302 net.cpp:477] bn44 <- conv44
I0102 03:29:15.522043 19302 net.cpp:433] bn44 -> bn44
I0102 03:29:15.522162 19302 net.cpp:155] Setting up bn44
I0102 03:29:15.522179 19302 net.cpp:163] Top shape: 32 256 14 14 (1605632)
I0102 03:29:15.522197 19302 layer_factory.hpp:76] Creating layer relu44
I0102 03:29:15.522210 19302 net.cpp:110] Creating Layer relu44
I0102 03:29:15.522222 19302 net.cpp:477] relu44 <- bn44
I0102 03:29:15.522236 19302 net.cpp:419] relu44 -> bn44 (in-place)
I0102 03:29:15.522318 19302 net.cpp:155] Setting up relu44
I0102 03:29:15.522335 19302 net.cpp:163] Top shape: 32 256 14 14 (1605632)
I0102 03:29:15.522346 19302 layer_factory.hpp:76] Creating layer eltwise9
I0102 03:29:15.522373 19302 net.cpp:110] Creating Layer eltwise9
I0102 03:29:15.522384 19302 net.cpp:477] eltwise9 <- eltwise8_relu8_0_split_1
I0102 03:29:15.522397 19302 net.cpp:477] eltwise9 <- bn44
I0102 03:29:15.522409 19302 net.cpp:433] eltwise9 -> eltwise9
I0102 03:29:15.522424 19302 net.cpp:155] Setting up eltwise9
I0102 03:29:15.522436 19302 net.cpp:163] Top shape: 32 256 14 14 (1605632)
I0102 03:29:15.522446 19302 layer_factory.hpp:76] Creating layer relu9
I0102 03:29:15.522459 19302 net.cpp:110] Creating Layer relu9
I0102 03:29:15.522469 19302 net.cpp:477] relu9 <- eltwise9
I0102 03:29:15.522483 19302 net.cpp:419] relu9 -> eltwise9 (in-place)
I0102 03:29:15.522559 19302 net.cpp:155] Setting up relu9
I0102 03:29:15.522574 19302 net.cpp:163] Top shape: 32 256 14 14 (1605632)
I0102 03:29:15.522585 19302 layer_factory.hpp:76] Creating layer eltwise9_relu9_0_split
I0102 03:29:15.522598 19302 net.cpp:110] Creating Layer eltwise9_relu9_0_split
I0102 03:29:15.522608 19302 net.cpp:477] eltwise9_relu9_0_split <- eltwise9
I0102 03:29:15.522620 19302 net.cpp:433] eltwise9_relu9_0_split -> eltwise9_relu9_0_split_0
I0102 03:29:15.522637 19302 net.cpp:433] eltwise9_relu9_0_split -> eltwise9_relu9_0_split_1
I0102 03:29:15.522652 19302 net.cpp:155] Setting up eltwise9_relu9_0_split
I0102 03:29:15.522678 19302 net.cpp:163] Top shape: 32 256 14 14 (1605632)
I0102 03:29:15.522689 19302 net.cpp:163] Top shape: 32 256 14 14 (1605632)
I0102 03:29:15.522733 19302 layer_factory.hpp:76] Creating layer conv45
I0102 03:29:15.522752 19302 net.cpp:110] Creating Layer conv45
I0102 03:29:15.522763 19302 net.cpp:477] conv45 <- eltwise9_relu9_0_split_0
I0102 03:29:15.522775 19302 net.cpp:433] conv45 -> conv45
I0102 03:29:15.528604 19302 net.cpp:155] Setting up conv45
I0102 03:29:15.528633 19302 net.cpp:163] Top shape: 32 256 14 14 (1605632)
I0102 03:29:15.528650 19302 layer_factory.hpp:76] Creating layer bn45
I0102 03:29:15.528671 19302 net.cpp:110] Creating Layer bn45
I0102 03:29:15.528683 19302 net.cpp:477] bn45 <- conv45
I0102 03:29:15.528700 19302 net.cpp:433] bn45 -> bn45
I0102 03:29:15.528825 19302 net.cpp:155] Setting up bn45
I0102 03:29:15.528841 19302 net.cpp:163] Top shape: 32 256 14 14 (1605632)
I0102 03:29:15.528858 19302 layer_factory.hpp:76] Creating layer relu45
I0102 03:29:15.528874 19302 net.cpp:110] Creating Layer relu45
I0102 03:29:15.528914 19302 net.cpp:477] relu45 <- bn45
I0102 03:29:15.528928 19302 net.cpp:419] relu45 -> bn45 (in-place)
I0102 03:29:15.529011 19302 net.cpp:155] Setting up relu45
I0102 03:29:15.529026 19302 net.cpp:163] Top shape: 32 256 14 14 (1605632)
I0102 03:29:15.529037 19302 layer_factory.hpp:76] Creating layer conv46
I0102 03:29:15.529057 19302 net.cpp:110] Creating Layer conv46
I0102 03:29:15.529067 19302 net.cpp:477] conv46 <- bn45
I0102 03:29:15.529081 19302 net.cpp:433] conv46 -> conv46
I0102 03:29:15.534970 19302 net.cpp:155] Setting up conv46
I0102 03:29:15.535011 19302 net.cpp:163] Top shape: 32 256 14 14 (1605632)
I0102 03:29:15.535030 19302 layer_factory.hpp:76] Creating layer bn46
I0102 03:29:15.535054 19302 net.cpp:110] Creating Layer bn46
I0102 03:29:15.535068 19302 net.cpp:477] bn46 <- conv46
I0102 03:29:15.535089 19302 net.cpp:433] bn46 -> bn46
I0102 03:29:15.535212 19302 net.cpp:155] Setting up bn46
I0102 03:29:15.535231 19302 net.cpp:163] Top shape: 32 256 14 14 (1605632)
I0102 03:29:15.535282 19302 layer_factory.hpp:76] Creating layer relu46
I0102 03:29:15.535303 19302 net.cpp:110] Creating Layer relu46
I0102 03:29:15.535316 19302 net.cpp:477] relu46 <- bn46
I0102 03:29:15.535332 19302 net.cpp:419] relu46 -> bn46 (in-place)
I0102 03:29:15.535532 19302 net.cpp:155] Setting up relu46
I0102 03:29:15.535555 19302 net.cpp:163] Top shape: 32 256 14 14 (1605632)
I0102 03:29:15.535573 19302 layer_factory.hpp:76] Creating layer eltwise10
I0102 03:29:15.535598 19302 net.cpp:110] Creating Layer eltwise10
I0102 03:29:15.535612 19302 net.cpp:477] eltwise10 <- eltwise9_relu9_0_split_1
I0102 03:29:15.535629 19302 net.cpp:477] eltwise10 <- bn46
I0102 03:29:15.535646 19302 net.cpp:433] eltwise10 -> eltwise10
I0102 03:29:15.535666 19302 net.cpp:155] Setting up eltwise10
I0102 03:29:15.535682 19302 net.cpp:163] Top shape: 32 256 14 14 (1605632)
I0102 03:29:15.535697 19302 layer_factory.hpp:76] Creating layer relu10
I0102 03:29:15.535717 19302 net.cpp:110] Creating Layer relu10
I0102 03:29:15.535730 19302 net.cpp:477] relu10 <- eltwise10
I0102 03:29:15.535745 19302 net.cpp:419] relu10 -> eltwise10 (in-place)
I0102 03:29:15.535835 19302 net.cpp:155] Setting up relu10
I0102 03:29:15.535853 19302 net.cpp:163] Top shape: 32 256 14 14 (1605632)
I0102 03:29:15.535868 19302 layer_factory.hpp:76] Creating layer eltwise10_relu10_0_split
I0102 03:29:15.535887 19302 net.cpp:110] Creating Layer eltwise10_relu10_0_split
I0102 03:29:15.535900 19302 net.cpp:477] eltwise10_relu10_0_split <- eltwise10
I0102 03:29:15.535915 19302 net.cpp:433] eltwise10_relu10_0_split -> eltwise10_relu10_0_split_0
I0102 03:29:15.535933 19302 net.cpp:433] eltwise10_relu10_0_split -> eltwise10_relu10_0_split_1
I0102 03:29:15.535953 19302 net.cpp:155] Setting up eltwise10_relu10_0_split
I0102 03:29:15.535969 19302 net.cpp:163] Top shape: 32 256 14 14 (1605632)
I0102 03:29:15.535984 19302 net.cpp:163] Top shape: 32 256 14 14 (1605632)
I0102 03:29:15.535997 19302 layer_factory.hpp:76] Creating layer conv47
I0102 03:29:15.536016 19302 net.cpp:110] Creating Layer conv47
I0102 03:29:15.536029 19302 net.cpp:477] conv47 <- eltwise10_relu10_0_split_0
I0102 03:29:15.536047 19302 net.cpp:433] conv47 -> conv47
I0102 03:29:15.541841 19302 net.cpp:155] Setting up conv47
I0102 03:29:15.541867 19302 net.cpp:163] Top shape: 32 256 14 14 (1605632)
I0102 03:29:15.541916 19302 layer_factory.hpp:76] Creating layer bn47
I0102 03:29:15.541947 19302 net.cpp:110] Creating Layer bn47
I0102 03:29:15.541960 19302 net.cpp:477] bn47 <- conv47
I0102 03:29:15.541977 19302 net.cpp:433] bn47 -> bn47
I0102 03:29:15.542094 19302 net.cpp:155] Setting up bn47
I0102 03:29:15.542124 19302 net.cpp:163] Top shape: 32 256 14 14 (1605632)
I0102 03:29:15.542140 19302 layer_factory.hpp:76] Creating layer relu47
I0102 03:29:15.542157 19302 net.cpp:110] Creating Layer relu47
I0102 03:29:15.542170 19302 net.cpp:477] relu47 <- bn47
I0102 03:29:15.542183 19302 net.cpp:419] relu47 -> bn47 (in-place)
I0102 03:29:15.542263 19302 net.cpp:155] Setting up relu47
I0102 03:29:15.542278 19302 net.cpp:163] Top shape: 32 256 14 14 (1605632)
I0102 03:29:15.542315 19302 layer_factory.hpp:76] Creating layer conv48
I0102 03:29:15.542331 19302 net.cpp:110] Creating Layer conv48
I0102 03:29:15.542341 19302 net.cpp:477] conv48 <- bn47
I0102 03:29:15.542356 19302 net.cpp:433] conv48 -> conv48
I0102 03:29:15.548079 19302 net.cpp:155] Setting up conv48
I0102 03:29:15.548099 19302 net.cpp:163] Top shape: 32 256 14 14 (1605632)
I0102 03:29:15.548113 19302 layer_factory.hpp:76] Creating layer bn48
I0102 03:29:15.548133 19302 net.cpp:110] Creating Layer bn48
I0102 03:29:15.548144 19302 net.cpp:477] bn48 <- conv48
I0102 03:29:15.548157 19302 net.cpp:433] bn48 -> bn48
I0102 03:29:15.548290 19302 net.cpp:155] Setting up bn48
I0102 03:29:15.548307 19302 net.cpp:163] Top shape: 32 256 14 14 (1605632)
I0102 03:29:15.548323 19302 layer_factory.hpp:76] Creating layer relu48
I0102 03:29:15.548337 19302 net.cpp:110] Creating Layer relu48
I0102 03:29:15.548347 19302 net.cpp:477] relu48 <- bn48
I0102 03:29:15.548363 19302 net.cpp:419] relu48 -> bn48 (in-place)
I0102 03:29:15.548560 19302 net.cpp:155] Setting up relu48
I0102 03:29:15.548579 19302 net.cpp:163] Top shape: 32 256 14 14 (1605632)
I0102 03:29:15.548591 19302 layer_factory.hpp:76] Creating layer eltwise11
I0102 03:29:15.548606 19302 net.cpp:110] Creating Layer eltwise11
I0102 03:29:15.548616 19302 net.cpp:477] eltwise11 <- eltwise10_relu10_0_split_1
I0102 03:29:15.548629 19302 net.cpp:477] eltwise11 <- bn48
I0102 03:29:15.548640 19302 net.cpp:433] eltwise11 -> eltwise11
I0102 03:29:15.548655 19302 net.cpp:155] Setting up eltwise11
I0102 03:29:15.548667 19302 net.cpp:163] Top shape: 32 256 14 14 (1605632)
I0102 03:29:15.548678 19302 layer_factory.hpp:76] Creating layer relu11
I0102 03:29:15.548691 19302 net.cpp:110] Creating Layer relu11
I0102 03:29:15.548701 19302 net.cpp:477] relu11 <- eltwise11
I0102 03:29:15.548715 19302 net.cpp:419] relu11 -> eltwise11 (in-place)
I0102 03:29:15.548786 19302 net.cpp:155] Setting up relu11
I0102 03:29:15.548801 19302 net.cpp:163] Top shape: 32 256 14 14 (1605632)
I0102 03:29:15.548812 19302 layer_factory.hpp:76] Creating layer eltwise11_relu11_0_split
I0102 03:29:15.548825 19302 net.cpp:110] Creating Layer eltwise11_relu11_0_split
I0102 03:29:15.548835 19302 net.cpp:477] eltwise11_relu11_0_split <- eltwise11
I0102 03:29:15.548849 19302 net.cpp:433] eltwise11_relu11_0_split -> eltwise11_relu11_0_split_0
I0102 03:29:15.548864 19302 net.cpp:433] eltwise11_relu11_0_split -> eltwise11_relu11_0_split_1
I0102 03:29:15.548878 19302 net.cpp:155] Setting up eltwise11_relu11_0_split
I0102 03:29:15.548892 19302 net.cpp:163] Top shape: 32 256 14 14 (1605632)
I0102 03:29:15.548904 19302 net.cpp:163] Top shape: 32 256 14 14 (1605632)
I0102 03:29:15.548914 19302 layer_factory.hpp:76] Creating layer conv49
I0102 03:29:15.548929 19302 net.cpp:110] Creating Layer conv49
I0102 03:29:15.548939 19302 net.cpp:477] conv49 <- eltwise11_relu11_0_split_0
I0102 03:29:15.548956 19302 net.cpp:433] conv49 -> conv49
I0102 03:29:15.554666 19302 net.cpp:155] Setting up conv49
I0102 03:29:15.554687 19302 net.cpp:163] Top shape: 32 256 14 14 (1605632)
I0102 03:29:15.554702 19302 layer_factory.hpp:76] Creating layer bn49
I0102 03:29:15.554720 19302 net.cpp:110] Creating Layer bn49
I0102 03:29:15.554733 19302 net.cpp:477] bn49 <- conv49
I0102 03:29:15.554749 19302 net.cpp:433] bn49 -> bn49
I0102 03:29:15.554877 19302 net.cpp:155] Setting up bn49
I0102 03:29:15.554893 19302 net.cpp:163] Top shape: 32 256 14 14 (1605632)
I0102 03:29:15.554908 19302 layer_factory.hpp:76] Creating layer relu49
I0102 03:29:15.554924 19302 net.cpp:110] Creating Layer relu49
I0102 03:29:15.554934 19302 net.cpp:477] relu49 <- bn49
I0102 03:29:15.554947 19302 net.cpp:419] relu49 -> bn49 (in-place)
I0102 03:29:15.555027 19302 net.cpp:155] Setting up relu49
I0102 03:29:15.555042 19302 net.cpp:163] Top shape: 32 256 14 14 (1605632)
I0102 03:29:15.555053 19302 layer_factory.hpp:76] Creating layer conv410
I0102 03:29:15.555068 19302 net.cpp:110] Creating Layer conv410
I0102 03:29:15.555078 19302 net.cpp:477] conv410 <- bn49
I0102 03:29:15.555110 19302 net.cpp:433] conv410 -> conv410
I0102 03:29:15.560833 19302 net.cpp:155] Setting up conv410
I0102 03:29:15.560856 19302 net.cpp:163] Top shape: 32 256 14 14 (1605632)
I0102 03:29:15.560873 19302 layer_factory.hpp:76] Creating layer bn410
I0102 03:29:15.560892 19302 net.cpp:110] Creating Layer bn410
I0102 03:29:15.560904 19302 net.cpp:477] bn410 <- conv410
I0102 03:29:15.560919 19302 net.cpp:433] bn410 -> bn410
I0102 03:29:15.561038 19302 net.cpp:155] Setting up bn410
I0102 03:29:15.561055 19302 net.cpp:163] Top shape: 32 256 14 14 (1605632)
I0102 03:29:15.561071 19302 layer_factory.hpp:76] Creating layer relu410
I0102 03:29:15.561085 19302 net.cpp:110] Creating Layer relu410
I0102 03:29:15.561096 19302 net.cpp:477] relu410 <- bn410
I0102 03:29:15.561111 19302 net.cpp:419] relu410 -> bn410 (in-place)
I0102 03:29:15.561193 19302 net.cpp:155] Setting up relu410
I0102 03:29:15.561209 19302 net.cpp:163] Top shape: 32 256 14 14 (1605632)
I0102 03:29:15.561220 19302 layer_factory.hpp:76] Creating layer eltwise12
I0102 03:29:15.561233 19302 net.cpp:110] Creating Layer eltwise12
I0102 03:29:15.561244 19302 net.cpp:477] eltwise12 <- eltwise11_relu11_0_split_1
I0102 03:29:15.561257 19302 net.cpp:477] eltwise12 <- bn410
I0102 03:29:15.561282 19302 net.cpp:433] eltwise12 -> eltwise12
I0102 03:29:15.561302 19302 net.cpp:155] Setting up eltwise12
I0102 03:29:15.561316 19302 net.cpp:163] Top shape: 32 256 14 14 (1605632)
I0102 03:29:15.561338 19302 layer_factory.hpp:76] Creating layer relu12
I0102 03:29:15.561352 19302 net.cpp:110] Creating Layer relu12
I0102 03:29:15.561396 19302 net.cpp:477] relu12 <- eltwise12
I0102 03:29:15.561411 19302 net.cpp:419] relu12 -> eltwise12 (in-place)
I0102 03:29:15.561597 19302 net.cpp:155] Setting up relu12
I0102 03:29:15.561617 19302 net.cpp:163] Top shape: 32 256 14 14 (1605632)
I0102 03:29:15.561628 19302 layer_factory.hpp:76] Creating layer eltwise12_relu12_0_split
I0102 03:29:15.561645 19302 net.cpp:110] Creating Layer eltwise12_relu12_0_split
I0102 03:29:15.561655 19302 net.cpp:477] eltwise12_relu12_0_split <- eltwise12
I0102 03:29:15.561682 19302 net.cpp:433] eltwise12_relu12_0_split -> eltwise12_relu12_0_split_0
I0102 03:29:15.561697 19302 net.cpp:433] eltwise12_relu12_0_split -> eltwise12_relu12_0_split_1
I0102 03:29:15.561712 19302 net.cpp:433] eltwise12_relu12_0_split -> eltwise12_relu12_0_split_2
I0102 03:29:15.561728 19302 net.cpp:155] Setting up eltwise12_relu12_0_split
I0102 03:29:15.561739 19302 net.cpp:163] Top shape: 32 256 14 14 (1605632)
I0102 03:29:15.561750 19302 net.cpp:163] Top shape: 32 256 14 14 (1605632)
I0102 03:29:15.561761 19302 net.cpp:163] Top shape: 32 256 14 14 (1605632)
I0102 03:29:15.561772 19302 layer_factory.hpp:76] Creating layer conv411
I0102 03:29:15.561787 19302 net.cpp:110] Creating Layer conv411
I0102 03:29:15.561797 19302 net.cpp:477] conv411 <- eltwise12_relu12_0_split_0
I0102 03:29:15.561812 19302 net.cpp:433] conv411 -> conv411
I0102 03:29:15.567538 19302 net.cpp:155] Setting up conv411
I0102 03:29:15.567576 19302 net.cpp:163] Top shape: 32 256 14 14 (1605632)
I0102 03:29:15.567591 19302 layer_factory.hpp:76] Creating layer bn411
I0102 03:29:15.567630 19302 net.cpp:110] Creating Layer bn411
I0102 03:29:15.567651 19302 net.cpp:477] bn411 <- conv411
I0102 03:29:15.567678 19302 net.cpp:433] bn411 -> bn411
I0102 03:29:15.567798 19302 net.cpp:155] Setting up bn411
I0102 03:29:15.567816 19302 net.cpp:163] Top shape: 32 256 14 14 (1605632)
I0102 03:29:15.567831 19302 layer_factory.hpp:76] Creating layer relu411
I0102 03:29:15.567844 19302 net.cpp:110] Creating Layer relu411
I0102 03:29:15.567854 19302 net.cpp:477] relu411 <- bn411
I0102 03:29:15.567868 19302 net.cpp:419] relu411 -> bn411 (in-place)
I0102 03:29:15.567948 19302 net.cpp:155] Setting up relu411
I0102 03:29:15.567965 19302 net.cpp:163] Top shape: 32 256 14 14 (1605632)
I0102 03:29:15.567975 19302 layer_factory.hpp:76] Creating layer conv412
I0102 03:29:15.567989 19302 net.cpp:110] Creating Layer conv412
I0102 03:29:15.568001 19302 net.cpp:477] conv412 <- bn411
I0102 03:29:15.575973 19302 net.cpp:433] conv412 -> conv412
I0102 03:29:15.581773 19302 net.cpp:155] Setting up conv412
I0102 03:29:15.581795 19302 net.cpp:163] Top shape: 32 256 14 14 (1605632)
I0102 03:29:15.581810 19302 layer_factory.hpp:76] Creating layer bn412
I0102 03:29:15.581826 19302 net.cpp:110] Creating Layer bn412
I0102 03:29:15.581837 19302 net.cpp:477] bn412 <- conv412
I0102 03:29:15.581853 19302 net.cpp:433] bn412 -> bn412
I0102 03:29:15.581971 19302 net.cpp:155] Setting up bn412
I0102 03:29:15.581989 19302 net.cpp:163] Top shape: 32 256 14 14 (1605632)
I0102 03:29:15.582005 19302 layer_factory.hpp:76] Creating layer relu412
I0102 03:29:15.582018 19302 net.cpp:110] Creating Layer relu412
I0102 03:29:15.582029 19302 net.cpp:477] relu412 <- bn412
I0102 03:29:15.582043 19302 net.cpp:419] relu412 -> bn412 (in-place)
I0102 03:29:15.582124 19302 net.cpp:155] Setting up relu412
I0102 03:29:15.582139 19302 net.cpp:163] Top shape: 32 256 14 14 (1605632)
I0102 03:29:15.582164 19302 layer_factory.hpp:76] Creating layer eltwise13
I0102 03:29:15.582178 19302 net.cpp:110] Creating Layer eltwise13
I0102 03:29:15.582190 19302 net.cpp:477] eltwise13 <- eltwise12_relu12_0_split_1
I0102 03:29:15.582201 19302 net.cpp:477] eltwise13 <- bn412
I0102 03:29:15.582217 19302 net.cpp:433] eltwise13 -> eltwise13
I0102 03:29:15.582233 19302 net.cpp:155] Setting up eltwise13
I0102 03:29:15.582247 19302 net.cpp:163] Top shape: 32 256 14 14 (1605632)
I0102 03:29:15.582260 19302 layer_factory.hpp:76] Creating layer relu13
I0102 03:29:15.582274 19302 net.cpp:110] Creating Layer relu13
I0102 03:29:15.582285 19302 net.cpp:477] relu13 <- eltwise13
I0102 03:29:15.582298 19302 net.cpp:419] relu13 -> eltwise13 (in-place)
I0102 03:29:15.582375 19302 net.cpp:155] Setting up relu13
I0102 03:29:15.582391 19302 net.cpp:163] Top shape: 32 256 14 14 (1605632)
I0102 03:29:15.582401 19302 layer_factory.hpp:76] Creating layer relu13_p
I0102 03:29:15.582419 19302 net.cpp:110] Creating Layer relu13_p
I0102 03:29:15.582430 19302 net.cpp:477] relu13_p <- eltwise12_relu12_0_split_2
I0102 03:29:15.582445 19302 net.cpp:433] relu13_p -> relu13_p
I0102 03:29:15.584286 19302 net.cpp:155] Setting up relu13_p
I0102 03:29:15.584308 19302 net.cpp:163] Top shape: 32 512 7 7 (802816)
I0102 03:29:15.584323 19302 layer_factory.hpp:76] Creating layer conv51
I0102 03:29:15.584342 19302 net.cpp:110] Creating Layer conv51
I0102 03:29:15.584354 19302 net.cpp:477] conv51 <- eltwise13
I0102 03:29:15.584369 19302 net.cpp:433] conv51 -> conv51
I0102 03:29:15.595374 19302 net.cpp:155] Setting up conv51
I0102 03:29:15.595402 19302 net.cpp:163] Top shape: 32 512 7 7 (802816)
I0102 03:29:15.595419 19302 layer_factory.hpp:76] Creating layer bn51
I0102 03:29:15.595453 19302 net.cpp:110] Creating Layer bn51
I0102 03:29:15.595468 19302 net.cpp:477] bn51 <- conv51
I0102 03:29:15.595489 19302 net.cpp:433] bn51 -> bn51
I0102 03:29:15.595609 19302 net.cpp:155] Setting up bn51
I0102 03:29:15.595628 19302 net.cpp:163] Top shape: 32 512 7 7 (802816)
I0102 03:29:15.595648 19302 layer_factory.hpp:76] Creating layer relu51
I0102 03:29:15.595664 19302 net.cpp:110] Creating Layer relu51
I0102 03:29:15.595679 19302 net.cpp:477] relu51 <- bn51
I0102 03:29:15.595695 19302 net.cpp:419] relu51 -> bn51 (in-place)
I0102 03:29:15.595882 19302 net.cpp:155] Setting up relu51
I0102 03:29:15.595903 19302 net.cpp:163] Top shape: 32 512 7 7 (802816)
I0102 03:29:15.595921 19302 layer_factory.hpp:76] Creating layer conv52
I0102 03:29:15.595970 19302 net.cpp:110] Creating Layer conv52
I0102 03:29:15.595985 19302 net.cpp:477] conv52 <- bn51
I0102 03:29:15.596007 19302 net.cpp:433] conv52 -> conv52
I0102 03:29:15.617542 19302 net.cpp:155] Setting up conv52
I0102 03:29:15.617584 19302 net.cpp:163] Top shape: 32 512 7 7 (802816)
I0102 03:29:15.617602 19302 layer_factory.hpp:76] Creating layer bn52
I0102 03:29:15.617625 19302 net.cpp:110] Creating Layer bn52
I0102 03:29:15.617650 19302 net.cpp:477] bn52 <- conv52
I0102 03:29:15.617681 19302 net.cpp:433] bn52 -> bn52
I0102 03:29:15.617808 19302 net.cpp:155] Setting up bn52
I0102 03:29:15.617854 19302 net.cpp:163] Top shape: 32 512 7 7 (802816)
I0102 03:29:15.617872 19302 layer_factory.hpp:76] Creating layer relu52
I0102 03:29:15.617900 19302 net.cpp:110] Creating Layer relu52
I0102 03:29:15.617911 19302 net.cpp:477] relu52 <- bn52
I0102 03:29:15.617924 19302 net.cpp:419] relu52 -> bn52 (in-place)
I0102 03:29:15.618003 19302 net.cpp:155] Setting up relu52
I0102 03:29:15.618021 19302 net.cpp:163] Top shape: 32 512 7 7 (802816)
I0102 03:29:15.618032 19302 layer_factory.hpp:76] Creating layer eltwise14
I0102 03:29:15.618048 19302 net.cpp:110] Creating Layer eltwise14
I0102 03:29:15.618059 19302 net.cpp:477] eltwise14 <- relu13_p
I0102 03:29:15.618072 19302 net.cpp:477] eltwise14 <- bn52
I0102 03:29:15.618085 19302 net.cpp:433] eltwise14 -> eltwise14
I0102 03:29:15.618100 19302 net.cpp:155] Setting up eltwise14
I0102 03:29:15.618113 19302 net.cpp:163] Top shape: 32 512 7 7 (802816)
I0102 03:29:15.618124 19302 layer_factory.hpp:76] Creating layer relu14
I0102 03:29:15.618139 19302 net.cpp:110] Creating Layer relu14
I0102 03:29:15.618150 19302 net.cpp:477] relu14 <- eltwise14
I0102 03:29:15.618163 19302 net.cpp:419] relu14 -> eltwise14 (in-place)
I0102 03:29:15.618249 19302 net.cpp:155] Setting up relu14
I0102 03:29:15.618265 19302 net.cpp:163] Top shape: 32 512 7 7 (802816)
I0102 03:29:15.618289 19302 layer_factory.hpp:76] Creating layer eltwise14_relu14_0_split
I0102 03:29:15.618304 19302 net.cpp:110] Creating Layer eltwise14_relu14_0_split
I0102 03:29:15.618314 19302 net.cpp:477] eltwise14_relu14_0_split <- eltwise14
I0102 03:29:15.618330 19302 net.cpp:433] eltwise14_relu14_0_split -> eltwise14_relu14_0_split_0
I0102 03:29:15.618345 19302 net.cpp:433] eltwise14_relu14_0_split -> eltwise14_relu14_0_split_1
I0102 03:29:15.618360 19302 net.cpp:155] Setting up eltwise14_relu14_0_split
I0102 03:29:15.618382 19302 net.cpp:163] Top shape: 32 512 7 7 (802816)
I0102 03:29:15.618394 19302 net.cpp:163] Top shape: 32 512 7 7 (802816)
I0102 03:29:15.618404 19302 layer_factory.hpp:76] Creating layer conv53
I0102 03:29:15.618423 19302 net.cpp:110] Creating Layer conv53
I0102 03:29:15.618434 19302 net.cpp:477] conv53 <- eltwise14_relu14_0_split_0
I0102 03:29:15.618450 19302 net.cpp:433] conv53 -> conv53
I0102 03:29:15.640125 19302 net.cpp:155] Setting up conv53
I0102 03:29:15.640163 19302 net.cpp:163] Top shape: 32 512 7 7 (802816)
I0102 03:29:15.640189 19302 layer_factory.hpp:76] Creating layer bn53
I0102 03:29:15.640213 19302 net.cpp:110] Creating Layer bn53
I0102 03:29:15.640250 19302 net.cpp:477] bn53 <- conv53
I0102 03:29:15.640277 19302 net.cpp:433] bn53 -> bn53
I0102 03:29:15.640406 19302 net.cpp:155] Setting up bn53
I0102 03:29:15.640426 19302 net.cpp:163] Top shape: 32 512 7 7 (802816)
I0102 03:29:15.640453 19302 layer_factory.hpp:76] Creating layer relu53
I0102 03:29:15.640475 19302 net.cpp:110] Creating Layer relu53
I0102 03:29:15.640487 19302 net.cpp:477] relu53 <- bn53
I0102 03:29:15.640504 19302 net.cpp:419] relu53 -> bn53 (in-place)
I0102 03:29:15.640601 19302 net.cpp:155] Setting up relu53
I0102 03:29:15.640619 19302 net.cpp:163] Top shape: 32 512 7 7 (802816)
I0102 03:29:15.640637 19302 layer_factory.hpp:76] Creating layer conv54
I0102 03:29:15.640657 19302 net.cpp:110] Creating Layer conv54
I0102 03:29:15.640671 19302 net.cpp:477] conv54 <- bn53
I0102 03:29:15.640691 19302 net.cpp:433] conv54 -> conv54
I0102 03:29:15.662246 19302 net.cpp:155] Setting up conv54
I0102 03:29:15.662282 19302 net.cpp:163] Top shape: 32 512 7 7 (802816)
I0102 03:29:15.662307 19302 layer_factory.hpp:76] Creating layer bn54
I0102 03:29:15.662328 19302 net.cpp:110] Creating Layer bn54
I0102 03:29:15.662364 19302 net.cpp:477] bn54 <- conv54
I0102 03:29:15.662392 19302 net.cpp:433] bn54 -> bn54
I0102 03:29:15.662518 19302 net.cpp:155] Setting up bn54
I0102 03:29:15.662539 19302 net.cpp:163] Top shape: 32 512 7 7 (802816)
I0102 03:29:15.662570 19302 layer_factory.hpp:76] Creating layer relu54
I0102 03:29:15.662587 19302 net.cpp:110] Creating Layer relu54
I0102 03:29:15.662603 19302 net.cpp:477] relu54 <- bn54
I0102 03:29:15.662621 19302 net.cpp:419] relu54 -> bn54 (in-place)
I0102 03:29:15.662835 19302 net.cpp:155] Setting up relu54
I0102 03:29:15.662871 19302 net.cpp:163] Top shape: 32 512 7 7 (802816)
I0102 03:29:15.662919 19302 layer_factory.hpp:76] Creating layer eltwise15
I0102 03:29:15.662938 19302 net.cpp:110] Creating Layer eltwise15
I0102 03:29:15.662952 19302 net.cpp:477] eltwise15 <- eltwise14_relu14_0_split_1
I0102 03:29:15.662969 19302 net.cpp:477] eltwise15 <- bn54
I0102 03:29:15.662988 19302 net.cpp:433] eltwise15 -> eltwise15
I0102 03:29:15.663009 19302 net.cpp:155] Setting up eltwise15
I0102 03:29:15.663024 19302 net.cpp:163] Top shape: 32 512 7 7 (802816)
I0102 03:29:15.663039 19302 layer_factory.hpp:76] Creating layer relu15
I0102 03:29:15.663055 19302 net.cpp:110] Creating Layer relu15
I0102 03:29:15.663070 19302 net.cpp:477] relu15 <- eltwise15
I0102 03:29:15.663086 19302 net.cpp:419] relu15 -> eltwise15 (in-place)
I0102 03:29:15.663166 19302 net.cpp:155] Setting up relu15
I0102 03:29:15.663197 19302 net.cpp:163] Top shape: 32 512 7 7 (802816)
I0102 03:29:15.663210 19302 layer_factory.hpp:76] Creating layer eltwise15_relu15_0_split
I0102 03:29:15.663229 19302 net.cpp:110] Creating Layer eltwise15_relu15_0_split
I0102 03:29:15.663241 19302 net.cpp:477] eltwise15_relu15_0_split <- eltwise15
I0102 03:29:15.663259 19302 net.cpp:433] eltwise15_relu15_0_split -> eltwise15_relu15_0_split_0
I0102 03:29:15.663276 19302 net.cpp:433] eltwise15_relu15_0_split -> eltwise15_relu15_0_split_1
I0102 03:29:15.663295 19302 net.cpp:155] Setting up eltwise15_relu15_0_split
I0102 03:29:15.663311 19302 net.cpp:163] Top shape: 32 512 7 7 (802816)
I0102 03:29:15.663326 19302 net.cpp:163] Top shape: 32 512 7 7 (802816)
I0102 03:29:15.663341 19302 layer_factory.hpp:76] Creating layer conv55
I0102 03:29:15.663360 19302 net.cpp:110] Creating Layer conv55
I0102 03:29:15.663372 19302 net.cpp:477] conv55 <- eltwise15_relu15_0_split_0
I0102 03:29:15.663391 19302 net.cpp:433] conv55 -> conv55
I0102 03:29:15.684859 19302 net.cpp:155] Setting up conv55
I0102 03:29:15.684896 19302 net.cpp:163] Top shape: 32 512 7 7 (802816)
I0102 03:29:15.684913 19302 layer_factory.hpp:76] Creating layer bn55
I0102 03:29:15.684933 19302 net.cpp:110] Creating Layer bn55
I0102 03:29:15.684945 19302 net.cpp:477] bn55 <- conv55
I0102 03:29:15.684963 19302 net.cpp:433] bn55 -> bn55
I0102 03:29:15.685091 19302 net.cpp:155] Setting up bn55
I0102 03:29:15.685108 19302 net.cpp:163] Top shape: 32 512 7 7 (802816)
I0102 03:29:15.685124 19302 layer_factory.hpp:76] Creating layer relu55
I0102 03:29:15.685138 19302 net.cpp:110] Creating Layer relu55
I0102 03:29:15.685149 19302 net.cpp:477] relu55 <- bn55
I0102 03:29:15.685163 19302 net.cpp:419] relu55 -> bn55 (in-place)
I0102 03:29:15.685258 19302 net.cpp:155] Setting up relu55
I0102 03:29:15.685276 19302 net.cpp:163] Top shape: 32 512 7 7 (802816)
I0102 03:29:15.685286 19302 layer_factory.hpp:76] Creating layer conv56
I0102 03:29:15.685308 19302 net.cpp:110] Creating Layer conv56
I0102 03:29:15.685338 19302 net.cpp:477] conv56 <- bn55
I0102 03:29:15.685354 19302 net.cpp:433] conv56 -> conv56
I0102 03:29:15.706887 19302 net.cpp:155] Setting up conv56
I0102 03:29:15.706923 19302 net.cpp:163] Top shape: 32 512 7 7 (802816)
I0102 03:29:15.706946 19302 layer_factory.hpp:76] Creating layer bn56
I0102 03:29:15.706970 19302 net.cpp:110] Creating Layer bn56
I0102 03:29:15.707015 19302 net.cpp:477] bn56 <- conv56
I0102 03:29:15.707043 19302 net.cpp:433] bn56 -> bn56
I0102 03:29:15.707178 19302 net.cpp:155] Setting up bn56
I0102 03:29:15.707198 19302 net.cpp:163] Top shape: 32 512 7 7 (802816)
I0102 03:29:15.707226 19302 layer_factory.hpp:76] Creating layer relu56
I0102 03:29:15.707243 19302 net.cpp:110] Creating Layer relu56
I0102 03:29:15.707259 19302 net.cpp:477] relu56 <- bn56
I0102 03:29:15.707278 19302 net.cpp:419] relu56 -> bn56 (in-place)
I0102 03:29:15.707471 19302 net.cpp:155] Setting up relu56
I0102 03:29:15.707494 19302 net.cpp:163] Top shape: 32 512 7 7 (802816)
I0102 03:29:15.707512 19302 layer_factory.hpp:76] Creating layer eltwise16
I0102 03:29:15.707563 19302 net.cpp:110] Creating Layer eltwise16
I0102 03:29:15.707579 19302 net.cpp:477] eltwise16 <- eltwise15_relu15_0_split_1
I0102 03:29:15.707595 19302 net.cpp:477] eltwise16 <- bn56
I0102 03:29:15.707612 19302 net.cpp:433] eltwise16 -> eltwise16
I0102 03:29:15.707633 19302 net.cpp:155] Setting up eltwise16
I0102 03:29:15.707648 19302 net.cpp:163] Top shape: 32 512 7 7 (802816)
I0102 03:29:15.707662 19302 layer_factory.hpp:76] Creating layer relu16
I0102 03:29:15.707679 19302 net.cpp:110] Creating Layer relu16
I0102 03:29:15.707693 19302 net.cpp:477] relu16 <- eltwise16
I0102 03:29:15.707708 19302 net.cpp:419] relu16 -> eltwise16 (in-place)
I0102 03:29:15.707798 19302 net.cpp:155] Setting up relu16
I0102 03:29:15.707816 19302 net.cpp:163] Top shape: 32 512 7 7 (802816)
I0102 03:29:15.707830 19302 layer_factory.hpp:76] Creating layer pool5
I0102 03:29:15.707850 19302 net.cpp:110] Creating Layer pool5
I0102 03:29:15.707862 19302 net.cpp:477] pool5 <- eltwise16
I0102 03:29:15.707880 19302 net.cpp:433] pool5 -> pool5
I0102 03:29:15.707969 19302 net.cpp:155] Setting up pool5
I0102 03:29:15.707988 19302 net.cpp:163] Top shape: 32 512 1 1 (16384)
I0102 03:29:15.708003 19302 layer_factory.hpp:76] Creating layer ip1
I0102 03:29:15.708022 19302 net.cpp:110] Creating Layer ip1
I0102 03:29:15.708035 19302 net.cpp:477] ip1 <- pool5
I0102 03:29:15.708055 19302 net.cpp:433] ip1 -> ip1
I0102 03:29:15.712826 19302 net.cpp:155] Setting up ip1
I0102 03:29:15.712848 19302 net.cpp:163] Top shape: 32 1000 (32000)
I0102 03:29:15.712864 19302 layer_factory.hpp:76] Creating layer accuracy
I0102 03:29:15.712888 19302 net.cpp:110] Creating Layer accuracy
I0102 03:29:15.712900 19302 net.cpp:477] accuracy <- ip1
I0102 03:29:15.712913 19302 net.cpp:477] accuracy <- label
I0102 03:29:15.712926 19302 net.cpp:433] accuracy -> accuracy
I0102 03:29:15.712947 19302 net.cpp:155] Setting up accuracy
I0102 03:29:15.712960 19302 net.cpp:163] Top shape: (1)
…
