…
I1220 14:07:59.257338 17575 solver.cpp:97] Creating training net from net file: ./rsdnet34.prototxt
I1220 14:07:59.260601 17575 net.cpp:339] The NetState phase (0) differed from the phase (1) specified by a rule in layer data
I1220 14:07:59.261328 17575 net.cpp:50] Initializing net from parameters: 
name: "RsdNet34"
state {
  phase: TRAIN
}
layer {
  name: "data"
  type: "Data"
  top: "data"
  top: "label"
  include {
    phase: TRAIN
  }
  transform_param {
    scale: 0.0039215689
    mirror: true
    mean_file: "./mean_224gray.binaryproto"
  }
  data_param {
    source: "./train_224gray_lmdb"
    batch_size: 48
    backend: LMDB
  }
}
layer {
  name: "conv01"
  type: "Convolution"
  bottom: "data"
  top: "conv01"
  param {
    lr_mult: 1
    decay_mult: 1
  }
  param {
    lr_mult: 2
    decay_mult: 0
  }
  convolution_param {
    num_output: 64
    pad: 3
    kernel_size: 7
    stride: 2
    weight_filler {
      type: "xavier"
    }
    bias_filler {
      type: "constant"
    }
  }
}
layer {
  name: "bn01"
  type: "BatchNorm"
  bottom: "conv01"
  top: "bn01"
  batch_norm_param {
    use_global_stats: false
  }
}
layer {
  name: "relu01"
  type: "ReLU"
  bottom: "bn01"
  top: "bn01"
}
layer {
  name: "pool1"
  type: "Pooling"
  bottom: "bn01"
  top: "pool1"
  pooling_param {
    pool: MAX
    kernel_size: 3
    stride: 2
  }
}
layer {
  name: "conv21"
  type: "Convolution"
  bottom: "pool1"
  top: "conv21"
  param {
    lr_mult: 1
    decay_mult: 1
  }
  param {
    lr_mult: 2
    decay_mult: 0
  }
  convolution_param {
    num_output: 64
    pad: 1
    kernel_size: 3
    stride: 1
    weight_filler {
      type: "xavier"
    }
    bias_filler {
      type: "constant"
    }
  }
}
layer {
  name: "bn21"
  type: "BatchNorm"
  bottom: "conv21"
  top: "bn21"
  batch_norm_param {
    use_global_stats: false
  }
}
layer {
  name: "relu21"
  type: "ReLU"
  bottom: "bn21"
  top: "bn21"
}
layer {
  name: "conv22"
  type: "Convolution"
  bottom: "bn21"
  top: "conv22"
  param {
    lr_mult: 1
    decay_mult: 1
  }
  param {
    lr_mult: 2
    decay_mult: 0
  }
  convolution_param {
    num_output: 64
    pad: 1
    kernel_size: 3
    stride: 1
    weight_filler {
      type: "xavier"
    }
    bias_filler {
      type: "constant"
    }
  }
}
layer {
  name: "bn22"
  type: "BatchNorm"
  bottom: "conv22"
  top: "bn22"
  batch_norm_param {
    use_global_stats: false
  }
}
layer {
  name: "relu22"
  type: "ReLU"
  bottom: "bn22"
  top: "bn22"
}
layer {
  name: "eltwise1"
  type: "Eltwise"
  bottom: "pool1"
  bottom: "bn22"
  top: "eltwise1"
  eltwise_param {
    operation: SUM
  }
}
layer {
  name: "relu1"
  type: "ReLU"
  bottom: "eltwise1"
  top: "eltwise1"
}
layer {
  name: "conv23"
  type: "Convolution"
  bottom: "eltwise1"
  top: "conv23"
  param {
    lr_mult: 1
    decay_mult: 1
  }
  param {
    lr_mult: 2
    decay_mult: 0
  }
  convolution_param {
    num_output: 64
    pad: 1
    kernel_size: 3
    stride: 1
    weight_filler {
      type: "xavier"
    }
    bias_filler {
      type: "constant"
    }
  }
}
layer {
  name: "bn23"
  type: "BatchNorm"
  bottom: "conv23"
  top: "bn23"
  batch_norm_param {
    use_global_stats: false
  }
}
layer {
  name: "relu23"
  type: "ReLU"
  bottom: "bn23"
  top: "bn23"
}
layer {
  name: "conv24"
  type: "Convolution"
  bottom: "bn23"
  top: "conv24"
  param {
    lr_mult: 1
    decay_mult: 1
  }
  param {
    lr_mult: 2
    decay_mult: 0
  }
  convolution_param {
    num_output: 64
    pad: 1
    kernel_size: 3
    stride: 1
    weight_filler {
      type: "xavier"
    }
    bias_filler {
      type: "constant"
    }
  }
}
layer {
  name: "bn24"
  type: "BatchNorm"
  bottom: "conv24"
  top: "bn24"
  batch_norm_param {
    use_global_stats: false
  }
}
layer {
  name: "relu24"
  type: "ReLU"
  bottom: "bn24"
  top: "bn24"
}
layer {
  name: "eltwise2"
  type: "Eltwise"
  bottom: "eltwise1"
  bottom: "bn24"
  top: "eltwise2"
  eltwise_param {
    operation: SUM
  }
}
layer {
  name: "relu2"
  type: "ReLU"
  bottom: "eltwise2"
  top: "eltwise2"
}
layer {
  name: "conv25"
  type: "Convolution"
  bottom: "bn24"
  top: "conv25"
  param {
    lr_mult: 1
    decay_mult: 1
  }
  param {
    lr_mult: 2
    decay_mult: 0
  }
  convolution_param {
    num_output: 64
    pad: 1
    kernel_size: 3
    stride: 1
    weight_filler {
      type: "xavier"
    }
    bias_filler {
      type: "constant"
    }
  }
}
layer {
  name: "bn25"
  type: "BatchNorm"
  bottom: "conv25"
  top: "bn25"
  batch_norm_param {
    use_global_stats: false
  }
}
layer {
  name: "relu25"
  type: "ReLU"
  bottom: "bn25"
  top: "bn25"
}
layer {
  name: "conv26"
  type: "Convolution"
  bottom: "bn25"
  top: "conv26"
  param {
    lr_mult: 1
    decay_mult: 1
  }
  param {
    lr_mult: 2
    decay_mult: 0
  }
  convolution_param {
    num_output: 64
    pad: 1
    kernel_size: 3
    stride: 1
    weight_filler {
      type: "xavier"
    }
    bias_filler {
      type: "constant"
    }
  }
}
layer {
  name: "bn26"
  type: "BatchNorm"
  bottom: "conv26"
  top: "bn26"
  batch_norm_param {
    use_global_stats: false
  }
}
layer {
  name: "relu26"
  type: "ReLU"
  bottom: "bn26"
  top: "bn26"
}
layer {
  name: "eltwise3"
  type: "Eltwise"
  bottom: "eltwise2"
  bottom: "bn26"
  top: "eltwise3"
  eltwise_param {
    operation: SUM
  }
}
layer {
  name: "relu3"
  type: "ReLU"
  bottom: "eltwise3"
  top: "eltwise3"
}
layer {
  name: "relu3_p"
  type: "Convolution"
  bottom: "eltwise3"
  top: "relu3_p"
  param {
    lr_mult: 1
    decay_mult: 1
  }
  param {
    lr_mult: 2
    decay_mult: 0
  }
  convolution_param {
    num_output: 128
    pad: 0
    kernel_size: 1
    stride: 2
    weight_filler {
      type: "xavier"
    }
    bias_filler {
      type: "constant"
    }
  }
}
layer {
  name: "relu3_bn"
  type: "BatchNorm"
  bottom: "relu3_p"
  top: "relu3_bn"
  batch_norm_param {
    use_global_stats: false
  }
}
layer {
  name: "conv31"
  type: "Convolution"
  bottom: "eltwise3"
  top: "conv31"
  param {
    lr_mult: 1
    decay_mult: 1
  }
  param {
    lr_mult: 2
    decay_mult: 0
  }
  convolution_param {
    num_output: 128
    pad: 1
    kernel_size: 3
    stride: 2
    weight_filler {
      type: "xavier"
    }
    bias_filler {
      type: "constant"
    }
  }
}
layer {
  name: "bn31"
  type: "BatchNorm"
  bottom: "conv31"
  top: "bn31"
  batch_norm_param {
    use_global_stats: false
  }
}
layer {
  name: "relu31"
  type: "ReLU"
  bottom: "bn31"
  top: "bn31"
}
layer {
  name: "conv32"
  type: "Convolution"
  bottom: "bn31"
  top: "conv32"
  param {
    lr_mult: 1
    decay_mult: 1
  }
  param {
    lr_mult: 2
    decay_mult: 0
  }
  convolution_param {
    num_output: 128
    pad: 1
    kernel_size: 3
    stride: 1
    weight_filler {
      type: "xavier"
    }
    bias_filler {
      type: "constant"
    }
  }
}
layer {
  name: "bn32"
  type: "BatchNorm"
  bottom: "conv32"
  top: "bn32"
  batch_norm_param {
    use_global_stats: false
  }
}
layer {
  name: "relu32"
  type: "ReLU"
  bottom: "bn32"
  top: "bn32"
}
layer {
  name: "eltwise4"
  type: "Eltwise"
  bottom: "relu3_bn"
  bottom: "bn32"
  top: "eltwise4"
  eltwise_param {
    operation: SUM
  }
}
layer {
  name: "relu4"
  type: "ReLU"
  bottom: "eltwise4"
  top: "eltwise4"
}
layer {
  name: "conv33"
  type: "Convolution"
  bottom: "eltwise4"
  top: "conv33"
  param {
    lr_mult: 1
    decay_mult: 1
  }
  param {
    lr_mult: 2
    decay_mult: 0
  }
  convolution_param {
    num_output: 128
    pad: 1
    kernel_size: 3
    stride: 1
    weight_filler {
      type: "xavier"
    }
    bias_filler {
      type: "constant"
    }
  }
}
layer {
  name: "bn33"
  type: "BatchNorm"
  bottom: "conv33"
  top: "bn33"
  batch_norm_param {
    use_global_stats: false
  }
}
layer {
  name: "relu33"
  type: "ReLU"
  bottom: "bn33"
  top: "bn33"
}
layer {
  name: "conv34"
  type: "Convolution"
  bottom: "bn33"
  top: "conv34"
  param {
    lr_mult: 1
    decay_mult: 1
  }
  param {
    lr_mult: 2
    decay_mult: 0
  }
  convolution_param {
    num_output: 128
    pad: 1
    kernel_size: 3
    stride: 1
    weight_filler {
      type: "xavier"
    }
    bias_filler {
      type: "constant"
    }
  }
}
layer {
  name: "bn34"
  type: "BatchNorm"
  bottom: "conv34"
  top: "bn34"
  batch_norm_param {
    use_global_stats: false
  }
}
layer {
  name: "relu34"
  type: "ReLU"
  bottom: "bn34"
  top: "bn34"
}
layer {
  name: "eltwise5"
  type: "Eltwise"
  bottom: "eltwise4"
  bottom: "bn34"
  top: "eltwise5"
  eltwise_param {
    operation: SUM
  }
}
layer {
  name: "relu5"
  type: "ReLU"
  bottom: "eltwise5"
  top: "eltwise5"
}
layer {
  name: "conv35"
  type: "Convolution"
  bottom: "eltwise5"
  top: "conv35"
  param {
    lr_mult: 1
    decay_mult: 1
  }
  param {
    lr_mult: 2
    decay_mult: 0
  }
  convolution_param {
    num_output: 128
    pad: 1
    kernel_size: 3
    stride: 1
    weight_filler {
      type: "xavier"
    }
    bias_filler {
      type: "constant"
    }
  }
}
layer {
  name: "bn35"
  type: "BatchNorm"
  bottom: "conv35"
  top: "bn35"
  batch_norm_param {
    use_global_stats: false
  }
}
layer {
  name: "relu35"
  type: "ReLU"
  bottom: "bn35"
  top: "bn35"
}
layer {
  name: "conv36"
  type: "Convolution"
  bottom: "bn35"
  top: "conv36"
  param {
    lr_mult: 1
    decay_mult: 1
  }
  param {
    lr_mult: 2
    decay_mult: 0
  }
  convolution_param {
    num_output: 128
    pad: 1
    kernel_size: 3
    stride: 1
    weight_filler {
      type: "xavier"
    }
    bias_filler {
      type: "constant"
    }
  }
}
layer {
  name: "bn36"
  type: "BatchNorm"
  bottom: "conv36"
  top: "bn36"
  batch_norm_param {
    use_global_stats: false
  }
}
layer {
  name: "relu36"
  type: "ReLU"
  bottom: "bn36"
  top: "bn36"
}
layer {
  name: "eltwise6"
  type: "Eltwise"
  bottom: "eltwise5"
  bottom: "bn36"
  top: "eltwise6"
  eltwise_param {
    operation: SUM
  }
}
layer {
  name: "relu6"
  type: "ReLU"
  bottom: "eltwise6"
  top: "eltwise6"
}
layer {
  name: "conv37"
  type: "Convolution"
  bottom: "eltwise6"
  top: "conv37"
  param {
    lr_mult: 1
    decay_mult: 1
  }
  param {
    lr_mult: 2
    decay_mult: 0
  }
  convolution_param {
    num_output: 128
    pad: 1
    kernel_size: 3
    stride: 1
    weight_filler {
      type: "xavier"
    }
    bias_filler {
      type: "constant"
    }
  }
}
layer {
  name: "bn37"
  type: "BatchNorm"
  bottom: "conv37"
  top: "bn37"
  batch_norm_param {
    use_global_stats: false
  }
}
layer {
  name: "relu37"
  type: "ReLU"
  bottom: "bn37"
  top: "bn37"
}
layer {
  name: "conv38"
  type: "Convolution"
  bottom: "bn37"
  top: "conv38"
  param {
    lr_mult: 1
    decay_mult: 1
  }
  param {
    lr_mult: 2
    decay_mult: 0
  }
  convolution_param {
    num_output: 128
    pad: 1
    kernel_size: 3
    stride: 1
    weight_filler {
      type: "xavier"
    }
    bias_filler {
      type: "constant"
    }
  }
}
layer {
  name: "bn38"
  type: "BatchNorm"
  bottom: "conv38"
  top: "bn38"
  batch_norm_param {
    use_global_stats: false
  }
}
layer {
  name: "relu38"
  type: "ReLU"
  bottom: "bn38"
  top: "bn38"
}
layer {
  name: "eltwise7"
  type: "Eltwise"
  bottom: "eltwise6"
  bottom: "bn38"
  top: "eltwise7"
  eltwise_param {
    operation: SUM
  }
}
layer {
  name: "relu7"
  type: "ReLU"
  bottom: "eltwise7"
  top: "eltwise7"
}
layer {
  name: "relu7_p"
  type: "Convolution"
  bottom: "eltwise7"
  top: "relu7_p"
  param {
    lr_mult: 1
    decay_mult: 1
  }
  param {
    lr_mult: 2
    decay_mult: 0
  }
  convolution_param {
    num_output: 256
    pad: 0
    kernel_size: 1
    stride: 2
    weight_filler {
      type: "xavier"
    }
    bias_filler {
      type: "constant"
    }
  }
}
layer {
  name: "relu7_bn"
  type: "BatchNorm"
  bottom: "relu7_p"
  top: "relu7_bn"
  batch_norm_param {
    use_global_stats: false
  }
}
layer {
  name: "conv41"
  type: "Convolution"
  bottom: "eltwise7"
  top: "conv41"
  param {
    lr_mult: 1
    decay_mult: 1
  }
  param {
    lr_mult: 2
    decay_mult: 0
  }
  convolution_param {
    num_output: 256
    pad: 1
    kernel_size: 3
    stride: 2
    weight_filler {
      type: "xavier"
    }
    bias_filler {
      type: "constant"
    }
  }
}
layer {
  name: "bn41"
  type: "BatchNorm"
  bottom: "conv41"
  top: "bn41"
  batch_norm_param {
    use_global_stats: false
  }
}
layer {
  name: "relu41"
  type: "ReLU"
  bottom: "bn41"
  top: "bn41"
}
layer {
  name: "conv42"
  type: "Convolution"
  bottom: "bn41"
  top: "conv42"
  param {
    lr_mult: 1
    decay_mult: 1
  }
  param {
    lr_mult: 2
    decay_mult: 0
  }
  convolution_param {
    num_output: 256
    pad: 1
    kernel_size: 3
    stride: 1
    weight_filler {
      type: "xavier"
    }
    bias_filler {
      type: "constant"
    }
  }
}
layer {
  name: "bn42"
  type: "BatchNorm"
  bottom: "conv42"
  top: "bn42"
  batch_norm_param {
    use_global_stats: false
  }
}
layer {
  name: "relu42"
  type: "ReLU"
  bottom: "bn42"
  top: "bn42"
}
layer {
  name: "eltwise8"
  type: "Eltwise"
  bottom: "relu7_bn"
  bottom: "bn42"
  top: "eltwise8"
  eltwise_param {
    operation: SUM
  }
}
layer {
  name: "relu8"
  type: "ReLU"
  bottom: "eltwise8"
  top: "eltwise8"
}
layer {
  name: "conv43"
  type: "Convolution"
  bottom: "eltwise8"
  top: "conv43"
  param {
    lr_mult: 1
    decay_mult: 1
  }
  param {
    lr_mult: 2
    decay_mult: 0
  }
  convolution_param {
    num_output: 256
    pad: 1
    kernel_size: 3
    stride: 1
    weight_filler {
      type: "xavier"
    }
    bias_filler {
      type: "constant"
    }
  }
}
layer {
  name: "bn43"
  type: "BatchNorm"
  bottom: "conv43"
  top: "bn43"
  batch_norm_param {
    use_global_stats: false
  }
}
layer {
  name: "relu43"
  type: "ReLU"
  bottom: "bn43"
  top: "bn43"
}
layer {
  name: "conv44"
  type: "Convolution"
  bottom: "bn43"
  top: "conv44"
  param {
    lr_mult: 1
    decay_mult: 1
  }
  param {
    lr_mult: 2
    decay_mult: 0
  }
  convolution_param {
    num_output: 256
    pad: 1
    kernel_size: 3
    stride: 1
    weight_filler {
      type: "xavier"
    }
    bias_filler {
      type: "constant"
    }
  }
}
layer {
  name: "bn44"
  type: "BatchNorm"
  bottom: "conv44"
  top: "bn44"
  batch_norm_param {
    use_global_stats: false
  }
}
layer {
  name: "relu44"
  type: "ReLU"
  bottom: "bn44"
  top: "bn44"
}
layer {
  name: "eltwise9"
  type: "Eltwise"
  bottom: "eltwise8"
  bottom: "bn44"
  top: "eltwise9"
  eltwise_param {
    operation: SUM
  }
}
layer {
  name: "relu9"
  type: "ReLU"
  bottom: "eltwise9"
  top: "eltwise9"
}
layer {
  name: "conv45"
  type: "Convolution"
  bottom: "eltwise9"
  top: "conv45"
  param {
    lr_mult: 1
    decay_mult: 1
  }
  param {
    lr_mult: 2
    decay_mult: 0
  }
  convolution_param {
    num_output: 256
    pad: 1
    kernel_size: 3
    stride: 1
    weight_filler {
      type: "xavier"
    }
    bias_filler {
      type: "constant"
    }
  }
}
layer {
  name: "bn45"
  type: "BatchNorm"
  bottom: "conv45"
  top: "bn45"
  batch_norm_param {
    use_global_stats: false
  }
}
layer {
  name: "relu45"
  type: "ReLU"
  bottom: "bn45"
  top: "bn45"
}
layer {
  name: "conv46"
  type: "Convolution"
  bottom: "bn45"
  top: "conv46"
  param {
    lr_mult: 1
    decay_mult: 1
  }
  param {
    lr_mult: 2
    decay_mult: 0
  }
  convolution_param {
    num_output: 256
    pad: 1
    kernel_size: 3
    stride: 1
    weight_filler {
      type: "xavier"
    }
    bias_filler {
      type: "constant"
    }
  }
}
layer {
  name: "bn46"
  type: "BatchNorm"
  bottom: "conv46"
  top: "bn46"
  batch_norm_param {
    use_global_stats: false
  }
}
layer {
  name: "relu46"
  type: "ReLU"
  bottom: "bn46"
  top: "bn46"
}
layer {
  name: "eltwise10"
  type: "Eltwise"
  bottom: "eltwise9"
  bottom: "bn46"
  top: "eltwise10"
  eltwise_param {
    operation: SUM
  }
}
layer {
  name: "relu10"
  type: "ReLU"
  bottom: "eltwise10"
  top: "eltwise10"
}
layer {
  name: "conv47"
  type: "Convolution"
  bottom: "eltwise10"
  top: "conv47"
  param {
    lr_mult: 1
    decay_mult: 1
  }
  param {
    lr_mult: 2
    decay_mult: 0
  }
  convolution_param {
    num_output: 256
    pad: 1
    kernel_size: 3
    stride: 1
    weight_filler {
      type: "xavier"
    }
    bias_filler {
      type: "constant"
    }
  }
}
layer {
  name: "bn47"
  type: "BatchNorm"
  bottom: "conv47"
  top: "bn47"
  batch_norm_param {
    use_global_stats: false
  }
}
layer {
  name: "relu47"
  type: "ReLU"
  bottom: "bn47"
  top: "bn47"
}
layer {
  name: "conv48"
  type: "Convolution"
  bottom: "bn47"
  top: "conv48"
  param {
    lr_mult: 1
    decay_mult: 1
  }
  param {
    lr_mult: 2
    decay_mult: 0
  }
  convolution_param {
    num_output: 256
    pad: 1
    kernel_size: 3
    stride: 1
    weight_filler {
      type: "xavier"
    }
    bias_filler {
      type: "constant"
    }
  }
}
layer {
  name: "bn48"
  type: "BatchNorm"
  bottom: "conv48"
  top: "bn48"
  batch_norm_param {
    use_global_stats: false
  }
}
layer {
  name: "relu48"
  type: "ReLU"
  bottom: "bn48"
  top: "bn48"
}
layer {
  name: "eltwise11"
  type: "Eltwise"
  bottom: "eltwise10"
  bottom: "bn48"
  top: "eltwise11"
  eltwise_param {
    operation: SUM
  }
}
layer {
  name: "relu11"
  type: "ReLU"
  bottom: "eltwise11"
  top: "eltwise11"
}
layer {
  name: "conv49"
  type: "Convolution"
  bottom: "eltwise11"
  top: "conv49"
  param {
    lr_mult: 1
    decay_mult: 1
  }
  param {
    lr_mult: 2
    decay_mult: 0
  }
  convolution_param {
    num_output: 256
    pad: 1
    kernel_size: 3
    stride: 1
    weight_filler {
      type: "xavier"
    }
    bias_filler {
      type: "constant"
    }
  }
}
layer {
  name: "bn49"
  type: "BatchNorm"
  bottom: "conv49"
  top: "bn49"
  batch_norm_param {
    use_global_stats: false
  }
}
layer {
  name: "relu49"
  type: "ReLU"
  bottom: "bn49"
  top: "bn49"
}
layer {
  name: "conv410"
  type: "Convolution"
  bottom: "bn49"
  top: "conv410"
  param {
    lr_mult: 1
    decay_mult: 1
  }
  param {
    lr_mult: 2
    decay_mult: 0
  }
  convolution_param {
    num_output: 256
    pad: 1
    kernel_size: 3
    stride: 1
    weight_filler {
      type: "xavier"
    }
    bias_filler {
      type: "constant"
    }
  }
}
layer {
  name: "bn410"
  type: "BatchNorm"
  bottom: "conv410"
  top: "bn410"
  batch_norm_param {
    use_global_stats: false
  }
}
layer {
  name: "relu410"
  type: "ReLU"
  bottom: "bn410"
  top: "bn410"
}
layer {
  name: "eltwise12"
  type: "Eltwise"
  bottom: "eltwise11"
  bottom: "bn410"
  top: "eltwise12"
  eltwise_param {
    operation: SUM
  }
}
layer {
  name: "relu12"
  type: "ReLU"
  bottom: "eltwise12"
  top: "eltwise12"
}
layer {
  name: "conv411"
  type: "Convolution"
  bottom: "eltwise12"
  top: "conv411"
  param {
    lr_mult: 1
    decay_mult: 1
  }
  param {
    lr_mult: 2
    decay_mult: 0
  }
  convolution_param {
    num_output: 256
    pad: 1
    kernel_size: 3
    stride: 1
    weight_filler {
      type: "xavier"
    }
    bias_filler {
      type: "constant"
    }
  }
}
layer {
  name: "bn411"
  type: "BatchNorm"
  bottom: "conv411"
  top: "bn411"
  batch_norm_param {
    use_global_stats: false
  }
}
layer {
  name: "relu411"
  type: "ReLU"
  bottom: "bn411"
  top: "bn411"
}
layer {
  name: "conv412"
  type: "Convolution"
  bottom: "bn411"
  top: "conv412"
  param {
    lr_mult: 1
    decay_mult: 1
  }
  param {
    lr_mult: 2
    decay_mult: 0
  }
  convolution_param {
    num_output: 256
    pad: 1
    kernel_size: 3
    stride: 1
    weight_filler {
      type: "xavier"
    }
    bias_filler {
      type: "constant"
    }
  }
}
layer {
  name: "bn412"
  type: "BatchNorm"
  bottom: "conv412"
  top: "bn412"
  batch_norm_param {
    use_global_stats: false
  }
}
layer {
  name: "relu412"
  type: "ReLU"
  bottom: "bn412"
  top: "bn412"
}
layer {
  name: "eltwise13"
  type: "Eltwise"
  bottom: "eltwise12"
  bottom: "bn412"
  top: "eltwise13"
  eltwise_param {
    operation: SUM
  }
}
layer {
  name: "relu13"
  type: "ReLU"
  bottom: "eltwise13"
  top: "eltwise13"
}
layer {
  name: "relu13_p"
  type: "Convolution"
  bottom: "eltwise12"
  top: "relu13_p"
  param {
    lr_mult: 1
    decay_mult: 1
  }
  param {
    lr_mult: 2
    decay_mult: 0
  }
  convolution_param {
    num_output: 512
    pad: 0
    kernel_size: 1
    stride: 2
    weight_filler {
      type: "xavier"
    }
    bias_filler {
      type: "constant"
    }
  }
}
layer {
  name: "relu13_bn"
  type: "BatchNorm"
  bottom: "relu13_p"
  top: "relu13_bn"
  batch_norm_param {
    use_global_stats: false
  }
}
layer {
  name: "conv51"
  type: "Convolution"
  bottom: "eltwise13"
  top: "conv51"
  param {
    lr_mult: 1
    decay_mult: 1
  }
  param {
    lr_mult: 2
    decay_mult: 0
  }
  convolution_param {
    num_output: 512
    pad: 1
    kernel_size: 3
    stride: 2
    weight_filler {
      type: "xavier"
    }
    bias_filler {
      type: "constant"
    }
  }
}
layer {
  name: "bn51"
  type: "BatchNorm"
  bottom: "conv51"
  top: "bn51"
  batch_norm_param {
    use_global_stats: false
  }
}
layer {
  name: "relu51"
  type: "ReLU"
  bottom: "bn51"
  top: "bn51"
}
layer {
  name: "conv52"
  type: "Convolution"
  bottom: "bn51"
  top: "conv52"
  param {
    lr_mult: 1
    decay_mult: 1
  }
  param {
    lr_mult: 2
    decay_mult: 0
  }
  convolution_param {
    num_output: 512
    pad: 1
    kernel_size: 3
    stride: 1
    weight_filler {
      type: "xavier"
    }
    bias_filler {
      type: "constant"
    }
  }
}
layer {
  name: "bn52"
  type: "BatchNorm"
  bottom: "conv52"
  top: "bn52"
  batch_norm_param {
    use_global_stats: false
  }
}
layer {
  name: "relu52"
  type: "ReLU"
  bottom: "bn52"
  top: "bn52"
}
layer {
  name: "eltwise14"
  type: "Eltwise"
  bottom: "relu13_bn"
  bottom: "bn52"
  top: "eltwise14"
  eltwise_param {
    operation: SUM
  }
}
layer {
  name: "relu14"
  type: "ReLU"
  bottom: "eltwise14"
  top: "eltwise14"
}
layer {
  name: "conv53"
  type: "Convolution"
  bottom: "eltwise14"
  top: "conv53"
  param {
    lr_mult: 1
    decay_mult: 1
  }
  param {
    lr_mult: 2
    decay_mult: 0
  }
  convolution_param {
    num_output: 512
    pad: 1
    kernel_size: 3
    stride: 1
    weight_filler {
      type: "xavier"
    }
    bias_filler {
      type: "constant"
    }
  }
}
layer {
  name: "bn53"
  type: "BatchNorm"
  bottom: "conv53"
  top: "bn53"
  batch_norm_param {
    use_global_stats: false
  }
}
layer {
  name: "relu53"
  type: "ReLU"
  bottom: "bn53"
  top: "bn53"
}
layer {
  name: "conv54"
  type: "Convolution"
  bottom: "bn53"
  top: "conv54"
  param {
    lr_mult: 1
    decay_mult: 1
  }
  param {
    lr_mult: 2
    decay_mult: 0
  }
  convolution_param {
    num_output: 512
    pad: 1
    kernel_size: 3
    stride: 1
    weight_filler {
      type: "xavier"
    }
    bias_filler {
      type: "constant"
    }
  }
}
layer {
  name: "bn54"
  type: "BatchNorm"
  bottom: "conv54"
  top: "bn54"
  batch_norm_param {
    use_global_stats: false
  }
}
layer {
  name: "relu54"
  type: "ReLU"
  bottom: "bn54"
  top: "bn54"
}
layer {
  name: "eltwise15"
  type: "Eltwise"
  bottom: "eltwise14"
  bottom: "bn54"
  top: "eltwise15"
  eltwise_param {
    operation: SUM
  }
}
layer {
  name: "relu15"
  type: "ReLU"
  bottom: "eltwise15"
  top: "eltwise15"
}
layer {
  name: "conv55"
  type: "Convolution"
  bottom: "eltwise15"
  top: "conv55"
  param {
    lr_mult: 1
    decay_mult: 1
  }
  param {
    lr_mult: 2
    decay_mult: 0
  }
  convolution_param {
    num_output: 512
    pad: 1
    kernel_size: 3
    stride: 1
    weight_filler {
      type: "xavier"
    }
    bias_filler {
      type: "constant"
    }
  }
}
layer {
  name: "bn55"
  type: "BatchNorm"
  bottom: "conv55"
  top: "bn55"
  batch_norm_param {
    use_global_stats: false
  }
}
layer {
  name: "relu55"
  type: "ReLU"
  bottom: "bn55"
  top: "bn55"
}
layer {
  name: "conv56"
  type: "Convolution"
  bottom: "bn55"
  top: "conv56"
  param {
    lr_mult: 1
    decay_mult: 1
  }
  param {
    lr_mult: 2
    decay_mult: 0
  }
  convolution_param {
    num_output: 512
    pad: 1
    kernel_size: 3
    stride: 1
    weight_filler {
      type: "xavier"
    }
    bias_filler {
      type: "constant"
    }
  }
}
layer {
  name: "bn56"
  type: "BatchNorm"
  bottom: "conv56"
  top: "bn56"
  batch_norm_param {
    use_global_stats: false
  }
}
layer {
  name: "relu56"
  type: "ReLU"
  bottom: "bn56"
  top: "bn56"
}
layer {
  name: "eltwise16"
  type: "Eltwise"
  bottom: "eltwise15"
  bottom: "bn56"
  top: "eltwise16"
  eltwise_param {
    operation: SUM
  }
}
layer {
  name: "relu16"
  type: "ReLU"
  bottom: "eltwise16"
  top: "eltwise16"
}
layer {
  name: "pool5"
  type: "Pooling"
  bottom: "eltwise16"
  top: "pool5"
  pooling_param {
    pool: AVE
    kernel_size: 7
    stride: 1
  }
}
layer {
  name: "ip1"
  type: "InnerProduct"
  bottom: "pool5"
  top: "ip1"
  param {
    lr_mult: 1
    decay_mult: 1
  }
  param {
    lr_mult: 2
    decay_mult: 0
  }
  inner_product_param {
    num_output: 10575
    weight_filler {
      type: "xavier"
    }
    bias_filler {
      type: "constant"
    }
  }
}
layer {
  name: "loss"
  type: "SoftmaxWithLoss"
  bottom: "ip1"
  bottom: "label"
  top: "loss"
  include {
    phase: TRAIN
  }
}
layer {
  name: "accuracy"
  type: "Accuracy"
  bottom: "ip1"
  bottom: "label"
  top: "accuracy"
}
I1220 14:07:59.269331 17575 layer_factory.hpp:76] Creating layer data
I1220 14:07:59.269893 17575 net.cpp:110] Creating Layer data
I1220 14:07:59.269963 17575 net.cpp:433] data -> data
I1220 14:07:59.270010 17575 net.cpp:433] data -> label
I1220 14:07:59.270040 17575 data_transformer.cpp:23] Loading mean file from: ./mean_224gray.binaryproto
I1220 14:07:59.292192 17577 db_lmdb.cpp:22] Opened lmdb ./train_224gray_lmdb
I1220 14:07:59.292985 17575 data_layer.cpp:44] output data size: 48,1,224,224
I1220 14:07:59.317759 17575 net.cpp:155] Setting up data
I1220 14:07:59.317816 17575 net.cpp:163] Top shape: 48 1 224 224 (2408448)
I1220 14:07:59.317831 17575 net.cpp:163] Top shape: 48 (48)
I1220 14:07:59.317849 17575 layer_factory.hpp:76] Creating layer label_data_1_split
I1220 14:07:59.317878 17575 net.cpp:110] Creating Layer label_data_1_split
I1220 14:07:59.317893 17575 net.cpp:477] label_data_1_split <- label
I1220 14:07:59.317914 17575 net.cpp:433] label_data_1_split -> label_data_1_split_0
I1220 14:07:59.317935 17575 net.cpp:433] label_data_1_split -> label_data_1_split_1
I1220 14:07:59.317957 17575 net.cpp:155] Setting up label_data_1_split
I1220 14:07:59.317971 17575 net.cpp:163] Top shape: 48 (48)
I1220 14:07:59.317982 17575 net.cpp:163] Top shape: 48 (48)
I1220 14:07:59.317993 17575 layer_factory.hpp:76] Creating layer conv01
I1220 14:07:59.318017 17575 net.cpp:110] Creating Layer conv01
I1220 14:07:59.318029 17575 net.cpp:477] conv01 <- data
I1220 14:07:59.318043 17575 net.cpp:433] conv01 -> conv01
I1220 14:07:59.627205 17575 net.cpp:155] Setting up conv01
I1220 14:07:59.627256 17575 net.cpp:163] Top shape: 48 64 112 112 (38535168)
I1220 14:07:59.627295 17575 layer_factory.hpp:76] Creating layer bn01
I1220 14:07:59.627322 17575 net.cpp:110] Creating Layer bn01
I1220 14:07:59.627395 17575 net.cpp:477] bn01 <- conv01
I1220 14:07:59.627423 17575 net.cpp:433] bn01 -> bn01
I1220 14:07:59.627532 17575 net.cpp:155] Setting up bn01
I1220 14:07:59.627552 17575 net.cpp:163] Top shape: 48 64 112 112 (38535168)
I1220 14:07:59.627586 17575 layer_factory.hpp:76] Creating layer relu01
I1220 14:07:59.627606 17575 net.cpp:110] Creating Layer relu01
I1220 14:07:59.627621 17575 net.cpp:477] relu01 <- bn01
I1220 14:07:59.627640 17575 net.cpp:419] relu01 -> bn01 (in-place)
I1220 14:07:59.627720 17575 net.cpp:155] Setting up relu01
I1220 14:07:59.627739 17575 net.cpp:163] Top shape: 48 64 112 112 (38535168)
I1220 14:07:59.627755 17575 layer_factory.hpp:76] Creating layer pool1
I1220 14:07:59.627776 17575 net.cpp:110] Creating Layer pool1
I1220 14:07:59.627790 17575 net.cpp:477] pool1 <- bn01
I1220 14:07:59.627806 17575 net.cpp:433] pool1 -> pool1
I1220 14:07:59.627898 17575 net.cpp:155] Setting up pool1
I1220 14:07:59.627920 17575 net.cpp:163] Top shape: 48 64 56 56 (9633792)
I1220 14:07:59.627935 17575 layer_factory.hpp:76] Creating layer pool1_pool1_0_split
I1220 14:07:59.627953 17575 net.cpp:110] Creating Layer pool1_pool1_0_split
I1220 14:07:59.627966 17575 net.cpp:477] pool1_pool1_0_split <- pool1
I1220 14:07:59.628020 17575 net.cpp:433] pool1_pool1_0_split -> pool1_pool1_0_split_0
I1220 14:07:59.628036 17575 net.cpp:433] pool1_pool1_0_split -> pool1_pool1_0_split_1
I1220 14:07:59.628072 17575 net.cpp:155] Setting up pool1_pool1_0_split
I1220 14:07:59.628096 17575 net.cpp:163] Top shape: 48 64 56 56 (9633792)
I1220 14:07:59.628159 17575 net.cpp:163] Top shape: 48 64 56 56 (9633792)
I1220 14:07:59.628180 17575 layer_factory.hpp:76] Creating layer conv21
I1220 14:07:59.628206 17575 net.cpp:110] Creating Layer conv21
I1220 14:07:59.628221 17575 net.cpp:477] conv21 <- pool1_pool1_0_split_0
I1220 14:07:59.628237 17575 net.cpp:433] conv21 -> conv21
I1220 14:07:59.628849 17575 net.cpp:155] Setting up conv21
I1220 14:07:59.628873 17575 net.cpp:163] Top shape: 48 64 56 56 (9633792)
I1220 14:07:59.628891 17575 layer_factory.hpp:76] Creating layer bn21
I1220 14:07:59.628909 17575 net.cpp:110] Creating Layer bn21
I1220 14:07:59.628926 17575 net.cpp:477] bn21 <- conv21
I1220 14:07:59.628943 17575 net.cpp:433] bn21 -> bn21
I1220 14:07:59.629026 17575 net.cpp:155] Setting up bn21
I1220 14:07:59.629045 17575 net.cpp:163] Top shape: 48 64 56 56 (9633792)
I1220 14:07:59.629067 17575 layer_factory.hpp:76] Creating layer relu21
I1220 14:07:59.629084 17575 net.cpp:110] Creating Layer relu21
I1220 14:07:59.629098 17575 net.cpp:477] relu21 <- bn21
I1220 14:07:59.629114 17575 net.cpp:419] relu21 -> bn21 (in-place)
I1220 14:07:59.629189 17575 net.cpp:155] Setting up relu21
I1220 14:07:59.629207 17575 net.cpp:163] Top shape: 48 64 56 56 (9633792)
I1220 14:07:59.629221 17575 layer_factory.hpp:76] Creating layer conv22
I1220 14:07:59.629240 17575 net.cpp:110] Creating Layer conv22
I1220 14:07:59.629254 17575 net.cpp:477] conv22 <- bn21
I1220 14:07:59.629271 17575 net.cpp:433] conv22 -> conv22
I1220 14:07:59.629878 17575 net.cpp:155] Setting up conv22
I1220 14:07:59.629901 17575 net.cpp:163] Top shape: 48 64 56 56 (9633792)
I1220 14:07:59.629922 17575 layer_factory.hpp:76] Creating layer bn22
I1220 14:07:59.629940 17575 net.cpp:110] Creating Layer bn22
I1220 14:07:59.629955 17575 net.cpp:477] bn22 <- conv22
I1220 14:07:59.629971 17575 net.cpp:433] bn22 -> bn22
I1220 14:07:59.630050 17575 net.cpp:155] Setting up bn22
I1220 14:07:59.630070 17575 net.cpp:163] Top shape: 48 64 56 56 (9633792)
I1220 14:07:59.630089 17575 layer_factory.hpp:76] Creating layer relu22
I1220 14:07:59.630105 17575 net.cpp:110] Creating Layer relu22
I1220 14:07:59.630120 17575 net.cpp:477] relu22 <- bn22
I1220 14:07:59.630136 17575 net.cpp:419] relu22 -> bn22 (in-place)
I1220 14:07:59.630313 17575 net.cpp:155] Setting up relu22
I1220 14:07:59.630334 17575 net.cpp:163] Top shape: 48 64 56 56 (9633792)
I1220 14:07:59.630345 17575 layer_factory.hpp:76] Creating layer eltwise1
I1220 14:07:59.630364 17575 net.cpp:110] Creating Layer eltwise1
I1220 14:07:59.630375 17575 net.cpp:477] eltwise1 <- pool1_pool1_0_split_1
I1220 14:07:59.630388 17575 net.cpp:477] eltwise1 <- bn22
I1220 14:07:59.630400 17575 net.cpp:433] eltwise1 -> eltwise1
I1220 14:07:59.630422 17575 net.cpp:155] Setting up eltwise1
I1220 14:07:59.630444 17575 net.cpp:163] Top shape: 48 64 56 56 (9633792)
I1220 14:07:59.630453 17575 layer_factory.hpp:76] Creating layer relu1
I1220 14:07:59.630466 17575 net.cpp:110] Creating Layer relu1
I1220 14:07:59.630476 17575 net.cpp:477] relu1 <- eltwise1
I1220 14:07:59.630489 17575 net.cpp:419] relu1 -> eltwise1 (in-place)
I1220 14:07:59.630554 17575 net.cpp:155] Setting up relu1
I1220 14:07:59.630570 17575 net.cpp:163] Top shape: 48 64 56 56 (9633792)
I1220 14:07:59.630581 17575 layer_factory.hpp:76] Creating layer eltwise1_relu1_0_split
I1220 14:07:59.630594 17575 net.cpp:110] Creating Layer eltwise1_relu1_0_split
I1220 14:07:59.630604 17575 net.cpp:477] eltwise1_relu1_0_split <- eltwise1
I1220 14:07:59.630616 17575 net.cpp:433] eltwise1_relu1_0_split -> eltwise1_relu1_0_split_0
I1220 14:07:59.630631 17575 net.cpp:433] eltwise1_relu1_0_split -> eltwise1_relu1_0_split_1
I1220 14:07:59.630646 17575 net.cpp:155] Setting up eltwise1_relu1_0_split
I1220 14:07:59.630659 17575 net.cpp:163] Top shape: 48 64 56 56 (9633792)
I1220 14:07:59.630686 17575 net.cpp:163] Top shape: 48 64 56 56 (9633792)
I1220 14:07:59.630697 17575 layer_factory.hpp:76] Creating layer conv23
I1220 14:07:59.630713 17575 net.cpp:110] Creating Layer conv23
I1220 14:07:59.630725 17575 net.cpp:477] conv23 <- eltwise1_relu1_0_split_0
I1220 14:07:59.630739 17575 net.cpp:433] conv23 -> conv23
I1220 14:07:59.631343 17575 net.cpp:155] Setting up conv23
I1220 14:07:59.631364 17575 net.cpp:163] Top shape: 48 64 56 56 (9633792)
I1220 14:07:59.631382 17575 layer_factory.hpp:76] Creating layer bn23
I1220 14:07:59.631399 17575 net.cpp:110] Creating Layer bn23
I1220 14:07:59.631410 17575 net.cpp:477] bn23 <- conv23
I1220 14:07:59.631423 17575 net.cpp:433] bn23 -> bn23
I1220 14:07:59.631510 17575 net.cpp:155] Setting up bn23
I1220 14:07:59.631527 17575 net.cpp:163] Top shape: 48 64 56 56 (9633792)
I1220 14:07:59.631546 17575 layer_factory.hpp:76] Creating layer relu23
I1220 14:07:59.631561 17575 net.cpp:110] Creating Layer relu23
I1220 14:07:59.631572 17575 net.cpp:477] relu23 <- bn23
I1220 14:07:59.631583 17575 net.cpp:419] relu23 -> bn23 (in-place)
I1220 14:07:59.631660 17575 net.cpp:155] Setting up relu23
I1220 14:07:59.631676 17575 net.cpp:163] Top shape: 48 64 56 56 (9633792)
I1220 14:07:59.631687 17575 layer_factory.hpp:76] Creating layer conv24
I1220 14:07:59.631702 17575 net.cpp:110] Creating Layer conv24
I1220 14:07:59.631713 17575 net.cpp:477] conv24 <- bn23
I1220 14:07:59.631726 17575 net.cpp:433] conv24 -> conv24
I1220 14:07:59.632354 17575 net.cpp:155] Setting up conv24
I1220 14:07:59.632375 17575 net.cpp:163] Top shape: 48 64 56 56 (9633792)
I1220 14:07:59.632388 17575 layer_factory.hpp:76] Creating layer bn24
I1220 14:07:59.632405 17575 net.cpp:110] Creating Layer bn24
I1220 14:07:59.632416 17575 net.cpp:477] bn24 <- conv24
I1220 14:07:59.632431 17575 net.cpp:433] bn24 -> bn24
I1220 14:07:59.632519 17575 net.cpp:155] Setting up bn24
I1220 14:07:59.632535 17575 net.cpp:163] Top shape: 48 64 56 56 (9633792)
I1220 14:07:59.632555 17575 layer_factory.hpp:76] Creating layer relu24
I1220 14:07:59.632570 17575 net.cpp:110] Creating Layer relu24
I1220 14:07:59.632580 17575 net.cpp:477] relu24 <- bn24
I1220 14:07:59.632596 17575 net.cpp:419] relu24 -> bn24 (in-place)
I1220 14:07:59.632670 17575 net.cpp:155] Setting up relu24
I1220 14:07:59.632686 17575 net.cpp:163] Top shape: 48 64 56 56 (9633792)
I1220 14:07:59.632697 17575 layer_factory.hpp:76] Creating layer bn24_relu24_0_split
I1220 14:07:59.632710 17575 net.cpp:110] Creating Layer bn24_relu24_0_split
I1220 14:07:59.632720 17575 net.cpp:477] bn24_relu24_0_split <- bn24
I1220 14:07:59.632732 17575 net.cpp:433] bn24_relu24_0_split -> bn24_relu24_0_split_0
I1220 14:07:59.632746 17575 net.cpp:433] bn24_relu24_0_split -> bn24_relu24_0_split_1
I1220 14:07:59.632761 17575 net.cpp:155] Setting up bn24_relu24_0_split
I1220 14:07:59.632773 17575 net.cpp:163] Top shape: 48 64 56 56 (9633792)
I1220 14:07:59.632784 17575 net.cpp:163] Top shape: 48 64 56 56 (9633792)
I1220 14:07:59.632794 17575 layer_factory.hpp:76] Creating layer eltwise2
I1220 14:07:59.632807 17575 net.cpp:110] Creating Layer eltwise2
I1220 14:07:59.632818 17575 net.cpp:477] eltwise2 <- eltwise1_relu1_0_split_1
I1220 14:07:59.632829 17575 net.cpp:477] eltwise2 <- bn24_relu24_0_split_0
I1220 14:07:59.632844 17575 net.cpp:433] eltwise2 -> eltwise2
I1220 14:07:59.632859 17575 net.cpp:155] Setting up eltwise2
I1220 14:07:59.632871 17575 net.cpp:163] Top shape: 48 64 56 56 (9633792)
I1220 14:07:59.632881 17575 layer_factory.hpp:76] Creating layer relu2
I1220 14:07:59.632894 17575 net.cpp:110] Creating Layer relu2
I1220 14:07:59.632905 17575 net.cpp:477] relu2 <- eltwise2
I1220 14:07:59.632916 17575 net.cpp:419] relu2 -> eltwise2 (in-place)
I1220 14:07:59.633100 17575 net.cpp:155] Setting up relu2
I1220 14:07:59.633119 17575 net.cpp:163] Top shape: 48 64 56 56 (9633792)
I1220 14:07:59.633131 17575 layer_factory.hpp:76] Creating layer conv25
I1220 14:07:59.633147 17575 net.cpp:110] Creating Layer conv25
I1220 14:07:59.633159 17575 net.cpp:477] conv25 <- bn24_relu24_0_split_1
I1220 14:07:59.633186 17575 net.cpp:433] conv25 -> conv25
I1220 14:07:59.633828 17575 net.cpp:155] Setting up conv25
I1220 14:07:59.633848 17575 net.cpp:163] Top shape: 48 64 56 56 (9633792)
I1220 14:07:59.633863 17575 layer_factory.hpp:76] Creating layer bn25
I1220 14:07:59.633880 17575 net.cpp:110] Creating Layer bn25
I1220 14:07:59.633891 17575 net.cpp:477] bn25 <- conv25
I1220 14:07:59.633906 17575 net.cpp:433] bn25 -> bn25
I1220 14:07:59.633990 17575 net.cpp:155] Setting up bn25
I1220 14:07:59.634006 17575 net.cpp:163] Top shape: 48 64 56 56 (9633792)
I1220 14:07:59.634024 17575 layer_factory.hpp:76] Creating layer relu25
I1220 14:07:59.634038 17575 net.cpp:110] Creating Layer relu25
I1220 14:07:59.634048 17575 net.cpp:477] relu25 <- bn25
I1220 14:07:59.634068 17575 net.cpp:419] relu25 -> bn25 (in-place)
I1220 14:07:59.634146 17575 net.cpp:155] Setting up relu25
I1220 14:07:59.634162 17575 net.cpp:163] Top shape: 48 64 56 56 (9633792)
I1220 14:07:59.634173 17575 layer_factory.hpp:76] Creating layer conv26
I1220 14:07:59.634187 17575 net.cpp:110] Creating Layer conv26
I1220 14:07:59.634198 17575 net.cpp:477] conv26 <- bn25
I1220 14:07:59.634212 17575 net.cpp:433] conv26 -> conv26
I1220 14:07:59.635409 17575 net.cpp:155] Setting up conv26
I1220 14:07:59.635431 17575 net.cpp:163] Top shape: 48 64 56 56 (9633792)
I1220 14:07:59.635444 17575 layer_factory.hpp:76] Creating layer bn26
I1220 14:07:59.635462 17575 net.cpp:110] Creating Layer bn26
I1220 14:07:59.635473 17575 net.cpp:477] bn26 <- conv26
I1220 14:07:59.635486 17575 net.cpp:433] bn26 -> bn26
I1220 14:07:59.635572 17575 net.cpp:155] Setting up bn26
I1220 14:07:59.635593 17575 net.cpp:163] Top shape: 48 64 56 56 (9633792)
I1220 14:07:59.635614 17575 layer_factory.hpp:76] Creating layer relu26
I1220 14:07:59.635632 17575 net.cpp:110] Creating Layer relu26
I1220 14:07:59.635643 17575 net.cpp:477] relu26 <- bn26
I1220 14:07:59.635655 17575 net.cpp:419] relu26 -> bn26 (in-place)
I1220 14:07:59.635735 17575 net.cpp:155] Setting up relu26
I1220 14:07:59.635751 17575 net.cpp:163] Top shape: 48 64 56 56 (9633792)
I1220 14:07:59.635762 17575 layer_factory.hpp:76] Creating layer eltwise3
I1220 14:07:59.635778 17575 net.cpp:110] Creating Layer eltwise3
I1220 14:07:59.635789 17575 net.cpp:477] eltwise3 <- eltwise2
I1220 14:07:59.635802 17575 net.cpp:477] eltwise3 <- bn26
I1220 14:07:59.635814 17575 net.cpp:433] eltwise3 -> eltwise3
I1220 14:07:59.635829 17575 net.cpp:155] Setting up eltwise3
I1220 14:07:59.635841 17575 net.cpp:163] Top shape: 48 64 56 56 (9633792)
I1220 14:07:59.635853 17575 layer_factory.hpp:76] Creating layer relu3
I1220 14:07:59.635866 17575 net.cpp:110] Creating Layer relu3
I1220 14:07:59.635877 17575 net.cpp:477] relu3 <- eltwise3
I1220 14:07:59.635891 17575 net.cpp:419] relu3 -> eltwise3 (in-place)
I1220 14:07:59.635964 17575 net.cpp:155] Setting up relu3
I1220 14:07:59.635979 17575 net.cpp:163] Top shape: 48 64 56 56 (9633792)
I1220 14:07:59.635990 17575 layer_factory.hpp:76] Creating layer eltwise3_relu3_0_split
I1220 14:07:59.636003 17575 net.cpp:110] Creating Layer eltwise3_relu3_0_split
I1220 14:07:59.636013 17575 net.cpp:477] eltwise3_relu3_0_split <- eltwise3
I1220 14:07:59.636025 17575 net.cpp:433] eltwise3_relu3_0_split -> eltwise3_relu3_0_split_0
I1220 14:07:59.636039 17575 net.cpp:433] eltwise3_relu3_0_split -> eltwise3_relu3_0_split_1
I1220 14:07:59.636054 17575 net.cpp:155] Setting up eltwise3_relu3_0_split
I1220 14:07:59.636066 17575 net.cpp:163] Top shape: 48 64 56 56 (9633792)
I1220 14:07:59.636077 17575 net.cpp:163] Top shape: 48 64 56 56 (9633792)
I1220 14:07:59.636088 17575 layer_factory.hpp:76] Creating layer relu3_p
I1220 14:07:59.636104 17575 net.cpp:110] Creating Layer relu3_p
I1220 14:07:59.636116 17575 net.cpp:477] relu3_p <- eltwise3_relu3_0_split_0
I1220 14:07:59.636132 17575 net.cpp:433] relu3_p -> relu3_p
I1220 14:07:59.637130 17575 net.cpp:155] Setting up relu3_p
I1220 14:07:59.637151 17575 net.cpp:163] Top shape: 48 128 28 28 (4816896)
I1220 14:07:59.637166 17575 layer_factory.hpp:76] Creating layer relu3_bn
I1220 14:07:59.637195 17575 net.cpp:110] Creating Layer relu3_bn
I1220 14:07:59.637207 17575 net.cpp:477] relu3_bn <- relu3_p
I1220 14:07:59.637223 17575 net.cpp:433] relu3_bn -> relu3_bn
I1220 14:07:59.637303 17575 net.cpp:155] Setting up relu3_bn
I1220 14:07:59.637320 17575 net.cpp:163] Top shape: 48 128 28 28 (4816896)
I1220 14:07:59.637336 17575 layer_factory.hpp:76] Creating layer conv31
I1220 14:07:59.637367 17575 net.cpp:110] Creating Layer conv31
I1220 14:07:59.637378 17575 net.cpp:477] conv31 <- eltwise3_relu3_0_split_1
I1220 14:07:59.637394 17575 net.cpp:433] conv31 -> conv31
I1220 14:07:59.638831 17575 net.cpp:155] Setting up conv31
I1220 14:07:59.638854 17575 net.cpp:163] Top shape: 48 128 28 28 (4816896)
I1220 14:07:59.638867 17575 layer_factory.hpp:76] Creating layer bn31
I1220 14:07:59.638885 17575 net.cpp:110] Creating Layer bn31
I1220 14:07:59.638895 17575 net.cpp:477] bn31 <- conv31
I1220 14:07:59.638908 17575 net.cpp:433] bn31 -> bn31
I1220 14:07:59.638985 17575 net.cpp:155] Setting up bn31
I1220 14:07:59.639003 17575 net.cpp:163] Top shape: 48 128 28 28 (4816896)
I1220 14:07:59.639019 17575 layer_factory.hpp:76] Creating layer relu31
I1220 14:07:59.639034 17575 net.cpp:110] Creating Layer relu31
I1220 14:07:59.639045 17575 net.cpp:477] relu31 <- bn31
I1220 14:07:59.639057 17575 net.cpp:419] relu31 -> bn31 (in-place)
I1220 14:07:59.639235 17575 net.cpp:155] Setting up relu31
I1220 14:07:59.639255 17575 net.cpp:163] Top shape: 48 128 28 28 (4816896)
I1220 14:07:59.639266 17575 layer_factory.hpp:76] Creating layer conv32
I1220 14:07:59.639281 17575 net.cpp:110] Creating Layer conv32
I1220 14:07:59.639292 17575 net.cpp:477] conv32 <- bn31
I1220 14:07:59.639304 17575 net.cpp:433] conv32 -> conv32
I1220 14:07:59.640666 17575 net.cpp:155] Setting up conv32
I1220 14:07:59.640687 17575 net.cpp:163] Top shape: 48 128 28 28 (4816896)
I1220 14:07:59.640702 17575 layer_factory.hpp:76] Creating layer bn32
I1220 14:07:59.640718 17575 net.cpp:110] Creating Layer bn32
I1220 14:07:59.640730 17575 net.cpp:477] bn32 <- conv32
I1220 14:07:59.640745 17575 net.cpp:433] bn32 -> bn32
I1220 14:07:59.640820 17575 net.cpp:155] Setting up bn32
I1220 14:07:59.640836 17575 net.cpp:163] Top shape: 48 128 28 28 (4816896)
I1220 14:07:59.640852 17575 layer_factory.hpp:76] Creating layer relu32
I1220 14:07:59.640866 17575 net.cpp:110] Creating Layer relu32
I1220 14:07:59.640877 17575 net.cpp:477] relu32 <- bn32
I1220 14:07:59.640890 17575 net.cpp:419] relu32 -> bn32 (in-place)
I1220 14:07:59.640966 17575 net.cpp:155] Setting up relu32
I1220 14:07:59.640982 17575 net.cpp:163] Top shape: 48 128 28 28 (4816896)
I1220 14:07:59.640993 17575 layer_factory.hpp:76] Creating layer eltwise4
I1220 14:07:59.641006 17575 net.cpp:110] Creating Layer eltwise4
I1220 14:07:59.641017 17575 net.cpp:477] eltwise4 <- relu3_bn
I1220 14:07:59.641028 17575 net.cpp:477] eltwise4 <- bn32
I1220 14:07:59.641041 17575 net.cpp:433] eltwise4 -> eltwise4
I1220 14:07:59.641057 17575 net.cpp:155] Setting up eltwise4
I1220 14:07:59.641069 17575 net.cpp:163] Top shape: 48 128 28 28 (4816896)
I1220 14:07:59.641079 17575 layer_factory.hpp:76] Creating layer relu4
I1220 14:07:59.641094 17575 net.cpp:110] Creating Layer relu4
I1220 14:07:59.641105 17575 net.cpp:477] relu4 <- eltwise4
I1220 14:07:59.641118 17575 net.cpp:419] relu4 -> eltwise4 (in-place)
I1220 14:07:59.641188 17575 net.cpp:155] Setting up relu4
I1220 14:07:59.641204 17575 net.cpp:163] Top shape: 48 128 28 28 (4816896)
I1220 14:07:59.641216 17575 layer_factory.hpp:76] Creating layer eltwise4_relu4_0_split
I1220 14:07:59.641229 17575 net.cpp:110] Creating Layer eltwise4_relu4_0_split
I1220 14:07:59.641240 17575 net.cpp:477] eltwise4_relu4_0_split <- eltwise4
I1220 14:07:59.641253 17575 net.cpp:433] eltwise4_relu4_0_split -> eltwise4_relu4_0_split_0
I1220 14:07:59.641268 17575 net.cpp:433] eltwise4_relu4_0_split -> eltwise4_relu4_0_split_1
I1220 14:07:59.641283 17575 net.cpp:155] Setting up eltwise4_relu4_0_split
I1220 14:07:59.641300 17575 net.cpp:163] Top shape: 48 128 28 28 (4816896)
I1220 14:07:59.641340 17575 net.cpp:163] Top shape: 48 128 28 28 (4816896)
I1220 14:07:59.641351 17575 layer_factory.hpp:76] Creating layer conv33
I1220 14:07:59.641366 17575 net.cpp:110] Creating Layer conv33
I1220 14:07:59.641377 17575 net.cpp:477] conv33 <- eltwise4_relu4_0_split_0
I1220 14:07:59.641393 17575 net.cpp:433] conv33 -> conv33
I1220 14:07:59.643333 17575 net.cpp:155] Setting up conv33
I1220 14:07:59.643354 17575 net.cpp:163] Top shape: 48 128 28 28 (4816896)
I1220 14:07:59.643369 17575 layer_factory.hpp:76] Creating layer bn33
I1220 14:07:59.643385 17575 net.cpp:110] Creating Layer bn33
I1220 14:07:59.643396 17575 net.cpp:477] bn33 <- conv33
I1220 14:07:59.643410 17575 net.cpp:433] bn33 -> bn33
I1220 14:07:59.643486 17575 net.cpp:155] Setting up bn33
I1220 14:07:59.643503 17575 net.cpp:163] Top shape: 48 128 28 28 (4816896)
I1220 14:07:59.643522 17575 layer_factory.hpp:76] Creating layer relu33
I1220 14:07:59.643537 17575 net.cpp:110] Creating Layer relu33
I1220 14:07:59.643546 17575 net.cpp:477] relu33 <- bn33
I1220 14:07:59.643558 17575 net.cpp:419] relu33 -> bn33 (in-place)
I1220 14:07:59.643736 17575 net.cpp:155] Setting up relu33
I1220 14:07:59.643756 17575 net.cpp:163] Top shape: 48 128 28 28 (4816896)
I1220 14:07:59.643767 17575 layer_factory.hpp:76] Creating layer conv34
I1220 14:07:59.643785 17575 net.cpp:110] Creating Layer conv34
I1220 14:07:59.643796 17575 net.cpp:477] conv34 <- bn33
I1220 14:07:59.643810 17575 net.cpp:433] conv34 -> conv34
I1220 14:07:59.645755 17575 net.cpp:155] Setting up conv34
I1220 14:07:59.645776 17575 net.cpp:163] Top shape: 48 128 28 28 (4816896)
I1220 14:07:59.645795 17575 layer_factory.hpp:76] Creating layer bn34
I1220 14:07:59.645810 17575 net.cpp:110] Creating Layer bn34
I1220 14:07:59.645824 17575 net.cpp:477] bn34 <- conv34
I1220 14:07:59.645838 17575 net.cpp:433] bn34 -> bn34
I1220 14:07:59.645913 17575 net.cpp:155] Setting up bn34
I1220 14:07:59.645930 17575 net.cpp:163] Top shape: 48 128 28 28 (4816896)
I1220 14:07:59.645946 17575 layer_factory.hpp:76] Creating layer relu34
I1220 14:07:59.645958 17575 net.cpp:110] Creating Layer relu34
I1220 14:07:59.645969 17575 net.cpp:477] relu34 <- bn34
I1220 14:07:59.645983 17575 net.cpp:419] relu34 -> bn34 (in-place)
I1220 14:07:59.646060 17575 net.cpp:155] Setting up relu34
I1220 14:07:59.646076 17575 net.cpp:163] Top shape: 48 128 28 28 (4816896)
I1220 14:07:59.646086 17575 layer_factory.hpp:76] Creating layer eltwise5
I1220 14:07:59.646100 17575 net.cpp:110] Creating Layer eltwise5
I1220 14:07:59.646111 17575 net.cpp:477] eltwise5 <- eltwise4_relu4_0_split_1
I1220 14:07:59.646122 17575 net.cpp:477] eltwise5 <- bn34
I1220 14:07:59.646134 17575 net.cpp:433] eltwise5 -> eltwise5
I1220 14:07:59.646149 17575 net.cpp:155] Setting up eltwise5
I1220 14:07:59.646162 17575 net.cpp:163] Top shape: 48 128 28 28 (4816896)
I1220 14:07:59.646173 17575 layer_factory.hpp:76] Creating layer relu5
I1220 14:07:59.646188 17575 net.cpp:110] Creating Layer relu5
I1220 14:07:59.646198 17575 net.cpp:477] relu5 <- eltwise5
I1220 14:07:59.646210 17575 net.cpp:419] relu5 -> eltwise5 (in-place)
I1220 14:07:59.646280 17575 net.cpp:155] Setting up relu5
I1220 14:07:59.646294 17575 net.cpp:163] Top shape: 48 128 28 28 (4816896)
I1220 14:07:59.646306 17575 layer_factory.hpp:76] Creating layer eltwise5_relu5_0_split
I1220 14:07:59.646320 17575 net.cpp:110] Creating Layer eltwise5_relu5_0_split
I1220 14:07:59.646330 17575 net.cpp:477] eltwise5_relu5_0_split <- eltwise5
I1220 14:07:59.646343 17575 net.cpp:433] eltwise5_relu5_0_split -> eltwise5_relu5_0_split_0
I1220 14:07:59.646358 17575 net.cpp:433] eltwise5_relu5_0_split -> eltwise5_relu5_0_split_1
I1220 14:07:59.646373 17575 net.cpp:155] Setting up eltwise5_relu5_0_split
I1220 14:07:59.646385 17575 net.cpp:163] Top shape: 48 128 28 28 (4816896)
I1220 14:07:59.646396 17575 net.cpp:163] Top shape: 48 128 28 28 (4816896)
I1220 14:07:59.646406 17575 layer_factory.hpp:76] Creating layer conv35
I1220 14:07:59.646420 17575 net.cpp:110] Creating Layer conv35
I1220 14:07:59.646430 17575 net.cpp:477] conv35 <- eltwise5_relu5_0_split_0
I1220 14:07:59.646462 17575 net.cpp:433] conv35 -> conv35
I1220 14:07:59.648413 17575 net.cpp:155] Setting up conv35
I1220 14:07:59.648434 17575 net.cpp:163] Top shape: 48 128 28 28 (4816896)
I1220 14:07:59.648449 17575 layer_factory.hpp:76] Creating layer bn35
I1220 14:07:59.648466 17575 net.cpp:110] Creating Layer bn35
I1220 14:07:59.648478 17575 net.cpp:477] bn35 <- conv35
I1220 14:07:59.648491 17575 net.cpp:433] bn35 -> bn35
I1220 14:07:59.648568 17575 net.cpp:155] Setting up bn35
I1220 14:07:59.648586 17575 net.cpp:163] Top shape: 48 128 28 28 (4816896)
I1220 14:07:59.648613 17575 layer_factory.hpp:76] Creating layer relu35
I1220 14:07:59.648628 17575 net.cpp:110] Creating Layer relu35
I1220 14:07:59.648639 17575 net.cpp:477] relu35 <- bn35
I1220 14:07:59.648651 17575 net.cpp:419] relu35 -> bn35 (in-place)
I1220 14:07:59.648730 17575 net.cpp:155] Setting up relu35
I1220 14:07:59.648746 17575 net.cpp:163] Top shape: 48 128 28 28 (4816896)
I1220 14:07:59.648756 17575 layer_factory.hpp:76] Creating layer conv36
I1220 14:07:59.648772 17575 net.cpp:110] Creating Layer conv36
I1220 14:07:59.648782 17575 net.cpp:477] conv36 <- bn35
I1220 14:07:59.648795 17575 net.cpp:433] conv36 -> conv36
I1220 14:07:59.650733 17575 net.cpp:155] Setting up conv36
I1220 14:07:59.650754 17575 net.cpp:163] Top shape: 48 128 28 28 (4816896)
I1220 14:07:59.650768 17575 layer_factory.hpp:76] Creating layer bn36
I1220 14:07:59.650785 17575 net.cpp:110] Creating Layer bn36
I1220 14:07:59.650797 17575 net.cpp:477] bn36 <- conv36
I1220 14:07:59.650810 17575 net.cpp:433] bn36 -> bn36
I1220 14:07:59.650887 17575 net.cpp:155] Setting up bn36
I1220 14:07:59.650903 17575 net.cpp:163] Top shape: 48 128 28 28 (4816896)
I1220 14:07:59.650921 17575 layer_factory.hpp:76] Creating layer relu36
I1220 14:07:59.650935 17575 net.cpp:110] Creating Layer relu36
I1220 14:07:59.650946 17575 net.cpp:477] relu36 <- bn36
I1220 14:07:59.650961 17575 net.cpp:419] relu36 -> bn36 (in-place)
I1220 14:07:59.651139 17575 net.cpp:155] Setting up relu36
I1220 14:07:59.651161 17575 net.cpp:163] Top shape: 48 128 28 28 (4816896)
I1220 14:07:59.651173 17575 layer_factory.hpp:76] Creating layer eltwise6
I1220 14:07:59.651187 17575 net.cpp:110] Creating Layer eltwise6
I1220 14:07:59.651198 17575 net.cpp:477] eltwise6 <- eltwise5_relu5_0_split_1
I1220 14:07:59.651211 17575 net.cpp:477] eltwise6 <- bn36
I1220 14:07:59.651223 17575 net.cpp:433] eltwise6 -> eltwise6
I1220 14:07:59.651239 17575 net.cpp:155] Setting up eltwise6
I1220 14:07:59.651252 17575 net.cpp:163] Top shape: 48 128 28 28 (4816896)
I1220 14:07:59.651262 17575 layer_factory.hpp:76] Creating layer relu6
I1220 14:07:59.651276 17575 net.cpp:110] Creating Layer relu6
I1220 14:07:59.651288 17575 net.cpp:477] relu6 <- eltwise6
I1220 14:07:59.651299 17575 net.cpp:419] relu6 -> eltwise6 (in-place)
I1220 14:07:59.651371 17575 net.cpp:155] Setting up relu6
I1220 14:07:59.651386 17575 net.cpp:163] Top shape: 48 128 28 28 (4816896)
I1220 14:07:59.651396 17575 layer_factory.hpp:76] Creating layer eltwise6_relu6_0_split
I1220 14:07:59.651408 17575 net.cpp:110] Creating Layer eltwise6_relu6_0_split
I1220 14:07:59.651418 17575 net.cpp:477] eltwise6_relu6_0_split <- eltwise6
I1220 14:07:59.651434 17575 net.cpp:433] eltwise6_relu6_0_split -> eltwise6_relu6_0_split_0
I1220 14:07:59.651448 17575 net.cpp:433] eltwise6_relu6_0_split -> eltwise6_relu6_0_split_1
I1220 14:07:59.651463 17575 net.cpp:155] Setting up eltwise6_relu6_0_split
I1220 14:07:59.651478 17575 net.cpp:163] Top shape: 48 128 28 28 (4816896)
I1220 14:07:59.651489 17575 net.cpp:163] Top shape: 48 128 28 28 (4816896)
I1220 14:07:59.651499 17575 layer_factory.hpp:76] Creating layer conv37
I1220 14:07:59.651515 17575 net.cpp:110] Creating Layer conv37
I1220 14:07:59.651525 17575 net.cpp:477] conv37 <- eltwise6_relu6_0_split_0
I1220 14:07:59.651540 17575 net.cpp:433] conv37 -> conv37
I1220 14:07:59.653483 17575 net.cpp:155] Setting up conv37
I1220 14:07:59.653503 17575 net.cpp:163] Top shape: 48 128 28 28 (4816896)
I1220 14:07:59.653518 17575 layer_factory.hpp:76] Creating layer bn37
I1220 14:07:59.653558 17575 net.cpp:110] Creating Layer bn37
I1220 14:07:59.653571 17575 net.cpp:477] bn37 <- conv37
I1220 14:07:59.654085 17575 net.cpp:433] bn37 -> bn37
I1220 14:07:59.654182 17575 net.cpp:155] Setting up bn37
I1220 14:07:59.654201 17575 net.cpp:163] Top shape: 48 128 28 28 (4816896)
I1220 14:07:59.654219 17575 layer_factory.hpp:76] Creating layer relu37
I1220 14:07:59.654233 17575 net.cpp:110] Creating Layer relu37
I1220 14:07:59.654245 17575 net.cpp:477] relu37 <- bn37
I1220 14:07:59.654260 17575 net.cpp:419] relu37 -> bn37 (in-place)
I1220 14:07:59.654343 17575 net.cpp:155] Setting up relu37
I1220 14:07:59.654359 17575 net.cpp:163] Top shape: 48 128 28 28 (4816896)
I1220 14:07:59.654371 17575 layer_factory.hpp:76] Creating layer conv38
I1220 14:07:59.654386 17575 net.cpp:110] Creating Layer conv38
I1220 14:07:59.654397 17575 net.cpp:477] conv38 <- bn37
I1220 14:07:59.654412 17575 net.cpp:433] conv38 -> conv38
I1220 14:07:59.656368 17575 net.cpp:155] Setting up conv38
I1220 14:07:59.656390 17575 net.cpp:163] Top shape: 48 128 28 28 (4816896)
I1220 14:07:59.656405 17575 layer_factory.hpp:76] Creating layer bn38
I1220 14:07:59.656421 17575 net.cpp:110] Creating Layer bn38
I1220 14:07:59.656433 17575 net.cpp:477] bn38 <- conv38
I1220 14:07:59.656446 17575 net.cpp:433] bn38 -> bn38
I1220 14:07:59.656524 17575 net.cpp:155] Setting up bn38
I1220 14:07:59.656543 17575 net.cpp:163] Top shape: 48 128 28 28 (4816896)
I1220 14:07:59.656560 17575 layer_factory.hpp:76] Creating layer relu38
I1220 14:07:59.656574 17575 net.cpp:110] Creating Layer relu38
I1220 14:07:59.656585 17575 net.cpp:477] relu38 <- bn38
I1220 14:07:59.656597 17575 net.cpp:419] relu38 -> bn38 (in-place)
I1220 14:07:59.656673 17575 net.cpp:155] Setting up relu38
I1220 14:07:59.656688 17575 net.cpp:163] Top shape: 48 128 28 28 (4816896)
I1220 14:07:59.656699 17575 layer_factory.hpp:76] Creating layer eltwise7
I1220 14:07:59.656713 17575 net.cpp:110] Creating Layer eltwise7
I1220 14:07:59.656723 17575 net.cpp:477] eltwise7 <- eltwise6_relu6_0_split_1
I1220 14:07:59.656744 17575 net.cpp:477] eltwise7 <- bn38
I1220 14:07:59.656759 17575 net.cpp:433] eltwise7 -> eltwise7
I1220 14:07:59.656775 17575 net.cpp:155] Setting up eltwise7
I1220 14:07:59.656788 17575 net.cpp:163] Top shape: 48 128 28 28 (4816896)
I1220 14:07:59.656798 17575 layer_factory.hpp:76] Creating layer relu7
I1220 14:07:59.656810 17575 net.cpp:110] Creating Layer relu7
I1220 14:07:59.656821 17575 net.cpp:477] relu7 <- eltwise7
I1220 14:07:59.656833 17575 net.cpp:419] relu7 -> eltwise7 (in-place)
I1220 14:07:59.657011 17575 net.cpp:155] Setting up relu7
I1220 14:07:59.657030 17575 net.cpp:163] Top shape: 48 128 28 28 (4816896)
I1220 14:07:59.657042 17575 layer_factory.hpp:76] Creating layer eltwise7_relu7_0_split
I1220 14:07:59.657054 17575 net.cpp:110] Creating Layer eltwise7_relu7_0_split
I1220 14:07:59.657064 17575 net.cpp:477] eltwise7_relu7_0_split <- eltwise7
I1220 14:07:59.657079 17575 net.cpp:433] eltwise7_relu7_0_split -> eltwise7_relu7_0_split_0
I1220 14:07:59.657095 17575 net.cpp:433] eltwise7_relu7_0_split -> eltwise7_relu7_0_split_1
I1220 14:07:59.657110 17575 net.cpp:155] Setting up eltwise7_relu7_0_split
I1220 14:07:59.657124 17575 net.cpp:163] Top shape: 48 128 28 28 (4816896)
I1220 14:07:59.657135 17575 net.cpp:163] Top shape: 48 128 28 28 (4816896)
I1220 14:07:59.657145 17575 layer_factory.hpp:76] Creating layer relu7_p
I1220 14:07:59.657163 17575 net.cpp:110] Creating Layer relu7_p
I1220 14:07:59.657176 17575 net.cpp:477] relu7_p <- eltwise7_relu7_0_split_0
I1220 14:07:59.657188 17575 net.cpp:433] relu7_p -> relu7_p
I1220 14:07:59.657789 17575 net.cpp:155] Setting up relu7_p
I1220 14:07:59.657810 17575 net.cpp:163] Top shape: 48 256 14 14 (2408448)
I1220 14:07:59.657825 17575 layer_factory.hpp:76] Creating layer relu7_bn
I1220 14:07:59.657841 17575 net.cpp:110] Creating Layer relu7_bn
I1220 14:07:59.657853 17575 net.cpp:477] relu7_bn <- relu7_p
I1220 14:07:59.657866 17575 net.cpp:433] relu7_bn -> relu7_bn
I1220 14:07:59.657949 17575 net.cpp:155] Setting up relu7_bn
I1220 14:07:59.657982 17575 net.cpp:163] Top shape: 48 256 14 14 (2408448)
I1220 14:07:59.658002 17575 layer_factory.hpp:76] Creating layer conv41
I1220 14:07:59.658020 17575 net.cpp:110] Creating Layer conv41
I1220 14:07:59.658032 17575 net.cpp:477] conv41 <- eltwise7_relu7_0_split_1
I1220 14:07:59.658046 17575 net.cpp:433] conv41 -> conv41
I1220 14:07:59.661043 17575 net.cpp:155] Setting up conv41
I1220 14:07:59.661064 17575 net.cpp:163] Top shape: 48 256 14 14 (2408448)
I1220 14:07:59.661079 17575 layer_factory.hpp:76] Creating layer bn41
I1220 14:07:59.661097 17575 net.cpp:110] Creating Layer bn41
I1220 14:07:59.661108 17575 net.cpp:477] bn41 <- conv41
I1220 14:07:59.661120 17575 net.cpp:433] bn41 -> bn41
I1220 14:07:59.661201 17575 net.cpp:155] Setting up bn41
I1220 14:07:59.661218 17575 net.cpp:163] Top shape: 48 256 14 14 (2408448)
I1220 14:07:59.661234 17575 layer_factory.hpp:76] Creating layer relu41
I1220 14:07:59.661252 17575 net.cpp:110] Creating Layer relu41
I1220 14:07:59.661263 17575 net.cpp:477] relu41 <- bn41
I1220 14:07:59.661276 17575 net.cpp:419] relu41 -> bn41 (in-place)
I1220 14:07:59.661360 17575 net.cpp:155] Setting up relu41
I1220 14:07:59.661378 17575 net.cpp:163] Top shape: 48 256 14 14 (2408448)
I1220 14:07:59.661389 17575 layer_factory.hpp:76] Creating layer conv42
I1220 14:07:59.661406 17575 net.cpp:110] Creating Layer conv42
I1220 14:07:59.661418 17575 net.cpp:477] conv42 <- bn41
I1220 14:07:59.661432 17575 net.cpp:433] conv42 -> conv42
I1220 14:07:59.667213 17575 net.cpp:155] Setting up conv42
I1220 14:07:59.667239 17575 net.cpp:163] Top shape: 48 256 14 14 (2408448)
I1220 14:07:59.667254 17575 layer_factory.hpp:76] Creating layer bn42
I1220 14:07:59.667268 17575 net.cpp:110] Creating Layer bn42
I1220 14:07:59.667279 17575 net.cpp:477] bn42 <- conv42
I1220 14:07:59.667292 17575 net.cpp:433] bn42 -> bn42
I1220 14:07:59.667376 17575 net.cpp:155] Setting up bn42
I1220 14:07:59.667393 17575 net.cpp:163] Top shape: 48 256 14 14 (2408448)
I1220 14:07:59.667409 17575 layer_factory.hpp:76] Creating layer relu42
I1220 14:07:59.667423 17575 net.cpp:110] Creating Layer relu42
I1220 14:07:59.667433 17575 net.cpp:477] relu42 <- bn42
I1220 14:07:59.667448 17575 net.cpp:419] relu42 -> bn42 (in-place)
I1220 14:07:59.667525 17575 net.cpp:155] Setting up relu42
I1220 14:07:59.667541 17575 net.cpp:163] Top shape: 48 256 14 14 (2408448)
I1220 14:07:59.667551 17575 layer_factory.hpp:76] Creating layer eltwise8
I1220 14:07:59.667567 17575 net.cpp:110] Creating Layer eltwise8
I1220 14:07:59.667578 17575 net.cpp:477] eltwise8 <- relu7_bn
I1220 14:07:59.667590 17575 net.cpp:477] eltwise8 <- bn42
I1220 14:07:59.667603 17575 net.cpp:433] eltwise8 -> eltwise8
I1220 14:07:59.667618 17575 net.cpp:155] Setting up eltwise8
I1220 14:07:59.667631 17575 net.cpp:163] Top shape: 48 256 14 14 (2408448)
I1220 14:07:59.667641 17575 layer_factory.hpp:76] Creating layer relu8
I1220 14:07:59.667654 17575 net.cpp:110] Creating Layer relu8
I1220 14:07:59.667665 17575 net.cpp:477] relu8 <- eltwise8
I1220 14:07:59.667680 17575 net.cpp:419] relu8 -> eltwise8 (in-place)
I1220 14:07:59.667750 17575 net.cpp:155] Setting up relu8
I1220 14:07:59.667767 17575 net.cpp:163] Top shape: 48 256 14 14 (2408448)
I1220 14:07:59.667778 17575 layer_factory.hpp:76] Creating layer eltwise8_relu8_0_split
I1220 14:07:59.667790 17575 net.cpp:110] Creating Layer eltwise8_relu8_0_split
I1220 14:07:59.667800 17575 net.cpp:477] eltwise8_relu8_0_split <- eltwise8
I1220 14:07:59.667814 17575 net.cpp:433] eltwise8_relu8_0_split -> eltwise8_relu8_0_split_0
I1220 14:07:59.667829 17575 net.cpp:433] eltwise8_relu8_0_split -> eltwise8_relu8_0_split_1
I1220 14:07:59.667845 17575 net.cpp:155] Setting up eltwise8_relu8_0_split
I1220 14:07:59.667858 17575 net.cpp:163] Top shape: 48 256 14 14 (2408448)
I1220 14:07:59.667870 17575 net.cpp:163] Top shape: 48 256 14 14 (2408448)
I1220 14:07:59.667881 17575 layer_factory.hpp:76] Creating layer conv43
I1220 14:07:59.667894 17575 net.cpp:110] Creating Layer conv43
I1220 14:07:59.667904 17575 net.cpp:477] conv43 <- eltwise8_relu8_0_split_0
I1220 14:07:59.667938 17575 net.cpp:433] conv43 -> conv43
I1220 14:07:59.673738 17575 net.cpp:155] Setting up conv43
I1220 14:07:59.673761 17575 net.cpp:163] Top shape: 48 256 14 14 (2408448)
I1220 14:07:59.673776 17575 layer_factory.hpp:76] Creating layer bn43
I1220 14:07:59.673794 17575 net.cpp:110] Creating Layer bn43
I1220 14:07:59.673805 17575 net.cpp:477] bn43 <- conv43
I1220 14:07:59.673821 17575 net.cpp:433] bn43 -> bn43
I1220 14:07:59.673908 17575 net.cpp:155] Setting up bn43
I1220 14:07:59.673926 17575 net.cpp:163] Top shape: 48 256 14 14 (2408448)
I1220 14:07:59.673943 17575 layer_factory.hpp:76] Creating layer relu43
I1220 14:07:59.673955 17575 net.cpp:110] Creating Layer relu43
I1220 14:07:59.673966 17575 net.cpp:477] relu43 <- bn43
I1220 14:07:59.673981 17575 net.cpp:419] relu43 -> bn43 (in-place)
I1220 14:07:59.674168 17575 net.cpp:155] Setting up relu43
I1220 14:07:59.674188 17575 net.cpp:163] Top shape: 48 256 14 14 (2408448)
I1220 14:07:59.674199 17575 layer_factory.hpp:76] Creating layer conv44
I1220 14:07:59.674214 17575 net.cpp:110] Creating Layer conv44
I1220 14:07:59.674226 17575 net.cpp:477] conv44 <- bn43
I1220 14:07:59.674238 17575 net.cpp:433] conv44 -> conv44
I1220 14:07:59.680032 17575 net.cpp:155] Setting up conv44
I1220 14:07:59.680055 17575 net.cpp:163] Top shape: 48 256 14 14 (2408448)
I1220 14:07:59.680088 17575 layer_factory.hpp:76] Creating layer bn44
I1220 14:07:59.680102 17575 net.cpp:110] Creating Layer bn44
I1220 14:07:59.680116 17575 net.cpp:477] bn44 <- conv44
I1220 14:07:59.680130 17575 net.cpp:433] bn44 -> bn44
I1220 14:07:59.680219 17575 net.cpp:155] Setting up bn44
I1220 14:07:59.680236 17575 net.cpp:163] Top shape: 48 256 14 14 (2408448)
I1220 14:07:59.680253 17575 layer_factory.hpp:76] Creating layer relu44
I1220 14:07:59.680269 17575 net.cpp:110] Creating Layer relu44
I1220 14:07:59.680279 17575 net.cpp:477] relu44 <- bn44
I1220 14:07:59.680291 17575 net.cpp:419] relu44 -> bn44 (in-place)
I1220 14:07:59.680372 17575 net.cpp:155] Setting up relu44
I1220 14:07:59.680388 17575 net.cpp:163] Top shape: 48 256 14 14 (2408448)
I1220 14:07:59.680399 17575 layer_factory.hpp:76] Creating layer eltwise9
I1220 14:07:59.680413 17575 net.cpp:110] Creating Layer eltwise9
I1220 14:07:59.680423 17575 net.cpp:477] eltwise9 <- eltwise8_relu8_0_split_1
I1220 14:07:59.680436 17575 net.cpp:477] eltwise9 <- bn44
I1220 14:07:59.680451 17575 net.cpp:433] eltwise9 -> eltwise9
I1220 14:07:59.680467 17575 net.cpp:155] Setting up eltwise9
I1220 14:07:59.680480 17575 net.cpp:163] Top shape: 48 256 14 14 (2408448)
I1220 14:07:59.680490 17575 layer_factory.hpp:76] Creating layer relu9
I1220 14:07:59.680501 17575 net.cpp:110] Creating Layer relu9
I1220 14:07:59.680512 17575 net.cpp:477] relu9 <- eltwise9
I1220 14:07:59.680524 17575 net.cpp:419] relu9 -> eltwise9 (in-place)
I1220 14:07:59.680594 17575 net.cpp:155] Setting up relu9
I1220 14:07:59.680610 17575 net.cpp:163] Top shape: 48 256 14 14 (2408448)
I1220 14:07:59.680620 17575 layer_factory.hpp:76] Creating layer eltwise9_relu9_0_split
I1220 14:07:59.680634 17575 net.cpp:110] Creating Layer eltwise9_relu9_0_split
I1220 14:07:59.680644 17575 net.cpp:477] eltwise9_relu9_0_split <- eltwise9
I1220 14:07:59.680656 17575 net.cpp:433] eltwise9_relu9_0_split -> eltwise9_relu9_0_split_0
I1220 14:07:59.680670 17575 net.cpp:433] eltwise9_relu9_0_split -> eltwise9_relu9_0_split_1
I1220 14:07:59.680685 17575 net.cpp:155] Setting up eltwise9_relu9_0_split
I1220 14:07:59.680698 17575 net.cpp:163] Top shape: 48 256 14 14 (2408448)
I1220 14:07:59.680709 17575 net.cpp:163] Top shape: 48 256 14 14 (2408448)
I1220 14:07:59.680719 17575 layer_factory.hpp:76] Creating layer conv45
I1220 14:07:59.680735 17575 net.cpp:110] Creating Layer conv45
I1220 14:07:59.680747 17575 net.cpp:477] conv45 <- eltwise9_relu9_0_split_0
I1220 14:07:59.680763 17575 net.cpp:433] conv45 -> conv45
I1220 14:07:59.686553 17575 net.cpp:155] Setting up conv45
I1220 14:07:59.686574 17575 net.cpp:163] Top shape: 48 256 14 14 (2408448)
I1220 14:07:59.686589 17575 layer_factory.hpp:76] Creating layer bn45
I1220 14:07:59.686624 17575 net.cpp:110] Creating Layer bn45
I1220 14:07:59.686635 17575 net.cpp:477] bn45 <- conv45
I1220 14:07:59.686651 17575 net.cpp:433] bn45 -> bn45
I1220 14:07:59.686736 17575 net.cpp:155] Setting up bn45
I1220 14:07:59.686753 17575 net.cpp:163] Top shape: 48 256 14 14 (2408448)
I1220 14:07:59.686772 17575 layer_factory.hpp:76] Creating layer relu45
I1220 14:07:59.686785 17575 net.cpp:110] Creating Layer relu45
I1220 14:07:59.686796 17575 net.cpp:477] relu45 <- bn45
I1220 14:07:59.686810 17575 net.cpp:419] relu45 -> bn45 (in-place)
I1220 14:07:59.686995 17575 net.cpp:155] Setting up relu45
I1220 14:07:59.687016 17575 net.cpp:163] Top shape: 48 256 14 14 (2408448)
I1220 14:07:59.687026 17575 layer_factory.hpp:76] Creating layer conv46
I1220 14:07:59.687041 17575 net.cpp:110] Creating Layer conv46
I1220 14:07:59.687052 17575 net.cpp:477] conv46 <- bn45
I1220 14:07:59.687068 17575 net.cpp:433] conv46 -> conv46
I1220 14:07:59.692836 17575 net.cpp:155] Setting up conv46
I1220 14:07:59.692858 17575 net.cpp:163] Top shape: 48 256 14 14 (2408448)
I1220 14:07:59.692873 17575 layer_factory.hpp:76] Creating layer bn46
I1220 14:07:59.692889 17575 net.cpp:110] Creating Layer bn46
I1220 14:07:59.692901 17575 net.cpp:477] bn46 <- conv46
I1220 14:07:59.692914 17575 net.cpp:433] bn46 -> bn46
I1220 14:07:59.693001 17575 net.cpp:155] Setting up bn46
I1220 14:07:59.693019 17575 net.cpp:163] Top shape: 48 256 14 14 (2408448)
I1220 14:07:59.693037 17575 layer_factory.hpp:76] Creating layer relu46
I1220 14:07:59.693049 17575 net.cpp:110] Creating Layer relu46
I1220 14:07:59.693060 17575 net.cpp:477] relu46 <- bn46
I1220 14:07:59.693073 17575 net.cpp:419] relu46 -> bn46 (in-place)
I1220 14:07:59.693151 17575 net.cpp:155] Setting up relu46
I1220 14:07:59.693167 17575 net.cpp:163] Top shape: 48 256 14 14 (2408448)
I1220 14:07:59.693178 17575 layer_factory.hpp:76] Creating layer eltwise10
I1220 14:07:59.693192 17575 net.cpp:110] Creating Layer eltwise10
I1220 14:07:59.693203 17575 net.cpp:477] eltwise10 <- eltwise9_relu9_0_split_1
I1220 14:07:59.693215 17575 net.cpp:477] eltwise10 <- bn46
I1220 14:07:59.693228 17575 net.cpp:433] eltwise10 -> eltwise10
I1220 14:07:59.693243 17575 net.cpp:155] Setting up eltwise10
I1220 14:07:59.693255 17575 net.cpp:163] Top shape: 48 256 14 14 (2408448)
I1220 14:07:59.693265 17575 layer_factory.hpp:76] Creating layer relu10
I1220 14:07:59.693279 17575 net.cpp:110] Creating Layer relu10
I1220 14:07:59.693289 17575 net.cpp:477] relu10 <- eltwise10
I1220 14:07:59.693310 17575 net.cpp:419] relu10 -> eltwise10 (in-place)
I1220 14:07:59.693382 17575 net.cpp:155] Setting up relu10
I1220 14:07:59.693397 17575 net.cpp:163] Top shape: 48 256 14 14 (2408448)
I1220 14:07:59.693408 17575 layer_factory.hpp:76] Creating layer eltwise10_relu10_0_split
I1220 14:07:59.693423 17575 net.cpp:110] Creating Layer eltwise10_relu10_0_split
I1220 14:07:59.693434 17575 net.cpp:477] eltwise10_relu10_0_split <- eltwise10
I1220 14:07:59.693447 17575 net.cpp:433] eltwise10_relu10_0_split -> eltwise10_relu10_0_split_0
I1220 14:07:59.693461 17575 net.cpp:433] eltwise10_relu10_0_split -> eltwise10_relu10_0_split_1
I1220 14:07:59.693476 17575 net.cpp:155] Setting up eltwise10_relu10_0_split
I1220 14:07:59.693495 17575 net.cpp:163] Top shape: 48 256 14 14 (2408448)
I1220 14:07:59.693506 17575 net.cpp:163] Top shape: 48 256 14 14 (2408448)
I1220 14:07:59.693516 17575 layer_factory.hpp:76] Creating layer conv47
I1220 14:07:59.693531 17575 net.cpp:110] Creating Layer conv47
I1220 14:07:59.693542 17575 net.cpp:477] conv47 <- eltwise10_relu10_0_split_0
I1220 14:07:59.693557 17575 net.cpp:433] conv47 -> conv47
I1220 14:07:59.699340 17575 net.cpp:155] Setting up conv47
I1220 14:07:59.699368 17575 net.cpp:163] Top shape: 48 256 14 14 (2408448)
I1220 14:07:59.699388 17575 layer_factory.hpp:76] Creating layer bn47
I1220 14:07:59.699409 17575 net.cpp:110] Creating Layer bn47
I1220 14:07:59.699425 17575 net.cpp:477] bn47 <- conv47
I1220 14:07:59.699443 17575 net.cpp:433] bn47 -> bn47
I1220 14:07:59.699553 17575 net.cpp:155] Setting up bn47
I1220 14:07:59.699574 17575 net.cpp:163] Top shape: 48 256 14 14 (2408448)
I1220 14:07:59.699600 17575 layer_factory.hpp:76] Creating layer relu47
I1220 14:07:59.699617 17575 net.cpp:110] Creating Layer relu47
I1220 14:07:59.699635 17575 net.cpp:477] relu47 <- bn47
I1220 14:07:59.699652 17575 net.cpp:419] relu47 -> bn47 (in-place)
I1220 14:07:59.699734 17575 net.cpp:155] Setting up relu47
I1220 14:07:59.699753 17575 net.cpp:163] Top shape: 48 256 14 14 (2408448)
I1220 14:07:59.699766 17575 layer_factory.hpp:76] Creating layer conv48
I1220 14:07:59.699786 17575 net.cpp:110] Creating Layer conv48
I1220 14:07:59.699800 17575 net.cpp:477] conv48 <- bn47
I1220 14:07:59.699817 17575 net.cpp:433] conv48 -> conv48
I1220 14:07:59.705620 17575 net.cpp:155] Setting up conv48
I1220 14:07:59.705646 17575 net.cpp:163] Top shape: 48 256 14 14 (2408448)
I1220 14:07:59.705694 17575 layer_factory.hpp:76] Creating layer bn48
I1220 14:07:59.705726 17575 net.cpp:110] Creating Layer bn48
I1220 14:07:59.705747 17575 net.cpp:477] bn48 <- conv48
I1220 14:07:59.705760 17575 net.cpp:433] bn48 -> bn48
I1220 14:07:59.705842 17575 net.cpp:155] Setting up bn48
I1220 14:07:59.705859 17575 net.cpp:163] Top shape: 48 256 14 14 (2408448)
I1220 14:07:59.705875 17575 layer_factory.hpp:76] Creating layer relu48
I1220 14:07:59.705889 17575 net.cpp:110] Creating Layer relu48
I1220 14:07:59.705899 17575 net.cpp:477] relu48 <- bn48
I1220 14:07:59.705914 17575 net.cpp:419] relu48 -> bn48 (in-place)
I1220 14:07:59.706100 17575 net.cpp:155] Setting up relu48
I1220 14:07:59.706120 17575 net.cpp:163] Top shape: 48 256 14 14 (2408448)
I1220 14:07:59.706132 17575 layer_factory.hpp:76] Creating layer eltwise11
I1220 14:07:59.706148 17575 net.cpp:110] Creating Layer eltwise11
I1220 14:07:59.706161 17575 net.cpp:477] eltwise11 <- eltwise10_relu10_0_split_1
I1220 14:07:59.706172 17575 net.cpp:477] eltwise11 <- bn48
I1220 14:07:59.706187 17575 net.cpp:433] eltwise11 -> eltwise11
I1220 14:07:59.706204 17575 net.cpp:155] Setting up eltwise11
I1220 14:07:59.706218 17575 net.cpp:163] Top shape: 48 256 14 14 (2408448)
I1220 14:07:59.706228 17575 layer_factory.hpp:76] Creating layer relu11
I1220 14:07:59.706239 17575 net.cpp:110] Creating Layer relu11
I1220 14:07:59.706249 17575 net.cpp:477] relu11 <- eltwise11
I1220 14:07:59.706261 17575 net.cpp:419] relu11 -> eltwise11 (in-place)
I1220 14:07:59.706336 17575 net.cpp:155] Setting up relu11
I1220 14:07:59.706351 17575 net.cpp:163] Top shape: 48 256 14 14 (2408448)
I1220 14:07:59.706362 17575 layer_factory.hpp:76] Creating layer eltwise11_relu11_0_split
I1220 14:07:59.706374 17575 net.cpp:110] Creating Layer eltwise11_relu11_0_split
I1220 14:07:59.706385 17575 net.cpp:477] eltwise11_relu11_0_split <- eltwise11
I1220 14:07:59.706408 17575 net.cpp:433] eltwise11_relu11_0_split -> eltwise11_relu11_0_split_0
I1220 14:07:59.706423 17575 net.cpp:433] eltwise11_relu11_0_split -> eltwise11_relu11_0_split_1
I1220 14:07:59.706437 17575 net.cpp:155] Setting up eltwise11_relu11_0_split
I1220 14:07:59.706450 17575 net.cpp:163] Top shape: 48 256 14 14 (2408448)
I1220 14:07:59.706460 17575 net.cpp:163] Top shape: 48 256 14 14 (2408448)
I1220 14:07:59.706470 17575 layer_factory.hpp:76] Creating layer conv49
I1220 14:07:59.706488 17575 net.cpp:110] Creating Layer conv49
I1220 14:07:59.706501 17575 net.cpp:477] conv49 <- eltwise11_relu11_0_split_0
I1220 14:07:59.706516 17575 net.cpp:433] conv49 -> conv49
I1220 14:07:59.712354 17575 net.cpp:155] Setting up conv49
I1220 14:07:59.712378 17575 net.cpp:163] Top shape: 48 256 14 14 (2408448)
I1220 14:07:59.712393 17575 layer_factory.hpp:76] Creating layer bn49
I1220 14:07:59.712409 17575 net.cpp:110] Creating Layer bn49
I1220 14:07:59.712421 17575 net.cpp:477] bn49 <- conv49
I1220 14:07:59.712435 17575 net.cpp:433] bn49 -> bn49
I1220 14:07:59.712524 17575 net.cpp:155] Setting up bn49
I1220 14:07:59.712553 17575 net.cpp:163] Top shape: 48 256 14 14 (2408448)
I1220 14:07:59.712594 17575 layer_factory.hpp:76] Creating layer relu49
I1220 14:07:59.712615 17575 net.cpp:110] Creating Layer relu49
I1220 14:07:59.712646 17575 net.cpp:477] relu49 <- bn49
I1220 14:07:59.712659 17575 net.cpp:419] relu49 -> bn49 (in-place)
I1220 14:07:59.712734 17575 net.cpp:155] Setting up relu49
I1220 14:07:59.712751 17575 net.cpp:163] Top shape: 48 256 14 14 (2408448)
I1220 14:07:59.712762 17575 layer_factory.hpp:76] Creating layer conv410
I1220 14:07:59.712776 17575 net.cpp:110] Creating Layer conv410
I1220 14:07:59.712787 17575 net.cpp:477] conv410 <- bn49
I1220 14:07:59.712802 17575 net.cpp:433] conv410 -> conv410
I1220 14:07:59.718618 17575 net.cpp:155] Setting up conv410
I1220 14:07:59.718641 17575 net.cpp:163] Top shape: 48 256 14 14 (2408448)
I1220 14:07:59.718655 17575 layer_factory.hpp:76] Creating layer bn410
I1220 14:07:59.718672 17575 net.cpp:110] Creating Layer bn410
I1220 14:07:59.718684 17575 net.cpp:477] bn410 <- conv410
I1220 14:07:59.718698 17575 net.cpp:433] bn410 -> bn410
I1220 14:07:59.718785 17575 net.cpp:155] Setting up bn410
I1220 14:07:59.718801 17575 net.cpp:163] Top shape: 48 256 14 14 (2408448)
I1220 14:07:59.718822 17575 layer_factory.hpp:76] Creating layer relu410
I1220 14:07:59.718842 17575 net.cpp:110] Creating Layer relu410
I1220 14:07:59.718853 17575 net.cpp:477] relu410 <- bn410
I1220 14:07:59.718868 17575 net.cpp:419] relu410 -> bn410 (in-place)
I1220 14:07:59.718945 17575 net.cpp:155] Setting up relu410
I1220 14:07:59.718961 17575 net.cpp:163] Top shape: 48 256 14 14 (2408448)
I1220 14:07:59.718971 17575 layer_factory.hpp:76] Creating layer eltwise12
I1220 14:07:59.718984 17575 net.cpp:110] Creating Layer eltwise12
I1220 14:07:59.718997 17575 net.cpp:477] eltwise12 <- eltwise11_relu11_0_split_1
I1220 14:07:59.719009 17575 net.cpp:477] eltwise12 <- bn410
I1220 14:07:59.719022 17575 net.cpp:433] eltwise12 -> eltwise12
I1220 14:07:59.719038 17575 net.cpp:155] Setting up eltwise12
I1220 14:07:59.719049 17575 net.cpp:163] Top shape: 48 256 14 14 (2408448)
I1220 14:07:59.719059 17575 layer_factory.hpp:76] Creating layer relu12
I1220 14:07:59.719071 17575 net.cpp:110] Creating Layer relu12
I1220 14:07:59.719082 17575 net.cpp:477] relu12 <- eltwise12
I1220 14:07:59.719096 17575 net.cpp:419] relu12 -> eltwise12 (in-place)
I1220 14:07:59.719280 17575 net.cpp:155] Setting up relu12
I1220 14:07:59.719298 17575 net.cpp:163] Top shape: 48 256 14 14 (2408448)
I1220 14:07:59.719310 17575 layer_factory.hpp:76] Creating layer eltwise12_relu12_0_split
I1220 14:07:59.719322 17575 net.cpp:110] Creating Layer eltwise12_relu12_0_split
I1220 14:07:59.719333 17575 net.cpp:477] eltwise12_relu12_0_split <- eltwise12
I1220 14:07:59.719349 17575 net.cpp:433] eltwise12_relu12_0_split -> eltwise12_relu12_0_split_0
I1220 14:07:59.719364 17575 net.cpp:433] eltwise12_relu12_0_split -> eltwise12_relu12_0_split_1
I1220 14:07:59.719379 17575 net.cpp:433] eltwise12_relu12_0_split -> eltwise12_relu12_0_split_2
I1220 14:07:59.719395 17575 net.cpp:155] Setting up eltwise12_relu12_0_split
I1220 14:07:59.719410 17575 net.cpp:163] Top shape: 48 256 14 14 (2408448)
I1220 14:07:59.719421 17575 net.cpp:163] Top shape: 48 256 14 14 (2408448)
I1220 14:07:59.719432 17575 net.cpp:163] Top shape: 48 256 14 14 (2408448)
I1220 14:07:59.719442 17575 layer_factory.hpp:76] Creating layer conv411
I1220 14:07:59.719456 17575 net.cpp:110] Creating Layer conv411
I1220 14:07:59.719466 17575 net.cpp:477] conv411 <- eltwise12_relu12_0_split_0
I1220 14:07:59.719482 17575 net.cpp:433] conv411 -> conv411
I1220 14:07:59.725281 17575 net.cpp:155] Setting up conv411
I1220 14:07:59.725309 17575 net.cpp:163] Top shape: 48 256 14 14 (2408448)
I1220 14:07:59.725324 17575 layer_factory.hpp:76] Creating layer bn411
I1220 14:07:59.725342 17575 net.cpp:110] Creating Layer bn411
I1220 14:07:59.725353 17575 net.cpp:477] bn411 <- conv411
I1220 14:07:59.725366 17575 net.cpp:433] bn411 -> bn411
I1220 14:07:59.725453 17575 net.cpp:155] Setting up bn411
I1220 14:07:59.725471 17575 net.cpp:163] Top shape: 48 256 14 14 (2408448)
I1220 14:07:59.725491 17575 layer_factory.hpp:76] Creating layer relu411
I1220 14:07:59.725505 17575 net.cpp:110] Creating Layer relu411
I1220 14:07:59.725534 17575 net.cpp:477] relu411 <- bn411
I1220 14:07:59.725550 17575 net.cpp:419] relu411 -> bn411 (in-place)
I1220 14:07:59.725628 17575 net.cpp:155] Setting up relu411
I1220 14:07:59.725644 17575 net.cpp:163] Top shape: 48 256 14 14 (2408448)
I1220 14:07:59.725656 17575 layer_factory.hpp:76] Creating layer conv412
I1220 14:07:59.725672 17575 net.cpp:110] Creating Layer conv412
I1220 14:07:59.725683 17575 net.cpp:477] conv412 <- bn411
I1220 14:07:59.725697 17575 net.cpp:433] conv412 -> conv412
I1220 14:07:59.731489 17575 net.cpp:155] Setting up conv412
I1220 14:07:59.731518 17575 net.cpp:163] Top shape: 48 256 14 14 (2408448)
I1220 14:07:59.731533 17575 layer_factory.hpp:76] Creating layer bn412
I1220 14:07:59.731551 17575 net.cpp:110] Creating Layer bn412
I1220 14:07:59.731597 17575 net.cpp:477] bn412 <- conv412
I1220 14:07:59.731613 17575 net.cpp:433] bn412 -> bn412
I1220 14:07:59.731703 17575 net.cpp:155] Setting up bn412
I1220 14:07:59.731720 17575 net.cpp:163] Top shape: 48 256 14 14 (2408448)
I1220 14:07:59.731737 17575 layer_factory.hpp:76] Creating layer relu412
I1220 14:07:59.731752 17575 net.cpp:110] Creating Layer relu412
I1220 14:07:59.731765 17575 net.cpp:477] relu412 <- bn412
I1220 14:07:59.731776 17575 net.cpp:419] relu412 -> bn412 (in-place)
I1220 14:07:59.731854 17575 net.cpp:155] Setting up relu412
I1220 14:07:59.731870 17575 net.cpp:163] Top shape: 48 256 14 14 (2408448)
I1220 14:07:59.731881 17575 layer_factory.hpp:76] Creating layer eltwise13
I1220 14:07:59.731894 17575 net.cpp:110] Creating Layer eltwise13
I1220 14:07:59.731905 17575 net.cpp:477] eltwise13 <- eltwise12_relu12_0_split_1
I1220 14:07:59.731917 17575 net.cpp:477] eltwise13 <- bn412
I1220 14:07:59.731935 17575 net.cpp:433] eltwise13 -> eltwise13
I1220 14:07:59.731951 17575 net.cpp:155] Setting up eltwise13
I1220 14:07:59.731964 17575 net.cpp:163] Top shape: 48 256 14 14 (2408448)
I1220 14:07:59.731974 17575 layer_factory.hpp:76] Creating layer relu13
I1220 14:07:59.731986 17575 net.cpp:110] Creating Layer relu13
I1220 14:07:59.731997 17575 net.cpp:477] relu13 <- eltwise13
I1220 14:07:59.732009 17575 net.cpp:419] relu13 -> eltwise13 (in-place)
I1220 14:07:59.732079 17575 net.cpp:155] Setting up relu13
I1220 14:07:59.732095 17575 net.cpp:163] Top shape: 48 256 14 14 (2408448)
I1220 14:07:59.732106 17575 layer_factory.hpp:76] Creating layer relu13_p
I1220 14:07:59.732120 17575 net.cpp:110] Creating Layer relu13_p
I1220 14:07:59.732131 17575 net.cpp:477] relu13_p <- eltwise12_relu12_0_split_2
I1220 14:07:59.732146 17575 net.cpp:433] relu13_p -> relu13_p
I1220 14:07:59.733995 17575 net.cpp:155] Setting up relu13_p
I1220 14:07:59.734016 17575 net.cpp:163] Top shape: 48 512 7 7 (1204224)
I1220 14:07:59.734031 17575 layer_factory.hpp:76] Creating layer relu13_bn
I1220 14:07:59.734066 17575 net.cpp:110] Creating Layer relu13_bn
I1220 14:07:59.734079 17575 net.cpp:477] relu13_bn <- relu13_p
I1220 14:07:59.734093 17575 net.cpp:433] relu13_bn -> relu13_bn
I1220 14:07:59.734184 17575 net.cpp:155] Setting up relu13_bn
I1220 14:07:59.734200 17575 net.cpp:163] Top shape: 48 512 7 7 (1204224)
I1220 14:07:59.734217 17575 layer_factory.hpp:76] Creating layer conv51
I1220 14:07:59.734235 17575 net.cpp:110] Creating Layer conv51
I1220 14:07:59.734246 17575 net.cpp:477] conv51 <- eltwise13
I1220 14:07:59.734261 17575 net.cpp:433] conv51 -> conv51
I1220 14:07:59.745373 17575 net.cpp:155] Setting up conv51
I1220 14:07:59.745396 17575 net.cpp:163] Top shape: 48 512 7 7 (1204224)
I1220 14:07:59.745421 17575 layer_factory.hpp:76] Creating layer bn51
I1220 14:07:59.745439 17575 net.cpp:110] Creating Layer bn51
I1220 14:07:59.745450 17575 net.cpp:477] bn51 <- conv51
I1220 14:07:59.745465 17575 net.cpp:433] bn51 -> bn51
I1220 14:07:59.745554 17575 net.cpp:155] Setting up bn51
I1220 14:07:59.745573 17575 net.cpp:163] Top shape: 48 512 7 7 (1204224)
I1220 14:07:59.745589 17575 layer_factory.hpp:76] Creating layer relu51
I1220 14:07:59.745602 17575 net.cpp:110] Creating Layer relu51
I1220 14:07:59.745614 17575 net.cpp:477] relu51 <- bn51
I1220 14:07:59.745656 17575 net.cpp:419] relu51 -> bn51 (in-place)
I1220 14:07:59.745846 17575 net.cpp:155] Setting up relu51
I1220 14:07:59.745867 17575 net.cpp:163] Top shape: 48 512 7 7 (1204224)
I1220 14:07:59.745878 17575 layer_factory.hpp:76] Creating layer conv52
I1220 14:07:59.745893 17575 net.cpp:110] Creating Layer conv52
I1220 14:07:59.745904 17575 net.cpp:477] conv52 <- bn51
I1220 14:07:59.745918 17575 net.cpp:433] conv52 -> conv52
I1220 14:07:59.767793 17575 net.cpp:155] Setting up conv52
I1220 14:07:59.767840 17575 net.cpp:163] Top shape: 48 512 7 7 (1204224)
I1220 14:07:59.767858 17575 layer_factory.hpp:76] Creating layer bn52
I1220 14:07:59.767876 17575 net.cpp:110] Creating Layer bn52
I1220 14:07:59.767920 17575 net.cpp:477] bn52 <- conv52
I1220 14:07:59.767951 17575 net.cpp:433] bn52 -> bn52
I1220 14:07:59.768049 17575 net.cpp:155] Setting up bn52
I1220 14:07:59.768070 17575 net.cpp:163] Top shape: 48 512 7 7 (1204224)
I1220 14:07:59.768100 17575 layer_factory.hpp:76] Creating layer relu52
I1220 14:07:59.768120 17575 net.cpp:110] Creating Layer relu52
I1220 14:07:59.768136 17575 net.cpp:477] relu52 <- bn52
I1220 14:07:59.768152 17575 net.cpp:419] relu52 -> bn52 (in-place)
I1220 14:07:59.768237 17575 net.cpp:155] Setting up relu52
I1220 14:07:59.768256 17575 net.cpp:163] Top shape: 48 512 7 7 (1204224)
I1220 14:07:59.768271 17575 layer_factory.hpp:76] Creating layer eltwise14
I1220 14:07:59.768290 17575 net.cpp:110] Creating Layer eltwise14
I1220 14:07:59.768303 17575 net.cpp:477] eltwise14 <- relu13_bn
I1220 14:07:59.768318 17575 net.cpp:477] eltwise14 <- bn52
I1220 14:07:59.768338 17575 net.cpp:433] eltwise14 -> eltwise14
I1220 14:07:59.768358 17575 net.cpp:155] Setting up eltwise14
I1220 14:07:59.768374 17575 net.cpp:163] Top shape: 48 512 7 7 (1204224)
I1220 14:07:59.768389 17575 layer_factory.hpp:76] Creating layer relu14
I1220 14:07:59.768405 17575 net.cpp:110] Creating Layer relu14
I1220 14:07:59.768419 17575 net.cpp:477] relu14 <- eltwise14
I1220 14:07:59.768435 17575 net.cpp:419] relu14 -> eltwise14 (in-place)
I1220 14:07:59.768512 17575 net.cpp:155] Setting up relu14
I1220 14:07:59.768529 17575 net.cpp:163] Top shape: 48 512 7 7 (1204224)
I1220 14:07:59.768544 17575 layer_factory.hpp:76] Creating layer eltwise14_relu14_0_split
I1220 14:07:59.768563 17575 net.cpp:110] Creating Layer eltwise14_relu14_0_split
I1220 14:07:59.768576 17575 net.cpp:477] eltwise14_relu14_0_split <- eltwise14
I1220 14:07:59.768594 17575 net.cpp:433] eltwise14_relu14_0_split -> eltwise14_relu14_0_split_0
I1220 14:07:59.768610 17575 net.cpp:433] eltwise14_relu14_0_split -> eltwise14_relu14_0_split_1
I1220 14:07:59.768630 17575 net.cpp:155] Setting up eltwise14_relu14_0_split
I1220 14:07:59.768646 17575 net.cpp:163] Top shape: 48 512 7 7 (1204224)
I1220 14:07:59.768661 17575 net.cpp:163] Top shape: 48 512 7 7 (1204224)
I1220 14:07:59.768677 17575 layer_factory.hpp:76] Creating layer conv53
I1220 14:07:59.768697 17575 net.cpp:110] Creating Layer conv53
I1220 14:07:59.768712 17575 net.cpp:477] conv53 <- eltwise14_relu14_0_split_0
I1220 14:07:59.768730 17575 net.cpp:433] conv53 -> conv53
I1220 14:07:59.790539 17575 net.cpp:155] Setting up conv53
I1220 14:07:59.790578 17575 net.cpp:163] Top shape: 48 512 7 7 (1204224)
I1220 14:07:59.790597 17575 layer_factory.hpp:76] Creating layer bn53
I1220 14:07:59.790637 17575 net.cpp:110] Creating Layer bn53
I1220 14:07:59.790658 17575 net.cpp:477] bn53 <- conv53
I1220 14:07:59.790685 17575 net.cpp:433] bn53 -> bn53
I1220 14:07:59.790786 17575 net.cpp:155] Setting up bn53
I1220 14:07:59.790805 17575 net.cpp:163] Top shape: 48 512 7 7 (1204224)
I1220 14:07:59.790838 17575 layer_factory.hpp:76] Creating layer relu53
I1220 14:07:59.790854 17575 net.cpp:110] Creating Layer relu53
I1220 14:07:59.790868 17575 net.cpp:477] relu53 <- bn53
I1220 14:07:59.790884 17575 net.cpp:419] relu53 -> bn53 (in-place)
I1220 14:07:59.791075 17575 net.cpp:155] Setting up relu53
I1220 14:07:59.791097 17575 net.cpp:163] Top shape: 48 512 7 7 (1204224)
I1220 14:07:59.791113 17575 layer_factory.hpp:76] Creating layer conv54
I1220 14:07:59.791164 17575 net.cpp:110] Creating Layer conv54
I1220 14:07:59.791179 17575 net.cpp:477] conv54 <- bn53
I1220 14:07:59.791203 17575 net.cpp:433] conv54 -> conv54
I1220 14:07:59.813032 17575 net.cpp:155] Setting up conv54
I1220 14:07:59.813067 17575 net.cpp:163] Top shape: 48 512 7 7 (1204224)
I1220 14:07:59.813086 17575 layer_factory.hpp:76] Creating layer bn54
I1220 14:07:59.813127 17575 net.cpp:110] Creating Layer bn54
I1220 14:07:59.813139 17575 net.cpp:477] bn54 <- conv54
I1220 14:07:59.813156 17575 net.cpp:433] bn54 -> bn54
I1220 14:07:59.813253 17575 net.cpp:155] Setting up bn54
I1220 14:07:59.813271 17575 net.cpp:163] Top shape: 48 512 7 7 (1204224)
I1220 14:07:59.813287 17575 layer_factory.hpp:76] Creating layer relu54
I1220 14:07:59.813309 17575 net.cpp:110] Creating Layer relu54
I1220 14:07:59.813321 17575 net.cpp:477] relu54 <- bn54
I1220 14:07:59.813334 17575 net.cpp:419] relu54 -> bn54 (in-place)
I1220 14:07:59.813411 17575 net.cpp:155] Setting up relu54
I1220 14:07:59.813427 17575 net.cpp:163] Top shape: 48 512 7 7 (1204224)
I1220 14:07:59.813438 17575 layer_factory.hpp:76] Creating layer eltwise15
I1220 14:07:59.813455 17575 net.cpp:110] Creating Layer eltwise15
I1220 14:07:59.813467 17575 net.cpp:477] eltwise15 <- eltwise14_relu14_0_split_1
I1220 14:07:59.813493 17575 net.cpp:477] eltwise15 <- bn54
I1220 14:07:59.813505 17575 net.cpp:433] eltwise15 -> eltwise15
I1220 14:07:59.813522 17575 net.cpp:155] Setting up eltwise15
I1220 14:07:59.813535 17575 net.cpp:163] Top shape: 48 512 7 7 (1204224)
I1220 14:07:59.813545 17575 layer_factory.hpp:76] Creating layer relu15
I1220 14:07:59.813560 17575 net.cpp:110] Creating Layer relu15
I1220 14:07:59.813571 17575 net.cpp:477] relu15 <- eltwise15
I1220 14:07:59.813583 17575 net.cpp:419] relu15 -> eltwise15 (in-place)
I1220 14:07:59.813655 17575 net.cpp:155] Setting up relu15
I1220 14:07:59.813671 17575 net.cpp:163] Top shape: 48 512 7 7 (1204224)
I1220 14:07:59.813683 17575 layer_factory.hpp:76] Creating layer eltwise15_relu15_0_split
I1220 14:07:59.813696 17575 net.cpp:110] Creating Layer eltwise15_relu15_0_split
I1220 14:07:59.813706 17575 net.cpp:477] eltwise15_relu15_0_split <- eltwise15
I1220 14:07:59.813725 17575 net.cpp:433] eltwise15_relu15_0_split -> eltwise15_relu15_0_split_0
I1220 14:07:59.813740 17575 net.cpp:433] eltwise15_relu15_0_split -> eltwise15_relu15_0_split_1
I1220 14:07:59.813756 17575 net.cpp:155] Setting up eltwise15_relu15_0_split
I1220 14:07:59.813769 17575 net.cpp:163] Top shape: 48 512 7 7 (1204224)
I1220 14:07:59.813781 17575 net.cpp:163] Top shape: 48 512 7 7 (1204224)
I1220 14:07:59.813791 17575 layer_factory.hpp:76] Creating layer conv55
I1220 14:07:59.813807 17575 net.cpp:110] Creating Layer conv55
I1220 14:07:59.813819 17575 net.cpp:477] conv55 <- eltwise15_relu15_0_split_0
I1220 14:07:59.813832 17575 net.cpp:433] conv55 -> conv55
I1220 14:07:59.835671 17575 net.cpp:155] Setting up conv55
I1220 14:07:59.835719 17575 net.cpp:163] Top shape: 48 512 7 7 (1204224)
I1220 14:07:59.835737 17575 layer_factory.hpp:76] Creating layer bn55
I1220 14:07:59.835779 17575 net.cpp:110] Creating Layer bn55
I1220 14:07:59.835803 17575 net.cpp:477] bn55 <- conv55
I1220 14:07:59.835830 17575 net.cpp:433] bn55 -> bn55
I1220 14:07:59.835939 17575 net.cpp:155] Setting up bn55
I1220 14:07:59.835960 17575 net.cpp:163] Top shape: 48 512 7 7 (1204224)
I1220 14:07:59.835988 17575 layer_factory.hpp:76] Creating layer relu55
I1220 14:07:59.836005 17575 net.cpp:110] Creating Layer relu55
I1220 14:07:59.836020 17575 net.cpp:477] relu55 <- bn55
I1220 14:07:59.836038 17575 net.cpp:419] relu55 -> bn55 (in-place)
I1220 14:07:59.836122 17575 net.cpp:155] Setting up relu55
I1220 14:07:59.836140 17575 net.cpp:163] Top shape: 48 512 7 7 (1204224)
I1220 14:07:59.836154 17575 layer_factory.hpp:76] Creating layer conv56
I1220 14:07:59.836180 17575 net.cpp:110] Creating Layer conv56
I1220 14:07:59.836194 17575 net.cpp:477] conv56 <- bn55
I1220 14:07:59.836211 17575 net.cpp:433] conv56 -> conv56
I1220 14:07:59.858059 17575 net.cpp:155] Setting up conv56
I1220 14:07:59.858127 17575 net.cpp:163] Top shape: 48 512 7 7 (1204224)
I1220 14:07:59.858217 17575 layer_factory.hpp:76] Creating layer bn56
I1220 14:07:59.858250 17575 net.cpp:110] Creating Layer bn56
I1220 14:07:59.858266 17575 net.cpp:477] bn56 <- conv56
I1220 14:07:59.858292 17575 net.cpp:433] bn56 -> bn56
I1220 14:07:59.858399 17575 net.cpp:155] Setting up bn56
I1220 14:07:59.858420 17575 net.cpp:163] Top shape: 48 512 7 7 (1204224)
I1220 14:07:59.858440 17575 layer_factory.hpp:76] Creating layer relu56
I1220 14:07:59.858456 17575 net.cpp:110] Creating Layer relu56
I1220 14:07:59.858472 17575 net.cpp:477] relu56 <- bn56
I1220 14:07:59.858490 17575 net.cpp:419] relu56 -> bn56 (in-place)
I1220 14:07:59.858686 17575 net.cpp:155] Setting up relu56
I1220 14:07:59.858711 17575 net.cpp:163] Top shape: 48 512 7 7 (1204224)
I1220 14:07:59.858726 17575 layer_factory.hpp:76] Creating layer eltwise16
I1220 14:07:59.858767 17575 net.cpp:110] Creating Layer eltwise16
I1220 14:07:59.858783 17575 net.cpp:477] eltwise16 <- eltwise15_relu15_0_split_1
I1220 14:07:59.858798 17575 net.cpp:477] eltwise16 <- bn56
I1220 14:07:59.858817 17575 net.cpp:433] eltwise16 -> eltwise16
I1220 14:07:59.858839 17575 net.cpp:155] Setting up eltwise16
I1220 14:07:59.858855 17575 net.cpp:163] Top shape: 48 512 7 7 (1204224)
I1220 14:07:59.858868 17575 layer_factory.hpp:76] Creating layer relu16
I1220 14:07:59.858886 17575 net.cpp:110] Creating Layer relu16
I1220 14:07:59.858901 17575 net.cpp:477] relu16 <- eltwise16
I1220 14:07:59.858916 17575 net.cpp:419] relu16 -> eltwise16 (in-place)
I1220 14:07:59.858994 17575 net.cpp:155] Setting up relu16
I1220 14:07:59.859012 17575 net.cpp:163] Top shape: 48 512 7 7 (1204224)
I1220 14:07:59.859026 17575 layer_factory.hpp:76] Creating layer pool5
I1220 14:07:59.859045 17575 net.cpp:110] Creating Layer pool5
I1220 14:07:59.859058 17575 net.cpp:477] pool5 <- eltwise16
I1220 14:07:59.859077 17575 net.cpp:433] pool5 -> pool5
I1220 14:07:59.859158 17575 net.cpp:155] Setting up pool5
I1220 14:07:59.859176 17575 net.cpp:163] Top shape: 48 512 1 1 (24576)
I1220 14:07:59.859191 17575 layer_factory.hpp:76] Creating layer ip1
I1220 14:07:59.859220 17575 net.cpp:110] Creating Layer ip1
I1220 14:07:59.859233 17575 net.cpp:477] ip1 <- pool5
I1220 14:07:59.859253 17575 net.cpp:433] ip1 -> ip1
I1220 14:07:59.908900 17575 net.cpp:155] Setting up ip1
I1220 14:07:59.908963 17575 net.cpp:163] Top shape: 48 10575 (507600)
I1220 14:07:59.909009 17575 layer_factory.hpp:76] Creating layer ip1_ip1_0_split
I1220 14:07:59.909039 17575 net.cpp:110] Creating Layer ip1_ip1_0_split
I1220 14:07:59.909055 17575 net.cpp:477] ip1_ip1_0_split <- ip1
I1220 14:07:59.909134 17575 net.cpp:433] ip1_ip1_0_split -> ip1_ip1_0_split_0
I1220 14:07:59.909159 17575 net.cpp:433] ip1_ip1_0_split -> ip1_ip1_0_split_1
I1220 14:07:59.909179 17575 net.cpp:155] Setting up ip1_ip1_0_split
I1220 14:07:59.909195 17575 net.cpp:163] Top shape: 48 10575 (507600)
I1220 14:07:59.909210 17575 net.cpp:163] Top shape: 48 10575 (507600)
I1220 14:07:59.909224 17575 layer_factory.hpp:76] Creating layer loss
I1220 14:07:59.909245 17575 net.cpp:110] Creating Layer loss
I1220 14:07:59.909257 17575 net.cpp:477] loss <- ip1_ip1_0_split_0
I1220 14:07:59.909276 17575 net.cpp:477] loss <- label_data_1_split_0
I1220 14:07:59.909299 17575 net.cpp:433] loss -> loss
I1220 14:07:59.909371 17575 layer_factory.hpp:76] Creating layer loss
…
I1220 14:07:59.916687 17575 net.cpp:339] The NetState phase (1) differed from the phase (0) specified by a rule in layer data
I1220 14:07:59.916764 17575 net.cpp:339] The NetState phase (1) differed from the phase (0) specified by a rule in layer loss
I1220 14:07:59.917371 17575 net.cpp:50] Initializing net from parameters: 
name: "RsdNet34"
state {
  phase: TEST
}
layer {
  name: "data"
  type: "Data"
  top: "data"
  top: "label"
  include {
    phase: TEST
  }
  transform_param {
    scale: 0.0039215689
    mirror: true
    mean_file: "./mean_224gray.binaryproto"
  }
  data_param {
    source: "./test_224gray_lmdb"
    batch_size: 36
    backend: LMDB
  }
}
layer {
  name: "conv01"
  type: "Convolution"
  bottom: "data"
  top: "conv01"
  param {
    lr_mult: 1
    decay_mult: 1
  }
  param {
    lr_mult: 2
    decay_mult: 0
  }
  convolution_param {
    num_output: 64
    pad: 3
    kernel_size: 7
    stride: 2
    weight_filler {
      type: "xavier"
    }
    bias_filler {
      type: "constant"
    }
  }
}
layer {
  name: "bn01"
  type: "BatchNorm"
  bottom: "conv01"
  top: "bn01"
  batch_norm_param {
    use_global_stats: false
  }
}
layer {
  name: "relu01"
  type: "ReLU"
  bottom: "bn01"
  top: "bn01"
}
layer {
  name: "pool1"
  type: "Pooling"
  bottom: "bn01"
  top: "pool1"
  pooling_param {
    pool: MAX
    kernel_size: 3
    stride: 2
  }
}
layer {
  name: "conv21"
  type: "Convolution"
  bottom: "pool1"
  top: "conv21"
  param {
    lr_mult: 1
    decay_mult: 1
  }
  param {
    lr_mult: 2
    decay_mult: 0
  }
  convolution_param {
    num_output: 64
    pad: 1
    kernel_size: 3
    stride: 1
    weight_filler {
      type: "xavier"
    }
    bias_filler {
      type: "constant"
    }
  }
}
layer {
  name: "bn21"
  type: "BatchNorm"
  bottom: "conv21"
  top: "bn21"
  batch_norm_param {
    use_global_stats: false
  }
}
layer {
  name: "relu21"
  type: "ReLU"
  bottom: "bn21"
  top: "bn21"
}
layer {
  name: "conv22"
  type: "Convolution"
  bottom: "bn21"
  top: "conv22"
  param {
    lr_mult: 1
    decay_mult: 1
  }
  param {
    lr_mult: 2
    decay_mult: 0
  }
  convolution_param {
    num_output: 64
    pad: 1
    kernel_size: 3
    stride: 1
    weight_filler {
      type: "xavier"
    }
    bias_filler {
      type: "constant"
    }
  }
}
layer {
  name: "bn22"
  type: "BatchNorm"
  bottom: "conv22"
  top: "bn22"
  batch_norm_param {
    use_global_stats: false
  }
}
layer {
  name: "relu22"
  type: "ReLU"
  bottom: "bn22"
  top: "bn22"
}
layer {
  name: "eltwise1"
  type: "Eltwise"
  bottom: "pool1"
  bottom: "bn22"
  top: "eltwise1"
  eltwise_param {
    operation: SUM
  }
}
layer {
  name: "relu1"
  type: "ReLU"
  bottom: "eltwise1"
  top: "eltwise1"
}
layer {
  name: "conv23"
  type: "Convolution"
  bottom: "eltwise1"
  top: "conv23"
  param {
    lr_mult: 1
    decay_mult: 1
  }
  param {
    lr_mult: 2
    decay_mult: 0
  }
  convolution_param {
    num_output: 64
    pad: 1
    kernel_size: 3
    stride: 1
    weight_filler {
      type: "xavier"
    }
    bias_filler {
      type: "constant"
    }
  }
}
layer {
  name: "bn23"
  type: "BatchNorm"
  bottom: "conv23"
  top: "bn23"
  batch_norm_param {
    use_global_stats: false
  }
}
layer {
  name: "relu23"
  type: "ReLU"
  bottom: "bn23"
  top: "bn23"
}
layer {
  name: "conv24"
  type: "Convolution"
  bottom: "bn23"
  top: "conv24"
  param {
    lr_mult: 1
    decay_mult: 1
  }
  param {
    lr_mult: 2
    decay_mult: 0
  }
  convolution_param {
    num_output: 64
    pad: 1
    kernel_size: 3
    stride: 1
    weight_filler {
      type: "xavier"
    }
    bias_filler {
      type: "constant"
    }
  }
}
layer {
  name: "bn24"
  type: "BatchNorm"
  bottom: "conv24"
  top: "bn24"
  batch_norm_param {
    use_global_stats: false
  }
}
layer {
  name: "relu24"
  type: "ReLU"
  bottom: "bn24"
  top: "bn24"
}
layer {
  name: "eltwise2"
  type: "Eltwise"
  bottom: "eltwise1"
  bottom: "bn24"
  top: "eltwise2"
  eltwise_param {
    operation: SUM
  }
}
layer {
  name: "relu2"
  type: "ReLU"
  bottom: "eltwise2"
  top: "eltwise2"
}
layer {
  name: "conv25"
  type: "Convolution"
  bottom: "bn24"
  top: "conv25"
  param {
    lr_mult: 1
    decay_mult: 1
  }
  param {
    lr_mult: 2
    decay_mult: 0
  }
  convolution_param {
    num_output: 64
    pad: 1
    kernel_size: 3
    stride: 1
    weight_filler {
      type: "xavier"
    }
    bias_filler {
      type: "constant"
    }
  }
}
layer {
  name: "bn25"
  type: "BatchNorm"
  bottom: "conv25"
  top: "bn25"
  batch_norm_param {
    use_global_stats: false
  }
}
layer {
  name: "relu25"
  type: "ReLU"
  bottom: "bn25"
  top: "bn25"
}
layer {
  name: "conv26"
  type: "Convolution"
  bottom: "bn25"
  top: "conv26"
  param {
    lr_mult: 1
    decay_mult: 1
  }
  param {
    lr_mult: 2
    decay_mult: 0
  }
  convolution_param {
    num_output: 64
    pad: 1
    kernel_size: 3
    stride: 1
    weight_filler {
      type: "xavier"
    }
    bias_filler {
      type: "constant"
    }
  }
}
layer {
  name: "bn26"
  type: "BatchNorm"
  bottom: "conv26"
  top: "bn26"
  batch_norm_param {
    use_global_stats: false
  }
}
layer {
  name: "relu26"
  type: "ReLU"
  bottom: "bn26"
  top: "bn26"
}
layer {
  name: "eltwise3"
  type: "Eltwise"
  bottom: "eltwise2"
  bottom: "bn26"
  top: "eltwise3"
  eltwise_param {
    operation: SUM
  }
}
layer {
  name: "relu3"
  type: "ReLU"
  bottom: "eltwise3"
  top: "eltwise3"
}
layer {
  name: "relu3_p"
  type: "Convolution"
  bottom: "eltwise3"
  top: "relu3_p"
  param {
    lr_mult: 1
    decay_mult: 1
  }
  param {
    lr_mult: 2
    decay_mult: 0
  }
  convolution_param {
    num_output: 128
    pad: 0
    kernel_size: 1
    stride: 2
    weight_filler {
      type: "xavier"
    }
    bias_filler {
      type: "constant"
    }
  }
}
layer {
  name: "relu3_bn"
  type: "BatchNorm"
  bottom: "relu3_p"
  top: "relu3_bn"
  batch_norm_param {
    use_global_stats: false
  }
}
layer {
  name: "conv31"
  type: "Convolution"
  bottom: "eltwise3"
  top: "conv31"
  param {
    lr_mult: 1
    decay_mult: 1
  }
  param {
    lr_mult: 2
    decay_mult: 0
  }
  convolution_param {
    num_output: 128
    pad: 1
    kernel_size: 3
    stride: 2
    weight_filler {
      type: "xavier"
    }
    bias_filler {
      type: "constant"
    }
  }
}
layer {
  name: "bn31"
  type: "BatchNorm"
  bottom: "conv31"
  top: "bn31"
  batch_norm_param {
    use_global_stats: false
  }
}
layer {
  name: "relu31"
  type: "ReLU"
  bottom: "bn31"
  top: "bn31"
}
layer {
  name: "conv32"
  type: "Convolution"
  bottom: "bn31"
  top: "conv32"
  param {
    lr_mult: 1
    decay_mult: 1
  }
  param {
    lr_mult: 2
    decay_mult: 0
  }
  convolution_param {
    num_output: 128
    pad: 1
    kernel_size: 3
    stride: 1
    weight_filler {
      type: "xavier"
    }
    bias_filler {
      type: "constant"
    }
  }
}
layer {
  name: "bn32"
  type: "BatchNorm"
  bottom: "conv32"
  top: "bn32"
  batch_norm_param {
    use_global_stats: false
  }
}
layer {
  name: "relu32"
  type: "ReLU"
  bottom: "bn32"
  top: "bn32"
}
layer {
  name: "eltwise4"
  type: "Eltwise"
  bottom: "relu3_bn"
  bottom: "bn32"
  top: "eltwise4"
  eltwise_param {
    operation: SUM
  }
}
layer {
  name: "relu4"
  type: "ReLU"
  bottom: "eltwise4"
  top: "eltwise4"
}
layer {
  name: "conv33"
  type: "Convolution"
  bottom: "eltwise4"
  top: "conv33"
  param {
    lr_mult: 1
    decay_mult: 1
  }
  param {
    lr_mult: 2
    decay_mult: 0
  }
  convolution_param {
    num_output: 128
    pad: 1
    kernel_size: 3
    stride: 1
    weight_filler {
      type: "xavier"
    }
    bias_filler {
      type: "constant"
    }
  }
}
layer {
  name: "bn33"
  type: "BatchNorm"
  bottom: "conv33"
  top: "bn33"
  batch_norm_param {
    use_global_stats: false
  }
}
layer {
  name: "relu33"
  type: "ReLU"
  bottom: "bn33"
  top: "bn33"
}
layer {
  name: "conv34"
  type: "Convolution"
  bottom: "bn33"
  top: "conv34"
  param {
    lr_mult: 1
    decay_mult: 1
  }
  param {
    lr_mult: 2
    decay_mult: 0
  }
  convolution_param {
    num_output: 128
    pad: 1
    kernel_size: 3
    stride: 1
    weight_filler {
      type: "xavier"
    }
    bias_filler {
      type: "constant"
    }
  }
}
layer {
  name: "bn34"
  type: "BatchNorm"
  bottom: "conv34"
  top: "bn34"
  batch_norm_param {
    use_global_stats: false
  }
}
layer {
  name: "relu34"
  type: "ReLU"
  bottom: "bn34"
  top: "bn34"
}
layer {
  name: "eltwise5"
  type: "Eltwise"
  bottom: "eltwise4"
  bottom: "bn34"
  top: "eltwise5"
  eltwise_param {
    operation: SUM
  }
}
layer {
  name: "relu5"
  type: "ReLU"
  bottom: "eltwise5"
  top: "eltwise5"
}
layer {
  name: "conv35"
  type: "Convolution"
  bottom: "eltwise5"
  top: "conv35"
  param {
    lr_mult: 1
    decay_mult: 1
  }
  param {
    lr_mult: 2
    decay_mult: 0
  }
  convolution_param {
    num_output: 128
    pad: 1
    kernel_size: 3
    stride: 1
    weight_filler {
      type: "xavier"
    }
    bias_filler {
      type: "constant"
    }
  }
}
layer {
  name: "bn35"
  type: "BatchNorm"
  bottom: "conv35"
  top: "bn35"
  batch_norm_param {
    use_global_stats: false
  }
}
layer {
  name: "relu35"
  type: "ReLU"
  bottom: "bn35"
  top: "bn35"
}
layer {
  name: "conv36"
  type: "Convolution"
  bottom: "bn35"
  top: "conv36"
  param {
    lr_mult: 1
    decay_mult: 1
  }
  param {
    lr_mult: 2
    decay_mult: 0
  }
  convolution_param {
    num_output: 128
    pad: 1
    kernel_size: 3
    stride: 1
    weight_filler {
      type: "xavier"
    }
    bias_filler {
      type: "constant"
    }
  }
}
layer {
  name: "bn36"
  type: "BatchNorm"
  bottom: "conv36"
  top: "bn36"
  batch_norm_param {
    use_global_stats: false
  }
}
layer {
  name: "relu36"
  type: "ReLU"
  bottom: "bn36"
  top: "bn36"
}
layer {
  name: "eltwise6"
  type: "Eltwise"
  bottom: "eltwise5"
  bottom: "bn36"
  top: "eltwise6"
  eltwise_param {
    operation: SUM
  }
}
layer {
  name: "relu6"
  type: "ReLU"
  bottom: "eltwise6"
  top: "eltwise6"
}
layer {
  name: "conv37"
  type: "Convolution"
  bottom: "eltwise6"
  top: "conv37"
  param {
    lr_mult: 1
    decay_mult: 1
  }
  param {
    lr_mult: 2
    decay_mult: 0
  }
  convolution_param {
    num_output: 128
    pad: 1
    kernel_size: 3
    stride: 1
    weight_filler {
      type: "xavier"
    }
    bias_filler {
      type: "constant"
    }
  }
}
layer {
  name: "bn37"
  type: "BatchNorm"
  bottom: "conv37"
  top: "bn37"
  batch_norm_param {
    use_global_stats: false
  }
}
layer {
  name: "relu37"
  type: "ReLU"
  bottom: "bn37"
  top: "bn37"
}
layer {
  name: "conv38"
  type: "Convolution"
  bottom: "bn37"
  top: "conv38"
  param {
    lr_mult: 1
    decay_mult: 1
  }
  param {
    lr_mult: 2
    decay_mult: 0
  }
  convolution_param {
    num_output: 128
    pad: 1
    kernel_size: 3
    stride: 1
    weight_filler {
      type: "xavier"
    }
    bias_filler {
      type: "constant"
    }
  }
}
layer {
  name: "bn38"
  type: "BatchNorm"
  bottom: "conv38"
  top: "bn38"
  batch_norm_param {
    use_global_stats: false
  }
}
layer {
  name: "relu38"
  type: "ReLU"
  bottom: "bn38"
  top: "bn38"
}
layer {
  name: "eltwise7"
  type: "Eltwise"
  bottom: "eltwise6"
  bottom: "bn38"
  top: "eltwise7"
  eltwise_param {
    operation: SUM
  }
}
layer {
  name: "relu7"
  type: "ReLU"
  bottom: "eltwise7"
  top: "eltwise7"
}
layer {
  name: "relu7_p"
  type: "Convolution"
  bottom: "eltwise7"
  top: "relu7_p"
  param {
    lr_mult: 1
    decay_mult: 1
  }
  param {
    lr_mult: 2
    decay_mult: 0
  }
  convolution_param {
    num_output: 256
    pad: 0
    kernel_size: 1
    stride: 2
    weight_filler {
      type: "xavier"
    }
    bias_filler {
      type: "constant"
    }
  }
}
layer {
  name: "relu7_bn"
  type: "BatchNorm"
  bottom: "relu7_p"
  top: "relu7_bn"
  batch_norm_param {
    use_global_stats: false
  }
}
layer {
  name: "conv41"
  type: "Convolution"
  bottom: "eltwise7"
  top: "conv41"
  param {
    lr_mult: 1
    decay_mult: 1
  }
  param {
    lr_mult: 2
    decay_mult: 0
  }
  convolution_param {
    num_output: 256
    pad: 1
    kernel_size: 3
    stride: 2
    weight_filler {
      type: "xavier"
    }
    bias_filler {
      type: "constant"
    }
  }
}
layer {
  name: "bn41"
  type: "BatchNorm"
  bottom: "conv41"
  top: "bn41"
  batch_norm_param {
    use_global_stats: false
  }
}
layer {
  name: "relu41"
  type: "ReLU"
  bottom: "bn41"
  top: "bn41"
}
layer {
  name: "conv42"
  type: "Convolution"
  bottom: "bn41"
  top: "conv42"
  param {
    lr_mult: 1
    decay_mult: 1
  }
  param {
    lr_mult: 2
    decay_mult: 0
  }
  convolution_param {
    num_output: 256
    pad: 1
    kernel_size: 3
    stride: 1
    weight_filler {
      type: "xavier"
    }
    bias_filler {
      type: "constant"
    }
  }
}
layer {
  name: "bn42"
  type: "BatchNorm"
  bottom: "conv42"
  top: "bn42"
  batch_norm_param {
    use_global_stats: false
  }
}
layer {
  name: "relu42"
  type: "ReLU"
  bottom: "bn42"
  top: "bn42"
}
layer {
  name: "eltwise8"
  type: "Eltwise"
  bottom: "relu7_bn"
  bottom: "bn42"
  top: "eltwise8"
  eltwise_param {
    operation: SUM
  }
}
layer {
  name: "relu8"
  type: "ReLU"
  bottom: "eltwise8"
  top: "eltwise8"
}
layer {
  name: "conv43"
  type: "Convolution"
  bottom: "eltwise8"
  top: "conv43"
  param {
    lr_mult: 1
    decay_mult: 1
  }
  param {
    lr_mult: 2
    decay_mult: 0
  }
  convolution_param {
    num_output: 256
    pad: 1
    kernel_size: 3
    stride: 1
    weight_filler {
      type: "xavier"
    }
    bias_filler {
      type: "constant"
    }
  }
}
layer {
  name: "bn43"
  type: "BatchNorm"
  bottom: "conv43"
  top: "bn43"
  batch_norm_param {
    use_global_stats: false
  }
}
layer {
  name: "relu43"
  type: "ReLU"
  bottom: "bn43"
  top: "bn43"
}
layer {
  name: "conv44"
  type: "Convolution"
  bottom: "bn43"
  top: "conv44"
  param {
    lr_mult: 1
    decay_mult: 1
  }
  param {
    lr_mult: 2
    decay_mult: 0
  }
  convolution_param {
    num_output: 256
    pad: 1
    kernel_size: 3
    stride: 1
    weight_filler {
      type: "xavier"
    }
    bias_filler {
      type: "constant"
    }
  }
}
layer {
  name: "bn44"
  type: "BatchNorm"
  bottom: "conv44"
  top: "bn44"
  batch_norm_param {
    use_global_stats: false
  }
}
layer {
  name: "relu44"
  type: "ReLU"
  bottom: "bn44"
  top: "bn44"
}
layer {
  name: "eltwise9"
  type: "Eltwise"
  bottom: "eltwise8"
  bottom: "bn44"
  top: "eltwise9"
  eltwise_param {
    operation: SUM
  }
}
layer {
  name: "relu9"
  type: "ReLU"
  bottom: "eltwise9"
  top: "eltwise9"
}
layer {
  name: "conv45"
  type: "Convolution"
  bottom: "eltwise9"
  top: "conv45"
  param {
    lr_mult: 1
    decay_mult: 1
  }
  param {
    lr_mult: 2
    decay_mult: 0
  }
  convolution_param {
    num_output: 256
    pad: 1
    kernel_size: 3
    stride: 1
    weight_filler {
      type: "xavier"
    }
    bias_filler {
      type: "constant"
    }
  }
}
layer {
  name: "bn45"
  type: "BatchNorm"
  bottom: "conv45"
  top: "bn45"
  batch_norm_param {
    use_global_stats: false
  }
}
layer {
  name: "relu45"
  type: "ReLU"
  bottom: "bn45"
  top: "bn45"
}
layer {
  name: "conv46"
  type: "Convolution"
  bottom: "bn45"
  top: "conv46"
  param {
    lr_mult: 1
    decay_mult: 1
  }
  param {
    lr_mult: 2
    decay_mult: 0
  }
  convolution_param {
    num_output: 256
    pad: 1
    kernel_size: 3
    stride: 1
    weight_filler {
      type: "xavier"
    }
    bias_filler {
      type: "constant"
    }
  }
}
layer {
  name: "bn46"
  type: "BatchNorm"
  bottom: "conv46"
  top: "bn46"
  batch_norm_param {
    use_global_stats: false
  }
}
layer {
  name: "relu46"
  type: "ReLU"
  bottom: "bn46"
  top: "bn46"
}
layer {
  name: "eltwise10"
  type: "Eltwise"
  bottom: "eltwise9"
  bottom: "bn46"
  top: "eltwise10"
  eltwise_param {
    operation: SUM
  }
}
layer {
  name: "relu10"
  type: "ReLU"
  bottom: "eltwise10"
  top: "eltwise10"
}
layer {
  name: "conv47"
  type: "Convolution"
  bottom: "eltwise10"
  top: "conv47"
  param {
    lr_mult: 1
    decay_mult: 1
  }
  param {
    lr_mult: 2
    decay_mult: 0
  }
  convolution_param {
    num_output: 256
    pad: 1
    kernel_size: 3
    stride: 1
    weight_filler {
      type: "xavier"
    }
    bias_filler {
      type: "constant"
    }
  }
}
layer {
  name: "bn47"
  type: "BatchNorm"
  bottom: "conv47"
  top: "bn47"
  batch_norm_param {
    use_global_stats: false
  }
}
layer {
  name: "relu47"
  type: "ReLU"
  bottom: "bn47"
  top: "bn47"
}
layer {
  name: "conv48"
  type: "Convolution"
  bottom: "bn47"
  top: "conv48"
  param {
    lr_mult: 1
    decay_mult: 1
  }
  param {
    lr_mult: 2
    decay_mult: 0
  }
  convolution_param {
    num_output: 256
    pad: 1
    kernel_size: 3
    stride: 1
    weight_filler {
      type: "xavier"
    }
    bias_filler {
      type: "constant"
    }
  }
}
layer {
  name: "bn48"
  type: "BatchNorm"
  bottom: "conv48"
  top: "bn48"
  batch_norm_param {
    use_global_stats: false
  }
}
layer {
  name: "relu48"
  type: "ReLU"
  bottom: "bn48"
  top: "bn48"
}
layer {
  name: "eltwise11"
  type: "Eltwise"
  bottom: "eltwise10"
  bottom: "bn48"
  top: "eltwise11"
  eltwise_param {
    operation: SUM
  }
}
layer {
  name: "relu11"
  type: "ReLU"
  bottom: "eltwise11"
  top: "eltwise11"
}
layer {
  name: "conv49"
  type: "Convolution"
  bottom: "eltwise11"
  top: "conv49"
  param {
    lr_mult: 1
    decay_mult: 1
  }
  param {
    lr_mult: 2
    decay_mult: 0
  }
  convolution_param {
    num_output: 256
    pad: 1
    kernel_size: 3
    stride: 1
    weight_filler {
      type: "xavier"
    }
    bias_filler {
      type: "constant"
    }
  }
}
layer {
  name: "bn49"
  type: "BatchNorm"
  bottom: "conv49"
  top: "bn49"
  batch_norm_param {
    use_global_stats: false
  }
}
layer {
  name: "relu49"
  type: "ReLU"
  bottom: "bn49"
  top: "bn49"
}
layer {
  name: "conv410"
  type: "Convolution"
  bottom: "bn49"
  top: "conv410"
  param {
    lr_mult: 1
    decay_mult: 1
  }
  param {
    lr_mult: 2
    decay_mult: 0
  }
  convolution_param {
    num_output: 256
    pad: 1
    kernel_size: 3
    stride: 1
    weight_filler {
      type: "xavier"
    }
    bias_filler {
      type: "constant"
    }
  }
}
layer {
  name: "bn410"
  type: "BatchNorm"
  bottom: "conv410"
  top: "bn410"
  batch_norm_param {
    use_global_stats: false
  }
}
layer {
  name: "relu410"
  type: "ReLU"
  bottom: "bn410"
  top: "bn410"
}
layer {
  name: "eltwise12"
  type: "Eltwise"
  bottom: "eltwise11"
  bottom: "bn410"
  top: "eltwise12"
  eltwise_param {
    operation: SUM
  }
}
layer {
  name: "relu12"
  type: "ReLU"
  bottom: "eltwise12"
  top: "eltwise12"
}
layer {
  name: "conv411"
  type: "Convolution"
  bottom: "eltwise12"
  top: "conv411"
  param {
    lr_mult: 1
    decay_mult: 1
  }
  param {
    lr_mult: 2
    decay_mult: 0
  }
  convolution_param {
    num_output: 256
    pad: 1
    kernel_size: 3
    stride: 1
    weight_filler {
      type: "xavier"
    }
    bias_filler {
      type: "constant"
    }
  }
}
layer {
  name: "bn411"
  type: "BatchNorm"
  bottom: "conv411"
  top: "bn411"
  batch_norm_param {
    use_global_stats: false
  }
}
layer {
  name: "relu411"
  type: "ReLU"
  bottom: "bn411"
  top: "bn411"
}
layer {
  name: "conv412"
  type: "Convolution"
  bottom: "bn411"
  top: "conv412"
  param {
    lr_mult: 1
    decay_mult: 1
  }
  param {
    lr_mult: 2
    decay_mult: 0
  }
  convolution_param {
    num_output: 256
    pad: 1
    kernel_size: 3
    stride: 1
    weight_filler {
      type: "xavier"
    }
    bias_filler {
      type: "constant"
    }
  }
}
layer {
  name: "bn412"
  type: "BatchNorm"
  bottom: "conv412"
  top: "bn412"
  batch_norm_param {
    use_global_stats: false
  }
}
layer {
  name: "relu412"
  type: "ReLU"
  bottom: "bn412"
  top: "bn412"
}
layer {
  name: "eltwise13"
  type: "Eltwise"
  bottom: "eltwise12"
  bottom: "bn412"
  top: "eltwise13"
  eltwise_param {
    operation: SUM
  }
}
layer {
  name: "relu13"
  type: "ReLU"
  bottom: "eltwise13"
  top: "eltwise13"
}
layer {
  name: "relu13_p"
  type: "Convolution"
  bottom: "eltwise12"
  top: "relu13_p"
  param {
    lr_mult: 1
    decay_mult: 1
  }
  param {
    lr_mult: 2
    decay_mult: 0
  }
  convolution_param {
    num_output: 512
    pad: 0
    kernel_size: 1
    stride: 2
    weight_filler {
      type: "xavier"
    }
    bias_filler {
      type: "constant"
    }
  }
}
layer {
  name: "relu13_bn"
  type: "BatchNorm"
  bottom: "relu13_p"
  top: "relu13_bn"
  batch_norm_param {
    use_global_stats: false
  }
}
layer {
  name: "conv51"
  type: "Convolution"
  bottom: "eltwise13"
  top: "conv51"
  param {
    lr_mult: 1
    decay_mult: 1
  }
  param {
    lr_mult: 2
    decay_mult: 0
  }
  convolution_param {
    num_output: 512
    pad: 1
    kernel_size: 3
    stride: 2
    weight_filler {
      type: "xavier"
    }
    bias_filler {
      type: "constant"
    }
  }
}
layer {
  name: "bn51"
  type: "BatchNorm"
  bottom: "conv51"
  top: "bn51"
  batch_norm_param {
    use_global_stats: false
  }
}
layer {
  name: "relu51"
  type: "ReLU"
  bottom: "bn51"
  top: "bn51"
}
layer {
  name: "conv52"
  type: "Convolution"
  bottom: "bn51"
  top: "conv52"
  param {
    lr_mult: 1
    decay_mult: 1
  }
  param {
    lr_mult: 2
    decay_mult: 0
  }
  convolution_param {
    num_output: 512
    pad: 1
    kernel_size: 3
    stride: 1
    weight_filler {
      type: "xavier"
    }
    bias_filler {
      type: "constant"
    }
  }
}
layer {
  name: "bn52"
  type: "BatchNorm"
  bottom: "conv52"
  top: "bn52"
  batch_norm_param {
    use_global_stats: false
  }
}
layer {
  name: "relu52"
  type: "ReLU"
  bottom: "bn52"
  top: "bn52"
}
layer {
  name: "eltwise14"
  type: "Eltwise"
  bottom: "relu13_bn"
  bottom: "bn52"
  top: "eltwise14"
  eltwise_param {
    operation: SUM
  }
}
layer {
  name: "relu14"
  type: "ReLU"
  bottom: "eltwise14"
  top: "eltwise14"
}
layer {
  name: "conv53"
  type: "Convolution"
  bottom: "eltwise14"
  top: "conv53"
  param {
    lr_mult: 1
    decay_mult: 1
  }
  param {
    lr_mult: 2
    decay_mult: 0
  }
  convolution_param {
    num_output: 512
    pad: 1
    kernel_size: 3
    stride: 1
    weight_filler {
      type: "xavier"
    }
    bias_filler {
      type: "constant"
    }
  }
}
layer {
  name: "bn53"
  type: "BatchNorm"
  bottom: "conv53"
  top: "bn53"
  batch_norm_param {
    use_global_stats: false
  }
}
layer {
  name: "relu53"
  type: "ReLU"
  bottom: "bn53"
  top: "bn53"
}
layer {
  name: "conv54"
  type: "Convolution"
  bottom: "bn53"
  top: "conv54"
  param {
    lr_mult: 1
    decay_mult: 1
  }
  param {
    lr_mult: 2
    decay_mult: 0
  }
  convolution_param {
    num_output: 512
    pad: 1
    kernel_size: 3
    stride: 1
    weight_filler {
      type: "xavier"
    }
    bias_filler {
      type: "constant"
    }
  }
}
layer {
  name: "bn54"
  type: "BatchNorm"
  bottom: "conv54"
  top: "bn54"
  batch_norm_param {
    use_global_stats: false
  }
}
layer {
  name: "relu54"
  type: "ReLU"
  bottom: "bn54"
  top: "bn54"
}
layer {
  name: "eltwise15"
  type: "Eltwise"
  bottom: "eltwise14"
  bottom: "bn54"
  top: "eltwise15"
  eltwise_param {
    operation: SUM
  }
}
layer {
  name: "relu15"
  type: "ReLU"
  bottom: "eltwise15"
  top: "eltwise15"
}
layer {
  name: "conv55"
  type: "Convolution"
  bottom: "eltwise15"
  top: "conv55"
  param {
    lr_mult: 1
    decay_mult: 1
  }
  param {
    lr_mult: 2
    decay_mult: 0
  }
  convolution_param {
    num_output: 512
    pad: 1
    kernel_size: 3
    stride: 1
    weight_filler {
      type: "xavier"
    }
    bias_filler {
      type: "constant"
    }
  }
}
layer {
  name: "bn55"
  type: "BatchNorm"
  bottom: "conv55"
  top: "bn55"
  batch_norm_param {
    use_global_stats: false
  }
}
layer {
  name: "relu55"
  type: "ReLU"
  bottom: "bn55"
  top: "bn55"
}
layer {
  name: "conv56"
  type: "Convolution"
  bottom: "bn55"
  top: "conv56"
  param {
    lr_mult: 1
    decay_mult: 1
  }
  param {
    lr_mult: 2
    decay_mult: 0
  }
  convolution_param {
    num_output: 512
    pad: 1
    kernel_size: 3
    stride: 1
    weight_filler {
      type: "xavier"
    }
    bias_filler {
      type: "constant"
    }
  }
}
layer {
  name: "bn56"
  type: "BatchNorm"
  bottom: "conv56"
  top: "bn56"
  batch_norm_param {
    use_global_stats: false
  }
}
layer {
  name: "relu56"
  type: "ReLU"
  bottom: "bn56"
  top: "bn56"
}
layer {
  name: "eltwise16"
  type: "Eltwise"
  bottom: "eltwise15"
  bottom: "bn56"
  top: "eltwise16"
  eltwise_param {
    operation: SUM
  }
}
layer {
  name: "relu16"
  type: "ReLU"
  bottom: "eltwise16"
  top: "eltwise16"
}
layer {
  name: "pool5"
  type: "Pooling"
  bottom: "eltwise16"
  top: "pool5"
  pooling_param {
    pool: AVE
    kernel_size: 7
    stride: 1
  }
}
layer {
  name: "ip1"
  type: "InnerProduct"
  bottom: "pool5"
  top: "ip1"
  param {
    lr_mult: 1
    decay_mult: 1
  }
  param {
    lr_mult: 2
    decay_mult: 0
  }
  inner_product_param {
    num_output: 10575
    weight_filler {
      type: "xavier"
    }
    bias_filler {
      type: "constant"
    }
  }
}
layer {
  name: "accuracy"
  type: "Accuracy"
  bottom: "ip1"
  bottom: "label"
  top: "accuracy"
}
I1220 14:07:59.942009 17575 layer_factory.hpp:76] Creating layer data
I1220 14:07:59.942108 17575 net.cpp:110] Creating Layer data
I1220 14:07:59.942126 17575 net.cpp:433] data -> data
I1220 14:07:59.942144 17575 net.cpp:433] data -> label
I1220 14:07:59.942165 17575 data_transformer.cpp:23] Loading mean file from: ./mean_224gray.binaryproto
I1220 14:07:59.945157 17580 db_lmdb.cpp:22] Opened lmdb ./test_224gray_lmdb
I1220 14:07:59.945523 17575 data_layer.cpp:44] output data size: 36,1,224,224
I1220 14:07:59.964138 17575 net.cpp:155] Setting up data
I1220 14:07:59.964179 17575 net.cpp:163] Top shape: 36 1 224 224 (1806336)
I1220 14:07:59.964192 17575 net.cpp:163] Top shape: 36 (36)
I1220 14:07:59.964207 17575 layer_factory.hpp:76] Creating layer conv01
I1220 14:07:59.964231 17575 net.cpp:110] Creating Layer conv01
I1220 14:07:59.964242 17575 net.cpp:477] conv01 <- data
I1220 14:07:59.964259 17575 net.cpp:433] conv01 -> conv01
I1220 14:07:59.964789 17575 net.cpp:155] Setting up conv01
I1220 14:07:59.964812 17575 net.cpp:163] Top shape: 36 64 112 112 (28901376)
I1220 14:07:59.964830 17575 layer_factory.hpp:76] Creating layer bn01
I1220 14:07:59.964848 17575 net.cpp:110] Creating Layer bn01
I1220 14:07:59.964859 17575 net.cpp:477] bn01 <- conv01
I1220 14:07:59.964870 17575 net.cpp:433] bn01 -> bn01
I1220 14:07:59.965044 17575 net.cpp:155] Setting up bn01
I1220 14:07:59.965064 17575 net.cpp:163] Top shape: 36 64 112 112 (28901376)
I1220 14:07:59.965083 17575 layer_factory.hpp:76] Creating layer relu01
I1220 14:07:59.965098 17575 net.cpp:110] Creating Layer relu01
I1220 14:07:59.965109 17575 net.cpp:477] relu01 <- bn01
I1220 14:07:59.965121 17575 net.cpp:419] relu01 -> bn01 (in-place)
I1220 14:07:59.966734 17575 net.cpp:155] Setting up relu01
I1220 14:07:59.966764 17575 net.cpp:163] Top shape: 36 64 112 112 (28901376)
I1220 14:07:59.966774 17575 layer_factory.hpp:76] Creating layer pool1
I1220 14:07:59.966788 17575 net.cpp:110] Creating Layer pool1
I1220 14:07:59.966794 17575 net.cpp:477] pool1 <- bn01
I1220 14:07:59.966805 17575 net.cpp:433] pool1 -> pool1
I1220 14:07:59.966886 17575 net.cpp:155] Setting up pool1
I1220 14:07:59.966897 17575 net.cpp:163] Top shape: 36 64 56 56 (7225344)
I1220 14:07:59.966903 17575 layer_factory.hpp:76] Creating layer pool1_pool1_0_split
I1220 14:07:59.966914 17575 net.cpp:110] Creating Layer pool1_pool1_0_split
I1220 14:07:59.966920 17575 net.cpp:477] pool1_pool1_0_split <- pool1
I1220 14:07:59.966928 17575 net.cpp:433] pool1_pool1_0_split -> pool1_pool1_0_split_0
I1220 14:07:59.970598 17575 net.cpp:433] pool1_pool1_0_split -> pool1_pool1_0_split_1
I1220 14:07:59.970624 17575 net.cpp:155] Setting up pool1_pool1_0_split
I1220 14:07:59.970636 17575 net.cpp:163] Top shape: 36 64 56 56 (7225344)
I1220 14:07:59.970644 17575 net.cpp:163] Top shape: 36 64 56 56 (7225344)
I1220 14:07:59.970650 17575 layer_factory.hpp:76] Creating layer conv21
I1220 14:07:59.970662 17575 net.cpp:110] Creating Layer conv21
I1220 14:07:59.970710 17575 net.cpp:477] conv21 <- pool1_pool1_0_split_0
I1220 14:07:59.970722 17575 net.cpp:433] conv21 -> conv21
I1220 14:07:59.971474 17575 net.cpp:155] Setting up conv21
I1220 14:07:59.971492 17575 net.cpp:163] Top shape: 36 64 56 56 (7225344)
I1220 14:07:59.971503 17575 layer_factory.hpp:76] Creating layer bn21
I1220 14:07:59.971513 17575 net.cpp:110] Creating Layer bn21
I1220 14:07:59.971519 17575 net.cpp:477] bn21 <- conv21
I1220 14:07:59.971529 17575 net.cpp:433] bn21 -> bn21
I1220 14:07:59.971637 17575 net.cpp:155] Setting up bn21
I1220 14:07:59.971649 17575 net.cpp:163] Top shape: 36 64 56 56 (7225344)
I1220 14:07:59.971665 17575 layer_factory.hpp:76] Creating layer relu21
I1220 14:07:59.971676 17575 net.cpp:110] Creating Layer relu21
I1220 14:07:59.971685 17575 net.cpp:477] relu21 <- bn21
I1220 14:07:59.971694 17575 net.cpp:419] relu21 -> bn21 (in-place)
I1220 14:07:59.971766 17575 net.cpp:155] Setting up relu21
I1220 14:07:59.971779 17575 net.cpp:163] Top shape: 36 64 56 56 (7225344)
I1220 14:07:59.971786 17575 layer_factory.hpp:76] Creating layer conv22
I1220 14:07:59.971797 17575 net.cpp:110] Creating Layer conv22
I1220 14:07:59.971804 17575 net.cpp:477] conv22 <- bn21
I1220 14:07:59.971813 17575 net.cpp:433] conv22 -> conv22
I1220 14:07:59.972455 17575 net.cpp:155] Setting up conv22
I1220 14:07:59.972471 17575 net.cpp:163] Top shape: 36 64 56 56 (7225344)
I1220 14:07:59.972481 17575 layer_factory.hpp:76] Creating layer bn22
I1220 14:07:59.972491 17575 net.cpp:110] Creating Layer bn22
I1220 14:07:59.972498 17575 net.cpp:477] bn22 <- conv22
I1220 14:07:59.972507 17575 net.cpp:433] bn22 -> bn22
I1220 14:07:59.972600 17575 net.cpp:155] Setting up bn22
I1220 14:07:59.972640 17575 net.cpp:163] Top shape: 36 64 56 56 (7225344)
I1220 14:07:59.972657 17575 layer_factory.hpp:76] Creating layer relu22
I1220 14:07:59.972667 17575 net.cpp:110] Creating Layer relu22
I1220 14:07:59.972673 17575 net.cpp:477] relu22 <- bn22
I1220 14:07:59.972682 17575 net.cpp:419] relu22 -> bn22 (in-place)
I1220 14:07:59.972862 17575 net.cpp:155] Setting up relu22
I1220 14:07:59.972877 17575 net.cpp:163] Top shape: 36 64 56 56 (7225344)
I1220 14:07:59.972883 17575 layer_factory.hpp:76] Creating layer eltwise1
I1220 14:07:59.972894 17575 net.cpp:110] Creating Layer eltwise1
I1220 14:07:59.972901 17575 net.cpp:477] eltwise1 <- pool1_pool1_0_split_1
I1220 14:07:59.972909 17575 net.cpp:477] eltwise1 <- bn22
I1220 14:07:59.972918 17575 net.cpp:433] eltwise1 -> eltwise1
I1220 14:07:59.972930 17575 net.cpp:155] Setting up eltwise1
I1220 14:07:59.972939 17575 net.cpp:163] Top shape: 36 64 56 56 (7225344)
I1220 14:07:59.972944 17575 layer_factory.hpp:76] Creating layer relu1
I1220 14:07:59.972952 17575 net.cpp:110] Creating Layer relu1
I1220 14:07:59.972959 17575 net.cpp:477] relu1 <- eltwise1
I1220 14:07:59.972966 17575 net.cpp:419] relu1 -> eltwise1 (in-place)
I1220 14:07:59.973032 17575 net.cpp:155] Setting up relu1
I1220 14:07:59.973043 17575 net.cpp:163] Top shape: 36 64 56 56 (7225344)
I1220 14:07:59.973049 17575 layer_factory.hpp:76] Creating layer eltwise1_relu1_0_split
I1220 14:07:59.973057 17575 net.cpp:110] Creating Layer eltwise1_relu1_0_split
I1220 14:07:59.973063 17575 net.cpp:477] eltwise1_relu1_0_split <- eltwise1
I1220 14:07:59.973073 17575 net.cpp:433] eltwise1_relu1_0_split -> eltwise1_relu1_0_split_0
I1220 14:07:59.973081 17575 net.cpp:433] eltwise1_relu1_0_split -> eltwise1_relu1_0_split_1
I1220 14:07:59.973091 17575 net.cpp:155] Setting up eltwise1_relu1_0_split
I1220 14:07:59.973099 17575 net.cpp:163] Top shape: 36 64 56 56 (7225344)
I1220 14:07:59.973105 17575 net.cpp:163] Top shape: 36 64 56 56 (7225344)
I1220 14:07:59.973111 17575 layer_factory.hpp:76] Creating layer conv23
I1220 14:07:59.973122 17575 net.cpp:110] Creating Layer conv23
I1220 14:07:59.973127 17575 net.cpp:477] conv23 <- eltwise1_relu1_0_split_0
I1220 14:07:59.973137 17575 net.cpp:433] conv23 -> conv23
I1220 14:07:59.973786 17575 net.cpp:155] Setting up conv23
I1220 14:07:59.973805 17575 net.cpp:163] Top shape: 36 64 56 56 (7225344)
I1220 14:07:59.973839 17575 layer_factory.hpp:76] Creating layer bn23
I1220 14:07:59.973853 17575 net.cpp:110] Creating Layer bn23
I1220 14:07:59.973860 17575 net.cpp:477] bn23 <- conv23
I1220 14:07:59.973876 17575 net.cpp:433] bn23 -> bn23
I1220 14:07:59.973971 17575 net.cpp:155] Setting up bn23
I1220 14:07:59.973984 17575 net.cpp:163] Top shape: 36 64 56 56 (7225344)
I1220 14:07:59.973994 17575 layer_factory.hpp:76] Creating layer relu23
I1220 14:07:59.974009 17575 net.cpp:110] Creating Layer relu23
I1220 14:07:59.974020 17575 net.cpp:477] relu23 <- bn23
I1220 14:07:59.974030 17575 net.cpp:419] relu23 -> bn23 (in-place)
I1220 14:07:59.974097 17575 net.cpp:155] Setting up relu23
I1220 14:07:59.974108 17575 net.cpp:163] Top shape: 36 64 56 56 (7225344)
I1220 14:07:59.974114 17575 layer_factory.hpp:76] Creating layer conv24
I1220 14:07:59.974125 17575 net.cpp:110] Creating Layer conv24
I1220 14:07:59.974131 17575 net.cpp:477] conv24 <- bn23
I1220 14:07:59.974140 17575 net.cpp:433] conv24 -> conv24
I1220 14:07:59.975955 17575 net.cpp:155] Setting up conv24
I1220 14:07:59.975986 17575 net.cpp:163] Top shape: 36 64 56 56 (7225344)
I1220 14:07:59.976002 17575 layer_factory.hpp:76] Creating layer bn24
I1220 14:07:59.976021 17575 net.cpp:110] Creating Layer bn24
I1220 14:07:59.976032 17575 net.cpp:477] bn24 <- conv24
I1220 14:07:59.976047 17575 net.cpp:433] bn24 -> bn24
I1220 14:07:59.976151 17575 net.cpp:155] Setting up bn24
I1220 14:07:59.976168 17575 net.cpp:163] Top shape: 36 64 56 56 (7225344)
I1220 14:07:59.976186 17575 layer_factory.hpp:76] Creating layer relu24
I1220 14:07:59.976202 17575 net.cpp:110] Creating Layer relu24
I1220 14:07:59.976213 17575 net.cpp:477] relu24 <- bn24
I1220 14:07:59.976228 17575 net.cpp:419] relu24 -> bn24 (in-place)
I1220 14:07:59.976310 17575 net.cpp:155] Setting up relu24
I1220 14:07:59.976326 17575 net.cpp:163] Top shape: 36 64 56 56 (7225344)
I1220 14:07:59.976337 17575 layer_factory.hpp:76] Creating layer bn24_relu24_0_split
I1220 14:07:59.976349 17575 net.cpp:110] Creating Layer bn24_relu24_0_split
I1220 14:07:59.976359 17575 net.cpp:477] bn24_relu24_0_split <- bn24
I1220 14:07:59.976374 17575 net.cpp:433] bn24_relu24_0_split -> bn24_relu24_0_split_0
I1220 14:07:59.976389 17575 net.cpp:433] bn24_relu24_0_split -> bn24_relu24_0_split_1
I1220 14:07:59.976404 17575 net.cpp:155] Setting up bn24_relu24_0_split
I1220 14:07:59.976418 17575 net.cpp:163] Top shape: 36 64 56 56 (7225344)
I1220 14:07:59.976429 17575 net.cpp:163] Top shape: 36 64 56 56 (7225344)
I1220 14:07:59.976439 17575 layer_factory.hpp:76] Creating layer eltwise2
I1220 14:07:59.976452 17575 net.cpp:110] Creating Layer eltwise2
I1220 14:07:59.976462 17575 net.cpp:477] eltwise2 <- eltwise1_relu1_0_split_1
I1220 14:07:59.976475 17575 net.cpp:477] eltwise2 <- bn24_relu24_0_split_0
I1220 14:07:59.976486 17575 net.cpp:433] eltwise2 -> eltwise2
I1220 14:07:59.976501 17575 net.cpp:155] Setting up eltwise2
I1220 14:07:59.976514 17575 net.cpp:163] Top shape: 36 64 56 56 (7225344)
I1220 14:07:59.976524 17575 layer_factory.hpp:76] Creating layer relu2
I1220 14:07:59.976536 17575 net.cpp:110] Creating Layer relu2
I1220 14:07:59.976547 17575 net.cpp:477] relu2 <- eltwise2
I1220 14:07:59.976562 17575 net.cpp:419] relu2 -> eltwise2 (in-place)
I1220 14:07:59.976750 17575 net.cpp:155] Setting up relu2
I1220 14:07:59.976771 17575 net.cpp:163] Top shape: 36 64 56 56 (7225344)
I1220 14:07:59.976783 17575 layer_factory.hpp:76] Creating layer conv25
I1220 14:07:59.976800 17575 net.cpp:110] Creating Layer conv25
I1220 14:07:59.976812 17575 net.cpp:477] conv25 <- bn24_relu24_0_split_1
I1220 14:07:59.976825 17575 net.cpp:433] conv25 -> conv25
I1220 14:07:59.977468 17575 net.cpp:155] Setting up conv25
I1220 14:07:59.977490 17575 net.cpp:163] Top shape: 36 64 56 56 (7225344)
I1220 14:07:59.977504 17575 layer_factory.hpp:76] Creating layer bn25
I1220 14:07:59.977520 17575 net.cpp:110] Creating Layer bn25
I1220 14:07:59.977531 17575 net.cpp:477] bn25 <- conv25
I1220 14:07:59.977546 17575 net.cpp:433] bn25 -> bn25
I1220 14:07:59.977669 17575 net.cpp:155] Setting up bn25
I1220 14:07:59.977687 17575 net.cpp:163] Top shape: 36 64 56 56 (7225344)
I1220 14:07:59.977704 17575 layer_factory.hpp:76] Creating layer relu25
I1220 14:07:59.977720 17575 net.cpp:110] Creating Layer relu25
I1220 14:07:59.977730 17575 net.cpp:477] relu25 <- bn25
I1220 14:07:59.977744 17575 net.cpp:419] relu25 -> bn25 (in-place)
I1220 14:07:59.977825 17575 net.cpp:155] Setting up relu25
I1220 14:07:59.977841 17575 net.cpp:163] Top shape: 36 64 56 56 (7225344)
I1220 14:07:59.977852 17575 layer_factory.hpp:76] Creating layer conv26
I1220 14:07:59.977869 17575 net.cpp:110] Creating Layer conv26
I1220 14:07:59.977880 17575 net.cpp:477] conv26 <- bn25
I1220 14:07:59.977891 17575 net.cpp:433] conv26 -> conv26
I1220 14:07:59.978538 17575 net.cpp:155] Setting up conv26
I1220 14:07:59.978560 17575 net.cpp:163] Top shape: 36 64 56 56 (7225344)
I1220 14:07:59.978575 17575 layer_factory.hpp:76] Creating layer bn26
I1220 14:07:59.978590 17575 net.cpp:110] Creating Layer bn26
I1220 14:07:59.978600 17575 net.cpp:477] bn26 <- conv26
I1220 14:07:59.978612 17575 net.cpp:433] bn26 -> bn26
I1220 14:07:59.978714 17575 net.cpp:155] Setting up bn26
I1220 14:07:59.978734 17575 net.cpp:163] Top shape: 36 64 56 56 (7225344)
I1220 14:07:59.978754 17575 layer_factory.hpp:76] Creating layer relu26
I1220 14:07:59.978770 17575 net.cpp:110] Creating Layer relu26
I1220 14:07:59.978781 17575 net.cpp:477] relu26 <- bn26
I1220 14:07:59.978796 17575 net.cpp:419] relu26 -> bn26 (in-place)
I1220 14:07:59.978876 17575 net.cpp:155] Setting up relu26
I1220 14:07:59.978893 17575 net.cpp:163] Top shape: 36 64 56 56 (7225344)
I1220 14:07:59.978902 17575 layer_factory.hpp:76] Creating layer eltwise3
I1220 14:07:59.978917 17575 net.cpp:110] Creating Layer eltwise3
I1220 14:07:59.978929 17575 net.cpp:477] eltwise3 <- eltwise2
I1220 14:07:59.978940 17575 net.cpp:477] eltwise3 <- bn26
I1220 14:07:59.978952 17575 net.cpp:433] eltwise3 -> eltwise3
I1220 14:07:59.978967 17575 net.cpp:155] Setting up eltwise3
I1220 14:07:59.978979 17575 net.cpp:163] Top shape: 36 64 56 56 (7225344)
I1220 14:07:59.978992 17575 layer_factory.hpp:76] Creating layer relu3
I1220 14:07:59.979019 17575 net.cpp:110] Creating Layer relu3
I1220 14:07:59.979030 17575 net.cpp:477] relu3 <- eltwise3
I1220 14:07:59.979043 17575 net.cpp:419] relu3 -> eltwise3 (in-place)
I1220 14:07:59.979120 17575 net.cpp:155] Setting up relu3
I1220 14:07:59.979136 17575 net.cpp:163] Top shape: 36 64 56 56 (7225344)
I1220 14:07:59.979147 17575 layer_factory.hpp:76] Creating layer eltwise3_relu3_0_split
I1220 14:07:59.979161 17575 net.cpp:110] Creating Layer eltwise3_relu3_0_split
I1220 14:07:59.979172 17575 net.cpp:477] eltwise3_relu3_0_split <- eltwise3
I1220 14:07:59.979184 17575 net.cpp:433] eltwise3_relu3_0_split -> eltwise3_relu3_0_split_0
I1220 14:07:59.979202 17575 net.cpp:433] eltwise3_relu3_0_split -> eltwise3_relu3_0_split_1
I1220 14:07:59.979218 17575 net.cpp:155] Setting up eltwise3_relu3_0_split
I1220 14:07:59.979235 17575 net.cpp:163] Top shape: 36 64 56 56 (7225344)
I1220 14:07:59.979246 17575 net.cpp:163] Top shape: 36 64 56 56 (7225344)
I1220 14:07:59.979256 17575 layer_factory.hpp:76] Creating layer relu3_p
I1220 14:07:59.979269 17575 net.cpp:110] Creating Layer relu3_p
I1220 14:07:59.979280 17575 net.cpp:477] relu3_p <- eltwise3_relu3_0_split_0
I1220 14:07:59.979295 17575 net.cpp:433] relu3_p -> relu3_p
I1220 14:07:59.979737 17575 net.cpp:155] Setting up relu3_p
I1220 14:07:59.979758 17575 net.cpp:163] Top shape: 36 128 28 28 (3612672)
I1220 14:07:59.979773 17575 layer_factory.hpp:76] Creating layer relu3_bn
I1220 14:07:59.979791 17575 net.cpp:110] Creating Layer relu3_bn
I1220 14:07:59.979802 17575 net.cpp:477] relu3_bn <- relu3_p
I1220 14:07:59.979820 17575 net.cpp:433] relu3_bn -> relu3_bn
I1220 14:07:59.979914 17575 net.cpp:155] Setting up relu3_bn
I1220 14:07:59.979931 17575 net.cpp:163] Top shape: 36 128 28 28 (3612672)
I1220 14:07:59.979948 17575 layer_factory.hpp:76] Creating layer conv31
I1220 14:07:59.979961 17575 net.cpp:110] Creating Layer conv31
I1220 14:07:59.979986 17575 net.cpp:477] conv31 <- eltwise3_relu3_0_split_1
I1220 14:07:59.980003 17575 net.cpp:433] conv31 -> conv31
I1220 14:07:59.980921 17575 net.cpp:155] Setting up conv31
I1220 14:07:59.980942 17575 net.cpp:163] Top shape: 36 128 28 28 (3612672)
I1220 14:07:59.980957 17575 layer_factory.hpp:76] Creating layer bn31
I1220 14:07:59.980973 17575 net.cpp:110] Creating Layer bn31
I1220 14:07:59.980983 17575 net.cpp:477] bn31 <- conv31
I1220 14:07:59.980996 17575 net.cpp:433] bn31 -> bn31
I1220 14:07:59.981089 17575 net.cpp:155] Setting up bn31
I1220 14:07:59.981107 17575 net.cpp:163] Top shape: 36 128 28 28 (3612672)
I1220 14:07:59.981122 17575 layer_factory.hpp:76] Creating layer relu31
I1220 14:07:59.981138 17575 net.cpp:110] Creating Layer relu31
I1220 14:07:59.981149 17575 net.cpp:477] relu31 <- bn31
I1220 14:07:59.981161 17575 net.cpp:419] relu31 -> bn31 (in-place)
I1220 14:07:59.981362 17575 net.cpp:155] Setting up relu31
I1220 14:07:59.981382 17575 net.cpp:163] Top shape: 36 128 28 28 (3612672)
I1220 14:07:59.981394 17575 layer_factory.hpp:76] Creating layer conv32
I1220 14:07:59.981410 17575 net.cpp:110] Creating Layer conv32
I1220 14:07:59.981421 17575 net.cpp:477] conv32 <- bn31
I1220 14:07:59.981434 17575 net.cpp:433] conv32 -> conv32
I1220 14:07:59.983413 17575 net.cpp:155] Setting up conv32
I1220 14:07:59.983438 17575 net.cpp:163] Top shape: 36 128 28 28 (3612672)
I1220 14:07:59.983453 17575 layer_factory.hpp:76] Creating layer bn32
I1220 14:07:59.983467 17575 net.cpp:110] Creating Layer bn32
I1220 14:07:59.983479 17575 net.cpp:477] bn32 <- conv32
I1220 14:07:59.983494 17575 net.cpp:433] bn32 -> bn32
I1220 14:07:59.983585 17575 net.cpp:155] Setting up bn32
I1220 14:07:59.983603 17575 net.cpp:163] Top shape: 36 128 28 28 (3612672)
I1220 14:07:59.983621 17575 layer_factory.hpp:76] Creating layer relu32
I1220 14:07:59.983635 17575 net.cpp:110] Creating Layer relu32
I1220 14:07:59.983646 17575 net.cpp:477] relu32 <- bn32
I1220 14:07:59.983660 17575 net.cpp:419] relu32 -> bn32 (in-place)
I1220 14:07:59.983739 17575 net.cpp:155] Setting up relu32
I1220 14:07:59.983755 17575 net.cpp:163] Top shape: 36 128 28 28 (3612672)
I1220 14:07:59.983767 17575 layer_factory.hpp:76] Creating layer eltwise4
I1220 14:07:59.983779 17575 net.cpp:110] Creating Layer eltwise4
I1220 14:07:59.983793 17575 net.cpp:477] eltwise4 <- relu3_bn
I1220 14:08:00.001597 17575 net.cpp:477] eltwise4 <- bn32
I1220 14:08:00.001622 17575 net.cpp:433] eltwise4 -> eltwise4
I1220 14:08:00.001641 17575 net.cpp:155] Setting up eltwise4
I1220 14:08:00.001655 17575 net.cpp:163] Top shape: 36 128 28 28 (3612672)
I1220 14:08:00.001667 17575 layer_factory.hpp:76] Creating layer relu4
I1220 14:08:00.001680 17575 net.cpp:110] Creating Layer relu4
I1220 14:08:00.001691 17575 net.cpp:477] relu4 <- eltwise4
I1220 14:08:00.001708 17575 net.cpp:419] relu4 -> eltwise4 (in-place)
I1220 14:08:00.001796 17575 net.cpp:155] Setting up relu4
I1220 14:08:00.001812 17575 net.cpp:163] Top shape: 36 128 28 28 (3612672)
I1220 14:08:00.001823 17575 layer_factory.hpp:76] Creating layer eltwise4_relu4_0_split
I1220 14:08:00.001835 17575 net.cpp:110] Creating Layer eltwise4_relu4_0_split
I1220 14:08:00.001845 17575 net.cpp:477] eltwise4_relu4_0_split <- eltwise4
I1220 14:08:00.001858 17575 net.cpp:433] eltwise4_relu4_0_split -> eltwise4_relu4_0_split_0
I1220 14:08:00.001873 17575 net.cpp:433] eltwise4_relu4_0_split -> eltwise4_relu4_0_split_1
I1220 14:08:00.001888 17575 net.cpp:155] Setting up eltwise4_relu4_0_split
I1220 14:08:00.001901 17575 net.cpp:163] Top shape: 36 128 28 28 (3612672)
I1220 14:08:00.001912 17575 net.cpp:163] Top shape: 36 128 28 28 (3612672)
I1220 14:08:00.001922 17575 layer_factory.hpp:76] Creating layer conv33
I1220 14:08:00.001938 17575 net.cpp:110] Creating Layer conv33
I1220 14:08:00.001950 17575 net.cpp:477] conv33 <- eltwise4_relu4_0_split_0
I1220 14:08:00.001966 17575 net.cpp:433] conv33 -> conv33
I1220 14:08:00.003932 17575 net.cpp:155] Setting up conv33
I1220 14:08:00.003954 17575 net.cpp:163] Top shape: 36 128 28 28 (3612672)
I1220 14:08:00.003994 17575 layer_factory.hpp:76] Creating layer bn33
I1220 14:08:00.004011 17575 net.cpp:110] Creating Layer bn33
I1220 14:08:00.004022 17575 net.cpp:477] bn33 <- conv33
I1220 14:08:00.004035 17575 net.cpp:433] bn33 -> bn33
I1220 14:08:00.004130 17575 net.cpp:155] Setting up bn33
I1220 14:08:00.004148 17575 net.cpp:163] Top shape: 36 128 28 28 (3612672)
I1220 14:08:00.004164 17575 layer_factory.hpp:76] Creating layer relu33
I1220 14:08:00.004180 17575 net.cpp:110] Creating Layer relu33
I1220 14:08:00.004192 17575 net.cpp:477] relu33 <- bn33
I1220 14:08:00.004204 17575 net.cpp:419] relu33 -> bn33 (in-place)
I1220 14:08:00.004283 17575 net.cpp:155] Setting up relu33
I1220 14:08:00.004300 17575 net.cpp:163] Top shape: 36 128 28 28 (3612672)
I1220 14:08:00.004310 17575 layer_factory.hpp:76] Creating layer conv34
I1220 14:08:00.004328 17575 net.cpp:110] Creating Layer conv34
I1220 14:08:00.004338 17575 net.cpp:477] conv34 <- bn33
I1220 14:08:00.004354 17575 net.cpp:433] conv34 -> conv34
I1220 14:08:00.006289 17575 net.cpp:155] Setting up conv34
I1220 14:08:00.006310 17575 net.cpp:163] Top shape: 36 128 28 28 (3612672)
I1220 14:08:00.006325 17575 layer_factory.hpp:76] Creating layer bn34
I1220 14:08:00.006340 17575 net.cpp:110] Creating Layer bn34
I1220 14:08:00.006351 17575 net.cpp:477] bn34 <- conv34
I1220 14:08:00.006364 17575 net.cpp:433] bn34 -> bn34
I1220 14:08:00.006455 17575 net.cpp:155] Setting up bn34
I1220 14:08:00.006472 17575 net.cpp:163] Top shape: 36 128 28 28 (3612672)
I1220 14:08:00.006489 17575 layer_factory.hpp:76] Creating layer relu34
I1220 14:08:00.006506 17575 net.cpp:110] Creating Layer relu34
I1220 14:08:00.006517 17575 net.cpp:477] relu34 <- bn34
I1220 14:08:00.006531 17575 net.cpp:419] relu34 -> bn34 (in-place)
I1220 14:08:00.006718 17575 net.cpp:155] Setting up relu34
I1220 14:08:00.006738 17575 net.cpp:163] Top shape: 36 128 28 28 (3612672)
I1220 14:08:00.006750 17575 layer_factory.hpp:76] Creating layer eltwise5
I1220 14:08:00.006767 17575 net.cpp:110] Creating Layer eltwise5
I1220 14:08:00.006778 17575 net.cpp:477] eltwise5 <- eltwise4_relu4_0_split_1
I1220 14:08:00.006790 17575 net.cpp:477] eltwise5 <- bn34
I1220 14:08:00.006803 17575 net.cpp:433] eltwise5 -> eltwise5
I1220 14:08:00.006819 17575 net.cpp:155] Setting up eltwise5
I1220 14:08:00.006831 17575 net.cpp:163] Top shape: 36 128 28 28 (3612672)
I1220 14:08:00.006841 17575 layer_factory.hpp:76] Creating layer relu5
I1220 14:08:00.006853 17575 net.cpp:110] Creating Layer relu5
I1220 14:08:00.006865 17575 net.cpp:477] relu5 <- eltwise5
I1220 14:08:00.006878 17575 net.cpp:419] relu5 -> eltwise5 (in-place)
I1220 14:08:00.006953 17575 net.cpp:155] Setting up relu5
I1220 14:08:00.006968 17575 net.cpp:163] Top shape: 36 128 28 28 (3612672)
I1220 14:08:00.006979 17575 layer_factory.hpp:76] Creating layer eltwise5_relu5_0_split
I1220 14:08:00.006991 17575 net.cpp:110] Creating Layer eltwise5_relu5_0_split
I1220 14:08:00.007001 17575 net.cpp:477] eltwise5_relu5_0_split <- eltwise5
I1220 14:08:00.007014 17575 net.cpp:433] eltwise5_relu5_0_split -> eltwise5_relu5_0_split_0
I1220 14:08:00.007028 17575 net.cpp:433] eltwise5_relu5_0_split -> eltwise5_relu5_0_split_1
I1220 14:08:00.007045 17575 net.cpp:155] Setting up eltwise5_relu5_0_split
I1220 14:08:00.007058 17575 net.cpp:163] Top shape: 36 128 28 28 (3612672)
I1220 14:08:00.007071 17575 net.cpp:163] Top shape: 36 128 28 28 (3612672)
I1220 14:08:00.007081 17575 layer_factory.hpp:76] Creating layer conv35
I1220 14:08:00.007093 17575 net.cpp:110] Creating Layer conv35
I1220 14:08:00.007104 17575 net.cpp:477] conv35 <- eltwise5_relu5_0_split_0
I1220 14:08:00.007120 17575 net.cpp:433] conv35 -> conv35
I1220 14:08:00.009047 17575 net.cpp:155] Setting up conv35
I1220 14:08:00.009068 17575 net.cpp:163] Top shape: 36 128 28 28 (3612672)
I1220 14:08:00.009083 17575 layer_factory.hpp:76] Creating layer bn35
I1220 14:08:00.009099 17575 net.cpp:110] Creating Layer bn35
I1220 14:08:00.009110 17575 net.cpp:477] bn35 <- conv35
I1220 14:08:00.009124 17575 net.cpp:433] bn35 -> bn35
I1220 14:08:00.009217 17575 net.cpp:155] Setting up bn35
I1220 14:08:00.009248 17575 net.cpp:163] Top shape: 36 128 28 28 (3612672)
I1220 14:08:00.009279 17575 layer_factory.hpp:76] Creating layer relu35
I1220 14:08:00.009304 17575 net.cpp:110] Creating Layer relu35
I1220 14:08:00.009315 17575 net.cpp:477] relu35 <- bn35
I1220 14:08:00.009331 17575 net.cpp:419] relu35 -> bn35 (in-place)
I1220 14:08:00.009412 17575 net.cpp:155] Setting up relu35
I1220 14:08:00.009429 17575 net.cpp:163] Top shape: 36 128 28 28 (3612672)
I1220 14:08:00.009440 17575 layer_factory.hpp:76] Creating layer conv36
I1220 14:08:00.009457 17575 net.cpp:110] Creating Layer conv36
I1220 14:08:00.009469 17575 net.cpp:477] conv36 <- bn35
I1220 14:08:00.009481 17575 net.cpp:433] conv36 -> conv36
I1220 14:08:00.011442 17575 net.cpp:155] Setting up conv36
I1220 14:08:00.011466 17575 net.cpp:163] Top shape: 36 128 28 28 (3612672)
I1220 14:08:00.011482 17575 layer_factory.hpp:76] Creating layer bn36
I1220 14:08:00.011498 17575 net.cpp:110] Creating Layer bn36
I1220 14:08:00.011510 17575 net.cpp:477] bn36 <- conv36
I1220 14:08:00.011523 17575 net.cpp:433] bn36 -> bn36
I1220 14:08:00.011616 17575 net.cpp:155] Setting up bn36
I1220 14:08:00.011633 17575 net.cpp:163] Top shape: 36 128 28 28 (3612672)
I1220 14:08:00.011651 17575 layer_factory.hpp:76] Creating layer relu36
I1220 14:08:00.011663 17575 net.cpp:110] Creating Layer relu36
I1220 14:08:00.011674 17575 net.cpp:477] relu36 <- bn36
I1220 14:08:00.011689 17575 net.cpp:419] relu36 -> bn36 (in-place)
I1220 14:08:00.011885 17575 net.cpp:155] Setting up relu36
I1220 14:08:00.011905 17575 net.cpp:163] Top shape: 36 128 28 28 (3612672)
I1220 14:08:00.011916 17575 layer_factory.hpp:76] Creating layer eltwise6
I1220 14:08:00.011934 17575 net.cpp:110] Creating Layer eltwise6
I1220 14:08:00.011945 17575 net.cpp:477] eltwise6 <- eltwise5_relu5_0_split_1
I1220 14:08:00.011957 17575 net.cpp:477] eltwise6 <- bn36
I1220 14:08:00.011970 17575 net.cpp:433] eltwise6 -> eltwise6
I1220 14:08:00.011986 17575 net.cpp:155] Setting up eltwise6
I1220 14:08:00.011999 17575 net.cpp:163] Top shape: 36 128 28 28 (3612672)
I1220 14:08:00.012011 17575 layer_factory.hpp:76] Creating layer relu6
I1220 14:08:00.012022 17575 net.cpp:110] Creating Layer relu6
I1220 14:08:00.012033 17575 net.cpp:477] relu6 <- eltwise6
I1220 14:08:00.012045 17575 net.cpp:419] relu6 -> eltwise6 (in-place)
I1220 14:08:00.012117 17575 net.cpp:155] Setting up relu6
I1220 14:08:00.012135 17575 net.cpp:163] Top shape: 36 128 28 28 (3612672)
I1220 14:08:00.012145 17575 layer_factory.hpp:76] Creating layer eltwise6_relu6_0_split
I1220 14:08:00.012157 17575 net.cpp:110] Creating Layer eltwise6_relu6_0_split
I1220 14:08:00.012167 17575 net.cpp:477] eltwise6_relu6_0_split <- eltwise6
I1220 14:08:00.012181 17575 net.cpp:433] eltwise6_relu6_0_split -> eltwise6_relu6_0_split_0
I1220 14:08:00.012194 17575 net.cpp:433] eltwise6_relu6_0_split -> eltwise6_relu6_0_split_1
I1220 14:08:00.012209 17575 net.cpp:155] Setting up eltwise6_relu6_0_split
I1220 14:08:00.012222 17575 net.cpp:163] Top shape: 36 128 28 28 (3612672)
I1220 14:08:00.012233 17575 net.cpp:163] Top shape: 36 128 28 28 (3612672)
I1220 14:08:00.012243 17575 layer_factory.hpp:76] Creating layer conv37
I1220 14:08:00.012259 17575 net.cpp:110] Creating Layer conv37
I1220 14:08:00.012270 17575 net.cpp:477] conv37 <- eltwise6_relu6_0_split_0
I1220 14:08:00.012286 17575 net.cpp:433] conv37 -> conv37
I1220 14:08:00.014219 17575 net.cpp:155] Setting up conv37
I1220 14:08:00.014241 17575 net.cpp:163] Top shape: 36 128 28 28 (3612672)
I1220 14:08:00.014256 17575 layer_factory.hpp:76] Creating layer bn37
I1220 14:08:00.014272 17575 net.cpp:110] Creating Layer bn37
I1220 14:08:00.014283 17575 net.cpp:477] bn37 <- conv37
I1220 14:08:00.014297 17575 net.cpp:433] bn37 -> bn37
I1220 14:08:00.014391 17575 net.cpp:155] Setting up bn37
I1220 14:08:00.014410 17575 net.cpp:163] Top shape: 36 128 28 28 (3612672)
I1220 14:08:00.014425 17575 layer_factory.hpp:76] Creating layer relu37
I1220 14:08:00.014452 17575 net.cpp:110] Creating Layer relu37
I1220 14:08:00.014479 17575 net.cpp:477] relu37 <- bn37
I1220 14:08:00.014493 17575 net.cpp:419] relu37 -> bn37 (in-place)
I1220 14:08:00.014575 17575 net.cpp:155] Setting up relu37
I1220 14:08:00.014591 17575 net.cpp:163] Top shape: 36 128 28 28 (3612672)
I1220 14:08:00.014603 17575 layer_factory.hpp:76] Creating layer conv38
I1220 14:08:00.014619 17575 net.cpp:110] Creating Layer conv38
I1220 14:08:00.014631 17575 net.cpp:477] conv38 <- bn37
I1220 14:08:00.014644 17575 net.cpp:433] conv38 -> conv38
I1220 14:08:00.016602 17575 net.cpp:155] Setting up conv38
I1220 14:08:00.016623 17575 net.cpp:163] Top shape: 36 128 28 28 (3612672)
I1220 14:08:00.016638 17575 layer_factory.hpp:76] Creating layer bn38
I1220 14:08:00.016651 17575 net.cpp:110] Creating Layer bn38
I1220 14:08:00.016662 17575 net.cpp:477] bn38 <- conv38
I1220 14:08:00.016677 17575 net.cpp:433] bn38 -> bn38
I1220 14:08:00.016775 17575 net.cpp:155] Setting up bn38
I1220 14:08:00.016793 17575 net.cpp:163] Top shape: 36 128 28 28 (3612672)
I1220 14:08:00.016808 17575 layer_factory.hpp:76] Creating layer relu38
I1220 14:08:00.016823 17575 net.cpp:110] Creating Layer relu38
I1220 14:08:00.016832 17575 net.cpp:477] relu38 <- bn38
I1220 14:08:00.016847 17575 net.cpp:419] relu38 -> bn38 (in-place)
I1220 14:08:00.016929 17575 net.cpp:155] Setting up relu38
I1220 14:08:00.016947 17575 net.cpp:163] Top shape: 36 128 28 28 (3612672)
I1220 14:08:00.016957 17575 layer_factory.hpp:76] Creating layer eltwise7
I1220 14:08:00.016971 17575 net.cpp:110] Creating Layer eltwise7
I1220 14:08:00.016983 17575 net.cpp:477] eltwise7 <- eltwise6_relu6_0_split_1
I1220 14:08:00.016994 17575 net.cpp:477] eltwise7 <- bn38
I1220 14:08:00.017007 17575 net.cpp:433] eltwise7 -> eltwise7
I1220 14:08:00.017022 17575 net.cpp:155] Setting up eltwise7
I1220 14:08:00.017035 17575 net.cpp:163] Top shape: 36 128 28 28 (3612672)
I1220 14:08:00.017045 17575 layer_factory.hpp:76] Creating layer relu7
I1220 14:08:00.017057 17575 net.cpp:110] Creating Layer relu7
I1220 14:08:00.017068 17575 net.cpp:477] relu7 <- eltwise7
I1220 14:08:00.017079 17575 net.cpp:419] relu7 -> eltwise7 (in-place)
I1220 14:08:00.017261 17575 net.cpp:155] Setting up relu7
I1220 14:08:00.017282 17575 net.cpp:163] Top shape: 36 128 28 28 (3612672)
I1220 14:08:00.017292 17575 layer_factory.hpp:76] Creating layer eltwise7_relu7_0_split
I1220 14:08:00.017314 17575 net.cpp:110] Creating Layer eltwise7_relu7_0_split
I1220 14:08:00.017325 17575 net.cpp:477] eltwise7_relu7_0_split <- eltwise7
I1220 14:08:00.017338 17575 net.cpp:433] eltwise7_relu7_0_split -> eltwise7_relu7_0_split_0
I1220 14:08:00.017354 17575 net.cpp:433] eltwise7_relu7_0_split -> eltwise7_relu7_0_split_1
I1220 14:08:00.017369 17575 net.cpp:155] Setting up eltwise7_relu7_0_split
I1220 14:08:00.017384 17575 net.cpp:163] Top shape: 36 128 28 28 (3612672)
I1220 14:08:00.017395 17575 net.cpp:163] Top shape: 36 128 28 28 (3612672)
I1220 14:08:00.017405 17575 layer_factory.hpp:76] Creating layer relu7_p
I1220 14:08:00.017420 17575 net.cpp:110] Creating Layer relu7_p
I1220 14:08:00.017429 17575 net.cpp:477] relu7_p <- eltwise7_relu7_0_split_0
I1220 14:08:00.017444 17575 net.cpp:433] relu7_p -> relu7_p
I1220 14:08:00.018062 17575 net.cpp:155] Setting up relu7_p
I1220 14:08:00.018082 17575 net.cpp:163] Top shape: 36 256 14 14 (1806336)
I1220 14:08:00.018097 17575 layer_factory.hpp:76] Creating layer relu7_bn
I1220 14:08:00.018113 17575 net.cpp:110] Creating Layer relu7_bn
I1220 14:08:00.018124 17575 net.cpp:477] relu7_bn <- relu7_p
I1220 14:08:00.018141 17575 net.cpp:433] relu7_bn -> relu7_bn
I1220 14:08:00.018242 17575 net.cpp:155] Setting up relu7_bn
I1220 14:08:00.018260 17575 net.cpp:163] Top shape: 36 256 14 14 (1806336)
I1220 14:08:00.018275 17575 layer_factory.hpp:76] Creating layer conv41
I1220 14:08:00.018292 17575 net.cpp:110] Creating Layer conv41
I1220 14:08:00.018303 17575 net.cpp:477] conv41 <- eltwise7_relu7_0_split_1
I1220 14:08:00.018319 17575 net.cpp:433] conv41 -> conv41
I1220 14:08:00.021311 17575 net.cpp:155] Setting up conv41
I1220 14:08:00.021333 17575 net.cpp:163] Top shape: 36 256 14 14 (1806336)
I1220 14:08:00.021365 17575 layer_factory.hpp:76] Creating layer bn41
I1220 14:08:00.021384 17575 net.cpp:110] Creating Layer bn41
I1220 14:08:00.021394 17575 net.cpp:477] bn41 <- conv41
I1220 14:08:00.021407 17575 net.cpp:433] bn41 -> bn41
I1220 14:08:00.021507 17575 net.cpp:155] Setting up bn41
I1220 14:08:00.021525 17575 net.cpp:163] Top shape: 36 256 14 14 (1806336)
I1220 14:08:00.021541 17575 layer_factory.hpp:76] Creating layer relu41
I1220 14:08:00.021554 17575 net.cpp:110] Creating Layer relu41
I1220 14:08:00.021564 17575 net.cpp:477] relu41 <- bn41
I1220 14:08:00.021579 17575 net.cpp:419] relu41 -> bn41 (in-place)
I1220 14:08:00.021659 17575 net.cpp:155] Setting up relu41
I1220 14:08:00.021677 17575 net.cpp:163] Top shape: 36 256 14 14 (1806336)
I1220 14:08:00.021687 17575 layer_factory.hpp:76] Creating layer conv42
I1220 14:08:00.021703 17575 net.cpp:110] Creating Layer conv42
I1220 14:08:00.021713 17575 net.cpp:477] conv42 <- bn41
I1220 14:08:00.021728 17575 net.cpp:433] conv42 -> conv42
I1220 14:08:00.027504 17575 net.cpp:155] Setting up conv42
I1220 14:08:00.027526 17575 net.cpp:163] Top shape: 36 256 14 14 (1806336)
I1220 14:08:00.027541 17575 layer_factory.hpp:76] Creating layer bn42
I1220 14:08:00.027557 17575 net.cpp:110] Creating Layer bn42
I1220 14:08:00.027568 17575 net.cpp:477] bn42 <- conv42
I1220 14:08:00.027582 17575 net.cpp:433] bn42 -> bn42
I1220 14:08:00.027681 17575 net.cpp:155] Setting up bn42
I1220 14:08:00.027699 17575 net.cpp:163] Top shape: 36 256 14 14 (1806336)
I1220 14:08:00.027715 17575 layer_factory.hpp:76] Creating layer relu42
I1220 14:08:00.027729 17575 net.cpp:110] Creating Layer relu42
I1220 14:08:00.027740 17575 net.cpp:477] relu42 <- bn42
I1220 14:08:00.027755 17575 net.cpp:419] relu42 -> bn42 (in-place)
I1220 14:08:00.027832 17575 net.cpp:155] Setting up relu42
I1220 14:08:00.027848 17575 net.cpp:163] Top shape: 36 256 14 14 (1806336)
I1220 14:08:00.027859 17575 layer_factory.hpp:76] Creating layer eltwise8
I1220 14:08:00.027875 17575 net.cpp:110] Creating Layer eltwise8
I1220 14:08:00.027886 17575 net.cpp:477] eltwise8 <- relu7_bn
I1220 14:08:00.032541 17575 net.cpp:477] eltwise8 <- bn42
I1220 14:08:00.032563 17575 net.cpp:433] eltwise8 -> eltwise8
I1220 14:08:00.032595 17575 net.cpp:155] Setting up eltwise8
I1220 14:08:00.032611 17575 net.cpp:163] Top shape: 36 256 14 14 (1806336)
I1220 14:08:00.032624 17575 layer_factory.hpp:76] Creating layer relu8
I1220 14:08:00.032636 17575 net.cpp:110] Creating Layer relu8
I1220 14:08:00.032647 17575 net.cpp:477] relu8 <- eltwise8
I1220 14:08:00.032660 17575 net.cpp:419] relu8 -> eltwise8 (in-place)
I1220 14:08:00.032745 17575 net.cpp:155] Setting up relu8
I1220 14:08:00.032763 17575 net.cpp:163] Top shape: 36 256 14 14 (1806336)
I1220 14:08:00.032773 17575 layer_factory.hpp:76] Creating layer eltwise8_relu8_0_split
I1220 14:08:00.032788 17575 net.cpp:110] Creating Layer eltwise8_relu8_0_split
I1220 14:08:00.032799 17575 net.cpp:477] eltwise8_relu8_0_split <- eltwise8
I1220 14:08:00.032812 17575 net.cpp:433] eltwise8_relu8_0_split -> eltwise8_relu8_0_split_0
I1220 14:08:00.032829 17575 net.cpp:433] eltwise8_relu8_0_split -> eltwise8_relu8_0_split_1
I1220 14:08:00.032845 17575 net.cpp:155] Setting up eltwise8_relu8_0_split
I1220 14:08:00.032858 17575 net.cpp:163] Top shape: 36 256 14 14 (1806336)
I1220 14:08:00.032869 17575 net.cpp:163] Top shape: 36 256 14 14 (1806336)
I1220 14:08:00.032879 17575 layer_factory.hpp:76] Creating layer conv43
I1220 14:08:00.032893 17575 net.cpp:110] Creating Layer conv43
I1220 14:08:00.032904 17575 net.cpp:477] conv43 <- eltwise8_relu8_0_split_0
I1220 14:08:00.032920 17575 net.cpp:433] conv43 -> conv43
I1220 14:08:00.038688 17575 net.cpp:155] Setting up conv43
I1220 14:08:00.038714 17575 net.cpp:163] Top shape: 36 256 14 14 (1806336)
I1220 14:08:00.038730 17575 layer_factory.hpp:76] Creating layer bn43
I1220 14:08:00.038744 17575 net.cpp:110] Creating Layer bn43
I1220 14:08:00.038755 17575 net.cpp:477] bn43 <- conv43
I1220 14:08:00.038771 17575 net.cpp:433] bn43 -> bn43
I1220 14:08:00.038893 17575 net.cpp:155] Setting up bn43
I1220 14:08:00.038911 17575 net.cpp:163] Top shape: 36 256 14 14 (1806336)
I1220 14:08:00.038931 17575 layer_factory.hpp:76] Creating layer relu43
I1220 14:08:00.038946 17575 net.cpp:110] Creating Layer relu43
I1220 14:08:00.038957 17575 net.cpp:477] relu43 <- bn43
I1220 14:08:00.038969 17575 net.cpp:419] relu43 -> bn43 (in-place)
I1220 14:08:00.039165 17575 net.cpp:155] Setting up relu43
I1220 14:08:00.039186 17575 net.cpp:163] Top shape: 36 256 14 14 (1806336)
I1220 14:08:00.039197 17575 layer_factory.hpp:76] Creating layer conv44
I1220 14:08:00.039212 17575 net.cpp:110] Creating Layer conv44
I1220 14:08:00.039223 17575 net.cpp:477] conv44 <- bn43
I1220 14:08:00.039239 17575 net.cpp:433] conv44 -> conv44
I1220 14:08:00.044987 17575 net.cpp:155] Setting up conv44
I1220 14:08:00.045012 17575 net.cpp:163] Top shape: 36 256 14 14 (1806336)
I1220 14:08:00.045028 17575 layer_factory.hpp:76] Creating layer bn44
I1220 14:08:00.045042 17575 net.cpp:110] Creating Layer bn44
I1220 14:08:00.045053 17575 net.cpp:477] bn44 <- conv44
I1220 14:08:00.045068 17575 net.cpp:433] bn44 -> bn44
I1220 14:08:00.045171 17575 net.cpp:155] Setting up bn44
I1220 14:08:00.045189 17575 net.cpp:163] Top shape: 36 256 14 14 (1806336)
I1220 14:08:00.045205 17575 layer_factory.hpp:76] Creating layer relu44
I1220 14:08:00.045222 17575 net.cpp:110] Creating Layer relu44
I1220 14:08:00.045233 17575 net.cpp:477] relu44 <- bn44
I1220 14:08:00.045246 17575 net.cpp:419] relu44 -> bn44 (in-place)
I1220 14:08:00.045330 17575 net.cpp:155] Setting up relu44
I1220 14:08:00.045346 17575 net.cpp:163] Top shape: 36 256 14 14 (1806336)
I1220 14:08:00.045357 17575 layer_factory.hpp:76] Creating layer eltwise9
I1220 14:08:00.045373 17575 net.cpp:110] Creating Layer eltwise9
I1220 14:08:00.045385 17575 net.cpp:477] eltwise9 <- eltwise8_relu8_0_split_1
I1220 14:08:00.045397 17575 net.cpp:477] eltwise9 <- bn44
I1220 14:08:00.045409 17575 net.cpp:433] eltwise9 -> eltwise9
I1220 14:08:00.045425 17575 net.cpp:155] Setting up eltwise9
I1220 14:08:00.045439 17575 net.cpp:163] Top shape: 36 256 14 14 (1806336)
I1220 14:08:00.045449 17575 layer_factory.hpp:76] Creating layer relu9
I1220 14:08:00.045462 17575 net.cpp:110] Creating Layer relu9
I1220 14:08:00.045475 17575 net.cpp:477] relu9 <- eltwise9
I1220 14:08:00.045486 17575 net.cpp:419] relu9 -> eltwise9 (in-place)
I1220 14:08:00.045558 17575 net.cpp:155] Setting up relu9
I1220 14:08:00.045575 17575 net.cpp:163] Top shape: 36 256 14 14 (1806336)
I1220 14:08:00.045586 17575 layer_factory.hpp:76] Creating layer eltwise9_relu9_0_split
I1220 14:08:00.045598 17575 net.cpp:110] Creating Layer eltwise9_relu9_0_split
I1220 14:08:00.045609 17575 net.cpp:477] eltwise9_relu9_0_split <- eltwise9
I1220 14:08:00.045624 17575 net.cpp:433] eltwise9_relu9_0_split -> eltwise9_relu9_0_split_0
I1220 14:08:00.045639 17575 net.cpp:433] eltwise9_relu9_0_split -> eltwise9_relu9_0_split_1
I1220 14:08:00.045655 17575 net.cpp:155] Setting up eltwise9_relu9_0_split
I1220 14:08:00.045666 17575 net.cpp:163] Top shape: 36 256 14 14 (1806336)
I1220 14:08:00.045677 17575 net.cpp:163] Top shape: 36 256 14 14 (1806336)
I1220 14:08:00.045687 17575 layer_factory.hpp:76] Creating layer conv45
I1220 14:08:00.045703 17575 net.cpp:110] Creating Layer conv45
I1220 14:08:00.045716 17575 net.cpp:477] conv45 <- eltwise9_relu9_0_split_0
I1220 14:08:00.045728 17575 net.cpp:433] conv45 -> conv45
I1220 14:08:00.051451 17575 net.cpp:155] Setting up conv45
I1220 14:08:00.051476 17575 net.cpp:163] Top shape: 36 256 14 14 (1806336)
I1220 14:08:00.051493 17575 layer_factory.hpp:76] Creating layer bn45
I1220 14:08:00.051511 17575 net.cpp:110] Creating Layer bn45
I1220 14:08:00.051522 17575 net.cpp:477] bn45 <- conv45
I1220 14:08:00.051535 17575 net.cpp:433] bn45 -> bn45
I1220 14:08:00.051636 17575 net.cpp:155] Setting up bn45
I1220 14:08:00.051653 17575 net.cpp:163] Top shape: 36 256 14 14 (1806336)
I1220 14:08:00.051671 17575 layer_factory.hpp:76] Creating layer relu45
I1220 14:08:00.051687 17575 net.cpp:110] Creating Layer relu45
I1220 14:08:00.051717 17575 net.cpp:477] relu45 <- bn45
I1220 14:08:00.051731 17575 net.cpp:419] relu45 -> bn45 (in-place)
I1220 14:08:00.051815 17575 net.cpp:155] Setting up relu45
I1220 14:08:00.051832 17575 net.cpp:163] Top shape: 36 256 14 14 (1806336)
I1220 14:08:00.051843 17575 layer_factory.hpp:76] Creating layer conv46
I1220 14:08:00.051869 17575 net.cpp:110] Creating Layer conv46
I1220 14:08:00.051880 17575 net.cpp:477] conv46 <- bn45
I1220 14:08:00.051894 17575 net.cpp:433] conv46 -> conv46
I1220 14:08:00.057638 17575 net.cpp:155] Setting up conv46
I1220 14:08:00.057662 17575 net.cpp:163] Top shape: 36 256 14 14 (1806336)
I1220 14:08:00.057677 17575 layer_factory.hpp:76] Creating layer bn46
I1220 14:08:00.057696 17575 net.cpp:110] Creating Layer bn46
I1220 14:08:00.057708 17575 net.cpp:477] bn46 <- conv46
I1220 14:08:00.057723 17575 net.cpp:433] bn46 -> bn46
I1220 14:08:00.057831 17575 net.cpp:155] Setting up bn46
I1220 14:08:00.057847 17575 net.cpp:163] Top shape: 36 256 14 14 (1806336)
I1220 14:08:00.057863 17575 layer_factory.hpp:76] Creating layer relu46
I1220 14:08:00.057878 17575 net.cpp:110] Creating Layer relu46
I1220 14:08:00.057888 17575 net.cpp:477] relu46 <- bn46
I1220 14:08:00.057903 17575 net.cpp:419] relu46 -> bn46 (in-place)
I1220 14:08:00.058090 17575 net.cpp:155] Setting up relu46
I1220 14:08:00.058110 17575 net.cpp:163] Top shape: 36 256 14 14 (1806336)
I1220 14:08:00.058121 17575 layer_factory.hpp:76] Creating layer eltwise10
I1220 14:08:00.058137 17575 net.cpp:110] Creating Layer eltwise10
I1220 14:08:00.058150 17575 net.cpp:477] eltwise10 <- eltwise9_relu9_0_split_1
I1220 14:08:00.058161 17575 net.cpp:477] eltwise10 <- bn46
I1220 14:08:00.058174 17575 net.cpp:433] eltwise10 -> eltwise10
I1220 14:08:00.058190 17575 net.cpp:155] Setting up eltwise10
I1220 14:08:00.058203 17575 net.cpp:163] Top shape: 36 256 14 14 (1806336)
I1220 14:08:00.058214 17575 layer_factory.hpp:76] Creating layer relu10
I1220 14:08:00.058225 17575 net.cpp:110] Creating Layer relu10
I1220 14:08:00.058236 17575 net.cpp:477] relu10 <- eltwise10
I1220 14:08:00.058248 17575 net.cpp:419] relu10 -> eltwise10 (in-place)
I1220 14:08:00.058321 17575 net.cpp:155] Setting up relu10
I1220 14:08:00.058337 17575 net.cpp:163] Top shape: 36 256 14 14 (1806336)
I1220 14:08:00.058347 17575 layer_factory.hpp:76] Creating layer eltwise10_relu10_0_split
I1220 14:08:00.058361 17575 net.cpp:110] Creating Layer eltwise10_relu10_0_split
I1220 14:08:00.058370 17575 net.cpp:477] eltwise10_relu10_0_split <- eltwise10
I1220 14:08:00.058382 17575 net.cpp:433] eltwise10_relu10_0_split -> eltwise10_relu10_0_split_0
I1220 14:08:00.058398 17575 net.cpp:433] eltwise10_relu10_0_split -> eltwise10_relu10_0_split_1
I1220 14:08:00.058413 17575 net.cpp:155] Setting up eltwise10_relu10_0_split
I1220 14:08:00.058424 17575 net.cpp:163] Top shape: 36 256 14 14 (1806336)
I1220 14:08:00.058435 17575 net.cpp:163] Top shape: 36 256 14 14 (1806336)
I1220 14:08:00.058445 17575 layer_factory.hpp:76] Creating layer conv47
I1220 14:08:00.058461 17575 net.cpp:110] Creating Layer conv47
I1220 14:08:00.058472 17575 net.cpp:477] conv47 <- eltwise10_relu10_0_split_0
I1220 14:08:00.058487 17575 net.cpp:433] conv47 -> conv47
I1220 14:08:00.064220 17575 net.cpp:155] Setting up conv47
I1220 14:08:00.064246 17575 net.cpp:163] Top shape: 36 256 14 14 (1806336)
I1220 14:08:00.064262 17575 layer_factory.hpp:76] Creating layer bn47
I1220 14:08:00.064280 17575 net.cpp:110] Creating Layer bn47
I1220 14:08:00.064291 17575 net.cpp:477] bn47 <- conv47
I1220 14:08:00.064339 17575 net.cpp:433] bn47 -> bn47
I1220 14:08:00.064446 17575 net.cpp:155] Setting up bn47
I1220 14:08:00.064465 17575 net.cpp:163] Top shape: 36 256 14 14 (1806336)
I1220 14:08:00.064481 17575 layer_factory.hpp:76] Creating layer relu47
I1220 14:08:00.064493 17575 net.cpp:110] Creating Layer relu47
I1220 14:08:00.064504 17575 net.cpp:477] relu47 <- bn47
I1220 14:08:00.064518 17575 net.cpp:419] relu47 -> bn47 (in-place)
I1220 14:08:00.064596 17575 net.cpp:155] Setting up relu47
I1220 14:08:00.064612 17575 net.cpp:163] Top shape: 36 256 14 14 (1806336)
I1220 14:08:00.064645 17575 layer_factory.hpp:76] Creating layer conv48
I1220 14:08:00.064661 17575 net.cpp:110] Creating Layer conv48
I1220 14:08:00.064673 17575 net.cpp:477] conv48 <- bn47
I1220 14:08:00.064687 17575 net.cpp:433] conv48 -> conv48
I1220 14:08:00.070456 17575 net.cpp:155] Setting up conv48
I1220 14:08:00.070479 17575 net.cpp:163] Top shape: 36 256 14 14 (1806336)
I1220 14:08:00.070494 17575 layer_factory.hpp:76] Creating layer bn48
I1220 14:08:00.070509 17575 net.cpp:110] Creating Layer bn48
I1220 14:08:00.070520 17575 net.cpp:477] bn48 <- conv48
I1220 14:08:00.070536 17575 net.cpp:433] bn48 -> bn48
I1220 14:08:00.070638 17575 net.cpp:155] Setting up bn48
I1220 14:08:00.070657 17575 net.cpp:163] Top shape: 36 256 14 14 (1806336)
I1220 14:08:00.070677 17575 layer_factory.hpp:76] Creating layer relu48
I1220 14:08:00.070691 17575 net.cpp:110] Creating Layer relu48
I1220 14:08:00.070703 17575 net.cpp:477] relu48 <- bn48
I1220 14:08:00.070714 17575 net.cpp:419] relu48 -> bn48 (in-place)
I1220 14:08:00.070909 17575 net.cpp:155] Setting up relu48
I1220 14:08:00.070930 17575 net.cpp:163] Top shape: 36 256 14 14 (1806336)
I1220 14:08:00.070940 17575 layer_factory.hpp:76] Creating layer eltwise11
I1220 14:08:00.070955 17575 net.cpp:110] Creating Layer eltwise11
I1220 14:08:00.070966 17575 net.cpp:477] eltwise11 <- eltwise10_relu10_0_split_1
I1220 14:08:00.070978 17575 net.cpp:477] eltwise11 <- bn48
I1220 14:08:00.070991 17575 net.cpp:433] eltwise11 -> eltwise11
I1220 14:08:00.071007 17575 net.cpp:155] Setting up eltwise11
I1220 14:08:00.071020 17575 net.cpp:163] Top shape: 36 256 14 14 (1806336)
I1220 14:08:00.071032 17575 layer_factory.hpp:76] Creating layer relu11
I1220 14:08:00.071045 17575 net.cpp:110] Creating Layer relu11
I1220 14:08:00.071058 17575 net.cpp:477] relu11 <- eltwise11
I1220 14:08:00.071069 17575 net.cpp:419] relu11 -> eltwise11 (in-place)
I1220 14:08:00.071143 17575 net.cpp:155] Setting up relu11
I1220 14:08:00.071159 17575 net.cpp:163] Top shape: 36 256 14 14 (1806336)
I1220 14:08:00.071171 17575 layer_factory.hpp:76] Creating layer eltwise11_relu11_0_split
I1220 14:08:00.071187 17575 net.cpp:110] Creating Layer eltwise11_relu11_0_split
I1220 14:08:00.071198 17575 net.cpp:477] eltwise11_relu11_0_split <- eltwise11
I1220 14:08:00.071213 17575 net.cpp:433] eltwise11_relu11_0_split -> eltwise11_relu11_0_split_0
I1220 14:08:00.071228 17575 net.cpp:433] eltwise11_relu11_0_split -> eltwise11_relu11_0_split_1
I1220 14:08:00.071244 17575 net.cpp:155] Setting up eltwise11_relu11_0_split
I1220 14:08:00.071256 17575 net.cpp:163] Top shape: 36 256 14 14 (1806336)
I1220 14:08:00.071267 17575 net.cpp:163] Top shape: 36 256 14 14 (1806336)
I1220 14:08:00.071277 17575 layer_factory.hpp:76] Creating layer conv49
I1220 14:08:00.071291 17575 net.cpp:110] Creating Layer conv49
I1220 14:08:00.071301 17575 net.cpp:477] conv49 <- eltwise11_relu11_0_split_0
I1220 14:08:00.071316 17575 net.cpp:433] conv49 -> conv49
I1220 14:08:00.077067 17575 net.cpp:155] Setting up conv49
I1220 14:08:00.077093 17575 net.cpp:163] Top shape: 36 256 14 14 (1806336)
I1220 14:08:00.077110 17575 layer_factory.hpp:76] Creating layer bn49
I1220 14:08:00.077129 17575 net.cpp:110] Creating Layer bn49
I1220 14:08:00.077141 17575 net.cpp:477] bn49 <- conv49
I1220 14:08:00.077158 17575 net.cpp:433] bn49 -> bn49
I1220 14:08:00.077265 17575 net.cpp:155] Setting up bn49
I1220 14:08:00.077282 17575 net.cpp:163] Top shape: 36 256 14 14 (1806336)
I1220 14:08:00.077330 17575 layer_factory.hpp:76] Creating layer relu49
I1220 14:08:00.077347 17575 net.cpp:110] Creating Layer relu49
I1220 14:08:00.077358 17575 net.cpp:477] relu49 <- bn49
I1220 14:08:00.077370 17575 net.cpp:419] relu49 -> bn49 (in-place)
I1220 14:08:00.077448 17575 net.cpp:155] Setting up relu49
I1220 14:08:00.077466 17575 net.cpp:163] Top shape: 36 256 14 14 (1806336)
I1220 14:08:00.077476 17575 layer_factory.hpp:76] Creating layer conv410
I1220 14:08:00.077493 17575 net.cpp:110] Creating Layer conv410
I1220 14:08:00.077505 17575 net.cpp:477] conv410 <- bn49
I1220 14:08:00.077540 17575 net.cpp:433] conv410 -> conv410
I1220 14:08:00.083252 17575 net.cpp:155] Setting up conv410
I1220 14:08:00.083274 17575 net.cpp:163] Top shape: 36 256 14 14 (1806336)
I1220 14:08:00.083289 17575 layer_factory.hpp:76] Creating layer bn410
I1220 14:08:00.083305 17575 net.cpp:110] Creating Layer bn410
I1220 14:08:00.083317 17575 net.cpp:477] bn410 <- conv410
I1220 14:08:00.083330 17575 net.cpp:433] bn410 -> bn410
I1220 14:08:00.083433 17575 net.cpp:155] Setting up bn410
I1220 14:08:00.083453 17575 net.cpp:163] Top shape: 36 256 14 14 (1806336)
I1220 14:08:00.083468 17575 layer_factory.hpp:76] Creating layer relu410
I1220 14:08:00.083482 17575 net.cpp:110] Creating Layer relu410
I1220 14:08:00.083492 17575 net.cpp:477] relu410 <- bn410
I1220 14:08:00.083505 17575 net.cpp:419] relu410 -> bn410 (in-place)
I1220 14:08:00.083582 17575 net.cpp:155] Setting up relu410
I1220 14:08:00.083601 17575 net.cpp:163] Top shape: 36 256 14 14 (1806336)
I1220 14:08:00.083612 17575 layer_factory.hpp:76] Creating layer eltwise12
I1220 14:08:00.083626 17575 net.cpp:110] Creating Layer eltwise12
I1220 14:08:00.083636 17575 net.cpp:477] eltwise12 <- eltwise11_relu11_0_split_1
I1220 14:08:00.083647 17575 net.cpp:477] eltwise12 <- bn410
I1220 14:08:00.083662 17575 net.cpp:433] eltwise12 -> eltwise12
I1220 14:08:00.083678 17575 net.cpp:155] Setting up eltwise12
I1220 14:08:00.083690 17575 net.cpp:163] Top shape: 36 256 14 14 (1806336)
I1220 14:08:00.083700 17575 layer_factory.hpp:76] Creating layer relu12
I1220 14:08:00.083714 17575 net.cpp:110] Creating Layer relu12
I1220 14:08:00.083724 17575 net.cpp:477] relu12 <- eltwise12
I1220 14:08:00.083735 17575 net.cpp:419] relu12 -> eltwise12 (in-place)
I1220 14:08:00.083930 17575 net.cpp:155] Setting up relu12
I1220 14:08:00.083950 17575 net.cpp:163] Top shape: 36 256 14 14 (1806336)
I1220 14:08:00.083961 17575 layer_factory.hpp:76] Creating layer eltwise12_relu12_0_split
I1220 14:08:00.083973 17575 net.cpp:110] Creating Layer eltwise12_relu12_0_split
I1220 14:08:00.083987 17575 net.cpp:477] eltwise12_relu12_0_split <- eltwise12
I1220 14:08:00.084000 17575 net.cpp:433] eltwise12_relu12_0_split -> eltwise12_relu12_0_split_0
I1220 14:08:00.084014 17575 net.cpp:433] eltwise12_relu12_0_split -> eltwise12_relu12_0_split_1
I1220 14:08:00.084029 17575 net.cpp:433] eltwise12_relu12_0_split -> eltwise12_relu12_0_split_2
I1220 14:08:00.084044 17575 net.cpp:155] Setting up eltwise12_relu12_0_split
I1220 14:08:00.084058 17575 net.cpp:163] Top shape: 36 256 14 14 (1806336)
I1220 14:08:00.084067 17575 net.cpp:163] Top shape: 36 256 14 14 (1806336)
I1220 14:08:00.084079 17575 net.cpp:163] Top shape: 36 256 14 14 (1806336)
I1220 14:08:00.084089 17575 layer_factory.hpp:76] Creating layer conv411
I1220 14:08:00.084105 17575 net.cpp:110] Creating Layer conv411
I1220 14:08:00.084115 17575 net.cpp:477] conv411 <- eltwise12_relu12_0_split_0
I1220 14:08:00.084131 17575 net.cpp:433] conv411 -> conv411
I1220 14:08:00.089834 17575 net.cpp:155] Setting up conv411
I1220 14:08:00.089857 17575 net.cpp:163] Top shape: 36 256 14 14 (1806336)
I1220 14:08:00.089871 17575 layer_factory.hpp:76] Creating layer bn411
I1220 14:08:00.089887 17575 net.cpp:110] Creating Layer bn411
I1220 14:08:00.089900 17575 net.cpp:477] bn411 <- conv411
I1220 14:08:00.089915 17575 net.cpp:433] bn411 -> bn411
I1220 14:08:00.090019 17575 net.cpp:155] Setting up bn411
I1220 14:08:00.090037 17575 net.cpp:163] Top shape: 36 256 14 14 (1806336)
I1220 14:08:00.090054 17575 layer_factory.hpp:76] Creating layer relu411
I1220 14:08:00.090070 17575 net.cpp:110] Creating Layer relu411
I1220 14:08:00.090082 17575 net.cpp:477] relu411 <- bn411
I1220 14:08:00.090095 17575 net.cpp:419] relu411 -> bn411 (in-place)
I1220 14:08:00.090174 17575 net.cpp:155] Setting up relu411
I1220 14:08:00.090190 17575 net.cpp:163] Top shape: 36 256 14 14 (1806336)
I1220 14:08:00.090201 17575 layer_factory.hpp:76] Creating layer conv412
I1220 14:08:00.090220 17575 net.cpp:110] Creating Layer conv412
I1220 14:08:00.090231 17575 net.cpp:477] conv412 <- bn411
I1220 14:08:00.090245 17575 net.cpp:433] conv412 -> conv412
I1220 14:08:00.095975 17575 net.cpp:155] Setting up conv412
I1220 14:08:00.095999 17575 net.cpp:163] Top shape: 36 256 14 14 (1806336)
I1220 14:08:00.096014 17575 layer_factory.hpp:76] Creating layer bn412
I1220 14:08:00.096027 17575 net.cpp:110] Creating Layer bn412
I1220 14:08:00.096038 17575 net.cpp:477] bn412 <- conv412
I1220 14:08:00.096053 17575 net.cpp:433] bn412 -> bn412
I1220 14:08:00.096163 17575 net.cpp:155] Setting up bn412
I1220 14:08:00.096179 17575 net.cpp:163] Top shape: 36 256 14 14 (1806336)
I1220 14:08:00.096199 17575 layer_factory.hpp:76] Creating layer relu412
I1220 14:08:00.096211 17575 net.cpp:110] Creating Layer relu412
I1220 14:08:00.096222 17575 net.cpp:477] relu412 <- bn412
I1220 14:08:00.096235 17575 net.cpp:419] relu412 -> bn412 (in-place)
I1220 14:08:00.096312 17575 net.cpp:155] Setting up relu412
I1220 14:08:00.096330 17575 net.cpp:163] Top shape: 36 256 14 14 (1806336)
I1220 14:08:00.096341 17575 layer_factory.hpp:76] Creating layer eltwise13
I1220 14:08:00.096354 17575 net.cpp:110] Creating Layer eltwise13
I1220 14:08:00.096365 17575 net.cpp:477] eltwise13 <- eltwise12_relu12_0_split_1
I1220 14:08:00.096377 17575 net.cpp:477] eltwise13 <- bn412
I1220 14:08:00.096390 17575 net.cpp:433] eltwise13 -> eltwise13
I1220 14:08:00.096405 17575 net.cpp:155] Setting up eltwise13
I1220 14:08:00.096418 17575 net.cpp:163] Top shape: 36 256 14 14 (1806336)
I1220 14:08:00.096428 17575 layer_factory.hpp:76] Creating layer relu13
I1220 14:08:00.096442 17575 net.cpp:110] Creating Layer relu13
I1220 14:08:00.096454 17575 net.cpp:477] relu13 <- eltwise13
I1220 14:08:00.096467 17575 net.cpp:419] relu13 -> eltwise13 (in-place)
I1220 14:08:00.096540 17575 net.cpp:155] Setting up relu13
I1220 14:08:00.096556 17575 net.cpp:163] Top shape: 36 256 14 14 (1806336)
I1220 14:08:00.096566 17575 layer_factory.hpp:76] Creating layer relu13_p
I1220 14:08:00.096582 17575 net.cpp:110] Creating Layer relu13_p
I1220 14:08:00.096595 17575 net.cpp:477] relu13_p <- eltwise12_relu12_0_split_2
I1220 14:08:00.096611 17575 net.cpp:433] relu13_p -> relu13_p
I1220 14:08:00.098443 17575 net.cpp:155] Setting up relu13_p
I1220 14:08:00.098465 17575 net.cpp:163] Top shape: 36 512 7 7 (903168)
I1220 14:08:00.098479 17575 layer_factory.hpp:76] Creating layer relu13_bn
I1220 14:08:00.098498 17575 net.cpp:110] Creating Layer relu13_bn
I1220 14:08:00.098510 17575 net.cpp:477] relu13_bn <- relu13_p
I1220 14:08:00.098523 17575 net.cpp:433] relu13_bn -> relu13_bn
I1220 14:08:00.098635 17575 net.cpp:155] Setting up relu13_bn
I1220 14:08:00.098654 17575 net.cpp:163] Top shape: 36 512 7 7 (903168)
I1220 14:08:00.098670 17575 layer_factory.hpp:76] Creating layer conv51
I1220 14:08:00.098703 17575 net.cpp:110] Creating Layer conv51
I1220 14:08:00.098717 17575 net.cpp:477] conv51 <- eltwise13
I1220 14:08:00.098733 17575 net.cpp:433] conv51 -> conv51
I1220 14:08:00.109683 17575 net.cpp:155] Setting up conv51
I1220 14:08:00.109709 17575 net.cpp:163] Top shape: 36 512 7 7 (903168)
I1220 14:08:00.109729 17575 layer_factory.hpp:76] Creating layer bn51
I1220 14:08:00.109745 17575 net.cpp:110] Creating Layer bn51
I1220 14:08:00.109756 17575 net.cpp:477] bn51 <- conv51
I1220 14:08:00.109771 17575 net.cpp:433] bn51 -> bn51
I1220 14:08:00.109879 17575 net.cpp:155] Setting up bn51
I1220 14:08:00.109899 17575 net.cpp:163] Top shape: 36 512 7 7 (903168)
I1220 14:08:00.109915 17575 layer_factory.hpp:76] Creating layer relu51
I1220 14:08:00.109928 17575 net.cpp:110] Creating Layer relu51
I1220 14:08:00.109940 17575 net.cpp:477] relu51 <- bn51
I1220 14:08:00.109954 17575 net.cpp:419] relu51 -> bn51 (in-place)
I1220 14:08:00.110149 17575 net.cpp:155] Setting up relu51
I1220 14:08:00.110169 17575 net.cpp:163] Top shape: 36 512 7 7 (903168)
I1220 14:08:00.110182 17575 layer_factory.hpp:76] Creating layer conv52
I1220 14:08:00.110196 17575 net.cpp:110] Creating Layer conv52
I1220 14:08:00.110208 17575 net.cpp:477] conv52 <- bn51
I1220 14:08:00.110222 17575 net.cpp:433] conv52 -> conv52
I1220 14:08:00.131657 17575 net.cpp:155] Setting up conv52
I1220 14:08:00.131724 17575 net.cpp:163] Top shape: 36 512 7 7 (903168)
I1220 14:08:00.131742 17575 layer_factory.hpp:76] Creating layer bn52
I1220 14:08:00.131764 17575 net.cpp:110] Creating Layer bn52
I1220 14:08:00.131779 17575 net.cpp:477] bn52 <- conv52
I1220 14:08:00.131800 17575 net.cpp:433] bn52 -> bn52
I1220 14:08:00.131922 17575 net.cpp:155] Setting up bn52
I1220 14:08:00.131942 17575 net.cpp:163] Top shape: 36 512 7 7 (903168)
I1220 14:08:00.131965 17575 layer_factory.hpp:76] Creating layer relu52
I1220 14:08:00.131983 17575 net.cpp:110] Creating Layer relu52
I1220 14:08:00.131997 17575 net.cpp:477] relu52 <- bn52
I1220 14:08:00.132014 17575 net.cpp:419] relu52 -> bn52 (in-place)
I1220 14:08:00.132100 17575 net.cpp:155] Setting up relu52
I1220 14:08:00.132119 17575 net.cpp:163] Top shape: 36 512 7 7 (903168)
I1220 14:08:00.132138 17575 layer_factory.hpp:76] Creating layer eltwise14
I1220 14:08:00.132158 17575 net.cpp:110] Creating Layer eltwise14
I1220 14:08:00.132171 17575 net.cpp:477] eltwise14 <- relu13_bn
I1220 14:08:00.132186 17575 net.cpp:477] eltwise14 <- bn52
I1220 14:08:00.132205 17575 net.cpp:433] eltwise14 -> eltwise14
I1220 14:08:00.132230 17575 net.cpp:155] Setting up eltwise14
I1220 14:08:00.132246 17575 net.cpp:163] Top shape: 36 512 7 7 (903168)
I1220 14:08:00.132259 17575 layer_factory.hpp:76] Creating layer relu14
I1220 14:08:00.132278 17575 net.cpp:110] Creating Layer relu14
I1220 14:08:00.132292 17575 net.cpp:477] relu14 <- eltwise14
I1220 14:08:00.132308 17575 net.cpp:419] relu14 -> eltwise14 (in-place)
I1220 14:08:00.132386 17575 net.cpp:155] Setting up relu14
I1220 14:08:00.132405 17575 net.cpp:163] Top shape: 36 512 7 7 (903168)
I1220 14:08:00.132418 17575 layer_factory.hpp:76] Creating layer eltwise14_relu14_0_split
I1220 14:08:00.132434 17575 net.cpp:110] Creating Layer eltwise14_relu14_0_split
I1220 14:08:00.132449 17575 net.cpp:477] eltwise14_relu14_0_split <- eltwise14
I1220 14:08:00.132467 17575 net.cpp:433] eltwise14_relu14_0_split -> eltwise14_relu14_0_split_0
I1220 14:08:00.132485 17575 net.cpp:433] eltwise14_relu14_0_split -> eltwise14_relu14_0_split_1
I1220 14:08:00.132504 17575 net.cpp:155] Setting up eltwise14_relu14_0_split
I1220 14:08:00.132521 17575 net.cpp:163] Top shape: 36 512 7 7 (903168)
I1220 14:08:00.132535 17575 net.cpp:163] Top shape: 36 512 7 7 (903168)
I1220 14:08:00.132550 17575 layer_factory.hpp:76] Creating layer conv53
I1220 14:08:00.132570 17575 net.cpp:110] Creating Layer conv53
I1220 14:08:00.132583 17575 net.cpp:477] conv53 <- eltwise14_relu14_0_split_0
I1220 14:08:00.132599 17575 net.cpp:433] conv53 -> conv53
I1220 14:08:00.154072 17575 net.cpp:155] Setting up conv53
I1220 14:08:00.154114 17575 net.cpp:163] Top shape: 36 512 7 7 (903168)
I1220 14:08:00.154167 17575 layer_factory.hpp:76] Creating layer bn53
I1220 14:08:00.154187 17575 net.cpp:110] Creating Layer bn53
I1220 14:08:00.154212 17575 net.cpp:477] bn53 <- conv53
I1220 14:08:00.154242 17575 net.cpp:433] bn53 -> bn53
I1220 14:08:00.154362 17575 net.cpp:155] Setting up bn53
I1220 14:08:00.154383 17575 net.cpp:163] Top shape: 36 512 7 7 (903168)
I1220 14:08:00.154403 17575 layer_factory.hpp:76] Creating layer relu53
I1220 14:08:00.154425 17575 net.cpp:110] Creating Layer relu53
I1220 14:08:00.154439 17575 net.cpp:477] relu53 <- bn53
I1220 14:08:00.154456 17575 net.cpp:419] relu53 -> bn53 (in-place)
I1220 14:08:00.154541 17575 net.cpp:155] Setting up relu53
I1220 14:08:00.154561 17575 net.cpp:163] Top shape: 36 512 7 7 (903168)
I1220 14:08:00.154574 17575 layer_factory.hpp:76] Creating layer conv54
I1220 14:08:00.154597 17575 net.cpp:110] Creating Layer conv54
I1220 14:08:00.154609 17575 net.cpp:477] conv54 <- bn53
I1220 14:08:00.154626 17575 net.cpp:433] conv54 -> conv54
I1220 14:08:00.176152 17575 net.cpp:155] Setting up conv54
I1220 14:08:00.176203 17575 net.cpp:163] Top shape: 36 512 7 7 (903168)
I1220 14:08:00.176220 17575 layer_factory.hpp:76] Creating layer bn54
I1220 14:08:00.176241 17575 net.cpp:110] Creating Layer bn54
I1220 14:08:00.176256 17575 net.cpp:477] bn54 <- conv54
I1220 14:08:00.176311 17575 net.cpp:433] bn54 -> bn54
I1220 14:08:00.176434 17575 net.cpp:155] Setting up bn54
I1220 14:08:00.176453 17575 net.cpp:163] Top shape: 36 512 7 7 (903168)
I1220 14:08:00.176488 17575 layer_factory.hpp:76] Creating layer relu54
I1220 14:08:00.176506 17575 net.cpp:110] Creating Layer relu54
I1220 14:08:00.176534 17575 net.cpp:477] relu54 <- bn54
I1220 14:08:00.176555 17575 net.cpp:419] relu54 -> bn54 (in-place)
I1220 14:08:00.176753 17575 net.cpp:155] Setting up relu54
I1220 14:08:00.176776 17575 net.cpp:163] Top shape: 36 512 7 7 (903168)
I1220 14:08:00.176791 17575 layer_factory.hpp:76] Creating layer eltwise15
I1220 14:08:00.176816 17575 net.cpp:110] Creating Layer eltwise15
I1220 14:08:00.176831 17575 net.cpp:477] eltwise15 <- eltwise14_relu14_0_split_1
I1220 14:08:00.176847 17575 net.cpp:477] eltwise15 <- bn54
I1220 14:08:00.176863 17575 net.cpp:433] eltwise15 -> eltwise15
I1220 14:08:00.176884 17575 net.cpp:155] Setting up eltwise15
I1220 14:08:00.176900 17575 net.cpp:163] Top shape: 36 512 7 7 (903168)
I1220 14:08:00.176914 17575 layer_factory.hpp:76] Creating layer relu15
I1220 14:08:00.176934 17575 net.cpp:110] Creating Layer relu15
I1220 14:08:00.176950 17575 net.cpp:477] relu15 <- eltwise15
I1220 14:08:00.176966 17575 net.cpp:419] relu15 -> eltwise15 (in-place)
I1220 14:08:00.177044 17575 net.cpp:155] Setting up relu15
I1220 14:08:00.177063 17575 net.cpp:163] Top shape: 36 512 7 7 (903168)
I1220 14:08:00.177078 17575 layer_factory.hpp:76] Creating layer eltwise15_relu15_0_split
I1220 14:08:00.177094 17575 net.cpp:110] Creating Layer eltwise15_relu15_0_split
I1220 14:08:00.177109 17575 net.cpp:477] eltwise15_relu15_0_split <- eltwise15
I1220 14:08:00.177124 17575 net.cpp:433] eltwise15_relu15_0_split -> eltwise15_relu15_0_split_0
I1220 14:08:00.177144 17575 net.cpp:433] eltwise15_relu15_0_split -> eltwise15_relu15_0_split_1
I1220 14:08:00.177163 17575 net.cpp:155] Setting up eltwise15_relu15_0_split
I1220 14:08:00.177180 17575 net.cpp:163] Top shape: 36 512 7 7 (903168)
I1220 14:08:00.177193 17575 net.cpp:163] Top shape: 36 512 7 7 (903168)
I1220 14:08:00.177207 17575 layer_factory.hpp:76] Creating layer conv55
I1220 14:08:00.177228 17575 net.cpp:110] Creating Layer conv55
I1220 14:08:00.177242 17575 net.cpp:477] conv55 <- eltwise15_relu15_0_split_0
I1220 14:08:00.177261 17575 net.cpp:433] conv55 -> conv55
I1220 14:08:00.199201 17575 net.cpp:155] Setting up conv55
I1220 14:08:00.199251 17575 net.cpp:163] Top shape: 36 512 7 7 (903168)
I1220 14:08:00.199271 17575 layer_factory.hpp:76] Creating layer bn55
I1220 14:08:00.199317 17575 net.cpp:110] Creating Layer bn55
I1220 14:08:00.199334 17575 net.cpp:477] bn55 <- conv55
I1220 14:08:00.199362 17575 net.cpp:433] bn55 -> bn55
I1220 14:08:00.199497 17575 net.cpp:155] Setting up bn55
I1220 14:08:00.199517 17575 net.cpp:163] Top shape: 36 512 7 7 (903168)
I1220 14:08:00.199545 17575 layer_factory.hpp:76] Creating layer relu55
I1220 14:08:00.199563 17575 net.cpp:110] Creating Layer relu55
I1220 14:08:00.199580 17575 net.cpp:477] relu55 <- bn55
I1220 14:08:00.199600 17575 net.cpp:419] relu55 -> bn55 (in-place)
I1220 14:08:00.199687 17575 net.cpp:155] Setting up relu55
I1220 14:08:00.199707 17575 net.cpp:163] Top shape: 36 512 7 7 (903168)
I1220 14:08:00.199722 17575 layer_factory.hpp:76] Creating layer conv56
I1220 14:08:00.199740 17575 net.cpp:110] Creating Layer conv56
I1220 14:08:00.199754 17575 net.cpp:477] conv56 <- bn55
I1220 14:08:00.199779 17575 net.cpp:433] conv56 -> conv56
I1220 14:08:00.221271 17575 net.cpp:155] Setting up conv56
I1220 14:08:00.221307 17575 net.cpp:163] Top shape: 36 512 7 7 (903168)
I1220 14:08:00.221323 17575 layer_factory.hpp:76] Creating layer bn56
I1220 14:08:00.221372 17575 net.cpp:110] Creating Layer bn56
I1220 14:08:00.221385 17575 net.cpp:477] bn56 <- conv56
I1220 14:08:00.221400 17575 net.cpp:433] bn56 -> bn56
I1220 14:08:00.221519 17575 net.cpp:155] Setting up bn56
I1220 14:08:00.221537 17575 net.cpp:163] Top shape: 36 512 7 7 (903168)
I1220 14:08:00.221560 17575 layer_factory.hpp:76] Creating layer relu56
I1220 14:08:00.221608 17575 net.cpp:110] Creating Layer relu56
I1220 14:08:00.221621 17575 net.cpp:477] relu56 <- bn56
I1220 14:08:00.221633 17575 net.cpp:419] relu56 -> bn56 (in-place)
I1220 14:08:00.221832 17575 net.cpp:155] Setting up relu56
I1220 14:08:00.221853 17575 net.cpp:163] Top shape: 36 512 7 7 (903168)
I1220 14:08:00.221863 17575 layer_factory.hpp:76] Creating layer eltwise16
I1220 14:08:00.221879 17575 net.cpp:110] Creating Layer eltwise16
I1220 14:08:00.221891 17575 net.cpp:477] eltwise16 <- eltwise15_relu15_0_split_1
I1220 14:08:00.221904 17575 net.cpp:477] eltwise16 <- bn56
I1220 14:08:00.221915 17575 net.cpp:433] eltwise16 -> eltwise16
I1220 14:08:00.221932 17575 net.cpp:155] Setting up eltwise16
I1220 14:08:00.221946 17575 net.cpp:163] Top shape: 36 512 7 7 (903168)
I1220 14:08:00.221956 17575 layer_factory.hpp:76] Creating layer relu16
I1220 14:08:00.221971 17575 net.cpp:110] Creating Layer relu16
I1220 14:08:00.221982 17575 net.cpp:477] relu16 <- eltwise16
I1220 14:08:00.221993 17575 net.cpp:419] relu16 -> eltwise16 (in-place)
I1220 14:08:00.222067 17575 net.cpp:155] Setting up relu16
I1220 14:08:00.222084 17575 net.cpp:163] Top shape: 36 512 7 7 (903168)
I1220 14:08:00.222095 17575 layer_factory.hpp:76] Creating layer pool5
I1220 14:08:00.222111 17575 net.cpp:110] Creating Layer pool5
I1220 14:08:00.222123 17575 net.cpp:477] pool5 <- eltwise16
I1220 14:08:00.222139 17575 net.cpp:433] pool5 -> pool5
I1220 14:08:00.222219 17575 net.cpp:155] Setting up pool5
I1220 14:08:00.222235 17575 net.cpp:163] Top shape: 36 512 1 1 (18432)
I1220 14:08:00.222246 17575 layer_factory.hpp:76] Creating layer ip1
I1220 14:08:00.222265 17575 net.cpp:110] Creating Layer ip1
I1220 14:08:00.222275 17575 net.cpp:477] ip1 <- pool5
I1220 14:08:00.222290 17575 net.cpp:433] ip1 -> ip1
I1220 14:08:00.271030 17575 net.cpp:155] Setting up ip1
I1220 14:08:00.271095 17575 net.cpp:163] Top shape: 36 10575 (380700)
I1220 14:08:00.271114 17575 layer_factory.hpp:76] Creating layer accuracy
I1220 14:08:00.271170 17575 net.cpp:110] Creating Layer accuracy
I1220 14:08:00.271186 17575 net.cpp:477] accuracy <- ip1
I1220 14:08:00.271211 17575 net.cpp:477] accuracy <- label
I1220 14:08:00.271235 17575 net.cpp:433] accuracy -> accuracy
I1220 14:08:00.271270 17575 net.cpp:155] Setting up accuracy
I1220 14:08:00.271284 17575 net.cpp:163] Top shape: (1)
…
