…
I1217 22:25:16.347915 47671 solver.cpp:97] Creating training net from net file: ./rsdnet34.prototxt
I1217 22:25:16.350792 47671 net.cpp:339] The NetState phase (0) differed from the phase (1) specified by a rule in layer data
I1217 22:25:16.351497 47671 net.cpp:50] Initializing net from parameters: 
name: "RsdNet34"
state {
  phase: TRAIN
}
layer {
  name: "data"
  type: "Data"
  top: "data"
  top: "label"
  include {
    phase: TRAIN
  }
  transform_param {
    scale: 0.0039215689
    mirror: true
    mean_file: "./mean_224gray.binaryproto"
  }
  data_param {
    source: "./train_224gray_lmdb"
    batch_size: 48
    backend: LMDB
  }
}
layer {
  name: "conv01"
  type: "Convolution"
  bottom: "data"
  top: "conv01"
  param {
    lr_mult: 1
    decay_mult: 1
  }
  param {
    lr_mult: 2
    decay_mult: 0
  }
  convolution_param {
    num_output: 64
    pad: 3
    kernel_size: 7
    stride: 2
    weight_filler {
      type: "xavier"
    }
    bias_filler {
      type: "constant"
    }
  }
}
layer {
  name: "bn01"
  type: "BatchNorm"
  bottom: "conv01"
  top: "bn01"
  batch_norm_param {
    use_global_stats: false
  }
}
layer {
  name: "relu01"
  type: "ReLU"
  bottom: "bn01"
  top: "bn01"
}
layer {
  name: "pool1"
  type: "Pooling"
  bottom: "bn01"
  top: "pool1"
  pooling_param {
    pool: MAX
    kernel_size: 3
    stride: 2
  }
}
layer {
  name: "conv21"
  type: "Convolution"
  bottom: "pool1"
  top: "conv21"
  param {
    lr_mult: 1
    decay_mult: 1
  }
  param {
    lr_mult: 2
    decay_mult: 0
  }
  convolution_param {
    num_output: 64
    pad: 1
    kernel_size: 3
    stride: 1
    weight_filler {
      type: "xavier"
    }
    bias_filler {
      type: "constant"
    }
  }
}
layer {
  name: "bn21"
  type: "BatchNorm"
  bottom: "conv21"
  top: "bn21"
  batch_norm_param {
    use_global_stats: false
  }
}
layer {
  name: "relu21"
  type: "ReLU"
  bottom: "bn21"
  top: "bn21"
}
layer {
  name: "conv22"
  type: "Convolution"
  bottom: "bn21"
  top: "conv22"
  param {
    lr_mult: 1
    decay_mult: 1
  }
  param {
    lr_mult: 2
    decay_mult: 0
  }
  convolution_param {
    num_output: 64
    pad: 1
    kernel_size: 3
    stride: 1
    weight_filler {
      type: "xavier"
    }
    bias_filler {
      type: "constant"
    }
  }
}
layer {
  name: "bn22"
  type: "BatchNorm"
  bottom: "conv22"
  top: "bn22"
  batch_norm_param {
    use_global_stats: false
  }
}
layer {
  name: "relu22"
  type: "ReLU"
  bottom: "bn22"
  top: "bn22"
}
layer {
  name: "eltwise1"
  type: "Eltwise"
  bottom: "pool1"
  bottom: "bn22"
  top: "eltwise1"
  eltwise_param {
    operation: SUM
  }
}
layer {
  name: "relu1"
  type: "ReLU"
  bottom: "eltwise1"
  top: "eltwise1"
}
layer {
  name: "conv23"
  type: "Convolution"
  bottom: "eltwise1"
  top: "conv23"
  param {
    lr_mult: 1
    decay_mult: 1
  }
  param {
    lr_mult: 2
    decay_mult: 0
  }
  convolution_param {
    num_output: 64
    pad: 1
    kernel_size: 3
    stride: 1
    weight_filler {
      type: "xavier"
    }
    bias_filler {
      type: "constant"
    }
  }
}
layer {
  name: "bn23"
  type: "BatchNorm"
  bottom: "conv23"
  top: "bn23"
  batch_norm_param {
    use_global_stats: false
  }
}
layer {
  name: "relu23"
  type: "ReLU"
  bottom: "bn23"
  top: "bn23"
}
layer {
  name: "conv24"
  type: "Convolution"
  bottom: "bn23"
  top: "conv24"
  param {
    lr_mult: 1
    decay_mult: 1
  }
  param {
    lr_mult: 2
    decay_mult: 0
  }
  convolution_param {
    num_output: 64
    pad: 1
    kernel_size: 3
    stride: 1
    weight_filler {
      type: "xavier"
    }
    bias_filler {
      type: "constant"
    }
  }
}
layer {
  name: "bn24"
  type: "BatchNorm"
  bottom: "conv24"
  top: "bn24"
  batch_norm_param {
    use_global_stats: false
  }
}
layer {
  name: "relu24"
  type: "ReLU"
  bottom: "bn24"
  top: "bn24"
}
layer {
  name: "eltwise2"
  type: "Eltwise"
  bottom: "eltwise1"
  bottom: "bn24"
  top: "eltwise2"
  eltwise_param {
    operation: SUM
  }
}
layer {
  name: "relu2"
  type: "ReLU"
  bottom: "eltwise2"
  top: "eltwise2"
}
layer {
  name: "conv25"
  type: "Convolution"
  bottom: "bn24"
  top: "conv25"
  param {
    lr_mult: 1
    decay_mult: 1
  }
  param {
    lr_mult: 2
    decay_mult: 0
  }
  convolution_param {
    num_output: 64
    pad: 1
    kernel_size: 3
    stride: 1
    weight_filler {
      type: "xavier"
    }
    bias_filler {
      type: "constant"
    }
  }
}
layer {
  name: "bn25"
  type: "BatchNorm"
  bottom: "conv25"
  top: "bn25"
  batch_norm_param {
    use_global_stats: false
  }
}
layer {
  name: "relu25"
  type: "ReLU"
  bottom: "bn25"
  top: "bn25"
}
layer {
  name: "conv26"
  type: "Convolution"
  bottom: "bn25"
  top: "conv26"
  param {
    lr_mult: 1
    decay_mult: 1
  }
  param {
    lr_mult: 2
    decay_mult: 0
  }
  convolution_param {
    num_output: 64
    pad: 1
    kernel_size: 3
    stride: 1
    weight_filler {
      type: "xavier"
    }
    bias_filler {
      type: "constant"
    }
  }
}
layer {
  name: "bn26"
  type: "BatchNorm"
  bottom: "conv26"
  top: "bn26"
  batch_norm_param {
    use_global_stats: false
  }
}
layer {
  name: "relu26"
  type: "ReLU"
  bottom: "bn26"
  top: "bn26"
}
layer {
  name: "eltwise3"
  type: "Eltwise"
  bottom: "eltwise2"
  bottom: "bn26"
  top: "eltwise3"
  eltwise_param {
    operation: SUM
  }
}
layer {
  name: "relu3"
  type: "ReLU"
  bottom: "eltwise3"
  top: "eltwise3"
}
layer {
  name: "relu3_p"
  type: "Convolution"
  bottom: "eltwise3"
  top: "relu3_p"
  param {
    lr_mult: 1
    decay_mult: 1
  }
  param {
    lr_mult: 2
    decay_mult: 0
  }
  convolution_param {
    num_output: 128
    pad: 0
    kernel_size: 1
    stride: 2
    weight_filler {
      type: "xavier"
    }
    bias_filler {
      type: "constant"
    }
  }
}
layer {
  name: "relu3_bn"
  type: "BatchNorm"
  bottom: "relu3_p"
  top: "relu3_bn"
  batch_norm_param {
    use_global_stats: false
  }
}
layer {
  name: "conv31"
  type: "Convolution"
  bottom: "eltwise3"
  top: "conv31"
  param {
    lr_mult: 1
    decay_mult: 1
  }
  param {
    lr_mult: 2
    decay_mult: 0
  }
  convolution_param {
    num_output: 128
    pad: 1
    kernel_size: 3
    stride: 2
    weight_filler {
      type: "xavier"
    }
    bias_filler {
      type: "constant"
    }
  }
}
layer {
  name: "bn31"
  type: "BatchNorm"
  bottom: "conv31"
  top: "bn31"
  batch_norm_param {
    use_global_stats: false
  }
}
layer {
  name: "relu31"
  type: "ReLU"
  bottom: "bn31"
  top: "bn31"
}
layer {
  name: "conv32"
  type: "Convolution"
  bottom: "bn31"
  top: "conv32"
  param {
    lr_mult: 1
    decay_mult: 1
  }
  param {
    lr_mult: 2
    decay_mult: 0
  }
  convolution_param {
    num_output: 128
    pad: 1
    kernel_size: 3
    stride: 1
    weight_filler {
      type: "xavier"
    }
    bias_filler {
      type: "constant"
    }
  }
}
layer {
  name: "bn32"
  type: "BatchNorm"
  bottom: "conv32"
  top: "bn32"
  batch_norm_param {
    use_global_stats: false
  }
}
layer {
  name: "relu32"
  type: "ReLU"
  bottom: "bn32"
  top: "bn32"
}
layer {
  name: "eltwise4"
  type: "Eltwise"
  bottom: "relu3_bn"
  bottom: "bn32"
  top: "eltwise4"
  eltwise_param {
    operation: SUM
  }
}
layer {
  name: "relu4"
  type: "ReLU"
  bottom: "eltwise4"
  top: "eltwise4"
}
layer {
  name: "conv33"
  type: "Convolution"
  bottom: "eltwise4"
  top: "conv33"
  param {
    lr_mult: 1
    decay_mult: 1
  }
  param {
    lr_mult: 2
    decay_mult: 0
  }
  convolution_param {
    num_output: 128
    pad: 1
    kernel_size: 3
    stride: 1
    weight_filler {
      type: "xavier"
    }
    bias_filler {
      type: "constant"
    }
  }
}
layer {
  name: "bn33"
  type: "BatchNorm"
  bottom: "conv33"
  top: "bn33"
  batch_norm_param {
    use_global_stats: false
  }
}
layer {
  name: "relu33"
  type: "ReLU"
  bottom: "bn33"
  top: "bn33"
}
layer {
  name: "conv34"
  type: "Convolution"
  bottom: "bn33"
  top: "conv34"
  param {
    lr_mult: 1
    decay_mult: 1
  }
  param {
    lr_mult: 2
    decay_mult: 0
  }
  convolution_param {
    num_output: 128
    pad: 1
    kernel_size: 3
    stride: 1
    weight_filler {
      type: "xavier"
    }
    bias_filler {
      type: "constant"
    }
  }
}
layer {
  name: "bn34"
  type: "BatchNorm"
  bottom: "conv34"
  top: "bn34"
  batch_norm_param {
    use_global_stats: false
  }
}
layer {
  name: "relu34"
  type: "ReLU"
  bottom: "bn34"
  top: "bn34"
}
layer {
  name: "eltwise5"
  type: "Eltwise"
  bottom: "eltwise4"
  bottom: "bn34"
  top: "eltwise5"
  eltwise_param {
    operation: SUM
  }
}
layer {
  name: "relu5"
  type: "ReLU"
  bottom: "eltwise5"
  top: "eltwise5"
}
layer {
  name: "conv35"
  type: "Convolution"
  bottom: "eltwise5"
  top: "conv35"
  param {
    lr_mult: 1
    decay_mult: 1
  }
  param {
    lr_mult: 2
    decay_mult: 0
  }
  convolution_param {
    num_output: 128
    pad: 1
    kernel_size: 3
    stride: 1
    weight_filler {
      type: "xavier"
    }
    bias_filler {
      type: "constant"
    }
  }
}
layer {
  name: "bn35"
  type: "BatchNorm"
  bottom: "conv35"
  top: "bn35"
  batch_norm_param {
    use_global_stats: false
  }
}
layer {
  name: "relu35"
  type: "ReLU"
  bottom: "bn35"
  top: "bn35"
}
layer {
  name: "conv36"
  type: "Convolution"
  bottom: "bn35"
  top: "conv36"
  param {
    lr_mult: 1
    decay_mult: 1
  }
  param {
    lr_mult: 2
    decay_mult: 0
  }
  convolution_param {
    num_output: 128
    pad: 1
    kernel_size: 3
    stride: 1
    weight_filler {
      type: "xavier"
    }
    bias_filler {
      type: "constant"
    }
  }
}
layer {
  name: "bn36"
  type: "BatchNorm"
  bottom: "conv36"
  top: "bn36"
  batch_norm_param {
    use_global_stats: false
  }
}
layer {
  name: "relu36"
  type: "ReLU"
  bottom: "bn36"
  top: "bn36"
}
layer {
  name: "eltwise6"
  type: "Eltwise"
  bottom: "eltwise5"
  bottom: "bn36"
  top: "eltwise6"
  eltwise_param {
    operation: SUM
  }
}
layer {
  name: "relu6"
  type: "ReLU"
  bottom: "eltwise6"
  top: "eltwise6"
}
layer {
  name: "conv37"
  type: "Convolution"
  bottom: "eltwise6"
  top: "conv37"
  param {
    lr_mult: 1
    decay_mult: 1
  }
  param {
    lr_mult: 2
    decay_mult: 0
  }
  convolution_param {
    num_output: 128
    pad: 1
    kernel_size: 3
    stride: 1
    weight_filler {
      type: "xavier"
    }
    bias_filler {
      type: "constant"
    }
  }
}
layer {
  name: "bn37"
  type: "BatchNorm"
  bottom: "conv37"
  top: "bn37"
  batch_norm_param {
    use_global_stats: false
  }
}
layer {
  name: "relu37"
  type: "ReLU"
  bottom: "bn37"
  top: "bn37"
}
layer {
  name: "conv38"
  type: "Convolution"
  bottom: "bn37"
  top: "conv38"
  param {
    lr_mult: 1
    decay_mult: 1
  }
  param {
    lr_mult: 2
    decay_mult: 0
  }
  convolution_param {
    num_output: 128
    pad: 1
    kernel_size: 3
    stride: 1
    weight_filler {
      type: "xavier"
    }
    bias_filler {
      type: "constant"
    }
  }
}
layer {
  name: "bn38"
  type: "BatchNorm"
  bottom: "conv38"
  top: "bn38"
  batch_norm_param {
    use_global_stats: false
  }
}
layer {
  name: "relu38"
  type: "ReLU"
  bottom: "bn38"
  top: "bn38"
}
layer {
  name: "eltwise7"
  type: "Eltwise"
  bottom: "eltwise6"
  bottom: "bn38"
  top: "eltwise7"
  eltwise_param {
    operation: SUM
  }
}
layer {
  name: "relu7"
  type: "ReLU"
  bottom: "eltwise7"
  top: "eltwise7"
}
layer {
  name: "relu7_p"
  type: "Convolution"
  bottom: "eltwise7"
  top: "relu7_p"
  param {
    lr_mult: 1
    decay_mult: 1
  }
  param {
    lr_mult: 2
    decay_mult: 0
  }
  convolution_param {
    num_output: 256
    pad: 0
    kernel_size: 1
    stride: 2
    weight_filler {
      type: "xavier"
    }
    bias_filler {
      type: "constant"
    }
  }
}
layer {
  name: "relu7_bn"
  type: "BatchNorm"
  bottom: "relu7_p"
  top: "relu7_bn"
  batch_norm_param {
    use_global_stats: false
  }
}
layer {
  name: "conv41"
  type: "Convolution"
  bottom: "eltwise7"
  top: "conv41"
  param {
    lr_mult: 1
    decay_mult: 1
  }
  param {
    lr_mult: 2
    decay_mult: 0
  }
  convolution_param {
    num_output: 256
    pad: 1
    kernel_size: 3
    stride: 2
    weight_filler {
      type: "xavier"
    }
    bias_filler {
      type: "constant"
    }
  }
}
layer {
  name: "bn41"
  type: "BatchNorm"
  bottom: "conv41"
  top: "bn41"
  batch_norm_param {
    use_global_stats: false
  }
}
layer {
  name: "relu41"
  type: "ReLU"
  bottom: "bn41"
  top: "bn41"
}
layer {
  name: "conv42"
  type: "Convolution"
  bottom: "bn41"
  top: "conv42"
  param {
    lr_mult: 1
    decay_mult: 1
  }
  param {
    lr_mult: 2
    decay_mult: 0
  }
  convolution_param {
    num_output: 256
    pad: 1
    kernel_size: 3
    stride: 1
    weight_filler {
      type: "xavier"
    }
    bias_filler {
      type: "constant"
    }
  }
}
layer {
  name: "bn42"
  type: "BatchNorm"
  bottom: "conv42"
  top: "bn42"
  batch_norm_param {
    use_global_stats: false
  }
}
layer {
  name: "relu42"
  type: "ReLU"
  bottom: "bn42"
  top: "bn42"
}
layer {
  name: "eltwise8"
  type: "Eltwise"
  bottom: "relu7_bn"
  bottom: "bn42"
  top: "eltwise8"
  eltwise_param {
    operation: SUM
  }
}
layer {
  name: "relu8"
  type: "ReLU"
  bottom: "eltwise8"
  top: "eltwise8"
}
layer {
  name: "conv43"
  type: "Convolution"
  bottom: "eltwise8"
  top: "conv43"
  param {
    lr_mult: 1
    decay_mult: 1
  }
  param {
    lr_mult: 2
    decay_mult: 0
  }
  convolution_param {
    num_output: 256
    pad: 1
    kernel_size: 3
    stride: 1
    weight_filler {
      type: "xavier"
    }
    bias_filler {
      type: "constant"
    }
  }
}
layer {
  name: "bn43"
  type: "BatchNorm"
  bottom: "conv43"
  top: "bn43"
  batch_norm_param {
    use_global_stats: false
  }
}
layer {
  name: "relu43"
  type: "ReLU"
  bottom: "bn43"
  top: "bn43"
}
layer {
  name: "conv44"
  type: "Convolution"
  bottom: "bn43"
  top: "conv44"
  param {
    lr_mult: 1
    decay_mult: 1
  }
  param {
    lr_mult: 2
    decay_mult: 0
  }
  convolution_param {
    num_output: 256
    pad: 1
    kernel_size: 3
    stride: 1
    weight_filler {
      type: "xavier"
    }
    bias_filler {
      type: "constant"
    }
  }
}
layer {
  name: "bn44"
  type: "BatchNorm"
  bottom: "conv44"
  top: "bn44"
  batch_norm_param {
    use_global_stats: false
  }
}
layer {
  name: "relu44"
  type: "ReLU"
  bottom: "bn44"
  top: "bn44"
}
layer {
  name: "eltwise9"
  type: "Eltwise"
  bottom: "eltwise8"
  bottom: "bn44"
  top: "eltwise9"
  eltwise_param {
    operation: SUM
  }
}
layer {
  name: "relu9"
  type: "ReLU"
  bottom: "eltwise9"
  top: "eltwise9"
}
layer {
  name: "conv45"
  type: "Convolution"
  bottom: "eltwise9"
  top: "conv45"
  param {
    lr_mult: 1
    decay_mult: 1
  }
  param {
    lr_mult: 2
    decay_mult: 0
  }
  convolution_param {
    num_output: 256
    pad: 1
    kernel_size: 3
    stride: 1
    weight_filler {
      type: "xavier"
    }
    bias_filler {
      type: "constant"
    }
  }
}
layer {
  name: "bn45"
  type: "BatchNorm"
  bottom: "conv45"
  top: "bn45"
  batch_norm_param {
    use_global_stats: false
  }
}
layer {
  name: "relu45"
  type: "ReLU"
  bottom: "bn45"
  top: "bn45"
}
layer {
  name: "conv46"
  type: "Convolution"
  bottom: "bn45"
  top: "conv46"
  param {
    lr_mult: 1
    decay_mult: 1
  }
  param {
    lr_mult: 2
    decay_mult: 0
  }
  convolution_param {
    num_output: 256
    pad: 1
    kernel_size: 3
    stride: 1
    weight_filler {
      type: "xavier"
    }
    bias_filler {
      type: "constant"
    }
  }
}
layer {
  name: "bn46"
  type: "BatchNorm"
  bottom: "conv46"
  top: "bn46"
  batch_norm_param {
    use_global_stats: false
  }
}
layer {
  name: "relu46"
  type: "ReLU"
  bottom: "bn46"
  top: "bn46"
}
layer {
  name: "eltwise10"
  type: "Eltwise"
  bottom: "eltwise9"
  bottom: "bn46"
  top: "eltwise10"
  eltwise_param {
    operation: SUM
  }
}
layer {
  name: "relu10"
  type: "ReLU"
  bottom: "eltwise10"
  top: "eltwise10"
}
layer {
  name: "conv47"
  type: "Convolution"
  bottom: "eltwise10"
  top: "conv47"
  param {
    lr_mult: 1
    decay_mult: 1
  }
  param {
    lr_mult: 2
    decay_mult: 0
  }
  convolution_param {
    num_output: 256
    pad: 1
    kernel_size: 3
    stride: 1
    weight_filler {
      type: "xavier"
    }
    bias_filler {
      type: "constant"
    }
  }
}
layer {
  name: "bn47"
  type: "BatchNorm"
  bottom: "conv47"
  top: "bn47"
  batch_norm_param {
    use_global_stats: false
  }
}
layer {
  name: "relu47"
  type: "ReLU"
  bottom: "bn47"
  top: "bn47"
}
layer {
  name: "conv48"
  type: "Convolution"
  bottom: "bn47"
  top: "conv48"
  param {
    lr_mult: 1
    decay_mult: 1
  }
  param {
    lr_mult: 2
    decay_mult: 0
  }
  convolution_param {
    num_output: 256
    pad: 1
    kernel_size: 3
    stride: 1
    weight_filler {
      type: "xavier"
    }
    bias_filler {
      type: "constant"
    }
  }
}
layer {
  name: "bn48"
  type: "BatchNorm"
  bottom: "conv48"
  top: "bn48"
  batch_norm_param {
    use_global_stats: false
  }
}
layer {
  name: "relu48"
  type: "ReLU"
  bottom: "bn48"
  top: "bn48"
}
layer {
  name: "eltwise11"
  type: "Eltwise"
  bottom: "eltwise10"
  bottom: "bn48"
  top: "eltwise11"
  eltwise_param {
    operation: SUM
  }
}
layer {
  name: "relu11"
  type: "ReLU"
  bottom: "eltwise11"
  top: "eltwise11"
}
layer {
  name: "conv49"
  type: "Convolution"
  bottom: "eltwise11"
  top: "conv49"
  param {
    lr_mult: 1
    decay_mult: 1
  }
  param {
    lr_mult: 2
    decay_mult: 0
  }
  convolution_param {
    num_output: 256
    pad: 1
    kernel_size: 3
    stride: 1
    weight_filler {
      type: "xavier"
    }
    bias_filler {
      type: "constant"
    }
  }
}
layer {
  name: "bn49"
  type: "BatchNorm"
  bottom: "conv49"
  top: "bn49"
  batch_norm_param {
    use_global_stats: false
  }
}
layer {
  name: "relu49"
  type: "ReLU"
  bottom: "bn49"
  top: "bn49"
}
layer {
  name: "conv410"
  type: "Convolution"
  bottom: "bn49"
  top: "conv410"
  param {
    lr_mult: 1
    decay_mult: 1
  }
  param {
    lr_mult: 2
    decay_mult: 0
  }
  convolution_param {
    num_output: 256
    pad: 1
    kernel_size: 3
    stride: 1
    weight_filler {
      type: "xavier"
    }
    bias_filler {
      type: "constant"
    }
  }
}
layer {
  name: "bn410"
  type: "BatchNorm"
  bottom: "conv410"
  top: "bn410"
  batch_norm_param {
    use_global_stats: false
  }
}
layer {
  name: "relu410"
  type: "ReLU"
  bottom: "bn410"
  top: "bn410"
}
layer {
  name: "eltwise12"
  type: "Eltwise"
  bottom: "eltwise11"
  bottom: "bn410"
  top: "eltwise12"
  eltwise_param {
    operation: SUM
  }
}
layer {
  name: "relu12"
  type: "ReLU"
  bottom: "eltwise12"
  top: "eltwise12"
}
layer {
  name: "conv411"
  type: "Convolution"
  bottom: "eltwise12"
  top: "conv411"
  param {
    lr_mult: 1
    decay_mult: 1
  }
  param {
    lr_mult: 2
    decay_mult: 0
  }
  convolution_param {
    num_output: 256
    pad: 1
    kernel_size: 3
    stride: 1
    weight_filler {
      type: "xavier"
    }
    bias_filler {
      type: "constant"
    }
  }
}
layer {
  name: "bn411"
  type: "BatchNorm"
  bottom: "conv411"
  top: "bn411"
  batch_norm_param {
    use_global_stats: false
  }
}
layer {
  name: "relu411"
  type: "ReLU"
  bottom: "bn411"
  top: "bn411"
}
layer {
  name: "conv412"
  type: "Convolution"
  bottom: "bn411"
  top: "conv412"
  param {
    lr_mult: 1
    decay_mult: 1
  }
  param {
    lr_mult: 2
    decay_mult: 0
  }
  convolution_param {
    num_output: 256
    pad: 1
    kernel_size: 3
    stride: 1
    weight_filler {
      type: "xavier"
    }
    bias_filler {
      type: "constant"
    }
  }
}
layer {
  name: "bn412"
  type: "BatchNorm"
  bottom: "conv412"
  top: "bn412"
  batch_norm_param {
    use_global_stats: false
  }
}
layer {
  name: "relu412"
  type: "ReLU"
  bottom: "bn412"
  top: "bn412"
}
layer {
  name: "eltwise13"
  type: "Eltwise"
  bottom: "eltwise12"
  bottom: "bn412"
  top: "eltwise13"
  eltwise_param {
    operation: SUM
  }
}
layer {
  name: "relu13"
  type: "ReLU"
  bottom: "eltwise13"
  top: "eltwise13"
}
layer {
  name: "relu13_p"
  type: "Convolution"
  bottom: "eltwise12"
  top: "relu13_p"
  param {
    lr_mult: 1
    decay_mult: 1
  }
  param {
    lr_mult: 2
    decay_mult: 0
  }
  convolution_param {
    num_output: 512
    pad: 0
    kernel_size: 1
    stride: 2
    weight_filler {
      type: "xavier"
    }
    bias_filler {
      type: "constant"
    }
  }
}
layer {
  name: "relu13_bn"
  type: "BatchNorm"
  bottom: "relu13_p"
  top: "relu13_bn"
  batch_norm_param {
    use_global_stats: false
  }
}
layer {
  name: "conv51"
  type: "Convolution"
  bottom: "eltwise13"
  top: "conv51"
  param {
    lr_mult: 1
    decay_mult: 1
  }
  param {
    lr_mult: 2
    decay_mult: 0
  }
  convolution_param {
    num_output: 512
    pad: 1
    kernel_size: 3
    stride: 2
    weight_filler {
      type: "xavier"
    }
    bias_filler {
      type: "constant"
    }
  }
}
layer {
  name: "bn51"
  type: "BatchNorm"
  bottom: "conv51"
  top: "bn51"
  batch_norm_param {
    use_global_stats: false
  }
}
layer {
  name: "relu51"
  type: "ReLU"
  bottom: "bn51"
  top: "bn51"
}
layer {
  name: "conv52"
  type: "Convolution"
  bottom: "bn51"
  top: "conv52"
  param {
    lr_mult: 1
    decay_mult: 1
  }
  param {
    lr_mult: 2
    decay_mult: 0
  }
  convolution_param {
    num_output: 512
    pad: 1
    kernel_size: 3
    stride: 1
    weight_filler {
      type: "xavier"
    }
    bias_filler {
      type: "constant"
    }
  }
}
layer {
  name: "bn52"
  type: "BatchNorm"
  bottom: "conv52"
  top: "bn52"
  batch_norm_param {
    use_global_stats: false
  }
}
layer {
  name: "relu52"
  type: "ReLU"
  bottom: "bn52"
  top: "bn52"
}
layer {
  name: "eltwise14"
  type: "Eltwise"
  bottom: "relu13_bn"
  bottom: "bn52"
  top: "eltwise14"
  eltwise_param {
    operation: SUM
  }
}
layer {
  name: "relu14"
  type: "ReLU"
  bottom: "eltwise14"
  top: "eltwise14"
}
layer {
  name: "conv53"
  type: "Convolution"
  bottom: "eltwise14"
  top: "conv53"
  param {
    lr_mult: 1
    decay_mult: 1
  }
  param {
    lr_mult: 2
    decay_mult: 0
  }
  convolution_param {
    num_output: 512
    pad: 1
    kernel_size: 3
    stride: 1
    weight_filler {
      type: "xavier"
    }
    bias_filler {
      type: "constant"
    }
  }
}
layer {
  name: "bn53"
  type: "BatchNorm"
  bottom: "conv53"
  top: "bn53"
  batch_norm_param {
    use_global_stats: false
  }
}
layer {
  name: "relu53"
  type: "ReLU"
  bottom: "bn53"
  top: "bn53"
}
layer {
  name: "conv54"
  type: "Convolution"
  bottom: "bn53"
  top: "conv54"
  param {
    lr_mult: 1
    decay_mult: 1
  }
  param {
    lr_mult: 2
    decay_mult: 0
  }
  convolution_param {
    num_output: 512
    pad: 1
    kernel_size: 3
    stride: 1
    weight_filler {
      type: "xavier"
    }
    bias_filler {
      type: "constant"
    }
  }
}
layer {
  name: "bn54"
  type: "BatchNorm"
  bottom: "conv54"
  top: "bn54"
  batch_norm_param {
    use_global_stats: false
  }
}
layer {
  name: "relu54"
  type: "ReLU"
  bottom: "bn54"
  top: "bn54"
}
layer {
  name: "eltwise15"
  type: "Eltwise"
  bottom: "eltwise14"
  bottom: "bn54"
  top: "eltwise15"
  eltwise_param {
    operation: SUM
  }
}
layer {
  name: "relu15"
  type: "ReLU"
  bottom: "eltwise15"
  top: "eltwise15"
}
layer {
  name: "conv55"
  type: "Convolution"
  bottom: "eltwise15"
  top: "conv55"
  param {
    lr_mult: 1
    decay_mult: 1
  }
  param {
    lr_mult: 2
    decay_mult: 0
  }
  convolution_param {
    num_output: 512
    pad: 1
    kernel_size: 3
    stride: 1
    weight_filler {
      type: "xavier"
    }
    bias_filler {
      type: "constant"
    }
  }
}
layer {
  name: "bn55"
  type: "BatchNorm"
  bottom: "conv55"
  top: "bn55"
  batch_norm_param {
    use_global_stats: false
  }
}
layer {
  name: "relu55"
  type: "ReLU"
  bottom: "bn55"
  top: "bn55"
}
layer {
  name: "conv56"
  type: "Convolution"
  bottom: "bn55"
  top: "conv56"
  param {
    lr_mult: 1
    decay_mult: 1
  }
  param {
    lr_mult: 2
    decay_mult: 0
  }
  convolution_param {
    num_output: 512
    pad: 1
    kernel_size: 3
    stride: 1
    weight_filler {
      type: "xavier"
    }
    bias_filler {
      type: "constant"
    }
  }
}
layer {
  name: "bn56"
  type: "BatchNorm"
  bottom: "conv56"
  top: "bn56"
  batch_norm_param {
    use_global_stats: false
  }
}
layer {
  name: "relu56"
  type: "ReLU"
  bottom: "bn56"
  top: "bn56"
}
layer {
  name: "eltwise16"
  type: "Eltwise"
  bottom: "eltwise15"
  bottom: "bn56"
  top: "eltwise16"
  eltwise_param {
    operation: SUM
  }
}
layer {
  name: "relu16"
  type: "ReLU"
  bottom: "eltwise16"
  top: "eltwise16"
}
layer {
  name: "pool5"
  type: "Pooling"
  bottom: "eltwise16"
  top: "pool5"
  pooling_param {
    pool: AVE
    kernel_size: 7
    stride: 1
  }
}
layer {
  name: "ip1"
  type: "InnerProduct"
  bottom: "pool5"
  top: "ip1"
  param {
    lr_mult: 1
    decay_mult: 1
  }
  param {
    lr_mult: 2
    decay_mult: 0
  }
  inner_product_param {
    num_output: 10575
    weight_filler {
      type: "xavier"
    }
    bias_filler {
      type: "constant"
    }
  }
}
layer {
  name: "loss"
  type: "SoftmaxWithLoss"
  bottom: "ip1"
  bottom: "label"
  top: "loss"
  include {
    phase: TRAIN
  }
}
layer {
  name: "accuracy"
  type: "Accuracy"
  bottom: "ip1"
  bottom: "label"
  top: "accuracy"
}
I1217 22:25:16.371641 47671 layer_factory.hpp:76] Creating layer data
I1217 22:25:16.372184 47671 net.cpp:110] Creating Layer data
I1217 22:25:16.372231 47671 net.cpp:433] data -> data
I1217 22:25:16.372282 47671 net.cpp:433] data -> label
I1217 22:25:16.372313 47671 data_transformer.cpp:23] Loading mean file from: ./mean_224gray.binaryproto
I1217 22:25:16.375651 47674 db_lmdb.cpp:22] Opened lmdb ./train_224gray_lmdb
I1217 22:25:16.438966 47671 data_layer.cpp:44] output data size: 48,1,224,224
I1217 22:25:16.462349 47671 net.cpp:155] Setting up data
I1217 22:25:16.462404 47671 net.cpp:163] Top shape: 48 1 224 224 (2408448)
I1217 22:25:16.462419 47671 net.cpp:163] Top shape: 48 (48)
I1217 22:25:16.462436 47671 layer_factory.hpp:76] Creating layer label_data_1_split
I1217 22:25:16.462462 47671 net.cpp:110] Creating Layer label_data_1_split
I1217 22:25:16.462477 47671 net.cpp:477] label_data_1_split <- label
I1217 22:25:16.462497 47671 net.cpp:433] label_data_1_split -> label_data_1_split_0
I1217 22:25:16.462517 47671 net.cpp:433] label_data_1_split -> label_data_1_split_1
I1217 22:25:16.462538 47671 net.cpp:155] Setting up label_data_1_split
I1217 22:25:16.462553 47671 net.cpp:163] Top shape: 48 (48)
I1217 22:25:16.462563 47671 net.cpp:163] Top shape: 48 (48)
I1217 22:25:16.462574 47671 layer_factory.hpp:76] Creating layer conv01
I1217 22:25:16.462596 47671 net.cpp:110] Creating Layer conv01
I1217 22:25:16.462609 47671 net.cpp:477] conv01 <- data
I1217 22:25:16.462622 47671 net.cpp:433] conv01 -> conv01
I1217 22:25:16.708626 47671 net.cpp:155] Setting up conv01
I1217 22:25:16.708680 47671 net.cpp:163] Top shape: 48 64 112 112 (38535168)
I1217 22:25:16.708719 47671 layer_factory.hpp:76] Creating layer bn01
I1217 22:25:16.708745 47671 net.cpp:110] Creating Layer bn01
I1217 22:25:16.708814 47671 net.cpp:477] bn01 <- conv01
I1217 22:25:16.708842 47671 net.cpp:433] bn01 -> bn01
I1217 22:25:16.708951 47671 net.cpp:155] Setting up bn01
I1217 22:25:16.708971 47671 net.cpp:163] Top shape: 48 64 112 112 (38535168)
I1217 22:25:16.709007 47671 layer_factory.hpp:76] Creating layer relu01
I1217 22:25:16.709027 47671 net.cpp:110] Creating Layer relu01
I1217 22:25:16.709041 47671 net.cpp:477] relu01 <- bn01
I1217 22:25:16.709059 47671 net.cpp:419] relu01 -> bn01 (in-place)
I1217 22:25:16.709139 47671 net.cpp:155] Setting up relu01
I1217 22:25:16.709158 47671 net.cpp:163] Top shape: 48 64 112 112 (38535168)
I1217 22:25:16.709172 47671 layer_factory.hpp:76] Creating layer pool1
I1217 22:25:16.709195 47671 net.cpp:110] Creating Layer pool1
I1217 22:25:16.709210 47671 net.cpp:477] pool1 <- bn01
I1217 22:25:16.709228 47671 net.cpp:433] pool1 -> pool1
I1217 22:25:16.709324 47671 net.cpp:155] Setting up pool1
I1217 22:25:16.709381 47671 net.cpp:163] Top shape: 48 64 56 56 (9633792)
I1217 22:25:16.709398 47671 layer_factory.hpp:76] Creating layer pool1_pool1_0_split
I1217 22:25:16.709414 47671 net.cpp:110] Creating Layer pool1_pool1_0_split
I1217 22:25:16.709429 47671 net.cpp:477] pool1_pool1_0_split <- pool1
I1217 22:25:16.709480 47671 net.cpp:433] pool1_pool1_0_split -> pool1_pool1_0_split_0
I1217 22:25:16.709496 47671 net.cpp:433] pool1_pool1_0_split -> pool1_pool1_0_split_1
I1217 22:25:16.709537 47671 net.cpp:155] Setting up pool1_pool1_0_split
I1217 22:25:16.709561 47671 net.cpp:163] Top shape: 48 64 56 56 (9633792)
I1217 22:25:16.709583 47671 net.cpp:163] Top shape: 48 64 56 56 (9633792)
I1217 22:25:16.709692 47671 layer_factory.hpp:76] Creating layer conv21
I1217 22:25:16.709722 47671 net.cpp:110] Creating Layer conv21
I1217 22:25:16.709745 47671 net.cpp:477] conv21 <- pool1_pool1_0_split_0
I1217 22:25:16.709761 47671 net.cpp:433] conv21 -> conv21
I1217 22:25:16.710377 47671 net.cpp:155] Setting up conv21
I1217 22:25:16.710400 47671 net.cpp:163] Top shape: 48 64 56 56 (9633792)
I1217 22:25:16.710415 47671 layer_factory.hpp:76] Creating layer bn21
I1217 22:25:16.710435 47671 net.cpp:110] Creating Layer bn21
I1217 22:25:16.710449 47671 net.cpp:477] bn21 <- conv21
I1217 22:25:16.710464 47671 net.cpp:433] bn21 -> bn21
I1217 22:25:16.710541 47671 net.cpp:155] Setting up bn21
I1217 22:25:16.710561 47671 net.cpp:163] Top shape: 48 64 56 56 (9633792)
I1217 22:25:16.710582 47671 layer_factory.hpp:76] Creating layer relu21
I1217 22:25:16.710598 47671 net.cpp:110] Creating Layer relu21
I1217 22:25:16.710613 47671 net.cpp:477] relu21 <- bn21
I1217 22:25:16.710628 47671 net.cpp:419] relu21 -> bn21 (in-place)
I1217 22:25:16.710703 47671 net.cpp:155] Setting up relu21
I1217 22:25:16.710721 47671 net.cpp:163] Top shape: 48 64 56 56 (9633792)
I1217 22:25:16.710736 47671 layer_factory.hpp:76] Creating layer conv22
I1217 22:25:16.710753 47671 net.cpp:110] Creating Layer conv22
I1217 22:25:16.710768 47671 net.cpp:477] conv22 <- bn21
I1217 22:25:16.710784 47671 net.cpp:433] conv22 -> conv22
I1217 22:25:16.711383 47671 net.cpp:155] Setting up conv22
I1217 22:25:16.711410 47671 net.cpp:163] Top shape: 48 64 56 56 (9633792)
I1217 22:25:16.711428 47671 layer_factory.hpp:76] Creating layer bn22
I1217 22:25:16.711444 47671 net.cpp:110] Creating Layer bn22
I1217 22:25:16.711459 47671 net.cpp:477] bn22 <- conv22
I1217 22:25:16.711477 47671 net.cpp:433] bn22 -> bn22
I1217 22:25:16.711555 47671 net.cpp:155] Setting up bn22
I1217 22:25:16.711575 47671 net.cpp:163] Top shape: 48 64 56 56 (9633792)
I1217 22:25:16.711594 47671 layer_factory.hpp:76] Creating layer relu22
I1217 22:25:16.711611 47671 net.cpp:110] Creating Layer relu22
I1217 22:25:16.711624 47671 net.cpp:477] relu22 <- bn22
I1217 22:25:16.711640 47671 net.cpp:419] relu22 -> bn22 (in-place)
I1217 22:25:16.711818 47671 net.cpp:155] Setting up relu22
I1217 22:25:16.711838 47671 net.cpp:163] Top shape: 48 64 56 56 (9633792)
I1217 22:25:16.711850 47671 layer_factory.hpp:76] Creating layer eltwise1
I1217 22:25:16.711869 47671 net.cpp:110] Creating Layer eltwise1
I1217 22:25:16.711879 47671 net.cpp:477] eltwise1 <- pool1_pool1_0_split_1
I1217 22:25:16.711892 47671 net.cpp:477] eltwise1 <- bn22
I1217 22:25:16.711905 47671 net.cpp:433] eltwise1 -> eltwise1
I1217 22:25:16.711926 47671 net.cpp:155] Setting up eltwise1
I1217 22:25:16.711941 47671 net.cpp:163] Top shape: 48 64 56 56 (9633792)
I1217 22:25:16.711951 47671 layer_factory.hpp:76] Creating layer relu1
I1217 22:25:16.711963 47671 net.cpp:110] Creating Layer relu1
I1217 22:25:16.711973 47671 net.cpp:477] relu1 <- eltwise1
I1217 22:25:16.711985 47671 net.cpp:419] relu1 -> eltwise1 (in-place)
I1217 22:25:16.712051 47671 net.cpp:155] Setting up relu1
I1217 22:25:16.712066 47671 net.cpp:163] Top shape: 48 64 56 56 (9633792)
I1217 22:25:16.712077 47671 layer_factory.hpp:76] Creating layer eltwise1_relu1_0_split
I1217 22:25:16.712090 47671 net.cpp:110] Creating Layer eltwise1_relu1_0_split
I1217 22:25:16.712100 47671 net.cpp:477] eltwise1_relu1_0_split <- eltwise1
I1217 22:25:16.712112 47671 net.cpp:433] eltwise1_relu1_0_split -> eltwise1_relu1_0_split_0
I1217 22:25:16.712126 47671 net.cpp:433] eltwise1_relu1_0_split -> eltwise1_relu1_0_split_1
I1217 22:25:16.712141 47671 net.cpp:155] Setting up eltwise1_relu1_0_split
I1217 22:25:16.712153 47671 net.cpp:163] Top shape: 48 64 56 56 (9633792)
I1217 22:25:16.712179 47671 net.cpp:163] Top shape: 48 64 56 56 (9633792)
I1217 22:25:16.712191 47671 layer_factory.hpp:76] Creating layer conv23
I1217 22:25:16.712208 47671 net.cpp:110] Creating Layer conv23
I1217 22:25:16.712218 47671 net.cpp:477] conv23 <- eltwise1_relu1_0_split_0
I1217 22:25:16.712232 47671 net.cpp:433] conv23 -> conv23
I1217 22:25:16.712832 47671 net.cpp:155] Setting up conv23
I1217 22:25:16.712853 47671 net.cpp:163] Top shape: 48 64 56 56 (9633792)
I1217 22:25:16.712872 47671 layer_factory.hpp:76] Creating layer bn23
I1217 22:25:16.712887 47671 net.cpp:110] Creating Layer bn23
I1217 22:25:16.712896 47671 net.cpp:477] bn23 <- conv23
I1217 22:25:16.712909 47671 net.cpp:433] bn23 -> bn23
I1217 22:25:16.712985 47671 net.cpp:155] Setting up bn23
I1217 22:25:16.713002 47671 net.cpp:163] Top shape: 48 64 56 56 (9633792)
I1217 22:25:16.713018 47671 layer_factory.hpp:76] Creating layer relu23
I1217 22:25:16.713032 47671 net.cpp:110] Creating Layer relu23
I1217 22:25:16.713042 47671 net.cpp:477] relu23 <- bn23
I1217 22:25:16.713054 47671 net.cpp:419] relu23 -> bn23 (in-place)
I1217 22:25:16.713124 47671 net.cpp:155] Setting up relu23
I1217 22:25:16.713140 47671 net.cpp:163] Top shape: 48 64 56 56 (9633792)
I1217 22:25:16.713150 47671 layer_factory.hpp:76] Creating layer conv24
I1217 22:25:16.713165 47671 net.cpp:110] Creating Layer conv24
I1217 22:25:16.713176 47671 net.cpp:477] conv24 <- bn23
I1217 22:25:16.713188 47671 net.cpp:433] conv24 -> conv24
I1217 22:25:16.713794 47671 net.cpp:155] Setting up conv24
I1217 22:25:16.713815 47671 net.cpp:163] Top shape: 48 64 56 56 (9633792)
I1217 22:25:16.713829 47671 layer_factory.hpp:76] Creating layer bn24
I1217 22:25:16.713845 47671 net.cpp:110] Creating Layer bn24
I1217 22:25:16.713855 47671 net.cpp:477] bn24 <- conv24
I1217 22:25:16.713867 47671 net.cpp:433] bn24 -> bn24
I1217 22:25:16.713943 47671 net.cpp:155] Setting up bn24
I1217 22:25:16.713959 47671 net.cpp:163] Top shape: 48 64 56 56 (9633792)
I1217 22:25:16.713975 47671 layer_factory.hpp:76] Creating layer relu24
I1217 22:25:16.713989 47671 net.cpp:110] Creating Layer relu24
I1217 22:25:16.713999 47671 net.cpp:477] relu24 <- bn24
I1217 22:25:16.714011 47671 net.cpp:419] relu24 -> bn24 (in-place)
I1217 22:25:16.714078 47671 net.cpp:155] Setting up relu24
I1217 22:25:16.714094 47671 net.cpp:163] Top shape: 48 64 56 56 (9633792)
I1217 22:25:16.714105 47671 layer_factory.hpp:76] Creating layer bn24_relu24_0_split
I1217 22:25:16.714118 47671 net.cpp:110] Creating Layer bn24_relu24_0_split
I1217 22:25:16.714128 47671 net.cpp:477] bn24_relu24_0_split <- bn24
I1217 22:25:16.714139 47671 net.cpp:433] bn24_relu24_0_split -> bn24_relu24_0_split_0
I1217 22:25:16.714154 47671 net.cpp:433] bn24_relu24_0_split -> bn24_relu24_0_split_1
I1217 22:25:16.714167 47671 net.cpp:155] Setting up bn24_relu24_0_split
I1217 22:25:16.714180 47671 net.cpp:163] Top shape: 48 64 56 56 (9633792)
I1217 22:25:16.714191 47671 net.cpp:163] Top shape: 48 64 56 56 (9633792)
I1217 22:25:16.714201 47671 layer_factory.hpp:76] Creating layer eltwise2
I1217 22:25:16.714215 47671 net.cpp:110] Creating Layer eltwise2
I1217 22:25:16.714226 47671 net.cpp:477] eltwise2 <- eltwise1_relu1_0_split_1
I1217 22:25:16.714237 47671 net.cpp:477] eltwise2 <- bn24_relu24_0_split_0
I1217 22:25:16.714249 47671 net.cpp:433] eltwise2 -> eltwise2
I1217 22:25:16.714264 47671 net.cpp:155] Setting up eltwise2
I1217 22:25:16.714277 47671 net.cpp:163] Top shape: 48 64 56 56 (9633792)
I1217 22:25:16.714287 47671 layer_factory.hpp:76] Creating layer relu2
I1217 22:25:16.714298 47671 net.cpp:110] Creating Layer relu2
I1217 22:25:16.714308 47671 net.cpp:477] relu2 <- eltwise2
I1217 22:25:16.714320 47671 net.cpp:419] relu2 -> eltwise2 (in-place)
I1217 22:25:16.714489 47671 net.cpp:155] Setting up relu2
I1217 22:25:16.714509 47671 net.cpp:163] Top shape: 48 64 56 56 (9633792)
I1217 22:25:16.714519 47671 layer_factory.hpp:76] Creating layer conv25
I1217 22:25:16.714534 47671 net.cpp:110] Creating Layer conv25
I1217 22:25:16.714545 47671 net.cpp:477] conv25 <- bn24_relu24_0_split_1
I1217 22:25:16.714573 47671 net.cpp:433] conv25 -> conv25
I1217 22:25:16.715183 47671 net.cpp:155] Setting up conv25
I1217 22:25:16.715204 47671 net.cpp:163] Top shape: 48 64 56 56 (9633792)
I1217 22:25:16.715217 47671 layer_factory.hpp:76] Creating layer bn25
I1217 22:25:16.715248 47671 net.cpp:110] Creating Layer bn25
I1217 22:25:16.715260 47671 net.cpp:477] bn25 <- conv25
I1217 22:25:16.715273 47671 net.cpp:433] bn25 -> bn25
I1217 22:25:16.715350 47671 net.cpp:155] Setting up bn25
I1217 22:25:16.715366 47671 net.cpp:163] Top shape: 48 64 56 56 (9633792)
I1217 22:25:16.715385 47671 layer_factory.hpp:76] Creating layer relu25
I1217 22:25:16.715399 47671 net.cpp:110] Creating Layer relu25
I1217 22:25:16.715410 47671 net.cpp:477] relu25 <- bn25
I1217 22:25:16.715425 47671 net.cpp:419] relu25 -> bn25 (in-place)
I1217 22:25:16.715500 47671 net.cpp:155] Setting up relu25
I1217 22:25:16.715517 47671 net.cpp:163] Top shape: 48 64 56 56 (9633792)
I1217 22:25:16.715528 47671 layer_factory.hpp:76] Creating layer conv26
I1217 22:25:16.715544 47671 net.cpp:110] Creating Layer conv26
I1217 22:25:16.715555 47671 net.cpp:477] conv26 <- bn25
I1217 22:25:16.715567 47671 net.cpp:433] conv26 -> conv26
I1217 22:25:16.716719 47671 net.cpp:155] Setting up conv26
I1217 22:25:16.716742 47671 net.cpp:163] Top shape: 48 64 56 56 (9633792)
I1217 22:25:16.716758 47671 layer_factory.hpp:76] Creating layer bn26
I1217 22:25:16.716771 47671 net.cpp:110] Creating Layer bn26
I1217 22:25:16.716783 47671 net.cpp:477] bn26 <- conv26
I1217 22:25:16.716794 47671 net.cpp:433] bn26 -> bn26
I1217 22:25:16.716882 47671 net.cpp:155] Setting up bn26
I1217 22:25:16.716902 47671 net.cpp:163] Top shape: 48 64 56 56 (9633792)
I1217 22:25:16.716922 47671 layer_factory.hpp:76] Creating layer relu26
I1217 22:25:16.716938 47671 net.cpp:110] Creating Layer relu26
I1217 22:25:16.716949 47671 net.cpp:477] relu26 <- bn26
I1217 22:25:16.716963 47671 net.cpp:419] relu26 -> bn26 (in-place)
I1217 22:25:16.717037 47671 net.cpp:155] Setting up relu26
I1217 22:25:16.717053 47671 net.cpp:163] Top shape: 48 64 56 56 (9633792)
I1217 22:25:16.717064 47671 layer_factory.hpp:76] Creating layer eltwise3
I1217 22:25:16.717079 47671 net.cpp:110] Creating Layer eltwise3
I1217 22:25:16.717090 47671 net.cpp:477] eltwise3 <- eltwise2
I1217 22:25:16.717102 47671 net.cpp:477] eltwise3 <- bn26
I1217 22:25:16.717114 47671 net.cpp:433] eltwise3 -> eltwise3
I1217 22:25:16.717129 47671 net.cpp:155] Setting up eltwise3
I1217 22:25:16.717141 47671 net.cpp:163] Top shape: 48 64 56 56 (9633792)
I1217 22:25:16.717152 47671 layer_factory.hpp:76] Creating layer relu3
I1217 22:25:16.717166 47671 net.cpp:110] Creating Layer relu3
I1217 22:25:16.717177 47671 net.cpp:477] relu3 <- eltwise3
I1217 22:25:16.717191 47671 net.cpp:419] relu3 -> eltwise3 (in-place)
I1217 22:25:16.717262 47671 net.cpp:155] Setting up relu3
I1217 22:25:16.717278 47671 net.cpp:163] Top shape: 48 64 56 56 (9633792)
I1217 22:25:16.717288 47671 layer_factory.hpp:76] Creating layer eltwise3_relu3_0_split
I1217 22:25:16.717306 47671 net.cpp:110] Creating Layer eltwise3_relu3_0_split
I1217 22:25:16.717316 47671 net.cpp:477] eltwise3_relu3_0_split <- eltwise3
I1217 22:25:16.717329 47671 net.cpp:433] eltwise3_relu3_0_split -> eltwise3_relu3_0_split_0
I1217 22:25:16.717342 47671 net.cpp:433] eltwise3_relu3_0_split -> eltwise3_relu3_0_split_1
I1217 22:25:16.717357 47671 net.cpp:155] Setting up eltwise3_relu3_0_split
I1217 22:25:16.717370 47671 net.cpp:163] Top shape: 48 64 56 56 (9633792)
I1217 22:25:16.717381 47671 net.cpp:163] Top shape: 48 64 56 56 (9633792)
I1217 22:25:16.717391 47671 layer_factory.hpp:76] Creating layer relu3_p
I1217 22:25:16.717407 47671 net.cpp:110] Creating Layer relu3_p
I1217 22:25:16.717418 47671 net.cpp:477] relu3_p <- eltwise3_relu3_0_split_0
I1217 22:25:16.717435 47671 net.cpp:433] relu3_p -> relu3_p
I1217 22:25:16.718375 47671 net.cpp:155] Setting up relu3_p
I1217 22:25:16.718395 47671 net.cpp:163] Top shape: 48 128 28 28 (4816896)
I1217 22:25:16.718410 47671 layer_factory.hpp:76] Creating layer relu3_bn
I1217 22:25:16.718441 47671 net.cpp:110] Creating Layer relu3_bn
I1217 22:25:16.718453 47671 net.cpp:477] relu3_bn <- relu3_p
I1217 22:25:16.718466 47671 net.cpp:433] relu3_bn -> relu3_bn
I1217 22:25:16.718541 47671 net.cpp:155] Setting up relu3_bn
I1217 22:25:16.718559 47671 net.cpp:163] Top shape: 48 128 28 28 (4816896)
I1217 22:25:16.718575 47671 layer_factory.hpp:76] Creating layer conv31
I1217 22:25:16.718592 47671 net.cpp:110] Creating Layer conv31
I1217 22:25:16.718603 47671 net.cpp:477] conv31 <- eltwise3_relu3_0_split_1
I1217 22:25:16.718619 47671 net.cpp:433] conv31 -> conv31
I1217 22:25:16.720016 47671 net.cpp:155] Setting up conv31
I1217 22:25:16.720037 47671 net.cpp:163] Top shape: 48 128 28 28 (4816896)
I1217 22:25:16.720052 47671 layer_factory.hpp:76] Creating layer bn31
I1217 22:25:16.720068 47671 net.cpp:110] Creating Layer bn31
I1217 22:25:16.720079 47671 net.cpp:477] bn31 <- conv31
I1217 22:25:16.720091 47671 net.cpp:433] bn31 -> bn31
I1217 22:25:16.720168 47671 net.cpp:155] Setting up bn31
I1217 22:25:16.720185 47671 net.cpp:163] Top shape: 48 128 28 28 (4816896)
I1217 22:25:16.720201 47671 layer_factory.hpp:76] Creating layer relu31
I1217 22:25:16.720216 47671 net.cpp:110] Creating Layer relu31
I1217 22:25:16.720227 47671 net.cpp:477] relu31 <- bn31
I1217 22:25:16.720240 47671 net.cpp:419] relu31 -> bn31 (in-place)
I1217 22:25:16.720417 47671 net.cpp:155] Setting up relu31
I1217 22:25:16.720437 47671 net.cpp:163] Top shape: 48 128 28 28 (4816896)
I1217 22:25:16.720448 47671 layer_factory.hpp:76] Creating layer conv32
I1217 22:25:16.720463 47671 net.cpp:110] Creating Layer conv32
I1217 22:25:16.720474 47671 net.cpp:477] conv32 <- bn31
I1217 22:25:16.720486 47671 net.cpp:433] conv32 -> conv32
I1217 22:25:16.721853 47671 net.cpp:155] Setting up conv32
I1217 22:25:16.721873 47671 net.cpp:163] Top shape: 48 128 28 28 (4816896)
I1217 22:25:16.721890 47671 layer_factory.hpp:76] Creating layer bn32
I1217 22:25:16.721905 47671 net.cpp:110] Creating Layer bn32
I1217 22:25:16.721916 47671 net.cpp:477] bn32 <- conv32
I1217 22:25:16.721932 47671 net.cpp:433] bn32 -> bn32
I1217 22:25:16.722007 47671 net.cpp:155] Setting up bn32
I1217 22:25:16.722023 47671 net.cpp:163] Top shape: 48 128 28 28 (4816896)
I1217 22:25:16.722039 47671 layer_factory.hpp:76] Creating layer relu32
I1217 22:25:16.722053 47671 net.cpp:110] Creating Layer relu32
I1217 22:25:16.722064 47671 net.cpp:477] relu32 <- bn32
I1217 22:25:16.722079 47671 net.cpp:419] relu32 -> bn32 (in-place)
I1217 22:25:16.722159 47671 net.cpp:155] Setting up relu32
I1217 22:25:16.722175 47671 net.cpp:163] Top shape: 48 128 28 28 (4816896)
I1217 22:25:16.722187 47671 layer_factory.hpp:76] Creating layer eltwise4
I1217 22:25:16.722200 47671 net.cpp:110] Creating Layer eltwise4
I1217 22:25:16.722210 47671 net.cpp:477] eltwise4 <- relu3_bn
I1217 22:25:16.722223 47671 net.cpp:477] eltwise4 <- bn32
I1217 22:25:16.722234 47671 net.cpp:433] eltwise4 -> eltwise4
I1217 22:25:16.722249 47671 net.cpp:155] Setting up eltwise4
I1217 22:25:16.722262 47671 net.cpp:163] Top shape: 48 128 28 28 (4816896)
I1217 22:25:16.722272 47671 layer_factory.hpp:76] Creating layer relu4
I1217 22:25:16.722287 47671 net.cpp:110] Creating Layer relu4
I1217 22:25:16.722298 47671 net.cpp:477] relu4 <- eltwise4
I1217 22:25:16.722311 47671 net.cpp:419] relu4 -> eltwise4 (in-place)
I1217 22:25:16.722381 47671 net.cpp:155] Setting up relu4
I1217 22:25:16.722398 47671 net.cpp:163] Top shape: 48 128 28 28 (4816896)
I1217 22:25:16.722407 47671 layer_factory.hpp:76] Creating layer eltwise4_relu4_0_split
I1217 22:25:16.722422 47671 net.cpp:110] Creating Layer eltwise4_relu4_0_split
I1217 22:25:16.722434 47671 net.cpp:477] eltwise4_relu4_0_split <- eltwise4
I1217 22:25:16.722446 47671 net.cpp:433] eltwise4_relu4_0_split -> eltwise4_relu4_0_split_0
I1217 22:25:16.722460 47671 net.cpp:433] eltwise4_relu4_0_split -> eltwise4_relu4_0_split_1
I1217 22:25:16.722475 47671 net.cpp:155] Setting up eltwise4_relu4_0_split
I1217 22:25:16.722487 47671 net.cpp:163] Top shape: 48 128 28 28 (4816896)
I1217 22:25:16.722514 47671 net.cpp:163] Top shape: 48 128 28 28 (4816896)
I1217 22:25:16.722527 47671 layer_factory.hpp:76] Creating layer conv33
I1217 22:25:16.722540 47671 net.cpp:110] Creating Layer conv33
I1217 22:25:16.722551 47671 net.cpp:477] conv33 <- eltwise4_relu4_0_split_0
I1217 22:25:16.722566 47671 net.cpp:433] conv33 -> conv33
I1217 22:25:16.724455 47671 net.cpp:155] Setting up conv33
I1217 22:25:16.724477 47671 net.cpp:163] Top shape: 48 128 28 28 (4816896)
I1217 22:25:16.724491 47671 layer_factory.hpp:76] Creating layer bn33
I1217 22:25:16.724508 47671 net.cpp:110] Creating Layer bn33
I1217 22:25:16.724519 47671 net.cpp:477] bn33 <- conv33
I1217 22:25:16.724531 47671 net.cpp:433] bn33 -> bn33
I1217 22:25:16.724606 47671 net.cpp:155] Setting up bn33
I1217 22:25:16.724623 47671 net.cpp:163] Top shape: 48 128 28 28 (4816896)
I1217 22:25:16.724642 47671 layer_factory.hpp:76] Creating layer relu33
I1217 22:25:16.724656 47671 net.cpp:110] Creating Layer relu33
I1217 22:25:16.724666 47671 net.cpp:477] relu33 <- bn33
I1217 22:25:16.724679 47671 net.cpp:419] relu33 -> bn33 (in-place)
I1217 22:25:16.724859 47671 net.cpp:155] Setting up relu33
I1217 22:25:16.724879 47671 net.cpp:163] Top shape: 48 128 28 28 (4816896)
I1217 22:25:16.724890 47671 layer_factory.hpp:76] Creating layer conv34
I1217 22:25:16.724908 47671 net.cpp:110] Creating Layer conv34
I1217 22:25:16.724920 47671 net.cpp:477] conv34 <- bn33
I1217 22:25:16.724932 47671 net.cpp:433] conv34 -> conv34
I1217 22:25:16.726833 47671 net.cpp:155] Setting up conv34
I1217 22:25:16.726856 47671 net.cpp:163] Top shape: 48 128 28 28 (4816896)
I1217 22:25:16.726871 47671 layer_factory.hpp:76] Creating layer bn34
I1217 22:25:16.726888 47671 net.cpp:110] Creating Layer bn34
I1217 22:25:16.726899 47671 net.cpp:477] bn34 <- conv34
I1217 22:25:16.726912 47671 net.cpp:433] bn34 -> bn34
I1217 22:25:16.726989 47671 net.cpp:155] Setting up bn34
I1217 22:25:16.727005 47671 net.cpp:163] Top shape: 48 128 28 28 (4816896)
I1217 22:25:16.727021 47671 layer_factory.hpp:76] Creating layer relu34
I1217 22:25:16.727035 47671 net.cpp:110] Creating Layer relu34
I1217 22:25:16.727044 47671 net.cpp:477] relu34 <- bn34
I1217 22:25:16.727059 47671 net.cpp:419] relu34 -> bn34 (in-place)
I1217 22:25:16.727138 47671 net.cpp:155] Setting up relu34
I1217 22:25:16.727154 47671 net.cpp:163] Top shape: 48 128 28 28 (4816896)
I1217 22:25:16.727165 47671 layer_factory.hpp:76] Creating layer eltwise5
I1217 22:25:16.727179 47671 net.cpp:110] Creating Layer eltwise5
I1217 22:25:16.727188 47671 net.cpp:477] eltwise5 <- eltwise4_relu4_0_split_1
I1217 22:25:16.727200 47671 net.cpp:477] eltwise5 <- bn34
I1217 22:25:16.727215 47671 net.cpp:433] eltwise5 -> eltwise5
I1217 22:25:16.727229 47671 net.cpp:155] Setting up eltwise5
I1217 22:25:16.727242 47671 net.cpp:163] Top shape: 48 128 28 28 (4816896)
I1217 22:25:16.727253 47671 layer_factory.hpp:76] Creating layer relu5
I1217 22:25:16.727265 47671 net.cpp:110] Creating Layer relu5
I1217 22:25:16.727275 47671 net.cpp:477] relu5 <- eltwise5
I1217 22:25:16.727288 47671 net.cpp:419] relu5 -> eltwise5 (in-place)
I1217 22:25:16.727357 47671 net.cpp:155] Setting up relu5
I1217 22:25:16.727373 47671 net.cpp:163] Top shape: 48 128 28 28 (4816896)
I1217 22:25:16.727385 47671 layer_factory.hpp:76] Creating layer eltwise5_relu5_0_split
I1217 22:25:16.727396 47671 net.cpp:110] Creating Layer eltwise5_relu5_0_split
I1217 22:25:16.727406 47671 net.cpp:477] eltwise5_relu5_0_split <- eltwise5
I1217 22:25:16.727418 47671 net.cpp:433] eltwise5_relu5_0_split -> eltwise5_relu5_0_split_0
I1217 22:25:16.727432 47671 net.cpp:433] eltwise5_relu5_0_split -> eltwise5_relu5_0_split_1
I1217 22:25:16.727447 47671 net.cpp:155] Setting up eltwise5_relu5_0_split
I1217 22:25:16.727458 47671 net.cpp:163] Top shape: 48 128 28 28 (4816896)
I1217 22:25:16.727469 47671 net.cpp:163] Top shape: 48 128 28 28 (4816896)
I1217 22:25:16.727479 47671 layer_factory.hpp:76] Creating layer conv35
I1217 22:25:16.727494 47671 net.cpp:110] Creating Layer conv35
I1217 22:25:16.727504 47671 net.cpp:477] conv35 <- eltwise5_relu5_0_split_0
I1217 22:25:16.727533 47671 net.cpp:433] conv35 -> conv35
I1217 22:25:16.729452 47671 net.cpp:155] Setting up conv35
I1217 22:25:16.729472 47671 net.cpp:163] Top shape: 48 128 28 28 (4816896)
I1217 22:25:16.729487 47671 layer_factory.hpp:76] Creating layer bn35
I1217 22:25:16.729504 47671 net.cpp:110] Creating Layer bn35
I1217 22:25:16.729516 47671 net.cpp:477] bn35 <- conv35
I1217 22:25:16.729529 47671 net.cpp:433] bn35 -> bn35
I1217 22:25:16.729609 47671 net.cpp:155] Setting up bn35
I1217 22:25:16.729629 47671 net.cpp:163] Top shape: 48 128 28 28 (4816896)
I1217 22:25:16.729655 47671 layer_factory.hpp:76] Creating layer relu35
I1217 22:25:16.729671 47671 net.cpp:110] Creating Layer relu35
I1217 22:25:16.729682 47671 net.cpp:477] relu35 <- bn35
I1217 22:25:16.729694 47671 net.cpp:419] relu35 -> bn35 (in-place)
I1217 22:25:16.729771 47671 net.cpp:155] Setting up relu35
I1217 22:25:16.729787 47671 net.cpp:163] Top shape: 48 128 28 28 (4816896)
I1217 22:25:16.729799 47671 layer_factory.hpp:76] Creating layer conv36
I1217 22:25:16.729812 47671 net.cpp:110] Creating Layer conv36
I1217 22:25:16.729823 47671 net.cpp:477] conv36 <- bn35
I1217 22:25:16.729835 47671 net.cpp:433] conv36 -> conv36
I1217 22:25:16.731726 47671 net.cpp:155] Setting up conv36
I1217 22:25:16.731750 47671 net.cpp:163] Top shape: 48 128 28 28 (4816896)
I1217 22:25:16.731765 47671 layer_factory.hpp:76] Creating layer bn36
I1217 22:25:16.731778 47671 net.cpp:110] Creating Layer bn36
I1217 22:25:16.731788 47671 net.cpp:477] bn36 <- conv36
I1217 22:25:16.731801 47671 net.cpp:433] bn36 -> bn36
I1217 22:25:16.731879 47671 net.cpp:155] Setting up bn36
I1217 22:25:16.731895 47671 net.cpp:163] Top shape: 48 128 28 28 (4816896)
I1217 22:25:16.731914 47671 layer_factory.hpp:76] Creating layer relu36
I1217 22:25:16.731927 47671 net.cpp:110] Creating Layer relu36
I1217 22:25:16.731938 47671 net.cpp:477] relu36 <- bn36
I1217 22:25:16.731956 47671 net.cpp:419] relu36 -> bn36 (in-place)
I1217 22:25:16.732136 47671 net.cpp:155] Setting up relu36
I1217 22:25:16.732156 47671 net.cpp:163] Top shape: 48 128 28 28 (4816896)
I1217 22:25:16.732168 47671 layer_factory.hpp:76] Creating layer eltwise6
I1217 22:25:16.732182 47671 net.cpp:110] Creating Layer eltwise6
I1217 22:25:16.732192 47671 net.cpp:477] eltwise6 <- eltwise5_relu5_0_split_1
I1217 22:25:16.732204 47671 net.cpp:477] eltwise6 <- bn36
I1217 22:25:16.732216 47671 net.cpp:433] eltwise6 -> eltwise6
I1217 22:25:16.732233 47671 net.cpp:155] Setting up eltwise6
I1217 22:25:16.732244 47671 net.cpp:163] Top shape: 48 128 28 28 (4816896)
I1217 22:25:16.732255 47671 layer_factory.hpp:76] Creating layer relu6
I1217 22:25:16.732270 47671 net.cpp:110] Creating Layer relu6
I1217 22:25:16.732281 47671 net.cpp:477] relu6 <- eltwise6
I1217 22:25:16.732293 47671 net.cpp:419] relu6 -> eltwise6 (in-place)
I1217 22:25:16.732363 47671 net.cpp:155] Setting up relu6
I1217 22:25:16.732378 47671 net.cpp:163] Top shape: 48 128 28 28 (4816896)
I1217 22:25:16.732389 47671 layer_factory.hpp:76] Creating layer eltwise6_relu6_0_split
I1217 22:25:16.732403 47671 net.cpp:110] Creating Layer eltwise6_relu6_0_split
I1217 22:25:16.732413 47671 net.cpp:477] eltwise6_relu6_0_split <- eltwise6
I1217 22:25:16.732429 47671 net.cpp:433] eltwise6_relu6_0_split -> eltwise6_relu6_0_split_0
I1217 22:25:16.732445 47671 net.cpp:433] eltwise6_relu6_0_split -> eltwise6_relu6_0_split_1
I1217 22:25:16.732460 47671 net.cpp:155] Setting up eltwise6_relu6_0_split
I1217 22:25:16.732471 47671 net.cpp:163] Top shape: 48 128 28 28 (4816896)
I1217 22:25:16.732482 47671 net.cpp:163] Top shape: 48 128 28 28 (4816896)
I1217 22:25:16.732493 47671 layer_factory.hpp:76] Creating layer conv37
I1217 22:25:16.732509 47671 net.cpp:110] Creating Layer conv37
I1217 22:25:16.732520 47671 net.cpp:477] conv37 <- eltwise6_relu6_0_split_0
I1217 22:25:16.732533 47671 net.cpp:433] conv37 -> conv37
I1217 22:25:16.734438 47671 net.cpp:155] Setting up conv37
I1217 22:25:16.734459 47671 net.cpp:163] Top shape: 48 128 28 28 (4816896)
I1217 22:25:16.734473 47671 layer_factory.hpp:76] Creating layer bn37
I1217 22:25:16.734510 47671 net.cpp:110] Creating Layer bn37
I1217 22:25:16.734524 47671 net.cpp:477] bn37 <- conv37
I1217 22:25:16.735733 47671 net.cpp:433] bn37 -> bn37
I1217 22:25:16.735834 47671 net.cpp:155] Setting up bn37
I1217 22:25:16.735853 47671 net.cpp:163] Top shape: 48 128 28 28 (4816896)
I1217 22:25:16.735870 47671 layer_factory.hpp:76] Creating layer relu37
I1217 22:25:16.735888 47671 net.cpp:110] Creating Layer relu37
I1217 22:25:16.735898 47671 net.cpp:477] relu37 <- bn37
I1217 22:25:16.735911 47671 net.cpp:419] relu37 -> bn37 (in-place)
I1217 22:25:16.735994 47671 net.cpp:155] Setting up relu37
I1217 22:25:16.736011 47671 net.cpp:163] Top shape: 48 128 28 28 (4816896)
I1217 22:25:16.736021 47671 layer_factory.hpp:76] Creating layer conv38
I1217 22:25:16.736037 47671 net.cpp:110] Creating Layer conv38
I1217 22:25:16.736047 47671 net.cpp:477] conv38 <- bn37
I1217 22:25:16.736063 47671 net.cpp:433] conv38 -> conv38
I1217 22:25:16.737987 47671 net.cpp:155] Setting up conv38
I1217 22:25:16.738008 47671 net.cpp:163] Top shape: 48 128 28 28 (4816896)
I1217 22:25:16.738023 47671 layer_factory.hpp:76] Creating layer bn38
I1217 22:25:16.738039 47671 net.cpp:110] Creating Layer bn38
I1217 22:25:16.738050 47671 net.cpp:477] bn38 <- conv38
I1217 22:25:16.738064 47671 net.cpp:433] bn38 -> bn38
I1217 22:25:16.738142 47671 net.cpp:155] Setting up bn38
I1217 22:25:16.738163 47671 net.cpp:163] Top shape: 48 128 28 28 (4816896)
I1217 22:25:16.738180 47671 layer_factory.hpp:76] Creating layer relu38
I1217 22:25:16.738194 47671 net.cpp:110] Creating Layer relu38
I1217 22:25:16.738205 47671 net.cpp:477] relu38 <- bn38
I1217 22:25:16.738217 47671 net.cpp:419] relu38 -> bn38 (in-place)
I1217 22:25:16.738293 47671 net.cpp:155] Setting up relu38
I1217 22:25:16.738309 47671 net.cpp:163] Top shape: 48 128 28 28 (4816896)
I1217 22:25:16.738320 47671 layer_factory.hpp:76] Creating layer eltwise7
I1217 22:25:16.738333 47671 net.cpp:110] Creating Layer eltwise7
I1217 22:25:16.738344 47671 net.cpp:477] eltwise7 <- eltwise6_relu6_0_split_1
I1217 22:25:16.738356 47671 net.cpp:477] eltwise7 <- bn38
I1217 22:25:16.738370 47671 net.cpp:433] eltwise7 -> eltwise7
I1217 22:25:16.738386 47671 net.cpp:155] Setting up eltwise7
I1217 22:25:16.738399 47671 net.cpp:163] Top shape: 48 128 28 28 (4816896)
I1217 22:25:16.738409 47671 layer_factory.hpp:76] Creating layer relu7
I1217 22:25:16.738422 47671 net.cpp:110] Creating Layer relu7
I1217 22:25:16.738432 47671 net.cpp:477] relu7 <- eltwise7
I1217 22:25:16.738445 47671 net.cpp:419] relu7 -> eltwise7 (in-place)
I1217 22:25:16.738623 47671 net.cpp:155] Setting up relu7
I1217 22:25:16.738642 47671 net.cpp:163] Top shape: 48 128 28 28 (4816896)
I1217 22:25:16.738654 47671 layer_factory.hpp:76] Creating layer eltwise7_relu7_0_split
I1217 22:25:16.738667 47671 net.cpp:110] Creating Layer eltwise7_relu7_0_split
I1217 22:25:16.738677 47671 net.cpp:477] eltwise7_relu7_0_split <- eltwise7
I1217 22:25:16.738692 47671 net.cpp:433] eltwise7_relu7_0_split -> eltwise7_relu7_0_split_0
I1217 22:25:16.738708 47671 net.cpp:433] eltwise7_relu7_0_split -> eltwise7_relu7_0_split_1
I1217 22:25:16.738725 47671 net.cpp:155] Setting up eltwise7_relu7_0_split
I1217 22:25:16.738737 47671 net.cpp:163] Top shape: 48 128 28 28 (4816896)
I1217 22:25:16.738749 47671 net.cpp:163] Top shape: 48 128 28 28 (4816896)
I1217 22:25:16.738759 47671 layer_factory.hpp:76] Creating layer relu7_p
I1217 22:25:16.738775 47671 net.cpp:110] Creating Layer relu7_p
I1217 22:25:16.738786 47671 net.cpp:477] relu7_p <- eltwise7_relu7_0_split_0
I1217 22:25:16.738800 47671 net.cpp:433] relu7_p -> relu7_p
I1217 22:25:16.739393 47671 net.cpp:155] Setting up relu7_p
I1217 22:25:16.739413 47671 net.cpp:163] Top shape: 48 256 14 14 (2408448)
I1217 22:25:16.739428 47671 layer_factory.hpp:76] Creating layer relu7_bn
I1217 22:25:16.739444 47671 net.cpp:110] Creating Layer relu7_bn
I1217 22:25:16.739456 47671 net.cpp:477] relu7_bn <- relu7_p
I1217 22:25:16.739470 47671 net.cpp:433] relu7_bn -> relu7_bn
I1217 22:25:16.739552 47671 net.cpp:155] Setting up relu7_bn
I1217 22:25:16.739585 47671 net.cpp:163] Top shape: 48 256 14 14 (2408448)
I1217 22:25:16.739605 47671 layer_factory.hpp:76] Creating layer conv41
I1217 22:25:16.739624 47671 net.cpp:110] Creating Layer conv41
I1217 22:25:16.739637 47671 net.cpp:477] conv41 <- eltwise7_relu7_0_split_1
I1217 22:25:16.739652 47671 net.cpp:433] conv41 -> conv41
I1217 22:25:16.742630 47671 net.cpp:155] Setting up conv41
I1217 22:25:16.742650 47671 net.cpp:163] Top shape: 48 256 14 14 (2408448)
I1217 22:25:16.742666 47671 layer_factory.hpp:76] Creating layer bn41
I1217 22:25:16.742681 47671 net.cpp:110] Creating Layer bn41
I1217 22:25:16.742693 47671 net.cpp:477] bn41 <- conv41
I1217 22:25:16.742707 47671 net.cpp:433] bn41 -> bn41
I1217 22:25:16.742787 47671 net.cpp:155] Setting up bn41
I1217 22:25:16.742805 47671 net.cpp:163] Top shape: 48 256 14 14 (2408448)
I1217 22:25:16.742820 47671 layer_factory.hpp:76] Creating layer relu41
I1217 22:25:16.742836 47671 net.cpp:110] Creating Layer relu41
I1217 22:25:16.742847 47671 net.cpp:477] relu41 <- bn41
I1217 22:25:16.742859 47671 net.cpp:419] relu41 -> bn41 (in-place)
I1217 22:25:16.742935 47671 net.cpp:155] Setting up relu41
I1217 22:25:16.742952 47671 net.cpp:163] Top shape: 48 256 14 14 (2408448)
I1217 22:25:16.742964 47671 layer_factory.hpp:76] Creating layer conv42
I1217 22:25:16.742980 47671 net.cpp:110] Creating Layer conv42
I1217 22:25:16.742991 47671 net.cpp:477] conv42 <- bn41
I1217 22:25:16.743005 47671 net.cpp:433] conv42 -> conv42
I1217 22:25:16.748730 47671 net.cpp:155] Setting up conv42
I1217 22:25:16.748755 47671 net.cpp:163] Top shape: 48 256 14 14 (2408448)
I1217 22:25:16.748770 47671 layer_factory.hpp:76] Creating layer bn42
I1217 22:25:16.748785 47671 net.cpp:110] Creating Layer bn42
I1217 22:25:16.748795 47671 net.cpp:477] bn42 <- conv42
I1217 22:25:16.748808 47671 net.cpp:433] bn42 -> bn42
I1217 22:25:16.748891 47671 net.cpp:155] Setting up bn42
I1217 22:25:16.748908 47671 net.cpp:163] Top shape: 48 256 14 14 (2408448)
I1217 22:25:16.748924 47671 layer_factory.hpp:76] Creating layer relu42
I1217 22:25:16.748937 47671 net.cpp:110] Creating Layer relu42
I1217 22:25:16.748949 47671 net.cpp:477] relu42 <- bn42
I1217 22:25:16.748963 47671 net.cpp:419] relu42 -> bn42 (in-place)
I1217 22:25:16.749042 47671 net.cpp:155] Setting up relu42
I1217 22:25:16.749059 47671 net.cpp:163] Top shape: 48 256 14 14 (2408448)
I1217 22:25:16.749070 47671 layer_factory.hpp:76] Creating layer eltwise8
I1217 22:25:16.749086 47671 net.cpp:110] Creating Layer eltwise8
I1217 22:25:16.749097 47671 net.cpp:477] eltwise8 <- relu7_bn
I1217 22:25:16.749109 47671 net.cpp:477] eltwise8 <- bn42
I1217 22:25:16.749122 47671 net.cpp:433] eltwise8 -> eltwise8
I1217 22:25:16.749137 47671 net.cpp:155] Setting up eltwise8
I1217 22:25:16.749150 47671 net.cpp:163] Top shape: 48 256 14 14 (2408448)
I1217 22:25:16.749188 47671 layer_factory.hpp:76] Creating layer relu8
I1217 22:25:16.749200 47671 net.cpp:110] Creating Layer relu8
I1217 22:25:16.749210 47671 net.cpp:477] relu8 <- eltwise8
I1217 22:25:16.749225 47671 net.cpp:419] relu8 -> eltwise8 (in-place)
I1217 22:25:16.749303 47671 net.cpp:155] Setting up relu8
I1217 22:25:16.749320 47671 net.cpp:163] Top shape: 48 256 14 14 (2408448)
I1217 22:25:16.749338 47671 layer_factory.hpp:76] Creating layer eltwise8_relu8_0_split
I1217 22:25:16.749353 47671 net.cpp:110] Creating Layer eltwise8_relu8_0_split
I1217 22:25:16.749363 47671 net.cpp:477] eltwise8_relu8_0_split <- eltwise8
I1217 22:25:16.749377 47671 net.cpp:433] eltwise8_relu8_0_split -> eltwise8_relu8_0_split_0
I1217 22:25:16.749393 47671 net.cpp:433] eltwise8_relu8_0_split -> eltwise8_relu8_0_split_1
I1217 22:25:16.749408 47671 net.cpp:155] Setting up eltwise8_relu8_0_split
I1217 22:25:16.749421 47671 net.cpp:163] Top shape: 48 256 14 14 (2408448)
I1217 22:25:16.749433 47671 net.cpp:163] Top shape: 48 256 14 14 (2408448)
I1217 22:25:16.749444 47671 layer_factory.hpp:76] Creating layer conv43
I1217 22:25:16.749457 47671 net.cpp:110] Creating Layer conv43
I1217 22:25:16.749470 47671 net.cpp:477] conv43 <- eltwise8_relu8_0_split_0
I1217 22:25:16.749500 47671 net.cpp:433] conv43 -> conv43
I1217 22:25:16.755213 47671 net.cpp:155] Setting up conv43
I1217 22:25:16.755234 47671 net.cpp:163] Top shape: 48 256 14 14 (2408448)
I1217 22:25:16.755249 47671 layer_factory.hpp:76] Creating layer bn43
I1217 22:25:16.755266 47671 net.cpp:110] Creating Layer bn43
I1217 22:25:16.755277 47671 net.cpp:477] bn43 <- conv43
I1217 22:25:16.755293 47671 net.cpp:433] bn43 -> bn43
I1217 22:25:16.755378 47671 net.cpp:155] Setting up bn43
I1217 22:25:16.755395 47671 net.cpp:163] Top shape: 48 256 14 14 (2408448)
I1217 22:25:16.755411 47671 layer_factory.hpp:76] Creating layer relu43
I1217 22:25:16.755424 47671 net.cpp:110] Creating Layer relu43
I1217 22:25:16.755434 47671 net.cpp:477] relu43 <- bn43
I1217 22:25:16.755450 47671 net.cpp:419] relu43 -> bn43 (in-place)
I1217 22:25:16.755630 47671 net.cpp:155] Setting up relu43
I1217 22:25:16.755650 47671 net.cpp:163] Top shape: 48 256 14 14 (2408448)
I1217 22:25:16.755661 47671 layer_factory.hpp:76] Creating layer conv44
I1217 22:25:16.755676 47671 net.cpp:110] Creating Layer conv44
I1217 22:25:16.755686 47671 net.cpp:477] conv44 <- bn43
I1217 22:25:16.755699 47671 net.cpp:433] conv44 -> conv44
I1217 22:25:16.761392 47671 net.cpp:155] Setting up conv44
I1217 22:25:16.761414 47671 net.cpp:163] Top shape: 48 256 14 14 (2408448)
I1217 22:25:16.761427 47671 layer_factory.hpp:76] Creating layer bn44
I1217 22:25:16.761441 47671 net.cpp:110] Creating Layer bn44
I1217 22:25:16.761451 47671 net.cpp:477] bn44 <- conv44
I1217 22:25:16.761466 47671 net.cpp:433] bn44 -> bn44
I1217 22:25:16.761550 47671 net.cpp:155] Setting up bn44
I1217 22:25:16.761567 47671 net.cpp:163] Top shape: 48 256 14 14 (2408448)
I1217 22:25:16.761584 47671 layer_factory.hpp:76] Creating layer relu44
I1217 22:25:16.761600 47671 net.cpp:110] Creating Layer relu44
I1217 22:25:16.761610 47671 net.cpp:477] relu44 <- bn44
I1217 22:25:16.761622 47671 net.cpp:419] relu44 -> bn44 (in-place)
I1217 22:25:16.761699 47671 net.cpp:155] Setting up relu44
I1217 22:25:16.761715 47671 net.cpp:163] Top shape: 48 256 14 14 (2408448)
I1217 22:25:16.761726 47671 layer_factory.hpp:76] Creating layer eltwise9
I1217 22:25:16.761739 47671 net.cpp:110] Creating Layer eltwise9
I1217 22:25:16.761749 47671 net.cpp:477] eltwise9 <- eltwise8_relu8_0_split_1
I1217 22:25:16.761761 47671 net.cpp:477] eltwise9 <- bn44
I1217 22:25:16.761776 47671 net.cpp:433] eltwise9 -> eltwise9
I1217 22:25:16.761792 47671 net.cpp:155] Setting up eltwise9
I1217 22:25:16.761806 47671 net.cpp:163] Top shape: 48 256 14 14 (2408448)
I1217 22:25:16.761816 47671 layer_factory.hpp:76] Creating layer relu9
I1217 22:25:16.761827 47671 net.cpp:110] Creating Layer relu9
I1217 22:25:16.761837 47671 net.cpp:477] relu9 <- eltwise9
I1217 22:25:16.761849 47671 net.cpp:419] relu9 -> eltwise9 (in-place)
I1217 22:25:16.761919 47671 net.cpp:155] Setting up relu9
I1217 22:25:16.761935 47671 net.cpp:163] Top shape: 48 256 14 14 (2408448)
I1217 22:25:16.761946 47671 layer_factory.hpp:76] Creating layer eltwise9_relu9_0_split
I1217 22:25:16.761958 47671 net.cpp:110] Creating Layer eltwise9_relu9_0_split
I1217 22:25:16.761968 47671 net.cpp:477] eltwise9_relu9_0_split <- eltwise9
I1217 22:25:16.761981 47671 net.cpp:433] eltwise9_relu9_0_split -> eltwise9_relu9_0_split_0
I1217 22:25:16.761994 47671 net.cpp:433] eltwise9_relu9_0_split -> eltwise9_relu9_0_split_1
I1217 22:25:16.762008 47671 net.cpp:155] Setting up eltwise9_relu9_0_split
I1217 22:25:16.762020 47671 net.cpp:163] Top shape: 48 256 14 14 (2408448)
I1217 22:25:16.762032 47671 net.cpp:163] Top shape: 48 256 14 14 (2408448)
I1217 22:25:16.762042 47671 layer_factory.hpp:76] Creating layer conv45
I1217 22:25:16.762058 47671 net.cpp:110] Creating Layer conv45
I1217 22:25:16.762068 47671 net.cpp:477] conv45 <- eltwise9_relu9_0_split_0
I1217 22:25:16.762084 47671 net.cpp:433] conv45 -> conv45
I1217 22:25:16.767765 47671 net.cpp:155] Setting up conv45
I1217 22:25:16.767788 47671 net.cpp:163] Top shape: 48 256 14 14 (2408448)
I1217 22:25:16.767803 47671 layer_factory.hpp:76] Creating layer bn45
I1217 22:25:16.767838 47671 net.cpp:110] Creating Layer bn45
I1217 22:25:16.767850 47671 net.cpp:477] bn45 <- conv45
I1217 22:25:16.767865 47671 net.cpp:433] bn45 -> bn45
I1217 22:25:16.767951 47671 net.cpp:155] Setting up bn45
I1217 22:25:16.767969 47671 net.cpp:163] Top shape: 48 256 14 14 (2408448)
I1217 22:25:16.767987 47671 layer_factory.hpp:76] Creating layer relu45
I1217 22:25:16.767999 47671 net.cpp:110] Creating Layer relu45
I1217 22:25:16.768010 47671 net.cpp:477] relu45 <- bn45
I1217 22:25:16.768023 47671 net.cpp:419] relu45 -> bn45 (in-place)
I1217 22:25:16.768213 47671 net.cpp:155] Setting up relu45
I1217 22:25:16.768231 47671 net.cpp:163] Top shape: 48 256 14 14 (2408448)
I1217 22:25:16.768242 47671 layer_factory.hpp:76] Creating layer conv46
I1217 22:25:16.768257 47671 net.cpp:110] Creating Layer conv46
I1217 22:25:16.768288 47671 net.cpp:477] conv46 <- bn45
I1217 22:25:16.768306 47671 net.cpp:433] conv46 -> conv46
I1217 22:25:16.774019 47671 net.cpp:155] Setting up conv46
I1217 22:25:16.774042 47671 net.cpp:163] Top shape: 48 256 14 14 (2408448)
I1217 22:25:16.774057 47671 layer_factory.hpp:76] Creating layer bn46
I1217 22:25:16.774075 47671 net.cpp:110] Creating Layer bn46
I1217 22:25:16.774085 47671 net.cpp:477] bn46 <- conv46
I1217 22:25:16.774098 47671 net.cpp:433] bn46 -> bn46
I1217 22:25:16.774184 47671 net.cpp:155] Setting up bn46
I1217 22:25:16.774201 47671 net.cpp:163] Top shape: 48 256 14 14 (2408448)
I1217 22:25:16.774219 47671 layer_factory.hpp:76] Creating layer relu46
I1217 22:25:16.774231 47671 net.cpp:110] Creating Layer relu46
I1217 22:25:16.774242 47671 net.cpp:477] relu46 <- bn46
I1217 22:25:16.774256 47671 net.cpp:419] relu46 -> bn46 (in-place)
I1217 22:25:16.774335 47671 net.cpp:155] Setting up relu46
I1217 22:25:16.774351 47671 net.cpp:163] Top shape: 48 256 14 14 (2408448)
I1217 22:25:16.774363 47671 layer_factory.hpp:76] Creating layer eltwise10
I1217 22:25:16.774375 47671 net.cpp:110] Creating Layer eltwise10
I1217 22:25:16.774385 47671 net.cpp:477] eltwise10 <- eltwise9_relu9_0_split_1
I1217 22:25:16.774397 47671 net.cpp:477] eltwise10 <- bn46
I1217 22:25:16.774410 47671 net.cpp:433] eltwise10 -> eltwise10
I1217 22:25:16.774425 47671 net.cpp:155] Setting up eltwise10
I1217 22:25:16.774437 47671 net.cpp:163] Top shape: 48 256 14 14 (2408448)
I1217 22:25:16.774447 47671 layer_factory.hpp:76] Creating layer relu10
I1217 22:25:16.774461 47671 net.cpp:110] Creating Layer relu10
I1217 22:25:16.774472 47671 net.cpp:477] relu10 <- eltwise10
I1217 22:25:16.774484 47671 net.cpp:419] relu10 -> eltwise10 (in-place)
I1217 22:25:16.774554 47671 net.cpp:155] Setting up relu10
I1217 22:25:16.774570 47671 net.cpp:163] Top shape: 48 256 14 14 (2408448)
I1217 22:25:16.774581 47671 layer_factory.hpp:76] Creating layer eltwise10_relu10_0_split
I1217 22:25:16.774595 47671 net.cpp:110] Creating Layer eltwise10_relu10_0_split
I1217 22:25:16.774606 47671 net.cpp:477] eltwise10_relu10_0_split <- eltwise10
I1217 22:25:16.774618 47671 net.cpp:433] eltwise10_relu10_0_split -> eltwise10_relu10_0_split_0
I1217 22:25:16.774632 47671 net.cpp:433] eltwise10_relu10_0_split -> eltwise10_relu10_0_split_1
I1217 22:25:16.774646 47671 net.cpp:155] Setting up eltwise10_relu10_0_split
I1217 22:25:16.774658 47671 net.cpp:163] Top shape: 48 256 14 14 (2408448)
I1217 22:25:16.774669 47671 net.cpp:163] Top shape: 48 256 14 14 (2408448)
I1217 22:25:16.774679 47671 layer_factory.hpp:76] Creating layer conv47
I1217 22:25:16.774693 47671 net.cpp:110] Creating Layer conv47
I1217 22:25:16.774703 47671 net.cpp:477] conv47 <- eltwise10_relu10_0_split_0
I1217 22:25:16.774718 47671 net.cpp:433] conv47 -> conv47
I1217 22:25:16.780416 47671 net.cpp:155] Setting up conv47
I1217 22:25:16.780443 47671 net.cpp:163] Top shape: 48 256 14 14 (2408448)
I1217 22:25:16.780463 47671 layer_factory.hpp:76] Creating layer bn47
I1217 22:25:16.780483 47671 net.cpp:110] Creating Layer bn47
I1217 22:25:16.780498 47671 net.cpp:477] bn47 <- conv47
I1217 22:25:16.780515 47671 net.cpp:433] bn47 -> bn47
I1217 22:25:16.780621 47671 net.cpp:155] Setting up bn47
I1217 22:25:16.780642 47671 net.cpp:163] Top shape: 48 256 14 14 (2408448)
I1217 22:25:16.780663 47671 layer_factory.hpp:76] Creating layer relu47
I1217 22:25:16.780681 47671 net.cpp:110] Creating Layer relu47
I1217 22:25:16.780697 47671 net.cpp:477] relu47 <- bn47
I1217 22:25:16.780715 47671 net.cpp:419] relu47 -> bn47 (in-place)
I1217 22:25:16.780797 47671 net.cpp:155] Setting up relu47
I1217 22:25:16.780815 47671 net.cpp:163] Top shape: 48 256 14 14 (2408448)
I1217 22:25:16.780829 47671 layer_factory.hpp:76] Creating layer conv48
I1217 22:25:16.780850 47671 net.cpp:110] Creating Layer conv48
I1217 22:25:16.780864 47671 net.cpp:477] conv48 <- bn47
I1217 22:25:16.780881 47671 net.cpp:433] conv48 -> conv48
I1217 22:25:16.786609 47671 net.cpp:155] Setting up conv48
I1217 22:25:16.786641 47671 net.cpp:163] Top shape: 48 256 14 14 (2408448)
I1217 22:25:16.786656 47671 layer_factory.hpp:76] Creating layer bn48
I1217 22:25:16.786701 47671 net.cpp:110] Creating Layer bn48
I1217 22:25:16.786715 47671 net.cpp:477] bn48 <- conv48
I1217 22:25:16.786734 47671 net.cpp:433] bn48 -> bn48
I1217 22:25:16.786814 47671 net.cpp:155] Setting up bn48
I1217 22:25:16.786830 47671 net.cpp:163] Top shape: 48 256 14 14 (2408448)
I1217 22:25:16.786846 47671 layer_factory.hpp:76] Creating layer relu48
I1217 22:25:16.786860 47671 net.cpp:110] Creating Layer relu48
I1217 22:25:16.786870 47671 net.cpp:477] relu48 <- bn48
I1217 22:25:16.786885 47671 net.cpp:419] relu48 -> bn48 (in-place)
I1217 22:25:16.787082 47671 net.cpp:155] Setting up relu48
I1217 22:25:16.787103 47671 net.cpp:163] Top shape: 48 256 14 14 (2408448)
I1217 22:25:16.787116 47671 layer_factory.hpp:76] Creating layer eltwise11
I1217 22:25:16.787129 47671 net.cpp:110] Creating Layer eltwise11
I1217 22:25:16.787139 47671 net.cpp:477] eltwise11 <- eltwise10_relu10_0_split_1
I1217 22:25:16.787152 47671 net.cpp:477] eltwise11 <- bn48
I1217 22:25:16.787166 47671 net.cpp:433] eltwise11 -> eltwise11
I1217 22:25:16.787183 47671 net.cpp:155] Setting up eltwise11
I1217 22:25:16.787195 47671 net.cpp:163] Top shape: 48 256 14 14 (2408448)
I1217 22:25:16.787205 47671 layer_factory.hpp:76] Creating layer relu11
I1217 22:25:16.787219 47671 net.cpp:110] Creating Layer relu11
I1217 22:25:16.787228 47671 net.cpp:477] relu11 <- eltwise11
I1217 22:25:16.787240 47671 net.cpp:419] relu11 -> eltwise11 (in-place)
I1217 22:25:16.787315 47671 net.cpp:155] Setting up relu11
I1217 22:25:16.787331 47671 net.cpp:163] Top shape: 48 256 14 14 (2408448)
I1217 22:25:16.787343 47671 layer_factory.hpp:76] Creating layer eltwise11_relu11_0_split
I1217 22:25:16.787354 47671 net.cpp:110] Creating Layer eltwise11_relu11_0_split
I1217 22:25:16.787365 47671 net.cpp:477] eltwise11_relu11_0_split <- eltwise11
I1217 22:25:16.787377 47671 net.cpp:433] eltwise11_relu11_0_split -> eltwise11_relu11_0_split_0
I1217 22:25:16.787391 47671 net.cpp:433] eltwise11_relu11_0_split -> eltwise11_relu11_0_split_1
I1217 22:25:16.787405 47671 net.cpp:155] Setting up eltwise11_relu11_0_split
I1217 22:25:16.787418 47671 net.cpp:163] Top shape: 48 256 14 14 (2408448)
I1217 22:25:16.787430 47671 net.cpp:163] Top shape: 48 256 14 14 (2408448)
I1217 22:25:16.787439 47671 layer_factory.hpp:76] Creating layer conv49
I1217 22:25:16.787457 47671 net.cpp:110] Creating Layer conv49
I1217 22:25:16.787469 47671 net.cpp:477] conv49 <- eltwise11_relu11_0_split_0
I1217 22:25:16.787484 47671 net.cpp:433] conv49 -> conv49
I1217 22:25:16.793218 47671 net.cpp:155] Setting up conv49
I1217 22:25:16.793241 47671 net.cpp:163] Top shape: 48 256 14 14 (2408448)
I1217 22:25:16.793256 47671 layer_factory.hpp:76] Creating layer bn49
I1217 22:25:16.793272 47671 net.cpp:110] Creating Layer bn49
I1217 22:25:16.793283 47671 net.cpp:477] bn49 <- conv49
I1217 22:25:16.793300 47671 net.cpp:433] bn49 -> bn49
I1217 22:25:16.793390 47671 net.cpp:155] Setting up bn49
I1217 22:25:16.793407 47671 net.cpp:163] Top shape: 48 256 14 14 (2408448)
I1217 22:25:16.793449 47671 layer_factory.hpp:76] Creating layer relu49
I1217 22:25:16.793467 47671 net.cpp:110] Creating Layer relu49
I1217 22:25:16.793496 47671 net.cpp:477] relu49 <- bn49
I1217 22:25:16.793510 47671 net.cpp:419] relu49 -> bn49 (in-place)
I1217 22:25:16.793587 47671 net.cpp:155] Setting up relu49
I1217 22:25:16.793603 47671 net.cpp:163] Top shape: 48 256 14 14 (2408448)
I1217 22:25:16.793614 47671 layer_factory.hpp:76] Creating layer conv410
I1217 22:25:16.793629 47671 net.cpp:110] Creating Layer conv410
I1217 22:25:16.793640 47671 net.cpp:477] conv410 <- bn49
I1217 22:25:16.793655 47671 net.cpp:433] conv410 -> conv410
I1217 22:25:16.799365 47671 net.cpp:155] Setting up conv410
I1217 22:25:16.799386 47671 net.cpp:163] Top shape: 48 256 14 14 (2408448)
I1217 22:25:16.799401 47671 layer_factory.hpp:76] Creating layer bn410
I1217 22:25:16.799417 47671 net.cpp:110] Creating Layer bn410
I1217 22:25:16.799428 47671 net.cpp:477] bn410 <- conv410
I1217 22:25:16.799442 47671 net.cpp:433] bn410 -> bn410
I1217 22:25:16.799527 47671 net.cpp:155] Setting up bn410
I1217 22:25:16.799548 47671 net.cpp:163] Top shape: 48 256 14 14 (2408448)
I1217 22:25:16.799564 47671 layer_factory.hpp:76] Creating layer relu410
I1217 22:25:16.799578 47671 net.cpp:110] Creating Layer relu410
I1217 22:25:16.799589 47671 net.cpp:477] relu410 <- bn410
I1217 22:25:16.799603 47671 net.cpp:419] relu410 -> bn410 (in-place)
I1217 22:25:16.799679 47671 net.cpp:155] Setting up relu410
I1217 22:25:16.799695 47671 net.cpp:163] Top shape: 48 256 14 14 (2408448)
I1217 22:25:16.799706 47671 layer_factory.hpp:76] Creating layer eltwise12
I1217 22:25:16.799721 47671 net.cpp:110] Creating Layer eltwise12
I1217 22:25:16.799732 47671 net.cpp:477] eltwise12 <- eltwise11_relu11_0_split_1
I1217 22:25:16.799746 47671 net.cpp:477] eltwise12 <- bn410
I1217 22:25:16.799757 47671 net.cpp:433] eltwise12 -> eltwise12
I1217 22:25:16.799772 47671 net.cpp:155] Setting up eltwise12
I1217 22:25:16.799785 47671 net.cpp:163] Top shape: 48 256 14 14 (2408448)
I1217 22:25:16.799795 47671 layer_factory.hpp:76] Creating layer relu12
I1217 22:25:16.799808 47671 net.cpp:110] Creating Layer relu12
I1217 22:25:16.799818 47671 net.cpp:477] relu12 <- eltwise12
I1217 22:25:16.799831 47671 net.cpp:419] relu12 -> eltwise12 (in-place)
I1217 22:25:16.800009 47671 net.cpp:155] Setting up relu12
I1217 22:25:16.800029 47671 net.cpp:163] Top shape: 48 256 14 14 (2408448)
I1217 22:25:16.800040 47671 layer_factory.hpp:76] Creating layer eltwise12_relu12_0_split
I1217 22:25:16.800053 47671 net.cpp:110] Creating Layer eltwise12_relu12_0_split
I1217 22:25:16.800063 47671 net.cpp:477] eltwise12_relu12_0_split <- eltwise12
I1217 22:25:16.800078 47671 net.cpp:433] eltwise12_relu12_0_split -> eltwise12_relu12_0_split_0
I1217 22:25:16.800094 47671 net.cpp:433] eltwise12_relu12_0_split -> eltwise12_relu12_0_split_1
I1217 22:25:16.800108 47671 net.cpp:433] eltwise12_relu12_0_split -> eltwise12_relu12_0_split_2
I1217 22:25:16.800123 47671 net.cpp:155] Setting up eltwise12_relu12_0_split
I1217 22:25:16.800138 47671 net.cpp:163] Top shape: 48 256 14 14 (2408448)
I1217 22:25:16.800149 47671 net.cpp:163] Top shape: 48 256 14 14 (2408448)
I1217 22:25:16.800160 47671 net.cpp:163] Top shape: 48 256 14 14 (2408448)
I1217 22:25:16.800170 47671 layer_factory.hpp:76] Creating layer conv411
I1217 22:25:16.800184 47671 net.cpp:110] Creating Layer conv411
I1217 22:25:16.800194 47671 net.cpp:477] conv411 <- eltwise12_relu12_0_split_0
I1217 22:25:16.800209 47671 net.cpp:433] conv411 -> conv411
I1217 22:25:16.805893 47671 net.cpp:155] Setting up conv411
I1217 22:25:16.805917 47671 net.cpp:163] Top shape: 48 256 14 14 (2408448)
I1217 22:25:16.805930 47671 layer_factory.hpp:76] Creating layer bn411
I1217 22:25:16.805948 47671 net.cpp:110] Creating Layer bn411
I1217 22:25:16.805959 47671 net.cpp:477] bn411 <- conv411
I1217 22:25:16.805973 47671 net.cpp:433] bn411 -> bn411
I1217 22:25:16.806064 47671 net.cpp:155] Setting up bn411
I1217 22:25:16.806082 47671 net.cpp:163] Top shape: 48 256 14 14 (2408448)
I1217 22:25:16.806098 47671 layer_factory.hpp:76] Creating layer relu411
I1217 22:25:16.806112 47671 net.cpp:110] Creating Layer relu411
I1217 22:25:16.806138 47671 net.cpp:477] relu411 <- bn411
I1217 22:25:16.806156 47671 net.cpp:419] relu411 -> bn411 (in-place)
I1217 22:25:16.806234 47671 net.cpp:155] Setting up relu411
I1217 22:25:16.806251 47671 net.cpp:163] Top shape: 48 256 14 14 (2408448)
I1217 22:25:16.806262 47671 layer_factory.hpp:76] Creating layer conv412
I1217 22:25:16.806278 47671 net.cpp:110] Creating Layer conv412
I1217 22:25:16.806289 47671 net.cpp:477] conv412 <- bn411
I1217 22:25:16.806303 47671 net.cpp:433] conv412 -> conv412
I1217 22:25:16.812029 47671 net.cpp:155] Setting up conv412
I1217 22:25:16.812053 47671 net.cpp:163] Top shape: 48 256 14 14 (2408448)
I1217 22:25:16.812068 47671 layer_factory.hpp:76] Creating layer bn412
I1217 22:25:16.812086 47671 net.cpp:110] Creating Layer bn412
I1217 22:25:16.812122 47671 net.cpp:477] bn412 <- conv412
I1217 22:25:16.812136 47671 net.cpp:433] bn412 -> bn412
I1217 22:25:16.812225 47671 net.cpp:155] Setting up bn412
I1217 22:25:16.812242 47671 net.cpp:163] Top shape: 48 256 14 14 (2408448)
I1217 22:25:16.812258 47671 layer_factory.hpp:76] Creating layer relu412
I1217 22:25:16.812274 47671 net.cpp:110] Creating Layer relu412
I1217 22:25:16.812285 47671 net.cpp:477] relu412 <- bn412
I1217 22:25:16.812299 47671 net.cpp:419] relu412 -> bn412 (in-place)
I1217 22:25:16.812374 47671 net.cpp:155] Setting up relu412
I1217 22:25:16.812391 47671 net.cpp:163] Top shape: 48 256 14 14 (2408448)
I1217 22:25:16.812402 47671 layer_factory.hpp:76] Creating layer eltwise13
I1217 22:25:16.812414 47671 net.cpp:110] Creating Layer eltwise13
I1217 22:25:16.812424 47671 net.cpp:477] eltwise13 <- eltwise12_relu12_0_split_1
I1217 22:25:16.812438 47671 net.cpp:477] eltwise13 <- bn412
I1217 22:25:16.812451 47671 net.cpp:433] eltwise13 -> eltwise13
I1217 22:25:16.812468 47671 net.cpp:155] Setting up eltwise13
I1217 22:25:16.812480 47671 net.cpp:163] Top shape: 48 256 14 14 (2408448)
I1217 22:25:16.812490 47671 layer_factory.hpp:76] Creating layer relu13
I1217 22:25:16.812502 47671 net.cpp:110] Creating Layer relu13
I1217 22:25:16.812513 47671 net.cpp:477] relu13 <- eltwise13
I1217 22:25:16.812525 47671 net.cpp:419] relu13 -> eltwise13 (in-place)
I1217 22:25:16.812594 47671 net.cpp:155] Setting up relu13
I1217 22:25:16.812610 47671 net.cpp:163] Top shape: 48 256 14 14 (2408448)
I1217 22:25:16.812621 47671 layer_factory.hpp:76] Creating layer relu13_p
I1217 22:25:16.812635 47671 net.cpp:110] Creating Layer relu13_p
I1217 22:25:16.812645 47671 net.cpp:477] relu13_p <- eltwise12_relu12_0_split_2
I1217 22:25:16.812661 47671 net.cpp:433] relu13_p -> relu13_p
I1217 22:25:16.814468 47671 net.cpp:155] Setting up relu13_p
I1217 22:25:16.814489 47671 net.cpp:163] Top shape: 48 512 7 7 (1204224)
I1217 22:25:16.814504 47671 layer_factory.hpp:76] Creating layer relu13_bn
I1217 22:25:16.814539 47671 net.cpp:110] Creating Layer relu13_bn
I1217 22:25:16.814551 47671 net.cpp:477] relu13_bn <- relu13_p
I1217 22:25:16.814565 47671 net.cpp:433] relu13_bn -> relu13_bn
I1217 22:25:16.814657 47671 net.cpp:155] Setting up relu13_bn
I1217 22:25:16.814674 47671 net.cpp:163] Top shape: 48 512 7 7 (1204224)
I1217 22:25:16.814692 47671 layer_factory.hpp:76] Creating layer conv51
I1217 22:25:16.814708 47671 net.cpp:110] Creating Layer conv51
I1217 22:25:16.814720 47671 net.cpp:477] conv51 <- eltwise13
I1217 22:25:16.814735 47671 net.cpp:433] conv51 -> conv51
I1217 22:25:16.825625 47671 net.cpp:155] Setting up conv51
I1217 22:25:16.825649 47671 net.cpp:163] Top shape: 48 512 7 7 (1204224)
I1217 22:25:16.825664 47671 layer_factory.hpp:76] Creating layer bn51
I1217 22:25:16.825680 47671 net.cpp:110] Creating Layer bn51
I1217 22:25:16.825691 47671 net.cpp:477] bn51 <- conv51
I1217 22:25:16.825707 47671 net.cpp:433] bn51 -> bn51
I1217 22:25:16.825800 47671 net.cpp:155] Setting up bn51
I1217 22:25:16.825817 47671 net.cpp:163] Top shape: 48 512 7 7 (1204224)
I1217 22:25:16.825834 47671 layer_factory.hpp:76] Creating layer relu51
I1217 22:25:16.825846 47671 net.cpp:110] Creating Layer relu51
I1217 22:25:16.825857 47671 net.cpp:477] relu51 <- bn51
I1217 22:25:16.825891 47671 net.cpp:419] relu51 -> bn51 (in-place)
I1217 22:25:16.826079 47671 net.cpp:155] Setting up relu51
I1217 22:25:16.826098 47671 net.cpp:163] Top shape: 48 512 7 7 (1204224)
I1217 22:25:16.826109 47671 layer_factory.hpp:76] Creating layer conv52
I1217 22:25:16.826124 47671 net.cpp:110] Creating Layer conv52
I1217 22:25:16.826135 47671 net.cpp:477] conv52 <- bn51
I1217 22:25:16.826148 47671 net.cpp:433] conv52 -> conv52
I1217 22:25:16.847636 47671 net.cpp:155] Setting up conv52
I1217 22:25:16.847677 47671 net.cpp:163] Top shape: 48 512 7 7 (1204224)
I1217 22:25:16.847694 47671 layer_factory.hpp:76] Creating layer bn52
I1217 22:25:16.847766 47671 net.cpp:110] Creating Layer bn52
I1217 22:25:16.847790 47671 net.cpp:477] bn52 <- conv52
I1217 22:25:16.847817 47671 net.cpp:433] bn52 -> bn52
I1217 22:25:16.847950 47671 net.cpp:155] Setting up bn52
I1217 22:25:16.847970 47671 net.cpp:163] Top shape: 48 512 7 7 (1204224)
I1217 22:25:16.847990 47671 layer_factory.hpp:76] Creating layer relu52
I1217 22:25:16.848011 47671 net.cpp:110] Creating Layer relu52
I1217 22:25:16.848024 47671 net.cpp:477] relu52 <- bn52
I1217 22:25:16.848040 47671 net.cpp:419] relu52 -> bn52 (in-place)
I1217 22:25:16.848125 47671 net.cpp:155] Setting up relu52
I1217 22:25:16.848145 47671 net.cpp:163] Top shape: 48 512 7 7 (1204224)
I1217 22:25:16.848158 47671 layer_factory.hpp:76] Creating layer eltwise14
I1217 22:25:16.848176 47671 net.cpp:110] Creating Layer eltwise14
I1217 22:25:16.848191 47671 net.cpp:477] eltwise14 <- relu13_bn
I1217 22:25:16.848206 47671 net.cpp:477] eltwise14 <- bn52
I1217 22:25:16.848225 47671 net.cpp:433] eltwise14 -> eltwise14
I1217 22:25:16.848247 47671 net.cpp:155] Setting up eltwise14
I1217 22:25:16.848261 47671 net.cpp:163] Top shape: 48 512 7 7 (1204224)
I1217 22:25:16.848275 47671 layer_factory.hpp:76] Creating layer relu14
I1217 22:25:16.848294 47671 net.cpp:110] Creating Layer relu14
I1217 22:25:16.848307 47671 net.cpp:477] relu14 <- eltwise14
I1217 22:25:16.848323 47671 net.cpp:419] relu14 -> eltwise14 (in-place)
I1217 22:25:16.848398 47671 net.cpp:155] Setting up relu14
I1217 22:25:16.848417 47671 net.cpp:163] Top shape: 48 512 7 7 (1204224)
I1217 22:25:16.848433 47671 layer_factory.hpp:76] Creating layer eltwise14_relu14_0_split
I1217 22:25:16.848448 47671 net.cpp:110] Creating Layer eltwise14_relu14_0_split
I1217 22:25:16.848462 47671 net.cpp:477] eltwise14_relu14_0_split <- eltwise14
I1217 22:25:16.848479 47671 net.cpp:433] eltwise14_relu14_0_split -> eltwise14_relu14_0_split_0
I1217 22:25:16.848497 47671 net.cpp:433] eltwise14_relu14_0_split -> eltwise14_relu14_0_split_1
I1217 22:25:16.848516 47671 net.cpp:155] Setting up eltwise14_relu14_0_split
I1217 22:25:16.848533 47671 net.cpp:163] Top shape: 48 512 7 7 (1204224)
I1217 22:25:16.848548 47671 net.cpp:163] Top shape: 48 512 7 7 (1204224)
I1217 22:25:16.848562 47671 layer_factory.hpp:76] Creating layer conv53
I1217 22:25:16.848584 47671 net.cpp:110] Creating Layer conv53
I1217 22:25:16.848598 47671 net.cpp:477] conv53 <- eltwise14_relu14_0_split_0
I1217 22:25:16.848618 47671 net.cpp:433] conv53 -> conv53
I1217 22:25:16.870211 47671 net.cpp:155] Setting up conv53
I1217 22:25:16.870254 47671 net.cpp:163] Top shape: 48 512 7 7 (1204224)
I1217 22:25:16.870271 47671 layer_factory.hpp:76] Creating layer bn53
I1217 22:25:16.870292 47671 net.cpp:110] Creating Layer bn53
I1217 22:25:16.870306 47671 net.cpp:477] bn53 <- conv53
I1217 22:25:16.870322 47671 net.cpp:433] bn53 -> bn53
I1217 22:25:16.870421 47671 net.cpp:155] Setting up bn53
I1217 22:25:16.870441 47671 net.cpp:163] Top shape: 48 512 7 7 (1204224)
I1217 22:25:16.870458 47671 layer_factory.hpp:76] Creating layer relu53
I1217 22:25:16.870473 47671 net.cpp:110] Creating Layer relu53
I1217 22:25:16.870484 47671 net.cpp:477] relu53 <- bn53
I1217 22:25:16.870496 47671 net.cpp:419] relu53 -> bn53 (in-place)
I1217 22:25:16.870692 47671 net.cpp:155] Setting up relu53
I1217 22:25:16.870712 47671 net.cpp:163] Top shape: 48 512 7 7 (1204224)
I1217 22:25:16.870723 47671 layer_factory.hpp:76] Creating layer conv54
I1217 22:25:16.870769 47671 net.cpp:110] Creating Layer conv54
I1217 22:25:16.870780 47671 net.cpp:477] conv54 <- bn53
I1217 22:25:16.870801 47671 net.cpp:433] conv54 -> conv54
I1217 22:25:16.892223 47671 net.cpp:155] Setting up conv54
I1217 22:25:16.892266 47671 net.cpp:163] Top shape: 48 512 7 7 (1204224)
I1217 22:25:16.892283 47671 layer_factory.hpp:76] Creating layer bn54
I1217 22:25:16.892333 47671 net.cpp:110] Creating Layer bn54
I1217 22:25:16.892355 47671 net.cpp:477] bn54 <- conv54
I1217 22:25:16.892429 47671 net.cpp:433] bn54 -> bn54
I1217 22:25:16.892565 47671 net.cpp:155] Setting up bn54
I1217 22:25:16.892596 47671 net.cpp:163] Top shape: 48 512 7 7 (1204224)
I1217 22:25:16.892637 47671 layer_factory.hpp:76] Creating layer relu54
I1217 22:25:16.892668 47671 net.cpp:110] Creating Layer relu54
I1217 22:25:16.892691 47671 net.cpp:477] relu54 <- bn54
I1217 22:25:16.892715 47671 net.cpp:419] relu54 -> bn54 (in-place)
I1217 22:25:16.892820 47671 net.cpp:155] Setting up relu54
I1217 22:25:16.892844 47671 net.cpp:163] Top shape: 48 512 7 7 (1204224)
I1217 22:25:16.892859 47671 layer_factory.hpp:76] Creating layer eltwise15
I1217 22:25:16.892877 47671 net.cpp:110] Creating Layer eltwise15
I1217 22:25:16.892892 47671 net.cpp:477] eltwise15 <- eltwise14_relu14_0_split_1
I1217 22:25:16.892910 47671 net.cpp:477] eltwise15 <- bn54
I1217 22:25:16.892926 47671 net.cpp:433] eltwise15 -> eltwise15
I1217 22:25:16.892947 47671 net.cpp:155] Setting up eltwise15
I1217 22:25:16.892962 47671 net.cpp:163] Top shape: 48 512 7 7 (1204224)
I1217 22:25:16.892977 47671 layer_factory.hpp:76] Creating layer relu15
I1217 22:25:16.892998 47671 net.cpp:110] Creating Layer relu15
I1217 22:25:16.893013 47671 net.cpp:477] relu15 <- eltwise15
I1217 22:25:16.893030 47671 net.cpp:419] relu15 -> eltwise15 (in-place)
I1217 22:25:16.893107 47671 net.cpp:155] Setting up relu15
I1217 22:25:16.893126 47671 net.cpp:163] Top shape: 48 512 7 7 (1204224)
I1217 22:25:16.893143 47671 layer_factory.hpp:76] Creating layer eltwise15_relu15_0_split
I1217 22:25:16.893159 47671 net.cpp:110] Creating Layer eltwise15_relu15_0_split
I1217 22:25:16.893173 47671 net.cpp:477] eltwise15_relu15_0_split <- eltwise15
I1217 22:25:16.893192 47671 net.cpp:433] eltwise15_relu15_0_split -> eltwise15_relu15_0_split_0
I1217 22:25:16.893209 47671 net.cpp:433] eltwise15_relu15_0_split -> eltwise15_relu15_0_split_1
I1217 22:25:16.893229 47671 net.cpp:155] Setting up eltwise15_relu15_0_split
I1217 22:25:16.893245 47671 net.cpp:163] Top shape: 48 512 7 7 (1204224)
I1217 22:25:16.893260 47671 net.cpp:163] Top shape: 48 512 7 7 (1204224)
I1217 22:25:16.893273 47671 layer_factory.hpp:76] Creating layer conv55
I1217 22:25:16.893301 47671 net.cpp:110] Creating Layer conv55
I1217 22:25:16.893314 47671 net.cpp:477] conv55 <- eltwise15_relu15_0_split_0
I1217 22:25:16.893345 47671 net.cpp:433] conv55 -> conv55
I1217 22:25:16.914850 47671 net.cpp:155] Setting up conv55
I1217 22:25:16.914894 47671 net.cpp:163] Top shape: 48 512 7 7 (1204224)
I1217 22:25:16.914912 47671 layer_factory.hpp:76] Creating layer bn55
I1217 22:25:16.914963 47671 net.cpp:110] Creating Layer bn55
I1217 22:25:16.914986 47671 net.cpp:477] bn55 <- conv55
I1217 22:25:16.915015 47671 net.cpp:433] bn55 -> bn55
I1217 22:25:16.915124 47671 net.cpp:155] Setting up bn55
I1217 22:25:16.915144 47671 net.cpp:163] Top shape: 48 512 7 7 (1204224)
I1217 22:25:16.915174 47671 layer_factory.hpp:76] Creating layer relu55
I1217 22:25:16.915189 47671 net.cpp:110] Creating Layer relu55
I1217 22:25:16.915204 47671 net.cpp:477] relu55 <- bn55
I1217 22:25:16.915222 47671 net.cpp:419] relu55 -> bn55 (in-place)
I1217 22:25:16.915307 47671 net.cpp:155] Setting up relu55
I1217 22:25:16.915324 47671 net.cpp:163] Top shape: 48 512 7 7 (1204224)
I1217 22:25:16.915339 47671 layer_factory.hpp:76] Creating layer conv56
I1217 22:25:16.915361 47671 net.cpp:110] Creating Layer conv56
I1217 22:25:16.915375 47671 net.cpp:477] conv56 <- bn55
I1217 22:25:16.915393 47671 net.cpp:433] conv56 -> conv56
I1217 22:25:16.937057 47671 net.cpp:155] Setting up conv56
I1217 22:25:16.937136 47671 net.cpp:163] Top shape: 48 512 7 7 (1204224)
I1217 22:25:16.937156 47671 layer_factory.hpp:76] Creating layer bn56
I1217 22:25:16.937201 47671 net.cpp:110] Creating Layer bn56
I1217 22:25:16.937216 47671 net.cpp:477] bn56 <- conv56
I1217 22:25:16.937247 47671 net.cpp:433] bn56 -> bn56
I1217 22:25:16.937361 47671 net.cpp:155] Setting up bn56
I1217 22:25:16.937381 47671 net.cpp:163] Top shape: 48 512 7 7 (1204224)
I1217 22:25:16.937412 47671 layer_factory.hpp:76] Creating layer relu56
I1217 22:25:16.937428 47671 net.cpp:110] Creating Layer relu56
I1217 22:25:16.937443 47671 net.cpp:477] relu56 <- bn56
I1217 22:25:16.937461 47671 net.cpp:419] relu56 -> bn56 (in-place)
I1217 22:25:16.937659 47671 net.cpp:155] Setting up relu56
I1217 22:25:16.937681 47671 net.cpp:163] Top shape: 48 512 7 7 (1204224)
I1217 22:25:16.937697 47671 layer_factory.hpp:76] Creating layer eltwise16
I1217 22:25:16.937717 47671 net.cpp:110] Creating Layer eltwise16
I1217 22:25:16.937731 47671 net.cpp:477] eltwise16 <- eltwise15_relu15_0_split_1
I1217 22:25:16.937747 47671 net.cpp:477] eltwise16 <- bn56
I1217 22:25:16.937764 47671 net.cpp:433] eltwise16 -> eltwise16
I1217 22:25:16.937784 47671 net.cpp:155] Setting up eltwise16
I1217 22:25:16.937799 47671 net.cpp:163] Top shape: 48 512 7 7 (1204224)
I1217 22:25:16.937814 47671 layer_factory.hpp:76] Creating layer relu16
I1217 22:25:16.937832 47671 net.cpp:110] Creating Layer relu16
I1217 22:25:16.937849 47671 net.cpp:477] relu16 <- eltwise16
I1217 22:25:16.937867 47671 net.cpp:419] relu16 -> eltwise16 (in-place)
I1217 22:25:16.937943 47671 net.cpp:155] Setting up relu16
I1217 22:25:16.937961 47671 net.cpp:163] Top shape: 48 512 7 7 (1204224)
I1217 22:25:16.937976 47671 layer_factory.hpp:76] Creating layer pool5
I1217 22:25:16.937994 47671 net.cpp:110] Creating Layer pool5
I1217 22:25:16.938007 47671 net.cpp:477] pool5 <- eltwise16
I1217 22:25:16.938024 47671 net.cpp:433] pool5 -> pool5
I1217 22:25:16.938107 47671 net.cpp:155] Setting up pool5
I1217 22:25:16.938127 47671 net.cpp:163] Top shape: 48 512 1 1 (24576)
I1217 22:25:16.938140 47671 layer_factory.hpp:76] Creating layer ip1
I1217 22:25:16.938171 47671 net.cpp:110] Creating Layer ip1
I1217 22:25:16.938185 47671 net.cpp:477] ip1 <- pool5
I1217 22:25:16.938205 47671 net.cpp:433] ip1 -> ip1
I1217 22:25:16.986933 47671 net.cpp:155] Setting up ip1
I1217 22:25:16.986987 47671 net.cpp:163] Top shape: 48 10575 (507600)
I1217 22:25:16.987007 47671 layer_factory.hpp:76] Creating layer ip1_ip1_0_split
I1217 22:25:16.987087 47671 net.cpp:110] Creating Layer ip1_ip1_0_split
I1217 22:25:16.987118 47671 net.cpp:477] ip1_ip1_0_split <- ip1
I1217 22:25:16.987159 47671 net.cpp:433] ip1_ip1_0_split -> ip1_ip1_0_split_0
I1217 22:25:16.987195 47671 net.cpp:433] ip1_ip1_0_split -> ip1_ip1_0_split_1
I1217 22:25:16.987233 47671 net.cpp:155] Setting up ip1_ip1_0_split
I1217 22:25:16.987263 47671 net.cpp:163] Top shape: 48 10575 (507600)
I1217 22:25:16.987279 47671 net.cpp:163] Top shape: 48 10575 (507600)
I1217 22:25:16.987293 47671 layer_factory.hpp:76] Creating layer loss
I1217 22:25:16.987315 47671 net.cpp:110] Creating Layer loss
I1217 22:25:16.987330 47671 net.cpp:477] loss <- ip1_ip1_0_split_0
I1217 22:25:16.987344 47671 net.cpp:477] loss <- label_data_1_split_0
I1217 22:25:16.987356 47671 net.cpp:433] loss -> loss
I1217 22:25:16.987399 47671 layer_factory.hpp:76] Creating layer loss
…
I1217 22:25:16.997627 47671 net.cpp:339] The NetState phase (1) differed from the phase (0) specified by a rule in layer data
I1217 22:25:16.997705 47671 net.cpp:339] The NetState phase (1) differed from the phase (0) specified by a rule in layer loss
I1217 22:25:16.998306 47671 net.cpp:50] Initializing net from parameters: 
name: "RsdNet34"
state {
  phase: TEST
}
layer {
  name: "data"
  type: "Data"
  top: "data"
  top: "label"
  include {
    phase: TEST
  }
  transform_param {
    scale: 0.0039215689
    mirror: true
    mean_file: "./mean_224gray.binaryproto"
  }
  data_param {
    source: "./test_224gray_lmdb"
    batch_size: 36
    backend: LMDB
  }
}
layer {
  name: "conv01"
  type: "Convolution"
  bottom: "data"
  top: "conv01"
  param {
    lr_mult: 1
    decay_mult: 1
  }
  param {
    lr_mult: 2
    decay_mult: 0
  }
  convolution_param {
    num_output: 64
    pad: 3
    kernel_size: 7
    stride: 2
    weight_filler {
      type: "xavier"
    }
    bias_filler {
      type: "constant"
    }
  }
}
layer {
  name: "bn01"
  type: "BatchNorm"
  bottom: "conv01"
  top: "bn01"
  batch_norm_param {
    use_global_stats: false
  }
}
layer {
  name: "relu01"
  type: "ReLU"
  bottom: "bn01"
  top: "bn01"
}
layer {
  name: "pool1"
  type: "Pooling"
  bottom: "bn01"
  top: "pool1"
  pooling_param {
    pool: MAX
    kernel_size: 3
    stride: 2
  }
}
layer {
  name: "conv21"
  type: "Convolution"
  bottom: "pool1"
  top: "conv21"
  param {
    lr_mult: 1
    decay_mult: 1
  }
  param {
    lr_mult: 2
    decay_mult: 0
  }
  convolution_param {
    num_output: 64
    pad: 1
    kernel_size: 3
    stride: 1
    weight_filler {
      type: "xavier"
    }
    bias_filler {
      type: "constant"
    }
  }
}
layer {
  name: "bn21"
  type: "BatchNorm"
  bottom: "conv21"
  top: "bn21"
  batch_norm_param {
    use_global_stats: false
  }
}
layer {
  name: "relu21"
  type: "ReLU"
  bottom: "bn21"
  top: "bn21"
}
layer {
  name: "conv22"
  type: "Convolution"
  bottom: "bn21"
  top: "conv22"
  param {
    lr_mult: 1
    decay_mult: 1
  }
  param {
    lr_mult: 2
    decay_mult: 0
  }
  convolution_param {
    num_output: 64
    pad: 1
    kernel_size: 3
    stride: 1
    weight_filler {
      type: "xavier"
    }
    bias_filler {
      type: "constant"
    }
  }
}
layer {
  name: "bn22"
  type: "BatchNorm"
  bottom: "conv22"
  top: "bn22"
  batch_norm_param {
    use_global_stats: false
  }
}
layer {
  name: "relu22"
  type: "ReLU"
  bottom: "bn22"
  top: "bn22"
}
layer {
  name: "eltwise1"
  type: "Eltwise"
  bottom: "pool1"
  bottom: "bn22"
  top: "eltwise1"
  eltwise_param {
    operation: SUM
  }
}
layer {
  name: "relu1"
  type: "ReLU"
  bottom: "eltwise1"
  top: "eltwise1"
}
layer {
  name: "conv23"
  type: "Convolution"
  bottom: "eltwise1"
  top: "conv23"
  param {
    lr_mult: 1
    decay_mult: 1
  }
  param {
    lr_mult: 2
    decay_mult: 0
  }
  convolution_param {
    num_output: 64
    pad: 1
    kernel_size: 3
    stride: 1
    weight_filler {
      type: "xavier"
    }
    bias_filler {
      type: "constant"
    }
  }
}
layer {
  name: "bn23"
  type: "BatchNorm"
  bottom: "conv23"
  top: "bn23"
  batch_norm_param {
    use_global_stats: false
  }
}
layer {
  name: "relu23"
  type: "ReLU"
  bottom: "bn23"
  top: "bn23"
}
layer {
  name: "conv24"
  type: "Convolution"
  bottom: "bn23"
  top: "conv24"
  param {
    lr_mult: 1
    decay_mult: 1
  }
  param {
    lr_mult: 2
    decay_mult: 0
  }
  convolution_param {
    num_output: 64
    pad: 1
    kernel_size: 3
    stride: 1
    weight_filler {
      type: "xavier"
    }
    bias_filler {
      type: "constant"
    }
  }
}
layer {
  name: "bn24"
  type: "BatchNorm"
  bottom: "conv24"
  top: "bn24"
  batch_norm_param {
    use_global_stats: false
  }
}
layer {
  name: "relu24"
  type: "ReLU"
  bottom: "bn24"
  top: "bn24"
}
layer {
  name: "eltwise2"
  type: "Eltwise"
  bottom: "eltwise1"
  bottom: "bn24"
  top: "eltwise2"
  eltwise_param {
    operation: SUM
  }
}
layer {
  name: "relu2"
  type: "ReLU"
  bottom: "eltwise2"
  top: "eltwise2"
}
layer {
  name: "conv25"
  type: "Convolution"
  bottom: "bn24"
  top: "conv25"
  param {
    lr_mult: 1
    decay_mult: 1
  }
  param {
    lr_mult: 2
    decay_mult: 0
  }
  convolution_param {
    num_output: 64
    pad: 1
    kernel_size: 3
    stride: 1
    weight_filler {
      type: "xavier"
    }
    bias_filler {
      type: "constant"
    }
  }
}
layer {
  name: "bn25"
  type: "BatchNorm"
  bottom: "conv25"
  top: "bn25"
  batch_norm_param {
    use_global_stats: false
  }
}
layer {
  name: "relu25"
  type: "ReLU"
  bottom: "bn25"
  top: "bn25"
}
layer {
  name: "conv26"
  type: "Convolution"
  bottom: "bn25"
  top: "conv26"
  param {
    lr_mult: 1
    decay_mult: 1
  }
  param {
    lr_mult: 2
    decay_mult: 0
  }
  convolution_param {
    num_output: 64
    pad: 1
    kernel_size: 3
    stride: 1
    weight_filler {
      type: "xavier"
    }
    bias_filler {
      type: "constant"
    }
  }
}
layer {
  name: "bn26"
  type: "BatchNorm"
  bottom: "conv26"
  top: "bn26"
  batch_norm_param {
    use_global_stats: false
  }
}
layer {
  name: "relu26"
  type: "ReLU"
  bottom: "bn26"
  top: "bn26"
}
layer {
  name: "eltwise3"
  type: "Eltwise"
  bottom: "eltwise2"
  bottom: "bn26"
  top: "eltwise3"
  eltwise_param {
    operation: SUM
  }
}
layer {
  name: "relu3"
  type: "ReLU"
  bottom: "eltwise3"
  top: "eltwise3"
}
layer {
  name: "relu3_p"
  type: "Convolution"
  bottom: "eltwise3"
  top: "relu3_p"
  param {
    lr_mult: 1
    decay_mult: 1
  }
  param {
    lr_mult: 2
    decay_mult: 0
  }
  convolution_param {
    num_output: 128
    pad: 0
    kernel_size: 1
    stride: 2
    weight_filler {
      type: "xavier"
    }
    bias_filler {
      type: "constant"
    }
  }
}
layer {
  name: "relu3_bn"
  type: "BatchNorm"
  bottom: "relu3_p"
  top: "relu3_bn"
  batch_norm_param {
    use_global_stats: false
  }
}
layer {
  name: "conv31"
  type: "Convolution"
  bottom: "eltwise3"
  top: "conv31"
  param {
    lr_mult: 1
    decay_mult: 1
  }
  param {
    lr_mult: 2
    decay_mult: 0
  }
  convolution_param {
    num_output: 128
    pad: 1
    kernel_size: 3
    stride: 2
    weight_filler {
      type: "xavier"
    }
    bias_filler {
      type: "constant"
    }
  }
}
layer {
  name: "bn31"
  type: "BatchNorm"
  bottom: "conv31"
  top: "bn31"
  batch_norm_param {
    use_global_stats: false
  }
}
layer {
  name: "relu31"
  type: "ReLU"
  bottom: "bn31"
  top: "bn31"
}
layer {
  name: "conv32"
  type: "Convolution"
  bottom: "bn31"
  top: "conv32"
  param {
    lr_mult: 1
    decay_mult: 1
  }
  param {
    lr_mult: 2
    decay_mult: 0
  }
  convolution_param {
    num_output: 128
    pad: 1
    kernel_size: 3
    stride: 1
    weight_filler {
      type: "xavier"
    }
    bias_filler {
      type: "constant"
    }
  }
}
layer {
  name: "bn32"
  type: "BatchNorm"
  bottom: "conv32"
  top: "bn32"
  batch_norm_param {
    use_global_stats: false
  }
}
layer {
  name: "relu32"
  type: "ReLU"
  bottom: "bn32"
  top: "bn32"
}
layer {
  name: "eltwise4"
  type: "Eltwise"
  bottom: "relu3_bn"
  bottom: "bn32"
  top: "eltwise4"
  eltwise_param {
    operation: SUM
  }
}
layer {
  name: "relu4"
  type: "ReLU"
  bottom: "eltwise4"
  top: "eltwise4"
}
layer {
  name: "conv33"
  type: "Convolution"
  bottom: "eltwise4"
  top: "conv33"
  param {
    lr_mult: 1
    decay_mult: 1
  }
  param {
    lr_mult: 2
    decay_mult: 0
  }
  convolution_param {
    num_output: 128
    pad: 1
    kernel_size: 3
    stride: 1
    weight_filler {
      type: "xavier"
    }
    bias_filler {
      type: "constant"
    }
  }
}
layer {
  name: "bn33"
  type: "BatchNorm"
  bottom: "conv33"
  top: "bn33"
  batch_norm_param {
    use_global_stats: false
  }
}
layer {
  name: "relu33"
  type: "ReLU"
  bottom: "bn33"
  top: "bn33"
}
layer {
  name: "conv34"
  type: "Convolution"
  bottom: "bn33"
  top: "conv34"
  param {
    lr_mult: 1
    decay_mult: 1
  }
  param {
    lr_mult: 2
    decay_mult: 0
  }
  convolution_param {
    num_output: 128
    pad: 1
    kernel_size: 3
    stride: 1
    weight_filler {
      type: "xavier"
    }
    bias_filler {
      type: "constant"
    }
  }
}
layer {
  name: "bn34"
  type: "BatchNorm"
  bottom: "conv34"
  top: "bn34"
  batch_norm_param {
    use_global_stats: false
  }
}
layer {
  name: "relu34"
  type: "ReLU"
  bottom: "bn34"
  top: "bn34"
}
layer {
  name: "eltwise5"
  type: "Eltwise"
  bottom: "eltwise4"
  bottom: "bn34"
  top: "eltwise5"
  eltwise_param {
    operation: SUM
  }
}
layer {
  name: "relu5"
  type: "ReLU"
  bottom: "eltwise5"
  top: "eltwise5"
}
layer {
  name: "conv35"
  type: "Convolution"
  bottom: "eltwise5"
  top: "conv35"
  param {
    lr_mult: 1
    decay_mult: 1
  }
  param {
    lr_mult: 2
    decay_mult: 0
  }
  convolution_param {
    num_output: 128
    pad: 1
    kernel_size: 3
    stride: 1
    weight_filler {
      type: "xavier"
    }
    bias_filler {
      type: "constant"
    }
  }
}
layer {
  name: "bn35"
  type: "BatchNorm"
  bottom: "conv35"
  top: "bn35"
  batch_norm_param {
    use_global_stats: false
  }
}
layer {
  name: "relu35"
  type: "ReLU"
  bottom: "bn35"
  top: "bn35"
}
layer {
  name: "conv36"
  type: "Convolution"
  bottom: "bn35"
  top: "conv36"
  param {
    lr_mult: 1
    decay_mult: 1
  }
  param {
    lr_mult: 2
    decay_mult: 0
  }
  convolution_param {
    num_output: 128
    pad: 1
    kernel_size: 3
    stride: 1
    weight_filler {
      type: "xavier"
    }
    bias_filler {
      type: "constant"
    }
  }
}
layer {
  name: "bn36"
  type: "BatchNorm"
  bottom: "conv36"
  top: "bn36"
  batch_norm_param {
    use_global_stats: false
  }
}
layer {
  name: "relu36"
  type: "ReLU"
  bottom: "bn36"
  top: "bn36"
}
layer {
  name: "eltwise6"
  type: "Eltwise"
  bottom: "eltwise5"
  bottom: "bn36"
  top: "eltwise6"
  eltwise_param {
    operation: SUM
  }
}
layer {
  name: "relu6"
  type: "ReLU"
  bottom: "eltwise6"
  top: "eltwise6"
}
layer {
  name: "conv37"
  type: "Convolution"
  bottom: "eltwise6"
  top: "conv37"
  param {
    lr_mult: 1
    decay_mult: 1
  }
  param {
    lr_mult: 2
    decay_mult: 0
  }
  convolution_param {
    num_output: 128
    pad: 1
    kernel_size: 3
    stride: 1
    weight_filler {
      type: "xavier"
    }
    bias_filler {
      type: "constant"
    }
  }
}
layer {
  name: "bn37"
  type: "BatchNorm"
  bottom: "conv37"
  top: "bn37"
  batch_norm_param {
    use_global_stats: false
  }
}
layer {
  name: "relu37"
  type: "ReLU"
  bottom: "bn37"
  top: "bn37"
}
layer {
  name: "conv38"
  type: "Convolution"
  bottom: "bn37"
  top: "conv38"
  param {
    lr_mult: 1
    decay_mult: 1
  }
  param {
    lr_mult: 2
    decay_mult: 0
  }
  convolution_param {
    num_output: 128
    pad: 1
    kernel_size: 3
    stride: 1
    weight_filler {
      type: "xavier"
    }
    bias_filler {
      type: "constant"
    }
  }
}
layer {
  name: "bn38"
  type: "BatchNorm"
  bottom: "conv38"
  top: "bn38"
  batch_norm_param {
    use_global_stats: false
  }
}
layer {
  name: "relu38"
  type: "ReLU"
  bottom: "bn38"
  top: "bn38"
}
layer {
  name: "eltwise7"
  type: "Eltwise"
  bottom: "eltwise6"
  bottom: "bn38"
  top: "eltwise7"
  eltwise_param {
    operation: SUM
  }
}
layer {
  name: "relu7"
  type: "ReLU"
  bottom: "eltwise7"
  top: "eltwise7"
}
layer {
  name: "relu7_p"
  type: "Convolution"
  bottom: "eltwise7"
  top: "relu7_p"
  param {
    lr_mult: 1
    decay_mult: 1
  }
  param {
    lr_mult: 2
    decay_mult: 0
  }
  convolution_param {
    num_output: 256
    pad: 0
    kernel_size: 1
    stride: 2
    weight_filler {
      type: "xavier"
    }
    bias_filler {
      type: "constant"
    }
  }
}
layer {
  name: "relu7_bn"
  type: "BatchNorm"
  bottom: "relu7_p"
  top: "relu7_bn"
  batch_norm_param {
    use_global_stats: false
  }
}
layer {
  name: "conv41"
  type: "Convolution"
  bottom: "eltwise7"
  top: "conv41"
  param {
    lr_mult: 1
    decay_mult: 1
  }
  param {
    lr_mult: 2
    decay_mult: 0
  }
  convolution_param {
    num_output: 256
    pad: 1
    kernel_size: 3
    stride: 2
    weight_filler {
      type: "xavier"
    }
    bias_filler {
      type: "constant"
    }
  }
}
layer {
  name: "bn41"
  type: "BatchNorm"
  bottom: "conv41"
  top: "bn41"
  batch_norm_param {
    use_global_stats: false
  }
}
layer {
  name: "relu41"
  type: "ReLU"
  bottom: "bn41"
  top: "bn41"
}
layer {
  name: "conv42"
  type: "Convolution"
  bottom: "bn41"
  top: "conv42"
  param {
    lr_mult: 1
    decay_mult: 1
  }
  param {
    lr_mult: 2
    decay_mult: 0
  }
  convolution_param {
    num_output: 256
    pad: 1
    kernel_size: 3
    stride: 1
    weight_filler {
      type: "xavier"
    }
    bias_filler {
      type: "constant"
    }
  }
}
layer {
  name: "bn42"
  type: "BatchNorm"
  bottom: "conv42"
  top: "bn42"
  batch_norm_param {
    use_global_stats: false
  }
}
layer {
  name: "relu42"
  type: "ReLU"
  bottom: "bn42"
  top: "bn42"
}
layer {
  name: "eltwise8"
  type: "Eltwise"
  bottom: "relu7_bn"
  bottom: "bn42"
  top: "eltwise8"
  eltwise_param {
    operation: SUM
  }
}
layer {
  name: "relu8"
  type: "ReLU"
  bottom: "eltwise8"
  top: "eltwise8"
}
layer {
  name: "conv43"
  type: "Convolution"
  bottom: "eltwise8"
  top: "conv43"
  param {
    lr_mult: 1
    decay_mult: 1
  }
  param {
    lr_mult: 2
    decay_mult: 0
  }
  convolution_param {
    num_output: 256
    pad: 1
    kernel_size: 3
    stride: 1
    weight_filler {
      type: "xavier"
    }
    bias_filler {
      type: "constant"
    }
  }
}
layer {
  name: "bn43"
  type: "BatchNorm"
  bottom: "conv43"
  top: "bn43"
  batch_norm_param {
    use_global_stats: false
  }
}
layer {
  name: "relu43"
  type: "ReLU"
  bottom: "bn43"
  top: "bn43"
}
layer {
  name: "conv44"
  type: "Convolution"
  bottom: "bn43"
  top: "conv44"
  param {
    lr_mult: 1
    decay_mult: 1
  }
  param {
    lr_mult: 2
    decay_mult: 0
  }
  convolution_param {
    num_output: 256
    pad: 1
    kernel_size: 3
    stride: 1
    weight_filler {
      type: "xavier"
    }
    bias_filler {
      type: "constant"
    }
  }
}
layer {
  name: "bn44"
  type: "BatchNorm"
  bottom: "conv44"
  top: "bn44"
  batch_norm_param {
    use_global_stats: false
  }
}
layer {
  name: "relu44"
  type: "ReLU"
  bottom: "bn44"
  top: "bn44"
}
layer {
  name: "eltwise9"
  type: "Eltwise"
  bottom: "eltwise8"
  bottom: "bn44"
  top: "eltwise9"
  eltwise_param {
    operation: SUM
  }
}
layer {
  name: "relu9"
  type: "ReLU"
  bottom: "eltwise9"
  top: "eltwise9"
}
layer {
  name: "conv45"
  type: "Convolution"
  bottom: "eltwise9"
  top: "conv45"
  param {
    lr_mult: 1
    decay_mult: 1
  }
  param {
    lr_mult: 2
    decay_mult: 0
  }
  convolution_param {
    num_output: 256
    pad: 1
    kernel_size: 3
    stride: 1
    weight_filler {
      type: "xavier"
    }
    bias_filler {
      type: "constant"
    }
  }
}
layer {
  name: "bn45"
  type: "BatchNorm"
  bottom: "conv45"
  top: "bn45"
  batch_norm_param {
    use_global_stats: false
  }
}
layer {
  name: "relu45"
  type: "ReLU"
  bottom: "bn45"
  top: "bn45"
}
layer {
  name: "conv46"
  type: "Convolution"
  bottom: "bn45"
  top: "conv46"
  param {
    lr_mult: 1
    decay_mult: 1
  }
  param {
    lr_mult: 2
    decay_mult: 0
  }
  convolution_param {
    num_output: 256
    pad: 1
    kernel_size: 3
    stride: 1
    weight_filler {
      type: "xavier"
    }
    bias_filler {
      type: "constant"
    }
  }
}
layer {
  name: "bn46"
  type: "BatchNorm"
  bottom: "conv46"
  top: "bn46"
  batch_norm_param {
    use_global_stats: false
  }
}
layer {
  name: "relu46"
  type: "ReLU"
  bottom: "bn46"
  top: "bn46"
}
layer {
  name: "eltwise10"
  type: "Eltwise"
  bottom: "eltwise9"
  bottom: "bn46"
  top: "eltwise10"
  eltwise_param {
    operation: SUM
  }
}
layer {
  name: "relu10"
  type: "ReLU"
  bottom: "eltwise10"
  top: "eltwise10"
}
layer {
  name: "conv47"
  type: "Convolution"
  bottom: "eltwise10"
  top: "conv47"
  param {
    lr_mult: 1
    decay_mult: 1
  }
  param {
    lr_mult: 2
    decay_mult: 0
  }
  convolution_param {
    num_output: 256
    pad: 1
    kernel_size: 3
    stride: 1
    weight_filler {
      type: "xavier"
    }
    bias_filler {
      type: "constant"
    }
  }
}
layer {
  name: "bn47"
  type: "BatchNorm"
  bottom: "conv47"
  top: "bn47"
  batch_norm_param {
    use_global_stats: false
  }
}
layer {
  name: "relu47"
  type: "ReLU"
  bottom: "bn47"
  top: "bn47"
}
layer {
  name: "conv48"
  type: "Convolution"
  bottom: "bn47"
  top: "conv48"
  param {
    lr_mult: 1
    decay_mult: 1
  }
  param {
    lr_mult: 2
    decay_mult: 0
  }
  convolution_param {
    num_output: 256
    pad: 1
    kernel_size: 3
    stride: 1
    weight_filler {
      type: "xavier"
    }
    bias_filler {
      type: "constant"
    }
  }
}
layer {
  name: "bn48"
  type: "BatchNorm"
  bottom: "conv48"
  top: "bn48"
  batch_norm_param {
    use_global_stats: false
  }
}
layer {
  name: "relu48"
  type: "ReLU"
  bottom: "bn48"
  top: "bn48"
}
layer {
  name: "eltwise11"
  type: "Eltwise"
  bottom: "eltwise10"
  bottom: "bn48"
  top: "eltwise11"
  eltwise_param {
    operation: SUM
  }
}
layer {
  name: "relu11"
  type: "ReLU"
  bottom: "eltwise11"
  top: "eltwise11"
}
layer {
  name: "conv49"
  type: "Convolution"
  bottom: "eltwise11"
  top: "conv49"
  param {
    lr_mult: 1
    decay_mult: 1
  }
  param {
    lr_mult: 2
    decay_mult: 0
  }
  convolution_param {
    num_output: 256
    pad: 1
    kernel_size: 3
    stride: 1
    weight_filler {
      type: "xavier"
    }
    bias_filler {
      type: "constant"
    }
  }
}
layer {
  name: "bn49"
  type: "BatchNorm"
  bottom: "conv49"
  top: "bn49"
  batch_norm_param {
    use_global_stats: false
  }
}
layer {
  name: "relu49"
  type: "ReLU"
  bottom: "bn49"
  top: "bn49"
}
layer {
  name: "conv410"
  type: "Convolution"
  bottom: "bn49"
  top: "conv410"
  param {
    lr_mult: 1
    decay_mult: 1
  }
  param {
    lr_mult: 2
    decay_mult: 0
  }
  convolution_param {
    num_output: 256
    pad: 1
    kernel_size: 3
    stride: 1
    weight_filler {
      type: "xavier"
    }
    bias_filler {
      type: "constant"
    }
  }
}
layer {
  name: "bn410"
  type: "BatchNorm"
  bottom: "conv410"
  top: "bn410"
  batch_norm_param {
    use_global_stats: false
  }
}
layer {
  name: "relu410"
  type: "ReLU"
  bottom: "bn410"
  top: "bn410"
}
layer {
  name: "eltwise12"
  type: "Eltwise"
  bottom: "eltwise11"
  bottom: "bn410"
  top: "eltwise12"
  eltwise_param {
    operation: SUM
  }
}
layer {
  name: "relu12"
  type: "ReLU"
  bottom: "eltwise12"
  top: "eltwise12"
}
layer {
  name: "conv411"
  type: "Convolution"
  bottom: "eltwise12"
  top: "conv411"
  param {
    lr_mult: 1
    decay_mult: 1
  }
  param {
    lr_mult: 2
    decay_mult: 0
  }
  convolution_param {
    num_output: 256
    pad: 1
    kernel_size: 3
    stride: 1
    weight_filler {
      type: "xavier"
    }
    bias_filler {
      type: "constant"
    }
  }
}
layer {
  name: "bn411"
  type: "BatchNorm"
  bottom: "conv411"
  top: "bn411"
  batch_norm_param {
    use_global_stats: false
  }
}
layer {
  name: "relu411"
  type: "ReLU"
  bottom: "bn411"
  top: "bn411"
}
layer {
  name: "conv412"
  type: "Convolution"
  bottom: "bn411"
  top: "conv412"
  param {
    lr_mult: 1
    decay_mult: 1
  }
  param {
    lr_mult: 2
    decay_mult: 0
  }
  convolution_param {
    num_output: 256
    pad: 1
    kernel_size: 3
    stride: 1
    weight_filler {
      type: "xavier"
    }
    bias_filler {
      type: "constant"
    }
  }
}
layer {
  name: "bn412"
  type: "BatchNorm"
  bottom: "conv412"
  top: "bn412"
  batch_norm_param {
    use_global_stats: false
  }
}
layer {
  name: "relu412"
  type: "ReLU"
  bottom: "bn412"
  top: "bn412"
}
layer {
  name: "eltwise13"
  type: "Eltwise"
  bottom: "eltwise12"
  bottom: "bn412"
  top: "eltwise13"
  eltwise_param {
    operation: SUM
  }
}
layer {
  name: "relu13"
  type: "ReLU"
  bottom: "eltwise13"
  top: "eltwise13"
}
layer {
  name: "relu13_p"
  type: "Convolution"
  bottom: "eltwise12"
  top: "relu13_p"
  param {
    lr_mult: 1
    decay_mult: 1
  }
  param {
    lr_mult: 2
    decay_mult: 0
  }
  convolution_param {
    num_output: 512
    pad: 0
    kernel_size: 1
    stride: 2
    weight_filler {
      type: "xavier"
    }
    bias_filler {
      type: "constant"
    }
  }
}
layer {
  name: "relu13_bn"
  type: "BatchNorm"
  bottom: "relu13_p"
  top: "relu13_bn"
  batch_norm_param {
    use_global_stats: false
  }
}
layer {
  name: "conv51"
  type: "Convolution"
  bottom: "eltwise13"
  top: "conv51"
  param {
    lr_mult: 1
    decay_mult: 1
  }
  param {
    lr_mult: 2
    decay_mult: 0
  }
  convolution_param {
    num_output: 512
    pad: 1
    kernel_size: 3
    stride: 2
    weight_filler {
      type: "xavier"
    }
    bias_filler {
      type: "constant"
    }
  }
}
layer {
  name: "bn51"
  type: "BatchNorm"
  bottom: "conv51"
  top: "bn51"
  batch_norm_param {
    use_global_stats: false
  }
}
layer {
  name: "relu51"
  type: "ReLU"
  bottom: "bn51"
  top: "bn51"
}
layer {
  name: "conv52"
  type: "Convolution"
  bottom: "bn51"
  top: "conv52"
  param {
    lr_mult: 1
    decay_mult: 1
  }
  param {
    lr_mult: 2
    decay_mult: 0
  }
  convolution_param {
    num_output: 512
    pad: 1
    kernel_size: 3
    stride: 1
    weight_filler {
      type: "xavier"
    }
    bias_filler {
      type: "constant"
    }
  }
}
layer {
  name: "bn52"
  type: "BatchNorm"
  bottom: "conv52"
  top: "bn52"
  batch_norm_param {
    use_global_stats: false
  }
}
layer {
  name: "relu52"
  type: "ReLU"
  bottom: "bn52"
  top: "bn52"
}
layer {
  name: "eltwise14"
  type: "Eltwise"
  bottom: "relu13_bn"
  bottom: "bn52"
  top: "eltwise14"
  eltwise_param {
    operation: SUM
  }
}
layer {
  name: "relu14"
  type: "ReLU"
  bottom: "eltwise14"
  top: "eltwise14"
}
layer {
  name: "conv53"
  type: "Convolution"
  bottom: "eltwise14"
  top: "conv53"
  param {
    lr_mult: 1
    decay_mult: 1
  }
  param {
    lr_mult: 2
    decay_mult: 0
  }
  convolution_param {
    num_output: 512
    pad: 1
    kernel_size: 3
    stride: 1
    weight_filler {
      type: "xavier"
    }
    bias_filler {
      type: "constant"
    }
  }
}
layer {
  name: "bn53"
  type: "BatchNorm"
  bottom: "conv53"
  top: "bn53"
  batch_norm_param {
    use_global_stats: false
  }
}
layer {
  name: "relu53"
  type: "ReLU"
  bottom: "bn53"
  top: "bn53"
}
layer {
  name: "conv54"
  type: "Convolution"
  bottom: "bn53"
  top: "conv54"
  param {
    lr_mult: 1
    decay_mult: 1
  }
  param {
    lr_mult: 2
    decay_mult: 0
  }
  convolution_param {
    num_output: 512
    pad: 1
    kernel_size: 3
    stride: 1
    weight_filler {
      type: "xavier"
    }
    bias_filler {
      type: "constant"
    }
  }
}
layer {
  name: "bn54"
  type: "BatchNorm"
  bottom: "conv54"
  top: "bn54"
  batch_norm_param {
    use_global_stats: false
  }
}
layer {
  name: "relu54"
  type: "ReLU"
  bottom: "bn54"
  top: "bn54"
}
layer {
  name: "eltwise15"
  type: "Eltwise"
  bottom: "eltwise14"
  bottom: "bn54"
  top: "eltwise15"
  eltwise_param {
    operation: SUM
  }
}
layer {
  name: "relu15"
  type: "ReLU"
  bottom: "eltwise15"
  top: "eltwise15"
}
layer {
  name: "conv55"
  type: "Convolution"
  bottom: "eltwise15"
  top: "conv55"
  param {
    lr_mult: 1
    decay_mult: 1
  }
  param {
    lr_mult: 2
    decay_mult: 0
  }
  convolution_param {
    num_output: 512
    pad: 1
    kernel_size: 3
    stride: 1
    weight_filler {
      type: "xavier"
    }
    bias_filler {
      type: "constant"
    }
  }
}
layer {
  name: "bn55"
  type: "BatchNorm"
  bottom: "conv55"
  top: "bn55"
  batch_norm_param {
    use_global_stats: false
  }
}
layer {
  name: "relu55"
  type: "ReLU"
  bottom: "bn55"
  top: "bn55"
}
layer {
  name: "conv56"
  type: "Convolution"
  bottom: "bn55"
  top: "conv56"
  param {
    lr_mult: 1
    decay_mult: 1
  }
  param {
    lr_mult: 2
    decay_mult: 0
  }
  convolution_param {
    num_output: 512
    pad: 1
    kernel_size: 3
    stride: 1
    weight_filler {
      type: "xavier"
    }
    bias_filler {
      type: "constant"
    }
  }
}
layer {
  name: "bn56"
  type: "BatchNorm"
  bottom: "conv56"
  top: "bn56"
  batch_norm_param {
    use_global_stats: false
  }
}
layer {
  name: "relu56"
  type: "ReLU"
  bottom: "bn56"
  top: "bn56"
}
layer {
  name: "eltwise16"
  type: "Eltwise"
  bottom: "eltwise15"
  bottom: "bn56"
  top: "eltwise16"
  eltwise_param {
    operation: SUM
  }
}
layer {
  name: "relu16"
  type: "ReLU"
  bottom: "eltwise16"
  top: "eltwise16"
}
layer {
  name: "pool5"
  type: "Pooling"
  bottom: "eltwise16"
  top: "pool5"
  pooling_param {
    pool: AVE
    kernel_size: 7
    stride: 1
  }
}
layer {
  name: "ip1"
  type: "InnerProduct"
  bottom: "pool5"
  top: "ip1"
  param {
    lr_mult: 1
    decay_mult: 1
  }
  param {
    lr_mult: 2
    decay_mult: 0
  }
  inner_product_param {
    num_output: 10575
    weight_filler {
      type: "xavier"
    }
    bias_filler {
      type: "constant"
    }
  }
}
layer {
  name: "accuracy"
  type: "Accuracy"
  bottom: "ip1"
  bottom: "label"
  top: "accuracy"
}
I1217 22:25:17.050554 47671 layer_factory.hpp:76] Creating layer data
I1217 22:25:17.050668 47671 net.cpp:110] Creating Layer data
I1217 22:25:17.050688 47671 net.cpp:433] data -> data
I1217 22:25:17.050707 47671 net.cpp:433] data -> label
I1217 22:25:17.050726 47671 data_transformer.cpp:23] Loading mean file from: ./mean_224gray.binaryproto
I1217 22:25:17.054425 47676 db_lmdb.cpp:22] Opened lmdb ./test_224gray_lmdb
I1217 22:25:17.054729 47671 data_layer.cpp:44] output data size: 36,1,224,224
I1217 22:25:17.075232 47671 net.cpp:155] Setting up data
I1217 22:25:17.075287 47671 net.cpp:163] Top shape: 36 1 224 224 (1806336)
I1217 22:25:17.075302 47671 net.cpp:163] Top shape: 36 (36)
I1217 22:25:17.075320 47671 layer_factory.hpp:76] Creating layer conv01
I1217 22:25:17.075345 47671 net.cpp:110] Creating Layer conv01
I1217 22:25:17.075357 47671 net.cpp:477] conv01 <- data
I1217 22:25:17.075376 47671 net.cpp:433] conv01 -> conv01
I1217 22:25:17.075916 47671 net.cpp:155] Setting up conv01
I1217 22:25:17.075937 47671 net.cpp:163] Top shape: 36 64 112 112 (28901376)
I1217 22:25:17.075963 47671 layer_factory.hpp:76] Creating layer bn01
I1217 22:25:17.075981 47671 net.cpp:110] Creating Layer bn01
I1217 22:25:17.075992 47671 net.cpp:477] bn01 <- conv01
I1217 22:25:17.076007 47671 net.cpp:433] bn01 -> bn01
I1217 22:25:17.077195 47671 net.cpp:155] Setting up bn01
I1217 22:25:17.077224 47671 net.cpp:163] Top shape: 36 64 112 112 (28901376)
I1217 22:25:17.077246 47671 layer_factory.hpp:76] Creating layer relu01
I1217 22:25:17.077265 47671 net.cpp:110] Creating Layer relu01
I1217 22:25:17.077275 47671 net.cpp:477] relu01 <- bn01
I1217 22:25:17.077288 47671 net.cpp:419] relu01 -> bn01 (in-place)
I1217 22:25:17.077502 47671 net.cpp:155] Setting up relu01
I1217 22:25:17.077523 47671 net.cpp:163] Top shape: 36 64 112 112 (28901376)
I1217 22:25:17.077535 47671 layer_factory.hpp:76] Creating layer pool1
I1217 22:25:17.077553 47671 net.cpp:110] Creating Layer pool1
I1217 22:25:17.077564 47671 net.cpp:477] pool1 <- bn01
I1217 22:25:17.077577 47671 net.cpp:433] pool1 -> pool1
I1217 22:25:17.077657 47671 net.cpp:155] Setting up pool1
I1217 22:25:17.077674 47671 net.cpp:163] Top shape: 36 64 56 56 (7225344)
I1217 22:25:17.077685 47671 layer_factory.hpp:76] Creating layer pool1_pool1_0_split
I1217 22:25:17.077698 47671 net.cpp:110] Creating Layer pool1_pool1_0_split
I1217 22:25:17.077708 47671 net.cpp:477] pool1_pool1_0_split <- pool1
I1217 22:25:17.077723 47671 net.cpp:433] pool1_pool1_0_split -> pool1_pool1_0_split_0
I1217 22:25:17.077736 47671 net.cpp:433] pool1_pool1_0_split -> pool1_pool1_0_split_1
I1217 22:25:17.077751 47671 net.cpp:155] Setting up pool1_pool1_0_split
I1217 22:25:17.077764 47671 net.cpp:163] Top shape: 36 64 56 56 (7225344)
I1217 22:25:17.077775 47671 net.cpp:163] Top shape: 36 64 56 56 (7225344)
I1217 22:25:17.077785 47671 layer_factory.hpp:76] Creating layer conv21
I1217 22:25:17.077800 47671 net.cpp:110] Creating Layer conv21
I1217 22:25:17.077846 47671 net.cpp:477] conv21 <- pool1_pool1_0_split_0
I1217 22:25:17.077862 47671 net.cpp:433] conv21 -> conv21
I1217 22:25:17.078523 47671 net.cpp:155] Setting up conv21
I1217 22:25:17.078544 47671 net.cpp:163] Top shape: 36 64 56 56 (7225344)
I1217 22:25:17.078559 47671 layer_factory.hpp:76] Creating layer bn21
I1217 22:25:17.078574 47671 net.cpp:110] Creating Layer bn21
I1217 22:25:17.078584 47671 net.cpp:477] bn21 <- conv21
I1217 22:25:17.078598 47671 net.cpp:433] bn21 -> bn21
I1217 22:25:17.078697 47671 net.cpp:155] Setting up bn21
I1217 22:25:17.078716 47671 net.cpp:163] Top shape: 36 64 56 56 (7225344)
I1217 22:25:17.078735 47671 layer_factory.hpp:76] Creating layer relu21
I1217 22:25:17.078750 47671 net.cpp:110] Creating Layer relu21
I1217 22:25:17.078761 47671 net.cpp:477] relu21 <- bn21
I1217 22:25:17.078774 47671 net.cpp:419] relu21 -> bn21 (in-place)
I1217 22:25:17.078848 47671 net.cpp:155] Setting up relu21
I1217 22:25:17.078865 47671 net.cpp:163] Top shape: 36 64 56 56 (7225344)
I1217 22:25:17.078876 47671 layer_factory.hpp:76] Creating layer conv22
I1217 22:25:17.078891 47671 net.cpp:110] Creating Layer conv22
I1217 22:25:17.078899 47671 net.cpp:477] conv22 <- bn21
I1217 22:25:17.078913 47671 net.cpp:433] conv22 -> conv22
I1217 22:25:17.079581 47671 net.cpp:155] Setting up conv22
I1217 22:25:17.079602 47671 net.cpp:163] Top shape: 36 64 56 56 (7225344)
I1217 22:25:17.079617 47671 layer_factory.hpp:76] Creating layer bn22
I1217 22:25:17.079630 47671 net.cpp:110] Creating Layer bn22
I1217 22:25:17.079641 47671 net.cpp:477] bn22 <- conv22
I1217 22:25:17.079654 47671 net.cpp:433] bn22 -> bn22
I1217 22:25:17.079752 47671 net.cpp:155] Setting up bn22
I1217 22:25:17.079769 47671 net.cpp:163] Top shape: 36 64 56 56 (7225344)
I1217 22:25:17.079785 47671 layer_factory.hpp:76] Creating layer relu22
I1217 22:25:17.079799 47671 net.cpp:110] Creating Layer relu22
I1217 22:25:17.079810 47671 net.cpp:477] relu22 <- bn22
I1217 22:25:17.079823 47671 net.cpp:419] relu22 -> bn22 (in-place)
I1217 22:25:17.080006 47671 net.cpp:155] Setting up relu22
I1217 22:25:17.080029 47671 net.cpp:163] Top shape: 36 64 56 56 (7225344)
I1217 22:25:17.080042 47671 layer_factory.hpp:76] Creating layer eltwise1
I1217 22:25:17.080056 47671 net.cpp:110] Creating Layer eltwise1
I1217 22:25:17.080111 47671 net.cpp:477] eltwise1 <- pool1_pool1_0_split_1
I1217 22:25:17.080174 47671 net.cpp:477] eltwise1 <- bn22
I1217 22:25:17.080188 47671 net.cpp:433] eltwise1 -> eltwise1
I1217 22:25:17.080204 47671 net.cpp:155] Setting up eltwise1
I1217 22:25:17.080217 47671 net.cpp:163] Top shape: 36 64 56 56 (7225344)
I1217 22:25:17.080229 47671 layer_factory.hpp:76] Creating layer relu1
I1217 22:25:17.080241 47671 net.cpp:110] Creating Layer relu1
I1217 22:25:17.080251 47671 net.cpp:477] relu1 <- eltwise1
I1217 22:25:17.080265 47671 net.cpp:419] relu1 -> eltwise1 (in-place)
I1217 22:25:17.080335 47671 net.cpp:155] Setting up relu1
I1217 22:25:17.080351 47671 net.cpp:163] Top shape: 36 64 56 56 (7225344)
I1217 22:25:17.080370 47671 layer_factory.hpp:76] Creating layer eltwise1_relu1_0_split
I1217 22:25:17.080384 47671 net.cpp:110] Creating Layer eltwise1_relu1_0_split
I1217 22:25:17.080394 47671 net.cpp:477] eltwise1_relu1_0_split <- eltwise1
I1217 22:25:17.080406 47671 net.cpp:433] eltwise1_relu1_0_split -> eltwise1_relu1_0_split_0
I1217 22:25:17.080420 47671 net.cpp:433] eltwise1_relu1_0_split -> eltwise1_relu1_0_split_1
I1217 22:25:17.080435 47671 net.cpp:155] Setting up eltwise1_relu1_0_split
I1217 22:25:17.080447 47671 net.cpp:163] Top shape: 36 64 56 56 (7225344)
I1217 22:25:17.080458 47671 net.cpp:163] Top shape: 36 64 56 56 (7225344)
I1217 22:25:17.080468 47671 layer_factory.hpp:76] Creating layer conv23
I1217 22:25:17.080483 47671 net.cpp:110] Creating Layer conv23
I1217 22:25:17.080494 47671 net.cpp:477] conv23 <- eltwise1_relu1_0_split_0
I1217 22:25:17.080507 47671 net.cpp:433] conv23 -> conv23
I1217 22:25:17.081157 47671 net.cpp:155] Setting up conv23
I1217 22:25:17.081178 47671 net.cpp:163] Top shape: 36 64 56 56 (7225344)
I1217 22:25:17.081212 47671 layer_factory.hpp:76] Creating layer bn23
I1217 22:25:17.081230 47671 net.cpp:110] Creating Layer bn23
I1217 22:25:17.081241 47671 net.cpp:477] bn23 <- conv23
I1217 22:25:17.081255 47671 net.cpp:433] bn23 -> bn23
I1217 22:25:17.081362 47671 net.cpp:155] Setting up bn23
I1217 22:25:17.081378 47671 net.cpp:163] Top shape: 36 64 56 56 (7225344)
I1217 22:25:17.081395 47671 layer_factory.hpp:76] Creating layer relu23
I1217 22:25:17.081410 47671 net.cpp:110] Creating Layer relu23
I1217 22:25:17.081421 47671 net.cpp:477] relu23 <- bn23
I1217 22:25:17.081434 47671 net.cpp:419] relu23 -> bn23 (in-place)
I1217 22:25:17.081506 47671 net.cpp:155] Setting up relu23
I1217 22:25:17.081522 47671 net.cpp:163] Top shape: 36 64 56 56 (7225344)
I1217 22:25:17.081533 47671 layer_factory.hpp:76] Creating layer conv24
I1217 22:25:17.081548 47671 net.cpp:110] Creating Layer conv24
I1217 22:25:17.081558 47671 net.cpp:477] conv24 <- bn23
I1217 22:25:17.081573 47671 net.cpp:433] conv24 -> conv24
I1217 22:25:17.082780 47671 net.cpp:155] Setting up conv24
I1217 22:25:17.082803 47671 net.cpp:163] Top shape: 36 64 56 56 (7225344)
I1217 22:25:17.082818 47671 layer_factory.hpp:76] Creating layer bn24
I1217 22:25:17.082835 47671 net.cpp:110] Creating Layer bn24
I1217 22:25:17.082846 47671 net.cpp:477] bn24 <- conv24
I1217 22:25:17.082860 47671 net.cpp:433] bn24 -> bn24
I1217 22:25:17.082964 47671 net.cpp:155] Setting up bn24
I1217 22:25:17.082983 47671 net.cpp:163] Top shape: 36 64 56 56 (7225344)
I1217 22:25:17.082998 47671 layer_factory.hpp:76] Creating layer relu24
I1217 22:25:17.083014 47671 net.cpp:110] Creating Layer relu24
I1217 22:25:17.083025 47671 net.cpp:477] relu24 <- bn24
I1217 22:25:17.083040 47671 net.cpp:419] relu24 -> bn24 (in-place)
I1217 22:25:17.083119 47671 net.cpp:155] Setting up relu24
I1217 22:25:17.083135 47671 net.cpp:163] Top shape: 36 64 56 56 (7225344)
I1217 22:25:17.083147 47671 layer_factory.hpp:76] Creating layer bn24_relu24_0_split
I1217 22:25:17.083159 47671 net.cpp:110] Creating Layer bn24_relu24_0_split
I1217 22:25:17.083169 47671 net.cpp:477] bn24_relu24_0_split <- bn24
I1217 22:25:17.083187 47671 net.cpp:433] bn24_relu24_0_split -> bn24_relu24_0_split_0
I1217 22:25:17.083209 47671 net.cpp:433] bn24_relu24_0_split -> bn24_relu24_0_split_1
I1217 22:25:17.083225 47671 net.cpp:155] Setting up bn24_relu24_0_split
I1217 22:25:17.083238 47671 net.cpp:163] Top shape: 36 64 56 56 (7225344)
I1217 22:25:17.083250 47671 net.cpp:163] Top shape: 36 64 56 56 (7225344)
I1217 22:25:17.083259 47671 layer_factory.hpp:76] Creating layer eltwise2
I1217 22:25:17.083272 47671 net.cpp:110] Creating Layer eltwise2
I1217 22:25:17.083282 47671 net.cpp:477] eltwise2 <- eltwise1_relu1_0_split_1
I1217 22:25:17.083294 47671 net.cpp:477] eltwise2 <- bn24_relu24_0_split_0
I1217 22:25:17.083307 47671 net.cpp:433] eltwise2 -> eltwise2
I1217 22:25:17.083322 47671 net.cpp:155] Setting up eltwise2
I1217 22:25:17.083334 47671 net.cpp:163] Top shape: 36 64 56 56 (7225344)
I1217 22:25:17.083346 47671 layer_factory.hpp:76] Creating layer relu2
I1217 22:25:17.083359 47671 net.cpp:110] Creating Layer relu2
I1217 22:25:17.083369 47671 net.cpp:477] relu2 <- eltwise2
I1217 22:25:17.083384 47671 net.cpp:419] relu2 -> eltwise2 (in-place)
I1217 22:25:17.083570 47671 net.cpp:155] Setting up relu2
I1217 22:25:17.083588 47671 net.cpp:163] Top shape: 36 64 56 56 (7225344)
I1217 22:25:17.083600 47671 layer_factory.hpp:76] Creating layer conv25
I1217 22:25:17.083618 47671 net.cpp:110] Creating Layer conv25
I1217 22:25:17.083629 47671 net.cpp:477] conv25 <- bn24_relu24_0_split_1
I1217 22:25:17.083643 47671 net.cpp:433] conv25 -> conv25
I1217 22:25:17.084290 47671 net.cpp:155] Setting up conv25
I1217 22:25:17.084311 47671 net.cpp:163] Top shape: 36 64 56 56 (7225344)
I1217 22:25:17.084326 47671 layer_factory.hpp:76] Creating layer bn25
I1217 22:25:17.084343 47671 net.cpp:110] Creating Layer bn25
I1217 22:25:17.084354 47671 net.cpp:477] bn25 <- conv25
I1217 22:25:17.084369 47671 net.cpp:433] bn25 -> bn25
I1217 22:25:17.084492 47671 net.cpp:155] Setting up bn25
I1217 22:25:17.084511 47671 net.cpp:163] Top shape: 36 64 56 56 (7225344)
I1217 22:25:17.084528 47671 layer_factory.hpp:76] Creating layer relu25
I1217 22:25:17.084543 47671 net.cpp:110] Creating Layer relu25
I1217 22:25:17.084553 47671 net.cpp:477] relu25 <- bn25
I1217 22:25:17.084568 47671 net.cpp:419] relu25 -> bn25 (in-place)
I1217 22:25:17.084647 47671 net.cpp:155] Setting up relu25
I1217 22:25:17.084663 47671 net.cpp:163] Top shape: 36 64 56 56 (7225344)
I1217 22:25:17.084683 47671 layer_factory.hpp:76] Creating layer conv26
I1217 22:25:17.084707 47671 net.cpp:110] Creating Layer conv26
I1217 22:25:17.084717 47671 net.cpp:477] conv26 <- bn25
I1217 22:25:17.084730 47671 net.cpp:433] conv26 -> conv26
I1217 22:25:17.085396 47671 net.cpp:155] Setting up conv26
I1217 22:25:17.085417 47671 net.cpp:163] Top shape: 36 64 56 56 (7225344)
I1217 22:25:17.085432 47671 layer_factory.hpp:76] Creating layer bn26
I1217 22:25:17.085444 47671 net.cpp:110] Creating Layer bn26
I1217 22:25:17.085455 47671 net.cpp:477] bn26 <- conv26
I1217 22:25:17.085469 47671 net.cpp:433] bn26 -> bn26
I1217 22:25:17.085611 47671 net.cpp:155] Setting up bn26
I1217 22:25:17.085629 47671 net.cpp:163] Top shape: 36 64 56 56 (7225344)
I1217 22:25:17.085652 47671 layer_factory.hpp:76] Creating layer relu26
I1217 22:25:17.085667 47671 net.cpp:110] Creating Layer relu26
I1217 22:25:17.085678 47671 net.cpp:477] relu26 <- bn26
I1217 22:25:17.085692 47671 net.cpp:419] relu26 -> bn26 (in-place)
I1217 22:25:17.086490 47671 net.cpp:155] Setting up relu26
I1217 22:25:17.086518 47671 net.cpp:163] Top shape: 36 64 56 56 (7225344)
I1217 22:25:17.086530 47671 layer_factory.hpp:76] Creating layer eltwise3
I1217 22:25:17.086544 47671 net.cpp:110] Creating Layer eltwise3
I1217 22:25:17.086555 47671 net.cpp:477] eltwise3 <- eltwise2
I1217 22:25:17.086567 47671 net.cpp:477] eltwise3 <- bn26
I1217 22:25:17.086580 47671 net.cpp:433] eltwise3 -> eltwise3
I1217 22:25:17.086596 47671 net.cpp:155] Setting up eltwise3
I1217 22:25:17.086609 47671 net.cpp:163] Top shape: 36 64 56 56 (7225344)
I1217 22:25:17.086621 47671 layer_factory.hpp:76] Creating layer relu3
I1217 22:25:17.086632 47671 net.cpp:110] Creating Layer relu3
I1217 22:25:17.086643 47671 net.cpp:477] relu3 <- eltwise3
I1217 22:25:17.086658 47671 net.cpp:419] relu3 -> eltwise3 (in-place)
I1217 22:25:17.086737 47671 net.cpp:155] Setting up relu3
I1217 22:25:17.086753 47671 net.cpp:163] Top shape: 36 64 56 56 (7225344)
I1217 22:25:17.086765 47671 layer_factory.hpp:76] Creating layer eltwise3_relu3_0_split
I1217 22:25:17.086779 47671 net.cpp:110] Creating Layer eltwise3_relu3_0_split
I1217 22:25:17.086791 47671 net.cpp:477] eltwise3_relu3_0_split <- eltwise3
I1217 22:25:17.086807 47671 net.cpp:433] eltwise3_relu3_0_split -> eltwise3_relu3_0_split_0
I1217 22:25:17.086822 47671 net.cpp:433] eltwise3_relu3_0_split -> eltwise3_relu3_0_split_1
I1217 22:25:17.086837 47671 net.cpp:155] Setting up eltwise3_relu3_0_split
I1217 22:25:17.086848 47671 net.cpp:163] Top shape: 36 64 56 56 (7225344)
I1217 22:25:17.086859 47671 net.cpp:163] Top shape: 36 64 56 56 (7225344)
I1217 22:25:17.086870 47671 layer_factory.hpp:76] Creating layer relu3_p
I1217 22:25:17.086886 47671 net.cpp:110] Creating Layer relu3_p
I1217 22:25:17.086897 47671 net.cpp:477] relu3_p <- eltwise3_relu3_0_split_0
I1217 22:25:17.086910 47671 net.cpp:433] relu3_p -> relu3_p
I1217 22:25:17.087368 47671 net.cpp:155] Setting up relu3_p
I1217 22:25:17.087389 47671 net.cpp:163] Top shape: 36 128 28 28 (3612672)
I1217 22:25:17.087409 47671 layer_factory.hpp:76] Creating layer relu3_bn
I1217 22:25:17.087431 47671 net.cpp:110] Creating Layer relu3_bn
I1217 22:25:17.087448 47671 net.cpp:477] relu3_bn <- relu3_p
I1217 22:25:17.087462 47671 net.cpp:433] relu3_bn -> relu3_bn
I1217 22:25:17.087559 47671 net.cpp:155] Setting up relu3_bn
I1217 22:25:17.087577 47671 net.cpp:163] Top shape: 36 128 28 28 (3612672)
I1217 22:25:17.087594 47671 layer_factory.hpp:76] Creating layer conv31
I1217 22:25:17.087610 47671 net.cpp:110] Creating Layer conv31
I1217 22:25:17.087640 47671 net.cpp:477] conv31 <- eltwise3_relu3_0_split_1
I1217 22:25:17.087656 47671 net.cpp:433] conv31 -> conv31
I1217 22:25:17.088592 47671 net.cpp:155] Setting up conv31
I1217 22:25:17.088616 47671 net.cpp:163] Top shape: 36 128 28 28 (3612672)
I1217 22:25:17.088632 47671 layer_factory.hpp:76] Creating layer bn31
I1217 22:25:17.088646 47671 net.cpp:110] Creating Layer bn31
I1217 22:25:17.088657 47671 net.cpp:477] bn31 <- conv31
I1217 22:25:17.088673 47671 net.cpp:433] bn31 -> bn31
I1217 22:25:17.088769 47671 net.cpp:155] Setting up bn31
I1217 22:25:17.088788 47671 net.cpp:163] Top shape: 36 128 28 28 (3612672)
I1217 22:25:17.088804 47671 layer_factory.hpp:76] Creating layer relu31
I1217 22:25:17.088816 47671 net.cpp:110] Creating Layer relu31
I1217 22:25:17.088827 47671 net.cpp:477] relu31 <- bn31
I1217 22:25:17.088842 47671 net.cpp:419] relu31 -> bn31 (in-place)
I1217 22:25:17.089036 47671 net.cpp:155] Setting up relu31
I1217 22:25:17.089056 47671 net.cpp:163] Top shape: 36 128 28 28 (3612672)
I1217 22:25:17.089067 47671 layer_factory.hpp:76] Creating layer conv32
I1217 22:25:17.089082 47671 net.cpp:110] Creating Layer conv32
I1217 22:25:17.089092 47671 net.cpp:477] conv32 <- bn31
I1217 22:25:17.089108 47671 net.cpp:433] conv32 -> conv32
I1217 22:25:17.091086 47671 net.cpp:155] Setting up conv32
I1217 22:25:17.091109 47671 net.cpp:163] Top shape: 36 128 28 28 (3612672)
I1217 22:25:17.091125 47671 layer_factory.hpp:76] Creating layer bn32
I1217 22:25:17.091140 47671 net.cpp:110] Creating Layer bn32
I1217 22:25:17.091150 47671 net.cpp:477] bn32 <- conv32
I1217 22:25:17.091166 47671 net.cpp:433] bn32 -> bn32
I1217 22:25:17.091261 47671 net.cpp:155] Setting up bn32
I1217 22:25:17.091279 47671 net.cpp:163] Top shape: 36 128 28 28 (3612672)
I1217 22:25:17.091295 47671 layer_factory.hpp:76] Creating layer relu32
I1217 22:25:17.091311 47671 net.cpp:110] Creating Layer relu32
I1217 22:25:17.091328 47671 net.cpp:477] relu32 <- bn32
I1217 22:25:17.091341 47671 net.cpp:419] relu32 -> bn32 (in-place)
I1217 22:25:17.091421 47671 net.cpp:155] Setting up relu32
I1217 22:25:17.091439 47671 net.cpp:163] Top shape: 36 128 28 28 (3612672)
I1217 22:25:17.091449 47671 layer_factory.hpp:76] Creating layer eltwise4
I1217 22:25:17.091464 47671 net.cpp:110] Creating Layer eltwise4
I1217 22:25:17.091475 47671 net.cpp:477] eltwise4 <- relu3_bn
I1217 22:25:17.091487 47671 net.cpp:477] eltwise4 <- bn32
I1217 22:25:17.091500 47671 net.cpp:433] eltwise4 -> eltwise4
I1217 22:25:17.091513 47671 net.cpp:155] Setting up eltwise4
I1217 22:25:17.091526 47671 net.cpp:163] Top shape: 36 128 28 28 (3612672)
I1217 22:25:17.091537 47671 layer_factory.hpp:76] Creating layer relu4
I1217 22:25:17.091549 47671 net.cpp:110] Creating Layer relu4
I1217 22:25:17.091559 47671 net.cpp:477] relu4 <- eltwise4
I1217 22:25:17.091574 47671 net.cpp:419] relu4 -> eltwise4 (in-place)
I1217 22:25:17.091648 47671 net.cpp:155] Setting up relu4
I1217 22:25:17.091670 47671 net.cpp:163] Top shape: 36 128 28 28 (3612672)
I1217 22:25:17.091684 47671 layer_factory.hpp:76] Creating layer eltwise4_relu4_0_split
I1217 22:25:17.091696 47671 net.cpp:110] Creating Layer eltwise4_relu4_0_split
I1217 22:25:17.091707 47671 net.cpp:477] eltwise4_relu4_0_split <- eltwise4
I1217 22:25:17.091723 47671 net.cpp:433] eltwise4_relu4_0_split -> eltwise4_relu4_0_split_0
I1217 22:25:17.091737 47671 net.cpp:433] eltwise4_relu4_0_split -> eltwise4_relu4_0_split_1
I1217 22:25:17.091753 47671 net.cpp:155] Setting up eltwise4_relu4_0_split
I1217 22:25:17.091765 47671 net.cpp:163] Top shape: 36 128 28 28 (3612672)
I1217 22:25:17.091776 47671 net.cpp:163] Top shape: 36 128 28 28 (3612672)
I1217 22:25:17.091788 47671 layer_factory.hpp:76] Creating layer conv33
I1217 22:25:17.091804 47671 net.cpp:110] Creating Layer conv33
I1217 22:25:17.091815 47671 net.cpp:477] conv33 <- eltwise4_relu4_0_split_0
I1217 22:25:17.091828 47671 net.cpp:433] conv33 -> conv33
I1217 22:25:17.093778 47671 net.cpp:155] Setting up conv33
I1217 22:25:17.093802 47671 net.cpp:163] Top shape: 36 128 28 28 (3612672)
I1217 22:25:17.093835 47671 layer_factory.hpp:76] Creating layer bn33
I1217 22:25:17.093853 47671 net.cpp:110] Creating Layer bn33
I1217 22:25:17.093865 47671 net.cpp:477] bn33 <- conv33
I1217 22:25:17.093878 47671 net.cpp:433] bn33 -> bn33
I1217 22:25:17.094018 47671 net.cpp:155] Setting up bn33
I1217 22:25:17.094038 47671 net.cpp:163] Top shape: 36 128 28 28 (3612672)
I1217 22:25:17.094053 47671 layer_factory.hpp:76] Creating layer relu33
I1217 22:25:17.094069 47671 net.cpp:110] Creating Layer relu33
I1217 22:25:17.094080 47671 net.cpp:477] relu33 <- bn33
I1217 22:25:17.094092 47671 net.cpp:419] relu33 -> bn33 (in-place)
I1217 22:25:17.094173 47671 net.cpp:155] Setting up relu33
I1217 22:25:17.094189 47671 net.cpp:163] Top shape: 36 128 28 28 (3612672)
I1217 22:25:17.094200 47671 layer_factory.hpp:76] Creating layer conv34
I1217 22:25:17.094218 47671 net.cpp:110] Creating Layer conv34
I1217 22:25:17.094228 47671 net.cpp:477] conv34 <- bn33
I1217 22:25:17.094244 47671 net.cpp:433] conv34 -> conv34
I1217 22:25:17.096175 47671 net.cpp:155] Setting up conv34
I1217 22:25:17.096199 47671 net.cpp:163] Top shape: 36 128 28 28 (3612672)
I1217 22:25:17.096215 47671 layer_factory.hpp:76] Creating layer bn34
I1217 22:25:17.096230 47671 net.cpp:110] Creating Layer bn34
I1217 22:25:17.096242 47671 net.cpp:477] bn34 <- conv34
I1217 22:25:17.096254 47671 net.cpp:433] bn34 -> bn34
I1217 22:25:17.096348 47671 net.cpp:155] Setting up bn34
I1217 22:25:17.096364 47671 net.cpp:163] Top shape: 36 128 28 28 (3612672)
I1217 22:25:17.096380 47671 layer_factory.hpp:76] Creating layer relu34
I1217 22:25:17.096398 47671 net.cpp:110] Creating Layer relu34
I1217 22:25:17.096410 47671 net.cpp:477] relu34 <- bn34
I1217 22:25:17.096422 47671 net.cpp:419] relu34 -> bn34 (in-place)
I1217 22:25:17.096611 47671 net.cpp:155] Setting up relu34
I1217 22:25:17.096631 47671 net.cpp:163] Top shape: 36 128 28 28 (3612672)
I1217 22:25:17.096642 47671 layer_factory.hpp:76] Creating layer eltwise5
I1217 22:25:17.096657 47671 net.cpp:110] Creating Layer eltwise5
I1217 22:25:17.096668 47671 net.cpp:477] eltwise5 <- eltwise4_relu4_0_split_1
I1217 22:25:17.096680 47671 net.cpp:477] eltwise5 <- bn34
I1217 22:25:17.096693 47671 net.cpp:433] eltwise5 -> eltwise5
I1217 22:25:17.096707 47671 net.cpp:155] Setting up eltwise5
I1217 22:25:17.096720 47671 net.cpp:163] Top shape: 36 128 28 28 (3612672)
I1217 22:25:17.096730 47671 layer_factory.hpp:76] Creating layer relu5
I1217 22:25:17.096742 47671 net.cpp:110] Creating Layer relu5
I1217 22:25:17.096753 47671 net.cpp:477] relu5 <- eltwise5
I1217 22:25:17.096767 47671 net.cpp:419] relu5 -> eltwise5 (in-place)
I1217 22:25:17.096843 47671 net.cpp:155] Setting up relu5
I1217 22:25:17.096859 47671 net.cpp:163] Top shape: 36 128 28 28 (3612672)
I1217 22:25:17.096869 47671 layer_factory.hpp:76] Creating layer eltwise5_relu5_0_split
I1217 22:25:17.096882 47671 net.cpp:110] Creating Layer eltwise5_relu5_0_split
I1217 22:25:17.096892 47671 net.cpp:477] eltwise5_relu5_0_split <- eltwise5
I1217 22:25:17.096904 47671 net.cpp:433] eltwise5_relu5_0_split -> eltwise5_relu5_0_split_0
I1217 22:25:17.096920 47671 net.cpp:433] eltwise5_relu5_0_split -> eltwise5_relu5_0_split_1
I1217 22:25:17.096935 47671 net.cpp:155] Setting up eltwise5_relu5_0_split
I1217 22:25:17.096949 47671 net.cpp:163] Top shape: 36 128 28 28 (3612672)
I1217 22:25:17.096993 47671 net.cpp:163] Top shape: 36 128 28 28 (3612672)
I1217 22:25:17.097007 47671 layer_factory.hpp:76] Creating layer conv35
I1217 22:25:17.097024 47671 net.cpp:110] Creating Layer conv35
I1217 22:25:17.097035 47671 net.cpp:477] conv35 <- eltwise5_relu5_0_split_0
I1217 22:25:17.097049 47671 net.cpp:433] conv35 -> conv35
I1217 22:25:17.098987 47671 net.cpp:155] Setting up conv35
I1217 22:25:17.099009 47671 net.cpp:163] Top shape: 36 128 28 28 (3612672)
I1217 22:25:17.099025 47671 layer_factory.hpp:76] Creating layer bn35
I1217 22:25:17.099041 47671 net.cpp:110] Creating Layer bn35
I1217 22:25:17.099052 47671 net.cpp:477] bn35 <- conv35
I1217 22:25:17.099067 47671 net.cpp:433] bn35 -> bn35
I1217 22:25:17.099169 47671 net.cpp:155] Setting up bn35
I1217 22:25:17.099203 47671 net.cpp:163] Top shape: 36 128 28 28 (3612672)
I1217 22:25:17.099234 47671 layer_factory.hpp:76] Creating layer relu35
I1217 22:25:17.099251 47671 net.cpp:110] Creating Layer relu35
I1217 22:25:17.099262 47671 net.cpp:477] relu35 <- bn35
I1217 22:25:17.099277 47671 net.cpp:419] relu35 -> bn35 (in-place)
I1217 22:25:17.099355 47671 net.cpp:155] Setting up relu35
I1217 22:25:17.099371 47671 net.cpp:163] Top shape: 36 128 28 28 (3612672)
I1217 22:25:17.099382 47671 layer_factory.hpp:76] Creating layer conv36
I1217 22:25:17.110641 47671 net.cpp:110] Creating Layer conv36
I1217 22:25:17.110661 47671 net.cpp:477] conv36 <- bn35
I1217 22:25:17.110677 47671 net.cpp:433] conv36 -> conv36
I1217 22:25:17.112682 47671 net.cpp:155] Setting up conv36
I1217 22:25:17.112705 47671 net.cpp:163] Top shape: 36 128 28 28 (3612672)
I1217 22:25:17.112720 47671 layer_factory.hpp:76] Creating layer bn36
I1217 22:25:17.112737 47671 net.cpp:110] Creating Layer bn36
I1217 22:25:17.112750 47671 net.cpp:477] bn36 <- conv36
I1217 22:25:17.112762 47671 net.cpp:433] bn36 -> bn36
I1217 22:25:17.112865 47671 net.cpp:155] Setting up bn36
I1217 22:25:17.112884 47671 net.cpp:163] Top shape: 36 128 28 28 (3612672)
I1217 22:25:17.112900 47671 layer_factory.hpp:76] Creating layer relu36
I1217 22:25:17.112915 47671 net.cpp:110] Creating Layer relu36
I1217 22:25:17.112925 47671 net.cpp:477] relu36 <- bn36
I1217 22:25:17.112939 47671 net.cpp:419] relu36 -> bn36 (in-place)
I1217 22:25:17.113138 47671 net.cpp:155] Setting up relu36
I1217 22:25:17.113157 47671 net.cpp:163] Top shape: 36 128 28 28 (3612672)
I1217 22:25:17.113169 47671 layer_factory.hpp:76] Creating layer eltwise6
I1217 22:25:17.113186 47671 net.cpp:110] Creating Layer eltwise6
I1217 22:25:17.113198 47671 net.cpp:477] eltwise6 <- eltwise5_relu5_0_split_1
I1217 22:25:17.113210 47671 net.cpp:477] eltwise6 <- bn36
I1217 22:25:17.113224 47671 net.cpp:433] eltwise6 -> eltwise6
I1217 22:25:17.113240 47671 net.cpp:155] Setting up eltwise6
I1217 22:25:17.113252 47671 net.cpp:163] Top shape: 36 128 28 28 (3612672)
I1217 22:25:17.113262 47671 layer_factory.hpp:76] Creating layer relu6
I1217 22:25:17.113275 47671 net.cpp:110] Creating Layer relu6
I1217 22:25:17.113284 47671 net.cpp:477] relu6 <- eltwise6
I1217 22:25:17.113303 47671 net.cpp:419] relu6 -> eltwise6 (in-place)
I1217 22:25:17.113379 47671 net.cpp:155] Setting up relu6
I1217 22:25:17.113394 47671 net.cpp:163] Top shape: 36 128 28 28 (3612672)
I1217 22:25:17.113405 47671 layer_factory.hpp:76] Creating layer eltwise6_relu6_0_split
I1217 22:25:17.113417 47671 net.cpp:110] Creating Layer eltwise6_relu6_0_split
I1217 22:25:17.113427 47671 net.cpp:477] eltwise6_relu6_0_split <- eltwise6
I1217 22:25:17.113440 47671 net.cpp:433] eltwise6_relu6_0_split -> eltwise6_relu6_0_split_0
I1217 22:25:17.113453 47671 net.cpp:433] eltwise6_relu6_0_split -> eltwise6_relu6_0_split_1
I1217 22:25:17.113467 47671 net.cpp:155] Setting up eltwise6_relu6_0_split
I1217 22:25:17.113479 47671 net.cpp:163] Top shape: 36 128 28 28 (3612672)
I1217 22:25:17.113490 47671 net.cpp:163] Top shape: 36 128 28 28 (3612672)
I1217 22:25:17.113502 47671 layer_factory.hpp:76] Creating layer conv37
I1217 22:25:17.113517 47671 net.cpp:110] Creating Layer conv37
I1217 22:25:17.113528 47671 net.cpp:477] conv37 <- eltwise6_relu6_0_split_0
I1217 22:25:17.113543 47671 net.cpp:433] conv37 -> conv37
I1217 22:25:17.115499 47671 net.cpp:155] Setting up conv37
I1217 22:25:17.115520 47671 net.cpp:163] Top shape: 36 128 28 28 (3612672)
I1217 22:25:17.115533 47671 layer_factory.hpp:76] Creating layer bn37
I1217 22:25:17.115550 47671 net.cpp:110] Creating Layer bn37
I1217 22:25:17.115561 47671 net.cpp:477] bn37 <- conv37
I1217 22:25:17.115573 47671 net.cpp:433] bn37 -> bn37
I1217 22:25:17.115669 47671 net.cpp:155] Setting up bn37
I1217 22:25:17.115687 47671 net.cpp:163] Top shape: 36 128 28 28 (3612672)
I1217 22:25:17.115702 47671 layer_factory.hpp:76] Creating layer relu37
I1217 22:25:17.115726 47671 net.cpp:110] Creating Layer relu37
I1217 22:25:17.115756 47671 net.cpp:477] relu37 <- bn37
I1217 22:25:17.115769 47671 net.cpp:419] relu37 -> bn37 (in-place)
I1217 22:25:17.115852 47671 net.cpp:155] Setting up relu37
I1217 22:25:17.115869 47671 net.cpp:163] Top shape: 36 128 28 28 (3612672)
I1217 22:25:17.115880 47671 layer_factory.hpp:76] Creating layer conv38
I1217 22:25:17.115897 47671 net.cpp:110] Creating Layer conv38
I1217 22:25:17.115908 47671 net.cpp:477] conv38 <- bn37
I1217 22:25:17.115921 47671 net.cpp:433] conv38 -> conv38
I1217 22:25:17.117878 47671 net.cpp:155] Setting up conv38
I1217 22:25:17.117900 47671 net.cpp:163] Top shape: 36 128 28 28 (3612672)
I1217 22:25:17.117914 47671 layer_factory.hpp:76] Creating layer bn38
I1217 22:25:17.117928 47671 net.cpp:110] Creating Layer bn38
I1217 22:25:17.117939 47671 net.cpp:477] bn38 <- conv38
I1217 22:25:17.117954 47671 net.cpp:433] bn38 -> bn38
I1217 22:25:17.118052 47671 net.cpp:155] Setting up bn38
I1217 22:25:17.118069 47671 net.cpp:163] Top shape: 36 128 28 28 (3612672)
I1217 22:25:17.118085 47671 layer_factory.hpp:76] Creating layer relu38
I1217 22:25:17.118095 47671 net.cpp:110] Creating Layer relu38
I1217 22:25:17.118116 47671 net.cpp:477] relu38 <- bn38
I1217 22:25:17.118130 47671 net.cpp:419] relu38 -> bn38 (in-place)
I1217 22:25:17.118218 47671 net.cpp:155] Setting up relu38
I1217 22:25:17.118237 47671 net.cpp:163] Top shape: 36 128 28 28 (3612672)
I1217 22:25:17.118247 47671 layer_factory.hpp:76] Creating layer eltwise7
I1217 22:25:17.118263 47671 net.cpp:110] Creating Layer eltwise7
I1217 22:25:17.118274 47671 net.cpp:477] eltwise7 <- eltwise6_relu6_0_split_1
I1217 22:25:17.118286 47671 net.cpp:477] eltwise7 <- bn38
I1217 22:25:17.118299 47671 net.cpp:433] eltwise7 -> eltwise7
I1217 22:25:17.118314 47671 net.cpp:155] Setting up eltwise7
I1217 22:25:17.118327 47671 net.cpp:163] Top shape: 36 128 28 28 (3612672)
I1217 22:25:17.118337 47671 layer_factory.hpp:76] Creating layer relu7
I1217 22:25:17.118350 47671 net.cpp:110] Creating Layer relu7
I1217 22:25:17.118360 47671 net.cpp:477] relu7 <- eltwise7
I1217 22:25:17.118372 47671 net.cpp:419] relu7 -> eltwise7 (in-place)
I1217 22:25:17.118556 47671 net.cpp:155] Setting up relu7
I1217 22:25:17.118576 47671 net.cpp:163] Top shape: 36 128 28 28 (3612672)
I1217 22:25:17.118587 47671 layer_factory.hpp:76] Creating layer eltwise7_relu7_0_split
I1217 22:25:17.118602 47671 net.cpp:110] Creating Layer eltwise7_relu7_0_split
I1217 22:25:17.118613 47671 net.cpp:477] eltwise7_relu7_0_split <- eltwise7
I1217 22:25:17.118625 47671 net.cpp:433] eltwise7_relu7_0_split -> eltwise7_relu7_0_split_0
I1217 22:25:17.118640 47671 net.cpp:433] eltwise7_relu7_0_split -> eltwise7_relu7_0_split_1
I1217 22:25:17.118654 47671 net.cpp:155] Setting up eltwise7_relu7_0_split
I1217 22:25:17.118669 47671 net.cpp:163] Top shape: 36 128 28 28 (3612672)
I1217 22:25:17.118681 47671 net.cpp:163] Top shape: 36 128 28 28 (3612672)
I1217 22:25:17.118691 47671 layer_factory.hpp:76] Creating layer relu7_p
I1217 22:25:17.118706 47671 net.cpp:110] Creating Layer relu7_p
I1217 22:25:17.118716 47671 net.cpp:477] relu7_p <- eltwise7_relu7_0_split_0
I1217 22:25:17.118731 47671 net.cpp:433] relu7_p -> relu7_p
I1217 22:25:17.119364 47671 net.cpp:155] Setting up relu7_p
I1217 22:25:17.119385 47671 net.cpp:163] Top shape: 36 256 14 14 (1806336)
I1217 22:25:17.119400 47671 layer_factory.hpp:76] Creating layer relu7_bn
I1217 22:25:17.119416 47671 net.cpp:110] Creating Layer relu7_bn
I1217 22:25:17.119427 47671 net.cpp:477] relu7_bn <- relu7_p
I1217 22:25:17.119442 47671 net.cpp:433] relu7_bn -> relu7_bn
I1217 22:25:17.119545 47671 net.cpp:155] Setting up relu7_bn
I1217 22:25:17.119562 47671 net.cpp:163] Top shape: 36 256 14 14 (1806336)
I1217 22:25:17.119578 47671 layer_factory.hpp:76] Creating layer conv41
I1217 22:25:17.119596 47671 net.cpp:110] Creating Layer conv41
I1217 22:25:17.119607 47671 net.cpp:477] conv41 <- eltwise7_relu7_0_split_1
I1217 22:25:17.119623 47671 net.cpp:433] conv41 -> conv41
I1217 22:25:17.122630 47671 net.cpp:155] Setting up conv41
I1217 22:25:17.122653 47671 net.cpp:163] Top shape: 36 256 14 14 (1806336)
I1217 22:25:17.122683 47671 layer_factory.hpp:76] Creating layer bn41
I1217 22:25:17.122700 47671 net.cpp:110] Creating Layer bn41
I1217 22:25:17.122712 47671 net.cpp:477] bn41 <- conv41
I1217 22:25:17.122728 47671 net.cpp:433] bn41 -> bn41
I1217 22:25:17.122829 47671 net.cpp:155] Setting up bn41
I1217 22:25:17.122846 47671 net.cpp:163] Top shape: 36 256 14 14 (1806336)
I1217 22:25:17.122862 47671 layer_factory.hpp:76] Creating layer relu41
I1217 22:25:17.122876 47671 net.cpp:110] Creating Layer relu41
I1217 22:25:17.122886 47671 net.cpp:477] relu41 <- bn41
I1217 22:25:17.122901 47671 net.cpp:419] relu41 -> bn41 (in-place)
I1217 22:25:17.122982 47671 net.cpp:155] Setting up relu41
I1217 22:25:17.122999 47671 net.cpp:163] Top shape: 36 256 14 14 (1806336)
I1217 22:25:17.123009 47671 layer_factory.hpp:76] Creating layer conv42
I1217 22:25:17.123024 47671 net.cpp:110] Creating Layer conv42
I1217 22:25:17.123035 47671 net.cpp:477] conv42 <- bn41
I1217 22:25:17.123050 47671 net.cpp:433] conv42 -> conv42
I1217 22:25:17.129236 47671 net.cpp:155] Setting up conv42
I1217 22:25:17.129259 47671 net.cpp:163] Top shape: 36 256 14 14 (1806336)
I1217 22:25:17.129273 47671 layer_factory.hpp:76] Creating layer bn42
I1217 22:25:17.129290 47671 net.cpp:110] Creating Layer bn42
I1217 22:25:17.129307 47671 net.cpp:477] bn42 <- conv42
I1217 22:25:17.129320 47671 net.cpp:433] bn42 -> bn42
I1217 22:25:17.129426 47671 net.cpp:155] Setting up bn42
I1217 22:25:17.129443 47671 net.cpp:163] Top shape: 36 256 14 14 (1806336)
I1217 22:25:17.129461 47671 layer_factory.hpp:76] Creating layer relu42
I1217 22:25:17.129473 47671 net.cpp:110] Creating Layer relu42
I1217 22:25:17.129484 47671 net.cpp:477] relu42 <- bn42
I1217 22:25:17.129500 47671 net.cpp:419] relu42 -> bn42 (in-place)
I1217 22:25:17.129581 47671 net.cpp:155] Setting up relu42
I1217 22:25:17.129597 47671 net.cpp:163] Top shape: 36 256 14 14 (1806336)
I1217 22:25:17.129608 47671 layer_factory.hpp:76] Creating layer eltwise8
I1217 22:25:17.129624 47671 net.cpp:110] Creating Layer eltwise8
I1217 22:25:17.129637 47671 net.cpp:477] eltwise8 <- relu7_bn
I1217 22:25:17.129647 47671 net.cpp:477] eltwise8 <- bn42
I1217 22:25:17.129660 47671 net.cpp:433] eltwise8 -> eltwise8
I1217 22:25:17.129685 47671 net.cpp:155] Setting up eltwise8
I1217 22:25:17.129699 47671 net.cpp:163] Top shape: 36 256 14 14 (1806336)
I1217 22:25:17.129710 47671 layer_factory.hpp:76] Creating layer relu8
I1217 22:25:17.129722 47671 net.cpp:110] Creating Layer relu8
I1217 22:25:17.129734 47671 net.cpp:477] relu8 <- eltwise8
I1217 22:25:17.129745 47671 net.cpp:419] relu8 -> eltwise8 (in-place)
I1217 22:25:17.129830 47671 net.cpp:155] Setting up relu8
I1217 22:25:17.129848 47671 net.cpp:163] Top shape: 36 256 14 14 (1806336)
I1217 22:25:17.129858 47671 layer_factory.hpp:76] Creating layer eltwise8_relu8_0_split
I1217 22:25:17.129874 47671 net.cpp:110] Creating Layer eltwise8_relu8_0_split
I1217 22:25:17.129885 47671 net.cpp:477] eltwise8_relu8_0_split <- eltwise8
I1217 22:25:17.129899 47671 net.cpp:433] eltwise8_relu8_0_split -> eltwise8_relu8_0_split_0
I1217 22:25:17.129915 47671 net.cpp:433] eltwise8_relu8_0_split -> eltwise8_relu8_0_split_1
I1217 22:25:17.129930 47671 net.cpp:155] Setting up eltwise8_relu8_0_split
I1217 22:25:17.129943 47671 net.cpp:163] Top shape: 36 256 14 14 (1806336)
I1217 22:25:17.129955 47671 net.cpp:163] Top shape: 36 256 14 14 (1806336)
I1217 22:25:17.129964 47671 layer_factory.hpp:76] Creating layer conv43
I1217 22:25:17.129978 47671 net.cpp:110] Creating Layer conv43
I1217 22:25:17.129988 47671 net.cpp:477] conv43 <- eltwise8_relu8_0_split_0
I1217 22:25:17.130004 47671 net.cpp:433] conv43 -> conv43
I1217 22:25:17.136801 47671 net.cpp:155] Setting up conv43
I1217 22:25:17.136822 47671 net.cpp:163] Top shape: 36 256 14 14 (1806336)
I1217 22:25:17.136837 47671 layer_factory.hpp:76] Creating layer bn43
I1217 22:25:17.136852 47671 net.cpp:110] Creating Layer bn43
I1217 22:25:17.136862 47671 net.cpp:477] bn43 <- conv43
I1217 22:25:17.136878 47671 net.cpp:433] bn43 -> bn43
I1217 22:25:17.137006 47671 net.cpp:155] Setting up bn43
I1217 22:25:17.137028 47671 net.cpp:163] Top shape: 36 256 14 14 (1806336)
I1217 22:25:17.137045 47671 layer_factory.hpp:76] Creating layer relu43
I1217 22:25:17.137059 47671 net.cpp:110] Creating Layer relu43
I1217 22:25:17.137069 47671 net.cpp:477] relu43 <- bn43
I1217 22:25:17.137081 47671 net.cpp:419] relu43 -> bn43 (in-place)
I1217 22:25:17.137287 47671 net.cpp:155] Setting up relu43
I1217 22:25:17.137320 47671 net.cpp:163] Top shape: 36 256 14 14 (1806336)
I1217 22:25:17.137364 47671 layer_factory.hpp:76] Creating layer conv44
I1217 22:25:17.137379 47671 net.cpp:110] Creating Layer conv44
I1217 22:25:17.137390 47671 net.cpp:477] conv44 <- bn43
I1217 22:25:17.137406 47671 net.cpp:433] conv44 -> conv44
I1217 22:25:17.144155 47671 net.cpp:155] Setting up conv44
I1217 22:25:17.144177 47671 net.cpp:163] Top shape: 36 256 14 14 (1806336)
I1217 22:25:17.144192 47671 layer_factory.hpp:76] Creating layer bn44
I1217 22:25:17.144207 47671 net.cpp:110] Creating Layer bn44
I1217 22:25:17.144217 47671 net.cpp:477] bn44 <- conv44
I1217 22:25:17.144233 47671 net.cpp:433] bn44 -> bn44
I1217 22:25:17.144345 47671 net.cpp:155] Setting up bn44
I1217 22:25:17.144362 47671 net.cpp:163] Top shape: 36 256 14 14 (1806336)
I1217 22:25:17.144382 47671 layer_factory.hpp:76] Creating layer relu44
I1217 22:25:17.144397 47671 net.cpp:110] Creating Layer relu44
I1217 22:25:17.144407 47671 net.cpp:477] relu44 <- bn44
I1217 22:25:17.144419 47671 net.cpp:419] relu44 -> bn44 (in-place)
I1217 22:25:17.144498 47671 net.cpp:155] Setting up relu44
I1217 22:25:17.144517 47671 net.cpp:163] Top shape: 36 256 14 14 (1806336)
I1217 22:25:17.144529 47671 layer_factory.hpp:76] Creating layer eltwise9
I1217 22:25:17.144542 47671 net.cpp:110] Creating Layer eltwise9
I1217 22:25:17.144553 47671 net.cpp:477] eltwise9 <- eltwise8_relu8_0_split_1
I1217 22:25:17.144565 47671 net.cpp:477] eltwise9 <- bn44
I1217 22:25:17.144577 47671 net.cpp:433] eltwise9 -> eltwise9
I1217 22:25:17.144595 47671 net.cpp:155] Setting up eltwise9
I1217 22:25:17.144652 47671 net.cpp:163] Top shape: 36 256 14 14 (1806336)
I1217 22:25:17.144664 47671 layer_factory.hpp:76] Creating layer relu9
I1217 22:25:17.144680 47671 net.cpp:110] Creating Layer relu9
I1217 22:25:17.144691 47671 net.cpp:477] relu9 <- eltwise9
I1217 22:25:17.144703 47671 net.cpp:419] relu9 -> eltwise9 (in-place)
I1217 22:25:17.144779 47671 net.cpp:155] Setting up relu9
I1217 22:25:17.144796 47671 net.cpp:163] Top shape: 36 256 14 14 (1806336)
I1217 22:25:17.144806 47671 layer_factory.hpp:76] Creating layer eltwise9_relu9_0_split
I1217 22:25:17.144819 47671 net.cpp:110] Creating Layer eltwise9_relu9_0_split
I1217 22:25:17.144829 47671 net.cpp:477] eltwise9_relu9_0_split <- eltwise9
I1217 22:25:17.144845 47671 net.cpp:433] eltwise9_relu9_0_split -> eltwise9_relu9_0_split_0
I1217 22:25:17.144860 47671 net.cpp:433] eltwise9_relu9_0_split -> eltwise9_relu9_0_split_1
I1217 22:25:17.144876 47671 net.cpp:155] Setting up eltwise9_relu9_0_split
I1217 22:25:17.144887 47671 net.cpp:163] Top shape: 36 256 14 14 (1806336)
I1217 22:25:17.144898 47671 net.cpp:163] Top shape: 36 256 14 14 (1806336)
I1217 22:25:17.144908 47671 layer_factory.hpp:76] Creating layer conv45
I1217 22:25:17.144927 47671 net.cpp:110] Creating Layer conv45
I1217 22:25:17.144937 47671 net.cpp:477] conv45 <- eltwise9_relu9_0_split_0
I1217 22:25:17.144950 47671 net.cpp:433] conv45 -> conv45
I1217 22:25:17.151757 47671 net.cpp:155] Setting up conv45
I1217 22:25:17.151785 47671 net.cpp:163] Top shape: 36 256 14 14 (1806336)
I1217 22:25:17.151823 47671 layer_factory.hpp:76] Creating layer bn45
I1217 22:25:17.151844 47671 net.cpp:110] Creating Layer bn45
I1217 22:25:17.151866 47671 net.cpp:477] bn45 <- conv45
I1217 22:25:17.151890 47671 net.cpp:433] bn45 -> bn45
I1217 22:25:17.152010 47671 net.cpp:155] Setting up bn45
I1217 22:25:17.152032 47671 net.cpp:163] Top shape: 36 256 14 14 (1806336)
I1217 22:25:17.152052 47671 layer_factory.hpp:76] Creating layer relu45
I1217 22:25:17.152071 47671 net.cpp:110] Creating Layer relu45
I1217 22:25:17.152102 47671 net.cpp:477] relu45 <- bn45
I1217 22:25:17.152120 47671 net.cpp:419] relu45 -> bn45 (in-place)
I1217 22:25:17.152209 47671 net.cpp:155] Setting up relu45
I1217 22:25:17.152227 47671 net.cpp:163] Top shape: 36 256 14 14 (1806336)
I1217 22:25:17.152242 47671 layer_factory.hpp:76] Creating layer conv46
I1217 22:25:17.152266 47671 net.cpp:110] Creating Layer conv46
I1217 22:25:17.152278 47671 net.cpp:477] conv46 <- bn45
I1217 22:25:17.152297 47671 net.cpp:433] conv46 -> conv46
I1217 22:25:17.159056 47671 net.cpp:155] Setting up conv46
I1217 22:25:17.159080 47671 net.cpp:163] Top shape: 36 256 14 14 (1806336)
I1217 22:25:17.159096 47671 layer_factory.hpp:76] Creating layer bn46
I1217 22:25:17.159137 47671 net.cpp:110] Creating Layer bn46
I1217 22:25:17.159152 47671 net.cpp:477] bn46 <- conv46
I1217 22:25:17.159169 47671 net.cpp:433] bn46 -> bn46
I1217 22:25:17.159276 47671 net.cpp:155] Setting up bn46
I1217 22:25:17.159292 47671 net.cpp:163] Top shape: 36 256 14 14 (1806336)
I1217 22:25:17.159309 47671 layer_factory.hpp:76] Creating layer relu46
I1217 22:25:17.159322 47671 net.cpp:110] Creating Layer relu46
I1217 22:25:17.159333 47671 net.cpp:477] relu46 <- bn46
I1217 22:25:17.159349 47671 net.cpp:419] relu46 -> bn46 (in-place)
I1217 22:25:17.159550 47671 net.cpp:155] Setting up relu46
I1217 22:25:17.159570 47671 net.cpp:163] Top shape: 36 256 14 14 (1806336)
I1217 22:25:17.159581 47671 layer_factory.hpp:76] Creating layer eltwise10
I1217 22:25:17.159598 47671 net.cpp:110] Creating Layer eltwise10
I1217 22:25:17.159610 47671 net.cpp:477] eltwise10 <- eltwise9_relu9_0_split_1
I1217 22:25:17.159622 47671 net.cpp:477] eltwise10 <- bn46
I1217 22:25:17.159636 47671 net.cpp:433] eltwise10 -> eltwise10
I1217 22:25:17.159651 47671 net.cpp:155] Setting up eltwise10
I1217 22:25:17.159664 47671 net.cpp:163] Top shape: 36 256 14 14 (1806336)
I1217 22:25:17.159675 47671 layer_factory.hpp:76] Creating layer relu10
I1217 22:25:17.159687 47671 net.cpp:110] Creating Layer relu10
I1217 22:25:17.159698 47671 net.cpp:477] relu10 <- eltwise10
I1217 22:25:17.159710 47671 net.cpp:419] relu10 -> eltwise10 (in-place)
I1217 22:25:17.159786 47671 net.cpp:155] Setting up relu10
I1217 22:25:17.159802 47671 net.cpp:163] Top shape: 36 256 14 14 (1806336)
I1217 22:25:17.159813 47671 layer_factory.hpp:76] Creating layer eltwise10_relu10_0_split
I1217 22:25:17.159826 47671 net.cpp:110] Creating Layer eltwise10_relu10_0_split
I1217 22:25:17.159835 47671 net.cpp:477] eltwise10_relu10_0_split <- eltwise10
I1217 22:25:17.159848 47671 net.cpp:433] eltwise10_relu10_0_split -> eltwise10_relu10_0_split_0
I1217 22:25:17.159862 47671 net.cpp:433] eltwise10_relu10_0_split -> eltwise10_relu10_0_split_1
I1217 22:25:17.159876 47671 net.cpp:155] Setting up eltwise10_relu10_0_split
I1217 22:25:17.159889 47671 net.cpp:163] Top shape: 36 256 14 14 (1806336)
I1217 22:25:17.159900 47671 net.cpp:163] Top shape: 36 256 14 14 (1806336)
I1217 22:25:17.159910 47671 layer_factory.hpp:76] Creating layer conv47
I1217 22:25:17.159927 47671 net.cpp:110] Creating Layer conv47
I1217 22:25:17.159939 47671 net.cpp:477] conv47 <- eltwise10_relu10_0_split_0
I1217 22:25:17.159960 47671 net.cpp:433] conv47 -> conv47
I1217 22:25:17.166738 47671 net.cpp:155] Setting up conv47
I1217 22:25:17.166761 47671 net.cpp:163] Top shape: 36 256 14 14 (1806336)
I1217 22:25:17.166775 47671 layer_factory.hpp:76] Creating layer bn47
I1217 22:25:17.166793 47671 net.cpp:110] Creating Layer bn47
I1217 22:25:17.166805 47671 net.cpp:477] bn47 <- conv47
I1217 22:25:17.166826 47671 net.cpp:433] bn47 -> bn47
I1217 22:25:17.166942 47671 net.cpp:155] Setting up bn47
I1217 22:25:17.166960 47671 net.cpp:163] Top shape: 36 256 14 14 (1806336)
I1217 22:25:17.166976 47671 layer_factory.hpp:76] Creating layer relu47
I1217 22:25:17.166990 47671 net.cpp:110] Creating Layer relu47
I1217 22:25:17.167001 47671 net.cpp:477] relu47 <- bn47
I1217 22:25:17.167016 47671 net.cpp:419] relu47 -> bn47 (in-place)
I1217 22:25:17.167098 47671 net.cpp:155] Setting up relu47
I1217 22:25:17.167114 47671 net.cpp:163] Top shape: 36 256 14 14 (1806336)
I1217 22:25:17.167147 47671 layer_factory.hpp:76] Creating layer conv48
I1217 22:25:17.167166 47671 net.cpp:110] Creating Layer conv48
I1217 22:25:17.167178 47671 net.cpp:477] conv48 <- bn47
I1217 22:25:17.167192 47671 net.cpp:433] conv48 -> conv48
I1217 22:25:17.173836 47671 net.cpp:155] Setting up conv48
I1217 22:25:17.173859 47671 net.cpp:163] Top shape: 36 256 14 14 (1806336)
I1217 22:25:17.173874 47671 layer_factory.hpp:76] Creating layer bn48
I1217 22:25:17.173888 47671 net.cpp:110] Creating Layer bn48
I1217 22:25:17.173899 47671 net.cpp:477] bn48 <- conv48
I1217 22:25:17.173915 47671 net.cpp:433] bn48 -> bn48
I1217 22:25:17.174020 47671 net.cpp:155] Setting up bn48
I1217 22:25:17.174036 47671 net.cpp:163] Top shape: 36 256 14 14 (1806336)
I1217 22:25:17.174057 47671 layer_factory.hpp:76] Creating layer relu48
I1217 22:25:17.174072 47671 net.cpp:110] Creating Layer relu48
I1217 22:25:17.174082 47671 net.cpp:477] relu48 <- bn48
I1217 22:25:17.174094 47671 net.cpp:419] relu48 -> bn48 (in-place)
I1217 22:25:17.174299 47671 net.cpp:155] Setting up relu48
I1217 22:25:17.174319 47671 net.cpp:163] Top shape: 36 256 14 14 (1806336)
I1217 22:25:17.174329 47671 layer_factory.hpp:76] Creating layer eltwise11
I1217 22:25:17.174343 47671 net.cpp:110] Creating Layer eltwise11
I1217 22:25:17.174355 47671 net.cpp:477] eltwise11 <- eltwise10_relu10_0_split_1
I1217 22:25:17.174366 47671 net.cpp:477] eltwise11 <- bn48
I1217 22:25:17.174381 47671 net.cpp:433] eltwise11 -> eltwise11
I1217 22:25:17.174397 47671 net.cpp:155] Setting up eltwise11
I1217 22:25:17.174410 47671 net.cpp:163] Top shape: 36 256 14 14 (1806336)
I1217 22:25:17.174422 47671 layer_factory.hpp:76] Creating layer relu11
I1217 22:25:17.174433 47671 net.cpp:110] Creating Layer relu11
I1217 22:25:17.174444 47671 net.cpp:477] relu11 <- eltwise11
I1217 22:25:17.174456 47671 net.cpp:419] relu11 -> eltwise11 (in-place)
I1217 22:25:17.174530 47671 net.cpp:155] Setting up relu11
I1217 22:25:17.174546 47671 net.cpp:163] Top shape: 36 256 14 14 (1806336)
I1217 22:25:17.174557 47671 layer_factory.hpp:76] Creating layer eltwise11_relu11_0_split
I1217 22:25:17.174572 47671 net.cpp:110] Creating Layer eltwise11_relu11_0_split
I1217 22:25:17.174583 47671 net.cpp:477] eltwise11_relu11_0_split <- eltwise11
I1217 22:25:17.174598 47671 net.cpp:433] eltwise11_relu11_0_split -> eltwise11_relu11_0_split_0
I1217 22:25:17.174613 47671 net.cpp:433] eltwise11_relu11_0_split -> eltwise11_relu11_0_split_1
I1217 22:25:17.174628 47671 net.cpp:155] Setting up eltwise11_relu11_0_split
I1217 22:25:17.174640 47671 net.cpp:163] Top shape: 36 256 14 14 (1806336)
I1217 22:25:17.174653 47671 net.cpp:163] Top shape: 36 256 14 14 (1806336)
I1217 22:25:17.174662 47671 layer_factory.hpp:76] Creating layer conv49
I1217 22:25:17.174676 47671 net.cpp:110] Creating Layer conv49
I1217 22:25:17.174687 47671 net.cpp:477] conv49 <- eltwise11_relu11_0_split_0
I1217 22:25:17.174702 47671 net.cpp:433] conv49 -> conv49
I1217 22:25:17.180531 47671 net.cpp:155] Setting up conv49
I1217 22:25:17.180558 47671 net.cpp:163] Top shape: 36 256 14 14 (1806336)
I1217 22:25:17.180579 47671 layer_factory.hpp:76] Creating layer bn49
I1217 22:25:17.180616 47671 net.cpp:110] Creating Layer bn49
I1217 22:25:17.180639 47671 net.cpp:477] bn49 <- conv49
I1217 22:25:17.180668 47671 net.cpp:433] bn49 -> bn49
I1217 22:25:17.180836 47671 net.cpp:155] Setting up bn49
I1217 22:25:17.180856 47671 net.cpp:163] Top shape: 36 256 14 14 (1806336)
I1217 22:25:17.180907 47671 layer_factory.hpp:76] Creating layer relu49
I1217 22:25:17.180924 47671 net.cpp:110] Creating Layer relu49
I1217 22:25:17.180941 47671 net.cpp:477] relu49 <- bn49
I1217 22:25:17.180961 47671 net.cpp:419] relu49 -> bn49 (in-place)
I1217 22:25:17.181042 47671 net.cpp:155] Setting up relu49
I1217 22:25:17.181061 47671 net.cpp:163] Top shape: 36 256 14 14 (1806336)
I1217 22:25:17.181077 47671 layer_factory.hpp:76] Creating layer conv410
I1217 22:25:17.181097 47671 net.cpp:110] Creating Layer conv410
I1217 22:25:17.181112 47671 net.cpp:477] conv410 <- bn49
I1217 22:25:17.181146 47671 net.cpp:433] conv410 -> conv410
I1217 22:25:17.186954 47671 net.cpp:155] Setting up conv410
I1217 22:25:17.186980 47671 net.cpp:163] Top shape: 36 256 14 14 (1806336)
I1217 22:25:17.186995 47671 layer_factory.hpp:76] Creating layer bn410
I1217 22:25:17.187033 47671 net.cpp:110] Creating Layer bn410
I1217 22:25:17.187047 47671 net.cpp:477] bn410 <- conv410
I1217 22:25:17.187062 47671 net.cpp:433] bn410 -> bn410
I1217 22:25:17.187168 47671 net.cpp:155] Setting up bn410
I1217 22:25:17.187186 47671 net.cpp:163] Top shape: 36 256 14 14 (1806336)
I1217 22:25:17.187202 47671 layer_factory.hpp:76] Creating layer relu410
I1217 22:25:17.187216 47671 net.cpp:110] Creating Layer relu410
I1217 22:25:17.187227 47671 net.cpp:477] relu410 <- bn410
I1217 22:25:17.187242 47671 net.cpp:419] relu410 -> bn410 (in-place)
I1217 22:25:17.187331 47671 net.cpp:155] Setting up relu410
I1217 22:25:17.187347 47671 net.cpp:163] Top shape: 36 256 14 14 (1806336)
I1217 22:25:17.187358 47671 layer_factory.hpp:76] Creating layer eltwise12
I1217 22:25:17.187372 47671 net.cpp:110] Creating Layer eltwise12
I1217 22:25:17.187382 47671 net.cpp:477] eltwise12 <- eltwise11_relu11_0_split_1
I1217 22:25:17.187394 47671 net.cpp:477] eltwise12 <- bn410
I1217 22:25:17.187409 47671 net.cpp:433] eltwise12 -> eltwise12
I1217 22:25:17.187425 47671 net.cpp:155] Setting up eltwise12
I1217 22:25:17.187438 47671 net.cpp:163] Top shape: 36 256 14 14 (1806336)
I1217 22:25:17.187448 47671 layer_factory.hpp:76] Creating layer relu12
I1217 22:25:17.187461 47671 net.cpp:110] Creating Layer relu12
I1217 22:25:17.187471 47671 net.cpp:477] relu12 <- eltwise12
I1217 22:25:17.187484 47671 net.cpp:419] relu12 -> eltwise12 (in-place)
I1217 22:25:17.187672 47671 net.cpp:155] Setting up relu12
I1217 22:25:17.187692 47671 net.cpp:163] Top shape: 36 256 14 14 (1806336)
I1217 22:25:17.187703 47671 layer_factory.hpp:76] Creating layer eltwise12_relu12_0_split
I1217 22:25:17.187716 47671 net.cpp:110] Creating Layer eltwise12_relu12_0_split
I1217 22:25:17.187727 47671 net.cpp:477] eltwise12_relu12_0_split <- eltwise12
I1217 22:25:17.187741 47671 net.cpp:433] eltwise12_relu12_0_split -> eltwise12_relu12_0_split_0
I1217 22:25:17.187754 47671 net.cpp:433] eltwise12_relu12_0_split -> eltwise12_relu12_0_split_1
I1217 22:25:17.187768 47671 net.cpp:433] eltwise12_relu12_0_split -> eltwise12_relu12_0_split_2
I1217 22:25:17.187783 47671 net.cpp:155] Setting up eltwise12_relu12_0_split
I1217 22:25:17.187795 47671 net.cpp:163] Top shape: 36 256 14 14 (1806336)
I1217 22:25:17.187806 47671 net.cpp:163] Top shape: 36 256 14 14 (1806336)
I1217 22:25:17.187818 47671 net.cpp:163] Top shape: 36 256 14 14 (1806336)
I1217 22:25:17.187827 47671 layer_factory.hpp:76] Creating layer conv411
I1217 22:25:17.187844 47671 net.cpp:110] Creating Layer conv411
I1217 22:25:17.187856 47671 net.cpp:477] conv411 <- eltwise12_relu12_0_split_0
I1217 22:25:17.187872 47671 net.cpp:433] conv411 -> conv411
I1217 22:25:17.193626 47671 net.cpp:155] Setting up conv411
I1217 22:25:17.193649 47671 net.cpp:163] Top shape: 36 256 14 14 (1806336)
I1217 22:25:17.193665 47671 layer_factory.hpp:76] Creating layer bn411
I1217 22:25:17.193681 47671 net.cpp:110] Creating Layer bn411
I1217 22:25:17.193691 47671 net.cpp:477] bn411 <- conv411
I1217 22:25:17.193706 47671 net.cpp:433] bn411 -> bn411
I1217 22:25:17.193811 47671 net.cpp:155] Setting up bn411
I1217 22:25:17.193830 47671 net.cpp:163] Top shape: 36 256 14 14 (1806336)
I1217 22:25:17.193845 47671 layer_factory.hpp:76] Creating layer relu411
I1217 22:25:17.193861 47671 net.cpp:110] Creating Layer relu411
I1217 22:25:17.193873 47671 net.cpp:477] relu411 <- bn411
I1217 22:25:17.193886 47671 net.cpp:419] relu411 -> bn411 (in-place)
I1217 22:25:17.193965 47671 net.cpp:155] Setting up relu411
I1217 22:25:17.193981 47671 net.cpp:163] Top shape: 36 256 14 14 (1806336)
I1217 22:25:17.193994 47671 layer_factory.hpp:76] Creating layer conv412
I1217 22:25:17.194010 47671 net.cpp:110] Creating Layer conv412
I1217 22:25:17.194020 47671 net.cpp:477] conv412 <- bn411
I1217 22:25:17.194035 47671 net.cpp:433] conv412 -> conv412
I1217 22:25:17.199772 47671 net.cpp:155] Setting up conv412
I1217 22:25:17.199795 47671 net.cpp:163] Top shape: 36 256 14 14 (1806336)
I1217 22:25:17.199810 47671 layer_factory.hpp:76] Creating layer bn412
I1217 22:25:17.199823 47671 net.cpp:110] Creating Layer bn412
I1217 22:25:17.199834 47671 net.cpp:477] bn412 <- conv412
I1217 22:25:17.199849 47671 net.cpp:433] bn412 -> bn412
I1217 22:25:17.199955 47671 net.cpp:155] Setting up bn412
I1217 22:25:17.199972 47671 net.cpp:163] Top shape: 36 256 14 14 (1806336)
I1217 22:25:17.199991 47671 layer_factory.hpp:76] Creating layer relu412
I1217 22:25:17.200004 47671 net.cpp:110] Creating Layer relu412
I1217 22:25:17.200016 47671 net.cpp:477] relu412 <- bn412
I1217 22:25:17.200028 47671 net.cpp:419] relu412 -> bn412 (in-place)
I1217 22:25:17.200108 47671 net.cpp:155] Setting up relu412
I1217 22:25:17.200125 47671 net.cpp:163] Top shape: 36 256 14 14 (1806336)
I1217 22:25:17.200136 47671 layer_factory.hpp:76] Creating layer eltwise13
I1217 22:25:17.200150 47671 net.cpp:110] Creating Layer eltwise13
I1217 22:25:17.200160 47671 net.cpp:477] eltwise13 <- eltwise12_relu12_0_split_1
I1217 22:25:17.200173 47671 net.cpp:477] eltwise13 <- bn412
I1217 22:25:17.200186 47671 net.cpp:433] eltwise13 -> eltwise13
I1217 22:25:17.200201 47671 net.cpp:155] Setting up eltwise13
I1217 22:25:17.200213 47671 net.cpp:163] Top shape: 36 256 14 14 (1806336)
I1217 22:25:17.200223 47671 layer_factory.hpp:76] Creating layer relu13
I1217 22:25:17.200238 47671 net.cpp:110] Creating Layer relu13
I1217 22:25:17.200249 47671 net.cpp:477] relu13 <- eltwise13
I1217 22:25:17.200263 47671 net.cpp:419] relu13 -> eltwise13 (in-place)
I1217 22:25:17.200335 47671 net.cpp:155] Setting up relu13
I1217 22:25:17.200351 47671 net.cpp:163] Top shape: 36 256 14 14 (1806336)
I1217 22:25:17.200362 47671 layer_factory.hpp:76] Creating layer relu13_p
I1217 22:25:17.200378 47671 net.cpp:110] Creating Layer relu13_p
I1217 22:25:17.200390 47671 net.cpp:477] relu13_p <- eltwise12_relu12_0_split_2
I1217 22:25:17.200407 47671 net.cpp:433] relu13_p -> relu13_p
I1217 22:25:17.202251 47671 net.cpp:155] Setting up relu13_p
I1217 22:25:17.202273 47671 net.cpp:163] Top shape: 36 512 7 7 (903168)
I1217 22:25:17.202288 47671 layer_factory.hpp:76] Creating layer relu13_bn
I1217 22:25:17.202304 47671 net.cpp:110] Creating Layer relu13_bn
I1217 22:25:17.202316 47671 net.cpp:477] relu13_bn <- relu13_p
I1217 22:25:17.202329 47671 net.cpp:433] relu13_bn -> relu13_bn
I1217 22:25:17.202442 47671 net.cpp:155] Setting up relu13_bn
I1217 22:25:17.202460 47671 net.cpp:163] Top shape: 36 512 7 7 (903168)
I1217 22:25:17.202476 47671 layer_factory.hpp:76] Creating layer conv51
I1217 22:25:17.202510 47671 net.cpp:110] Creating Layer conv51
I1217 22:25:17.202523 47671 net.cpp:477] conv51 <- eltwise13
I1217 22:25:17.202539 47671 net.cpp:433] conv51 -> conv51
I1217 22:25:17.213603 47671 net.cpp:155] Setting up conv51
I1217 22:25:17.213631 47671 net.cpp:163] Top shape: 36 512 7 7 (903168)
I1217 22:25:17.213671 47671 layer_factory.hpp:76] Creating layer bn51
I1217 22:25:17.213732 47671 net.cpp:110] Creating Layer bn51
I1217 22:25:17.213755 47671 net.cpp:477] bn51 <- conv51
I1217 22:25:17.213781 47671 net.cpp:433] bn51 -> bn51
I1217 22:25:17.213901 47671 net.cpp:155] Setting up bn51
I1217 22:25:17.213922 47671 net.cpp:163] Top shape: 36 512 7 7 (903168)
I1217 22:25:17.213942 47671 layer_factory.hpp:76] Creating layer relu51
I1217 22:25:17.213960 47671 net.cpp:110] Creating Layer relu51
I1217 22:25:17.213975 47671 net.cpp:477] relu51 <- bn51
I1217 22:25:17.213991 47671 net.cpp:419] relu51 -> bn51 (in-place)
I1217 22:25:17.214193 47671 net.cpp:155] Setting up relu51
I1217 22:25:17.214215 47671 net.cpp:163] Top shape: 36 512 7 7 (903168)
I1217 22:25:17.214231 47671 layer_factory.hpp:76] Creating layer conv52
I1217 22:25:17.214251 47671 net.cpp:110] Creating Layer conv52
I1217 22:25:17.214267 47671 net.cpp:477] conv52 <- bn51
I1217 22:25:17.214284 47671 net.cpp:433] conv52 -> conv52
I1217 22:25:17.239249 47671 net.cpp:155] Setting up conv52
I1217 22:25:17.239313 47671 net.cpp:163] Top shape: 36 512 7 7 (903168)
I1217 22:25:17.239331 47671 layer_factory.hpp:76] Creating layer bn52
I1217 22:25:17.239347 47671 net.cpp:110] Creating Layer bn52
I1217 22:25:17.239361 47671 net.cpp:477] bn52 <- conv52
I1217 22:25:17.239378 47671 net.cpp:433] bn52 -> bn52
I1217 22:25:17.239496 47671 net.cpp:155] Setting up bn52
I1217 22:25:17.239516 47671 net.cpp:163] Top shape: 36 512 7 7 (903168)
I1217 22:25:17.239542 47671 layer_factory.hpp:76] Creating layer relu52
I1217 22:25:17.239559 47671 net.cpp:110] Creating Layer relu52
I1217 22:25:17.239574 47671 net.cpp:477] relu52 <- bn52
I1217 22:25:17.239589 47671 net.cpp:419] relu52 -> bn52 (in-place)
I1217 22:25:17.239678 47671 net.cpp:155] Setting up relu52
I1217 22:25:17.239701 47671 net.cpp:163] Top shape: 36 512 7 7 (903168)
I1217 22:25:17.239714 47671 layer_factory.hpp:76] Creating layer eltwise14
I1217 22:25:17.239738 47671 net.cpp:110] Creating Layer eltwise14
I1217 22:25:17.239756 47671 net.cpp:477] eltwise14 <- relu13_bn
I1217 22:25:17.239773 47671 net.cpp:477] eltwise14 <- bn52
I1217 22:25:17.239790 47671 net.cpp:433] eltwise14 -> eltwise14
I1217 22:25:17.239814 47671 net.cpp:155] Setting up eltwise14
I1217 22:25:17.239828 47671 net.cpp:163] Top shape: 36 512 7 7 (903168)
I1217 22:25:17.239843 47671 layer_factory.hpp:76] Creating layer relu14
I1217 22:25:17.239863 47671 net.cpp:110] Creating Layer relu14
I1217 22:25:17.239877 47671 net.cpp:477] relu14 <- eltwise14
I1217 22:25:17.239893 47671 net.cpp:419] relu14 -> eltwise14 (in-place)
I1217 22:25:17.239976 47671 net.cpp:155] Setting up relu14
I1217 22:25:17.239998 47671 net.cpp:163] Top shape: 36 512 7 7 (903168)
I1217 22:25:17.240012 47671 layer_factory.hpp:76] Creating layer eltwise14_relu14_0_split
I1217 22:25:17.240031 47671 net.cpp:110] Creating Layer eltwise14_relu14_0_split
I1217 22:25:17.240046 47671 net.cpp:477] eltwise14_relu14_0_split <- eltwise14
I1217 22:25:17.240066 47671 net.cpp:433] eltwise14_relu14_0_split -> eltwise14_relu14_0_split_0
I1217 22:25:17.240108 47671 net.cpp:433] eltwise14_relu14_0_split -> eltwise14_relu14_0_split_1
I1217 22:25:17.240126 47671 net.cpp:155] Setting up eltwise14_relu14_0_split
I1217 22:25:17.240141 47671 net.cpp:163] Top shape: 36 512 7 7 (903168)
I1217 22:25:17.240157 47671 net.cpp:163] Top shape: 36 512 7 7 (903168)
I1217 22:25:17.240172 47671 layer_factory.hpp:76] Creating layer conv53
I1217 22:25:17.240195 47671 net.cpp:110] Creating Layer conv53
I1217 22:25:17.240208 47671 net.cpp:477] conv53 <- eltwise14_relu14_0_split_0
I1217 22:25:17.240224 47671 net.cpp:433] conv53 -> conv53
I1217 22:25:17.263016 47671 net.cpp:155] Setting up conv53
I1217 22:25:17.263058 47671 net.cpp:163] Top shape: 36 512 7 7 (903168)
I1217 22:25:17.263105 47671 layer_factory.hpp:76] Creating layer bn53
I1217 22:25:17.263129 47671 net.cpp:110] Creating Layer bn53
I1217 22:25:17.263144 47671 net.cpp:477] bn53 <- conv53
I1217 22:25:17.263170 47671 net.cpp:433] bn53 -> bn53
I1217 22:25:17.263301 47671 net.cpp:155] Setting up bn53
I1217 22:25:17.263321 47671 net.cpp:163] Top shape: 36 512 7 7 (903168)
I1217 22:25:17.263342 47671 layer_factory.hpp:76] Creating layer relu53
I1217 22:25:17.263362 47671 net.cpp:110] Creating Layer relu53
I1217 22:25:17.263376 47671 net.cpp:477] relu53 <- bn53
I1217 22:25:17.263391 47671 net.cpp:419] relu53 -> bn53 (in-place)
I1217 22:25:17.263475 47671 net.cpp:155] Setting up relu53
I1217 22:25:17.263491 47671 net.cpp:163] Top shape: 36 512 7 7 (903168)
I1217 22:25:17.263502 47671 layer_factory.hpp:76] Creating layer conv54
I1217 22:25:17.263520 47671 net.cpp:110] Creating Layer conv54
I1217 22:25:17.263532 47671 net.cpp:477] conv54 <- bn53
I1217 22:25:17.263545 47671 net.cpp:433] conv54 -> conv54
I1217 22:25:17.285117 47671 net.cpp:155] Setting up conv54
I1217 22:25:17.285159 47671 net.cpp:163] Top shape: 36 512 7 7 (903168)
I1217 22:25:17.285178 47671 layer_factory.hpp:76] Creating layer bn54
I1217 22:25:17.285220 47671 net.cpp:110] Creating Layer bn54
I1217 22:25:17.285235 47671 net.cpp:477] bn54 <- conv54
I1217 22:25:17.285287 47671 net.cpp:433] bn54 -> bn54
I1217 22:25:17.285416 47671 net.cpp:155] Setting up bn54
I1217 22:25:17.285437 47671 net.cpp:163] Top shape: 36 512 7 7 (903168)
I1217 22:25:17.285467 47671 layer_factory.hpp:76] Creating layer relu54
I1217 22:25:17.285485 47671 net.cpp:110] Creating Layer relu54
I1217 22:25:17.285501 47671 net.cpp:477] relu54 <- bn54
I1217 22:25:17.285519 47671 net.cpp:419] relu54 -> bn54 (in-place)
I1217 22:25:17.285720 47671 net.cpp:155] Setting up relu54
I1217 22:25:17.285742 47671 net.cpp:163] Top shape: 36 512 7 7 (903168)
I1217 22:25:17.285760 47671 layer_factory.hpp:76] Creating layer eltwise15
I1217 22:25:17.285781 47671 net.cpp:110] Creating Layer eltwise15
I1217 22:25:17.285796 47671 net.cpp:477] eltwise15 <- eltwise14_relu14_0_split_1
I1217 22:25:17.285815 47671 net.cpp:477] eltwise15 <- bn54
I1217 22:25:17.285831 47671 net.cpp:433] eltwise15 -> eltwise15
I1217 22:25:17.285852 47671 net.cpp:155] Setting up eltwise15
I1217 22:25:17.285867 47671 net.cpp:163] Top shape: 36 512 7 7 (903168)
I1217 22:25:17.285881 47671 layer_factory.hpp:76] Creating layer relu15
I1217 22:25:17.285897 47671 net.cpp:110] Creating Layer relu15
I1217 22:25:17.285912 47671 net.cpp:477] relu15 <- eltwise15
I1217 22:25:17.285928 47671 net.cpp:419] relu15 -> eltwise15 (in-place)
I1217 22:25:17.286005 47671 net.cpp:155] Setting up relu15
I1217 22:25:17.286025 47671 net.cpp:163] Top shape: 36 512 7 7 (903168)
I1217 22:25:17.286038 47671 layer_factory.hpp:76] Creating layer eltwise15_relu15_0_split
I1217 22:25:17.286054 47671 net.cpp:110] Creating Layer eltwise15_relu15_0_split
I1217 22:25:17.286068 47671 net.cpp:477] eltwise15_relu15_0_split <- eltwise15
I1217 22:25:17.286085 47671 net.cpp:433] eltwise15_relu15_0_split -> eltwise15_relu15_0_split_0
I1217 22:25:17.286103 47671 net.cpp:433] eltwise15_relu15_0_split -> eltwise15_relu15_0_split_1
I1217 22:25:17.286123 47671 net.cpp:155] Setting up eltwise15_relu15_0_split
I1217 22:25:17.286139 47671 net.cpp:163] Top shape: 36 512 7 7 (903168)
I1217 22:25:17.286155 47671 net.cpp:163] Top shape: 36 512 7 7 (903168)
I1217 22:25:17.286170 47671 layer_factory.hpp:76] Creating layer conv55
I1217 22:25:17.286190 47671 net.cpp:110] Creating Layer conv55
I1217 22:25:17.286262 47671 net.cpp:477] conv55 <- eltwise15_relu15_0_split_0
I1217 22:25:17.286284 47671 net.cpp:433] conv55 -> conv55
I1217 22:25:17.311101 47671 net.cpp:155] Setting up conv55
I1217 22:25:17.311154 47671 net.cpp:163] Top shape: 36 512 7 7 (903168)
I1217 22:25:17.311184 47671 layer_factory.hpp:76] Creating layer bn55
I1217 22:25:17.311206 47671 net.cpp:110] Creating Layer bn55
I1217 22:25:17.311236 47671 net.cpp:477] bn55 <- conv55
I1217 22:25:17.311264 47671 net.cpp:433] bn55 -> bn55
I1217 22:25:17.311388 47671 net.cpp:155] Setting up bn55
I1217 22:25:17.311409 47671 net.cpp:163] Top shape: 36 512 7 7 (903168)
I1217 22:25:17.311429 47671 layer_factory.hpp:76] Creating layer relu55
I1217 22:25:17.311445 47671 net.cpp:110] Creating Layer relu55
I1217 22:25:17.311460 47671 net.cpp:477] relu55 <- bn55
I1217 22:25:17.311480 47671 net.cpp:419] relu55 -> bn55 (in-place)
I1217 22:25:17.311576 47671 net.cpp:155] Setting up relu55
I1217 22:25:17.311597 47671 net.cpp:163] Top shape: 36 512 7 7 (903168)
I1217 22:25:17.311614 47671 layer_factory.hpp:76] Creating layer conv56
I1217 22:25:17.311632 47671 net.cpp:110] Creating Layer conv56
I1217 22:25:17.311646 47671 net.cpp:477] conv56 <- bn55
I1217 22:25:17.311668 47671 net.cpp:433] conv56 -> conv56
I1217 22:25:17.334316 47671 net.cpp:155] Setting up conv56
I1217 22:25:17.334378 47671 net.cpp:163] Top shape: 36 512 7 7 (903168)
I1217 22:25:17.334405 47671 layer_factory.hpp:76] Creating layer bn56
I1217 22:25:17.334431 47671 net.cpp:110] Creating Layer bn56
I1217 22:25:17.334455 47671 net.cpp:477] bn56 <- conv56
I1217 22:25:17.334486 47671 net.cpp:433] bn56 -> bn56
I1217 22:25:17.334609 47671 net.cpp:155] Setting up bn56
I1217 22:25:17.334630 47671 net.cpp:163] Top shape: 36 512 7 7 (903168)
I1217 22:25:17.334655 47671 layer_factory.hpp:76] Creating layer relu56
I1217 22:25:17.334702 47671 net.cpp:110] Creating Layer relu56
I1217 22:25:17.334718 47671 net.cpp:477] relu56 <- bn56
I1217 22:25:17.334734 47671 net.cpp:419] relu56 -> bn56 (in-place)
I1217 22:25:17.334947 47671 net.cpp:155] Setting up relu56
I1217 22:25:17.334975 47671 net.cpp:163] Top shape: 36 512 7 7 (903168)
I1217 22:25:17.334990 47671 layer_factory.hpp:76] Creating layer eltwise16
I1217 22:25:17.335010 47671 net.cpp:110] Creating Layer eltwise16
I1217 22:25:17.335024 47671 net.cpp:477] eltwise16 <- eltwise15_relu15_0_split_1
I1217 22:25:17.335041 47671 net.cpp:477] eltwise16 <- bn56
I1217 22:25:17.335060 47671 net.cpp:433] eltwise16 -> eltwise16
I1217 22:25:17.335083 47671 net.cpp:155] Setting up eltwise16
I1217 22:25:17.335098 47671 net.cpp:163] Top shape: 36 512 7 7 (903168)
I1217 22:25:17.335114 47671 layer_factory.hpp:76] Creating layer relu16
I1217 22:25:17.335131 47671 net.cpp:110] Creating Layer relu16
I1217 22:25:17.335145 47671 net.cpp:477] relu16 <- eltwise16
I1217 22:25:17.335161 47671 net.cpp:419] relu16 -> eltwise16 (in-place)
I1217 22:25:17.335239 47671 net.cpp:155] Setting up relu16
I1217 22:25:17.335261 47671 net.cpp:163] Top shape: 36 512 7 7 (903168)
I1217 22:25:17.335275 47671 layer_factory.hpp:76] Creating layer pool5
I1217 22:25:17.335294 47671 net.cpp:110] Creating Layer pool5
I1217 22:25:17.335307 47671 net.cpp:477] pool5 <- eltwise16
I1217 22:25:17.335327 47671 net.cpp:433] pool5 -> pool5
I1217 22:25:17.335409 47671 net.cpp:155] Setting up pool5
I1217 22:25:17.335434 47671 net.cpp:163] Top shape: 36 512 1 1 (18432)
I1217 22:25:17.335449 47671 layer_factory.hpp:76] Creating layer ip1
I1217 22:25:17.335469 47671 net.cpp:110] Creating Layer ip1
I1217 22:25:17.335481 47671 net.cpp:477] ip1 <- pool5
I1217 22:25:17.335533 47671 net.cpp:433] ip1 -> ip1
I1217 22:25:17.388521 47671 net.cpp:155] Setting up ip1
I1217 22:25:17.388572 47671 net.cpp:163] Top shape: 36 10575 (380700)
I1217 22:25:17.388592 47671 layer_factory.hpp:76] Creating layer accuracy
I1217 22:25:17.388612 47671 net.cpp:110] Creating Layer accuracy
I1217 22:25:17.388628 47671 net.cpp:477] accuracy <- ip1
I1217 22:25:17.388716 47671 net.cpp:477] accuracy <- label
I1217 22:25:17.388743 47671 net.cpp:433] accuracy -> accuracy
I1217 22:25:17.388777 47671 net.cpp:155] Setting up accuracy
I1217 22:25:17.388793 47671 net.cpp:163] Top shape: (1)
…
