…
I1219 16:29:31.174131 35822 solver.cpp:97] Creating training net from net file: ./rsdnet34.prototxt
I1219 16:29:31.177012 35822 net.cpp:339] The NetState phase (0) differed from the phase (1) specified by a rule in layer data
I1219 16:29:31.177754 35822 net.cpp:50] Initializing net from parameters: 
name: "RsdNet34"
state {
  phase: TRAIN
}
layer {
  name: "data"
  type: "Data"
  top: "data"
  top: "label"
  include {
    phase: TRAIN
  }
  transform_param {
    scale: 0.0039215689
    mirror: true
    mean_file: "./mean_224gray.binaryproto"
  }
  data_param {
    source: "./train_224gray_lmdb"
    batch_size: 48
    backend: LMDB
  }
}
layer {
  name: "conv01"
  type: "Convolution"
  bottom: "data"
  top: "conv01"
  param {
    lr_mult: 1
    decay_mult: 1
  }
  param {
    lr_mult: 2
    decay_mult: 0
  }
  convolution_param {
    num_output: 64
    pad: 3
    kernel_size: 7
    stride: 2
    weight_filler {
      type: "xavier"
    }
    bias_filler {
      type: "constant"
    }
  }
}
layer {
  name: "bn01"
  type: "BatchNorm"
  bottom: "conv01"
  top: "bn01"
  batch_norm_param {
    use_global_stats: false
  }
}
layer {
  name: "relu01"
  type: "ReLU"
  bottom: "bn01"
  top: "bn01"
}
layer {
  name: "pool1"
  type: "Pooling"
  bottom: "bn01"
  top: "pool1"
  pooling_param {
    pool: MAX
    kernel_size: 3
    stride: 2
  }
}
layer {
  name: "conv21"
  type: "Convolution"
  bottom: "pool1"
  top: "conv21"
  param {
    lr_mult: 1
    decay_mult: 1
  }
  param {
    lr_mult: 2
    decay_mult: 0
  }
  convolution_param {
    num_output: 64
    pad: 1
    kernel_size: 3
    stride: 1
    weight_filler {
      type: "xavier"
    }
    bias_filler {
      type: "constant"
    }
  }
}
layer {
  name: "bn21"
  type: "BatchNorm"
  bottom: "conv21"
  top: "bn21"
  batch_norm_param {
    use_global_stats: false
  }
}
layer {
  name: "relu21"
  type: "ReLU"
  bottom: "bn21"
  top: "bn21"
}
layer {
  name: "conv22"
  type: "Convolution"
  bottom: "bn21"
  top: "conv22"
  param {
    lr_mult: 1
    decay_mult: 1
  }
  param {
    lr_mult: 2
    decay_mult: 0
  }
  convolution_param {
    num_output: 64
    pad: 1
    kernel_size: 3
    stride: 1
    weight_filler {
      type: "xavier"
    }
    bias_filler {
      type: "constant"
    }
  }
}
layer {
  name: "bn22"
  type: "BatchNorm"
  bottom: "conv22"
  top: "bn22"
  batch_norm_param {
    use_global_stats: false
  }
}
layer {
  name: "relu22"
  type: "ReLU"
  bottom: "bn22"
  top: "bn22"
}
layer {
  name: "eltwise1"
  type: "Eltwise"
  bottom: "pool1"
  bottom: "bn22"
  top: "eltwise1"
  eltwise_param {
    operation: SUM
  }
}
layer {
  name: "relu1"
  type: "ReLU"
  bottom: "eltwise1"
  top: "eltwise1"
}
layer {
  name: "conv23"
  type: "Convolution"
  bottom: "eltwise1"
  top: "conv23"
  param {
    lr_mult: 1
    decay_mult: 1
  }
  param {
    lr_mult: 2
    decay_mult: 0
  }
  convolution_param {
    num_output: 64
    pad: 1
    kernel_size: 3
    stride: 1
    weight_filler {
      type: "xavier"
    }
    bias_filler {
      type: "constant"
    }
  }
}
layer {
  name: "bn23"
  type: "BatchNorm"
  bottom: "conv23"
  top: "bn23"
  batch_norm_param {
    use_global_stats: false
  }
}
layer {
  name: "relu23"
  type: "ReLU"
  bottom: "bn23"
  top: "bn23"
}
layer {
  name: "conv24"
  type: "Convolution"
  bottom: "bn23"
  top: "conv24"
  param {
    lr_mult: 1
    decay_mult: 1
  }
  param {
    lr_mult: 2
    decay_mult: 0
  }
  convolution_param {
    num_output: 64
    pad: 1
    kernel_size: 3
    stride: 1
    weight_filler {
      type: "xavier"
    }
    bias_filler {
      type: "constant"
    }
  }
}
layer {
  name: "bn24"
  type: "BatchNorm"
  bottom: "conv24"
  top: "bn24"
  batch_norm_param {
    use_global_stats: false
  }
}
layer {
  name: "relu24"
  type: "ReLU"
  bottom: "bn24"
  top: "bn24"
}
layer {
  name: "eltwise2"
  type: "Eltwise"
  bottom: "eltwise1"
  bottom: "bn24"
  top: "eltwise2"
  eltwise_param {
    operation: SUM
  }
}
layer {
  name: "relu2"
  type: "ReLU"
  bottom: "eltwise2"
  top: "eltwise2"
}
layer {
  name: "conv25"
  type: "Convolution"
  bottom: "bn24"
  top: "conv25"
  param {
    lr_mult: 1
    decay_mult: 1
  }
  param {
    lr_mult: 2
    decay_mult: 0
  }
  convolution_param {
    num_output: 64
    pad: 1
    kernel_size: 3
    stride: 1
    weight_filler {
      type: "xavier"
    }
    bias_filler {
      type: "constant"
    }
  }
}
layer {
  name: "bn25"
  type: "BatchNorm"
  bottom: "conv25"
  top: "bn25"
  batch_norm_param {
    use_global_stats: false
  }
}
layer {
  name: "relu25"
  type: "ReLU"
  bottom: "bn25"
  top: "bn25"
}
layer {
  name: "conv26"
  type: "Convolution"
  bottom: "bn25"
  top: "conv26"
  param {
    lr_mult: 1
    decay_mult: 1
  }
  param {
    lr_mult: 2
    decay_mult: 0
  }
  convolution_param {
    num_output: 64
    pad: 1
    kernel_size: 3
    stride: 1
    weight_filler {
      type: "xavier"
    }
    bias_filler {
      type: "constant"
    }
  }
}
layer {
  name: "bn26"
  type: "BatchNorm"
  bottom: "conv26"
  top: "bn26"
  batch_norm_param {
    use_global_stats: false
  }
}
layer {
  name: "relu26"
  type: "ReLU"
  bottom: "bn26"
  top: "bn26"
}
layer {
  name: "eltwise3"
  type: "Eltwise"
  bottom: "eltwise2"
  bottom: "bn26"
  top: "eltwise3"
  eltwise_param {
    operation: SUM
  }
}
layer {
  name: "relu3"
  type: "ReLU"
  bottom: "eltwise3"
  top: "eltwise3"
}
layer {
  name: "relu3_p"
  type: "Convolution"
  bottom: "eltwise3"
  top: "relu3_p"
  param {
    lr_mult: 1
    decay_mult: 1
  }
  param {
    lr_mult: 2
    decay_mult: 0
  }
  convolution_param {
    num_output: 128
    pad: 0
    kernel_size: 1
    stride: 2
    weight_filler {
      type: "xavier"
    }
    bias_filler {
      type: "constant"
    }
  }
}
layer {
  name: "relu3_bn"
  type: "BatchNorm"
  bottom: "relu3_p"
  top: "relu3_bn"
  batch_norm_param {
    use_global_stats: false
  }
}
layer {
  name: "conv31"
  type: "Convolution"
  bottom: "eltwise3"
  top: "conv31"
  param {
    lr_mult: 1
    decay_mult: 1
  }
  param {
    lr_mult: 2
    decay_mult: 0
  }
  convolution_param {
    num_output: 128
    pad: 1
    kernel_size: 3
    stride: 2
    weight_filler {
      type: "xavier"
    }
    bias_filler {
      type: "constant"
    }
  }
}
layer {
  name: "bn31"
  type: "BatchNorm"
  bottom: "conv31"
  top: "bn31"
  batch_norm_param {
    use_global_stats: false
  }
}
layer {
  name: "relu31"
  type: "ReLU"
  bottom: "bn31"
  top: "bn31"
}
layer {
  name: "conv32"
  type: "Convolution"
  bottom: "bn31"
  top: "conv32"
  param {
    lr_mult: 1
    decay_mult: 1
  }
  param {
    lr_mult: 2
    decay_mult: 0
  }
  convolution_param {
    num_output: 128
    pad: 1
    kernel_size: 3
    stride: 1
    weight_filler {
      type: "xavier"
    }
    bias_filler {
      type: "constant"
    }
  }
}
layer {
  name: "bn32"
  type: "BatchNorm"
  bottom: "conv32"
  top: "bn32"
  batch_norm_param {
    use_global_stats: false
  }
}
layer {
  name: "relu32"
  type: "ReLU"
  bottom: "bn32"
  top: "bn32"
}
layer {
  name: "eltwise4"
  type: "Eltwise"
  bottom: "relu3_bn"
  bottom: "bn32"
  top: "eltwise4"
  eltwise_param {
    operation: SUM
  }
}
layer {
  name: "relu4"
  type: "ReLU"
  bottom: "eltwise4"
  top: "eltwise4"
}
layer {
  name: "conv33"
  type: "Convolution"
  bottom: "eltwise4"
  top: "conv33"
  param {
    lr_mult: 1
    decay_mult: 1
  }
  param {
    lr_mult: 2
    decay_mult: 0
  }
  convolution_param {
    num_output: 128
    pad: 1
    kernel_size: 3
    stride: 1
    weight_filler {
      type: "xavier"
    }
    bias_filler {
      type: "constant"
    }
  }
}
layer {
  name: "bn33"
  type: "BatchNorm"
  bottom: "conv33"
  top: "bn33"
  batch_norm_param {
    use_global_stats: false
  }
}
layer {
  name: "relu33"
  type: "ReLU"
  bottom: "bn33"
  top: "bn33"
}
layer {
  name: "conv34"
  type: "Convolution"
  bottom: "bn33"
  top: "conv34"
  param {
    lr_mult: 1
    decay_mult: 1
  }
  param {
    lr_mult: 2
    decay_mult: 0
  }
  convolution_param {
    num_output: 128
    pad: 1
    kernel_size: 3
    stride: 1
    weight_filler {
      type: "xavier"
    }
    bias_filler {
      type: "constant"
    }
  }
}
layer {
  name: "bn34"
  type: "BatchNorm"
  bottom: "conv34"
  top: "bn34"
  batch_norm_param {
    use_global_stats: false
  }
}
layer {
  name: "relu34"
  type: "ReLU"
  bottom: "bn34"
  top: "bn34"
}
layer {
  name: "eltwise5"
  type: "Eltwise"
  bottom: "eltwise4"
  bottom: "bn34"
  top: "eltwise5"
  eltwise_param {
    operation: SUM
  }
}
layer {
  name: "relu5"
  type: "ReLU"
  bottom: "eltwise5"
  top: "eltwise5"
}
layer {
  name: "conv35"
  type: "Convolution"
  bottom: "eltwise5"
  top: "conv35"
  param {
    lr_mult: 1
    decay_mult: 1
  }
  param {
    lr_mult: 2
    decay_mult: 0
  }
  convolution_param {
    num_output: 128
    pad: 1
    kernel_size: 3
    stride: 1
    weight_filler {
      type: "xavier"
    }
    bias_filler {
      type: "constant"
    }
  }
}
layer {
  name: "bn35"
  type: "BatchNorm"
  bottom: "conv35"
  top: "bn35"
  batch_norm_param {
    use_global_stats: false
  }
}
layer {
  name: "relu35"
  type: "ReLU"
  bottom: "bn35"
  top: "bn35"
}
layer {
  name: "conv36"
  type: "Convolution"
  bottom: "bn35"
  top: "conv36"
  param {
    lr_mult: 1
    decay_mult: 1
  }
  param {
    lr_mult: 2
    decay_mult: 0
  }
  convolution_param {
    num_output: 128
    pad: 1
    kernel_size: 3
    stride: 1
    weight_filler {
      type: "xavier"
    }
    bias_filler {
      type: "constant"
    }
  }
}
layer {
  name: "bn36"
  type: "BatchNorm"
  bottom: "conv36"
  top: "bn36"
  batch_norm_param {
    use_global_stats: false
  }
}
layer {
  name: "relu36"
  type: "ReLU"
  bottom: "bn36"
  top: "bn36"
}
layer {
  name: "eltwise6"
  type: "Eltwise"
  bottom: "eltwise5"
  bottom: "bn36"
  top: "eltwise6"
  eltwise_param {
    operation: SUM
  }
}
layer {
  name: "relu6"
  type: "ReLU"
  bottom: "eltwise6"
  top: "eltwise6"
}
layer {
  name: "conv37"
  type: "Convolution"
  bottom: "eltwise6"
  top: "conv37"
  param {
    lr_mult: 1
    decay_mult: 1
  }
  param {
    lr_mult: 2
    decay_mult: 0
  }
  convolution_param {
    num_output: 128
    pad: 1
    kernel_size: 3
    stride: 1
    weight_filler {
      type: "xavier"
    }
    bias_filler {
      type: "constant"
    }
  }
}
layer {
  name: "bn37"
  type: "BatchNorm"
  bottom: "conv37"
  top: "bn37"
  batch_norm_param {
    use_global_stats: false
  }
}
layer {
  name: "relu37"
  type: "ReLU"
  bottom: "bn37"
  top: "bn37"
}
layer {
  name: "conv38"
  type: "Convolution"
  bottom: "bn37"
  top: "conv38"
  param {
    lr_mult: 1
    decay_mult: 1
  }
  param {
    lr_mult: 2
    decay_mult: 0
  }
  convolution_param {
    num_output: 128
    pad: 1
    kernel_size: 3
    stride: 1
    weight_filler {
      type: "xavier"
    }
    bias_filler {
      type: "constant"
    }
  }
}
layer {
  name: "bn38"
  type: "BatchNorm"
  bottom: "conv38"
  top: "bn38"
  batch_norm_param {
    use_global_stats: false
  }
}
layer {
  name: "relu38"
  type: "ReLU"
  bottom: "bn38"
  top: "bn38"
}
layer {
  name: "eltwise7"
  type: "Eltwise"
  bottom: "eltwise6"
  bottom: "bn38"
  top: "eltwise7"
  eltwise_param {
    operation: SUM
  }
}
layer {
  name: "relu7"
  type: "ReLU"
  bottom: "eltwise7"
  top: "eltwise7"
}
layer {
  name: "relu7_p"
  type: "Convolution"
  bottom: "eltwise7"
  top: "relu7_p"
  param {
    lr_mult: 1
    decay_mult: 1
  }
  param {
    lr_mult: 2
    decay_mult: 0
  }
  convolution_param {
    num_output: 256
    pad: 0
    kernel_size: 1
    stride: 2
    weight_filler {
      type: "xavier"
    }
    bias_filler {
      type: "constant"
    }
  }
}
layer {
  name: "relu7_bn"
  type: "BatchNorm"
  bottom: "relu7_p"
  top: "relu7_bn"
  batch_norm_param {
    use_global_stats: false
  }
}
layer {
  name: "conv41"
  type: "Convolution"
  bottom: "eltwise7"
  top: "conv41"
  param {
    lr_mult: 1
    decay_mult: 1
  }
  param {
    lr_mult: 2
    decay_mult: 0
  }
  convolution_param {
    num_output: 256
    pad: 1
    kernel_size: 3
    stride: 2
    weight_filler {
      type: "xavier"
    }
    bias_filler {
      type: "constant"
    }
  }
}
layer {
  name: "bn41"
  type: "BatchNorm"
  bottom: "conv41"
  top: "bn41"
  batch_norm_param {
    use_global_stats: false
  }
}
layer {
  name: "relu41"
  type: "ReLU"
  bottom: "bn41"
  top: "bn41"
}
layer {
  name: "conv42"
  type: "Convolution"
  bottom: "bn41"
  top: "conv42"
  param {
    lr_mult: 1
    decay_mult: 1
  }
  param {
    lr_mult: 2
    decay_mult: 0
  }
  convolution_param {
    num_output: 256
    pad: 1
    kernel_size: 3
    stride: 1
    weight_filler {
      type: "xavier"
    }
    bias_filler {
      type: "constant"
    }
  }
}
layer {
  name: "bn42"
  type: "BatchNorm"
  bottom: "conv42"
  top: "bn42"
  batch_norm_param {
    use_global_stats: false
  }
}
layer {
  name: "relu42"
  type: "ReLU"
  bottom: "bn42"
  top: "bn42"
}
layer {
  name: "eltwise8"
  type: "Eltwise"
  bottom: "relu7_bn"
  bottom: "bn42"
  top: "eltwise8"
  eltwise_param {
    operation: SUM
  }
}
layer {
  name: "relu8"
  type: "ReLU"
  bottom: "eltwise8"
  top: "eltwise8"
}
layer {
  name: "conv43"
  type: "Convolution"
  bottom: "eltwise8"
  top: "conv43"
  param {
    lr_mult: 1
    decay_mult: 1
  }
  param {
    lr_mult: 2
    decay_mult: 0
  }
  convolution_param {
    num_output: 256
    pad: 1
    kernel_size: 3
    stride: 1
    weight_filler {
      type: "xavier"
    }
    bias_filler {
      type: "constant"
    }
  }
}
layer {
  name: "bn43"
  type: "BatchNorm"
  bottom: "conv43"
  top: "bn43"
  batch_norm_param {
    use_global_stats: false
  }
}
layer {
  name: "relu43"
  type: "ReLU"
  bottom: "bn43"
  top: "bn43"
}
layer {
  name: "conv44"
  type: "Convolution"
  bottom: "bn43"
  top: "conv44"
  param {
    lr_mult: 1
    decay_mult: 1
  }
  param {
    lr_mult: 2
    decay_mult: 0
  }
  convolution_param {
    num_output: 256
    pad: 1
    kernel_size: 3
    stride: 1
    weight_filler {
      type: "xavier"
    }
    bias_filler {
      type: "constant"
    }
  }
}
layer {
  name: "bn44"
  type: "BatchNorm"
  bottom: "conv44"
  top: "bn44"
  batch_norm_param {
    use_global_stats: false
  }
}
layer {
  name: "relu44"
  type: "ReLU"
  bottom: "bn44"
  top: "bn44"
}
layer {
  name: "eltwise9"
  type: "Eltwise"
  bottom: "eltwise8"
  bottom: "bn44"
  top: "eltwise9"
  eltwise_param {
    operation: SUM
  }
}
layer {
  name: "relu9"
  type: "ReLU"
  bottom: "eltwise9"
  top: "eltwise9"
}
layer {
  name: "conv45"
  type: "Convolution"
  bottom: "eltwise9"
  top: "conv45"
  param {
    lr_mult: 1
    decay_mult: 1
  }
  param {
    lr_mult: 2
    decay_mult: 0
  }
  convolution_param {
    num_output: 256
    pad: 1
    kernel_size: 3
    stride: 1
    weight_filler {
      type: "xavier"
    }
    bias_filler {
      type: "constant"
    }
  }
}
layer {
  name: "bn45"
  type: "BatchNorm"
  bottom: "conv45"
  top: "bn45"
  batch_norm_param {
    use_global_stats: false
  }
}
layer {
  name: "relu45"
  type: "ReLU"
  bottom: "bn45"
  top: "bn45"
}
layer {
  name: "conv46"
  type: "Convolution"
  bottom: "bn45"
  top: "conv46"
  param {
    lr_mult: 1
    decay_mult: 1
  }
  param {
    lr_mult: 2
    decay_mult: 0
  }
  convolution_param {
    num_output: 256
    pad: 1
    kernel_size: 3
    stride: 1
    weight_filler {
      type: "xavier"
    }
    bias_filler {
      type: "constant"
    }
  }
}
layer {
  name: "bn46"
  type: "BatchNorm"
  bottom: "conv46"
  top: "bn46"
  batch_norm_param {
    use_global_stats: false
  }
}
layer {
  name: "relu46"
  type: "ReLU"
  bottom: "bn46"
  top: "bn46"
}
layer {
  name: "eltwise10"
  type: "Eltwise"
  bottom: "eltwise9"
  bottom: "bn46"
  top: "eltwise10"
  eltwise_param {
    operation: SUM
  }
}
layer {
  name: "relu10"
  type: "ReLU"
  bottom: "eltwise10"
  top: "eltwise10"
}
layer {
  name: "conv47"
  type: "Convolution"
  bottom: "eltwise10"
  top: "conv47"
  param {
    lr_mult: 1
    decay_mult: 1
  }
  param {
    lr_mult: 2
    decay_mult: 0
  }
  convolution_param {
    num_output: 256
    pad: 1
    kernel_size: 3
    stride: 1
    weight_filler {
      type: "xavier"
    }
    bias_filler {
      type: "constant"
    }
  }
}
layer {
  name: "bn47"
  type: "BatchNorm"
  bottom: "conv47"
  top: "bn47"
  batch_norm_param {
    use_global_stats: false
  }
}
layer {
  name: "relu47"
  type: "ReLU"
  bottom: "bn47"
  top: "bn47"
}
layer {
  name: "conv48"
  type: "Convolution"
  bottom: "bn47"
  top: "conv48"
  param {
    lr_mult: 1
    decay_mult: 1
  }
  param {
    lr_mult: 2
    decay_mult: 0
  }
  convolution_param {
    num_output: 256
    pad: 1
    kernel_size: 3
    stride: 1
    weight_filler {
      type: "xavier"
    }
    bias_filler {
      type: "constant"
    }
  }
}
layer {
  name: "bn48"
  type: "BatchNorm"
  bottom: "conv48"
  top: "bn48"
  batch_norm_param {
    use_global_stats: false
  }
}
layer {
  name: "relu48"
  type: "ReLU"
  bottom: "bn48"
  top: "bn48"
}
layer {
  name: "eltwise11"
  type: "Eltwise"
  bottom: "eltwise10"
  bottom: "bn48"
  top: "eltwise11"
  eltwise_param {
    operation: SUM
  }
}
layer {
  name: "relu11"
  type: "ReLU"
  bottom: "eltwise11"
  top: "eltwise11"
}
layer {
  name: "conv49"
  type: "Convolution"
  bottom: "eltwise11"
  top: "conv49"
  param {
    lr_mult: 1
    decay_mult: 1
  }
  param {
    lr_mult: 2
    decay_mult: 0
  }
  convolution_param {
    num_output: 256
    pad: 1
    kernel_size: 3
    stride: 1
    weight_filler {
      type: "xavier"
    }
    bias_filler {
      type: "constant"
    }
  }
}
layer {
  name: "bn49"
  type: "BatchNorm"
  bottom: "conv49"
  top: "bn49"
  batch_norm_param {
    use_global_stats: false
  }
}
layer {
  name: "relu49"
  type: "ReLU"
  bottom: "bn49"
  top: "bn49"
}
layer {
  name: "conv410"
  type: "Convolution"
  bottom: "bn49"
  top: "conv410"
  param {
    lr_mult: 1
    decay_mult: 1
  }
  param {
    lr_mult: 2
    decay_mult: 0
  }
  convolution_param {
    num_output: 256
    pad: 1
    kernel_size: 3
    stride: 1
    weight_filler {
      type: "xavier"
    }
    bias_filler {
      type: "constant"
    }
  }
}
layer {
  name: "bn410"
  type: "BatchNorm"
  bottom: "conv410"
  top: "bn410"
  batch_norm_param {
    use_global_stats: false
  }
}
layer {
  name: "relu410"
  type: "ReLU"
  bottom: "bn410"
  top: "bn410"
}
layer {
  name: "eltwise12"
  type: "Eltwise"
  bottom: "eltwise11"
  bottom: "bn410"
  top: "eltwise12"
  eltwise_param {
    operation: SUM
  }
}
layer {
  name: "relu12"
  type: "ReLU"
  bottom: "eltwise12"
  top: "eltwise12"
}
layer {
  name: "conv411"
  type: "Convolution"
  bottom: "eltwise12"
  top: "conv411"
  param {
    lr_mult: 1
    decay_mult: 1
  }
  param {
    lr_mult: 2
    decay_mult: 0
  }
  convolution_param {
    num_output: 256
    pad: 1
    kernel_size: 3
    stride: 1
    weight_filler {
      type: "xavier"
    }
    bias_filler {
      type: "constant"
    }
  }
}
layer {
  name: "bn411"
  type: "BatchNorm"
  bottom: "conv411"
  top: "bn411"
  batch_norm_param {
    use_global_stats: false
  }
}
layer {
  name: "relu411"
  type: "ReLU"
  bottom: "bn411"
  top: "bn411"
}
layer {
  name: "conv412"
  type: "Convolution"
  bottom: "bn411"
  top: "conv412"
  param {
    lr_mult: 1
    decay_mult: 1
  }
  param {
    lr_mult: 2
    decay_mult: 0
  }
  convolution_param {
    num_output: 256
    pad: 1
    kernel_size: 3
    stride: 1
    weight_filler {
      type: "xavier"
    }
    bias_filler {
      type: "constant"
    }
  }
}
layer {
  name: "bn412"
  type: "BatchNorm"
  bottom: "conv412"
  top: "bn412"
  batch_norm_param {
    use_global_stats: false
  }
}
layer {
  name: "relu412"
  type: "ReLU"
  bottom: "bn412"
  top: "bn412"
}
layer {
  name: "eltwise13"
  type: "Eltwise"
  bottom: "eltwise12"
  bottom: "bn412"
  top: "eltwise13"
  eltwise_param {
    operation: SUM
  }
}
layer {
  name: "relu13"
  type: "ReLU"
  bottom: "eltwise13"
  top: "eltwise13"
}
layer {
  name: "relu13_p"
  type: "Convolution"
  bottom: "eltwise12"
  top: "relu13_p"
  param {
    lr_mult: 1
    decay_mult: 1
  }
  param {
    lr_mult: 2
    decay_mult: 0
  }
  convolution_param {
    num_output: 512
    pad: 0
    kernel_size: 1
    stride: 2
    weight_filler {
      type: "xavier"
    }
    bias_filler {
      type: "constant"
    }
  }
}
layer {
  name: "relu13_bn"
  type: "BatchNorm"
  bottom: "relu13_p"
  top: "relu13_bn"
  batch_norm_param {
    use_global_stats: false
  }
}
layer {
  name: "conv51"
  type: "Convolution"
  bottom: "eltwise13"
  top: "conv51"
  param {
    lr_mult: 1
    decay_mult: 1
  }
  param {
    lr_mult: 2
    decay_mult: 0
  }
  convolution_param {
    num_output: 512
    pad: 1
    kernel_size: 3
    stride: 2
    weight_filler {
      type: "xavier"
    }
    bias_filler {
      type: "constant"
    }
  }
}
layer {
  name: "bn51"
  type: "BatchNorm"
  bottom: "conv51"
  top: "bn51"
  batch_norm_param {
    use_global_stats: false
  }
}
layer {
  name: "relu51"
  type: "ReLU"
  bottom: "bn51"
  top: "bn51"
}
layer {
  name: "conv52"
  type: "Convolution"
  bottom: "bn51"
  top: "conv52"
  param {
    lr_mult: 1
    decay_mult: 1
  }
  param {
    lr_mult: 2
    decay_mult: 0
  }
  convolution_param {
    num_output: 512
    pad: 1
    kernel_size: 3
    stride: 1
    weight_filler {
      type: "xavier"
    }
    bias_filler {
      type: "constant"
    }
  }
}
layer {
  name: "bn52"
  type: "BatchNorm"
  bottom: "conv52"
  top: "bn52"
  batch_norm_param {
    use_global_stats: false
  }
}
layer {
  name: "relu52"
  type: "ReLU"
  bottom: "bn52"
  top: "bn52"
}
layer {
  name: "eltwise14"
  type: "Eltwise"
  bottom: "relu13_bn"
  bottom: "bn52"
  top: "eltwise14"
  eltwise_param {
    operation: SUM
  }
}
layer {
  name: "relu14"
  type: "ReLU"
  bottom: "eltwise14"
  top: "eltwise14"
}
layer {
  name: "conv53"
  type: "Convolution"
  bottom: "eltwise14"
  top: "conv53"
  param {
    lr_mult: 1
    decay_mult: 1
  }
  param {
    lr_mult: 2
    decay_mult: 0
  }
  convolution_param {
    num_output: 512
    pad: 1
    kernel_size: 3
    stride: 1
    weight_filler {
      type: "xavier"
    }
    bias_filler {
      type: "constant"
    }
  }
}
layer {
  name: "bn53"
  type: "BatchNorm"
  bottom: "conv53"
  top: "bn53"
  batch_norm_param {
    use_global_stats: false
  }
}
layer {
  name: "relu53"
  type: "ReLU"
  bottom: "bn53"
  top: "bn53"
}
layer {
  name: "conv54"
  type: "Convolution"
  bottom: "bn53"
  top: "conv54"
  param {
    lr_mult: 1
    decay_mult: 1
  }
  param {
    lr_mult: 2
    decay_mult: 0
  }
  convolution_param {
    num_output: 512
    pad: 1
    kernel_size: 3
    stride: 1
    weight_filler {
      type: "xavier"
    }
    bias_filler {
      type: "constant"
    }
  }
}
layer {
  name: "bn54"
  type: "BatchNorm"
  bottom: "conv54"
  top: "bn54"
  batch_norm_param {
    use_global_stats: false
  }
}
layer {
  name: "relu54"
  type: "ReLU"
  bottom: "bn54"
  top: "bn54"
}
layer {
  name: "eltwise15"
  type: "Eltwise"
  bottom: "eltwise14"
  bottom: "bn54"
  top: "eltwise15"
  eltwise_param {
    operation: SUM
  }
}
layer {
  name: "relu15"
  type: "ReLU"
  bottom: "eltwise15"
  top: "eltwise15"
}
layer {
  name: "conv55"
  type: "Convolution"
  bottom: "eltwise15"
  top: "conv55"
  param {
    lr_mult: 1
    decay_mult: 1
  }
  param {
    lr_mult: 2
    decay_mult: 0
  }
  convolution_param {
    num_output: 512
    pad: 1
    kernel_size: 3
    stride: 1
    weight_filler {
      type: "xavier"
    }
    bias_filler {
      type: "constant"
    }
  }
}
layer {
  name: "bn55"
  type: "BatchNorm"
  bottom: "conv55"
  top: "bn55"
  batch_norm_param {
    use_global_stats: false
  }
}
layer {
  name: "relu55"
  type: "ReLU"
  bottom: "bn55"
  top: "bn55"
}
layer {
  name: "conv56"
  type: "Convolution"
  bottom: "bn55"
  top: "conv56"
  param {
    lr_mult: 1
    decay_mult: 1
  }
  param {
    lr_mult: 2
    decay_mult: 0
  }
  convolution_param {
    num_output: 512
    pad: 1
    kernel_size: 3
    stride: 1
    weight_filler {
      type: "xavier"
    }
    bias_filler {
      type: "constant"
    }
  }
}
layer {
  name: "bn56"
  type: "BatchNorm"
  bottom: "conv56"
  top: "bn56"
  batch_norm_param {
    use_global_stats: false
  }
}
layer {
  name: "relu56"
  type: "ReLU"
  bottom: "bn56"
  top: "bn56"
}
layer {
  name: "eltwise16"
  type: "Eltwise"
  bottom: "eltwise15"
  bottom: "bn56"
  top: "eltwise16"
  eltwise_param {
    operation: SUM
  }
}
layer {
  name: "relu16"
  type: "ReLU"
  bottom: "eltwise16"
  top: "eltwise16"
}
layer {
  name: "pool5"
  type: "Pooling"
  bottom: "eltwise16"
  top: "pool5"
  pooling_param {
    pool: AVE
    kernel_size: 7
    stride: 1
  }
}
layer {
  name: "ip1"
  type: "InnerProduct"
  bottom: "pool5"
  top: "ip1"
  param {
    lr_mult: 1
    decay_mult: 1
  }
  param {
    lr_mult: 2
    decay_mult: 0
  }
  inner_product_param {
    num_output: 10575
    weight_filler {
      type: "xavier"
    }
    bias_filler {
      type: "constant"
    }
  }
}
layer {
  name: "loss"
  type: "SoftmaxWithLoss"
  bottom: "ip1"
  bottom: "label"
  top: "loss"
  include {
    phase: TRAIN
  }
}
layer {
  name: "accuracy"
  type: "Accuracy"
  bottom: "ip1"
  bottom: "label"
  top: "accuracy"
}
I1219 16:29:31.199184 35822 layer_factory.hpp:76] Creating layer data
I1219 16:29:31.199758 35822 net.cpp:110] Creating Layer data
I1219 16:29:31.199815 35822 net.cpp:433] data -> data
I1219 16:29:31.199862 35822 net.cpp:433] data -> label
I1219 16:29:31.199892 35822 data_transformer.cpp:23] Loading mean file from: ./mean_224gray.binaryproto
I1219 16:29:31.202972 35824 db_lmdb.cpp:22] Opened lmdb ./train_224gray_lmdb
I1219 16:29:31.270411 35822 data_layer.cpp:44] output data size: 48,1,224,224
I1219 16:29:31.294749 35822 net.cpp:155] Setting up data
I1219 16:29:31.294802 35822 net.cpp:163] Top shape: 48 1 224 224 (2408448)
I1219 16:29:31.294821 35822 net.cpp:163] Top shape: 48 (48)
I1219 16:29:31.294945 35822 layer_factory.hpp:76] Creating layer label_data_1_split
I1219 16:29:31.294986 35822 net.cpp:110] Creating Layer label_data_1_split
I1219 16:29:31.295003 35822 net.cpp:477] label_data_1_split <- label
I1219 16:29:31.295047 35822 net.cpp:433] label_data_1_split -> label_data_1_split_0
I1219 16:29:31.295079 35822 net.cpp:433] label_data_1_split -> label_data_1_split_1
I1219 16:29:31.295105 35822 net.cpp:155] Setting up label_data_1_split
I1219 16:29:31.295122 35822 net.cpp:163] Top shape: 48 (48)
I1219 16:29:31.295138 35822 net.cpp:163] Top shape: 48 (48)
I1219 16:29:31.295155 35822 layer_factory.hpp:76] Creating layer conv01
I1219 16:29:31.295179 35822 net.cpp:110] Creating Layer conv01
I1219 16:29:31.295195 35822 net.cpp:477] conv01 <- data
I1219 16:29:31.295213 35822 net.cpp:433] conv01 -> conv01
I1219 16:29:31.673363 35822 net.cpp:155] Setting up conv01
I1219 16:29:31.673413 35822 net.cpp:163] Top shape: 48 64 112 112 (38535168)
I1219 16:29:31.673450 35822 layer_factory.hpp:76] Creating layer bn01
I1219 16:29:31.673532 35822 net.cpp:110] Creating Layer bn01
I1219 16:29:31.673547 35822 net.cpp:477] bn01 <- conv01
I1219 16:29:31.673573 35822 net.cpp:433] bn01 -> bn01
I1219 16:29:31.673688 35822 net.cpp:155] Setting up bn01
I1219 16:29:31.673707 35822 net.cpp:163] Top shape: 48 64 112 112 (38535168)
I1219 16:29:31.673733 35822 layer_factory.hpp:76] Creating layer relu01
I1219 16:29:31.673753 35822 net.cpp:110] Creating Layer relu01
I1219 16:29:31.673768 35822 net.cpp:477] relu01 <- bn01
I1219 16:29:31.673784 35822 net.cpp:419] relu01 -> bn01 (in-place)
I1219 16:29:31.673867 35822 net.cpp:155] Setting up relu01
I1219 16:29:31.673887 35822 net.cpp:163] Top shape: 48 64 112 112 (38535168)
I1219 16:29:31.673902 35822 layer_factory.hpp:76] Creating layer pool1
I1219 16:29:31.673926 35822 net.cpp:110] Creating Layer pool1
I1219 16:29:31.673939 35822 net.cpp:477] pool1 <- bn01
I1219 16:29:31.673956 35822 net.cpp:433] pool1 -> pool1
I1219 16:29:31.674048 35822 net.cpp:155] Setting up pool1
I1219 16:29:31.674067 35822 net.cpp:163] Top shape: 48 64 56 56 (9633792)
I1219 16:29:31.674084 35822 layer_factory.hpp:76] Creating layer pool1_pool1_0_split
I1219 16:29:31.674103 35822 net.cpp:110] Creating Layer pool1_pool1_0_split
I1219 16:29:31.674116 35822 net.cpp:477] pool1_pool1_0_split <- pool1
I1219 16:29:31.674166 35822 net.cpp:433] pool1_pool1_0_split -> pool1_pool1_0_split_0
I1219 16:29:31.674186 35822 net.cpp:433] pool1_pool1_0_split -> pool1_pool1_0_split_1
I1219 16:29:31.674207 35822 net.cpp:155] Setting up pool1_pool1_0_split
I1219 16:29:31.674223 35822 net.cpp:163] Top shape: 48 64 56 56 (9633792)
I1219 16:29:31.674239 35822 net.cpp:163] Top shape: 48 64 56 56 (9633792)
I1219 16:29:31.674253 35822 layer_factory.hpp:76] Creating layer conv21
I1219 16:29:31.674273 35822 net.cpp:110] Creating Layer conv21
I1219 16:29:31.674288 35822 net.cpp:477] conv21 <- pool1_pool1_0_split_0
I1219 16:29:31.674304 35822 net.cpp:433] conv21 -> conv21
I1219 16:29:31.674922 35822 net.cpp:155] Setting up conv21
I1219 16:29:31.674948 35822 net.cpp:163] Top shape: 48 64 56 56 (9633792)
I1219 16:29:31.674968 35822 layer_factory.hpp:76] Creating layer bn21
I1219 16:29:31.674985 35822 net.cpp:110] Creating Layer bn21
I1219 16:29:31.675000 35822 net.cpp:477] bn21 <- conv21
I1219 16:29:31.675019 35822 net.cpp:433] bn21 -> bn21
I1219 16:29:31.675099 35822 net.cpp:155] Setting up bn21
I1219 16:29:31.675118 35822 net.cpp:163] Top shape: 48 64 56 56 (9633792)
I1219 16:29:31.675142 35822 layer_factory.hpp:76] Creating layer relu21
I1219 16:29:31.675158 35822 net.cpp:110] Creating Layer relu21
I1219 16:29:31.675173 35822 net.cpp:477] relu21 <- bn21
I1219 16:29:31.675187 35822 net.cpp:419] relu21 -> bn21 (in-place)
I1219 16:29:31.675261 35822 net.cpp:155] Setting up relu21
I1219 16:29:31.675279 35822 net.cpp:163] Top shape: 48 64 56 56 (9633792)
I1219 16:29:31.675293 35822 layer_factory.hpp:76] Creating layer conv22
I1219 16:29:31.675314 35822 net.cpp:110] Creating Layer conv22
I1219 16:29:31.675329 35822 net.cpp:477] conv22 <- bn21
I1219 16:29:31.675346 35822 net.cpp:433] conv22 -> conv22
I1219 16:29:31.675942 35822 net.cpp:155] Setting up conv22
I1219 16:29:31.675968 35822 net.cpp:163] Top shape: 48 64 56 56 (9633792)
I1219 16:29:31.675987 35822 layer_factory.hpp:76] Creating layer bn22
I1219 16:29:31.676004 35822 net.cpp:110] Creating Layer bn22
I1219 16:29:31.676017 35822 net.cpp:477] bn22 <- conv22
I1219 16:29:31.676033 35822 net.cpp:433] bn22 -> bn22
I1219 16:29:31.676111 35822 net.cpp:155] Setting up bn22
I1219 16:29:31.676131 35822 net.cpp:163] Top shape: 48 64 56 56 (9633792)
I1219 16:29:31.676151 35822 layer_factory.hpp:76] Creating layer relu22
I1219 16:29:31.676167 35822 net.cpp:110] Creating Layer relu22
I1219 16:29:31.676182 35822 net.cpp:477] relu22 <- bn22
I1219 16:29:31.676198 35822 net.cpp:419] relu22 -> bn22 (in-place)
I1219 16:29:31.676376 35822 net.cpp:155] Setting up relu22
I1219 16:29:31.676398 35822 net.cpp:163] Top shape: 48 64 56 56 (9633792)
I1219 16:29:31.676409 35822 layer_factory.hpp:76] Creating layer eltwise1
I1219 16:29:31.676426 35822 net.cpp:110] Creating Layer eltwise1
I1219 16:29:31.676437 35822 net.cpp:477] eltwise1 <- pool1_pool1_0_split_1
I1219 16:29:31.676448 35822 net.cpp:477] eltwise1 <- bn22
I1219 16:29:31.676460 35822 net.cpp:433] eltwise1 -> eltwise1
I1219 16:29:31.676482 35822 net.cpp:155] Setting up eltwise1
I1219 16:29:31.676496 35822 net.cpp:163] Top shape: 48 64 56 56 (9633792)
I1219 16:29:31.676506 35822 layer_factory.hpp:76] Creating layer relu1
I1219 16:29:31.676519 35822 net.cpp:110] Creating Layer relu1
I1219 16:29:31.676529 35822 net.cpp:477] relu1 <- eltwise1
I1219 16:29:31.676542 35822 net.cpp:419] relu1 -> eltwise1 (in-place)
I1219 16:29:31.676607 35822 net.cpp:155] Setting up relu1
I1219 16:29:31.676622 35822 net.cpp:163] Top shape: 48 64 56 56 (9633792)
I1219 16:29:31.676633 35822 layer_factory.hpp:76] Creating layer eltwise1_relu1_0_split
I1219 16:29:31.676645 35822 net.cpp:110] Creating Layer eltwise1_relu1_0_split
I1219 16:29:31.676654 35822 net.cpp:477] eltwise1_relu1_0_split <- eltwise1
I1219 16:29:31.676667 35822 net.cpp:433] eltwise1_relu1_0_split -> eltwise1_relu1_0_split_0
I1219 16:29:31.676681 35822 net.cpp:433] eltwise1_relu1_0_split -> eltwise1_relu1_0_split_1
I1219 16:29:31.676695 35822 net.cpp:155] Setting up eltwise1_relu1_0_split
I1219 16:29:31.676707 35822 net.cpp:163] Top shape: 48 64 56 56 (9633792)
I1219 16:29:31.676734 35822 net.cpp:163] Top shape: 48 64 56 56 (9633792)
I1219 16:29:31.676745 35822 layer_factory.hpp:76] Creating layer conv23
I1219 16:29:31.676761 35822 net.cpp:110] Creating Layer conv23
I1219 16:29:31.676772 35822 net.cpp:477] conv23 <- eltwise1_relu1_0_split_0
I1219 16:29:31.676785 35822 net.cpp:433] conv23 -> conv23
I1219 16:29:31.677398 35822 net.cpp:155] Setting up conv23
I1219 16:29:31.677419 35822 net.cpp:163] Top shape: 48 64 56 56 (9633792)
I1219 16:29:31.677438 35822 layer_factory.hpp:76] Creating layer bn23
I1219 16:29:31.677451 35822 net.cpp:110] Creating Layer bn23
I1219 16:29:31.677462 35822 net.cpp:477] bn23 <- conv23
I1219 16:29:31.677474 35822 net.cpp:433] bn23 -> bn23
I1219 16:29:31.677552 35822 net.cpp:155] Setting up bn23
I1219 16:29:31.677568 35822 net.cpp:163] Top shape: 48 64 56 56 (9633792)
I1219 16:29:31.677592 35822 layer_factory.hpp:76] Creating layer relu23
I1219 16:29:31.677606 35822 net.cpp:110] Creating Layer relu23
I1219 16:29:31.677616 35822 net.cpp:477] relu23 <- bn23
I1219 16:29:31.677629 35822 net.cpp:419] relu23 -> bn23 (in-place)
I1219 16:29:31.677700 35822 net.cpp:155] Setting up relu23
I1219 16:29:31.677714 35822 net.cpp:163] Top shape: 48 64 56 56 (9633792)
I1219 16:29:31.677724 35822 layer_factory.hpp:76] Creating layer conv24
I1219 16:29:31.677738 35822 net.cpp:110] Creating Layer conv24
I1219 16:29:31.677749 35822 net.cpp:477] conv24 <- bn23
I1219 16:29:31.677762 35822 net.cpp:433] conv24 -> conv24
I1219 16:29:31.678369 35822 net.cpp:155] Setting up conv24
I1219 16:29:31.678393 35822 net.cpp:163] Top shape: 48 64 56 56 (9633792)
I1219 16:29:31.678408 35822 layer_factory.hpp:76] Creating layer bn24
I1219 16:29:31.678422 35822 net.cpp:110] Creating Layer bn24
I1219 16:29:31.678432 35822 net.cpp:477] bn24 <- conv24
I1219 16:29:31.678445 35822 net.cpp:433] bn24 -> bn24
I1219 16:29:31.678524 35822 net.cpp:155] Setting up bn24
I1219 16:29:31.678541 35822 net.cpp:163] Top shape: 48 64 56 56 (9633792)
I1219 16:29:31.678557 35822 layer_factory.hpp:76] Creating layer relu24
I1219 16:29:31.678570 35822 net.cpp:110] Creating Layer relu24
I1219 16:29:31.678581 35822 net.cpp:477] relu24 <- bn24
I1219 16:29:31.678593 35822 net.cpp:419] relu24 -> bn24 (in-place)
I1219 16:29:31.678663 35822 net.cpp:155] Setting up relu24
I1219 16:29:31.678678 35822 net.cpp:163] Top shape: 48 64 56 56 (9633792)
I1219 16:29:31.678689 35822 layer_factory.hpp:76] Creating layer bn24_relu24_0_split
I1219 16:29:31.678701 35822 net.cpp:110] Creating Layer bn24_relu24_0_split
I1219 16:29:31.678711 35822 net.cpp:477] bn24_relu24_0_split <- bn24
I1219 16:29:31.678724 35822 net.cpp:433] bn24_relu24_0_split -> bn24_relu24_0_split_0
I1219 16:29:31.678737 35822 net.cpp:433] bn24_relu24_0_split -> bn24_relu24_0_split_1
I1219 16:29:31.678751 35822 net.cpp:155] Setting up bn24_relu24_0_split
I1219 16:29:31.678763 35822 net.cpp:163] Top shape: 48 64 56 56 (9633792)
I1219 16:29:31.678774 35822 net.cpp:163] Top shape: 48 64 56 56 (9633792)
I1219 16:29:31.678783 35822 layer_factory.hpp:76] Creating layer eltwise2
I1219 16:29:31.678797 35822 net.cpp:110] Creating Layer eltwise2
I1219 16:29:31.678807 35822 net.cpp:477] eltwise2 <- eltwise1_relu1_0_split_1
I1219 16:29:31.678818 35822 net.cpp:477] eltwise2 <- bn24_relu24_0_split_0
I1219 16:29:31.678831 35822 net.cpp:433] eltwise2 -> eltwise2
I1219 16:29:31.678845 35822 net.cpp:155] Setting up eltwise2
I1219 16:29:31.678858 35822 net.cpp:163] Top shape: 48 64 56 56 (9633792)
I1219 16:29:31.678869 35822 layer_factory.hpp:76] Creating layer relu2
I1219 16:29:31.678880 35822 net.cpp:110] Creating Layer relu2
I1219 16:29:31.678889 35822 net.cpp:477] relu2 <- eltwise2
I1219 16:29:31.678902 35822 net.cpp:419] relu2 -> eltwise2 (in-place)
I1219 16:29:31.679074 35822 net.cpp:155] Setting up relu2
I1219 16:29:31.679092 35822 net.cpp:163] Top shape: 48 64 56 56 (9633792)
I1219 16:29:31.679105 35822 layer_factory.hpp:76] Creating layer conv25
I1219 16:29:31.679119 35822 net.cpp:110] Creating Layer conv25
I1219 16:29:31.679129 35822 net.cpp:477] conv25 <- bn24_relu24_0_split_1
I1219 16:29:31.679159 35822 net.cpp:433] conv25 -> conv25
I1219 16:29:31.679774 35822 net.cpp:155] Setting up conv25
I1219 16:29:31.679792 35822 net.cpp:163] Top shape: 48 64 56 56 (9633792)
I1219 16:29:31.679807 35822 layer_factory.hpp:76] Creating layer bn25
I1219 16:29:31.679821 35822 net.cpp:110] Creating Layer bn25
I1219 16:29:31.679831 35822 net.cpp:477] bn25 <- conv25
I1219 16:29:31.679844 35822 net.cpp:433] bn25 -> bn25
I1219 16:29:31.679920 35822 net.cpp:155] Setting up bn25
I1219 16:29:31.679936 35822 net.cpp:163] Top shape: 48 64 56 56 (9633792)
I1219 16:29:31.679952 35822 layer_factory.hpp:76] Creating layer relu25
I1219 16:29:31.679966 35822 net.cpp:110] Creating Layer relu25
I1219 16:29:31.679976 35822 net.cpp:477] relu25 <- bn25
I1219 16:29:31.679988 35822 net.cpp:419] relu25 -> bn25 (in-place)
I1219 16:29:31.680057 35822 net.cpp:155] Setting up relu25
I1219 16:29:31.680071 35822 net.cpp:163] Top shape: 48 64 56 56 (9633792)
I1219 16:29:31.680083 35822 layer_factory.hpp:76] Creating layer conv26
I1219 16:29:31.680096 35822 net.cpp:110] Creating Layer conv26
I1219 16:29:31.680106 35822 net.cpp:477] conv26 <- bn25
I1219 16:29:31.680119 35822 net.cpp:433] conv26 -> conv26
I1219 16:29:31.681287 35822 net.cpp:155] Setting up conv26
I1219 16:29:31.681349 35822 net.cpp:163] Top shape: 48 64 56 56 (9633792)
I1219 16:29:31.681363 35822 layer_factory.hpp:76] Creating layer bn26
I1219 16:29:31.681378 35822 net.cpp:110] Creating Layer bn26
I1219 16:29:31.681388 35822 net.cpp:477] bn26 <- conv26
I1219 16:29:31.681401 35822 net.cpp:433] bn26 -> bn26
I1219 16:29:31.681484 35822 net.cpp:155] Setting up bn26
I1219 16:29:31.681500 35822 net.cpp:163] Top shape: 48 64 56 56 (9633792)
I1219 16:29:31.681522 35822 layer_factory.hpp:76] Creating layer relu26
I1219 16:29:31.681536 35822 net.cpp:110] Creating Layer relu26
I1219 16:29:31.681547 35822 net.cpp:477] relu26 <- bn26
I1219 16:29:31.681560 35822 net.cpp:419] relu26 -> bn26 (in-place)
I1219 16:29:31.681638 35822 net.cpp:155] Setting up relu26
I1219 16:29:31.681653 35822 net.cpp:163] Top shape: 48 64 56 56 (9633792)
I1219 16:29:31.681663 35822 layer_factory.hpp:76] Creating layer eltwise3
I1219 16:29:31.681676 35822 net.cpp:110] Creating Layer eltwise3
I1219 16:29:31.681687 35822 net.cpp:477] eltwise3 <- eltwise2
I1219 16:29:31.681699 35822 net.cpp:477] eltwise3 <- bn26
I1219 16:29:31.681711 35822 net.cpp:433] eltwise3 -> eltwise3
I1219 16:29:31.681726 35822 net.cpp:155] Setting up eltwise3
I1219 16:29:31.681738 35822 net.cpp:163] Top shape: 48 64 56 56 (9633792)
I1219 16:29:31.681748 35822 layer_factory.hpp:76] Creating layer relu3
I1219 16:29:31.681763 35822 net.cpp:110] Creating Layer relu3
I1219 16:29:31.681773 35822 net.cpp:477] relu3 <- eltwise3
I1219 16:29:31.681785 35822 net.cpp:419] relu3 -> eltwise3 (in-place)
I1219 16:29:31.681854 35822 net.cpp:155] Setting up relu3
I1219 16:29:31.681869 35822 net.cpp:163] Top shape: 48 64 56 56 (9633792)
I1219 16:29:31.681879 35822 layer_factory.hpp:76] Creating layer eltwise3_relu3_0_split
I1219 16:29:31.681892 35822 net.cpp:110] Creating Layer eltwise3_relu3_0_split
I1219 16:29:31.681902 35822 net.cpp:477] eltwise3_relu3_0_split <- eltwise3
I1219 16:29:31.681915 35822 net.cpp:433] eltwise3_relu3_0_split -> eltwise3_relu3_0_split_0
I1219 16:29:31.681928 35822 net.cpp:433] eltwise3_relu3_0_split -> eltwise3_relu3_0_split_1
I1219 16:29:31.681943 35822 net.cpp:155] Setting up eltwise3_relu3_0_split
I1219 16:29:31.681956 35822 net.cpp:163] Top shape: 48 64 56 56 (9633792)
I1219 16:29:31.681967 35822 net.cpp:163] Top shape: 48 64 56 56 (9633792)
I1219 16:29:31.681977 35822 layer_factory.hpp:76] Creating layer relu3_p
I1219 16:29:31.681991 35822 net.cpp:110] Creating Layer relu3_p
I1219 16:29:31.682001 35822 net.cpp:477] relu3_p <- eltwise3_relu3_0_split_0
I1219 16:29:31.682014 35822 net.cpp:433] relu3_p -> relu3_p
I1219 16:29:31.682953 35822 net.cpp:155] Setting up relu3_p
I1219 16:29:31.682974 35822 net.cpp:163] Top shape: 48 128 28 28 (4816896)
I1219 16:29:31.682989 35822 layer_factory.hpp:76] Creating layer relu3_bn
I1219 16:29:31.683023 35822 net.cpp:110] Creating Layer relu3_bn
I1219 16:29:31.683034 35822 net.cpp:477] relu3_bn <- relu3_p
I1219 16:29:31.683048 35822 net.cpp:433] relu3_bn -> relu3_bn
I1219 16:29:31.683120 35822 net.cpp:155] Setting up relu3_bn
I1219 16:29:31.683135 35822 net.cpp:163] Top shape: 48 128 28 28 (4816896)
I1219 16:29:31.683152 35822 layer_factory.hpp:76] Creating layer conv31
I1219 16:29:31.683168 35822 net.cpp:110] Creating Layer conv31
I1219 16:29:31.683178 35822 net.cpp:477] conv31 <- eltwise3_relu3_0_split_1
I1219 16:29:31.683192 35822 net.cpp:433] conv31 -> conv31
I1219 16:29:31.684586 35822 net.cpp:155] Setting up conv31
I1219 16:29:31.684608 35822 net.cpp:163] Top shape: 48 128 28 28 (4816896)
I1219 16:29:31.684623 35822 layer_factory.hpp:76] Creating layer bn31
I1219 16:29:31.684638 35822 net.cpp:110] Creating Layer bn31
I1219 16:29:31.684648 35822 net.cpp:477] bn31 <- conv31
I1219 16:29:31.684661 35822 net.cpp:433] bn31 -> bn31
I1219 16:29:31.684731 35822 net.cpp:155] Setting up bn31
I1219 16:29:31.684746 35822 net.cpp:163] Top shape: 48 128 28 28 (4816896)
I1219 16:29:31.684762 35822 layer_factory.hpp:76] Creating layer relu31
I1219 16:29:31.684777 35822 net.cpp:110] Creating Layer relu31
I1219 16:29:31.684787 35822 net.cpp:477] relu31 <- bn31
I1219 16:29:31.684799 35822 net.cpp:419] relu31 -> bn31 (in-place)
I1219 16:29:31.684973 35822 net.cpp:155] Setting up relu31
I1219 16:29:31.684991 35822 net.cpp:163] Top shape: 48 128 28 28 (4816896)
I1219 16:29:31.685003 35822 layer_factory.hpp:76] Creating layer conv32
I1219 16:29:31.685017 35822 net.cpp:110] Creating Layer conv32
I1219 16:29:31.685029 35822 net.cpp:477] conv32 <- bn31
I1219 16:29:31.685042 35822 net.cpp:433] conv32 -> conv32
I1219 16:29:31.686403 35822 net.cpp:155] Setting up conv32
I1219 16:29:31.686425 35822 net.cpp:163] Top shape: 48 128 28 28 (4816896)
I1219 16:29:31.686440 35822 layer_factory.hpp:76] Creating layer bn32
I1219 16:29:31.686455 35822 net.cpp:110] Creating Layer bn32
I1219 16:29:31.686466 35822 net.cpp:477] bn32 <- conv32
I1219 16:29:31.686480 35822 net.cpp:433] bn32 -> bn32
I1219 16:29:31.686547 35822 net.cpp:155] Setting up bn32
I1219 16:29:31.686563 35822 net.cpp:163] Top shape: 48 128 28 28 (4816896)
I1219 16:29:31.686579 35822 layer_factory.hpp:76] Creating layer relu32
I1219 16:29:31.686594 35822 net.cpp:110] Creating Layer relu32
I1219 16:29:31.686604 35822 net.cpp:477] relu32 <- bn32
I1219 16:29:31.686617 35822 net.cpp:419] relu32 -> bn32 (in-place)
I1219 16:29:31.686689 35822 net.cpp:155] Setting up relu32
I1219 16:29:31.686704 35822 net.cpp:163] Top shape: 48 128 28 28 (4816896)
I1219 16:29:31.686715 35822 layer_factory.hpp:76] Creating layer eltwise4
I1219 16:29:31.686729 35822 net.cpp:110] Creating Layer eltwise4
I1219 16:29:31.686739 35822 net.cpp:477] eltwise4 <- relu3_bn
I1219 16:29:31.686750 35822 net.cpp:477] eltwise4 <- bn32
I1219 16:29:31.686764 35822 net.cpp:433] eltwise4 -> eltwise4
I1219 16:29:31.686779 35822 net.cpp:155] Setting up eltwise4
I1219 16:29:31.686791 35822 net.cpp:163] Top shape: 48 128 28 28 (4816896)
I1219 16:29:31.686801 35822 layer_factory.hpp:76] Creating layer relu4
I1219 16:29:31.686815 35822 net.cpp:110] Creating Layer relu4
I1219 16:29:31.686825 35822 net.cpp:477] relu4 <- eltwise4
I1219 16:29:31.686837 35822 net.cpp:419] relu4 -> eltwise4 (in-place)
I1219 16:29:31.686902 35822 net.cpp:155] Setting up relu4
I1219 16:29:31.686918 35822 net.cpp:163] Top shape: 48 128 28 28 (4816896)
I1219 16:29:31.686928 35822 layer_factory.hpp:76] Creating layer eltwise4_relu4_0_split
I1219 16:29:31.686940 35822 net.cpp:110] Creating Layer eltwise4_relu4_0_split
I1219 16:29:31.686950 35822 net.cpp:477] eltwise4_relu4_0_split <- eltwise4
I1219 16:29:31.686964 35822 net.cpp:433] eltwise4_relu4_0_split -> eltwise4_relu4_0_split_0
I1219 16:29:31.686977 35822 net.cpp:433] eltwise4_relu4_0_split -> eltwise4_relu4_0_split_1
I1219 16:29:31.686992 35822 net.cpp:155] Setting up eltwise4_relu4_0_split
I1219 16:29:31.687005 35822 net.cpp:163] Top shape: 48 128 28 28 (4816896)
I1219 16:29:31.687036 35822 net.cpp:163] Top shape: 48 128 28 28 (4816896)
I1219 16:29:31.687047 35822 layer_factory.hpp:76] Creating layer conv33
I1219 16:29:31.687062 35822 net.cpp:110] Creating Layer conv33
I1219 16:29:31.687073 35822 net.cpp:477] conv33 <- eltwise4_relu4_0_split_0
I1219 16:29:31.687088 35822 net.cpp:433] conv33 -> conv33
I1219 16:29:31.688993 35822 net.cpp:155] Setting up conv33
I1219 16:29:31.689014 35822 net.cpp:163] Top shape: 48 128 28 28 (4816896)
I1219 16:29:31.689029 35822 layer_factory.hpp:76] Creating layer bn33
I1219 16:29:31.689043 35822 net.cpp:110] Creating Layer bn33
I1219 16:29:31.689054 35822 net.cpp:477] bn33 <- conv33
I1219 16:29:31.689067 35822 net.cpp:433] bn33 -> bn33
I1219 16:29:31.689141 35822 net.cpp:155] Setting up bn33
I1219 16:29:31.689158 35822 net.cpp:163] Top shape: 48 128 28 28 (4816896)
I1219 16:29:31.689177 35822 layer_factory.hpp:76] Creating layer relu33
I1219 16:29:31.689190 35822 net.cpp:110] Creating Layer relu33
I1219 16:29:31.689200 35822 net.cpp:477] relu33 <- bn33
I1219 16:29:31.689214 35822 net.cpp:419] relu33 -> bn33 (in-place)
I1219 16:29:31.689399 35822 net.cpp:155] Setting up relu33
I1219 16:29:31.689420 35822 net.cpp:163] Top shape: 48 128 28 28 (4816896)
I1219 16:29:31.689432 35822 layer_factory.hpp:76] Creating layer conv34
I1219 16:29:31.689447 35822 net.cpp:110] Creating Layer conv34
I1219 16:29:31.689458 35822 net.cpp:477] conv34 <- bn33
I1219 16:29:31.689473 35822 net.cpp:433] conv34 -> conv34
I1219 16:29:31.691424 35822 net.cpp:155] Setting up conv34
I1219 16:29:31.691445 35822 net.cpp:163] Top shape: 48 128 28 28 (4816896)
I1219 16:29:31.691460 35822 layer_factory.hpp:76] Creating layer bn34
I1219 16:29:31.691476 35822 net.cpp:110] Creating Layer bn34
I1219 16:29:31.691488 35822 net.cpp:477] bn34 <- conv34
I1219 16:29:31.691500 35822 net.cpp:433] bn34 -> bn34
I1219 16:29:31.691577 35822 net.cpp:155] Setting up bn34
I1219 16:29:31.691593 35822 net.cpp:163] Top shape: 48 128 28 28 (4816896)
I1219 16:29:31.691612 35822 layer_factory.hpp:76] Creating layer relu34
I1219 16:29:31.691624 35822 net.cpp:110] Creating Layer relu34
I1219 16:29:31.691635 35822 net.cpp:477] relu34 <- bn34
I1219 16:29:31.691648 35822 net.cpp:419] relu34 -> bn34 (in-place)
I1219 16:29:31.691730 35822 net.cpp:155] Setting up relu34
I1219 16:29:31.691745 35822 net.cpp:163] Top shape: 48 128 28 28 (4816896)
I1219 16:29:31.691754 35822 layer_factory.hpp:76] Creating layer eltwise5
I1219 16:29:31.691767 35822 net.cpp:110] Creating Layer eltwise5
I1219 16:29:31.691778 35822 net.cpp:477] eltwise5 <- eltwise4_relu4_0_split_1
I1219 16:29:31.691790 35822 net.cpp:477] eltwise5 <- bn34
I1219 16:29:31.691802 35822 net.cpp:433] eltwise5 -> eltwise5
I1219 16:29:31.691817 35822 net.cpp:155] Setting up eltwise5
I1219 16:29:31.691830 35822 net.cpp:163] Top shape: 48 128 28 28 (4816896)
I1219 16:29:31.691840 35822 layer_factory.hpp:76] Creating layer relu5
I1219 16:29:31.691851 35822 net.cpp:110] Creating Layer relu5
I1219 16:29:31.691862 35822 net.cpp:477] relu5 <- eltwise5
I1219 16:29:31.691876 35822 net.cpp:419] relu5 -> eltwise5 (in-place)
I1219 16:29:31.691946 35822 net.cpp:155] Setting up relu5
I1219 16:29:31.691962 35822 net.cpp:163] Top shape: 48 128 28 28 (4816896)
I1219 16:29:31.691972 35822 layer_factory.hpp:76] Creating layer eltwise5_relu5_0_split
I1219 16:29:31.691983 35822 net.cpp:110] Creating Layer eltwise5_relu5_0_split
I1219 16:29:31.691993 35822 net.cpp:477] eltwise5_relu5_0_split <- eltwise5
I1219 16:29:31.692008 35822 net.cpp:433] eltwise5_relu5_0_split -> eltwise5_relu5_0_split_0
I1219 16:29:31.692023 35822 net.cpp:433] eltwise5_relu5_0_split -> eltwise5_relu5_0_split_1
I1219 16:29:31.692037 35822 net.cpp:155] Setting up eltwise5_relu5_0_split
I1219 16:29:31.692049 35822 net.cpp:163] Top shape: 48 128 28 28 (4816896)
I1219 16:29:31.692059 35822 net.cpp:163] Top shape: 48 128 28 28 (4816896)
I1219 16:29:31.692070 35822 layer_factory.hpp:76] Creating layer conv35
I1219 16:29:31.692085 35822 net.cpp:110] Creating Layer conv35
I1219 16:29:31.692096 35822 net.cpp:477] conv35 <- eltwise5_relu5_0_split_0
I1219 16:29:31.692131 35822 net.cpp:433] conv35 -> conv35
I1219 16:29:31.694053 35822 net.cpp:155] Setting up conv35
I1219 16:29:31.694077 35822 net.cpp:163] Top shape: 48 128 28 28 (4816896)
I1219 16:29:31.694092 35822 layer_factory.hpp:76] Creating layer bn35
I1219 16:29:31.694105 35822 net.cpp:110] Creating Layer bn35
I1219 16:29:31.694116 35822 net.cpp:477] bn35 <- conv35
I1219 16:29:31.694129 35822 net.cpp:433] bn35 -> bn35
I1219 16:29:31.694206 35822 net.cpp:155] Setting up bn35
I1219 16:29:31.694223 35822 net.cpp:163] Top shape: 48 128 28 28 (4816896)
I1219 16:29:31.694253 35822 layer_factory.hpp:76] Creating layer relu35
I1219 16:29:31.694270 35822 net.cpp:110] Creating Layer relu35
I1219 16:29:31.694281 35822 net.cpp:477] relu35 <- bn35
I1219 16:29:31.694293 35822 net.cpp:419] relu35 -> bn35 (in-place)
I1219 16:29:31.694368 35822 net.cpp:155] Setting up relu35
I1219 16:29:31.694383 35822 net.cpp:163] Top shape: 48 128 28 28 (4816896)
I1219 16:29:31.694394 35822 layer_factory.hpp:76] Creating layer conv36
I1219 16:29:31.694411 35822 net.cpp:110] Creating Layer conv36
I1219 16:29:31.694422 35822 net.cpp:477] conv36 <- bn35
I1219 16:29:31.694437 35822 net.cpp:433] conv36 -> conv36
I1219 16:29:31.696341 35822 net.cpp:155] Setting up conv36
I1219 16:29:31.696362 35822 net.cpp:163] Top shape: 48 128 28 28 (4816896)
I1219 16:29:31.696377 35822 layer_factory.hpp:76] Creating layer bn36
I1219 16:29:31.696393 35822 net.cpp:110] Creating Layer bn36
I1219 16:29:31.696403 35822 net.cpp:477] bn36 <- conv36
I1219 16:29:31.696419 35822 net.cpp:433] bn36 -> bn36
I1219 16:29:31.696496 35822 net.cpp:155] Setting up bn36
I1219 16:29:31.696511 35822 net.cpp:163] Top shape: 48 128 28 28 (4816896)
I1219 16:29:31.696527 35822 layer_factory.hpp:76] Creating layer relu36
I1219 16:29:31.696540 35822 net.cpp:110] Creating Layer relu36
I1219 16:29:31.696552 35822 net.cpp:477] relu36 <- bn36
I1219 16:29:31.696565 35822 net.cpp:419] relu36 -> bn36 (in-place)
I1219 16:29:31.696748 35822 net.cpp:155] Setting up relu36
I1219 16:29:31.696768 35822 net.cpp:163] Top shape: 48 128 28 28 (4816896)
I1219 16:29:31.696779 35822 layer_factory.hpp:76] Creating layer eltwise6
I1219 16:29:31.696794 35822 net.cpp:110] Creating Layer eltwise6
I1219 16:29:31.696805 35822 net.cpp:477] eltwise6 <- eltwise5_relu5_0_split_1
I1219 16:29:31.696817 35822 net.cpp:477] eltwise6 <- bn36
I1219 16:29:31.696830 35822 net.cpp:433] eltwise6 -> eltwise6
I1219 16:29:31.696846 35822 net.cpp:155] Setting up eltwise6
I1219 16:29:31.696857 35822 net.cpp:163] Top shape: 48 128 28 28 (4816896)
I1219 16:29:31.696868 35822 layer_factory.hpp:76] Creating layer relu6
I1219 16:29:31.696880 35822 net.cpp:110] Creating Layer relu6
I1219 16:29:31.696890 35822 net.cpp:477] relu6 <- eltwise6
I1219 16:29:31.696902 35822 net.cpp:419] relu6 -> eltwise6 (in-place)
I1219 16:29:31.696974 35822 net.cpp:155] Setting up relu6
I1219 16:29:31.696988 35822 net.cpp:163] Top shape: 48 128 28 28 (4816896)
I1219 16:29:31.697000 35822 layer_factory.hpp:76] Creating layer eltwise6_relu6_0_split
I1219 16:29:31.697011 35822 net.cpp:110] Creating Layer eltwise6_relu6_0_split
I1219 16:29:31.697021 35822 net.cpp:477] eltwise6_relu6_0_split <- eltwise6
I1219 16:29:31.697033 35822 net.cpp:433] eltwise6_relu6_0_split -> eltwise6_relu6_0_split_0
I1219 16:29:31.697046 35822 net.cpp:433] eltwise6_relu6_0_split -> eltwise6_relu6_0_split_1
I1219 16:29:31.697062 35822 net.cpp:155] Setting up eltwise6_relu6_0_split
I1219 16:29:31.697072 35822 net.cpp:163] Top shape: 48 128 28 28 (4816896)
I1219 16:29:31.697083 35822 net.cpp:163] Top shape: 48 128 28 28 (4816896)
I1219 16:29:31.697093 35822 layer_factory.hpp:76] Creating layer conv37
I1219 16:29:31.697109 35822 net.cpp:110] Creating Layer conv37
I1219 16:29:31.697120 35822 net.cpp:477] conv37 <- eltwise6_relu6_0_split_0
I1219 16:29:31.697135 35822 net.cpp:433] conv37 -> conv37
I1219 16:29:31.699039 35822 net.cpp:155] Setting up conv37
I1219 16:29:31.699060 35822 net.cpp:163] Top shape: 48 128 28 28 (4816896)
I1219 16:29:31.699074 35822 layer_factory.hpp:76] Creating layer bn37
I1219 16:29:31.699115 35822 net.cpp:110] Creating Layer bn37
I1219 16:29:31.699127 35822 net.cpp:477] bn37 <- conv37
I1219 16:29:31.700016 35822 net.cpp:433] bn37 -> bn37
I1219 16:29:31.700098 35822 net.cpp:155] Setting up bn37
I1219 16:29:31.700114 35822 net.cpp:163] Top shape: 48 128 28 28 (4816896)
I1219 16:29:31.700134 35822 layer_factory.hpp:76] Creating layer relu37
I1219 16:29:31.700147 35822 net.cpp:110] Creating Layer relu37
I1219 16:29:31.700158 35822 net.cpp:477] relu37 <- bn37
I1219 16:29:31.700170 35822 net.cpp:419] relu37 -> bn37 (in-place)
I1219 16:29:31.700248 35822 net.cpp:155] Setting up relu37
I1219 16:29:31.700263 35822 net.cpp:163] Top shape: 48 128 28 28 (4816896)
I1219 16:29:31.700273 35822 layer_factory.hpp:76] Creating layer conv38
I1219 16:29:31.700287 35822 net.cpp:110] Creating Layer conv38
I1219 16:29:31.700299 35822 net.cpp:477] conv38 <- bn37
I1219 16:29:31.700311 35822 net.cpp:433] conv38 -> conv38
I1219 16:29:31.702219 35822 net.cpp:155] Setting up conv38
I1219 16:29:31.702242 35822 net.cpp:163] Top shape: 48 128 28 28 (4816896)
I1219 16:29:31.702257 35822 layer_factory.hpp:76] Creating layer bn38
I1219 16:29:31.702271 35822 net.cpp:110] Creating Layer bn38
I1219 16:29:31.702282 35822 net.cpp:477] bn38 <- conv38
I1219 16:29:31.702296 35822 net.cpp:433] bn38 -> bn38
I1219 16:29:31.702373 35822 net.cpp:155] Setting up bn38
I1219 16:29:31.702389 35822 net.cpp:163] Top shape: 48 128 28 28 (4816896)
I1219 16:29:31.702407 35822 layer_factory.hpp:76] Creating layer relu38
I1219 16:29:31.702421 35822 net.cpp:110] Creating Layer relu38
I1219 16:29:31.702431 35822 net.cpp:477] relu38 <- bn38
I1219 16:29:31.702445 35822 net.cpp:419] relu38 -> bn38 (in-place)
I1219 16:29:31.702522 35822 net.cpp:155] Setting up relu38
I1219 16:29:31.702538 35822 net.cpp:163] Top shape: 48 128 28 28 (4816896)
I1219 16:29:31.702548 35822 layer_factory.hpp:76] Creating layer eltwise7
I1219 16:29:31.702560 35822 net.cpp:110] Creating Layer eltwise7
I1219 16:29:31.702571 35822 net.cpp:477] eltwise7 <- eltwise6_relu6_0_split_1
I1219 16:29:31.702584 35822 net.cpp:477] eltwise7 <- bn38
I1219 16:29:31.702597 35822 net.cpp:433] eltwise7 -> eltwise7
I1219 16:29:31.702612 35822 net.cpp:155] Setting up eltwise7
I1219 16:29:31.702625 35822 net.cpp:163] Top shape: 48 128 28 28 (4816896)
I1219 16:29:31.702636 35822 layer_factory.hpp:76] Creating layer relu7
I1219 16:29:31.702647 35822 net.cpp:110] Creating Layer relu7
I1219 16:29:31.702657 35822 net.cpp:477] relu7 <- eltwise7
I1219 16:29:31.702672 35822 net.cpp:419] relu7 -> eltwise7 (in-place)
I1219 16:29:31.702847 35822 net.cpp:155] Setting up relu7
I1219 16:29:31.702867 35822 net.cpp:163] Top shape: 48 128 28 28 (4816896)
I1219 16:29:31.702877 35822 layer_factory.hpp:76] Creating layer eltwise7_relu7_0_split
I1219 16:29:31.702890 35822 net.cpp:110] Creating Layer eltwise7_relu7_0_split
I1219 16:29:31.702900 35822 net.cpp:477] eltwise7_relu7_0_split <- eltwise7
I1219 16:29:31.702914 35822 net.cpp:433] eltwise7_relu7_0_split -> eltwise7_relu7_0_split_0
I1219 16:29:31.702929 35822 net.cpp:433] eltwise7_relu7_0_split -> eltwise7_relu7_0_split_1
I1219 16:29:31.702944 35822 net.cpp:155] Setting up eltwise7_relu7_0_split
I1219 16:29:31.702956 35822 net.cpp:163] Top shape: 48 128 28 28 (4816896)
I1219 16:29:31.702967 35822 net.cpp:163] Top shape: 48 128 28 28 (4816896)
I1219 16:29:31.702977 35822 layer_factory.hpp:76] Creating layer relu7_p
I1219 16:29:31.702993 35822 net.cpp:110] Creating Layer relu7_p
I1219 16:29:31.703004 35822 net.cpp:477] relu7_p <- eltwise7_relu7_0_split_0
I1219 16:29:31.703017 35822 net.cpp:433] relu7_p -> relu7_p
I1219 16:29:31.703619 35822 net.cpp:155] Setting up relu7_p
I1219 16:29:31.703639 35822 net.cpp:163] Top shape: 48 256 14 14 (2408448)
I1219 16:29:31.703654 35822 layer_factory.hpp:76] Creating layer relu7_bn
I1219 16:29:31.703670 35822 net.cpp:110] Creating Layer relu7_bn
I1219 16:29:31.703680 35822 net.cpp:477] relu7_bn <- relu7_p
I1219 16:29:31.703696 35822 net.cpp:433] relu7_bn -> relu7_bn
I1219 16:29:31.703776 35822 net.cpp:155] Setting up relu7_bn
I1219 16:29:31.703805 35822 net.cpp:163] Top shape: 48 256 14 14 (2408448)
I1219 16:29:31.703822 35822 layer_factory.hpp:76] Creating layer conv41
I1219 16:29:31.703841 35822 net.cpp:110] Creating Layer conv41
I1219 16:29:31.703853 35822 net.cpp:477] conv41 <- eltwise7_relu7_0_split_1
I1219 16:29:31.703867 35822 net.cpp:433] conv41 -> conv41
I1219 16:29:31.706838 35822 net.cpp:155] Setting up conv41
I1219 16:29:31.706859 35822 net.cpp:163] Top shape: 48 256 14 14 (2408448)
I1219 16:29:31.706874 35822 layer_factory.hpp:76] Creating layer bn41
I1219 16:29:31.706890 35822 net.cpp:110] Creating Layer bn41
I1219 16:29:31.706902 35822 net.cpp:477] bn41 <- conv41
I1219 16:29:31.706915 35822 net.cpp:433] bn41 -> bn41
I1219 16:29:31.706995 35822 net.cpp:155] Setting up bn41
I1219 16:29:31.707013 35822 net.cpp:163] Top shape: 48 256 14 14 (2408448)
I1219 16:29:31.707028 35822 layer_factory.hpp:76] Creating layer relu41
I1219 16:29:31.707042 35822 net.cpp:110] Creating Layer relu41
I1219 16:29:31.707052 35822 net.cpp:477] relu41 <- bn41
I1219 16:29:31.707064 35822 net.cpp:419] relu41 -> bn41 (in-place)
I1219 16:29:31.707142 35822 net.cpp:155] Setting up relu41
I1219 16:29:31.707159 35822 net.cpp:163] Top shape: 48 256 14 14 (2408448)
I1219 16:29:31.707168 35822 layer_factory.hpp:76] Creating layer conv42
I1219 16:29:31.707182 35822 net.cpp:110] Creating Layer conv42
I1219 16:29:31.707197 35822 net.cpp:477] conv42 <- bn41
I1219 16:29:31.707216 35822 net.cpp:433] conv42 -> conv42
I1219 16:29:31.712960 35822 net.cpp:155] Setting up conv42
I1219 16:29:31.712983 35822 net.cpp:163] Top shape: 48 256 14 14 (2408448)
I1219 16:29:31.712998 35822 layer_factory.hpp:76] Creating layer bn42
I1219 16:29:31.713016 35822 net.cpp:110] Creating Layer bn42
I1219 16:29:31.713027 35822 net.cpp:477] bn42 <- conv42
I1219 16:29:31.713042 35822 net.cpp:433] bn42 -> bn42
I1219 16:29:31.713124 35822 net.cpp:155] Setting up bn42
I1219 16:29:31.713140 35822 net.cpp:163] Top shape: 48 256 14 14 (2408448)
I1219 16:29:31.713156 35822 layer_factory.hpp:76] Creating layer relu42
I1219 16:29:31.713170 35822 net.cpp:110] Creating Layer relu42
I1219 16:29:31.713181 35822 net.cpp:477] relu42 <- bn42
I1219 16:29:31.713194 35822 net.cpp:419] relu42 -> bn42 (in-place)
I1219 16:29:31.713273 35822 net.cpp:155] Setting up relu42
I1219 16:29:31.713289 35822 net.cpp:163] Top shape: 48 256 14 14 (2408448)
I1219 16:29:31.713306 35822 layer_factory.hpp:76] Creating layer eltwise8
I1219 16:29:31.713322 35822 net.cpp:110] Creating Layer eltwise8
I1219 16:29:31.713333 35822 net.cpp:477] eltwise8 <- relu7_bn
I1219 16:29:31.713346 35822 net.cpp:477] eltwise8 <- bn42
I1219 16:29:31.713357 35822 net.cpp:433] eltwise8 -> eltwise8
I1219 16:29:31.713372 35822 net.cpp:155] Setting up eltwise8
I1219 16:29:31.713385 35822 net.cpp:163] Top shape: 48 256 14 14 (2408448)
I1219 16:29:31.713395 35822 layer_factory.hpp:76] Creating layer relu8
I1219 16:29:31.713407 35822 net.cpp:110] Creating Layer relu8
I1219 16:29:31.713418 35822 net.cpp:477] relu8 <- eltwise8
I1219 16:29:31.713428 35822 net.cpp:419] relu8 -> eltwise8 (in-place)
I1219 16:29:31.713502 35822 net.cpp:155] Setting up relu8
I1219 16:29:31.713518 35822 net.cpp:163] Top shape: 48 256 14 14 (2408448)
I1219 16:29:31.713528 35822 layer_factory.hpp:76] Creating layer eltwise8_relu8_0_split
I1219 16:29:31.713541 35822 net.cpp:110] Creating Layer eltwise8_relu8_0_split
I1219 16:29:31.713551 35822 net.cpp:477] eltwise8_relu8_0_split <- eltwise8
I1219 16:29:31.713563 35822 net.cpp:433] eltwise8_relu8_0_split -> eltwise8_relu8_0_split_0
I1219 16:29:31.713577 35822 net.cpp:433] eltwise8_relu8_0_split -> eltwise8_relu8_0_split_1
I1219 16:29:31.713592 35822 net.cpp:155] Setting up eltwise8_relu8_0_split
I1219 16:29:31.713603 35822 net.cpp:163] Top shape: 48 256 14 14 (2408448)
I1219 16:29:31.713614 35822 net.cpp:163] Top shape: 48 256 14 14 (2408448)
I1219 16:29:31.713624 35822 layer_factory.hpp:76] Creating layer conv43
I1219 16:29:31.713639 35822 net.cpp:110] Creating Layer conv43
I1219 16:29:31.713650 35822 net.cpp:477] conv43 <- eltwise8_relu8_0_split_0
I1219 16:29:31.713688 35822 net.cpp:433] conv43 -> conv43
I1219 16:29:31.719414 35822 net.cpp:155] Setting up conv43
I1219 16:29:31.719436 35822 net.cpp:163] Top shape: 48 256 14 14 (2408448)
I1219 16:29:31.719451 35822 layer_factory.hpp:76] Creating layer bn43
I1219 16:29:31.719465 35822 net.cpp:110] Creating Layer bn43
I1219 16:29:31.719476 35822 net.cpp:477] bn43 <- conv43
I1219 16:29:31.719491 35822 net.cpp:433] bn43 -> bn43
I1219 16:29:31.719575 35822 net.cpp:155] Setting up bn43
I1219 16:29:31.719591 35822 net.cpp:163] Top shape: 48 256 14 14 (2408448)
I1219 16:29:31.719611 35822 layer_factory.hpp:76] Creating layer relu43
I1219 16:29:31.719626 35822 net.cpp:110] Creating Layer relu43
I1219 16:29:31.719636 35822 net.cpp:477] relu43 <- bn43
I1219 16:29:31.719648 35822 net.cpp:419] relu43 -> bn43 (in-place)
I1219 16:29:31.719840 35822 net.cpp:155] Setting up relu43
I1219 16:29:31.719858 35822 net.cpp:163] Top shape: 48 256 14 14 (2408448)
I1219 16:29:31.719869 35822 layer_factory.hpp:76] Creating layer conv44
I1219 16:29:31.719887 35822 net.cpp:110] Creating Layer conv44
I1219 16:29:31.719897 35822 net.cpp:477] conv44 <- bn43
I1219 16:29:31.719912 35822 net.cpp:433] conv44 -> conv44
I1219 16:29:31.725606 35822 net.cpp:155] Setting up conv44
I1219 16:29:31.725628 35822 net.cpp:163] Top shape: 48 256 14 14 (2408448)
I1219 16:29:31.725642 35822 layer_factory.hpp:76] Creating layer bn44
I1219 16:29:31.725656 35822 net.cpp:110] Creating Layer bn44
I1219 16:29:31.725667 35822 net.cpp:477] bn44 <- conv44
I1219 16:29:31.725682 35822 net.cpp:433] bn44 -> bn44
I1219 16:29:31.725766 35822 net.cpp:155] Setting up bn44
I1219 16:29:31.725785 35822 net.cpp:163] Top shape: 48 256 14 14 (2408448)
I1219 16:29:31.725801 35822 layer_factory.hpp:76] Creating layer relu44
I1219 16:29:31.725814 35822 net.cpp:110] Creating Layer relu44
I1219 16:29:31.725826 35822 net.cpp:477] relu44 <- bn44
I1219 16:29:31.725837 35822 net.cpp:419] relu44 -> bn44 (in-place)
I1219 16:29:31.725915 35822 net.cpp:155] Setting up relu44
I1219 16:29:31.725930 35822 net.cpp:163] Top shape: 48 256 14 14 (2408448)
I1219 16:29:31.725941 35822 layer_factory.hpp:76] Creating layer eltwise9
I1219 16:29:31.725955 35822 net.cpp:110] Creating Layer eltwise9
I1219 16:29:31.725965 35822 net.cpp:477] eltwise9 <- eltwise8_relu8_0_split_1
I1219 16:29:31.725976 35822 net.cpp:477] eltwise9 <- bn44
I1219 16:29:31.725988 35822 net.cpp:433] eltwise9 -> eltwise9
I1219 16:29:31.726003 35822 net.cpp:155] Setting up eltwise9
I1219 16:29:31.726016 35822 net.cpp:163] Top shape: 48 256 14 14 (2408448)
I1219 16:29:31.726027 35822 layer_factory.hpp:76] Creating layer relu9
I1219 16:29:31.726037 35822 net.cpp:110] Creating Layer relu9
I1219 16:29:31.726048 35822 net.cpp:477] relu9 <- eltwise9
I1219 16:29:31.726063 35822 net.cpp:419] relu9 -> eltwise9 (in-place)
I1219 16:29:31.726131 35822 net.cpp:155] Setting up relu9
I1219 16:29:31.726147 35822 net.cpp:163] Top shape: 48 256 14 14 (2408448)
I1219 16:29:31.726157 35822 layer_factory.hpp:76] Creating layer eltwise9_relu9_0_split
I1219 16:29:31.726169 35822 net.cpp:110] Creating Layer eltwise9_relu9_0_split
I1219 16:29:31.726179 35822 net.cpp:477] eltwise9_relu9_0_split <- eltwise9
I1219 16:29:31.726193 35822 net.cpp:433] eltwise9_relu9_0_split -> eltwise9_relu9_0_split_0
I1219 16:29:31.726207 35822 net.cpp:433] eltwise9_relu9_0_split -> eltwise9_relu9_0_split_1
I1219 16:29:31.726222 35822 net.cpp:155] Setting up eltwise9_relu9_0_split
I1219 16:29:31.726236 35822 net.cpp:163] Top shape: 48 256 14 14 (2408448)
I1219 16:29:31.726248 35822 net.cpp:163] Top shape: 48 256 14 14 (2408448)
I1219 16:29:31.726258 35822 layer_factory.hpp:76] Creating layer conv45
I1219 16:29:31.726271 35822 net.cpp:110] Creating Layer conv45
I1219 16:29:31.726282 35822 net.cpp:477] conv45 <- eltwise9_relu9_0_split_0
I1219 16:29:31.726297 35822 net.cpp:433] conv45 -> conv45
I1219 16:29:31.731991 35822 net.cpp:155] Setting up conv45
I1219 16:29:31.732012 35822 net.cpp:163] Top shape: 48 256 14 14 (2408448)
I1219 16:29:31.732026 35822 layer_factory.hpp:76] Creating layer bn45
I1219 16:29:31.732066 35822 net.cpp:110] Creating Layer bn45
I1219 16:29:31.732079 35822 net.cpp:477] bn45 <- conv45
I1219 16:29:31.732092 35822 net.cpp:433] bn45 -> bn45
I1219 16:29:31.732175 35822 net.cpp:155] Setting up bn45
I1219 16:29:31.732192 35822 net.cpp:163] Top shape: 48 256 14 14 (2408448)
I1219 16:29:31.732211 35822 layer_factory.hpp:76] Creating layer relu45
I1219 16:29:31.732226 35822 net.cpp:110] Creating Layer relu45
I1219 16:29:31.732236 35822 net.cpp:477] relu45 <- bn45
I1219 16:29:31.732250 35822 net.cpp:419] relu45 -> bn45 (in-place)
I1219 16:29:31.732447 35822 net.cpp:155] Setting up relu45
I1219 16:29:31.732466 35822 net.cpp:163] Top shape: 48 256 14 14 (2408448)
I1219 16:29:31.732477 35822 layer_factory.hpp:76] Creating layer conv46
I1219 16:29:31.732492 35822 net.cpp:110] Creating Layer conv46
I1219 16:29:31.732503 35822 net.cpp:477] conv46 <- bn45
I1219 16:29:31.732517 35822 net.cpp:433] conv46 -> conv46
I1219 16:29:31.738201 35822 net.cpp:155] Setting up conv46
I1219 16:29:31.738224 35822 net.cpp:163] Top shape: 48 256 14 14 (2408448)
I1219 16:29:31.738239 35822 layer_factory.hpp:76] Creating layer bn46
I1219 16:29:31.738255 35822 net.cpp:110] Creating Layer bn46
I1219 16:29:31.738267 35822 net.cpp:477] bn46 <- conv46
I1219 16:29:31.738281 35822 net.cpp:433] bn46 -> bn46
I1219 16:29:31.738368 35822 net.cpp:155] Setting up bn46
I1219 16:29:31.738384 35822 net.cpp:163] Top shape: 48 256 14 14 (2408448)
I1219 16:29:31.738400 35822 layer_factory.hpp:76] Creating layer relu46
I1219 16:29:31.738415 35822 net.cpp:110] Creating Layer relu46
I1219 16:29:31.738425 35822 net.cpp:477] relu46 <- bn46
I1219 16:29:31.738440 35822 net.cpp:419] relu46 -> bn46 (in-place)
I1219 16:29:31.738517 35822 net.cpp:155] Setting up relu46
I1219 16:29:31.738533 35822 net.cpp:163] Top shape: 48 256 14 14 (2408448)
I1219 16:29:31.738544 35822 layer_factory.hpp:76] Creating layer eltwise10
I1219 16:29:31.738559 35822 net.cpp:110] Creating Layer eltwise10
I1219 16:29:31.738571 35822 net.cpp:477] eltwise10 <- eltwise9_relu9_0_split_1
I1219 16:29:31.738582 35822 net.cpp:477] eltwise10 <- bn46
I1219 16:29:31.738595 35822 net.cpp:433] eltwise10 -> eltwise10
I1219 16:29:31.738611 35822 net.cpp:155] Setting up eltwise10
I1219 16:29:31.738625 35822 net.cpp:163] Top shape: 48 256 14 14 (2408448)
I1219 16:29:31.738634 35822 layer_factory.hpp:76] Creating layer relu10
I1219 16:29:31.738646 35822 net.cpp:110] Creating Layer relu10
I1219 16:29:31.738656 35822 net.cpp:477] relu10 <- eltwise10
I1219 16:29:31.738668 35822 net.cpp:419] relu10 -> eltwise10 (in-place)
I1219 16:29:31.738737 35822 net.cpp:155] Setting up relu10
I1219 16:29:31.738754 35822 net.cpp:163] Top shape: 48 256 14 14 (2408448)
I1219 16:29:31.738764 35822 layer_factory.hpp:76] Creating layer eltwise10_relu10_0_split
I1219 16:29:31.738775 35822 net.cpp:110] Creating Layer eltwise10_relu10_0_split
I1219 16:29:31.738785 35822 net.cpp:477] eltwise10_relu10_0_split <- eltwise10
I1219 16:29:31.738798 35822 net.cpp:433] eltwise10_relu10_0_split -> eltwise10_relu10_0_split_0
I1219 16:29:31.738814 35822 net.cpp:433] eltwise10_relu10_0_split -> eltwise10_relu10_0_split_1
I1219 16:29:31.738829 35822 net.cpp:155] Setting up eltwise10_relu10_0_split
I1219 16:29:31.738842 35822 net.cpp:163] Top shape: 48 256 14 14 (2408448)
I1219 16:29:31.738853 35822 net.cpp:163] Top shape: 48 256 14 14 (2408448)
I1219 16:29:31.738863 35822 layer_factory.hpp:76] Creating layer conv47
I1219 16:29:31.738878 35822 net.cpp:110] Creating Layer conv47
I1219 16:29:31.738890 35822 net.cpp:477] conv47 <- eltwise10_relu10_0_split_0
I1219 16:29:31.738903 35822 net.cpp:433] conv47 -> conv47
I1219 16:29:31.744581 35822 net.cpp:155] Setting up conv47
I1219 16:29:31.744602 35822 net.cpp:163] Top shape: 48 256 14 14 (2408448)
I1219 16:29:31.744617 35822 layer_factory.hpp:76] Creating layer bn47
I1219 16:29:31.744633 35822 net.cpp:110] Creating Layer bn47
I1219 16:29:31.744645 35822 net.cpp:477] bn47 <- conv47
I1219 16:29:31.744659 35822 net.cpp:433] bn47 -> bn47
I1219 16:29:31.744766 35822 net.cpp:155] Setting up bn47
I1219 16:29:31.744789 35822 net.cpp:163] Top shape: 48 256 14 14 (2408448)
I1219 16:29:31.744809 35822 layer_factory.hpp:76] Creating layer relu47
I1219 16:29:31.744825 35822 net.cpp:110] Creating Layer relu47
I1219 16:29:31.744839 35822 net.cpp:477] relu47 <- bn47
I1219 16:29:31.744858 35822 net.cpp:419] relu47 -> bn47 (in-place)
I1219 16:29:31.744938 35822 net.cpp:155] Setting up relu47
I1219 16:29:31.744957 35822 net.cpp:163] Top shape: 48 256 14 14 (2408448)
I1219 16:29:31.744971 35822 layer_factory.hpp:76] Creating layer conv48
I1219 16:29:31.744992 35822 net.cpp:110] Creating Layer conv48
I1219 16:29:31.745007 35822 net.cpp:477] conv48 <- bn47
I1219 16:29:31.745025 35822 net.cpp:433] conv48 -> conv48
I1219 16:29:31.750730 35822 net.cpp:155] Setting up conv48
I1219 16:29:31.750754 35822 net.cpp:163] Top shape: 48 256 14 14 (2408448)
I1219 16:29:31.750807 35822 layer_factory.hpp:76] Creating layer bn48
I1219 16:29:31.750831 35822 net.cpp:110] Creating Layer bn48
I1219 16:29:31.750844 35822 net.cpp:477] bn48 <- conv48
I1219 16:29:31.750856 35822 net.cpp:433] bn48 -> bn48
I1219 16:29:31.750936 35822 net.cpp:155] Setting up bn48
I1219 16:29:31.750952 35822 net.cpp:163] Top shape: 48 256 14 14 (2408448)
I1219 16:29:31.750968 35822 layer_factory.hpp:76] Creating layer relu48
I1219 16:29:31.750983 35822 net.cpp:110] Creating Layer relu48
I1219 16:29:31.750994 35822 net.cpp:477] relu48 <- bn48
I1219 16:29:31.751008 35822 net.cpp:419] relu48 -> bn48 (in-place)
I1219 16:29:31.751201 35822 net.cpp:155] Setting up relu48
I1219 16:29:31.751220 35822 net.cpp:163] Top shape: 48 256 14 14 (2408448)
I1219 16:29:31.751231 35822 layer_factory.hpp:76] Creating layer eltwise11
I1219 16:29:31.751245 35822 net.cpp:110] Creating Layer eltwise11
I1219 16:29:31.751256 35822 net.cpp:477] eltwise11 <- eltwise10_relu10_0_split_1
I1219 16:29:31.751268 35822 net.cpp:477] eltwise11 <- bn48
I1219 16:29:31.751283 35822 net.cpp:433] eltwise11 -> eltwise11
I1219 16:29:31.751299 35822 net.cpp:155] Setting up eltwise11
I1219 16:29:31.751312 35822 net.cpp:163] Top shape: 48 256 14 14 (2408448)
I1219 16:29:31.751322 35822 layer_factory.hpp:76] Creating layer relu11
I1219 16:29:31.751333 35822 net.cpp:110] Creating Layer relu11
I1219 16:29:31.751344 35822 net.cpp:477] relu11 <- eltwise11
I1219 16:29:31.751358 35822 net.cpp:419] relu11 -> eltwise11 (in-place)
I1219 16:29:31.751441 35822 net.cpp:155] Setting up relu11
I1219 16:29:31.751456 35822 net.cpp:163] Top shape: 48 256 14 14 (2408448)
I1219 16:29:31.751466 35822 layer_factory.hpp:76] Creating layer eltwise11_relu11_0_split
I1219 16:29:31.751482 35822 net.cpp:110] Creating Layer eltwise11_relu11_0_split
I1219 16:29:31.751492 35822 net.cpp:477] eltwise11_relu11_0_split <- eltwise11
I1219 16:29:31.751504 35822 net.cpp:433] eltwise11_relu11_0_split -> eltwise11_relu11_0_split_0
I1219 16:29:31.751521 35822 net.cpp:433] eltwise11_relu11_0_split -> eltwise11_relu11_0_split_1
I1219 16:29:31.751538 35822 net.cpp:155] Setting up eltwise11_relu11_0_split
I1219 16:29:31.751549 35822 net.cpp:163] Top shape: 48 256 14 14 (2408448)
I1219 16:29:31.751560 35822 net.cpp:163] Top shape: 48 256 14 14 (2408448)
I1219 16:29:31.751570 35822 layer_factory.hpp:76] Creating layer conv49
I1219 16:29:31.751585 35822 net.cpp:110] Creating Layer conv49
I1219 16:29:31.751595 35822 net.cpp:477] conv49 <- eltwise11_relu11_0_split_0
I1219 16:29:31.751610 35822 net.cpp:433] conv49 -> conv49
I1219 16:29:31.757351 35822 net.cpp:155] Setting up conv49
I1219 16:29:31.757374 35822 net.cpp:163] Top shape: 48 256 14 14 (2408448)
I1219 16:29:31.757387 35822 layer_factory.hpp:76] Creating layer bn49
I1219 16:29:31.757405 35822 net.cpp:110] Creating Layer bn49
I1219 16:29:31.757416 35822 net.cpp:477] bn49 <- conv49
I1219 16:29:31.757428 35822 net.cpp:433] bn49 -> bn49
I1219 16:29:31.757516 35822 net.cpp:155] Setting up bn49
I1219 16:29:31.757534 35822 net.cpp:163] Top shape: 48 256 14 14 (2408448)
I1219 16:29:31.757576 35822 layer_factory.hpp:76] Creating layer relu49
I1219 16:29:31.757591 35822 net.cpp:110] Creating Layer relu49
I1219 16:29:31.757621 35822 net.cpp:477] relu49 <- bn49
I1219 16:29:31.757634 35822 net.cpp:419] relu49 -> bn49 (in-place)
I1219 16:29:31.757712 35822 net.cpp:155] Setting up relu49
I1219 16:29:31.757730 35822 net.cpp:163] Top shape: 48 256 14 14 (2408448)
I1219 16:29:31.757740 35822 layer_factory.hpp:76] Creating layer conv410
I1219 16:29:31.757756 35822 net.cpp:110] Creating Layer conv410
I1219 16:29:31.757767 35822 net.cpp:477] conv410 <- bn49
I1219 16:29:31.757782 35822 net.cpp:433] conv410 -> conv410
I1219 16:29:31.763474 35822 net.cpp:155] Setting up conv410
I1219 16:29:31.763496 35822 net.cpp:163] Top shape: 48 256 14 14 (2408448)
I1219 16:29:31.763511 35822 layer_factory.hpp:76] Creating layer bn410
I1219 16:29:31.763530 35822 net.cpp:110] Creating Layer bn410
I1219 16:29:31.763541 35822 net.cpp:477] bn410 <- conv410
I1219 16:29:31.763556 35822 net.cpp:433] bn410 -> bn410
I1219 16:29:31.763644 35822 net.cpp:155] Setting up bn410
I1219 16:29:31.763660 35822 net.cpp:163] Top shape: 48 256 14 14 (2408448)
I1219 16:29:31.763676 35822 layer_factory.hpp:76] Creating layer relu410
I1219 16:29:31.763689 35822 net.cpp:110] Creating Layer relu410
I1219 16:29:31.763700 35822 net.cpp:477] relu410 <- bn410
I1219 16:29:31.763715 35822 net.cpp:419] relu410 -> bn410 (in-place)
I1219 16:29:31.763792 35822 net.cpp:155] Setting up relu410
I1219 16:29:31.763808 35822 net.cpp:163] Top shape: 48 256 14 14 (2408448)
I1219 16:29:31.763818 35822 layer_factory.hpp:76] Creating layer eltwise12
I1219 16:29:31.763833 35822 net.cpp:110] Creating Layer eltwise12
I1219 16:29:31.763844 35822 net.cpp:477] eltwise12 <- eltwise11_relu11_0_split_1
I1219 16:29:31.763855 35822 net.cpp:477] eltwise12 <- bn410
I1219 16:29:31.763867 35822 net.cpp:433] eltwise12 -> eltwise12
I1219 16:29:31.763882 35822 net.cpp:155] Setting up eltwise12
I1219 16:29:31.763895 35822 net.cpp:163] Top shape: 48 256 14 14 (2408448)
I1219 16:29:31.763906 35822 layer_factory.hpp:76] Creating layer relu12
I1219 16:29:31.763916 35822 net.cpp:110] Creating Layer relu12
I1219 16:29:31.763926 35822 net.cpp:477] relu12 <- eltwise12
I1219 16:29:31.763938 35822 net.cpp:419] relu12 -> eltwise12 (in-place)
I1219 16:29:31.764117 35822 net.cpp:155] Setting up relu12
I1219 16:29:31.764137 35822 net.cpp:163] Top shape: 48 256 14 14 (2408448)
I1219 16:29:31.764148 35822 layer_factory.hpp:76] Creating layer eltwise12_relu12_0_split
I1219 16:29:31.764161 35822 net.cpp:110] Creating Layer eltwise12_relu12_0_split
I1219 16:29:31.764173 35822 net.cpp:477] eltwise12_relu12_0_split <- eltwise12
I1219 16:29:31.764185 35822 net.cpp:433] eltwise12_relu12_0_split -> eltwise12_relu12_0_split_0
I1219 16:29:31.764200 35822 net.cpp:433] eltwise12_relu12_0_split -> eltwise12_relu12_0_split_1
I1219 16:29:31.764214 35822 net.cpp:433] eltwise12_relu12_0_split -> eltwise12_relu12_0_split_2
I1219 16:29:31.764228 35822 net.cpp:155] Setting up eltwise12_relu12_0_split
I1219 16:29:31.764241 35822 net.cpp:163] Top shape: 48 256 14 14 (2408448)
I1219 16:29:31.764252 35822 net.cpp:163] Top shape: 48 256 14 14 (2408448)
I1219 16:29:31.764262 35822 net.cpp:163] Top shape: 48 256 14 14 (2408448)
I1219 16:29:31.764272 35822 layer_factory.hpp:76] Creating layer conv411
I1219 16:29:31.764291 35822 net.cpp:110] Creating Layer conv411
I1219 16:29:31.764302 35822 net.cpp:477] conv411 <- eltwise12_relu12_0_split_0
I1219 16:29:31.764317 35822 net.cpp:433] conv411 -> conv411
I1219 16:29:31.770079 35822 net.cpp:155] Setting up conv411
I1219 16:29:31.770102 35822 net.cpp:163] Top shape: 48 256 14 14 (2408448)
I1219 16:29:31.770117 35822 layer_factory.hpp:76] Creating layer bn411
I1219 16:29:31.770133 35822 net.cpp:110] Creating Layer bn411
I1219 16:29:31.770145 35822 net.cpp:477] bn411 <- conv411
I1219 16:29:31.770160 35822 net.cpp:433] bn411 -> bn411
I1219 16:29:31.770247 35822 net.cpp:155] Setting up bn411
I1219 16:29:31.770264 35822 net.cpp:163] Top shape: 48 256 14 14 (2408448)
I1219 16:29:31.770280 35822 layer_factory.hpp:76] Creating layer relu411
I1219 16:29:31.770294 35822 net.cpp:110] Creating Layer relu411
I1219 16:29:31.770321 35822 net.cpp:477] relu411 <- bn411
I1219 16:29:31.770337 35822 net.cpp:419] relu411 -> bn411 (in-place)
I1219 16:29:31.770417 35822 net.cpp:155] Setting up relu411
I1219 16:29:31.770434 35822 net.cpp:163] Top shape: 48 256 14 14 (2408448)
I1219 16:29:31.770445 35822 layer_factory.hpp:76] Creating layer conv412
I1219 16:29:31.770462 35822 net.cpp:110] Creating Layer conv412
I1219 16:29:31.770473 35822 net.cpp:477] conv412 <- bn411
I1219 16:29:31.770485 35822 net.cpp:433] conv412 -> conv412
I1219 16:29:31.776188 35822 net.cpp:155] Setting up conv412
I1219 16:29:31.776214 35822 net.cpp:163] Top shape: 48 256 14 14 (2408448)
I1219 16:29:31.776248 35822 layer_factory.hpp:76] Creating layer bn412
I1219 16:29:31.776275 35822 net.cpp:110] Creating Layer bn412
I1219 16:29:31.776295 35822 net.cpp:477] bn412 <- conv412
I1219 16:29:31.776309 35822 net.cpp:433] bn412 -> bn412
I1219 16:29:31.776393 35822 net.cpp:155] Setting up bn412
I1219 16:29:31.776414 35822 net.cpp:163] Top shape: 48 256 14 14 (2408448)
I1219 16:29:31.776432 35822 layer_factory.hpp:76] Creating layer relu412
I1219 16:29:31.776444 35822 net.cpp:110] Creating Layer relu412
I1219 16:29:31.776455 35822 net.cpp:477] relu412 <- bn412
I1219 16:29:31.776468 35822 net.cpp:419] relu412 -> bn412 (in-place)
I1219 16:29:31.776546 35822 net.cpp:155] Setting up relu412
I1219 16:29:31.776561 35822 net.cpp:163] Top shape: 48 256 14 14 (2408448)
I1219 16:29:31.776571 35822 layer_factory.hpp:76] Creating layer eltwise13
I1219 16:29:31.776584 35822 net.cpp:110] Creating Layer eltwise13
I1219 16:29:31.776595 35822 net.cpp:477] eltwise13 <- eltwise12_relu12_0_split_1
I1219 16:29:31.776607 35822 net.cpp:477] eltwise13 <- bn412
I1219 16:29:31.776619 35822 net.cpp:433] eltwise13 -> eltwise13
I1219 16:29:31.776634 35822 net.cpp:155] Setting up eltwise13
I1219 16:29:31.776648 35822 net.cpp:163] Top shape: 48 256 14 14 (2408448)
I1219 16:29:31.776657 35822 layer_factory.hpp:76] Creating layer relu13
I1219 16:29:31.776669 35822 net.cpp:110] Creating Layer relu13
I1219 16:29:31.776679 35822 net.cpp:477] relu13 <- eltwise13
I1219 16:29:31.776698 35822 net.cpp:419] relu13 -> eltwise13 (in-place)
I1219 16:29:31.776770 35822 net.cpp:155] Setting up relu13
I1219 16:29:31.776787 35822 net.cpp:163] Top shape: 48 256 14 14 (2408448)
I1219 16:29:31.776796 35822 layer_factory.hpp:76] Creating layer relu13_p
I1219 16:29:31.776813 35822 net.cpp:110] Creating Layer relu13_p
I1219 16:29:31.776823 35822 net.cpp:477] relu13_p <- eltwise12_relu12_0_split_2
I1219 16:29:31.776839 35822 net.cpp:433] relu13_p -> relu13_p
I1219 16:29:31.778641 35822 net.cpp:155] Setting up relu13_p
I1219 16:29:31.778662 35822 net.cpp:163] Top shape: 48 512 7 7 (1204224)
I1219 16:29:31.778677 35822 layer_factory.hpp:76] Creating layer relu13_bn
I1219 16:29:31.778710 35822 net.cpp:110] Creating Layer relu13_bn
I1219 16:29:31.778723 35822 net.cpp:477] relu13_bn <- relu13_p
I1219 16:29:31.778736 35822 net.cpp:433] relu13_bn -> relu13_bn
I1219 16:29:31.778826 35822 net.cpp:155] Setting up relu13_bn
I1219 16:29:31.778846 35822 net.cpp:163] Top shape: 48 512 7 7 (1204224)
I1219 16:29:31.778862 35822 layer_factory.hpp:76] Creating layer conv51
I1219 16:29:31.778877 35822 net.cpp:110] Creating Layer conv51
I1219 16:29:31.778888 35822 net.cpp:477] conv51 <- eltwise13
I1219 16:29:31.778903 35822 net.cpp:433] conv51 -> conv51
I1219 16:29:31.789808 35822 net.cpp:155] Setting up conv51
I1219 16:29:31.789830 35822 net.cpp:163] Top shape: 48 512 7 7 (1204224)
I1219 16:29:31.789845 35822 layer_factory.hpp:76] Creating layer bn51
I1219 16:29:31.789860 35822 net.cpp:110] Creating Layer bn51
I1219 16:29:31.789871 35822 net.cpp:477] bn51 <- conv51
I1219 16:29:31.789887 35822 net.cpp:433] bn51 -> bn51
I1219 16:29:31.789976 35822 net.cpp:155] Setting up bn51
I1219 16:29:31.789994 35822 net.cpp:163] Top shape: 48 512 7 7 (1204224)
I1219 16:29:31.790011 35822 layer_factory.hpp:76] Creating layer relu51
I1219 16:29:31.790025 35822 net.cpp:110] Creating Layer relu51
I1219 16:29:31.790036 35822 net.cpp:477] relu51 <- bn51
I1219 16:29:31.790066 35822 net.cpp:419] relu51 -> bn51 (in-place)
I1219 16:29:31.790253 35822 net.cpp:155] Setting up relu51
I1219 16:29:31.790272 35822 net.cpp:163] Top shape: 48 512 7 7 (1204224)
I1219 16:29:31.790284 35822 layer_factory.hpp:76] Creating layer conv52
I1219 16:29:31.790302 35822 net.cpp:110] Creating Layer conv52
I1219 16:29:31.790313 35822 net.cpp:477] conv52 <- bn51
I1219 16:29:31.790326 35822 net.cpp:433] conv52 -> conv52
I1219 16:29:31.811777 35822 net.cpp:155] Setting up conv52
I1219 16:29:31.811813 35822 net.cpp:163] Top shape: 48 512 7 7 (1204224)
I1219 16:29:31.811854 35822 layer_factory.hpp:76] Creating layer bn52
I1219 16:29:31.811884 35822 net.cpp:110] Creating Layer bn52
I1219 16:29:31.811923 35822 net.cpp:477] bn52 <- conv52
I1219 16:29:31.811950 35822 net.cpp:433] bn52 -> bn52
I1219 16:29:31.812046 35822 net.cpp:155] Setting up bn52
I1219 16:29:31.812067 35822 net.cpp:163] Top shape: 48 512 7 7 (1204224)
I1219 16:29:31.812088 35822 layer_factory.hpp:76] Creating layer relu52
I1219 16:29:31.812106 35822 net.cpp:110] Creating Layer relu52
I1219 16:29:31.812119 35822 net.cpp:477] relu52 <- bn52
I1219 16:29:31.812135 35822 net.cpp:419] relu52 -> bn52 (in-place)
I1219 16:29:31.812223 35822 net.cpp:155] Setting up relu52
I1219 16:29:31.812242 35822 net.cpp:163] Top shape: 48 512 7 7 (1204224)
I1219 16:29:31.812258 35822 layer_factory.hpp:76] Creating layer eltwise14
I1219 16:29:31.812278 35822 net.cpp:110] Creating Layer eltwise14
I1219 16:29:31.812291 35822 net.cpp:477] eltwise14 <- relu13_bn
I1219 16:29:31.812306 35822 net.cpp:477] eltwise14 <- bn52
I1219 16:29:31.812325 35822 net.cpp:433] eltwise14 -> eltwise14
I1219 16:29:31.812345 35822 net.cpp:155] Setting up eltwise14
I1219 16:29:31.812361 35822 net.cpp:163] Top shape: 48 512 7 7 (1204224)
I1219 16:29:31.812376 35822 layer_factory.hpp:76] Creating layer relu14
I1219 16:29:31.812391 35822 net.cpp:110] Creating Layer relu14
I1219 16:29:31.812424 35822 net.cpp:477] relu14 <- eltwise14
I1219 16:29:31.812443 35822 net.cpp:419] relu14 -> eltwise14 (in-place)
I1219 16:29:31.812516 35822 net.cpp:155] Setting up relu14
I1219 16:29:31.812535 35822 net.cpp:163] Top shape: 48 512 7 7 (1204224)
I1219 16:29:31.812548 35822 layer_factory.hpp:76] Creating layer eltwise14_relu14_0_split
I1219 16:29:31.812568 35822 net.cpp:110] Creating Layer eltwise14_relu14_0_split
I1219 16:29:31.812583 35822 net.cpp:477] eltwise14_relu14_0_split <- eltwise14
I1219 16:29:31.812599 35822 net.cpp:433] eltwise14_relu14_0_split -> eltwise14_relu14_0_split_0
I1219 16:29:31.812616 35822 net.cpp:433] eltwise14_relu14_0_split -> eltwise14_relu14_0_split_1
I1219 16:29:31.812636 35822 net.cpp:155] Setting up eltwise14_relu14_0_split
I1219 16:29:31.812655 35822 net.cpp:163] Top shape: 48 512 7 7 (1204224)
I1219 16:29:31.812671 35822 net.cpp:163] Top shape: 48 512 7 7 (1204224)
I1219 16:29:31.812685 35822 layer_factory.hpp:76] Creating layer conv53
I1219 16:29:31.812703 35822 net.cpp:110] Creating Layer conv53
I1219 16:29:31.812716 35822 net.cpp:477] conv53 <- eltwise14_relu14_0_split_0
I1219 16:29:31.812736 35822 net.cpp:433] conv53 -> conv53
I1219 16:29:31.834210 35822 net.cpp:155] Setting up conv53
I1219 16:29:31.834246 35822 net.cpp:163] Top shape: 48 512 7 7 (1204224)
I1219 16:29:31.834262 35822 layer_factory.hpp:76] Creating layer bn53
I1219 16:29:31.834282 35822 net.cpp:110] Creating Layer bn53
I1219 16:29:31.834295 35822 net.cpp:477] bn53 <- conv53
I1219 16:29:31.834309 35822 net.cpp:433] bn53 -> bn53
I1219 16:29:31.834403 35822 net.cpp:155] Setting up bn53
I1219 16:29:31.834419 35822 net.cpp:163] Top shape: 48 512 7 7 (1204224)
I1219 16:29:31.834439 35822 layer_factory.hpp:76] Creating layer relu53
I1219 16:29:31.834455 35822 net.cpp:110] Creating Layer relu53
I1219 16:29:31.834465 35822 net.cpp:477] relu53 <- bn53
I1219 16:29:31.834481 35822 net.cpp:419] relu53 -> bn53 (in-place)
I1219 16:29:31.834668 35822 net.cpp:155] Setting up relu53
I1219 16:29:31.834688 35822 net.cpp:163] Top shape: 48 512 7 7 (1204224)
I1219 16:29:31.834699 35822 layer_factory.hpp:76] Creating layer conv54
I1219 16:29:31.834745 35822 net.cpp:110] Creating Layer conv54
I1219 16:29:31.834758 35822 net.cpp:477] conv54 <- bn53
I1219 16:29:31.834770 35822 net.cpp:433] conv54 -> conv54
I1219 16:29:31.856323 35822 net.cpp:155] Setting up conv54
I1219 16:29:31.856367 35822 net.cpp:163] Top shape: 48 512 7 7 (1204224)
I1219 16:29:31.856384 35822 layer_factory.hpp:76] Creating layer bn54
I1219 16:29:31.856405 35822 net.cpp:110] Creating Layer bn54
I1219 16:29:31.856436 35822 net.cpp:477] bn54 <- conv54
I1219 16:29:31.856464 35822 net.cpp:433] bn54 -> bn54
I1219 16:29:31.856571 35822 net.cpp:155] Setting up bn54
I1219 16:29:31.856590 35822 net.cpp:163] Top shape: 48 512 7 7 (1204224)
I1219 16:29:31.856618 35822 layer_factory.hpp:76] Creating layer relu54
I1219 16:29:31.856638 35822 net.cpp:110] Creating Layer relu54
I1219 16:29:31.856653 35822 net.cpp:477] relu54 <- bn54
I1219 16:29:31.856669 35822 net.cpp:419] relu54 -> bn54 (in-place)
I1219 16:29:31.856752 35822 net.cpp:155] Setting up relu54
I1219 16:29:31.856770 35822 net.cpp:163] Top shape: 48 512 7 7 (1204224)
I1219 16:29:31.856784 35822 layer_factory.hpp:76] Creating layer eltwise15
I1219 16:29:31.856804 35822 net.cpp:110] Creating Layer eltwise15
I1219 16:29:31.856819 35822 net.cpp:477] eltwise15 <- eltwise14_relu14_0_split_1
I1219 16:29:31.856834 35822 net.cpp:477] eltwise15 <- bn54
I1219 16:29:31.856851 35822 net.cpp:433] eltwise15 -> eltwise15
I1219 16:29:31.856871 35822 net.cpp:155] Setting up eltwise15
I1219 16:29:31.856886 35822 net.cpp:163] Top shape: 48 512 7 7 (1204224)
I1219 16:29:31.856900 35822 layer_factory.hpp:76] Creating layer relu15
I1219 16:29:31.856915 35822 net.cpp:110] Creating Layer relu15
I1219 16:29:31.856930 35822 net.cpp:477] relu15 <- eltwise15
I1219 16:29:31.856945 35822 net.cpp:419] relu15 -> eltwise15 (in-place)
I1219 16:29:31.857022 35822 net.cpp:155] Setting up relu15
I1219 16:29:31.857039 35822 net.cpp:163] Top shape: 48 512 7 7 (1204224)
I1219 16:29:31.857055 35822 layer_factory.hpp:76] Creating layer eltwise15_relu15_0_split
I1219 16:29:31.857074 35822 net.cpp:110] Creating Layer eltwise15_relu15_0_split
I1219 16:29:31.857089 35822 net.cpp:477] eltwise15_relu15_0_split <- eltwise15
I1219 16:29:31.857105 35822 net.cpp:433] eltwise15_relu15_0_split -> eltwise15_relu15_0_split_0
I1219 16:29:31.857122 35822 net.cpp:433] eltwise15_relu15_0_split -> eltwise15_relu15_0_split_1
I1219 16:29:31.857141 35822 net.cpp:155] Setting up eltwise15_relu15_0_split
I1219 16:29:31.857157 35822 net.cpp:163] Top shape: 48 512 7 7 (1204224)
I1219 16:29:31.857172 35822 net.cpp:163] Top shape: 48 512 7 7 (1204224)
I1219 16:29:31.857188 35822 layer_factory.hpp:76] Creating layer conv55
I1219 16:29:31.857208 35822 net.cpp:110] Creating Layer conv55
I1219 16:29:31.857221 35822 net.cpp:477] conv55 <- eltwise15_relu15_0_split_0
I1219 16:29:31.857242 35822 net.cpp:433] conv55 -> conv55
I1219 16:29:31.878646 35822 net.cpp:155] Setting up conv55
I1219 16:29:31.878680 35822 net.cpp:163] Top shape: 48 512 7 7 (1204224)
I1219 16:29:31.878696 35822 layer_factory.hpp:76] Creating layer bn55
I1219 16:29:31.878716 35822 net.cpp:110] Creating Layer bn55
I1219 16:29:31.878748 35822 net.cpp:477] bn55 <- conv55
I1219 16:29:31.878777 35822 net.cpp:433] bn55 -> bn55
I1219 16:29:31.878883 35822 net.cpp:155] Setting up bn55
I1219 16:29:31.878902 35822 net.cpp:163] Top shape: 48 512 7 7 (1204224)
I1219 16:29:31.878929 35822 layer_factory.hpp:76] Creating layer relu55
I1219 16:29:31.878950 35822 net.cpp:110] Creating Layer relu55
I1219 16:29:31.878964 35822 net.cpp:477] relu55 <- bn55
I1219 16:29:31.878983 35822 net.cpp:419] relu55 -> bn55 (in-place)
I1219 16:29:31.879065 35822 net.cpp:155] Setting up relu55
I1219 16:29:31.879082 35822 net.cpp:163] Top shape: 48 512 7 7 (1204224)
I1219 16:29:31.879096 35822 layer_factory.hpp:76] Creating layer conv56
I1219 16:29:31.879114 35822 net.cpp:110] Creating Layer conv56
I1219 16:29:31.879129 35822 net.cpp:477] conv56 <- bn55
I1219 16:29:31.879149 35822 net.cpp:433] conv56 -> conv56
I1219 16:29:31.900553 35822 net.cpp:155] Setting up conv56
I1219 16:29:31.900620 35822 net.cpp:163] Top shape: 48 512 7 7 (1204224)
I1219 16:29:31.900663 35822 layer_factory.hpp:76] Creating layer bn56
I1219 16:29:31.900691 35822 net.cpp:110] Creating Layer bn56
I1219 16:29:31.900712 35822 net.cpp:477] bn56 <- conv56
I1219 16:29:31.900738 35822 net.cpp:433] bn56 -> bn56
I1219 16:29:31.900838 35822 net.cpp:155] Setting up bn56
I1219 16:29:31.900857 35822 net.cpp:163] Top shape: 48 512 7 7 (1204224)
I1219 16:29:31.900878 35822 layer_factory.hpp:76] Creating layer relu56
I1219 16:29:31.900897 35822 net.cpp:110] Creating Layer relu56
I1219 16:29:31.900913 35822 net.cpp:477] relu56 <- bn56
I1219 16:29:31.900928 35822 net.cpp:419] relu56 -> bn56 (in-place)
I1219 16:29:31.901123 35822 net.cpp:155] Setting up relu56
I1219 16:29:31.901147 35822 net.cpp:163] Top shape: 48 512 7 7 (1204224)
I1219 16:29:31.901162 35822 layer_factory.hpp:76] Creating layer eltwise16
I1219 16:29:31.901180 35822 net.cpp:110] Creating Layer eltwise16
I1219 16:29:31.901195 35822 net.cpp:477] eltwise16 <- eltwise15_relu15_0_split_1
I1219 16:29:31.901211 35822 net.cpp:477] eltwise16 <- bn56
I1219 16:29:31.901232 35822 net.cpp:433] eltwise16 -> eltwise16
I1219 16:29:31.901253 35822 net.cpp:155] Setting up eltwise16
I1219 16:29:31.901269 35822 net.cpp:163] Top shape: 48 512 7 7 (1204224)
I1219 16:29:31.901283 35822 layer_factory.hpp:76] Creating layer relu16
I1219 16:29:31.901309 35822 net.cpp:110] Creating Layer relu16
I1219 16:29:31.901324 35822 net.cpp:477] relu16 <- eltwise16
I1219 16:29:31.901377 35822 net.cpp:419] relu16 -> eltwise16 (in-place)
I1219 16:29:31.901458 35822 net.cpp:155] Setting up relu16
I1219 16:29:31.901476 35822 net.cpp:163] Top shape: 48 512 7 7 (1204224)
I1219 16:29:31.901490 35822 layer_factory.hpp:76] Creating layer pool5
I1219 16:29:31.901511 35822 net.cpp:110] Creating Layer pool5
I1219 16:29:31.901525 35822 net.cpp:477] pool5 <- eltwise16
I1219 16:29:31.901543 35822 net.cpp:433] pool5 -> pool5
I1219 16:29:31.901623 35822 net.cpp:155] Setting up pool5
I1219 16:29:31.901643 35822 net.cpp:163] Top shape: 48 512 1 1 (24576)
I1219 16:29:31.901659 35822 layer_factory.hpp:76] Creating layer ip1
I1219 16:29:31.901689 35822 net.cpp:110] Creating Layer ip1
I1219 16:29:31.901702 35822 net.cpp:477] ip1 <- pool5
I1219 16:29:31.901720 35822 net.cpp:433] ip1 -> ip1
I1219 16:29:31.950278 35822 net.cpp:155] Setting up ip1
I1219 16:29:31.950328 35822 net.cpp:163] Top shape: 48 10575 (507600)
I1219 16:29:31.950346 35822 layer_factory.hpp:76] Creating layer ip1_ip1_0_split
I1219 16:29:31.950403 35822 net.cpp:110] Creating Layer ip1_ip1_0_split
I1219 16:29:31.950438 35822 net.cpp:477] ip1_ip1_0_split <- ip1
I1219 16:29:31.950465 35822 net.cpp:433] ip1_ip1_0_split -> ip1_ip1_0_split_0
I1219 16:29:31.950501 35822 net.cpp:433] ip1_ip1_0_split -> ip1_ip1_0_split_1
I1219 16:29:31.950522 35822 net.cpp:155] Setting up ip1_ip1_0_split
I1219 16:29:31.950538 35822 net.cpp:163] Top shape: 48 10575 (507600)
I1219 16:29:31.950553 35822 net.cpp:163] Top shape: 48 10575 (507600)
I1219 16:29:31.950567 35822 layer_factory.hpp:76] Creating layer loss
I1219 16:29:31.950588 35822 net.cpp:110] Creating Layer loss
I1219 16:29:31.950603 35822 net.cpp:477] loss <- ip1_ip1_0_split_0
I1219 16:29:31.950618 35822 net.cpp:477] loss <- label_data_1_split_0
I1219 16:29:31.950636 35822 net.cpp:433] loss -> loss
I1219 16:29:31.950682 35822 layer_factory.hpp:76] Creating layer loss
…
I1219 16:29:31.961984 35822 net.cpp:339] The NetState phase (1) differed from the phase (0) specified by a rule in layer data
I1219 16:29:31.962062 35822 net.cpp:339] The NetState phase (1) differed from the phase (0) specified by a rule in layer loss
I1219 16:29:31.962661 35822 net.cpp:50] Initializing net from parameters: 
name: "RsdNet34"
state {
  phase: TEST
}
layer {
  name: "data"
  type: "Data"
  top: "data"
  top: "label"
  include {
    phase: TEST
  }
  transform_param {
    scale: 0.0039215689
    mirror: true
    mean_file: "./mean_224gray.binaryproto"
  }
  data_param {
    source: "./test_224gray_lmdb"
    batch_size: 36
    backend: LMDB
  }
}
layer {
  name: "conv01"
  type: "Convolution"
  bottom: "data"
  top: "conv01"
  param {
    lr_mult: 1
    decay_mult: 1
  }
  param {
    lr_mult: 2
    decay_mult: 0
  }
  convolution_param {
    num_output: 64
    pad: 3
    kernel_size: 7
    stride: 2
    weight_filler {
      type: "xavier"
    }
    bias_filler {
      type: "constant"
    }
  }
}
layer {
  name: "bn01"
  type: "BatchNorm"
  bottom: "conv01"
  top: "bn01"
  batch_norm_param {
    use_global_stats: false
  }
}
layer {
  name: "relu01"
  type: "ReLU"
  bottom: "bn01"
  top: "bn01"
}
layer {
  name: "pool1"
  type: "Pooling"
  bottom: "bn01"
  top: "pool1"
  pooling_param {
    pool: MAX
    kernel_size: 3
    stride: 2
  }
}
layer {
  name: "conv21"
  type: "Convolution"
  bottom: "pool1"
  top: "conv21"
  param {
    lr_mult: 1
    decay_mult: 1
  }
  param {
    lr_mult: 2
    decay_mult: 0
  }
  convolution_param {
    num_output: 64
    pad: 1
    kernel_size: 3
    stride: 1
    weight_filler {
      type: "xavier"
    }
    bias_filler {
      type: "constant"
    }
  }
}
layer {
  name: "bn21"
  type: "BatchNorm"
  bottom: "conv21"
  top: "bn21"
  batch_norm_param {
    use_global_stats: false
  }
}
layer {
  name: "relu21"
  type: "ReLU"
  bottom: "bn21"
  top: "bn21"
}
layer {
  name: "conv22"
  type: "Convolution"
  bottom: "bn21"
  top: "conv22"
  param {
    lr_mult: 1
    decay_mult: 1
  }
  param {
    lr_mult: 2
    decay_mult: 0
  }
  convolution_param {
    num_output: 64
    pad: 1
    kernel_size: 3
    stride: 1
    weight_filler {
      type: "xavier"
    }
    bias_filler {
      type: "constant"
    }
  }
}
layer {
  name: "bn22"
  type: "BatchNorm"
  bottom: "conv22"
  top: "bn22"
  batch_norm_param {
    use_global_stats: false
  }
}
layer {
  name: "relu22"
  type: "ReLU"
  bottom: "bn22"
  top: "bn22"
}
layer {
  name: "eltwise1"
  type: "Eltwise"
  bottom: "pool1"
  bottom: "bn22"
  top: "eltwise1"
  eltwise_param {
    operation: SUM
  }
}
layer {
  name: "relu1"
  type: "ReLU"
  bottom: "eltwise1"
  top: "eltwise1"
}
layer {
  name: "conv23"
  type: "Convolution"
  bottom: "eltwise1"
  top: "conv23"
  param {
    lr_mult: 1
    decay_mult: 1
  }
  param {
    lr_mult: 2
    decay_mult: 0
  }
  convolution_param {
    num_output: 64
    pad: 1
    kernel_size: 3
    stride: 1
    weight_filler {
      type: "xavier"
    }
    bias_filler {
      type: "constant"
    }
  }
}
layer {
  name: "bn23"
  type: "BatchNorm"
  bottom: "conv23"
  top: "bn23"
  batch_norm_param {
    use_global_stats: false
  }
}
layer {
  name: "relu23"
  type: "ReLU"
  bottom: "bn23"
  top: "bn23"
}
layer {
  name: "conv24"
  type: "Convolution"
  bottom: "bn23"
  top: "conv24"
  param {
    lr_mult: 1
    decay_mult: 1
  }
  param {
    lr_mult: 2
    decay_mult: 0
  }
  convolution_param {
    num_output: 64
    pad: 1
    kernel_size: 3
    stride: 1
    weight_filler {
      type: "xavier"
    }
    bias_filler {
      type: "constant"
    }
  }
}
layer {
  name: "bn24"
  type: "BatchNorm"
  bottom: "conv24"
  top: "bn24"
  batch_norm_param {
    use_global_stats: false
  }
}
layer {
  name: "relu24"
  type: "ReLU"
  bottom: "bn24"
  top: "bn24"
}
layer {
  name: "eltwise2"
  type: "Eltwise"
  bottom: "eltwise1"
  bottom: "bn24"
  top: "eltwise2"
  eltwise_param {
    operation: SUM
  }
}
layer {
  name: "relu2"
  type: "ReLU"
  bottom: "eltwise2"
  top: "eltwise2"
}
layer {
  name: "conv25"
  type: "Convolution"
  bottom: "bn24"
  top: "conv25"
  param {
    lr_mult: 1
    decay_mult: 1
  }
  param {
    lr_mult: 2
    decay_mult: 0
  }
  convolution_param {
    num_output: 64
    pad: 1
    kernel_size: 3
    stride: 1
    weight_filler {
      type: "xavier"
    }
    bias_filler {
      type: "constant"
    }
  }
}
layer {
  name: "bn25"
  type: "BatchNorm"
  bottom: "conv25"
  top: "bn25"
  batch_norm_param {
    use_global_stats: false
  }
}
layer {
  name: "relu25"
  type: "ReLU"
  bottom: "bn25"
  top: "bn25"
}
layer {
  name: "conv26"
  type: "Convolution"
  bottom: "bn25"
  top: "conv26"
  param {
    lr_mult: 1
    decay_mult: 1
  }
  param {
    lr_mult: 2
    decay_mult: 0
  }
  convolution_param {
    num_output: 64
    pad: 1
    kernel_size: 3
    stride: 1
    weight_filler {
      type: "xavier"
    }
    bias_filler {
      type: "constant"
    }
  }
}
layer {
  name: "bn26"
  type: "BatchNorm"
  bottom: "conv26"
  top: "bn26"
  batch_norm_param {
    use_global_stats: false
  }
}
layer {
  name: "relu26"
  type: "ReLU"
  bottom: "bn26"
  top: "bn26"
}
layer {
  name: "eltwise3"
  type: "Eltwise"
  bottom: "eltwise2"
  bottom: "bn26"
  top: "eltwise3"
  eltwise_param {
    operation: SUM
  }
}
layer {
  name: "relu3"
  type: "ReLU"
  bottom: "eltwise3"
  top: "eltwise3"
}
layer {
  name: "relu3_p"
  type: "Convolution"
  bottom: "eltwise3"
  top: "relu3_p"
  param {
    lr_mult: 1
    decay_mult: 1
  }
  param {
    lr_mult: 2
    decay_mult: 0
  }
  convolution_param {
    num_output: 128
    pad: 0
    kernel_size: 1
    stride: 2
    weight_filler {
      type: "xavier"
    }
    bias_filler {
      type: "constant"
    }
  }
}
layer {
  name: "relu3_bn"
  type: "BatchNorm"
  bottom: "relu3_p"
  top: "relu3_bn"
  batch_norm_param {
    use_global_stats: false
  }
}
layer {
  name: "conv31"
  type: "Convolution"
  bottom: "eltwise3"
  top: "conv31"
  param {
    lr_mult: 1
    decay_mult: 1
  }
  param {
    lr_mult: 2
    decay_mult: 0
  }
  convolution_param {
    num_output: 128
    pad: 1
    kernel_size: 3
    stride: 2
    weight_filler {
      type: "xavier"
    }
    bias_filler {
      type: "constant"
    }
  }
}
layer {
  name: "bn31"
  type: "BatchNorm"
  bottom: "conv31"
  top: "bn31"
  batch_norm_param {
    use_global_stats: false
  }
}
layer {
  name: "relu31"
  type: "ReLU"
  bottom: "bn31"
  top: "bn31"
}
layer {
  name: "conv32"
  type: "Convolution"
  bottom: "bn31"
  top: "conv32"
  param {
    lr_mult: 1
    decay_mult: 1
  }
  param {
    lr_mult: 2
    decay_mult: 0
  }
  convolution_param {
    num_output: 128
    pad: 1
    kernel_size: 3
    stride: 1
    weight_filler {
      type: "xavier"
    }
    bias_filler {
      type: "constant"
    }
  }
}
layer {
  name: "bn32"
  type: "BatchNorm"
  bottom: "conv32"
  top: "bn32"
  batch_norm_param {
    use_global_stats: false
  }
}
layer {
  name: "relu32"
  type: "ReLU"
  bottom: "bn32"
  top: "bn32"
}
layer {
  name: "eltwise4"
  type: "Eltwise"
  bottom: "relu3_bn"
  bottom: "bn32"
  top: "eltwise4"
  eltwise_param {
    operation: SUM
  }
}
layer {
  name: "relu4"
  type: "ReLU"
  bottom: "eltwise4"
  top: "eltwise4"
}
layer {
  name: "conv33"
  type: "Convolution"
  bottom: "eltwise4"
  top: "conv33"
  param {
    lr_mult: 1
    decay_mult: 1
  }
  param {
    lr_mult: 2
    decay_mult: 0
  }
  convolution_param {
    num_output: 128
    pad: 1
    kernel_size: 3
    stride: 1
    weight_filler {
      type: "xavier"
    }
    bias_filler {
      type: "constant"
    }
  }
}
layer {
  name: "bn33"
  type: "BatchNorm"
  bottom: "conv33"
  top: "bn33"
  batch_norm_param {
    use_global_stats: false
  }
}
layer {
  name: "relu33"
  type: "ReLU"
  bottom: "bn33"
  top: "bn33"
}
layer {
  name: "conv34"
  type: "Convolution"
  bottom: "bn33"
  top: "conv34"
  param {
    lr_mult: 1
    decay_mult: 1
  }
  param {
    lr_mult: 2
    decay_mult: 0
  }
  convolution_param {
    num_output: 128
    pad: 1
    kernel_size: 3
    stride: 1
    weight_filler {
      type: "xavier"
    }
    bias_filler {
      type: "constant"
    }
  }
}
layer {
  name: "bn34"
  type: "BatchNorm"
  bottom: "conv34"
  top: "bn34"
  batch_norm_param {
    use_global_stats: false
  }
}
layer {
  name: "relu34"
  type: "ReLU"
  bottom: "bn34"
  top: "bn34"
}
layer {
  name: "eltwise5"
  type: "Eltwise"
  bottom: "eltwise4"
  bottom: "bn34"
  top: "eltwise5"
  eltwise_param {
    operation: SUM
  }
}
layer {
  name: "relu5"
  type: "ReLU"
  bottom: "eltwise5"
  top: "eltwise5"
}
layer {
  name: "conv35"
  type: "Convolution"
  bottom: "eltwise5"
  top: "conv35"
  param {
    lr_mult: 1
    decay_mult: 1
  }
  param {
    lr_mult: 2
    decay_mult: 0
  }
  convolution_param {
    num_output: 128
    pad: 1
    kernel_size: 3
    stride: 1
    weight_filler {
      type: "xavier"
    }
    bias_filler {
      type: "constant"
    }
  }
}
layer {
  name: "bn35"
  type: "BatchNorm"
  bottom: "conv35"
  top: "bn35"
  batch_norm_param {
    use_global_stats: false
  }
}
layer {
  name: "relu35"
  type: "ReLU"
  bottom: "bn35"
  top: "bn35"
}
layer {
  name: "conv36"
  type: "Convolution"
  bottom: "bn35"
  top: "conv36"
  param {
    lr_mult: 1
    decay_mult: 1
  }
  param {
    lr_mult: 2
    decay_mult: 0
  }
  convolution_param {
    num_output: 128
    pad: 1
    kernel_size: 3
    stride: 1
    weight_filler {
      type: "xavier"
    }
    bias_filler {
      type: "constant"
    }
  }
}
layer {
  name: "bn36"
  type: "BatchNorm"
  bottom: "conv36"
  top: "bn36"
  batch_norm_param {
    use_global_stats: false
  }
}
layer {
  name: "relu36"
  type: "ReLU"
  bottom: "bn36"
  top: "bn36"
}
layer {
  name: "eltwise6"
  type: "Eltwise"
  bottom: "eltwise5"
  bottom: "bn36"
  top: "eltwise6"
  eltwise_param {
    operation: SUM
  }
}
layer {
  name: "relu6"
  type: "ReLU"
  bottom: "eltwise6"
  top: "eltwise6"
}
layer {
  name: "conv37"
  type: "Convolution"
  bottom: "eltwise6"
  top: "conv37"
  param {
    lr_mult: 1
    decay_mult: 1
  }
  param {
    lr_mult: 2
    decay_mult: 0
  }
  convolution_param {
    num_output: 128
    pad: 1
    kernel_size: 3
    stride: 1
    weight_filler {
      type: "xavier"
    }
    bias_filler {
      type: "constant"
    }
  }
}
layer {
  name: "bn37"
  type: "BatchNorm"
  bottom: "conv37"
  top: "bn37"
  batch_norm_param {
    use_global_stats: false
  }
}
layer {
  name: "relu37"
  type: "ReLU"
  bottom: "bn37"
  top: "bn37"
}
layer {
  name: "conv38"
  type: "Convolution"
  bottom: "bn37"
  top: "conv38"
  param {
    lr_mult: 1
    decay_mult: 1
  }
  param {
    lr_mult: 2
    decay_mult: 0
  }
  convolution_param {
    num_output: 128
    pad: 1
    kernel_size: 3
    stride: 1
    weight_filler {
      type: "xavier"
    }
    bias_filler {
      type: "constant"
    }
  }
}
layer {
  name: "bn38"
  type: "BatchNorm"
  bottom: "conv38"
  top: "bn38"
  batch_norm_param {
    use_global_stats: false
  }
}
layer {
  name: "relu38"
  type: "ReLU"
  bottom: "bn38"
  top: "bn38"
}
layer {
  name: "eltwise7"
  type: "Eltwise"
  bottom: "eltwise6"
  bottom: "bn38"
  top: "eltwise7"
  eltwise_param {
    operation: SUM
  }
}
layer {
  name: "relu7"
  type: "ReLU"
  bottom: "eltwise7"
  top: "eltwise7"
}
layer {
  name: "relu7_p"
  type: "Convolution"
  bottom: "eltwise7"
  top: "relu7_p"
  param {
    lr_mult: 1
    decay_mult: 1
  }
  param {
    lr_mult: 2
    decay_mult: 0
  }
  convolution_param {
    num_output: 256
    pad: 0
    kernel_size: 1
    stride: 2
    weight_filler {
      type: "xavier"
    }
    bias_filler {
      type: "constant"
    }
  }
}
layer {
  name: "relu7_bn"
  type: "BatchNorm"
  bottom: "relu7_p"
  top: "relu7_bn"
  batch_norm_param {
    use_global_stats: false
  }
}
layer {
  name: "conv41"
  type: "Convolution"
  bottom: "eltwise7"
  top: "conv41"
  param {
    lr_mult: 1
    decay_mult: 1
  }
  param {
    lr_mult: 2
    decay_mult: 0
  }
  convolution_param {
    num_output: 256
    pad: 1
    kernel_size: 3
    stride: 2
    weight_filler {
      type: "xavier"
    }
    bias_filler {
      type: "constant"
    }
  }
}
layer {
  name: "bn41"
  type: "BatchNorm"
  bottom: "conv41"
  top: "bn41"
  batch_norm_param {
    use_global_stats: false
  }
}
layer {
  name: "relu41"
  type: "ReLU"
  bottom: "bn41"
  top: "bn41"
}
layer {
  name: "conv42"
  type: "Convolution"
  bottom: "bn41"
  top: "conv42"
  param {
    lr_mult: 1
    decay_mult: 1
  }
  param {
    lr_mult: 2
    decay_mult: 0
  }
  convolution_param {
    num_output: 256
    pad: 1
    kernel_size: 3
    stride: 1
    weight_filler {
      type: "xavier"
    }
    bias_filler {
      type: "constant"
    }
  }
}
layer {
  name: "bn42"
  type: "BatchNorm"
  bottom: "conv42"
  top: "bn42"
  batch_norm_param {
    use_global_stats: false
  }
}
layer {
  name: "relu42"
  type: "ReLU"
  bottom: "bn42"
  top: "bn42"
}
layer {
  name: "eltwise8"
  type: "Eltwise"
  bottom: "relu7_bn"
  bottom: "bn42"
  top: "eltwise8"
  eltwise_param {
    operation: SUM
  }
}
layer {
  name: "relu8"
  type: "ReLU"
  bottom: "eltwise8"
  top: "eltwise8"
}
layer {
  name: "conv43"
  type: "Convolution"
  bottom: "eltwise8"
  top: "conv43"
  param {
    lr_mult: 1
    decay_mult: 1
  }
  param {
    lr_mult: 2
    decay_mult: 0
  }
  convolution_param {
    num_output: 256
    pad: 1
    kernel_size: 3
    stride: 1
    weight_filler {
      type: "xavier"
    }
    bias_filler {
      type: "constant"
    }
  }
}
layer {
  name: "bn43"
  type: "BatchNorm"
  bottom: "conv43"
  top: "bn43"
  batch_norm_param {
    use_global_stats: false
  }
}
layer {
  name: "relu43"
  type: "ReLU"
  bottom: "bn43"
  top: "bn43"
}
layer {
  name: "conv44"
  type: "Convolution"
  bottom: "bn43"
  top: "conv44"
  param {
    lr_mult: 1
    decay_mult: 1
  }
  param {
    lr_mult: 2
    decay_mult: 0
  }
  convolution_param {
    num_output: 256
    pad: 1
    kernel_size: 3
    stride: 1
    weight_filler {
      type: "xavier"
    }
    bias_filler {
      type: "constant"
    }
  }
}
layer {
  name: "bn44"
  type: "BatchNorm"
  bottom: "conv44"
  top: "bn44"
  batch_norm_param {
    use_global_stats: false
  }
}
layer {
  name: "relu44"
  type: "ReLU"
  bottom: "bn44"
  top: "bn44"
}
layer {
  name: "eltwise9"
  type: "Eltwise"
  bottom: "eltwise8"
  bottom: "bn44"
  top: "eltwise9"
  eltwise_param {
    operation: SUM
  }
}
layer {
  name: "relu9"
  type: "ReLU"
  bottom: "eltwise9"
  top: "eltwise9"
}
layer {
  name: "conv45"
  type: "Convolution"
  bottom: "eltwise9"
  top: "conv45"
  param {
    lr_mult: 1
    decay_mult: 1
  }
  param {
    lr_mult: 2
    decay_mult: 0
  }
  convolution_param {
    num_output: 256
    pad: 1
    kernel_size: 3
    stride: 1
    weight_filler {
      type: "xavier"
    }
    bias_filler {
      type: "constant"
    }
  }
}
layer {
  name: "bn45"
  type: "BatchNorm"
  bottom: "conv45"
  top: "bn45"
  batch_norm_param {
    use_global_stats: false
  }
}
layer {
  name: "relu45"
  type: "ReLU"
  bottom: "bn45"
  top: "bn45"
}
layer {
  name: "conv46"
  type: "Convolution"
  bottom: "bn45"
  top: "conv46"
  param {
    lr_mult: 1
    decay_mult: 1
  }
  param {
    lr_mult: 2
    decay_mult: 0
  }
  convolution_param {
    num_output: 256
    pad: 1
    kernel_size: 3
    stride: 1
    weight_filler {
      type: "xavier"
    }
    bias_filler {
      type: "constant"
    }
  }
}
layer {
  name: "bn46"
  type: "BatchNorm"
  bottom: "conv46"
  top: "bn46"
  batch_norm_param {
    use_global_stats: false
  }
}
layer {
  name: "relu46"
  type: "ReLU"
  bottom: "bn46"
  top: "bn46"
}
layer {
  name: "eltwise10"
  type: "Eltwise"
  bottom: "eltwise9"
  bottom: "bn46"
  top: "eltwise10"
  eltwise_param {
    operation: SUM
  }
}
layer {
  name: "relu10"
  type: "ReLU"
  bottom: "eltwise10"
  top: "eltwise10"
}
layer {
  name: "conv47"
  type: "Convolution"
  bottom: "eltwise10"
  top: "conv47"
  param {
    lr_mult: 1
    decay_mult: 1
  }
  param {
    lr_mult: 2
    decay_mult: 0
  }
  convolution_param {
    num_output: 256
    pad: 1
    kernel_size: 3
    stride: 1
    weight_filler {
      type: "xavier"
    }
    bias_filler {
      type: "constant"
    }
  }
}
layer {
  name: "bn47"
  type: "BatchNorm"
  bottom: "conv47"
  top: "bn47"
  batch_norm_param {
    use_global_stats: false
  }
}
layer {
  name: "relu47"
  type: "ReLU"
  bottom: "bn47"
  top: "bn47"
}
layer {
  name: "conv48"
  type: "Convolution"
  bottom: "bn47"
  top: "conv48"
  param {
    lr_mult: 1
    decay_mult: 1
  }
  param {
    lr_mult: 2
    decay_mult: 0
  }
  convolution_param {
    num_output: 256
    pad: 1
    kernel_size: 3
    stride: 1
    weight_filler {
      type: "xavier"
    }
    bias_filler {
      type: "constant"
    }
  }
}
layer {
  name: "bn48"
  type: "BatchNorm"
  bottom: "conv48"
  top: "bn48"
  batch_norm_param {
    use_global_stats: false
  }
}
layer {
  name: "relu48"
  type: "ReLU"
  bottom: "bn48"
  top: "bn48"
}
layer {
  name: "eltwise11"
  type: "Eltwise"
  bottom: "eltwise10"
  bottom: "bn48"
  top: "eltwise11"
  eltwise_param {
    operation: SUM
  }
}
layer {
  name: "relu11"
  type: "ReLU"
  bottom: "eltwise11"
  top: "eltwise11"
}
layer {
  name: "conv49"
  type: "Convolution"
  bottom: "eltwise11"
  top: "conv49"
  param {
    lr_mult: 1
    decay_mult: 1
  }
  param {
    lr_mult: 2
    decay_mult: 0
  }
  convolution_param {
    num_output: 256
    pad: 1
    kernel_size: 3
    stride: 1
    weight_filler {
      type: "xavier"
    }
    bias_filler {
      type: "constant"
    }
  }
}
layer {
  name: "bn49"
  type: "BatchNorm"
  bottom: "conv49"
  top: "bn49"
  batch_norm_param {
    use_global_stats: false
  }
}
layer {
  name: "relu49"
  type: "ReLU"
  bottom: "bn49"
  top: "bn49"
}
layer {
  name: "conv410"
  type: "Convolution"
  bottom: "bn49"
  top: "conv410"
  param {
    lr_mult: 1
    decay_mult: 1
  }
  param {
    lr_mult: 2
    decay_mult: 0
  }
  convolution_param {
    num_output: 256
    pad: 1
    kernel_size: 3
    stride: 1
    weight_filler {
      type: "xavier"
    }
    bias_filler {
      type: "constant"
    }
  }
}
layer {
  name: "bn410"
  type: "BatchNorm"
  bottom: "conv410"
  top: "bn410"
  batch_norm_param {
    use_global_stats: false
  }
}
layer {
  name: "relu410"
  type: "ReLU"
  bottom: "bn410"
  top: "bn410"
}
layer {
  name: "eltwise12"
  type: "Eltwise"
  bottom: "eltwise11"
  bottom: "bn410"
  top: "eltwise12"
  eltwise_param {
    operation: SUM
  }
}
layer {
  name: "relu12"
  type: "ReLU"
  bottom: "eltwise12"
  top: "eltwise12"
}
layer {
  name: "conv411"
  type: "Convolution"
  bottom: "eltwise12"
  top: "conv411"
  param {
    lr_mult: 1
    decay_mult: 1
  }
  param {
    lr_mult: 2
    decay_mult: 0
  }
  convolution_param {
    num_output: 256
    pad: 1
    kernel_size: 3
    stride: 1
    weight_filler {
      type: "xavier"
    }
    bias_filler {
      type: "constant"
    }
  }
}
layer {
  name: "bn411"
  type: "BatchNorm"
  bottom: "conv411"
  top: "bn411"
  batch_norm_param {
    use_global_stats: false
  }
}
layer {
  name: "relu411"
  type: "ReLU"
  bottom: "bn411"
  top: "bn411"
}
layer {
  name: "conv412"
  type: "Convolution"
  bottom: "bn411"
  top: "conv412"
  param {
    lr_mult: 1
    decay_mult: 1
  }
  param {
    lr_mult: 2
    decay_mult: 0
  }
  convolution_param {
    num_output: 256
    pad: 1
    kernel_size: 3
    stride: 1
    weight_filler {
      type: "xavier"
    }
    bias_filler {
      type: "constant"
    }
  }
}
layer {
  name: "bn412"
  type: "BatchNorm"
  bottom: "conv412"
  top: "bn412"
  batch_norm_param {
    use_global_stats: false
  }
}
layer {
  name: "relu412"
  type: "ReLU"
  bottom: "bn412"
  top: "bn412"
}
layer {
  name: "eltwise13"
  type: "Eltwise"
  bottom: "eltwise12"
  bottom: "bn412"
  top: "eltwise13"
  eltwise_param {
    operation: SUM
  }
}
layer {
  name: "relu13"
  type: "ReLU"
  bottom: "eltwise13"
  top: "eltwise13"
}
layer {
  name: "relu13_p"
  type: "Convolution"
  bottom: "eltwise12"
  top: "relu13_p"
  param {
    lr_mult: 1
    decay_mult: 1
  }
  param {
    lr_mult: 2
    decay_mult: 0
  }
  convolution_param {
    num_output: 512
    pad: 0
    kernel_size: 1
    stride: 2
    weight_filler {
      type: "xavier"
    }
    bias_filler {
      type: "constant"
    }
  }
}
layer {
  name: "relu13_bn"
  type: "BatchNorm"
  bottom: "relu13_p"
  top: "relu13_bn"
  batch_norm_param {
    use_global_stats: false
  }
}
layer {
  name: "conv51"
  type: "Convolution"
  bottom: "eltwise13"
  top: "conv51"
  param {
    lr_mult: 1
    decay_mult: 1
  }
  param {
    lr_mult: 2
    decay_mult: 0
  }
  convolution_param {
    num_output: 512
    pad: 1
    kernel_size: 3
    stride: 2
    weight_filler {
      type: "xavier"
    }
    bias_filler {
      type: "constant"
    }
  }
}
layer {
  name: "bn51"
  type: "BatchNorm"
  bottom: "conv51"
  top: "bn51"
  batch_norm_param {
    use_global_stats: false
  }
}
layer {
  name: "relu51"
  type: "ReLU"
  bottom: "bn51"
  top: "bn51"
}
layer {
  name: "conv52"
  type: "Convolution"
  bottom: "bn51"
  top: "conv52"
  param {
    lr_mult: 1
    decay_mult: 1
  }
  param {
    lr_mult: 2
    decay_mult: 0
  }
  convolution_param {
    num_output: 512
    pad: 1
    kernel_size: 3
    stride: 1
    weight_filler {
      type: "xavier"
    }
    bias_filler {
      type: "constant"
    }
  }
}
layer {
  name: "bn52"
  type: "BatchNorm"
  bottom: "conv52"
  top: "bn52"
  batch_norm_param {
    use_global_stats: false
  }
}
layer {
  name: "relu52"
  type: "ReLU"
  bottom: "bn52"
  top: "bn52"
}
layer {
  name: "eltwise14"
  type: "Eltwise"
  bottom: "relu13_bn"
  bottom: "bn52"
  top: "eltwise14"
  eltwise_param {
    operation: SUM
  }
}
layer {
  name: "relu14"
  type: "ReLU"
  bottom: "eltwise14"
  top: "eltwise14"
}
layer {
  name: "conv53"
  type: "Convolution"
  bottom: "eltwise14"
  top: "conv53"
  param {
    lr_mult: 1
    decay_mult: 1
  }
  param {
    lr_mult: 2
    decay_mult: 0
  }
  convolution_param {
    num_output: 512
    pad: 1
    kernel_size: 3
    stride: 1
    weight_filler {
      type: "xavier"
    }
    bias_filler {
      type: "constant"
    }
  }
}
layer {
  name: "bn53"
  type: "BatchNorm"
  bottom: "conv53"
  top: "bn53"
  batch_norm_param {
    use_global_stats: false
  }
}
layer {
  name: "relu53"
  type: "ReLU"
  bottom: "bn53"
  top: "bn53"
}
layer {
  name: "conv54"
  type: "Convolution"
  bottom: "bn53"
  top: "conv54"
  param {
    lr_mult: 1
    decay_mult: 1
  }
  param {
    lr_mult: 2
    decay_mult: 0
  }
  convolution_param {
    num_output: 512
    pad: 1
    kernel_size: 3
    stride: 1
    weight_filler {
      type: "xavier"
    }
    bias_filler {
      type: "constant"
    }
  }
}
layer {
  name: "bn54"
  type: "BatchNorm"
  bottom: "conv54"
  top: "bn54"
  batch_norm_param {
    use_global_stats: false
  }
}
layer {
  name: "relu54"
  type: "ReLU"
  bottom: "bn54"
  top: "bn54"
}
layer {
  name: "eltwise15"
  type: "Eltwise"
  bottom: "eltwise14"
  bottom: "bn54"
  top: "eltwise15"
  eltwise_param {
    operation: SUM
  }
}
layer {
  name: "relu15"
  type: "ReLU"
  bottom: "eltwise15"
  top: "eltwise15"
}
layer {
  name: "conv55"
  type: "Convolution"
  bottom: "eltwise15"
  top: "conv55"
  param {
    lr_mult: 1
    decay_mult: 1
  }
  param {
    lr_mult: 2
    decay_mult: 0
  }
  convolution_param {
    num_output: 512
    pad: 1
    kernel_size: 3
    stride: 1
    weight_filler {
      type: "xavier"
    }
    bias_filler {
      type: "constant"
    }
  }
}
layer {
  name: "bn55"
  type: "BatchNorm"
  bottom: "conv55"
  top: "bn55"
  batch_norm_param {
    use_global_stats: false
  }
}
layer {
  name: "relu55"
  type: "ReLU"
  bottom: "bn55"
  top: "bn55"
}
layer {
  name: "conv56"
  type: "Convolution"
  bottom: "bn55"
  top: "conv56"
  param {
    lr_mult: 1
    decay_mult: 1
  }
  param {
    lr_mult: 2
    decay_mult: 0
  }
  convolution_param {
    num_output: 512
    pad: 1
    kernel_size: 3
    stride: 1
    weight_filler {
      type: "xavier"
    }
    bias_filler {
      type: "constant"
    }
  }
}
layer {
  name: "bn56"
  type: "BatchNorm"
  bottom: "conv56"
  top: "bn56"
  batch_norm_param {
    use_global_stats: false
  }
}
layer {
  name: "relu56"
  type: "ReLU"
  bottom: "bn56"
  top: "bn56"
}
layer {
  name: "eltwise16"
  type: "Eltwise"
  bottom: "eltwise15"
  bottom: "bn56"
  top: "eltwise16"
  eltwise_param {
    operation: SUM
  }
}
layer {
  name: "relu16"
  type: "ReLU"
  bottom: "eltwise16"
  top: "eltwise16"
}
layer {
  name: "pool5"
  type: "Pooling"
  bottom: "eltwise16"
  top: "pool5"
  pooling_param {
    pool: AVE
    kernel_size: 7
    stride: 1
  }
}
layer {
  name: "ip1"
  type: "InnerProduct"
  bottom: "pool5"
  top: "ip1"
  param {
    lr_mult: 1
    decay_mult: 1
  }
  param {
    lr_mult: 2
    decay_mult: 0
  }
  inner_product_param {
    num_output: 10575
    weight_filler {
      type: "xavier"
    }
    bias_filler {
      type: "constant"
    }
  }
}
layer {
  name: "accuracy"
  type: "Accuracy"
  bottom: "ip1"
  bottom: "label"
  top: "accuracy"
}
I1219 16:29:32.014623 35822 layer_factory.hpp:76] Creating layer data
I1219 16:29:32.014782 35822 net.cpp:110] Creating Layer data
I1219 16:29:32.014802 35822 net.cpp:433] data -> data
I1219 16:29:32.014830 35822 net.cpp:433] data -> label
I1219 16:29:32.014850 35822 data_transformer.cpp:23] Loading mean file from: ./mean_224gray.binaryproto
I1219 16:29:32.018209 35826 db_lmdb.cpp:22] Opened lmdb ./test_224gray_lmdb
I1219 16:29:32.018607 35822 data_layer.cpp:44] output data size: 36,1,224,224
I1219 16:29:32.036747 35822 net.cpp:155] Setting up data
I1219 16:29:32.036782 35822 net.cpp:163] Top shape: 36 1 224 224 (1806336)
I1219 16:29:32.036795 35822 net.cpp:163] Top shape: 36 (36)
I1219 16:29:32.036808 35822 layer_factory.hpp:76] Creating layer conv01
I1219 16:29:32.036829 35822 net.cpp:110] Creating Layer conv01
I1219 16:29:32.036840 35822 net.cpp:477] conv01 <- data
I1219 16:29:32.036855 35822 net.cpp:433] conv01 -> conv01
I1219 16:29:32.037379 35822 net.cpp:155] Setting up conv01
I1219 16:29:32.037402 35822 net.cpp:163] Top shape: 36 64 112 112 (28901376)
I1219 16:29:32.037422 35822 layer_factory.hpp:76] Creating layer bn01
I1219 16:29:32.037439 35822 net.cpp:110] Creating Layer bn01
I1219 16:29:32.037451 35822 net.cpp:477] bn01 <- conv01
I1219 16:29:32.037463 35822 net.cpp:433] bn01 -> bn01
I1219 16:29:32.037574 35822 net.cpp:155] Setting up bn01
I1219 16:29:32.037592 35822 net.cpp:163] Top shape: 36 64 112 112 (28901376)
I1219 16:29:32.037613 35822 layer_factory.hpp:76] Creating layer relu01
I1219 16:29:32.037628 35822 net.cpp:110] Creating Layer relu01
I1219 16:29:32.037638 35822 net.cpp:477] relu01 <- bn01
I1219 16:29:32.037652 35822 net.cpp:419] relu01 -> bn01 (in-place)
I1219 16:29:32.039347 35822 net.cpp:155] Setting up relu01
I1219 16:29:32.039402 35822 net.cpp:163] Top shape: 36 64 112 112 (28901376)
I1219 16:29:32.039414 35822 layer_factory.hpp:76] Creating layer pool1
I1219 16:29:32.039430 35822 net.cpp:110] Creating Layer pool1
I1219 16:29:32.039443 35822 net.cpp:477] pool1 <- bn01
I1219 16:29:32.039456 35822 net.cpp:433] pool1 -> pool1
I1219 16:29:32.039535 35822 net.cpp:155] Setting up pool1
I1219 16:29:32.039551 35822 net.cpp:163] Top shape: 36 64 56 56 (7225344)
I1219 16:29:32.039562 35822 layer_factory.hpp:76] Creating layer pool1_pool1_0_split
I1219 16:29:32.039574 35822 net.cpp:110] Creating Layer pool1_pool1_0_split
I1219 16:29:32.039585 35822 net.cpp:477] pool1_pool1_0_split <- pool1
I1219 16:29:32.039598 35822 net.cpp:433] pool1_pool1_0_split -> pool1_pool1_0_split_0
I1219 16:29:32.039614 35822 net.cpp:433] pool1_pool1_0_split -> pool1_pool1_0_split_1
I1219 16:29:32.039629 35822 net.cpp:155] Setting up pool1_pool1_0_split
I1219 16:29:32.039641 35822 net.cpp:163] Top shape: 36 64 56 56 (7225344)
I1219 16:29:32.039654 35822 net.cpp:163] Top shape: 36 64 56 56 (7225344)
I1219 16:29:32.039664 35822 layer_factory.hpp:76] Creating layer conv21
I1219 16:29:32.039676 35822 net.cpp:110] Creating Layer conv21
I1219 16:29:32.039724 35822 net.cpp:477] conv21 <- pool1_pool1_0_split_0
I1219 16:29:32.039738 35822 net.cpp:433] conv21 -> conv21
I1219 16:29:32.040375 35822 net.cpp:155] Setting up conv21
I1219 16:29:32.040396 35822 net.cpp:163] Top shape: 36 64 56 56 (7225344)
I1219 16:29:32.040411 35822 layer_factory.hpp:76] Creating layer bn21
I1219 16:29:32.040426 35822 net.cpp:110] Creating Layer bn21
I1219 16:29:32.040436 35822 net.cpp:477] bn21 <- conv21
I1219 16:29:32.040449 35822 net.cpp:433] bn21 -> bn21
I1219 16:29:32.040545 35822 net.cpp:155] Setting up bn21
I1219 16:29:32.040563 35822 net.cpp:163] Top shape: 36 64 56 56 (7225344)
I1219 16:29:32.040582 35822 layer_factory.hpp:76] Creating layer relu21
I1219 16:29:32.040596 35822 net.cpp:110] Creating Layer relu21
I1219 16:29:32.040607 35822 net.cpp:477] relu21 <- bn21
I1219 16:29:32.040619 35822 net.cpp:419] relu21 -> bn21 (in-place)
I1219 16:29:32.040690 35822 net.cpp:155] Setting up relu21
I1219 16:29:32.040705 35822 net.cpp:163] Top shape: 36 64 56 56 (7225344)
I1219 16:29:32.040716 35822 layer_factory.hpp:76] Creating layer conv22
I1219 16:29:32.040730 35822 net.cpp:110] Creating Layer conv22
I1219 16:29:32.040741 35822 net.cpp:477] conv22 <- bn21
I1219 16:29:32.040755 35822 net.cpp:433] conv22 -> conv22
I1219 16:29:32.041390 35822 net.cpp:155] Setting up conv22
I1219 16:29:32.041411 35822 net.cpp:163] Top shape: 36 64 56 56 (7225344)
I1219 16:29:32.041425 35822 layer_factory.hpp:76] Creating layer bn22
I1219 16:29:32.041438 35822 net.cpp:110] Creating Layer bn22
I1219 16:29:32.041448 35822 net.cpp:477] bn22 <- conv22
I1219 16:29:32.041461 35822 net.cpp:433] bn22 -> bn22
I1219 16:29:32.041553 35822 net.cpp:155] Setting up bn22
I1219 16:29:32.041574 35822 net.cpp:163] Top shape: 36 64 56 56 (7225344)
I1219 16:29:32.041589 35822 layer_factory.hpp:76] Creating layer relu22
I1219 16:29:32.041604 35822 net.cpp:110] Creating Layer relu22
I1219 16:29:32.041613 35822 net.cpp:477] relu22 <- bn22
I1219 16:29:32.041625 35822 net.cpp:419] relu22 -> bn22 (in-place)
I1219 16:29:32.041803 35822 net.cpp:155] Setting up relu22
I1219 16:29:32.041822 35822 net.cpp:163] Top shape: 36 64 56 56 (7225344)
I1219 16:29:32.041833 35822 layer_factory.hpp:76] Creating layer eltwise1
I1219 16:29:32.041847 35822 net.cpp:110] Creating Layer eltwise1
I1219 16:29:32.041857 35822 net.cpp:477] eltwise1 <- pool1_pool1_0_split_1
I1219 16:29:32.041869 35822 net.cpp:477] eltwise1 <- bn22
I1219 16:29:32.041882 35822 net.cpp:433] eltwise1 -> eltwise1
I1219 16:29:32.041896 35822 net.cpp:155] Setting up eltwise1
I1219 16:29:32.041909 35822 net.cpp:163] Top shape: 36 64 56 56 (7225344)
I1219 16:29:32.041919 35822 layer_factory.hpp:76] Creating layer relu1
I1219 16:29:32.041931 35822 net.cpp:110] Creating Layer relu1
I1219 16:29:32.041941 35822 net.cpp:477] relu1 <- eltwise1
I1219 16:29:32.041954 35822 net.cpp:419] relu1 -> eltwise1 (in-place)
I1219 16:29:32.042021 35822 net.cpp:155] Setting up relu1
I1219 16:29:32.042035 35822 net.cpp:163] Top shape: 36 64 56 56 (7225344)
I1219 16:29:32.042047 35822 layer_factory.hpp:76] Creating layer eltwise1_relu1_0_split
I1219 16:29:32.042057 35822 net.cpp:110] Creating Layer eltwise1_relu1_0_split
I1219 16:29:32.042068 35822 net.cpp:477] eltwise1_relu1_0_split <- eltwise1
I1219 16:29:32.042079 35822 net.cpp:433] eltwise1_relu1_0_split -> eltwise1_relu1_0_split_0
I1219 16:29:32.042093 35822 net.cpp:433] eltwise1_relu1_0_split -> eltwise1_relu1_0_split_1
I1219 16:29:32.042106 35822 net.cpp:155] Setting up eltwise1_relu1_0_split
I1219 16:29:32.042119 35822 net.cpp:163] Top shape: 36 64 56 56 (7225344)
I1219 16:29:32.042129 35822 net.cpp:163] Top shape: 36 64 56 56 (7225344)
I1219 16:29:32.042140 35822 layer_factory.hpp:76] Creating layer conv23
I1219 16:29:32.042152 35822 net.cpp:110] Creating Layer conv23
I1219 16:29:32.042162 35822 net.cpp:477] conv23 <- eltwise1_relu1_0_split_0
I1219 16:29:32.042178 35822 net.cpp:433] conv23 -> conv23
I1219 16:29:32.042809 35822 net.cpp:155] Setting up conv23
I1219 16:29:32.042829 35822 net.cpp:163] Top shape: 36 64 56 56 (7225344)
I1219 16:29:32.042862 35822 layer_factory.hpp:76] Creating layer bn23
I1219 16:29:32.042879 35822 net.cpp:110] Creating Layer bn23
I1219 16:29:32.042889 35822 net.cpp:477] bn23 <- conv23
I1219 16:29:32.042902 35822 net.cpp:433] bn23 -> bn23
I1219 16:29:32.042997 35822 net.cpp:155] Setting up bn23
I1219 16:29:32.043015 35822 net.cpp:163] Top shape: 36 64 56 56 (7225344)
I1219 16:29:32.043030 35822 layer_factory.hpp:76] Creating layer relu23
I1219 16:29:32.043042 35822 net.cpp:110] Creating Layer relu23
I1219 16:29:32.043053 35822 net.cpp:477] relu23 <- bn23
I1219 16:29:32.043064 35822 net.cpp:419] relu23 -> bn23 (in-place)
I1219 16:29:32.043134 35822 net.cpp:155] Setting up relu23
I1219 16:29:32.043150 35822 net.cpp:163] Top shape: 36 64 56 56 (7225344)
I1219 16:29:32.043160 35822 layer_factory.hpp:76] Creating layer conv24
I1219 16:29:32.043174 35822 net.cpp:110] Creating Layer conv24
I1219 16:29:32.043184 35822 net.cpp:477] conv24 <- bn23
I1219 16:29:32.043198 35822 net.cpp:433] conv24 -> conv24
I1219 16:29:32.044369 35822 net.cpp:155] Setting up conv24
I1219 16:29:32.044392 35822 net.cpp:163] Top shape: 36 64 56 56 (7225344)
I1219 16:29:32.044407 35822 layer_factory.hpp:76] Creating layer bn24
I1219 16:29:32.044420 35822 net.cpp:110] Creating Layer bn24
I1219 16:29:32.044431 35822 net.cpp:477] bn24 <- conv24
I1219 16:29:32.044450 35822 net.cpp:433] bn24 -> bn24
I1219 16:29:32.044549 35822 net.cpp:155] Setting up bn24
I1219 16:29:32.044566 35822 net.cpp:163] Top shape: 36 64 56 56 (7225344)
I1219 16:29:32.044582 35822 layer_factory.hpp:76] Creating layer relu24
I1219 16:29:32.044596 35822 net.cpp:110] Creating Layer relu24
I1219 16:29:32.044606 35822 net.cpp:477] relu24 <- bn24
I1219 16:29:32.044621 35822 net.cpp:419] relu24 -> bn24 (in-place)
I1219 16:29:32.044702 35822 net.cpp:155] Setting up relu24
I1219 16:29:32.044718 35822 net.cpp:163] Top shape: 36 64 56 56 (7225344)
I1219 16:29:32.044728 35822 layer_factory.hpp:76] Creating layer bn24_relu24_0_split
I1219 16:29:32.044739 35822 net.cpp:110] Creating Layer bn24_relu24_0_split
I1219 16:29:32.044750 35822 net.cpp:477] bn24_relu24_0_split <- bn24
I1219 16:29:32.044764 35822 net.cpp:433] bn24_relu24_0_split -> bn24_relu24_0_split_0
I1219 16:29:32.044776 35822 net.cpp:433] bn24_relu24_0_split -> bn24_relu24_0_split_1
I1219 16:29:32.044791 35822 net.cpp:155] Setting up bn24_relu24_0_split
I1219 16:29:32.044803 35822 net.cpp:163] Top shape: 36 64 56 56 (7225344)
I1219 16:29:32.044814 35822 net.cpp:163] Top shape: 36 64 56 56 (7225344)
I1219 16:29:32.044824 35822 layer_factory.hpp:76] Creating layer eltwise2
I1219 16:29:32.044839 35822 net.cpp:110] Creating Layer eltwise2
I1219 16:29:32.044852 35822 net.cpp:477] eltwise2 <- eltwise1_relu1_0_split_1
I1219 16:29:32.044862 35822 net.cpp:477] eltwise2 <- bn24_relu24_0_split_0
I1219 16:29:32.044875 35822 net.cpp:433] eltwise2 -> eltwise2
I1219 16:29:32.044890 35822 net.cpp:155] Setting up eltwise2
I1219 16:29:32.044903 35822 net.cpp:163] Top shape: 36 64 56 56 (7225344)
I1219 16:29:32.044914 35822 layer_factory.hpp:76] Creating layer relu2
I1219 16:29:32.044925 35822 net.cpp:110] Creating Layer relu2
I1219 16:29:32.044935 35822 net.cpp:477] relu2 <- eltwise2
I1219 16:29:32.044947 35822 net.cpp:419] relu2 -> eltwise2 (in-place)
I1219 16:29:32.045133 35822 net.cpp:155] Setting up relu2
I1219 16:29:32.045155 35822 net.cpp:163] Top shape: 36 64 56 56 (7225344)
I1219 16:29:32.045166 35822 layer_factory.hpp:76] Creating layer conv25
I1219 16:29:32.045182 35822 net.cpp:110] Creating Layer conv25
I1219 16:29:32.045194 35822 net.cpp:477] conv25 <- bn24_relu24_0_split_1
I1219 16:29:32.045212 35822 net.cpp:433] conv25 -> conv25
I1219 16:29:32.045861 35822 net.cpp:155] Setting up conv25
I1219 16:29:32.045881 35822 net.cpp:163] Top shape: 36 64 56 56 (7225344)
I1219 16:29:32.045897 35822 layer_factory.hpp:76] Creating layer bn25
I1219 16:29:32.045909 35822 net.cpp:110] Creating Layer bn25
I1219 16:29:32.045920 35822 net.cpp:477] bn25 <- conv25
I1219 16:29:32.045935 35822 net.cpp:433] bn25 -> bn25
I1219 16:29:32.046059 35822 net.cpp:155] Setting up bn25
I1219 16:29:32.046077 35822 net.cpp:163] Top shape: 36 64 56 56 (7225344)
I1219 16:29:32.046093 35822 layer_factory.hpp:76] Creating layer relu25
I1219 16:29:32.046106 35822 net.cpp:110] Creating Layer relu25
I1219 16:29:32.046118 35822 net.cpp:477] relu25 <- bn25
I1219 16:29:32.046131 35822 net.cpp:419] relu25 -> bn25 (in-place)
I1219 16:29:32.046217 35822 net.cpp:155] Setting up relu25
I1219 16:29:32.046233 35822 net.cpp:163] Top shape: 36 64 56 56 (7225344)
I1219 16:29:32.046244 35822 layer_factory.hpp:76] Creating layer conv26
I1219 16:29:32.046258 35822 net.cpp:110] Creating Layer conv26
I1219 16:29:32.046268 35822 net.cpp:477] conv26 <- bn25
I1219 16:29:32.046283 35822 net.cpp:433] conv26 -> conv26
I1219 16:29:32.046931 35822 net.cpp:155] Setting up conv26
I1219 16:29:32.046950 35822 net.cpp:163] Top shape: 36 64 56 56 (7225344)
I1219 16:29:32.046965 35822 layer_factory.hpp:76] Creating layer bn26
I1219 16:29:32.046982 35822 net.cpp:110] Creating Layer bn26
I1219 16:29:32.046993 35822 net.cpp:477] bn26 <- conv26
I1219 16:29:32.047004 35822 net.cpp:433] bn26 -> bn26
I1219 16:29:32.047145 35822 net.cpp:155] Setting up bn26
I1219 16:29:32.047163 35822 net.cpp:163] Top shape: 36 64 56 56 (7225344)
I1219 16:29:32.047186 35822 layer_factory.hpp:76] Creating layer relu26
I1219 16:29:32.047200 35822 net.cpp:110] Creating Layer relu26
I1219 16:29:32.047210 35822 net.cpp:477] relu26 <- bn26
I1219 16:29:32.047224 35822 net.cpp:419] relu26 -> bn26 (in-place)
I1219 16:29:32.048023 35822 net.cpp:155] Setting up relu26
I1219 16:29:32.048051 35822 net.cpp:163] Top shape: 36 64 56 56 (7225344)
I1219 16:29:32.048063 35822 layer_factory.hpp:76] Creating layer eltwise3
I1219 16:29:32.048079 35822 net.cpp:110] Creating Layer eltwise3
I1219 16:29:32.048091 35822 net.cpp:477] eltwise3 <- eltwise2
I1219 16:29:32.048104 35822 net.cpp:477] eltwise3 <- bn26
I1219 16:29:32.048116 35822 net.cpp:433] eltwise3 -> eltwise3
I1219 16:29:32.048132 35822 net.cpp:155] Setting up eltwise3
I1219 16:29:32.048146 35822 net.cpp:163] Top shape: 36 64 56 56 (7225344)
I1219 16:29:32.048156 35822 layer_factory.hpp:76] Creating layer relu3
I1219 16:29:32.048169 35822 net.cpp:110] Creating Layer relu3
I1219 16:29:32.048179 35822 net.cpp:477] relu3 <- eltwise3
I1219 16:29:32.048192 35822 net.cpp:419] relu3 -> eltwise3 (in-place)
I1219 16:29:32.048274 35822 net.cpp:155] Setting up relu3
I1219 16:29:32.048290 35822 net.cpp:163] Top shape: 36 64 56 56 (7225344)
I1219 16:29:32.048300 35822 layer_factory.hpp:76] Creating layer eltwise3_relu3_0_split
I1219 16:29:32.048316 35822 net.cpp:110] Creating Layer eltwise3_relu3_0_split
I1219 16:29:32.048326 35822 net.cpp:477] eltwise3_relu3_0_split <- eltwise3
I1219 16:29:32.048339 35822 net.cpp:433] eltwise3_relu3_0_split -> eltwise3_relu3_0_split_0
I1219 16:29:32.048354 35822 net.cpp:433] eltwise3_relu3_0_split -> eltwise3_relu3_0_split_1
I1219 16:29:32.048369 35822 net.cpp:155] Setting up eltwise3_relu3_0_split
I1219 16:29:32.048382 35822 net.cpp:163] Top shape: 36 64 56 56 (7225344)
I1219 16:29:32.048393 35822 net.cpp:163] Top shape: 36 64 56 56 (7225344)
I1219 16:29:32.048403 35822 layer_factory.hpp:76] Creating layer relu3_p
I1219 16:29:32.048419 35822 net.cpp:110] Creating Layer relu3_p
I1219 16:29:32.048430 35822 net.cpp:477] relu3_p <- eltwise3_relu3_0_split_0
I1219 16:29:32.048446 35822 net.cpp:433] relu3_p -> relu3_p
I1219 16:29:32.048905 35822 net.cpp:155] Setting up relu3_p
I1219 16:29:32.048926 35822 net.cpp:163] Top shape: 36 128 28 28 (3612672)
I1219 16:29:32.048943 35822 layer_factory.hpp:76] Creating layer relu3_bn
I1219 16:29:32.048959 35822 net.cpp:110] Creating Layer relu3_bn
I1219 16:29:32.048970 35822 net.cpp:477] relu3_bn <- relu3_p
I1219 16:29:32.048985 35822 net.cpp:433] relu3_bn -> relu3_bn
I1219 16:29:32.049080 35822 net.cpp:155] Setting up relu3_bn
I1219 16:29:32.049098 35822 net.cpp:163] Top shape: 36 128 28 28 (3612672)
I1219 16:29:32.049115 35822 layer_factory.hpp:76] Creating layer conv31
I1219 16:29:32.049130 35822 net.cpp:110] Creating Layer conv31
I1219 16:29:32.049157 35822 net.cpp:477] conv31 <- eltwise3_relu3_0_split_1
I1219 16:29:32.049175 35822 net.cpp:433] conv31 -> conv31
I1219 16:29:32.050112 35822 net.cpp:155] Setting up conv31
I1219 16:29:32.050132 35822 net.cpp:163] Top shape: 36 128 28 28 (3612672)
I1219 16:29:32.050148 35822 layer_factory.hpp:76] Creating layer bn31
I1219 16:29:32.050164 35822 net.cpp:110] Creating Layer bn31
I1219 16:29:32.050175 35822 net.cpp:477] bn31 <- conv31
I1219 16:29:32.050189 35822 net.cpp:433] bn31 -> bn31
I1219 16:29:32.050279 35822 net.cpp:155] Setting up bn31
I1219 16:29:32.050295 35822 net.cpp:163] Top shape: 36 128 28 28 (3612672)
I1219 16:29:32.050312 35822 layer_factory.hpp:76] Creating layer relu31
I1219 16:29:32.050325 35822 net.cpp:110] Creating Layer relu31
I1219 16:29:32.050335 35822 net.cpp:477] relu31 <- bn31
I1219 16:29:32.050353 35822 net.cpp:419] relu31 -> bn31 (in-place)
I1219 16:29:32.050551 35822 net.cpp:155] Setting up relu31
I1219 16:29:32.050571 35822 net.cpp:163] Top shape: 36 128 28 28 (3612672)
I1219 16:29:32.050583 35822 layer_factory.hpp:76] Creating layer conv32
I1219 16:29:32.050601 35822 net.cpp:110] Creating Layer conv32
I1219 16:29:32.050611 35822 net.cpp:477] conv32 <- bn31
I1219 16:29:32.050624 35822 net.cpp:433] conv32 -> conv32
I1219 16:29:32.052579 35822 net.cpp:155] Setting up conv32
I1219 16:29:32.052603 35822 net.cpp:163] Top shape: 36 128 28 28 (3612672)
I1219 16:29:32.052618 35822 layer_factory.hpp:76] Creating layer bn32
I1219 16:29:32.052635 35822 net.cpp:110] Creating Layer bn32
I1219 16:29:32.052646 35822 net.cpp:477] bn32 <- conv32
I1219 16:29:32.052659 35822 net.cpp:433] bn32 -> bn32
I1219 16:29:32.052753 35822 net.cpp:155] Setting up bn32
I1219 16:29:32.052770 35822 net.cpp:163] Top shape: 36 128 28 28 (3612672)
I1219 16:29:32.052786 35822 layer_factory.hpp:76] Creating layer relu32
I1219 16:29:32.052803 35822 net.cpp:110] Creating Layer relu32
I1219 16:29:32.052814 35822 net.cpp:477] relu32 <- bn32
I1219 16:29:32.052826 35822 net.cpp:419] relu32 -> bn32 (in-place)
I1219 16:29:32.052908 35822 net.cpp:155] Setting up relu32
I1219 16:29:32.052924 35822 net.cpp:163] Top shape: 36 128 28 28 (3612672)
I1219 16:29:32.052937 35822 layer_factory.hpp:76] Creating layer eltwise4
I1219 16:29:32.052953 35822 net.cpp:110] Creating Layer eltwise4
I1219 16:29:32.052963 35822 net.cpp:477] eltwise4 <- relu3_bn
I1219 16:29:32.052975 35822 net.cpp:477] eltwise4 <- bn32
I1219 16:29:32.052992 35822 net.cpp:433] eltwise4 -> eltwise4
I1219 16:29:32.053009 35822 net.cpp:155] Setting up eltwise4
I1219 16:29:32.053021 35822 net.cpp:163] Top shape: 36 128 28 28 (3612672)
I1219 16:29:32.053031 35822 layer_factory.hpp:76] Creating layer relu4
I1219 16:29:32.053045 35822 net.cpp:110] Creating Layer relu4
I1219 16:29:32.053055 35822 net.cpp:477] relu4 <- eltwise4
I1219 16:29:32.053066 35822 net.cpp:419] relu4 -> eltwise4 (in-place)
I1219 16:29:32.053141 35822 net.cpp:155] Setting up relu4
I1219 16:29:32.053158 35822 net.cpp:163] Top shape: 36 128 28 28 (3612672)
I1219 16:29:32.053169 35822 layer_factory.hpp:76] Creating layer eltwise4_relu4_0_split
I1219 16:29:32.053180 35822 net.cpp:110] Creating Layer eltwise4_relu4_0_split
I1219 16:29:32.053191 35822 net.cpp:477] eltwise4_relu4_0_split <- eltwise4
I1219 16:29:32.053203 35822 net.cpp:433] eltwise4_relu4_0_split -> eltwise4_relu4_0_split_0
I1219 16:29:32.053217 35822 net.cpp:433] eltwise4_relu4_0_split -> eltwise4_relu4_0_split_1
I1219 16:29:32.053232 35822 net.cpp:155] Setting up eltwise4_relu4_0_split
I1219 16:29:32.053244 35822 net.cpp:163] Top shape: 36 128 28 28 (3612672)
I1219 16:29:32.053256 35822 net.cpp:163] Top shape: 36 128 28 28 (3612672)
I1219 16:29:32.053267 35822 layer_factory.hpp:76] Creating layer conv33
I1219 16:29:32.053282 35822 net.cpp:110] Creating Layer conv33
I1219 16:29:32.053299 35822 net.cpp:477] conv33 <- eltwise4_relu4_0_split_0
I1219 16:29:32.053316 35822 net.cpp:433] conv33 -> conv33
I1219 16:29:32.055347 35822 net.cpp:155] Setting up conv33
I1219 16:29:32.055369 35822 net.cpp:163] Top shape: 36 128 28 28 (3612672)
I1219 16:29:32.055407 35822 layer_factory.hpp:76] Creating layer bn33
I1219 16:29:32.055423 35822 net.cpp:110] Creating Layer bn33
I1219 16:29:32.055434 35822 net.cpp:477] bn33 <- conv33
I1219 16:29:32.055447 35822 net.cpp:433] bn33 -> bn33
I1219 16:29:32.055542 35822 net.cpp:155] Setting up bn33
I1219 16:29:32.055562 35822 net.cpp:163] Top shape: 36 128 28 28 (3612672)
I1219 16:29:32.055579 35822 layer_factory.hpp:76] Creating layer relu33
I1219 16:29:32.055593 35822 net.cpp:110] Creating Layer relu33
I1219 16:29:32.055603 35822 net.cpp:477] relu33 <- bn33
I1219 16:29:32.055615 35822 net.cpp:419] relu33 -> bn33 (in-place)
I1219 16:29:32.055698 35822 net.cpp:155] Setting up relu33
I1219 16:29:32.055714 35822 net.cpp:163] Top shape: 36 128 28 28 (3612672)
I1219 16:29:32.055726 35822 layer_factory.hpp:76] Creating layer conv34
I1219 16:29:32.055739 35822 net.cpp:110] Creating Layer conv34
I1219 16:29:32.055749 35822 net.cpp:477] conv34 <- bn33
I1219 16:29:32.055764 35822 net.cpp:433] conv34 -> conv34
I1219 16:29:32.057716 35822 net.cpp:155] Setting up conv34
I1219 16:29:32.057737 35822 net.cpp:163] Top shape: 36 128 28 28 (3612672)
I1219 16:29:32.057752 35822 layer_factory.hpp:76] Creating layer bn34
I1219 16:29:32.057786 35822 net.cpp:110] Creating Layer bn34
I1219 16:29:32.057798 35822 net.cpp:477] bn34 <- conv34
I1219 16:29:32.057811 35822 net.cpp:433] bn34 -> bn34
I1219 16:29:32.057903 35822 net.cpp:155] Setting up bn34
I1219 16:29:32.057921 35822 net.cpp:163] Top shape: 36 128 28 28 (3612672)
I1219 16:29:32.057941 35822 layer_factory.hpp:76] Creating layer relu34
I1219 16:29:32.057955 35822 net.cpp:110] Creating Layer relu34
I1219 16:29:32.057966 35822 net.cpp:477] relu34 <- bn34
I1219 16:29:32.057978 35822 net.cpp:419] relu34 -> bn34 (in-place)
I1219 16:29:32.058167 35822 net.cpp:155] Setting up relu34
I1219 16:29:32.058187 35822 net.cpp:163] Top shape: 36 128 28 28 (3612672)
I1219 16:29:32.058198 35822 layer_factory.hpp:76] Creating layer eltwise5
I1219 16:29:32.058214 35822 net.cpp:110] Creating Layer eltwise5
I1219 16:29:32.058225 35822 net.cpp:477] eltwise5 <- eltwise4_relu4_0_split_1
I1219 16:29:32.058238 35822 net.cpp:477] eltwise5 <- bn34
I1219 16:29:32.058249 35822 net.cpp:433] eltwise5 -> eltwise5
I1219 16:29:32.058265 35822 net.cpp:155] Setting up eltwise5
I1219 16:29:32.058279 35822 net.cpp:163] Top shape: 36 128 28 28 (3612672)
I1219 16:29:32.058289 35822 layer_factory.hpp:76] Creating layer relu5
I1219 16:29:32.058300 35822 net.cpp:110] Creating Layer relu5
I1219 16:29:32.058310 35822 net.cpp:477] relu5 <- eltwise5
I1219 16:29:32.058322 35822 net.cpp:419] relu5 -> eltwise5 (in-place)
I1219 16:29:32.058401 35822 net.cpp:155] Setting up relu5
I1219 16:29:32.058418 35822 net.cpp:163] Top shape: 36 128 28 28 (3612672)
I1219 16:29:32.058428 35822 layer_factory.hpp:76] Creating layer eltwise5_relu5_0_split
I1219 16:29:32.058440 35822 net.cpp:110] Creating Layer eltwise5_relu5_0_split
I1219 16:29:32.058450 35822 net.cpp:477] eltwise5_relu5_0_split <- eltwise5
I1219 16:29:32.058465 35822 net.cpp:433] eltwise5_relu5_0_split -> eltwise5_relu5_0_split_0
I1219 16:29:32.058478 35822 net.cpp:433] eltwise5_relu5_0_split -> eltwise5_relu5_0_split_1
I1219 16:29:32.058493 35822 net.cpp:155] Setting up eltwise5_relu5_0_split
I1219 16:29:32.058506 35822 net.cpp:163] Top shape: 36 128 28 28 (3612672)
I1219 16:29:32.058516 35822 net.cpp:163] Top shape: 36 128 28 28 (3612672)
I1219 16:29:32.058526 35822 layer_factory.hpp:76] Creating layer conv35
I1219 16:29:32.058544 35822 net.cpp:110] Creating Layer conv35
I1219 16:29:32.058555 35822 net.cpp:477] conv35 <- eltwise5_relu5_0_split_0
I1219 16:29:32.058569 35822 net.cpp:433] conv35 -> conv35
I1219 16:29:32.060514 35822 net.cpp:155] Setting up conv35
I1219 16:29:32.060535 35822 net.cpp:163] Top shape: 36 128 28 28 (3612672)
I1219 16:29:32.060551 35822 layer_factory.hpp:76] Creating layer bn35
I1219 16:29:32.060569 35822 net.cpp:110] Creating Layer bn35
I1219 16:29:32.060580 35822 net.cpp:477] bn35 <- conv35
I1219 16:29:32.060595 35822 net.cpp:433] bn35 -> bn35
I1219 16:29:32.060689 35822 net.cpp:155] Setting up bn35
I1219 16:29:32.060722 35822 net.cpp:163] Top shape: 36 128 28 28 (3612672)
I1219 16:29:32.060756 35822 layer_factory.hpp:76] Creating layer relu35
I1219 16:29:32.060771 35822 net.cpp:110] Creating Layer relu35
I1219 16:29:32.060782 35822 net.cpp:477] relu35 <- bn35
I1219 16:29:32.060798 35822 net.cpp:419] relu35 -> bn35 (in-place)
I1219 16:29:32.060878 35822 net.cpp:155] Setting up relu35
I1219 16:29:32.060894 35822 net.cpp:163] Top shape: 36 128 28 28 (3612672)
I1219 16:29:32.060905 35822 layer_factory.hpp:76] Creating layer conv36
I1219 16:29:32.060920 35822 net.cpp:110] Creating Layer conv36
I1219 16:29:32.060930 35822 net.cpp:477] conv36 <- bn35
I1219 16:29:32.060951 35822 net.cpp:433] conv36 -> conv36
I1219 16:29:32.062938 35822 net.cpp:155] Setting up conv36
I1219 16:29:32.062960 35822 net.cpp:163] Top shape: 36 128 28 28 (3612672)
I1219 16:29:32.062974 35822 layer_factory.hpp:76] Creating layer bn36
I1219 16:29:32.062990 35822 net.cpp:110] Creating Layer bn36
I1219 16:29:32.063002 35822 net.cpp:477] bn36 <- conv36
I1219 16:29:32.063015 35822 net.cpp:433] bn36 -> bn36
I1219 16:29:32.063110 35822 net.cpp:155] Setting up bn36
I1219 16:29:32.063129 35822 net.cpp:163] Top shape: 36 128 28 28 (3612672)
I1219 16:29:32.063148 35822 layer_factory.hpp:76] Creating layer relu36
I1219 16:29:32.063163 35822 net.cpp:110] Creating Layer relu36
I1219 16:29:32.063174 35822 net.cpp:477] relu36 <- bn36
I1219 16:29:32.063185 35822 net.cpp:419] relu36 -> bn36 (in-place)
I1219 16:29:32.063381 35822 net.cpp:155] Setting up relu36
I1219 16:29:32.063401 35822 net.cpp:163] Top shape: 36 128 28 28 (3612672)
I1219 16:29:32.063412 35822 layer_factory.hpp:76] Creating layer eltwise6
I1219 16:29:32.063426 35822 net.cpp:110] Creating Layer eltwise6
I1219 16:29:32.063436 35822 net.cpp:477] eltwise6 <- eltwise5_relu5_0_split_1
I1219 16:29:32.063448 35822 net.cpp:477] eltwise6 <- bn36
I1219 16:29:32.063462 35822 net.cpp:433] eltwise6 -> eltwise6
I1219 16:29:32.063478 35822 net.cpp:155] Setting up eltwise6
I1219 16:29:32.063493 35822 net.cpp:163] Top shape: 36 128 28 28 (3612672)
I1219 16:29:32.063503 35822 layer_factory.hpp:76] Creating layer relu6
I1219 16:29:32.063514 35822 net.cpp:110] Creating Layer relu6
I1219 16:29:32.063526 35822 net.cpp:477] relu6 <- eltwise6
I1219 16:29:32.063539 35822 net.cpp:419] relu6 -> eltwise6 (in-place)
I1219 16:29:32.063614 35822 net.cpp:155] Setting up relu6
I1219 16:29:32.063632 35822 net.cpp:163] Top shape: 36 128 28 28 (3612672)
I1219 16:29:32.063643 35822 layer_factory.hpp:76] Creating layer eltwise6_relu6_0_split
I1219 16:29:32.063655 35822 net.cpp:110] Creating Layer eltwise6_relu6_0_split
I1219 16:29:32.063665 35822 net.cpp:477] eltwise6_relu6_0_split <- eltwise6
I1219 16:29:32.063679 35822 net.cpp:433] eltwise6_relu6_0_split -> eltwise6_relu6_0_split_0
I1219 16:29:32.063694 35822 net.cpp:433] eltwise6_relu6_0_split -> eltwise6_relu6_0_split_1
I1219 16:29:32.063709 35822 net.cpp:155] Setting up eltwise6_relu6_0_split
I1219 16:29:32.063721 35822 net.cpp:163] Top shape: 36 128 28 28 (3612672)
I1219 16:29:32.063732 35822 net.cpp:163] Top shape: 36 128 28 28 (3612672)
I1219 16:29:32.063745 35822 layer_factory.hpp:76] Creating layer conv37
I1219 16:29:32.063760 35822 net.cpp:110] Creating Layer conv37
I1219 16:29:32.063771 35822 net.cpp:477] conv37 <- eltwise6_relu6_0_split_0
I1219 16:29:32.074725 35822 net.cpp:433] conv37 -> conv37
I1219 16:29:32.076702 35822 net.cpp:155] Setting up conv37
I1219 16:29:32.076726 35822 net.cpp:163] Top shape: 36 128 28 28 (3612672)
I1219 16:29:32.076742 35822 layer_factory.hpp:76] Creating layer bn37
I1219 16:29:32.076758 35822 net.cpp:110] Creating Layer bn37
I1219 16:29:32.076771 35822 net.cpp:477] bn37 <- conv37
I1219 16:29:32.076783 35822 net.cpp:433] bn37 -> bn37
I1219 16:29:32.076877 35822 net.cpp:155] Setting up bn37
I1219 16:29:32.076900 35822 net.cpp:163] Top shape: 36 128 28 28 (3612672)
I1219 16:29:32.076916 35822 layer_factory.hpp:76] Creating layer relu37
I1219 16:29:32.076941 35822 net.cpp:110] Creating Layer relu37
I1219 16:29:32.076972 35822 net.cpp:477] relu37 <- bn37
I1219 16:29:32.076987 35822 net.cpp:419] relu37 -> bn37 (in-place)
I1219 16:29:32.077069 35822 net.cpp:155] Setting up relu37
I1219 16:29:32.077086 35822 net.cpp:163] Top shape: 36 128 28 28 (3612672)
I1219 16:29:32.077098 35822 layer_factory.hpp:76] Creating layer conv38
I1219 16:29:32.077116 35822 net.cpp:110] Creating Layer conv38
I1219 16:29:32.077126 35822 net.cpp:477] conv38 <- bn37
I1219 16:29:32.077139 35822 net.cpp:433] conv38 -> conv38
I1219 16:29:32.079088 35822 net.cpp:155] Setting up conv38
I1219 16:29:32.079110 35822 net.cpp:163] Top shape: 36 128 28 28 (3612672)
I1219 16:29:32.079125 35822 layer_factory.hpp:76] Creating layer bn38
I1219 16:29:32.079143 35822 net.cpp:110] Creating Layer bn38
I1219 16:29:32.079154 35822 net.cpp:477] bn38 <- conv38
I1219 16:29:32.079166 35822 net.cpp:433] bn38 -> bn38
I1219 16:29:32.079262 35822 net.cpp:155] Setting up bn38
I1219 16:29:32.079279 35822 net.cpp:163] Top shape: 36 128 28 28 (3612672)
I1219 16:29:32.079295 35822 layer_factory.hpp:76] Creating layer relu38
I1219 16:29:32.079313 35822 net.cpp:110] Creating Layer relu38
I1219 16:29:32.079324 35822 net.cpp:477] relu38 <- bn38
I1219 16:29:32.079335 35822 net.cpp:419] relu38 -> bn38 (in-place)
I1219 16:29:32.079416 35822 net.cpp:155] Setting up relu38
I1219 16:29:32.079432 35822 net.cpp:163] Top shape: 36 128 28 28 (3612672)
I1219 16:29:32.079443 35822 layer_factory.hpp:76] Creating layer eltwise7
I1219 16:29:32.079457 35822 net.cpp:110] Creating Layer eltwise7
I1219 16:29:32.079466 35822 net.cpp:477] eltwise7 <- eltwise6_relu6_0_split_1
I1219 16:29:32.079478 35822 net.cpp:477] eltwise7 <- bn38
I1219 16:29:32.079493 35822 net.cpp:433] eltwise7 -> eltwise7
I1219 16:29:32.079509 35822 net.cpp:155] Setting up eltwise7
I1219 16:29:32.079521 35822 net.cpp:163] Top shape: 36 128 28 28 (3612672)
I1219 16:29:32.079531 35822 layer_factory.hpp:76] Creating layer relu7
I1219 16:29:32.079543 35822 net.cpp:110] Creating Layer relu7
I1219 16:29:32.079553 35822 net.cpp:477] relu7 <- eltwise7
I1219 16:29:32.079566 35822 net.cpp:419] relu7 -> eltwise7 (in-place)
I1219 16:29:32.079752 35822 net.cpp:155] Setting up relu7
I1219 16:29:32.079771 35822 net.cpp:163] Top shape: 36 128 28 28 (3612672)
I1219 16:29:32.079782 35822 layer_factory.hpp:76] Creating layer eltwise7_relu7_0_split
I1219 16:29:32.079795 35822 net.cpp:110] Creating Layer eltwise7_relu7_0_split
I1219 16:29:32.079805 35822 net.cpp:477] eltwise7_relu7_0_split <- eltwise7
I1219 16:29:32.079818 35822 net.cpp:433] eltwise7_relu7_0_split -> eltwise7_relu7_0_split_0
I1219 16:29:32.079834 35822 net.cpp:433] eltwise7_relu7_0_split -> eltwise7_relu7_0_split_1
I1219 16:29:32.079849 35822 net.cpp:155] Setting up eltwise7_relu7_0_split
I1219 16:29:32.079862 35822 net.cpp:163] Top shape: 36 128 28 28 (3612672)
I1219 16:29:32.079874 35822 net.cpp:163] Top shape: 36 128 28 28 (3612672)
I1219 16:29:32.079884 35822 layer_factory.hpp:76] Creating layer relu7_p
I1219 16:29:32.079897 35822 net.cpp:110] Creating Layer relu7_p
I1219 16:29:32.079907 35822 net.cpp:477] relu7_p <- eltwise7_relu7_0_split_0
I1219 16:29:32.079923 35822 net.cpp:433] relu7_p -> relu7_p
I1219 16:29:32.080550 35822 net.cpp:155] Setting up relu7_p
I1219 16:29:32.080570 35822 net.cpp:163] Top shape: 36 256 14 14 (1806336)
I1219 16:29:32.080585 35822 layer_factory.hpp:76] Creating layer relu7_bn
I1219 16:29:32.080601 35822 net.cpp:110] Creating Layer relu7_bn
I1219 16:29:32.080612 35822 net.cpp:477] relu7_bn <- relu7_p
I1219 16:29:32.080626 35822 net.cpp:433] relu7_bn -> relu7_bn
I1219 16:29:32.080725 35822 net.cpp:155] Setting up relu7_bn
I1219 16:29:32.080742 35822 net.cpp:163] Top shape: 36 256 14 14 (1806336)
I1219 16:29:32.080760 35822 layer_factory.hpp:76] Creating layer conv41
I1219 16:29:32.080775 35822 net.cpp:110] Creating Layer conv41
I1219 16:29:32.080786 35822 net.cpp:477] conv41 <- eltwise7_relu7_0_split_1
I1219 16:29:32.080801 35822 net.cpp:433] conv41 -> conv41
I1219 16:29:32.083801 35822 net.cpp:155] Setting up conv41
I1219 16:29:32.083825 35822 net.cpp:163] Top shape: 36 256 14 14 (1806336)
I1219 16:29:32.083856 35822 layer_factory.hpp:76] Creating layer bn41
I1219 16:29:32.083871 35822 net.cpp:110] Creating Layer bn41
I1219 16:29:32.083883 35822 net.cpp:477] bn41 <- conv41
I1219 16:29:32.083899 35822 net.cpp:433] bn41 -> bn41
I1219 16:29:32.083998 35822 net.cpp:155] Setting up bn41
I1219 16:29:32.084017 35822 net.cpp:163] Top shape: 36 256 14 14 (1806336)
I1219 16:29:32.084033 35822 layer_factory.hpp:76] Creating layer relu41
I1219 16:29:32.084048 35822 net.cpp:110] Creating Layer relu41
I1219 16:29:32.084059 35822 net.cpp:477] relu41 <- bn41
I1219 16:29:32.084071 35822 net.cpp:419] relu41 -> bn41 (in-place)
I1219 16:29:32.084153 35822 net.cpp:155] Setting up relu41
I1219 16:29:32.084169 35822 net.cpp:163] Top shape: 36 256 14 14 (1806336)
I1219 16:29:32.084180 35822 layer_factory.hpp:76] Creating layer conv42
I1219 16:29:32.084194 35822 net.cpp:110] Creating Layer conv42
I1219 16:29:32.084205 35822 net.cpp:477] conv42 <- bn41
I1219 16:29:32.084218 35822 net.cpp:433] conv42 -> conv42
I1219 16:29:32.089946 35822 net.cpp:155] Setting up conv42
I1219 16:29:32.089967 35822 net.cpp:163] Top shape: 36 256 14 14 (1806336)
I1219 16:29:32.089984 35822 layer_factory.hpp:76] Creating layer bn42
I1219 16:29:32.089998 35822 net.cpp:110] Creating Layer bn42
I1219 16:29:32.090009 35822 net.cpp:477] bn42 <- conv42
I1219 16:29:32.090025 35822 net.cpp:433] bn42 -> bn42
I1219 16:29:32.090127 35822 net.cpp:155] Setting up bn42
I1219 16:29:32.090144 35822 net.cpp:163] Top shape: 36 256 14 14 (1806336)
I1219 16:29:32.090160 35822 layer_factory.hpp:76] Creating layer relu42
I1219 16:29:32.090176 35822 net.cpp:110] Creating Layer relu42
I1219 16:29:32.090188 35822 net.cpp:477] relu42 <- bn42
I1219 16:29:32.090199 35822 net.cpp:419] relu42 -> bn42 (in-place)
I1219 16:29:32.090279 35822 net.cpp:155] Setting up relu42
I1219 16:29:32.090296 35822 net.cpp:163] Top shape: 36 256 14 14 (1806336)
I1219 16:29:32.090306 35822 layer_factory.hpp:76] Creating layer eltwise8
I1219 16:29:32.090322 35822 net.cpp:110] Creating Layer eltwise8
I1219 16:29:32.090332 35822 net.cpp:477] eltwise8 <- relu7_bn
I1219 16:29:32.090343 35822 net.cpp:477] eltwise8 <- bn42
I1219 16:29:32.090356 35822 net.cpp:433] eltwise8 -> eltwise8
I1219 16:29:32.090378 35822 net.cpp:155] Setting up eltwise8
I1219 16:29:32.090391 35822 net.cpp:163] Top shape: 36 256 14 14 (1806336)
I1219 16:29:32.090402 35822 layer_factory.hpp:76] Creating layer relu8
I1219 16:29:32.090416 35822 net.cpp:110] Creating Layer relu8
I1219 16:29:32.090427 35822 net.cpp:477] relu8 <- eltwise8
I1219 16:29:32.090440 35822 net.cpp:419] relu8 -> eltwise8 (in-place)
I1219 16:29:32.090513 35822 net.cpp:155] Setting up relu8
I1219 16:29:32.090529 35822 net.cpp:163] Top shape: 36 256 14 14 (1806336)
I1219 16:29:32.090539 35822 layer_factory.hpp:76] Creating layer eltwise8_relu8_0_split
I1219 16:29:32.090553 35822 net.cpp:110] Creating Layer eltwise8_relu8_0_split
I1219 16:29:32.090562 35822 net.cpp:477] eltwise8_relu8_0_split <- eltwise8
I1219 16:29:32.090576 35822 net.cpp:433] eltwise8_relu8_0_split -> eltwise8_relu8_0_split_0
I1219 16:29:32.090591 35822 net.cpp:433] eltwise8_relu8_0_split -> eltwise8_relu8_0_split_1
I1219 16:29:32.090605 35822 net.cpp:155] Setting up eltwise8_relu8_0_split
I1219 16:29:32.090618 35822 net.cpp:163] Top shape: 36 256 14 14 (1806336)
I1219 16:29:32.090629 35822 net.cpp:163] Top shape: 36 256 14 14 (1806336)
I1219 16:29:32.090639 35822 layer_factory.hpp:76] Creating layer conv43
I1219 16:29:32.090656 35822 net.cpp:110] Creating Layer conv43
I1219 16:29:32.090667 35822 net.cpp:477] conv43 <- eltwise8_relu8_0_split_0
I1219 16:29:32.090679 35822 net.cpp:433] conv43 -> conv43
I1219 16:29:32.096390 35822 net.cpp:155] Setting up conv43
I1219 16:29:32.096410 35822 net.cpp:163] Top shape: 36 256 14 14 (1806336)
I1219 16:29:32.096426 35822 layer_factory.hpp:76] Creating layer bn43
I1219 16:29:32.096441 35822 net.cpp:110] Creating Layer bn43
I1219 16:29:32.096452 35822 net.cpp:477] bn43 <- conv43
I1219 16:29:32.096465 35822 net.cpp:433] bn43 -> bn43
I1219 16:29:32.096580 35822 net.cpp:155] Setting up bn43
I1219 16:29:32.096597 35822 net.cpp:163] Top shape: 36 256 14 14 (1806336)
I1219 16:29:32.096616 35822 layer_factory.hpp:76] Creating layer relu43
I1219 16:29:32.096631 35822 net.cpp:110] Creating Layer relu43
I1219 16:29:32.096642 35822 net.cpp:477] relu43 <- bn43
I1219 16:29:32.096691 35822 net.cpp:419] relu43 -> bn43 (in-place)
I1219 16:29:32.096894 35822 net.cpp:155] Setting up relu43
I1219 16:29:32.096914 35822 net.cpp:163] Top shape: 36 256 14 14 (1806336)
I1219 16:29:32.096925 35822 layer_factory.hpp:76] Creating layer conv44
I1219 16:29:32.096940 35822 net.cpp:110] Creating Layer conv44
I1219 16:29:32.096951 35822 net.cpp:477] conv44 <- bn43
I1219 16:29:32.096963 35822 net.cpp:433] conv44 -> conv44
I1219 16:29:32.102779 35822 net.cpp:155] Setting up conv44
I1219 16:29:32.102802 35822 net.cpp:163] Top shape: 36 256 14 14 (1806336)
I1219 16:29:32.102815 35822 layer_factory.hpp:76] Creating layer bn44
I1219 16:29:32.102833 35822 net.cpp:110] Creating Layer bn44
I1219 16:29:32.102843 35822 net.cpp:477] bn44 <- conv44
I1219 16:29:32.102856 35822 net.cpp:433] bn44 -> bn44
I1219 16:29:32.102955 35822 net.cpp:155] Setting up bn44
I1219 16:29:32.102972 35822 net.cpp:163] Top shape: 36 256 14 14 (1806336)
I1219 16:29:32.102988 35822 layer_factory.hpp:76] Creating layer relu44
I1219 16:29:32.103004 35822 net.cpp:110] Creating Layer relu44
I1219 16:29:32.103015 35822 net.cpp:477] relu44 <- bn44
I1219 16:29:32.103027 35822 net.cpp:419] relu44 -> bn44 (in-place)
I1219 16:29:32.103106 35822 net.cpp:155] Setting up relu44
I1219 16:29:32.103121 35822 net.cpp:163] Top shape: 36 256 14 14 (1806336)
I1219 16:29:32.103132 35822 layer_factory.hpp:76] Creating layer eltwise9
I1219 16:29:32.103147 35822 net.cpp:110] Creating Layer eltwise9
I1219 16:29:32.103158 35822 net.cpp:477] eltwise9 <- eltwise8_relu8_0_split_1
I1219 16:29:32.103170 35822 net.cpp:477] eltwise9 <- bn44
I1219 16:29:32.103183 35822 net.cpp:433] eltwise9 -> eltwise9
I1219 16:29:32.103198 35822 net.cpp:155] Setting up eltwise9
I1219 16:29:32.103209 35822 net.cpp:163] Top shape: 36 256 14 14 (1806336)
I1219 16:29:32.103219 35822 layer_factory.hpp:76] Creating layer relu9
I1219 16:29:32.103231 35822 net.cpp:110] Creating Layer relu9
I1219 16:29:32.103241 35822 net.cpp:477] relu9 <- eltwise9
I1219 16:29:32.103253 35822 net.cpp:419] relu9 -> eltwise9 (in-place)
I1219 16:29:32.103328 35822 net.cpp:155] Setting up relu9
I1219 16:29:32.103343 35822 net.cpp:163] Top shape: 36 256 14 14 (1806336)
I1219 16:29:32.103353 35822 layer_factory.hpp:76] Creating layer eltwise9_relu9_0_split
I1219 16:29:32.103365 35822 net.cpp:110] Creating Layer eltwise9_relu9_0_split
I1219 16:29:32.103375 35822 net.cpp:477] eltwise9_relu9_0_split <- eltwise9
I1219 16:29:32.103387 35822 net.cpp:433] eltwise9_relu9_0_split -> eltwise9_relu9_0_split_0
I1219 16:29:32.103400 35822 net.cpp:433] eltwise9_relu9_0_split -> eltwise9_relu9_0_split_1
I1219 16:29:32.103415 35822 net.cpp:155] Setting up eltwise9_relu9_0_split
I1219 16:29:32.103426 35822 net.cpp:163] Top shape: 36 256 14 14 (1806336)
I1219 16:29:32.103437 35822 net.cpp:163] Top shape: 36 256 14 14 (1806336)
I1219 16:29:32.103447 35822 layer_factory.hpp:76] Creating layer conv45
I1219 16:29:32.103463 35822 net.cpp:110] Creating Layer conv45
I1219 16:29:32.103473 35822 net.cpp:477] conv45 <- eltwise9_relu9_0_split_0
I1219 16:29:32.103488 35822 net.cpp:433] conv45 -> conv45
I1219 16:29:32.109231 35822 net.cpp:155] Setting up conv45
I1219 16:29:32.109256 35822 net.cpp:163] Top shape: 36 256 14 14 (1806336)
I1219 16:29:32.109272 35822 layer_factory.hpp:76] Creating layer bn45
I1219 16:29:32.109288 35822 net.cpp:110] Creating Layer bn45
I1219 16:29:32.109307 35822 net.cpp:477] bn45 <- conv45
I1219 16:29:32.109320 35822 net.cpp:433] bn45 -> bn45
I1219 16:29:32.109423 35822 net.cpp:155] Setting up bn45
I1219 16:29:32.109443 35822 net.cpp:163] Top shape: 36 256 14 14 (1806336)
I1219 16:29:32.109460 35822 layer_factory.hpp:76] Creating layer relu45
I1219 16:29:32.109473 35822 net.cpp:110] Creating Layer relu45
I1219 16:29:32.109503 35822 net.cpp:477] relu45 <- bn45
I1219 16:29:32.109515 35822 net.cpp:419] relu45 -> bn45 (in-place)
I1219 16:29:32.109597 35822 net.cpp:155] Setting up relu45
I1219 16:29:32.109613 35822 net.cpp:163] Top shape: 36 256 14 14 (1806336)
I1219 16:29:32.109624 35822 layer_factory.hpp:76] Creating layer conv46
I1219 16:29:32.109637 35822 net.cpp:110] Creating Layer conv46
I1219 16:29:32.109648 35822 net.cpp:477] conv46 <- bn45
I1219 16:29:32.109663 35822 net.cpp:433] conv46 -> conv46
I1219 16:29:32.115368 35822 net.cpp:155] Setting up conv46
I1219 16:29:32.115394 35822 net.cpp:163] Top shape: 36 256 14 14 (1806336)
I1219 16:29:32.115408 35822 layer_factory.hpp:76] Creating layer bn46
I1219 16:29:32.115424 35822 net.cpp:110] Creating Layer bn46
I1219 16:29:32.115474 35822 net.cpp:477] bn46 <- conv46
I1219 16:29:32.115499 35822 net.cpp:433] bn46 -> bn46
I1219 16:29:32.115612 35822 net.cpp:155] Setting up bn46
I1219 16:29:32.115631 35822 net.cpp:163] Top shape: 36 256 14 14 (1806336)
I1219 16:29:32.115664 35822 layer_factory.hpp:76] Creating layer relu46
I1219 16:29:32.115679 35822 net.cpp:110] Creating Layer relu46
I1219 16:29:32.115694 35822 net.cpp:477] relu46 <- bn46
I1219 16:29:32.115710 35822 net.cpp:419] relu46 -> bn46 (in-place)
I1219 16:29:32.115902 35822 net.cpp:155] Setting up relu46
I1219 16:29:32.115926 35822 net.cpp:163] Top shape: 36 256 14 14 (1806336)
I1219 16:29:32.115941 35822 layer_factory.hpp:76] Creating layer eltwise10
I1219 16:29:32.115957 35822 net.cpp:110] Creating Layer eltwise10
I1219 16:29:32.115972 35822 net.cpp:477] eltwise10 <- eltwise9_relu9_0_split_1
I1219 16:29:32.115988 35822 net.cpp:477] eltwise10 <- bn46
I1219 16:29:32.116005 35822 net.cpp:433] eltwise10 -> eltwise10
I1219 16:29:32.116024 35822 net.cpp:155] Setting up eltwise10
I1219 16:29:32.116039 35822 net.cpp:163] Top shape: 36 256 14 14 (1806336)
I1219 16:29:32.116053 35822 layer_factory.hpp:76] Creating layer relu10
I1219 16:29:32.116071 35822 net.cpp:110] Creating Layer relu10
I1219 16:29:32.116085 35822 net.cpp:477] relu10 <- eltwise10
I1219 16:29:32.116101 35822 net.cpp:419] relu10 -> eltwise10 (in-place)
I1219 16:29:32.116178 35822 net.cpp:155] Setting up relu10
I1219 16:29:32.116197 35822 net.cpp:163] Top shape: 36 256 14 14 (1806336)
I1219 16:29:32.116211 35822 layer_factory.hpp:76] Creating layer eltwise10_relu10_0_split
I1219 16:29:32.116232 35822 net.cpp:110] Creating Layer eltwise10_relu10_0_split
I1219 16:29:32.116246 35822 net.cpp:477] eltwise10_relu10_0_split <- eltwise10
I1219 16:29:32.116264 35822 net.cpp:433] eltwise10_relu10_0_split -> eltwise10_relu10_0_split_0
I1219 16:29:32.116281 35822 net.cpp:433] eltwise10_relu10_0_split -> eltwise10_relu10_0_split_1
I1219 16:29:32.116302 35822 net.cpp:155] Setting up eltwise10_relu10_0_split
I1219 16:29:32.116317 35822 net.cpp:163] Top shape: 36 256 14 14 (1806336)
I1219 16:29:32.116333 35822 net.cpp:163] Top shape: 36 256 14 14 (1806336)
I1219 16:29:32.116348 35822 layer_factory.hpp:76] Creating layer conv47
I1219 16:29:32.116366 35822 net.cpp:110] Creating Layer conv47
I1219 16:29:32.116380 35822 net.cpp:477] conv47 <- eltwise10_relu10_0_split_0
I1219 16:29:32.116399 35822 net.cpp:433] conv47 -> conv47
I1219 16:29:32.122129 35822 net.cpp:155] Setting up conv47
I1219 16:29:32.122159 35822 net.cpp:163] Top shape: 36 256 14 14 (1806336)
I1219 16:29:32.122174 35822 layer_factory.hpp:76] Creating layer bn47
I1219 16:29:32.122211 35822 net.cpp:110] Creating Layer bn47
I1219 16:29:32.122225 35822 net.cpp:477] bn47 <- conv47
I1219 16:29:32.122237 35822 net.cpp:433] bn47 -> bn47
I1219 16:29:32.122340 35822 net.cpp:155] Setting up bn47
I1219 16:29:32.122359 35822 net.cpp:163] Top shape: 36 256 14 14 (1806336)
I1219 16:29:32.122375 35822 layer_factory.hpp:76] Creating layer relu47
I1219 16:29:32.122390 35822 net.cpp:110] Creating Layer relu47
I1219 16:29:32.122401 35822 net.cpp:477] relu47 <- bn47
I1219 16:29:32.122414 35822 net.cpp:419] relu47 -> bn47 (in-place)
I1219 16:29:32.122491 35822 net.cpp:155] Setting up relu47
I1219 16:29:32.122508 35822 net.cpp:163] Top shape: 36 256 14 14 (1806336)
I1219 16:29:32.122535 35822 layer_factory.hpp:76] Creating layer conv48
I1219 16:29:32.122553 35822 net.cpp:110] Creating Layer conv48
I1219 16:29:32.122565 35822 net.cpp:477] conv48 <- bn47
I1219 16:29:32.122580 35822 net.cpp:433] conv48 -> conv48
I1219 16:29:32.128307 35822 net.cpp:155] Setting up conv48
I1219 16:29:32.128329 35822 net.cpp:163] Top shape: 36 256 14 14 (1806336)
I1219 16:29:32.128345 35822 layer_factory.hpp:76] Creating layer bn48
I1219 16:29:32.128360 35822 net.cpp:110] Creating Layer bn48
I1219 16:29:32.128371 35822 net.cpp:477] bn48 <- conv48
I1219 16:29:32.128384 35822 net.cpp:433] bn48 -> bn48
I1219 16:29:32.128484 35822 net.cpp:155] Setting up bn48
I1219 16:29:32.128501 35822 net.cpp:163] Top shape: 36 256 14 14 (1806336)
I1219 16:29:32.128518 35822 layer_factory.hpp:76] Creating layer relu48
I1219 16:29:32.128535 35822 net.cpp:110] Creating Layer relu48
I1219 16:29:32.128546 35822 net.cpp:477] relu48 <- bn48
I1219 16:29:32.128561 35822 net.cpp:419] relu48 -> bn48 (in-place)
I1219 16:29:32.128759 35822 net.cpp:155] Setting up relu48
I1219 16:29:32.128779 35822 net.cpp:163] Top shape: 36 256 14 14 (1806336)
I1219 16:29:32.128790 35822 layer_factory.hpp:76] Creating layer eltwise11
I1219 16:29:32.128804 35822 net.cpp:110] Creating Layer eltwise11
I1219 16:29:32.128814 35822 net.cpp:477] eltwise11 <- eltwise10_relu10_0_split_1
I1219 16:29:32.128828 35822 net.cpp:477] eltwise11 <- bn48
I1219 16:29:32.128839 35822 net.cpp:433] eltwise11 -> eltwise11
I1219 16:29:32.128854 35822 net.cpp:155] Setting up eltwise11
I1219 16:29:32.128867 35822 net.cpp:163] Top shape: 36 256 14 14 (1806336)
I1219 16:29:32.128877 35822 layer_factory.hpp:76] Creating layer relu11
I1219 16:29:32.128890 35822 net.cpp:110] Creating Layer relu11
I1219 16:29:32.128900 35822 net.cpp:477] relu11 <- eltwise11
I1219 16:29:32.128914 35822 net.cpp:419] relu11 -> eltwise11 (in-place)
I1219 16:29:32.128998 35822 net.cpp:155] Setting up relu11
I1219 16:29:32.129014 35822 net.cpp:163] Top shape: 36 256 14 14 (1806336)
I1219 16:29:32.129024 35822 layer_factory.hpp:76] Creating layer eltwise11_relu11_0_split
I1219 16:29:32.129036 35822 net.cpp:110] Creating Layer eltwise11_relu11_0_split
I1219 16:29:32.129046 35822 net.cpp:477] eltwise11_relu11_0_split <- eltwise11
I1219 16:29:32.129061 35822 net.cpp:433] eltwise11_relu11_0_split -> eltwise11_relu11_0_split_0
I1219 16:29:32.129076 35822 net.cpp:433] eltwise11_relu11_0_split -> eltwise11_relu11_0_split_1
I1219 16:29:32.129091 35822 net.cpp:155] Setting up eltwise11_relu11_0_split
I1219 16:29:32.129102 35822 net.cpp:163] Top shape: 36 256 14 14 (1806336)
I1219 16:29:32.129113 35822 net.cpp:163] Top shape: 36 256 14 14 (1806336)
I1219 16:29:32.129123 35822 layer_factory.hpp:76] Creating layer conv49
I1219 16:29:32.129139 35822 net.cpp:110] Creating Layer conv49
I1219 16:29:32.129150 35822 net.cpp:477] conv49 <- eltwise11_relu11_0_split_0
I1219 16:29:32.129163 35822 net.cpp:433] conv49 -> conv49
I1219 16:29:32.134940 35822 net.cpp:155] Setting up conv49
I1219 16:29:32.134963 35822 net.cpp:163] Top shape: 36 256 14 14 (1806336)
I1219 16:29:32.134977 35822 layer_factory.hpp:76] Creating layer bn49
I1219 16:29:32.134994 35822 net.cpp:110] Creating Layer bn49
I1219 16:29:32.135006 35822 net.cpp:477] bn49 <- conv49
I1219 16:29:32.135020 35822 net.cpp:433] bn49 -> bn49
I1219 16:29:32.135124 35822 net.cpp:155] Setting up bn49
I1219 16:29:32.135140 35822 net.cpp:163] Top shape: 36 256 14 14 (1806336)
I1219 16:29:32.135181 35822 layer_factory.hpp:76] Creating layer relu49
I1219 16:29:32.135198 35822 net.cpp:110] Creating Layer relu49
I1219 16:29:32.135210 35822 net.cpp:477] relu49 <- bn49
I1219 16:29:32.135221 35822 net.cpp:419] relu49 -> bn49 (in-place)
I1219 16:29:32.135298 35822 net.cpp:155] Setting up relu49
I1219 16:29:32.135315 35822 net.cpp:163] Top shape: 36 256 14 14 (1806336)
I1219 16:29:32.135325 35822 layer_factory.hpp:76] Creating layer conv410
I1219 16:29:32.135339 35822 net.cpp:110] Creating Layer conv410
I1219 16:29:32.135350 35822 net.cpp:477] conv410 <- bn49
I1219 16:29:32.135387 35822 net.cpp:433] conv410 -> conv410
I1219 16:29:32.141124 35822 net.cpp:155] Setting up conv410
I1219 16:29:32.141149 35822 net.cpp:163] Top shape: 36 256 14 14 (1806336)
I1219 16:29:32.141165 35822 layer_factory.hpp:76] Creating layer bn410
I1219 16:29:32.141178 35822 net.cpp:110] Creating Layer bn410
I1219 16:29:32.141219 35822 net.cpp:477] bn410 <- conv410
I1219 16:29:32.141232 35822 net.cpp:433] bn410 -> bn410
I1219 16:29:32.141346 35822 net.cpp:155] Setting up bn410
I1219 16:29:32.141365 35822 net.cpp:163] Top shape: 36 256 14 14 (1806336)
I1219 16:29:32.141381 35822 layer_factory.hpp:76] Creating layer relu410
I1219 16:29:32.141394 35822 net.cpp:110] Creating Layer relu410
I1219 16:29:32.141407 35822 net.cpp:477] relu410 <- bn410
I1219 16:29:32.141420 35822 net.cpp:419] relu410 -> bn410 (in-place)
I1219 16:29:32.141497 35822 net.cpp:155] Setting up relu410
I1219 16:29:32.141513 35822 net.cpp:163] Top shape: 36 256 14 14 (1806336)
I1219 16:29:32.141525 35822 layer_factory.hpp:76] Creating layer eltwise12
I1219 16:29:32.141540 35822 net.cpp:110] Creating Layer eltwise12
I1219 16:29:32.141551 35822 net.cpp:477] eltwise12 <- eltwise11_relu11_0_split_1
I1219 16:29:32.141562 35822 net.cpp:477] eltwise12 <- bn410
I1219 16:29:32.141574 35822 net.cpp:433] eltwise12 -> eltwise12
I1219 16:29:32.141589 35822 net.cpp:155] Setting up eltwise12
I1219 16:29:32.141602 35822 net.cpp:163] Top shape: 36 256 14 14 (1806336)
I1219 16:29:32.141613 35822 layer_factory.hpp:76] Creating layer relu12
I1219 16:29:32.141625 35822 net.cpp:110] Creating Layer relu12
I1219 16:29:32.141635 35822 net.cpp:477] relu12 <- eltwise12
I1219 16:29:32.141649 35822 net.cpp:419] relu12 -> eltwise12 (in-place)
I1219 16:29:32.141839 35822 net.cpp:155] Setting up relu12
I1219 16:29:32.141858 35822 net.cpp:163] Top shape: 36 256 14 14 (1806336)
I1219 16:29:32.141870 35822 layer_factory.hpp:76] Creating layer eltwise12_relu12_0_split
I1219 16:29:32.141885 35822 net.cpp:110] Creating Layer eltwise12_relu12_0_split
I1219 16:29:32.141896 35822 net.cpp:477] eltwise12_relu12_0_split <- eltwise12
I1219 16:29:32.141908 35822 net.cpp:433] eltwise12_relu12_0_split -> eltwise12_relu12_0_split_0
I1219 16:29:32.141923 35822 net.cpp:433] eltwise12_relu12_0_split -> eltwise12_relu12_0_split_1
I1219 16:29:32.141939 35822 net.cpp:433] eltwise12_relu12_0_split -> eltwise12_relu12_0_split_2
I1219 16:29:32.141955 35822 net.cpp:155] Setting up eltwise12_relu12_0_split
I1219 16:29:32.141968 35822 net.cpp:163] Top shape: 36 256 14 14 (1806336)
I1219 16:29:32.141978 35822 net.cpp:163] Top shape: 36 256 14 14 (1806336)
I1219 16:29:32.141989 35822 net.cpp:163] Top shape: 36 256 14 14 (1806336)
I1219 16:29:32.141999 35822 layer_factory.hpp:76] Creating layer conv411
I1219 16:29:32.142012 35822 net.cpp:110] Creating Layer conv411
I1219 16:29:32.142024 35822 net.cpp:477] conv411 <- eltwise12_relu12_0_split_0
I1219 16:29:32.142038 35822 net.cpp:433] conv411 -> conv411
I1219 16:29:32.147757 35822 net.cpp:155] Setting up conv411
I1219 16:29:32.147783 35822 net.cpp:163] Top shape: 36 256 14 14 (1806336)
I1219 16:29:32.147819 35822 layer_factory.hpp:76] Creating layer bn411
I1219 16:29:32.147847 35822 net.cpp:110] Creating Layer bn411
I1219 16:29:32.147869 35822 net.cpp:477] bn411 <- conv411
I1219 16:29:32.147892 35822 net.cpp:433] bn411 -> bn411
I1219 16:29:32.148002 35822 net.cpp:155] Setting up bn411
I1219 16:29:32.148026 35822 net.cpp:163] Top shape: 36 256 14 14 (1806336)
I1219 16:29:32.148043 35822 layer_factory.hpp:76] Creating layer relu411
I1219 16:29:32.148056 35822 net.cpp:110] Creating Layer relu411
I1219 16:29:32.148067 35822 net.cpp:477] relu411 <- bn411
I1219 16:29:32.148079 35822 net.cpp:419] relu411 -> bn411 (in-place)
I1219 16:29:32.148159 35822 net.cpp:155] Setting up relu411
I1219 16:29:32.148175 35822 net.cpp:163] Top shape: 36 256 14 14 (1806336)
I1219 16:29:32.148186 35822 layer_factory.hpp:76] Creating layer conv412
I1219 16:29:32.148200 35822 net.cpp:110] Creating Layer conv412
I1219 16:29:32.148211 35822 net.cpp:477] conv412 <- bn411
I1219 16:29:32.148226 35822 net.cpp:433] conv412 -> conv412
I1219 16:29:32.153995 35822 net.cpp:155] Setting up conv412
I1219 16:29:32.154016 35822 net.cpp:163] Top shape: 36 256 14 14 (1806336)
I1219 16:29:32.154031 35822 layer_factory.hpp:76] Creating layer bn412
I1219 16:29:32.154048 35822 net.cpp:110] Creating Layer bn412
I1219 16:29:32.154059 35822 net.cpp:477] bn412 <- conv412
I1219 16:29:32.154072 35822 net.cpp:433] bn412 -> bn412
I1219 16:29:32.154180 35822 net.cpp:155] Setting up bn412
I1219 16:29:32.154196 35822 net.cpp:163] Top shape: 36 256 14 14 (1806336)
I1219 16:29:32.154212 35822 layer_factory.hpp:76] Creating layer relu412
I1219 16:29:32.154228 35822 net.cpp:110] Creating Layer relu412
I1219 16:29:32.154239 35822 net.cpp:477] relu412 <- bn412
I1219 16:29:32.154254 35822 net.cpp:419] relu412 -> bn412 (in-place)
I1219 16:29:32.154335 35822 net.cpp:155] Setting up relu412
I1219 16:29:32.154350 35822 net.cpp:163] Top shape: 36 256 14 14 (1806336)
I1219 16:29:32.154361 35822 layer_factory.hpp:76] Creating layer eltwise13
I1219 16:29:32.154374 35822 net.cpp:110] Creating Layer eltwise13
I1219 16:29:32.154386 35822 net.cpp:477] eltwise13 <- eltwise12_relu12_0_split_1
I1219 16:29:32.154397 35822 net.cpp:477] eltwise13 <- bn412
I1219 16:29:32.154412 35822 net.cpp:433] eltwise13 -> eltwise13
I1219 16:29:32.154428 35822 net.cpp:155] Setting up eltwise13
I1219 16:29:32.154440 35822 net.cpp:163] Top shape: 36 256 14 14 (1806336)
I1219 16:29:32.154450 35822 layer_factory.hpp:76] Creating layer relu13
I1219 16:29:32.154463 35822 net.cpp:110] Creating Layer relu13
I1219 16:29:32.154472 35822 net.cpp:477] relu13 <- eltwise13
I1219 16:29:32.154487 35822 net.cpp:419] relu13 -> eltwise13 (in-place)
I1219 16:29:32.154562 35822 net.cpp:155] Setting up relu13
I1219 16:29:32.154578 35822 net.cpp:163] Top shape: 36 256 14 14 (1806336)
I1219 16:29:32.154589 35822 layer_factory.hpp:76] Creating layer relu13_p
I1219 16:29:32.154603 35822 net.cpp:110] Creating Layer relu13_p
I1219 16:29:32.154613 35822 net.cpp:477] relu13_p <- eltwise12_relu12_0_split_2
I1219 16:29:32.154629 35822 net.cpp:433] relu13_p -> relu13_p
I1219 16:29:32.156471 35822 net.cpp:155] Setting up relu13_p
I1219 16:29:32.156494 35822 net.cpp:163] Top shape: 36 512 7 7 (903168)
I1219 16:29:32.156509 35822 layer_factory.hpp:76] Creating layer relu13_bn
I1219 16:29:32.156523 35822 net.cpp:110] Creating Layer relu13_bn
I1219 16:29:32.156534 35822 net.cpp:477] relu13_bn <- relu13_p
I1219 16:29:32.156548 35822 net.cpp:433] relu13_bn -> relu13_bn
I1219 16:29:32.156668 35822 net.cpp:155] Setting up relu13_bn
I1219 16:29:32.156685 35822 net.cpp:163] Top shape: 36 512 7 7 (903168)
I1219 16:29:32.156702 35822 layer_factory.hpp:76] Creating layer conv51
I1219 16:29:32.156738 35822 net.cpp:110] Creating Layer conv51
I1219 16:29:32.156749 35822 net.cpp:477] conv51 <- eltwise13
I1219 16:29:32.156764 35822 net.cpp:433] conv51 -> conv51
I1219 16:29:32.167742 35822 net.cpp:155] Setting up conv51
I1219 16:29:32.167767 35822 net.cpp:163] Top shape: 36 512 7 7 (903168)
I1219 16:29:32.167783 35822 layer_factory.hpp:76] Creating layer bn51
I1219 16:29:32.167799 35822 net.cpp:110] Creating Layer bn51
I1219 16:29:32.167810 35822 net.cpp:477] bn51 <- conv51
I1219 16:29:32.167825 35822 net.cpp:433] bn51 -> bn51
I1219 16:29:32.167937 35822 net.cpp:155] Setting up bn51
I1219 16:29:32.167953 35822 net.cpp:163] Top shape: 36 512 7 7 (903168)
I1219 16:29:32.167969 35822 layer_factory.hpp:76] Creating layer relu51
I1219 16:29:32.167985 35822 net.cpp:110] Creating Layer relu51
I1219 16:29:32.167996 35822 net.cpp:477] relu51 <- bn51
I1219 16:29:32.168009 35822 net.cpp:419] relu51 -> bn51 (in-place)
I1219 16:29:32.168205 35822 net.cpp:155] Setting up relu51
I1219 16:29:32.168225 35822 net.cpp:163] Top shape: 36 512 7 7 (903168)
I1219 16:29:32.168236 35822 layer_factory.hpp:76] Creating layer conv52
I1219 16:29:32.168251 35822 net.cpp:110] Creating Layer conv52
I1219 16:29:32.168262 35822 net.cpp:477] conv52 <- bn51
I1219 16:29:32.168274 35822 net.cpp:433] conv52 -> conv52
I1219 16:29:32.189690 35822 net.cpp:155] Setting up conv52
I1219 16:29:32.189767 35822 net.cpp:163] Top shape: 36 512 7 7 (903168)
I1219 16:29:32.189785 35822 layer_factory.hpp:76] Creating layer bn52
I1219 16:29:32.189879 35822 net.cpp:110] Creating Layer bn52
I1219 16:29:32.189904 35822 net.cpp:477] bn52 <- conv52
I1219 16:29:32.189930 35822 net.cpp:433] bn52 -> bn52
I1219 16:29:32.190060 35822 net.cpp:155] Setting up bn52
I1219 16:29:32.190080 35822 net.cpp:163] Top shape: 36 512 7 7 (903168)
I1219 16:29:32.190100 35822 layer_factory.hpp:76] Creating layer relu52
I1219 16:29:32.190119 35822 net.cpp:110] Creating Layer relu52
I1219 16:29:32.190135 35822 net.cpp:477] relu52 <- bn52
I1219 16:29:32.190150 35822 net.cpp:419] relu52 -> bn52 (in-place)
I1219 16:29:32.190237 35822 net.cpp:155] Setting up relu52
I1219 16:29:32.190255 35822 net.cpp:163] Top shape: 36 512 7 7 (903168)
I1219 16:29:32.190271 35822 layer_factory.hpp:76] Creating layer eltwise14
I1219 16:29:32.190290 35822 net.cpp:110] Creating Layer eltwise14
I1219 16:29:32.190305 35822 net.cpp:477] eltwise14 <- relu13_bn
I1219 16:29:32.190320 35822 net.cpp:477] eltwise14 <- bn52
I1219 16:29:32.190340 35822 net.cpp:433] eltwise14 -> eltwise14
I1219 16:29:32.190361 35822 net.cpp:155] Setting up eltwise14
I1219 16:29:32.190377 35822 net.cpp:163] Top shape: 36 512 7 7 (903168)
I1219 16:29:32.190390 35822 layer_factory.hpp:76] Creating layer relu14
I1219 16:29:32.190405 35822 net.cpp:110] Creating Layer relu14
I1219 16:29:32.190419 35822 net.cpp:477] relu14 <- eltwise14
I1219 16:29:32.190435 35822 net.cpp:419] relu14 -> eltwise14 (in-place)
I1219 16:29:32.190515 35822 net.cpp:155] Setting up relu14
I1219 16:29:32.190534 35822 net.cpp:163] Top shape: 36 512 7 7 (903168)
I1219 16:29:32.190548 35822 layer_factory.hpp:76] Creating layer eltwise14_relu14_0_split
I1219 16:29:32.190567 35822 net.cpp:110] Creating Layer eltwise14_relu14_0_split
I1219 16:29:32.190582 35822 net.cpp:477] eltwise14_relu14_0_split <- eltwise14
I1219 16:29:32.190598 35822 net.cpp:433] eltwise14_relu14_0_split -> eltwise14_relu14_0_split_0
I1219 16:29:32.190615 35822 net.cpp:433] eltwise14_relu14_0_split -> eltwise14_relu14_0_split_1
I1219 16:29:32.190634 35822 net.cpp:155] Setting up eltwise14_relu14_0_split
I1219 16:29:32.190651 35822 net.cpp:163] Top shape: 36 512 7 7 (903168)
I1219 16:29:32.190665 35822 net.cpp:163] Top shape: 36 512 7 7 (903168)
I1219 16:29:32.190678 35822 layer_factory.hpp:76] Creating layer conv53
I1219 16:29:32.190698 35822 net.cpp:110] Creating Layer conv53
I1219 16:29:32.190711 35822 net.cpp:477] conv53 <- eltwise14_relu14_0_split_0
I1219 16:29:32.190729 35822 net.cpp:433] conv53 -> conv53
I1219 16:29:32.212194 35822 net.cpp:155] Setting up conv53
I1219 16:29:32.212268 35822 net.cpp:163] Top shape: 36 512 7 7 (903168)
I1219 16:29:32.212288 35822 layer_factory.hpp:76] Creating layer bn53
I1219 16:29:32.212323 35822 net.cpp:110] Creating Layer bn53
I1219 16:29:32.212353 35822 net.cpp:477] bn53 <- conv53
I1219 16:29:32.212381 35822 net.cpp:433] bn53 -> bn53
I1219 16:29:32.212502 35822 net.cpp:155] Setting up bn53
I1219 16:29:32.212524 35822 net.cpp:163] Top shape: 36 512 7 7 (903168)
I1219 16:29:32.212544 35822 layer_factory.hpp:76] Creating layer relu53
I1219 16:29:32.212560 35822 net.cpp:110] Creating Layer relu53
I1219 16:29:32.212577 35822 net.cpp:477] relu53 <- bn53
I1219 16:29:32.212592 35822 net.cpp:419] relu53 -> bn53 (in-place)
I1219 16:29:32.212677 35822 net.cpp:155] Setting up relu53
I1219 16:29:32.212695 35822 net.cpp:163] Top shape: 36 512 7 7 (903168)
I1219 16:29:32.212709 35822 layer_factory.hpp:76] Creating layer conv54
I1219 16:29:32.212731 35822 net.cpp:110] Creating Layer conv54
I1219 16:29:32.212745 35822 net.cpp:477] conv54 <- bn53
I1219 16:29:32.212762 35822 net.cpp:433] conv54 -> conv54
I1219 16:29:32.234172 35822 net.cpp:155] Setting up conv54
I1219 16:29:32.234205 35822 net.cpp:163] Top shape: 36 512 7 7 (903168)
I1219 16:29:32.234220 35822 layer_factory.hpp:76] Creating layer bn54
I1219 16:29:32.234236 35822 net.cpp:110] Creating Layer bn54
I1219 16:29:32.234247 35822 net.cpp:477] bn54 <- conv54
I1219 16:29:32.234300 35822 net.cpp:433] bn54 -> bn54
I1219 16:29:32.234418 35822 net.cpp:155] Setting up bn54
I1219 16:29:32.234436 35822 net.cpp:163] Top shape: 36 512 7 7 (903168)
I1219 16:29:32.234457 35822 layer_factory.hpp:76] Creating layer relu54
I1219 16:29:32.234470 35822 net.cpp:110] Creating Layer relu54
I1219 16:29:32.234482 35822 net.cpp:477] relu54 <- bn54
I1219 16:29:32.234493 35822 net.cpp:419] relu54 -> bn54 (in-place)
I1219 16:29:32.234686 35822 net.cpp:155] Setting up relu54
I1219 16:29:32.234706 35822 net.cpp:163] Top shape: 36 512 7 7 (903168)
I1219 16:29:32.234719 35822 layer_factory.hpp:76] Creating layer eltwise15
I1219 16:29:32.234733 35822 net.cpp:110] Creating Layer eltwise15
I1219 16:29:32.234745 35822 net.cpp:477] eltwise15 <- eltwise14_relu14_0_split_1
I1219 16:29:32.234756 35822 net.cpp:477] eltwise15 <- bn54
I1219 16:29:32.234769 35822 net.cpp:433] eltwise15 -> eltwise15
I1219 16:29:32.234786 35822 net.cpp:155] Setting up eltwise15
I1219 16:29:32.234799 35822 net.cpp:163] Top shape: 36 512 7 7 (903168)
I1219 16:29:32.234809 35822 layer_factory.hpp:76] Creating layer relu15
I1219 16:29:32.234823 35822 net.cpp:110] Creating Layer relu15
I1219 16:29:32.234834 35822 net.cpp:477] relu15 <- eltwise15
I1219 16:29:32.234846 35822 net.cpp:419] relu15 -> eltwise15 (in-place)
I1219 16:29:32.234920 35822 net.cpp:155] Setting up relu15
I1219 16:29:32.234936 35822 net.cpp:163] Top shape: 36 512 7 7 (903168)
I1219 16:29:32.234951 35822 layer_factory.hpp:76] Creating layer eltwise15_relu15_0_split
I1219 16:29:32.234971 35822 net.cpp:110] Creating Layer eltwise15_relu15_0_split
I1219 16:29:32.234984 35822 net.cpp:477] eltwise15_relu15_0_split <- eltwise15
I1219 16:29:32.235003 35822 net.cpp:433] eltwise15_relu15_0_split -> eltwise15_relu15_0_split_0
I1219 16:29:32.235020 35822 net.cpp:433] eltwise15_relu15_0_split -> eltwise15_relu15_0_split_1
I1219 16:29:32.235038 35822 net.cpp:155] Setting up eltwise15_relu15_0_split
I1219 16:29:32.235054 35822 net.cpp:163] Top shape: 36 512 7 7 (903168)
I1219 16:29:32.235069 35822 net.cpp:163] Top shape: 36 512 7 7 (903168)
I1219 16:29:32.235085 35822 layer_factory.hpp:76] Creating layer conv55
I1219 16:29:32.235103 35822 net.cpp:110] Creating Layer conv55
I1219 16:29:32.235116 35822 net.cpp:477] conv55 <- eltwise15_relu15_0_split_0
I1219 16:29:32.235136 35822 net.cpp:433] conv55 -> conv55
I1219 16:29:32.256768 35822 net.cpp:155] Setting up conv55
I1219 16:29:32.256855 35822 net.cpp:163] Top shape: 36 512 7 7 (903168)
I1219 16:29:32.256883 35822 layer_factory.hpp:76] Creating layer bn55
I1219 16:29:32.256907 35822 net.cpp:110] Creating Layer bn55
I1219 16:29:32.256922 35822 net.cpp:477] bn55 <- conv55
I1219 16:29:32.256953 35822 net.cpp:433] bn55 -> bn55
I1219 16:29:32.257083 35822 net.cpp:155] Setting up bn55
I1219 16:29:32.257102 35822 net.cpp:163] Top shape: 36 512 7 7 (903168)
I1219 16:29:32.257124 35822 layer_factory.hpp:76] Creating layer relu55
I1219 16:29:32.257143 35822 net.cpp:110] Creating Layer relu55
I1219 16:29:32.257158 35822 net.cpp:477] relu55 <- bn55
I1219 16:29:32.257174 35822 net.cpp:419] relu55 -> bn55 (in-place)
I1219 16:29:32.257261 35822 net.cpp:155] Setting up relu55
I1219 16:29:32.257279 35822 net.cpp:163] Top shape: 36 512 7 7 (903168)
I1219 16:29:32.257298 35822 layer_factory.hpp:76] Creating layer conv56
I1219 16:29:32.257323 35822 net.cpp:110] Creating Layer conv56
I1219 16:29:32.257338 35822 net.cpp:477] conv56 <- bn55
I1219 16:29:32.257355 35822 net.cpp:433] conv56 -> conv56
I1219 16:29:32.279247 35822 net.cpp:155] Setting up conv56
I1219 16:29:32.279304 35822 net.cpp:163] Top shape: 36 512 7 7 (903168)
I1219 16:29:32.279323 35822 layer_factory.hpp:76] Creating layer bn56
I1219 16:29:32.279373 35822 net.cpp:110] Creating Layer bn56
I1219 16:29:32.279389 35822 net.cpp:477] bn56 <- conv56
I1219 16:29:32.279417 35822 net.cpp:433] bn56 -> bn56
I1219 16:29:32.279546 35822 net.cpp:155] Setting up bn56
I1219 16:29:32.279567 35822 net.cpp:163] Top shape: 36 512 7 7 (903168)
I1219 16:29:32.279600 35822 layer_factory.hpp:76] Creating layer relu56
I1219 16:29:32.279654 35822 net.cpp:110] Creating Layer relu56
I1219 16:29:32.279670 35822 net.cpp:477] relu56 <- bn56
I1219 16:29:32.279690 35822 net.cpp:419] relu56 -> bn56 (in-place)
I1219 16:29:32.279893 35822 net.cpp:155] Setting up relu56
I1219 16:29:32.279918 35822 net.cpp:163] Top shape: 36 512 7 7 (903168)
I1219 16:29:32.279933 35822 layer_factory.hpp:76] Creating layer eltwise16
I1219 16:29:32.279953 35822 net.cpp:110] Creating Layer eltwise16
I1219 16:29:32.279968 35822 net.cpp:477] eltwise16 <- eltwise15_relu15_0_split_1
I1219 16:29:32.279984 35822 net.cpp:477] eltwise16 <- bn56
I1219 16:29:32.280000 35822 net.cpp:433] eltwise16 -> eltwise16
I1219 16:29:32.280021 35822 net.cpp:155] Setting up eltwise16
I1219 16:29:32.280037 35822 net.cpp:163] Top shape: 36 512 7 7 (903168)
I1219 16:29:32.280050 35822 layer_factory.hpp:76] Creating layer relu16
I1219 16:29:32.280066 35822 net.cpp:110] Creating Layer relu16
I1219 16:29:32.280081 35822 net.cpp:477] relu16 <- eltwise16
I1219 16:29:32.280099 35822 net.cpp:419] relu16 -> eltwise16 (in-place)
I1219 16:29:32.280175 35822 net.cpp:155] Setting up relu16
I1219 16:29:32.280195 35822 net.cpp:163] Top shape: 36 512 7 7 (903168)
I1219 16:29:32.280210 35822 layer_factory.hpp:76] Creating layer pool5
I1219 16:29:32.280228 35822 net.cpp:110] Creating Layer pool5
I1219 16:29:32.280241 35822 net.cpp:477] pool5 <- eltwise16
I1219 16:29:32.280261 35822 net.cpp:433] pool5 -> pool5
I1219 16:29:32.280350 35822 net.cpp:155] Setting up pool5
I1219 16:29:32.280372 35822 net.cpp:163] Top shape: 36 512 1 1 (18432)
I1219 16:29:32.280386 35822 layer_factory.hpp:76] Creating layer ip1
I1219 16:29:32.280410 35822 net.cpp:110] Creating Layer ip1
I1219 16:29:32.280423 35822 net.cpp:477] ip1 <- pool5
I1219 16:29:32.280441 35822 net.cpp:433] ip1 -> ip1
I1219 16:29:32.334918 35822 net.cpp:155] Setting up ip1
I1219 16:29:32.334978 35822 net.cpp:163] Top shape: 36 10575 (380700)
I1219 16:29:32.335019 35822 layer_factory.hpp:76] Creating layer accuracy
I1219 16:29:32.335052 35822 net.cpp:110] Creating Layer accuracy
I1219 16:29:32.335073 35822 net.cpp:477] accuracy <- ip1
I1219 16:29:32.335098 35822 net.cpp:477] accuracy <- label
I1219 16:29:32.335124 35822 net.cpp:433] accuracy -> accuracy
I1219 16:29:32.335155 35822 net.cpp:155] Setting up accuracy
I1219 16:29:32.335170 35822 net.cpp:163] Top shape: (1)
…
