…
I1221 18:17:32.240417 18896 solver.cpp:97] Creating training net from net file: ./rsdnet34.prototxt
I1221 18:17:32.243263 18896 net.cpp:339] The NetState phase (0) differed from the phase (1) specified by a rule in layer data
I1221 18:17:32.243993 18896 net.cpp:50] Initializing net from parameters: 
name: "RsdNet34"
state {
  phase: TRAIN
}
layer {
  name: "data"
  type: "Data"
  top: "data"
  top: "label"
  include {
    phase: TRAIN
  }
  transform_param {
    scale: 0.0039215689
    mirror: true
    mean_file: "./mean_224gray.binaryproto"
  }
  data_param {
    source: "./train_224gray_lmdb"
    batch_size: 48
    backend: LMDB
  }
}
layer {
  name: "conv01"
  type: "Convolution"
  bottom: "data"
  top: "conv01"
  param {
    lr_mult: 1
    decay_mult: 1
  }
  param {
    lr_mult: 2
    decay_mult: 0
  }
  convolution_param {
    num_output: 64
    pad: 3
    kernel_size: 7
    stride: 2
    weight_filler {
      type: "xavier"
    }
    bias_filler {
      type: "constant"
    }
  }
}
layer {
  name: "bn01"
  type: "BatchNorm"
  bottom: "conv01"
  top: "bn01"
  batch_norm_param {
    use_global_stats: false
  }
}
layer {
  name: "relu01"
  type: "ReLU"
  bottom: "bn01"
  top: "bn01"
}
layer {
  name: "pool1"
  type: "Pooling"
  bottom: "bn01"
  top: "pool1"
  pooling_param {
    pool: MAX
    kernel_size: 3
    stride: 2
  }
}
layer {
  name: "conv21"
  type: "Convolution"
  bottom: "pool1"
  top: "conv21"
  param {
    lr_mult: 1
    decay_mult: 1
  }
  param {
    lr_mult: 2
    decay_mult: 0
  }
  convolution_param {
    num_output: 64
    pad: 1
    kernel_size: 3
    stride: 1
    weight_filler {
      type: "xavier"
    }
    bias_filler {
      type: "constant"
    }
  }
}
layer {
  name: "bn21"
  type: "BatchNorm"
  bottom: "conv21"
  top: "bn21"
  batch_norm_param {
    use_global_stats: false
  }
}
layer {
  name: "relu21"
  type: "ReLU"
  bottom: "bn21"
  top: "bn21"
}
layer {
  name: "conv22"
  type: "Convolution"
  bottom: "bn21"
  top: "conv22"
  param {
    lr_mult: 1
    decay_mult: 1
  }
  param {
    lr_mult: 2
    decay_mult: 0
  }
  convolution_param {
    num_output: 64
    pad: 1
    kernel_size: 3
    stride: 1
    weight_filler {
      type: "xavier"
    }
    bias_filler {
      type: "constant"
    }
  }
}
layer {
  name: "bn22"
  type: "BatchNorm"
  bottom: "conv22"
  top: "bn22"
  batch_norm_param {
    use_global_stats: false
  }
}
layer {
  name: "relu22"
  type: "ReLU"
  bottom: "bn22"
  top: "bn22"
}
layer {
  name: "eltwise1"
  type: "Eltwise"
  bottom: "pool1"
  bottom: "bn22"
  top: "eltwise1"
  eltwise_param {
    operation: SUM
  }
}
layer {
  name: "relu1"
  type: "ReLU"
  bottom: "eltwise1"
  top: "eltwise1"
}
layer {
  name: "conv23"
  type: "Convolution"
  bottom: "eltwise1"
  top: "conv23"
  param {
    lr_mult: 1
    decay_mult: 1
  }
  param {
    lr_mult: 2
    decay_mult: 0
  }
  convolution_param {
    num_output: 64
    pad: 1
    kernel_size: 3
    stride: 1
    weight_filler {
      type: "xavier"
    }
    bias_filler {
      type: "constant"
    }
  }
}
layer {
  name: "bn23"
  type: "BatchNorm"
  bottom: "conv23"
  top: "bn23"
  batch_norm_param {
    use_global_stats: false
  }
}
layer {
  name: "relu23"
  type: "ReLU"
  bottom: "bn23"
  top: "bn23"
}
layer {
  name: "conv24"
  type: "Convolution"
  bottom: "bn23"
  top: "conv24"
  param {
    lr_mult: 1
    decay_mult: 1
  }
  param {
    lr_mult: 2
    decay_mult: 0
  }
  convolution_param {
    num_output: 64
    pad: 1
    kernel_size: 3
    stride: 1
    weight_filler {
      type: "xavier"
    }
    bias_filler {
      type: "constant"
    }
  }
}
layer {
  name: "bn24"
  type: "BatchNorm"
  bottom: "conv24"
  top: "bn24"
  batch_norm_param {
    use_global_stats: false
  }
}
layer {
  name: "relu24"
  type: "ReLU"
  bottom: "bn24"
  top: "bn24"
}
layer {
  name: "eltwise2"
  type: "Eltwise"
  bottom: "eltwise1"
  bottom: "bn24"
  top: "eltwise2"
  eltwise_param {
    operation: SUM
  }
}
layer {
  name: "relu2"
  type: "ReLU"
  bottom: "eltwise2"
  top: "eltwise2"
}
layer {
  name: "conv25"
  type: "Convolution"
  bottom: "bn24"
  top: "conv25"
  param {
    lr_mult: 1
    decay_mult: 1
  }
  param {
    lr_mult: 2
    decay_mult: 0
  }
  convolution_param {
    num_output: 64
    pad: 1
    kernel_size: 3
    stride: 1
    weight_filler {
      type: "xavier"
    }
    bias_filler {
      type: "constant"
    }
  }
}
layer {
  name: "bn25"
  type: "BatchNorm"
  bottom: "conv25"
  top: "bn25"
  batch_norm_param {
    use_global_stats: false
  }
}
layer {
  name: "relu25"
  type: "ReLU"
  bottom: "bn25"
  top: "bn25"
}
layer {
  name: "conv26"
  type: "Convolution"
  bottom: "bn25"
  top: "conv26"
  param {
    lr_mult: 1
    decay_mult: 1
  }
  param {
    lr_mult: 2
    decay_mult: 0
  }
  convolution_param {
    num_output: 64
    pad: 1
    kernel_size: 3
    stride: 1
    weight_filler {
      type: "xavier"
    }
    bias_filler {
      type: "constant"
    }
  }
}
layer {
  name: "bn26"
  type: "BatchNorm"
  bottom: "conv26"
  top: "bn26"
  batch_norm_param {
    use_global_stats: false
  }
}
layer {
  name: "relu26"
  type: "ReLU"
  bottom: "bn26"
  top: "bn26"
}
layer {
  name: "eltwise3"
  type: "Eltwise"
  bottom: "eltwise2"
  bottom: "bn26"
  top: "eltwise3"
  eltwise_param {
    operation: SUM
  }
}
layer {
  name: "relu3"
  type: "ReLU"
  bottom: "eltwise3"
  top: "eltwise3"
}
layer {
  name: "relu3_p"
  type: "Convolution"
  bottom: "eltwise3"
  top: "relu3_p"
  param {
    lr_mult: 1
    decay_mult: 1
  }
  param {
    lr_mult: 2
    decay_mult: 0
  }
  convolution_param {
    num_output: 128
    pad: 0
    kernel_size: 1
    stride: 2
    weight_filler {
      type: "xavier"
    }
    bias_filler {
      type: "constant"
    }
  }
}
layer {
  name: "relu3_bn"
  type: "BatchNorm"
  bottom: "relu3_p"
  top: "relu3_bn"
  batch_norm_param {
    use_global_stats: false
  }
}
layer {
  name: "conv31"
  type: "Convolution"
  bottom: "eltwise3"
  top: "conv31"
  param {
    lr_mult: 1
    decay_mult: 1
  }
  param {
    lr_mult: 2
    decay_mult: 0
  }
  convolution_param {
    num_output: 128
    pad: 1
    kernel_size: 3
    stride: 2
    weight_filler {
      type: "xavier"
    }
    bias_filler {
      type: "constant"
    }
  }
}
layer {
  name: "bn31"
  type: "BatchNorm"
  bottom: "conv31"
  top: "bn31"
  batch_norm_param {
    use_global_stats: false
  }
}
layer {
  name: "relu31"
  type: "ReLU"
  bottom: "bn31"
  top: "bn31"
}
layer {
  name: "conv32"
  type: "Convolution"
  bottom: "bn31"
  top: "conv32"
  param {
    lr_mult: 1
    decay_mult: 1
  }
  param {
    lr_mult: 2
    decay_mult: 0
  }
  convolution_param {
    num_output: 128
    pad: 1
    kernel_size: 3
    stride: 1
    weight_filler {
      type: "xavier"
    }
    bias_filler {
      type: "constant"
    }
  }
}
layer {
  name: "bn32"
  type: "BatchNorm"
  bottom: "conv32"
  top: "bn32"
  batch_norm_param {
    use_global_stats: false
  }
}
layer {
  name: "relu32"
  type: "ReLU"
  bottom: "bn32"
  top: "bn32"
}
layer {
  name: "eltwise4"
  type: "Eltwise"
  bottom: "relu3_bn"
  bottom: "bn32"
  top: "eltwise4"
  eltwise_param {
    operation: SUM
  }
}
layer {
  name: "relu4"
  type: "ReLU"
  bottom: "eltwise4"
  top: "eltwise4"
}
layer {
  name: "conv33"
  type: "Convolution"
  bottom: "eltwise4"
  top: "conv33"
  param {
    lr_mult: 1
    decay_mult: 1
  }
  param {
    lr_mult: 2
    decay_mult: 0
  }
  convolution_param {
    num_output: 128
    pad: 1
    kernel_size: 3
    stride: 1
    weight_filler {
      type: "xavier"
    }
    bias_filler {
      type: "constant"
    }
  }
}
layer {
  name: "bn33"
  type: "BatchNorm"
  bottom: "conv33"
  top: "bn33"
  batch_norm_param {
    use_global_stats: false
  }
}
layer {
  name: "relu33"
  type: "ReLU"
  bottom: "bn33"
  top: "bn33"
}
layer {
  name: "conv34"
  type: "Convolution"
  bottom: "bn33"
  top: "conv34"
  param {
    lr_mult: 1
    decay_mult: 1
  }
  param {
    lr_mult: 2
    decay_mult: 0
  }
  convolution_param {
    num_output: 128
    pad: 1
    kernel_size: 3
    stride: 1
    weight_filler {
      type: "xavier"
    }
    bias_filler {
      type: "constant"
    }
  }
}
layer {
  name: "bn34"
  type: "BatchNorm"
  bottom: "conv34"
  top: "bn34"
  batch_norm_param {
    use_global_stats: false
  }
}
layer {
  name: "relu34"
  type: "ReLU"
  bottom: "bn34"
  top: "bn34"
}
layer {
  name: "eltwise5"
  type: "Eltwise"
  bottom: "eltwise4"
  bottom: "bn34"
  top: "eltwise5"
  eltwise_param {
    operation: SUM
  }
}
layer {
  name: "relu5"
  type: "ReLU"
  bottom: "eltwise5"
  top: "eltwise5"
}
layer {
  name: "conv35"
  type: "Convolution"
  bottom: "eltwise5"
  top: "conv35"
  param {
    lr_mult: 1
    decay_mult: 1
  }
  param {
    lr_mult: 2
    decay_mult: 0
  }
  convolution_param {
    num_output: 128
    pad: 1
    kernel_size: 3
    stride: 1
    weight_filler {
      type: "xavier"
    }
    bias_filler {
      type: "constant"
    }
  }
}
layer {
  name: "bn35"
  type: "BatchNorm"
  bottom: "conv35"
  top: "bn35"
  batch_norm_param {
    use_global_stats: false
  }
}
layer {
  name: "relu35"
  type: "ReLU"
  bottom: "bn35"
  top: "bn35"
}
layer {
  name: "conv36"
  type: "Convolution"
  bottom: "bn35"
  top: "conv36"
  param {
    lr_mult: 1
    decay_mult: 1
  }
  param {
    lr_mult: 2
    decay_mult: 0
  }
  convolution_param {
    num_output: 128
    pad: 1
    kernel_size: 3
    stride: 1
    weight_filler {
      type: "xavier"
    }
    bias_filler {
      type: "constant"
    }
  }
}
layer {
  name: "bn36"
  type: "BatchNorm"
  bottom: "conv36"
  top: "bn36"
  batch_norm_param {
    use_global_stats: false
  }
}
layer {
  name: "relu36"
  type: "ReLU"
  bottom: "bn36"
  top: "bn36"
}
layer {
  name: "eltwise6"
  type: "Eltwise"
  bottom: "eltwise5"
  bottom: "bn36"
  top: "eltwise6"
  eltwise_param {
    operation: SUM
  }
}
layer {
  name: "relu6"
  type: "ReLU"
  bottom: "eltwise6"
  top: "eltwise6"
}
layer {
  name: "conv37"
  type: "Convolution"
  bottom: "eltwise6"
  top: "conv37"
  param {
    lr_mult: 1
    decay_mult: 1
  }
  param {
    lr_mult: 2
    decay_mult: 0
  }
  convolution_param {
    num_output: 128
    pad: 1
    kernel_size: 3
    stride: 1
    weight_filler {
      type: "xavier"
    }
    bias_filler {
      type: "constant"
    }
  }
}
layer {
  name: "bn37"
  type: "BatchNorm"
  bottom: "conv37"
  top: "bn37"
  batch_norm_param {
    use_global_stats: false
  }
}
layer {
  name: "relu37"
  type: "ReLU"
  bottom: "bn37"
  top: "bn37"
}
layer {
  name: "conv38"
  type: "Convolution"
  bottom: "bn37"
  top: "conv38"
  param {
    lr_mult: 1
    decay_mult: 1
  }
  param {
    lr_mult: 2
    decay_mult: 0
  }
  convolution_param {
    num_output: 128
    pad: 1
    kernel_size: 3
    stride: 1
    weight_filler {
      type: "xavier"
    }
    bias_filler {
      type: "constant"
    }
  }
}
layer {
  name: "bn38"
  type: "BatchNorm"
  bottom: "conv38"
  top: "bn38"
  batch_norm_param {
    use_global_stats: false
  }
}
layer {
  name: "relu38"
  type: "ReLU"
  bottom: "bn38"
  top: "bn38"
}
layer {
  name: "eltwise7"
  type: "Eltwise"
  bottom: "eltwise6"
  bottom: "bn38"
  top: "eltwise7"
  eltwise_param {
    operation: SUM
  }
}
layer {
  name: "relu7"
  type: "ReLU"
  bottom: "eltwise7"
  top: "eltwise7"
}
layer {
  name: "relu7_p"
  type: "Convolution"
  bottom: "eltwise7"
  top: "relu7_p"
  param {
    lr_mult: 1
    decay_mult: 1
  }
  param {
    lr_mult: 2
    decay_mult: 0
  }
  convolution_param {
    num_output: 256
    pad: 0
    kernel_size: 1
    stride: 2
    weight_filler {
      type: "xavier"
    }
    bias_filler {
      type: "constant"
    }
  }
}
layer {
  name: "relu7_bn"
  type: "BatchNorm"
  bottom: "relu7_p"
  top: "relu7_bn"
  batch_norm_param {
    use_global_stats: false
  }
}
layer {
  name: "conv41"
  type: "Convolution"
  bottom: "eltwise7"
  top: "conv41"
  param {
    lr_mult: 1
    decay_mult: 1
  }
  param {
    lr_mult: 2
    decay_mult: 0
  }
  convolution_param {
    num_output: 256
    pad: 1
    kernel_size: 3
    stride: 2
    weight_filler {
      type: "xavier"
    }
    bias_filler {
      type: "constant"
    }
  }
}
layer {
  name: "bn41"
  type: "BatchNorm"
  bottom: "conv41"
  top: "bn41"
  batch_norm_param {
    use_global_stats: false
  }
}
layer {
  name: "relu41"
  type: "ReLU"
  bottom: "bn41"
  top: "bn41"
}
layer {
  name: "conv42"
  type: "Convolution"
  bottom: "bn41"
  top: "conv42"
  param {
    lr_mult: 1
    decay_mult: 1
  }
  param {
    lr_mult: 2
    decay_mult: 0
  }
  convolution_param {
    num_output: 256
    pad: 1
    kernel_size: 3
    stride: 1
    weight_filler {
      type: "xavier"
    }
    bias_filler {
      type: "constant"
    }
  }
}
layer {
  name: "bn42"
  type: "BatchNorm"
  bottom: "conv42"
  top: "bn42"
  batch_norm_param {
    use_global_stats: false
  }
}
layer {
  name: "relu42"
  type: "ReLU"
  bottom: "bn42"
  top: "bn42"
}
layer {
  name: "eltwise8"
  type: "Eltwise"
  bottom: "relu7_bn"
  bottom: "bn42"
  top: "eltwise8"
  eltwise_param {
    operation: SUM
  }
}
layer {
  name: "relu8"
  type: "ReLU"
  bottom: "eltwise8"
  top: "eltwise8"
}
layer {
  name: "conv43"
  type: "Convolution"
  bottom: "eltwise8"
  top: "conv43"
  param {
    lr_mult: 1
    decay_mult: 1
  }
  param {
    lr_mult: 2
    decay_mult: 0
  }
  convolution_param {
    num_output: 256
    pad: 1
    kernel_size: 3
    stride: 1
    weight_filler {
      type: "xavier"
    }
    bias_filler {
      type: "constant"
    }
  }
}
layer {
  name: "bn43"
  type: "BatchNorm"
  bottom: "conv43"
  top: "bn43"
  batch_norm_param {
    use_global_stats: false
  }
}
layer {
  name: "relu43"
  type: "ReLU"
  bottom: "bn43"
  top: "bn43"
}
layer {
  name: "conv44"
  type: "Convolution"
  bottom: "bn43"
  top: "conv44"
  param {
    lr_mult: 1
    decay_mult: 1
  }
  param {
    lr_mult: 2
    decay_mult: 0
  }
  convolution_param {
    num_output: 256
    pad: 1
    kernel_size: 3
    stride: 1
    weight_filler {
      type: "xavier"
    }
    bias_filler {
      type: "constant"
    }
  }
}
layer {
  name: "bn44"
  type: "BatchNorm"
  bottom: "conv44"
  top: "bn44"
  batch_norm_param {
    use_global_stats: false
  }
}
layer {
  name: "relu44"
  type: "ReLU"
  bottom: "bn44"
  top: "bn44"
}
layer {
  name: "eltwise9"
  type: "Eltwise"
  bottom: "eltwise8"
  bottom: "bn44"
  top: "eltwise9"
  eltwise_param {
    operation: SUM
  }
}
layer {
  name: "relu9"
  type: "ReLU"
  bottom: "eltwise9"
  top: "eltwise9"
}
layer {
  name: "conv45"
  type: "Convolution"
  bottom: "eltwise9"
  top: "conv45"
  param {
    lr_mult: 1
    decay_mult: 1
  }
  param {
    lr_mult: 2
    decay_mult: 0
  }
  convolution_param {
    num_output: 256
    pad: 1
    kernel_size: 3
    stride: 1
    weight_filler {
      type: "xavier"
    }
    bias_filler {
      type: "constant"
    }
  }
}
layer {
  name: "bn45"
  type: "BatchNorm"
  bottom: "conv45"
  top: "bn45"
  batch_norm_param {
    use_global_stats: false
  }
}
layer {
  name: "relu45"
  type: "ReLU"
  bottom: "bn45"
  top: "bn45"
}
layer {
  name: "conv46"
  type: "Convolution"
  bottom: "bn45"
  top: "conv46"
  param {
    lr_mult: 1
    decay_mult: 1
  }
  param {
    lr_mult: 2
    decay_mult: 0
  }
  convolution_param {
    num_output: 256
    pad: 1
    kernel_size: 3
    stride: 1
    weight_filler {
      type: "xavier"
    }
    bias_filler {
      type: "constant"
    }
  }
}
layer {
  name: "bn46"
  type: "BatchNorm"
  bottom: "conv46"
  top: "bn46"
  batch_norm_param {
    use_global_stats: false
  }
}
layer {
  name: "relu46"
  type: "ReLU"
  bottom: "bn46"
  top: "bn46"
}
layer {
  name: "eltwise10"
  type: "Eltwise"
  bottom: "eltwise9"
  bottom: "bn46"
  top: "eltwise10"
  eltwise_param {
    operation: SUM
  }
}
layer {
  name: "relu10"
  type: "ReLU"
  bottom: "eltwise10"
  top: "eltwise10"
}
layer {
  name: "conv47"
  type: "Convolution"
  bottom: "eltwise10"
  top: "conv47"
  param {
    lr_mult: 1
    decay_mult: 1
  }
  param {
    lr_mult: 2
    decay_mult: 0
  }
  convolution_param {
    num_output: 256
    pad: 1
    kernel_size: 3
    stride: 1
    weight_filler {
      type: "xavier"
    }
    bias_filler {
      type: "constant"
    }
  }
}
layer {
  name: "bn47"
  type: "BatchNorm"
  bottom: "conv47"
  top: "bn47"
  batch_norm_param {
    use_global_stats: false
  }
}
layer {
  name: "relu47"
  type: "ReLU"
  bottom: "bn47"
  top: "bn47"
}
layer {
  name: "conv48"
  type: "Convolution"
  bottom: "bn47"
  top: "conv48"
  param {
    lr_mult: 1
    decay_mult: 1
  }
  param {
    lr_mult: 2
    decay_mult: 0
  }
  convolution_param {
    num_output: 256
    pad: 1
    kernel_size: 3
    stride: 1
    weight_filler {
      type: "xavier"
    }
    bias_filler {
      type: "constant"
    }
  }
}
layer {
  name: "bn48"
  type: "BatchNorm"
  bottom: "conv48"
  top: "bn48"
  batch_norm_param {
    use_global_stats: false
  }
}
layer {
  name: "relu48"
  type: "ReLU"
  bottom: "bn48"
  top: "bn48"
}
layer {
  name: "eltwise11"
  type: "Eltwise"
  bottom: "eltwise10"
  bottom: "bn48"
  top: "eltwise11"
  eltwise_param {
    operation: SUM
  }
}
layer {
  name: "relu11"
  type: "ReLU"
  bottom: "eltwise11"
  top: "eltwise11"
}
layer {
  name: "conv49"
  type: "Convolution"
  bottom: "eltwise11"
  top: "conv49"
  param {
    lr_mult: 1
    decay_mult: 1
  }
  param {
    lr_mult: 2
    decay_mult: 0
  }
  convolution_param {
    num_output: 256
    pad: 1
    kernel_size: 3
    stride: 1
    weight_filler {
      type: "xavier"
    }
    bias_filler {
      type: "constant"
    }
  }
}
layer {
  name: "bn49"
  type: "BatchNorm"
  bottom: "conv49"
  top: "bn49"
  batch_norm_param {
    use_global_stats: false
  }
}
layer {
  name: "relu49"
  type: "ReLU"
  bottom: "bn49"
  top: "bn49"
}
layer {
  name: "conv410"
  type: "Convolution"
  bottom: "bn49"
  top: "conv410"
  param {
    lr_mult: 1
    decay_mult: 1
  }
  param {
    lr_mult: 2
    decay_mult: 0
  }
  convolution_param {
    num_output: 256
    pad: 1
    kernel_size: 3
    stride: 1
    weight_filler {
      type: "xavier"
    }
    bias_filler {
      type: "constant"
    }
  }
}
layer {
  name: "bn410"
  type: "BatchNorm"
  bottom: "conv410"
  top: "bn410"
  batch_norm_param {
    use_global_stats: false
  }
}
layer {
  name: "relu410"
  type: "ReLU"
  bottom: "bn410"
  top: "bn410"
}
layer {
  name: "eltwise12"
  type: "Eltwise"
  bottom: "eltwise11"
  bottom: "bn410"
  top: "eltwise12"
  eltwise_param {
    operation: SUM
  }
}
layer {
  name: "relu12"
  type: "ReLU"
  bottom: "eltwise12"
  top: "eltwise12"
}
layer {
  name: "conv411"
  type: "Convolution"
  bottom: "eltwise12"
  top: "conv411"
  param {
    lr_mult: 1
    decay_mult: 1
  }
  param {
    lr_mult: 2
    decay_mult: 0
  }
  convolution_param {
    num_output: 256
    pad: 1
    kernel_size: 3
    stride: 1
    weight_filler {
      type: "xavier"
    }
    bias_filler {
      type: "constant"
    }
  }
}
layer {
  name: "bn411"
  type: "BatchNorm"
  bottom: "conv411"
  top: "bn411"
  batch_norm_param {
    use_global_stats: false
  }
}
layer {
  name: "relu411"
  type: "ReLU"
  bottom: "bn411"
  top: "bn411"
}
layer {
  name: "conv412"
  type: "Convolution"
  bottom: "bn411"
  top: "conv412"
  param {
    lr_mult: 1
    decay_mult: 1
  }
  param {
    lr_mult: 2
    decay_mult: 0
  }
  convolution_param {
    num_output: 256
    pad: 1
    kernel_size: 3
    stride: 1
    weight_filler {
      type: "xavier"
    }
    bias_filler {
      type: "constant"
    }
  }
}
layer {
  name: "bn412"
  type: "BatchNorm"
  bottom: "conv412"
  top: "bn412"
  batch_norm_param {
    use_global_stats: false
  }
}
layer {
  name: "relu412"
  type: "ReLU"
  bottom: "bn412"
  top: "bn412"
}
layer {
  name: "eltwise13"
  type: "Eltwise"
  bottom: "eltwise12"
  bottom: "bn412"
  top: "eltwise13"
  eltwise_param {
    operation: SUM
  }
}
layer {
  name: "relu13"
  type: "ReLU"
  bottom: "eltwise13"
  top: "eltwise13"
}
layer {
  name: "relu13_p"
  type: "Convolution"
  bottom: "eltwise12"
  top: "relu13_p"
  param {
    lr_mult: 1
    decay_mult: 1
  }
  param {
    lr_mult: 2
    decay_mult: 0
  }
  convolution_param {
    num_output: 512
    pad: 0
    kernel_size: 1
    stride: 2
    weight_filler {
      type: "xavier"
    }
    bias_filler {
      type: "constant"
    }
  }
}
layer {
  name: "relu13_bn"
  type: "BatchNorm"
  bottom: "relu13_p"
  top: "relu13_bn"
  batch_norm_param {
    use_global_stats: false
  }
}
layer {
  name: "conv51"
  type: "Convolution"
  bottom: "eltwise13"
  top: "conv51"
  param {
    lr_mult: 1
    decay_mult: 1
  }
  param {
    lr_mult: 2
    decay_mult: 0
  }
  convolution_param {
    num_output: 512
    pad: 1
    kernel_size: 3
    stride: 2
    weight_filler {
      type: "xavier"
    }
    bias_filler {
      type: "constant"
    }
  }
}
layer {
  name: "bn51"
  type: "BatchNorm"
  bottom: "conv51"
  top: "bn51"
  batch_norm_param {
    use_global_stats: false
  }
}
layer {
  name: "relu51"
  type: "ReLU"
  bottom: "bn51"
  top: "bn51"
}
layer {
  name: "conv52"
  type: "Convolution"
  bottom: "bn51"
  top: "conv52"
  param {
    lr_mult: 1
    decay_mult: 1
  }
  param {
    lr_mult: 2
    decay_mult: 0
  }
  convolution_param {
    num_output: 512
    pad: 1
    kernel_size: 3
    stride: 1
    weight_filler {
      type: "xavier"
    }
    bias_filler {
      type: "constant"
    }
  }
}
layer {
  name: "bn52"
  type: "BatchNorm"
  bottom: "conv52"
  top: "bn52"
  batch_norm_param {
    use_global_stats: false
  }
}
layer {
  name: "relu52"
  type: "ReLU"
  bottom: "bn52"
  top: "bn52"
}
layer {
  name: "eltwise14"
  type: "Eltwise"
  bottom: "relu13_bn"
  bottom: "bn52"
  top: "eltwise14"
  eltwise_param {
    operation: SUM
  }
}
layer {
  name: "relu14"
  type: "ReLU"
  bottom: "eltwise14"
  top: "eltwise14"
}
layer {
  name: "conv53"
  type: "Convolution"
  bottom: "eltwise14"
  top: "conv53"
  param {
    lr_mult: 1
    decay_mult: 1
  }
  param {
    lr_mult: 2
    decay_mult: 0
  }
  convolution_param {
    num_output: 512
    pad: 1
    kernel_size: 3
    stride: 1
    weight_filler {
      type: "xavier"
    }
    bias_filler {
      type: "constant"
    }
  }
}
layer {
  name: "bn53"
  type: "BatchNorm"
  bottom: "conv53"
  top: "bn53"
  batch_norm_param {
    use_global_stats: false
  }
}
layer {
  name: "relu53"
  type: "ReLU"
  bottom: "bn53"
  top: "bn53"
}
layer {
  name: "conv54"
  type: "Convolution"
  bottom: "bn53"
  top: "conv54"
  param {
    lr_mult: 1
    decay_mult: 1
  }
  param {
    lr_mult: 2
    decay_mult: 0
  }
  convolution_param {
    num_output: 512
    pad: 1
    kernel_size: 3
    stride: 1
    weight_filler {
      type: "xavier"
    }
    bias_filler {
      type: "constant"
    }
  }
}
layer {
  name: "bn54"
  type: "BatchNorm"
  bottom: "conv54"
  top: "bn54"
  batch_norm_param {
    use_global_stats: false
  }
}
layer {
  name: "relu54"
  type: "ReLU"
  bottom: "bn54"
  top: "bn54"
}
layer {
  name: "eltwise15"
  type: "Eltwise"
  bottom: "eltwise14"
  bottom: "bn54"
  top: "eltwise15"
  eltwise_param {
    operation: SUM
  }
}
layer {
  name: "relu15"
  type: "ReLU"
  bottom: "eltwise15"
  top: "eltwise15"
}
layer {
  name: "conv55"
  type: "Convolution"
  bottom: "eltwise15"
  top: "conv55"
  param {
    lr_mult: 1
    decay_mult: 1
  }
  param {
    lr_mult: 2
    decay_mult: 0
  }
  convolution_param {
    num_output: 512
    pad: 1
    kernel_size: 3
    stride: 1
    weight_filler {
      type: "xavier"
    }
    bias_filler {
      type: "constant"
    }
  }
}
layer {
  name: "bn55"
  type: "BatchNorm"
  bottom: "conv55"
  top: "bn55"
  batch_norm_param {
    use_global_stats: false
  }
}
layer {
  name: "relu55"
  type: "ReLU"
  bottom: "bn55"
  top: "bn55"
}
layer {
  name: "conv56"
  type: "Convolution"
  bottom: "bn55"
  top: "conv56"
  param {
    lr_mult: 1
    decay_mult: 1
  }
  param {
    lr_mult: 2
    decay_mult: 0
  }
  convolution_param {
    num_output: 512
    pad: 1
    kernel_size: 3
    stride: 1
    weight_filler {
      type: "xavier"
    }
    bias_filler {
      type: "constant"
    }
  }
}
layer {
  name: "bn56"
  type: "BatchNorm"
  bottom: "conv56"
  top: "bn56"
  batch_norm_param {
    use_global_stats: false
  }
}
layer {
  name: "relu56"
  type: "ReLU"
  bottom: "bn56"
  top: "bn56"
}
layer {
  name: "eltwise16"
  type: "Eltwise"
  bottom: "eltwise15"
  bottom: "bn56"
  top: "eltwise16"
  eltwise_param {
    operation: SUM
  }
}
layer {
  name: "relu16"
  type: "ReLU"
  bottom: "eltwise16"
  top: "eltwise16"
}
layer {
  name: "pool5"
  type: "Pooling"
  bottom: "eltwise16"
  top: "pool5"
  pooling_param {
    pool: AVE
    kernel_size: 7
    stride: 1
  }
}
layer {
  name: "ip1"
  type: "InnerProduct"
  bottom: "pool5"
  top: "ip1"
  param {
    lr_mult: 1
    decay_mult: 1
  }
  param {
    lr_mult: 2
    decay_mult: 0
  }
  inner_product_param {
    num_output: 10575
    weight_filler {
      type: "xavier"
    }
    bias_filler {
      type: "constant"
    }
  }
}
layer {
  name: "loss"
  type: "SoftmaxWithLoss"
  bottom: "ip1"
  bottom: "label"
  top: "loss"
  include {
    phase: TRAIN
  }
}
layer {
  name: "accuracy"
  type: "Accuracy"
  bottom: "ip1"
  bottom: "label"
  top: "accuracy"
}
I1221 18:17:32.252717 18896 layer_factory.hpp:76] Creating layer data
I1221 18:17:32.253276 18896 net.cpp:110] Creating Layer data
I1221 18:17:32.253309 18896 net.cpp:433] data -> data
I1221 18:17:32.253409 18896 net.cpp:433] data -> label
I1221 18:17:32.253453 18896 data_transformer.cpp:23] Loading mean file from: ./mean_224gray.binaryproto
I1221 18:17:32.256546 18898 db_lmdb.cpp:22] Opened lmdb ./train_224gray_lmdb
I1221 18:17:32.341423 18896 data_layer.cpp:44] output data size: 48,1,224,224
I1221 18:17:32.369071 18896 net.cpp:155] Setting up data
I1221 18:17:32.369127 18896 net.cpp:163] Top shape: 48 1 224 224 (2408448)
I1221 18:17:32.369141 18896 net.cpp:163] Top shape: 48 (48)
I1221 18:17:32.369159 18896 layer_factory.hpp:76] Creating layer label_data_1_split
I1221 18:17:32.369185 18896 net.cpp:110] Creating Layer label_data_1_split
I1221 18:17:32.369199 18896 net.cpp:477] label_data_1_split <- label
I1221 18:17:32.369220 18896 net.cpp:433] label_data_1_split -> label_data_1_split_0
I1221 18:17:32.369241 18896 net.cpp:433] label_data_1_split -> label_data_1_split_1
I1221 18:17:32.369262 18896 net.cpp:155] Setting up label_data_1_split
I1221 18:17:32.369276 18896 net.cpp:163] Top shape: 48 (48)
I1221 18:17:32.369287 18896 net.cpp:163] Top shape: 48 (48)
I1221 18:17:32.369302 18896 layer_factory.hpp:76] Creating layer conv01
I1221 18:17:32.369325 18896 net.cpp:110] Creating Layer conv01
I1221 18:17:32.369338 18896 net.cpp:477] conv01 <- data
I1221 18:17:32.369351 18896 net.cpp:433] conv01 -> conv01
I1221 18:17:34.306203 18896 net.cpp:155] Setting up conv01
I1221 18:17:34.306253 18896 net.cpp:163] Top shape: 48 64 112 112 (38535168)
I1221 18:17:34.306291 18896 layer_factory.hpp:76] Creating layer bn01
I1221 18:17:34.306318 18896 net.cpp:110] Creating Layer bn01
I1221 18:17:34.306370 18896 net.cpp:477] bn01 <- conv01
I1221 18:17:34.306392 18896 net.cpp:433] bn01 -> bn01
I1221 18:17:34.306490 18896 net.cpp:155] Setting up bn01
I1221 18:17:34.306515 18896 net.cpp:163] Top shape: 48 64 112 112 (38535168)
I1221 18:17:34.306543 18896 layer_factory.hpp:76] Creating layer relu01
I1221 18:17:34.306562 18896 net.cpp:110] Creating Layer relu01
I1221 18:17:34.306576 18896 net.cpp:477] relu01 <- bn01
I1221 18:17:34.306589 18896 net.cpp:419] relu01 -> bn01 (in-place)
I1221 18:17:34.306666 18896 net.cpp:155] Setting up relu01
I1221 18:17:34.306684 18896 net.cpp:163] Top shape: 48 64 112 112 (38535168)
I1221 18:17:34.306697 18896 layer_factory.hpp:76] Creating layer pool1
I1221 18:17:34.306716 18896 net.cpp:110] Creating Layer pool1
I1221 18:17:34.306727 18896 net.cpp:477] pool1 <- bn01
I1221 18:17:34.306741 18896 net.cpp:433] pool1 -> pool1
I1221 18:17:34.306829 18896 net.cpp:155] Setting up pool1
I1221 18:17:34.306849 18896 net.cpp:163] Top shape: 48 64 56 56 (9633792)
I1221 18:17:34.306860 18896 layer_factory.hpp:76] Creating layer pool1_pool1_0_split
I1221 18:17:34.306874 18896 net.cpp:110] Creating Layer pool1_pool1_0_split
I1221 18:17:34.306886 18896 net.cpp:477] pool1_pool1_0_split <- pool1
I1221 18:17:34.306941 18896 net.cpp:433] pool1_pool1_0_split -> pool1_pool1_0_split_0
I1221 18:17:34.306957 18896 net.cpp:433] pool1_pool1_0_split -> pool1_pool1_0_split_1
I1221 18:17:34.306974 18896 net.cpp:155] Setting up pool1_pool1_0_split
I1221 18:17:34.306988 18896 net.cpp:163] Top shape: 48 64 56 56 (9633792)
I1221 18:17:34.307000 18896 net.cpp:163] Top shape: 48 64 56 56 (9633792)
I1221 18:17:34.307013 18896 layer_factory.hpp:76] Creating layer conv21
I1221 18:17:34.307030 18896 net.cpp:110] Creating Layer conv21
I1221 18:17:34.307041 18896 net.cpp:477] conv21 <- pool1_pool1_0_split_0
I1221 18:17:34.307055 18896 net.cpp:433] conv21 -> conv21
I1221 18:17:34.307663 18896 net.cpp:155] Setting up conv21
I1221 18:17:34.307687 18896 net.cpp:163] Top shape: 48 64 56 56 (9633792)
I1221 18:17:34.307704 18896 layer_factory.hpp:76] Creating layer bn21
I1221 18:17:34.307721 18896 net.cpp:110] Creating Layer bn21
I1221 18:17:34.307734 18896 net.cpp:477] bn21 <- conv21
I1221 18:17:34.307749 18896 net.cpp:433] bn21 -> bn21
I1221 18:17:34.307826 18896 net.cpp:155] Setting up bn21
I1221 18:17:34.307843 18896 net.cpp:163] Top shape: 48 64 56 56 (9633792)
I1221 18:17:34.307863 18896 layer_factory.hpp:76] Creating layer relu21
I1221 18:17:34.307879 18896 net.cpp:110] Creating Layer relu21
I1221 18:17:34.307890 18896 net.cpp:477] relu21 <- bn21
I1221 18:17:34.307904 18896 net.cpp:419] relu21 -> bn21 (in-place)
I1221 18:17:34.307974 18896 net.cpp:155] Setting up relu21
I1221 18:17:34.307992 18896 net.cpp:163] Top shape: 48 64 56 56 (9633792)
I1221 18:17:34.308006 18896 layer_factory.hpp:76] Creating layer conv22
I1221 18:17:34.308019 18896 net.cpp:110] Creating Layer conv22
I1221 18:17:34.308032 18896 net.cpp:477] conv22 <- bn21
I1221 18:17:34.308046 18896 net.cpp:433] conv22 -> conv22
I1221 18:17:34.308641 18896 net.cpp:155] Setting up conv22
I1221 18:17:34.308665 18896 net.cpp:163] Top shape: 48 64 56 56 (9633792)
I1221 18:17:34.308681 18896 layer_factory.hpp:76] Creating layer bn22
I1221 18:17:34.308696 18896 net.cpp:110] Creating Layer bn22
I1221 18:17:34.308708 18896 net.cpp:477] bn22 <- conv22
I1221 18:17:34.308722 18896 net.cpp:433] bn22 -> bn22
I1221 18:17:34.308797 18896 net.cpp:155] Setting up bn22
I1221 18:17:34.308816 18896 net.cpp:163] Top shape: 48 64 56 56 (9633792)
I1221 18:17:34.308835 18896 layer_factory.hpp:76] Creating layer relu22
I1221 18:17:34.308850 18896 net.cpp:110] Creating Layer relu22
I1221 18:17:34.308861 18896 net.cpp:477] relu22 <- bn22
I1221 18:17:34.308876 18896 net.cpp:419] relu22 -> bn22 (in-place)
I1221 18:17:34.309048 18896 net.cpp:155] Setting up relu22
I1221 18:17:34.309067 18896 net.cpp:163] Top shape: 48 64 56 56 (9633792)
I1221 18:17:34.309079 18896 layer_factory.hpp:76] Creating layer eltwise1
I1221 18:17:34.309097 18896 net.cpp:110] Creating Layer eltwise1
I1221 18:17:34.309108 18896 net.cpp:477] eltwise1 <- pool1_pool1_0_split_1
I1221 18:17:34.309118 18896 net.cpp:477] eltwise1 <- bn22
I1221 18:17:34.309131 18896 net.cpp:433] eltwise1 -> eltwise1
I1221 18:17:34.309152 18896 net.cpp:155] Setting up eltwise1
I1221 18:17:34.309178 18896 net.cpp:163] Top shape: 48 64 56 56 (9633792)
I1221 18:17:34.309188 18896 layer_factory.hpp:76] Creating layer relu1
I1221 18:17:34.309201 18896 net.cpp:110] Creating Layer relu1
I1221 18:17:34.309209 18896 net.cpp:477] relu1 <- eltwise1
I1221 18:17:34.309221 18896 net.cpp:419] relu1 -> eltwise1 (in-place)
I1221 18:17:34.309284 18896 net.cpp:155] Setting up relu1
I1221 18:17:34.309305 18896 net.cpp:163] Top shape: 48 64 56 56 (9633792)
I1221 18:17:34.309315 18896 layer_factory.hpp:76] Creating layer eltwise1_relu1_0_split
I1221 18:17:34.309327 18896 net.cpp:110] Creating Layer eltwise1_relu1_0_split
I1221 18:17:34.309336 18896 net.cpp:477] eltwise1_relu1_0_split <- eltwise1
I1221 18:17:34.309348 18896 net.cpp:433] eltwise1_relu1_0_split -> eltwise1_relu1_0_split_0
I1221 18:17:34.309361 18896 net.cpp:433] eltwise1_relu1_0_split -> eltwise1_relu1_0_split_1
I1221 18:17:34.309376 18896 net.cpp:155] Setting up eltwise1_relu1_0_split
I1221 18:17:34.309386 18896 net.cpp:163] Top shape: 48 64 56 56 (9633792)
I1221 18:17:34.345963 18896 net.cpp:163] Top shape: 48 64 56 56 (9633792)
I1221 18:17:34.345981 18896 layer_factory.hpp:76] Creating layer conv23
I1221 18:17:34.346009 18896 net.cpp:110] Creating Layer conv23
I1221 18:17:34.346021 18896 net.cpp:477] conv23 <- eltwise1_relu1_0_split_0
I1221 18:17:34.346043 18896 net.cpp:433] conv23 -> conv23
I1221 18:17:34.346673 18896 net.cpp:155] Setting up conv23
I1221 18:17:34.346695 18896 net.cpp:163] Top shape: 48 64 56 56 (9633792)
I1221 18:17:34.346714 18896 layer_factory.hpp:76] Creating layer bn23
I1221 18:17:34.346731 18896 net.cpp:110] Creating Layer bn23
I1221 18:17:34.346743 18896 net.cpp:477] bn23 <- conv23
I1221 18:17:34.346758 18896 net.cpp:433] bn23 -> bn23
I1221 18:17:34.346837 18896 net.cpp:155] Setting up bn23
I1221 18:17:34.346854 18896 net.cpp:163] Top shape: 48 64 56 56 (9633792)
I1221 18:17:34.346880 18896 layer_factory.hpp:76] Creating layer relu23
I1221 18:17:34.346895 18896 net.cpp:110] Creating Layer relu23
I1221 18:17:34.346907 18896 net.cpp:477] relu23 <- bn23
I1221 18:17:34.346920 18896 net.cpp:419] relu23 -> bn23 (in-place)
I1221 18:17:34.347002 18896 net.cpp:155] Setting up relu23
I1221 18:17:34.347020 18896 net.cpp:163] Top shape: 48 64 56 56 (9633792)
I1221 18:17:34.347033 18896 layer_factory.hpp:76] Creating layer conv24
I1221 18:17:34.347048 18896 net.cpp:110] Creating Layer conv24
I1221 18:17:34.347059 18896 net.cpp:477] conv24 <- bn23
I1221 18:17:34.347074 18896 net.cpp:433] conv24 -> conv24
I1221 18:17:34.347676 18896 net.cpp:155] Setting up conv24
I1221 18:17:34.347698 18896 net.cpp:163] Top shape: 48 64 56 56 (9633792)
I1221 18:17:34.347714 18896 layer_factory.hpp:76] Creating layer bn24
I1221 18:17:34.347729 18896 net.cpp:110] Creating Layer bn24
I1221 18:17:34.347741 18896 net.cpp:477] bn24 <- conv24
I1221 18:17:34.347756 18896 net.cpp:433] bn24 -> bn24
I1221 18:17:34.347834 18896 net.cpp:155] Setting up bn24
I1221 18:17:34.347853 18896 net.cpp:163] Top shape: 48 64 56 56 (9633792)
I1221 18:17:34.347870 18896 layer_factory.hpp:76] Creating layer relu24
I1221 18:17:34.347887 18896 net.cpp:110] Creating Layer relu24
I1221 18:17:34.347898 18896 net.cpp:477] relu24 <- bn24
I1221 18:17:34.347911 18896 net.cpp:419] relu24 -> bn24 (in-place)
I1221 18:17:34.347980 18896 net.cpp:155] Setting up relu24
I1221 18:17:34.347998 18896 net.cpp:163] Top shape: 48 64 56 56 (9633792)
I1221 18:17:34.348011 18896 layer_factory.hpp:76] Creating layer bn24_relu24_0_split
I1221 18:17:34.348026 18896 net.cpp:110] Creating Layer bn24_relu24_0_split
I1221 18:17:34.348037 18896 net.cpp:477] bn24_relu24_0_split <- bn24
I1221 18:17:34.348050 18896 net.cpp:433] bn24_relu24_0_split -> bn24_relu24_0_split_0
I1221 18:17:34.348067 18896 net.cpp:433] bn24_relu24_0_split -> bn24_relu24_0_split_1
I1221 18:17:34.348083 18896 net.cpp:155] Setting up bn24_relu24_0_split
I1221 18:17:34.348098 18896 net.cpp:163] Top shape: 48 64 56 56 (9633792)
I1221 18:17:34.348109 18896 net.cpp:163] Top shape: 48 64 56 56 (9633792)
I1221 18:17:34.348121 18896 layer_factory.hpp:76] Creating layer eltwise2
I1221 18:17:34.348135 18896 net.cpp:110] Creating Layer eltwise2
I1221 18:17:34.348147 18896 net.cpp:477] eltwise2 <- eltwise1_relu1_0_split_1
I1221 18:17:34.348160 18896 net.cpp:477] eltwise2 <- bn24_relu24_0_split_0
I1221 18:17:34.348175 18896 net.cpp:433] eltwise2 -> eltwise2
I1221 18:17:34.348191 18896 net.cpp:155] Setting up eltwise2
I1221 18:17:34.348204 18896 net.cpp:163] Top shape: 48 64 56 56 (9633792)
I1221 18:17:34.348217 18896 layer_factory.hpp:76] Creating layer relu2
I1221 18:17:34.348229 18896 net.cpp:110] Creating Layer relu2
I1221 18:17:34.348242 18896 net.cpp:477] relu2 <- eltwise2
I1221 18:17:34.348255 18896 net.cpp:419] relu2 -> eltwise2 (in-place)
I1221 18:17:34.348428 18896 net.cpp:155] Setting up relu2
I1221 18:17:34.348449 18896 net.cpp:163] Top shape: 48 64 56 56 (9633792)
I1221 18:17:34.348461 18896 layer_factory.hpp:76] Creating layer conv25
I1221 18:17:34.348477 18896 net.cpp:110] Creating Layer conv25
I1221 18:17:34.348490 18896 net.cpp:477] conv25 <- bn24_relu24_0_split_1
I1221 18:17:34.348520 18896 net.cpp:433] conv25 -> conv25
I1221 18:17:34.349126 18896 net.cpp:155] Setting up conv25
I1221 18:17:34.349146 18896 net.cpp:163] Top shape: 48 64 56 56 (9633792)
I1221 18:17:34.349161 18896 layer_factory.hpp:76] Creating layer bn25
I1221 18:17:34.349175 18896 net.cpp:110] Creating Layer bn25
I1221 18:17:34.349185 18896 net.cpp:477] bn25 <- conv25
I1221 18:17:34.349200 18896 net.cpp:433] bn25 -> bn25
I1221 18:17:34.349275 18896 net.cpp:155] Setting up bn25
I1221 18:17:34.349292 18896 net.cpp:163] Top shape: 48 64 56 56 (9633792)
I1221 18:17:34.349323 18896 layer_factory.hpp:76] Creating layer relu25
I1221 18:17:34.349337 18896 net.cpp:110] Creating Layer relu25
I1221 18:17:34.349349 18896 net.cpp:477] relu25 <- bn25
I1221 18:17:34.349365 18896 net.cpp:419] relu25 -> bn25 (in-place)
I1221 18:17:34.349436 18896 net.cpp:155] Setting up relu25
I1221 18:17:34.349450 18896 net.cpp:163] Top shape: 48 64 56 56 (9633792)
I1221 18:17:34.349462 18896 layer_factory.hpp:76] Creating layer conv26
I1221 18:17:34.349477 18896 net.cpp:110] Creating Layer conv26
I1221 18:17:34.349486 18896 net.cpp:477] conv26 <- bn25
I1221 18:17:34.349499 18896 net.cpp:433] conv26 -> conv26
I1221 18:17:34.350697 18896 net.cpp:155] Setting up conv26
I1221 18:17:34.350718 18896 net.cpp:163] Top shape: 48 64 56 56 (9633792)
I1221 18:17:34.350733 18896 layer_factory.hpp:76] Creating layer bn26
I1221 18:17:34.350746 18896 net.cpp:110] Creating Layer bn26
I1221 18:17:34.350764 18896 net.cpp:477] bn26 <- conv26
I1221 18:17:34.350775 18896 net.cpp:433] bn26 -> bn26
I1221 18:17:34.350854 18896 net.cpp:155] Setting up bn26
I1221 18:17:34.350872 18896 net.cpp:163] Top shape: 48 64 56 56 (9633792)
I1221 18:17:34.350893 18896 layer_factory.hpp:76] Creating layer relu26
I1221 18:17:34.350905 18896 net.cpp:110] Creating Layer relu26
I1221 18:17:34.350916 18896 net.cpp:477] relu26 <- bn26
I1221 18:17:34.350929 18896 net.cpp:419] relu26 -> bn26 (in-place)
I1221 18:17:34.350997 18896 net.cpp:155] Setting up relu26
I1221 18:17:34.351013 18896 net.cpp:163] Top shape: 48 64 56 56 (9633792)
I1221 18:17:34.351023 18896 layer_factory.hpp:76] Creating layer eltwise3
I1221 18:17:34.351037 18896 net.cpp:110] Creating Layer eltwise3
I1221 18:17:34.351047 18896 net.cpp:477] eltwise3 <- eltwise2
I1221 18:17:34.351058 18896 net.cpp:477] eltwise3 <- bn26
I1221 18:17:34.351071 18896 net.cpp:433] eltwise3 -> eltwise3
I1221 18:17:34.351085 18896 net.cpp:155] Setting up eltwise3
I1221 18:17:34.351097 18896 net.cpp:163] Top shape: 48 64 56 56 (9633792)
I1221 18:17:34.351107 18896 layer_factory.hpp:76] Creating layer relu3
I1221 18:17:34.351121 18896 net.cpp:110] Creating Layer relu3
I1221 18:17:34.351131 18896 net.cpp:477] relu3 <- eltwise3
I1221 18:17:34.351145 18896 net.cpp:419] relu3 -> eltwise3 (in-place)
I1221 18:17:34.351210 18896 net.cpp:155] Setting up relu3
I1221 18:17:34.351225 18896 net.cpp:163] Top shape: 48 64 56 56 (9633792)
I1221 18:17:34.351235 18896 layer_factory.hpp:76] Creating layer eltwise3_relu3_0_split
I1221 18:17:34.351248 18896 net.cpp:110] Creating Layer eltwise3_relu3_0_split
I1221 18:17:34.351258 18896 net.cpp:477] eltwise3_relu3_0_split <- eltwise3
I1221 18:17:34.351270 18896 net.cpp:433] eltwise3_relu3_0_split -> eltwise3_relu3_0_split_0
I1221 18:17:34.351284 18896 net.cpp:433] eltwise3_relu3_0_split -> eltwise3_relu3_0_split_1
I1221 18:17:34.351297 18896 net.cpp:155] Setting up eltwise3_relu3_0_split
I1221 18:17:34.351310 18896 net.cpp:163] Top shape: 48 64 56 56 (9633792)
I1221 18:17:34.351320 18896 net.cpp:163] Top shape: 48 64 56 56 (9633792)
I1221 18:17:34.351330 18896 layer_factory.hpp:76] Creating layer relu3_p
I1221 18:17:34.351344 18896 net.cpp:110] Creating Layer relu3_p
I1221 18:17:34.351354 18896 net.cpp:477] relu3_p <- eltwise3_relu3_0_split_0
I1221 18:17:34.351367 18896 net.cpp:433] relu3_p -> relu3_p
I1221 18:17:34.352346 18896 net.cpp:155] Setting up relu3_p
I1221 18:17:34.352367 18896 net.cpp:163] Top shape: 48 128 28 28 (4816896)
I1221 18:17:34.352382 18896 layer_factory.hpp:76] Creating layer relu3_bn
I1221 18:17:34.352411 18896 net.cpp:110] Creating Layer relu3_bn
I1221 18:17:34.352421 18896 net.cpp:477] relu3_bn <- relu3_p
I1221 18:17:34.352435 18896 net.cpp:433] relu3_bn -> relu3_bn
I1221 18:17:34.352509 18896 net.cpp:155] Setting up relu3_bn
I1221 18:17:34.352525 18896 net.cpp:163] Top shape: 48 128 28 28 (4816896)
I1221 18:17:34.352545 18896 layer_factory.hpp:76] Creating layer conv31
I1221 18:17:34.352561 18896 net.cpp:110] Creating Layer conv31
I1221 18:17:34.352573 18896 net.cpp:477] conv31 <- eltwise3_relu3_0_split_1
I1221 18:17:34.352586 18896 net.cpp:433] conv31 -> conv31
I1221 18:17:34.354029 18896 net.cpp:155] Setting up conv31
I1221 18:17:34.354056 18896 net.cpp:163] Top shape: 48 128 28 28 (4816896)
I1221 18:17:34.354071 18896 layer_factory.hpp:76] Creating layer bn31
I1221 18:17:34.354085 18896 net.cpp:110] Creating Layer bn31
I1221 18:17:34.354095 18896 net.cpp:477] bn31 <- conv31
I1221 18:17:34.354110 18896 net.cpp:433] bn31 -> bn31
I1221 18:17:34.354187 18896 net.cpp:155] Setting up bn31
I1221 18:17:34.354203 18896 net.cpp:163] Top shape: 48 128 28 28 (4816896)
I1221 18:17:34.354219 18896 layer_factory.hpp:76] Creating layer relu31
I1221 18:17:34.354233 18896 net.cpp:110] Creating Layer relu31
I1221 18:17:34.354243 18896 net.cpp:477] relu31 <- bn31
I1221 18:17:34.354256 18896 net.cpp:419] relu31 -> bn31 (in-place)
I1221 18:17:34.354434 18896 net.cpp:155] Setting up relu31
I1221 18:17:34.354452 18896 net.cpp:163] Top shape: 48 128 28 28 (4816896)
I1221 18:17:34.354463 18896 layer_factory.hpp:76] Creating layer conv32
I1221 18:17:34.354477 18896 net.cpp:110] Creating Layer conv32
I1221 18:17:34.354488 18896 net.cpp:477] conv32 <- bn31
I1221 18:17:34.354503 18896 net.cpp:433] conv32 -> conv32
I1221 18:17:34.355859 18896 net.cpp:155] Setting up conv32
I1221 18:17:34.355880 18896 net.cpp:163] Top shape: 48 128 28 28 (4816896)
I1221 18:17:34.355893 18896 layer_factory.hpp:76] Creating layer bn32
I1221 18:17:34.355909 18896 net.cpp:110] Creating Layer bn32
I1221 18:17:34.355919 18896 net.cpp:477] bn32 <- conv32
I1221 18:17:34.355931 18896 net.cpp:433] bn32 -> bn32
I1221 18:17:34.356004 18896 net.cpp:155] Setting up bn32
I1221 18:17:34.356020 18896 net.cpp:163] Top shape: 48 128 28 28 (4816896)
I1221 18:17:34.356035 18896 layer_factory.hpp:76] Creating layer relu32
I1221 18:17:34.356050 18896 net.cpp:110] Creating Layer relu32
I1221 18:17:34.356061 18896 net.cpp:477] relu32 <- bn32
I1221 18:17:34.356073 18896 net.cpp:419] relu32 -> bn32 (in-place)
I1221 18:17:34.356150 18896 net.cpp:155] Setting up relu32
I1221 18:17:34.356165 18896 net.cpp:163] Top shape: 48 128 28 28 (4816896)
I1221 18:17:34.356175 18896 layer_factory.hpp:76] Creating layer eltwise4
I1221 18:17:34.356192 18896 net.cpp:110] Creating Layer eltwise4
I1221 18:17:34.356204 18896 net.cpp:477] eltwise4 <- relu3_bn
I1221 18:17:34.356215 18896 net.cpp:477] eltwise4 <- bn32
I1221 18:17:34.356226 18896 net.cpp:433] eltwise4 -> eltwise4
I1221 18:17:34.356241 18896 net.cpp:155] Setting up eltwise4
I1221 18:17:34.356253 18896 net.cpp:163] Top shape: 48 128 28 28 (4816896)
I1221 18:17:34.356263 18896 layer_factory.hpp:76] Creating layer relu4
I1221 18:17:34.356276 18896 net.cpp:110] Creating Layer relu4
I1221 18:17:34.356286 18896 net.cpp:477] relu4 <- eltwise4
I1221 18:17:34.356297 18896 net.cpp:419] relu4 -> eltwise4 (in-place)
I1221 18:17:34.356370 18896 net.cpp:155] Setting up relu4
I1221 18:17:34.356385 18896 net.cpp:163] Top shape: 48 128 28 28 (4816896)
I1221 18:17:34.356395 18896 layer_factory.hpp:76] Creating layer eltwise4_relu4_0_split
I1221 18:17:34.356407 18896 net.cpp:110] Creating Layer eltwise4_relu4_0_split
I1221 18:17:34.356417 18896 net.cpp:477] eltwise4_relu4_0_split <- eltwise4
I1221 18:17:34.356429 18896 net.cpp:433] eltwise4_relu4_0_split -> eltwise4_relu4_0_split_0
I1221 18:17:34.356442 18896 net.cpp:433] eltwise4_relu4_0_split -> eltwise4_relu4_0_split_1
I1221 18:17:34.356456 18896 net.cpp:155] Setting up eltwise4_relu4_0_split
I1221 18:17:34.356467 18896 net.cpp:163] Top shape: 48 128 28 28 (4816896)
I1221 18:17:34.356494 18896 net.cpp:163] Top shape: 48 128 28 28 (4816896)
I1221 18:17:34.356505 18896 layer_factory.hpp:76] Creating layer conv33
I1221 18:17:34.356521 18896 net.cpp:110] Creating Layer conv33
I1221 18:17:34.356531 18896 net.cpp:477] conv33 <- eltwise4_relu4_0_split_0
I1221 18:17:34.356547 18896 net.cpp:433] conv33 -> conv33
I1221 18:17:34.358489 18896 net.cpp:155] Setting up conv33
I1221 18:17:34.358508 18896 net.cpp:163] Top shape: 48 128 28 28 (4816896)
I1221 18:17:34.358523 18896 layer_factory.hpp:76] Creating layer bn33
I1221 18:17:34.358541 18896 net.cpp:110] Creating Layer bn33
I1221 18:17:34.358551 18896 net.cpp:477] bn33 <- conv33
I1221 18:17:34.358564 18896 net.cpp:433] bn33 -> bn33
I1221 18:17:34.358639 18896 net.cpp:155] Setting up bn33
I1221 18:17:34.358655 18896 net.cpp:163] Top shape: 48 128 28 28 (4816896)
I1221 18:17:34.358670 18896 layer_factory.hpp:76] Creating layer relu33
I1221 18:17:34.358683 18896 net.cpp:110] Creating Layer relu33
I1221 18:17:34.358693 18896 net.cpp:477] relu33 <- bn33
I1221 18:17:34.358708 18896 net.cpp:419] relu33 -> bn33 (in-place)
I1221 18:17:34.358892 18896 net.cpp:155] Setting up relu33
I1221 18:17:34.358911 18896 net.cpp:163] Top shape: 48 128 28 28 (4816896)
I1221 18:17:34.358922 18896 layer_factory.hpp:76] Creating layer conv34
I1221 18:17:34.358937 18896 net.cpp:110] Creating Layer conv34
I1221 18:17:34.358947 18896 net.cpp:477] conv34 <- bn33
I1221 18:17:34.358960 18896 net.cpp:433] conv34 -> conv34
I1221 18:17:34.360903 18896 net.cpp:155] Setting up conv34
I1221 18:17:34.360924 18896 net.cpp:163] Top shape: 48 128 28 28 (4816896)
I1221 18:17:34.360937 18896 layer_factory.hpp:76] Creating layer bn34
I1221 18:17:34.360954 18896 net.cpp:110] Creating Layer bn34
I1221 18:17:34.360965 18896 net.cpp:477] bn34 <- conv34
I1221 18:17:34.360977 18896 net.cpp:433] bn34 -> bn34
I1221 18:17:34.361050 18896 net.cpp:155] Setting up bn34
I1221 18:17:34.361066 18896 net.cpp:163] Top shape: 48 128 28 28 (4816896)
I1221 18:17:34.361086 18896 layer_factory.hpp:76] Creating layer relu34
I1221 18:17:34.361100 18896 net.cpp:110] Creating Layer relu34
I1221 18:17:34.361110 18896 net.cpp:477] relu34 <- bn34
I1221 18:17:34.361124 18896 net.cpp:419] relu34 -> bn34 (in-place)
I1221 18:17:34.361202 18896 net.cpp:155] Setting up relu34
I1221 18:17:34.361217 18896 net.cpp:163] Top shape: 48 128 28 28 (4816896)
I1221 18:17:34.366643 18896 layer_factory.hpp:76] Creating layer eltwise5
I1221 18:17:34.366669 18896 net.cpp:110] Creating Layer eltwise5
I1221 18:17:34.366682 18896 net.cpp:477] eltwise5 <- eltwise4_relu4_0_split_1
I1221 18:17:34.366693 18896 net.cpp:477] eltwise5 <- bn34
I1221 18:17:34.366706 18896 net.cpp:433] eltwise5 -> eltwise5
I1221 18:17:34.366722 18896 net.cpp:155] Setting up eltwise5
I1221 18:17:34.366735 18896 net.cpp:163] Top shape: 48 128 28 28 (4816896)
I1221 18:17:34.366745 18896 layer_factory.hpp:76] Creating layer relu5
I1221 18:17:34.366756 18896 net.cpp:110] Creating Layer relu5
I1221 18:17:34.366766 18896 net.cpp:477] relu5 <- eltwise5
I1221 18:17:34.366777 18896 net.cpp:419] relu5 -> eltwise5 (in-place)
I1221 18:17:34.366861 18896 net.cpp:155] Setting up relu5
I1221 18:17:34.366878 18896 net.cpp:163] Top shape: 48 128 28 28 (4816896)
I1221 18:17:34.366888 18896 layer_factory.hpp:76] Creating layer eltwise5_relu5_0_split
I1221 18:17:34.366899 18896 net.cpp:110] Creating Layer eltwise5_relu5_0_split
I1221 18:17:34.366909 18896 net.cpp:477] eltwise5_relu5_0_split <- eltwise5
I1221 18:17:34.366921 18896 net.cpp:433] eltwise5_relu5_0_split -> eltwise5_relu5_0_split_0
I1221 18:17:34.366935 18896 net.cpp:433] eltwise5_relu5_0_split -> eltwise5_relu5_0_split_1
I1221 18:17:34.366948 18896 net.cpp:155] Setting up eltwise5_relu5_0_split
I1221 18:17:34.366960 18896 net.cpp:163] Top shape: 48 128 28 28 (4816896)
I1221 18:17:34.366971 18896 net.cpp:163] Top shape: 48 128 28 28 (4816896)
I1221 18:17:34.366981 18896 layer_factory.hpp:76] Creating layer conv35
I1221 18:17:34.366996 18896 net.cpp:110] Creating Layer conv35
I1221 18:17:34.367005 18896 net.cpp:477] conv35 <- eltwise5_relu5_0_split_0
I1221 18:17:34.367039 18896 net.cpp:433] conv35 -> conv35
I1221 18:17:34.369020 18896 net.cpp:155] Setting up conv35
I1221 18:17:34.369041 18896 net.cpp:163] Top shape: 48 128 28 28 (4816896)
I1221 18:17:34.369056 18896 layer_factory.hpp:76] Creating layer bn35
I1221 18:17:34.369074 18896 net.cpp:110] Creating Layer bn35
I1221 18:17:34.369086 18896 net.cpp:477] bn35 <- conv35
I1221 18:17:34.369098 18896 net.cpp:433] bn35 -> bn35
I1221 18:17:34.369174 18896 net.cpp:155] Setting up bn35
I1221 18:17:34.369190 18896 net.cpp:163] Top shape: 48 128 28 28 (4816896)
I1221 18:17:34.369222 18896 layer_factory.hpp:76] Creating layer relu35
I1221 18:17:34.369240 18896 net.cpp:110] Creating Layer relu35
I1221 18:17:34.369251 18896 net.cpp:477] relu35 <- bn35
I1221 18:17:34.369262 18896 net.cpp:419] relu35 -> bn35 (in-place)
I1221 18:17:34.369348 18896 net.cpp:155] Setting up relu35
I1221 18:17:34.369364 18896 net.cpp:163] Top shape: 48 128 28 28 (4816896)
I1221 18:17:34.369374 18896 layer_factory.hpp:76] Creating layer conv36
I1221 18:17:34.369388 18896 net.cpp:110] Creating Layer conv36
I1221 18:17:34.369398 18896 net.cpp:477] conv36 <- bn35
I1221 18:17:34.369413 18896 net.cpp:433] conv36 -> conv36
I1221 18:17:34.371454 18896 net.cpp:155] Setting up conv36
I1221 18:17:34.371474 18896 net.cpp:163] Top shape: 48 128 28 28 (4816896)
I1221 18:17:34.371489 18896 layer_factory.hpp:76] Creating layer bn36
I1221 18:17:34.371505 18896 net.cpp:110] Creating Layer bn36
I1221 18:17:34.371515 18896 net.cpp:477] bn36 <- conv36
I1221 18:17:34.371527 18896 net.cpp:433] bn36 -> bn36
I1221 18:17:34.371608 18896 net.cpp:155] Setting up bn36
I1221 18:17:34.371623 18896 net.cpp:163] Top shape: 48 128 28 28 (4816896)
I1221 18:17:34.371641 18896 layer_factory.hpp:76] Creating layer relu36
I1221 18:17:34.371655 18896 net.cpp:110] Creating Layer relu36
I1221 18:17:34.371665 18896 net.cpp:477] relu36 <- bn36
I1221 18:17:34.371677 18896 net.cpp:419] relu36 -> bn36 (in-place)
I1221 18:17:34.371865 18896 net.cpp:155] Setting up relu36
I1221 18:17:34.371884 18896 net.cpp:163] Top shape: 48 128 28 28 (4816896)
I1221 18:17:34.371896 18896 layer_factory.hpp:76] Creating layer eltwise6
I1221 18:17:34.371909 18896 net.cpp:110] Creating Layer eltwise6
I1221 18:17:34.371919 18896 net.cpp:477] eltwise6 <- eltwise5_relu5_0_split_1
I1221 18:17:34.371933 18896 net.cpp:477] eltwise6 <- bn36
I1221 18:17:34.371947 18896 net.cpp:433] eltwise6 -> eltwise6
I1221 18:17:34.371961 18896 net.cpp:155] Setting up eltwise6
I1221 18:17:34.371973 18896 net.cpp:163] Top shape: 48 128 28 28 (4816896)
I1221 18:17:34.371984 18896 layer_factory.hpp:76] Creating layer relu6
I1221 18:17:34.371995 18896 net.cpp:110] Creating Layer relu6
I1221 18:17:34.372005 18896 net.cpp:477] relu6 <- eltwise6
I1221 18:17:34.372016 18896 net.cpp:419] relu6 -> eltwise6 (in-place)
I1221 18:17:34.372087 18896 net.cpp:155] Setting up relu6
I1221 18:17:34.372102 18896 net.cpp:163] Top shape: 48 128 28 28 (4816896)
I1221 18:17:34.372113 18896 layer_factory.hpp:76] Creating layer eltwise6_relu6_0_split
I1221 18:17:34.372129 18896 net.cpp:110] Creating Layer eltwise6_relu6_0_split
I1221 18:17:34.372140 18896 net.cpp:477] eltwise6_relu6_0_split <- eltwise6
I1221 18:17:34.372154 18896 net.cpp:433] eltwise6_relu6_0_split -> eltwise6_relu6_0_split_0
I1221 18:17:34.372169 18896 net.cpp:433] eltwise6_relu6_0_split -> eltwise6_relu6_0_split_1
I1221 18:17:34.372195 18896 net.cpp:155] Setting up eltwise6_relu6_0_split
I1221 18:17:34.372207 18896 net.cpp:163] Top shape: 48 128 28 28 (4816896)
I1221 18:17:34.372217 18896 net.cpp:163] Top shape: 48 128 28 28 (4816896)
I1221 18:17:34.372227 18896 layer_factory.hpp:76] Creating layer conv37
I1221 18:17:34.372241 18896 net.cpp:110] Creating Layer conv37
I1221 18:17:34.372251 18896 net.cpp:477] conv37 <- eltwise6_relu6_0_split_0
I1221 18:17:34.372265 18896 net.cpp:433] conv37 -> conv37
I1221 18:17:34.374163 18896 net.cpp:155] Setting up conv37
I1221 18:17:34.374183 18896 net.cpp:163] Top shape: 48 128 28 28 (4816896)
I1221 18:17:34.374197 18896 layer_factory.hpp:76] Creating layer bn37
I1221 18:17:34.374235 18896 net.cpp:110] Creating Layer bn37
I1221 18:17:34.374248 18896 net.cpp:477] bn37 <- conv37
I1221 18:17:34.374263 18896 net.cpp:433] bn37 -> bn37
I1221 18:17:34.374344 18896 net.cpp:155] Setting up bn37
I1221 18:17:34.374361 18896 net.cpp:163] Top shape: 48 128 28 28 (4816896)
I1221 18:17:34.374379 18896 layer_factory.hpp:76] Creating layer relu37
I1221 18:17:34.374392 18896 net.cpp:110] Creating Layer relu37
I1221 18:17:34.374402 18896 net.cpp:477] relu37 <- bn37
I1221 18:17:34.374415 18896 net.cpp:419] relu37 -> bn37 (in-place)
I1221 18:17:34.374490 18896 net.cpp:155] Setting up relu37
I1221 18:17:34.374503 18896 net.cpp:163] Top shape: 48 128 28 28 (4816896)
I1221 18:17:34.374513 18896 layer_factory.hpp:76] Creating layer conv38
I1221 18:17:34.374529 18896 net.cpp:110] Creating Layer conv38
I1221 18:17:34.374539 18896 net.cpp:477] conv38 <- bn37
I1221 18:17:34.374552 18896 net.cpp:433] conv38 -> conv38
I1221 18:17:34.376447 18896 net.cpp:155] Setting up conv38
I1221 18:17:34.376467 18896 net.cpp:163] Top shape: 48 128 28 28 (4816896)
I1221 18:17:34.376480 18896 layer_factory.hpp:76] Creating layer bn38
I1221 18:17:34.376495 18896 net.cpp:110] Creating Layer bn38
I1221 18:17:34.376507 18896 net.cpp:477] bn38 <- conv38
I1221 18:17:34.376518 18896 net.cpp:433] bn38 -> bn38
I1221 18:17:34.376591 18896 net.cpp:155] Setting up bn38
I1221 18:17:34.376607 18896 net.cpp:163] Top shape: 48 128 28 28 (4816896)
I1221 18:17:34.376636 18896 layer_factory.hpp:76] Creating layer relu38
I1221 18:17:34.376648 18896 net.cpp:110] Creating Layer relu38
I1221 18:17:34.376658 18896 net.cpp:477] relu38 <- bn38
I1221 18:17:34.376673 18896 net.cpp:419] relu38 -> bn38 (in-place)
I1221 18:17:34.376755 18896 net.cpp:155] Setting up relu38
I1221 18:17:34.376770 18896 net.cpp:163] Top shape: 48 128 28 28 (4816896)
I1221 18:17:34.376780 18896 layer_factory.hpp:76] Creating layer eltwise7
I1221 18:17:34.376795 18896 net.cpp:110] Creating Layer eltwise7
I1221 18:17:34.376804 18896 net.cpp:477] eltwise7 <- eltwise6_relu6_0_split_1
I1221 18:17:34.376816 18896 net.cpp:477] eltwise7 <- bn38
I1221 18:17:34.376827 18896 net.cpp:433] eltwise7 -> eltwise7
I1221 18:17:34.376842 18896 net.cpp:155] Setting up eltwise7
I1221 18:17:34.376853 18896 net.cpp:163] Top shape: 48 128 28 28 (4816896)
I1221 18:17:34.376863 18896 layer_factory.hpp:76] Creating layer relu7
I1221 18:17:34.376875 18896 net.cpp:110] Creating Layer relu7
I1221 18:17:34.376885 18896 net.cpp:477] relu7 <- eltwise7
I1221 18:17:34.376896 18896 net.cpp:419] relu7 -> eltwise7 (in-place)
I1221 18:17:34.377096 18896 net.cpp:155] Setting up relu7
I1221 18:17:34.377115 18896 net.cpp:163] Top shape: 48 128 28 28 (4816896)
I1221 18:17:34.377125 18896 layer_factory.hpp:76] Creating layer eltwise7_relu7_0_split
I1221 18:17:34.377137 18896 net.cpp:110] Creating Layer eltwise7_relu7_0_split
I1221 18:17:34.377147 18896 net.cpp:477] eltwise7_relu7_0_split <- eltwise7
I1221 18:17:34.377159 18896 net.cpp:433] eltwise7_relu7_0_split -> eltwise7_relu7_0_split_0
I1221 18:17:34.377173 18896 net.cpp:433] eltwise7_relu7_0_split -> eltwise7_relu7_0_split_1
I1221 18:17:34.377187 18896 net.cpp:155] Setting up eltwise7_relu7_0_split
I1221 18:17:34.377199 18896 net.cpp:163] Top shape: 48 128 28 28 (4816896)
I1221 18:17:34.377210 18896 net.cpp:163] Top shape: 48 128 28 28 (4816896)
I1221 18:17:34.377224 18896 layer_factory.hpp:76] Creating layer relu7_p
I1221 18:17:34.377240 18896 net.cpp:110] Creating Layer relu7_p
I1221 18:17:34.377251 18896 net.cpp:477] relu7_p <- eltwise7_relu7_0_split_0
I1221 18:17:34.377266 18896 net.cpp:433] relu7_p -> relu7_p
I1221 18:17:34.377871 18896 net.cpp:155] Setting up relu7_p
I1221 18:17:34.377892 18896 net.cpp:163] Top shape: 48 256 14 14 (2408448)
I1221 18:17:34.377905 18896 layer_factory.hpp:76] Creating layer relu7_bn
I1221 18:17:34.377919 18896 net.cpp:110] Creating Layer relu7_bn
I1221 18:17:34.377929 18896 net.cpp:477] relu7_bn <- relu7_p
I1221 18:17:34.377944 18896 net.cpp:433] relu7_bn -> relu7_bn
I1221 18:17:34.378026 18896 net.cpp:155] Setting up relu7_bn
I1221 18:17:34.378058 18896 net.cpp:163] Top shape: 48 256 14 14 (2408448)
I1221 18:17:34.378077 18896 layer_factory.hpp:76] Creating layer conv41
I1221 18:17:34.378093 18896 net.cpp:110] Creating Layer conv41
I1221 18:17:34.378103 18896 net.cpp:477] conv41 <- eltwise7_relu7_0_split_1
I1221 18:17:34.378118 18896 net.cpp:433] conv41 -> conv41
I1221 18:17:34.381129 18896 net.cpp:155] Setting up conv41
I1221 18:17:34.381151 18896 net.cpp:163] Top shape: 48 256 14 14 (2408448)
I1221 18:17:34.381166 18896 layer_factory.hpp:76] Creating layer bn41
I1221 18:17:34.381180 18896 net.cpp:110] Creating Layer bn41
I1221 18:17:34.381191 18896 net.cpp:477] bn41 <- conv41
I1221 18:17:34.381202 18896 net.cpp:433] bn41 -> bn41
I1221 18:17:34.381283 18896 net.cpp:155] Setting up bn41
I1221 18:17:34.381306 18896 net.cpp:163] Top shape: 48 256 14 14 (2408448)
I1221 18:17:34.381322 18896 layer_factory.hpp:76] Creating layer relu41
I1221 18:17:34.381338 18896 net.cpp:110] Creating Layer relu41
I1221 18:17:34.381350 18896 net.cpp:477] relu41 <- bn41
I1221 18:17:34.381361 18896 net.cpp:419] relu41 -> bn41 (in-place)
I1221 18:17:34.381438 18896 net.cpp:155] Setting up relu41
I1221 18:17:34.381453 18896 net.cpp:163] Top shape: 48 256 14 14 (2408448)
I1221 18:17:34.381464 18896 layer_factory.hpp:76] Creating layer conv42
I1221 18:17:34.381479 18896 net.cpp:110] Creating Layer conv42
I1221 18:17:34.381490 18896 net.cpp:477] conv42 <- bn41
I1221 18:17:34.381505 18896 net.cpp:433] conv42 -> conv42
I1221 18:17:34.387215 18896 net.cpp:155] Setting up conv42
I1221 18:17:34.387236 18896 net.cpp:163] Top shape: 48 256 14 14 (2408448)
I1221 18:17:34.387250 18896 layer_factory.hpp:76] Creating layer bn42
I1221 18:17:34.387264 18896 net.cpp:110] Creating Layer bn42
I1221 18:17:34.387274 18896 net.cpp:477] bn42 <- conv42
I1221 18:17:34.387290 18896 net.cpp:433] bn42 -> bn42
I1221 18:17:34.387368 18896 net.cpp:155] Setting up bn42
I1221 18:17:34.387387 18896 net.cpp:163] Top shape: 48 256 14 14 (2408448)
I1221 18:17:34.396931 18896 layer_factory.hpp:76] Creating layer relu42
I1221 18:17:34.396957 18896 net.cpp:110] Creating Layer relu42
I1221 18:17:34.396968 18896 net.cpp:477] relu42 <- bn42
I1221 18:17:34.396981 18896 net.cpp:419] relu42 -> bn42 (in-place)
I1221 18:17:34.397073 18896 net.cpp:155] Setting up relu42
I1221 18:17:34.397089 18896 net.cpp:163] Top shape: 48 256 14 14 (2408448)
I1221 18:17:34.397100 18896 layer_factory.hpp:76] Creating layer eltwise8
I1221 18:17:34.397114 18896 net.cpp:110] Creating Layer eltwise8
I1221 18:17:34.397124 18896 net.cpp:477] eltwise8 <- relu7_bn
I1221 18:17:34.397135 18896 net.cpp:477] eltwise8 <- bn42
I1221 18:17:34.397150 18896 net.cpp:433] eltwise8 -> eltwise8
I1221 18:17:34.397166 18896 net.cpp:155] Setting up eltwise8
I1221 18:17:34.397178 18896 net.cpp:163] Top shape: 48 256 14 14 (2408448)
I1221 18:17:34.397188 18896 layer_factory.hpp:76] Creating layer relu8
I1221 18:17:34.397200 18896 net.cpp:110] Creating Layer relu8
I1221 18:17:34.397210 18896 net.cpp:477] relu8 <- eltwise8
I1221 18:17:34.397222 18896 net.cpp:419] relu8 -> eltwise8 (in-place)
I1221 18:17:34.397313 18896 net.cpp:155] Setting up relu8
I1221 18:17:34.397330 18896 net.cpp:163] Top shape: 48 256 14 14 (2408448)
I1221 18:17:34.397341 18896 layer_factory.hpp:76] Creating layer eltwise8_relu8_0_split
I1221 18:17:34.397363 18896 net.cpp:110] Creating Layer eltwise8_relu8_0_split
I1221 18:17:34.397373 18896 net.cpp:477] eltwise8_relu8_0_split <- eltwise8
I1221 18:17:34.397388 18896 net.cpp:433] eltwise8_relu8_0_split -> eltwise8_relu8_0_split_0
I1221 18:17:34.397403 18896 net.cpp:433] eltwise8_relu8_0_split -> eltwise8_relu8_0_split_1
I1221 18:17:34.397416 18896 net.cpp:155] Setting up eltwise8_relu8_0_split
I1221 18:17:34.397430 18896 net.cpp:163] Top shape: 48 256 14 14 (2408448)
I1221 18:17:34.397441 18896 net.cpp:163] Top shape: 48 256 14 14 (2408448)
I1221 18:17:34.397451 18896 layer_factory.hpp:76] Creating layer conv43
I1221 18:17:34.397465 18896 net.cpp:110] Creating Layer conv43
I1221 18:17:34.397475 18896 net.cpp:477] conv43 <- eltwise8_relu8_0_split_0
I1221 18:17:34.397511 18896 net.cpp:433] conv43 -> conv43
I1221 18:17:34.403347 18896 net.cpp:155] Setting up conv43
I1221 18:17:34.403373 18896 net.cpp:163] Top shape: 48 256 14 14 (2408448)
I1221 18:17:34.403388 18896 layer_factory.hpp:76] Creating layer bn43
I1221 18:17:34.403405 18896 net.cpp:110] Creating Layer bn43
I1221 18:17:34.403416 18896 net.cpp:477] bn43 <- conv43
I1221 18:17:34.403429 18896 net.cpp:433] bn43 -> bn43
I1221 18:17:34.403515 18896 net.cpp:155] Setting up bn43
I1221 18:17:34.403532 18896 net.cpp:163] Top shape: 48 256 14 14 (2408448)
I1221 18:17:34.403551 18896 layer_factory.hpp:76] Creating layer relu43
I1221 18:17:34.403565 18896 net.cpp:110] Creating Layer relu43
I1221 18:17:34.403576 18896 net.cpp:477] relu43 <- bn43
I1221 18:17:34.403590 18896 net.cpp:419] relu43 -> bn43 (in-place)
I1221 18:17:34.403771 18896 net.cpp:155] Setting up relu43
I1221 18:17:34.403794 18896 net.cpp:163] Top shape: 48 256 14 14 (2408448)
I1221 18:17:34.403805 18896 layer_factory.hpp:76] Creating layer conv44
I1221 18:17:34.403820 18896 net.cpp:110] Creating Layer conv44
I1221 18:17:34.403830 18896 net.cpp:477] conv44 <- bn43
I1221 18:17:34.403844 18896 net.cpp:433] conv44 -> conv44
I1221 18:17:34.409636 18896 net.cpp:155] Setting up conv44
I1221 18:17:34.409657 18896 net.cpp:163] Top shape: 48 256 14 14 (2408448)
I1221 18:17:34.409672 18896 layer_factory.hpp:76] Creating layer bn44
I1221 18:17:34.409687 18896 net.cpp:110] Creating Layer bn44
I1221 18:17:34.409698 18896 net.cpp:477] bn44 <- conv44
I1221 18:17:34.409710 18896 net.cpp:433] bn44 -> bn44
I1221 18:17:34.409792 18896 net.cpp:155] Setting up bn44
I1221 18:17:34.409809 18896 net.cpp:163] Top shape: 48 256 14 14 (2408448)
I1221 18:17:34.409824 18896 layer_factory.hpp:76] Creating layer relu44
I1221 18:17:34.409837 18896 net.cpp:110] Creating Layer relu44
I1221 18:17:34.409847 18896 net.cpp:477] relu44 <- bn44
I1221 18:17:34.409862 18896 net.cpp:419] relu44 -> bn44 (in-place)
I1221 18:17:34.409939 18896 net.cpp:155] Setting up relu44
I1221 18:17:34.409953 18896 net.cpp:163] Top shape: 48 256 14 14 (2408448)
I1221 18:17:34.409963 18896 layer_factory.hpp:76] Creating layer eltwise9
I1221 18:17:34.409978 18896 net.cpp:110] Creating Layer eltwise9
I1221 18:17:34.409988 18896 net.cpp:477] eltwise9 <- eltwise8_relu8_0_split_1
I1221 18:17:34.409999 18896 net.cpp:477] eltwise9 <- bn44
I1221 18:17:34.410012 18896 net.cpp:433] eltwise9 -> eltwise9
I1221 18:17:34.410025 18896 net.cpp:155] Setting up eltwise9
I1221 18:17:34.410037 18896 net.cpp:163] Top shape: 48 256 14 14 (2408448)
I1221 18:17:34.410046 18896 layer_factory.hpp:76] Creating layer relu9
I1221 18:17:34.410058 18896 net.cpp:110] Creating Layer relu9
I1221 18:17:34.410068 18896 net.cpp:477] relu9 <- eltwise9
I1221 18:17:34.410079 18896 net.cpp:419] relu9 -> eltwise9 (in-place)
I1221 18:17:34.410146 18896 net.cpp:155] Setting up relu9
I1221 18:17:34.410161 18896 net.cpp:163] Top shape: 48 256 14 14 (2408448)
I1221 18:17:34.410171 18896 layer_factory.hpp:76] Creating layer eltwise9_relu9_0_split
I1221 18:17:34.410183 18896 net.cpp:110] Creating Layer eltwise9_relu9_0_split
I1221 18:17:34.410192 18896 net.cpp:477] eltwise9_relu9_0_split <- eltwise9
I1221 18:17:34.410204 18896 net.cpp:433] eltwise9_relu9_0_split -> eltwise9_relu9_0_split_0
I1221 18:17:34.410220 18896 net.cpp:433] eltwise9_relu9_0_split -> eltwise9_relu9_0_split_1
I1221 18:17:34.410234 18896 net.cpp:155] Setting up eltwise9_relu9_0_split
I1221 18:17:34.410246 18896 net.cpp:163] Top shape: 48 256 14 14 (2408448)
I1221 18:17:34.410256 18896 net.cpp:163] Top shape: 48 256 14 14 (2408448)
I1221 18:17:34.410266 18896 layer_factory.hpp:76] Creating layer conv45
I1221 18:17:34.410279 18896 net.cpp:110] Creating Layer conv45
I1221 18:17:34.410291 18896 net.cpp:477] conv45 <- eltwise9_relu9_0_split_0
I1221 18:17:34.410305 18896 net.cpp:433] conv45 -> conv45
I1221 18:17:34.416144 18896 net.cpp:155] Setting up conv45
I1221 18:17:34.416167 18896 net.cpp:163] Top shape: 48 256 14 14 (2408448)
I1221 18:17:34.416182 18896 layer_factory.hpp:76] Creating layer bn45
I1221 18:17:34.416224 18896 net.cpp:110] Creating Layer bn45
I1221 18:17:34.416235 18896 net.cpp:477] bn45 <- conv45
I1221 18:17:34.416251 18896 net.cpp:433] bn45 -> bn45
I1221 18:17:34.416337 18896 net.cpp:155] Setting up bn45
I1221 18:17:34.416354 18896 net.cpp:163] Top shape: 48 256 14 14 (2408448)
I1221 18:17:34.416369 18896 layer_factory.hpp:76] Creating layer relu45
I1221 18:17:34.416383 18896 net.cpp:110] Creating Layer relu45
I1221 18:17:34.416393 18896 net.cpp:477] relu45 <- bn45
I1221 18:17:34.416407 18896 net.cpp:419] relu45 -> bn45 (in-place)
I1221 18:17:34.416597 18896 net.cpp:155] Setting up relu45
I1221 18:17:34.416616 18896 net.cpp:163] Top shape: 48 256 14 14 (2408448)
I1221 18:17:34.416627 18896 layer_factory.hpp:76] Creating layer conv46
I1221 18:17:34.416645 18896 net.cpp:110] Creating Layer conv46
I1221 18:17:34.416656 18896 net.cpp:477] conv46 <- bn45
I1221 18:17:34.416669 18896 net.cpp:433] conv46 -> conv46
I1221 18:17:34.422451 18896 net.cpp:155] Setting up conv46
I1221 18:17:34.422472 18896 net.cpp:163] Top shape: 48 256 14 14 (2408448)
I1221 18:17:34.422489 18896 layer_factory.hpp:76] Creating layer bn46
I1221 18:17:34.422507 18896 net.cpp:110] Creating Layer bn46
I1221 18:17:34.422518 18896 net.cpp:477] bn46 <- conv46
I1221 18:17:34.422530 18896 net.cpp:433] bn46 -> bn46
I1221 18:17:34.422618 18896 net.cpp:155] Setting up bn46
I1221 18:17:34.422636 18896 net.cpp:163] Top shape: 48 256 14 14 (2408448)
I1221 18:17:34.422651 18896 layer_factory.hpp:76] Creating layer relu46
I1221 18:17:34.422667 18896 net.cpp:110] Creating Layer relu46
I1221 18:17:34.422677 18896 net.cpp:477] relu46 <- bn46
I1221 18:17:34.422688 18896 net.cpp:419] relu46 -> bn46 (in-place)
I1221 18:17:34.422767 18896 net.cpp:155] Setting up relu46
I1221 18:17:34.422782 18896 net.cpp:163] Top shape: 48 256 14 14 (2408448)
I1221 18:17:34.422793 18896 layer_factory.hpp:76] Creating layer eltwise10
I1221 18:17:34.422806 18896 net.cpp:110] Creating Layer eltwise10
I1221 18:17:34.422816 18896 net.cpp:477] eltwise10 <- eltwise9_relu9_0_split_1
I1221 18:17:34.422828 18896 net.cpp:477] eltwise10 <- bn46
I1221 18:17:34.422842 18896 net.cpp:433] eltwise10 -> eltwise10
I1221 18:17:34.422857 18896 net.cpp:155] Setting up eltwise10
I1221 18:17:34.422869 18896 net.cpp:163] Top shape: 48 256 14 14 (2408448)
I1221 18:17:34.422879 18896 layer_factory.hpp:76] Creating layer relu10
I1221 18:17:34.422891 18896 net.cpp:110] Creating Layer relu10
I1221 18:17:34.422900 18896 net.cpp:477] relu10 <- eltwise10
I1221 18:17:34.422912 18896 net.cpp:419] relu10 -> eltwise10 (in-place)
I1221 18:17:34.422982 18896 net.cpp:155] Setting up relu10
I1221 18:17:34.422998 18896 net.cpp:163] Top shape: 48 256 14 14 (2408448)
I1221 18:17:34.423008 18896 layer_factory.hpp:76] Creating layer eltwise10_relu10_0_split
I1221 18:17:34.423020 18896 net.cpp:110] Creating Layer eltwise10_relu10_0_split
I1221 18:17:34.423030 18896 net.cpp:477] eltwise10_relu10_0_split <- eltwise10
I1221 18:17:34.423043 18896 net.cpp:433] eltwise10_relu10_0_split -> eltwise10_relu10_0_split_0
I1221 18:17:34.423056 18896 net.cpp:433] eltwise10_relu10_0_split -> eltwise10_relu10_0_split_1
I1221 18:17:34.423069 18896 net.cpp:155] Setting up eltwise10_relu10_0_split
I1221 18:17:34.423081 18896 net.cpp:163] Top shape: 48 256 14 14 (2408448)
I1221 18:17:34.423092 18896 net.cpp:163] Top shape: 48 256 14 14 (2408448)
I1221 18:17:34.423102 18896 layer_factory.hpp:76] Creating layer conv47
I1221 18:17:34.423118 18896 net.cpp:110] Creating Layer conv47
I1221 18:17:34.423128 18896 net.cpp:477] conv47 <- eltwise10_relu10_0_split_0
I1221 18:17:34.423143 18896 net.cpp:433] conv47 -> conv47
I1221 18:17:34.428962 18896 net.cpp:155] Setting up conv47
I1221 18:17:34.428985 18896 net.cpp:163] Top shape: 48 256 14 14 (2408448)
I1221 18:17:34.428999 18896 layer_factory.hpp:76] Creating layer bn47
I1221 18:17:34.429013 18896 net.cpp:110] Creating Layer bn47
I1221 18:17:34.429023 18896 net.cpp:477] bn47 <- conv47
I1221 18:17:34.429039 18896 net.cpp:433] bn47 -> bn47
I1221 18:17:34.429146 18896 net.cpp:155] Setting up bn47
I1221 18:17:34.429162 18896 net.cpp:163] Top shape: 48 256 14 14 (2408448)
I1221 18:17:34.429182 18896 layer_factory.hpp:76] Creating layer relu47
I1221 18:17:34.429194 18896 net.cpp:110] Creating Layer relu47
I1221 18:17:34.429204 18896 net.cpp:477] relu47 <- bn47
I1221 18:17:34.429216 18896 net.cpp:419] relu47 -> bn47 (in-place)
I1221 18:17:34.429301 18896 net.cpp:155] Setting up relu47
I1221 18:17:34.429322 18896 net.cpp:163] Top shape: 48 256 14 14 (2408448)
I1221 18:17:34.429332 18896 layer_factory.hpp:76] Creating layer conv48
I1221 18:17:34.429347 18896 net.cpp:110] Creating Layer conv48
I1221 18:17:34.429390 18896 net.cpp:477] conv48 <- bn47
I1221 18:17:34.429404 18896 net.cpp:433] conv48 -> conv48
I1221 18:17:34.435247 18896 net.cpp:155] Setting up conv48
I1221 18:17:34.435269 18896 net.cpp:163] Top shape: 48 256 14 14 (2408448)
I1221 18:17:34.435286 18896 layer_factory.hpp:76] Creating layer bn48
I1221 18:17:34.435299 18896 net.cpp:110] Creating Layer bn48
I1221 18:17:34.435310 18896 net.cpp:477] bn48 <- conv48
I1221 18:17:34.435323 18896 net.cpp:433] bn48 -> bn48
I1221 18:17:34.435400 18896 net.cpp:155] Setting up bn48
I1221 18:17:34.435416 18896 net.cpp:163] Top shape: 48 256 14 14 (2408448)
I1221 18:17:34.435431 18896 layer_factory.hpp:76] Creating layer relu48
I1221 18:17:34.435448 18896 net.cpp:110] Creating Layer relu48
I1221 18:17:34.435459 18896 net.cpp:477] relu48 <- bn48
I1221 18:17:34.435472 18896 net.cpp:419] relu48 -> bn48 (in-place)
I1221 18:17:34.435658 18896 net.cpp:155] Setting up relu48
I1221 18:17:34.435678 18896 net.cpp:163] Top shape: 48 256 14 14 (2408448)
I1221 18:17:34.435689 18896 layer_factory.hpp:76] Creating layer eltwise11
I1221 18:17:34.435704 18896 net.cpp:110] Creating Layer eltwise11
I1221 18:17:34.435715 18896 net.cpp:477] eltwise11 <- eltwise10_relu10_0_split_1
I1221 18:17:34.435727 18896 net.cpp:477] eltwise11 <- bn48
I1221 18:17:34.435739 18896 net.cpp:433] eltwise11 -> eltwise11
I1221 18:17:34.435755 18896 net.cpp:155] Setting up eltwise11
I1221 18:17:34.435767 18896 net.cpp:163] Top shape: 48 256 14 14 (2408448)
I1221 18:17:34.435777 18896 layer_factory.hpp:76] Creating layer relu11
I1221 18:17:34.435796 18896 net.cpp:110] Creating Layer relu11
I1221 18:17:34.435806 18896 net.cpp:477] relu11 <- eltwise11
I1221 18:17:34.435817 18896 net.cpp:419] relu11 -> eltwise11 (in-place)
I1221 18:17:34.435895 18896 net.cpp:155] Setting up relu11
I1221 18:17:34.435911 18896 net.cpp:163] Top shape: 48 256 14 14 (2408448)
I1221 18:17:34.435922 18896 layer_factory.hpp:76] Creating layer eltwise11_relu11_0_split
I1221 18:17:34.435935 18896 net.cpp:110] Creating Layer eltwise11_relu11_0_split
I1221 18:17:34.435945 18896 net.cpp:477] eltwise11_relu11_0_split <- eltwise11
I1221 18:17:34.435959 18896 net.cpp:433] eltwise11_relu11_0_split -> eltwise11_relu11_0_split_0
I1221 18:17:34.435973 18896 net.cpp:433] eltwise11_relu11_0_split -> eltwise11_relu11_0_split_1
I1221 18:17:34.435988 18896 net.cpp:155] Setting up eltwise11_relu11_0_split
I1221 18:17:34.436000 18896 net.cpp:163] Top shape: 48 256 14 14 (2408448)
I1221 18:17:34.436012 18896 net.cpp:163] Top shape: 48 256 14 14 (2408448)
I1221 18:17:34.436022 18896 layer_factory.hpp:76] Creating layer conv49
I1221 18:17:34.436038 18896 net.cpp:110] Creating Layer conv49
I1221 18:17:34.436048 18896 net.cpp:477] conv49 <- eltwise11_relu11_0_split_0
I1221 18:17:34.436060 18896 net.cpp:433] conv49 -> conv49
I1221 18:17:34.441905 18896 net.cpp:155] Setting up conv49
I1221 18:17:34.441929 18896 net.cpp:163] Top shape: 48 256 14 14 (2408448)
I1221 18:17:34.441947 18896 layer_factory.hpp:76] Creating layer bn49
I1221 18:17:34.441962 18896 net.cpp:110] Creating Layer bn49
I1221 18:17:34.441972 18896 net.cpp:477] bn49 <- conv49
I1221 18:17:34.441987 18896 net.cpp:433] bn49 -> bn49
I1221 18:17:34.442075 18896 net.cpp:155] Setting up bn49
I1221 18:17:34.442091 18896 net.cpp:163] Top shape: 48 256 14 14 (2408448)
I1221 18:17:34.442133 18896 layer_factory.hpp:76] Creating layer relu49
I1221 18:17:34.442152 18896 net.cpp:110] Creating Layer relu49
I1221 18:17:34.442188 18896 net.cpp:477] relu49 <- bn49
I1221 18:17:34.442201 18896 net.cpp:419] relu49 -> bn49 (in-place)
I1221 18:17:34.442273 18896 net.cpp:155] Setting up relu49
I1221 18:17:34.442291 18896 net.cpp:163] Top shape: 48 256 14 14 (2408448)
I1221 18:17:34.442301 18896 layer_factory.hpp:76] Creating layer conv410
I1221 18:17:34.442317 18896 net.cpp:110] Creating Layer conv410
I1221 18:17:34.442327 18896 net.cpp:477] conv410 <- bn49
I1221 18:17:34.442343 18896 net.cpp:433] conv410 -> conv410
I1221 18:17:34.448187 18896 net.cpp:155] Setting up conv410
I1221 18:17:34.448211 18896 net.cpp:163] Top shape: 48 256 14 14 (2408448)
I1221 18:17:34.448226 18896 layer_factory.hpp:76] Creating layer bn410
I1221 18:17:34.448240 18896 net.cpp:110] Creating Layer bn410
I1221 18:17:34.448251 18896 net.cpp:477] bn410 <- conv410
I1221 18:17:34.448266 18896 net.cpp:433] bn410 -> bn410
I1221 18:17:34.448351 18896 net.cpp:155] Setting up bn410
I1221 18:17:34.448369 18896 net.cpp:163] Top shape: 48 256 14 14 (2408448)
I1221 18:17:34.448386 18896 layer_factory.hpp:76] Creating layer relu410
I1221 18:17:34.448400 18896 net.cpp:110] Creating Layer relu410
I1221 18:17:34.448410 18896 net.cpp:477] relu410 <- bn410
I1221 18:17:34.448421 18896 net.cpp:419] relu410 -> bn410 (in-place)
I1221 18:17:34.448498 18896 net.cpp:155] Setting up relu410
I1221 18:17:34.448514 18896 net.cpp:163] Top shape: 48 256 14 14 (2408448)
I1221 18:17:34.448524 18896 layer_factory.hpp:76] Creating layer eltwise12
I1221 18:17:34.448537 18896 net.cpp:110] Creating Layer eltwise12
I1221 18:17:34.448549 18896 net.cpp:477] eltwise12 <- eltwise11_relu11_0_split_1
I1221 18:17:34.448559 18896 net.cpp:477] eltwise12 <- bn410
I1221 18:17:34.448571 18896 net.cpp:433] eltwise12 -> eltwise12
I1221 18:17:34.448586 18896 net.cpp:155] Setting up eltwise12
I1221 18:17:34.448598 18896 net.cpp:163] Top shape: 48 256 14 14 (2408448)
I1221 18:17:34.448608 18896 layer_factory.hpp:76] Creating layer relu12
I1221 18:17:34.448622 18896 net.cpp:110] Creating Layer relu12
I1221 18:17:34.448632 18896 net.cpp:477] relu12 <- eltwise12
I1221 18:17:34.448644 18896 net.cpp:419] relu12 -> eltwise12 (in-place)
I1221 18:17:34.448825 18896 net.cpp:155] Setting up relu12
I1221 18:17:34.448845 18896 net.cpp:163] Top shape: 48 256 14 14 (2408448)
I1221 18:17:34.448855 18896 layer_factory.hpp:76] Creating layer eltwise12_relu12_0_split
I1221 18:17:34.448868 18896 net.cpp:110] Creating Layer eltwise12_relu12_0_split
I1221 18:17:34.448879 18896 net.cpp:477] eltwise12_relu12_0_split <- eltwise12
I1221 18:17:34.448894 18896 net.cpp:433] eltwise12_relu12_0_split -> eltwise12_relu12_0_split_0
I1221 18:17:34.448909 18896 net.cpp:433] eltwise12_relu12_0_split -> eltwise12_relu12_0_split_1
I1221 18:17:34.448922 18896 net.cpp:433] eltwise12_relu12_0_split -> eltwise12_relu12_0_split_2
I1221 18:17:34.448937 18896 net.cpp:155] Setting up eltwise12_relu12_0_split
I1221 18:17:34.448950 18896 net.cpp:163] Top shape: 48 256 14 14 (2408448)
I1221 18:17:34.448959 18896 net.cpp:163] Top shape: 48 256 14 14 (2408448)
I1221 18:17:34.448971 18896 net.cpp:163] Top shape: 48 256 14 14 (2408448)
I1221 18:17:34.448981 18896 layer_factory.hpp:76] Creating layer conv411
I1221 18:17:34.448997 18896 net.cpp:110] Creating Layer conv411
I1221 18:17:34.449007 18896 net.cpp:477] conv411 <- eltwise12_relu12_0_split_0
I1221 18:17:34.449023 18896 net.cpp:433] conv411 -> conv411
I1221 18:17:34.454875 18896 net.cpp:155] Setting up conv411
I1221 18:17:34.454896 18896 net.cpp:163] Top shape: 48 256 14 14 (2408448)
I1221 18:17:34.454910 18896 layer_factory.hpp:76] Creating layer bn411
I1221 18:17:34.454927 18896 net.cpp:110] Creating Layer bn411
I1221 18:17:34.454938 18896 net.cpp:477] bn411 <- conv411
I1221 18:17:34.454952 18896 net.cpp:433] bn411 -> bn411
I1221 18:17:34.455035 18896 net.cpp:155] Setting up bn411
I1221 18:17:34.455051 18896 net.cpp:163] Top shape: 48 256 14 14 (2408448)
I1221 18:17:34.455072 18896 layer_factory.hpp:76] Creating layer relu411
I1221 18:17:34.455085 18896 net.cpp:110] Creating Layer relu411
I1221 18:17:34.455117 18896 net.cpp:477] relu411 <- bn411
I1221 18:17:34.455132 18896 net.cpp:419] relu411 -> bn411 (in-place)
I1221 18:17:34.455210 18896 net.cpp:155] Setting up relu411
I1221 18:17:34.455225 18896 net.cpp:163] Top shape: 48 256 14 14 (2408448)
I1221 18:17:34.455236 18896 layer_factory.hpp:76] Creating layer conv412
I1221 18:17:34.455250 18896 net.cpp:110] Creating Layer conv412
I1221 18:17:34.455260 18896 net.cpp:477] conv412 <- bn411
I1221 18:17:34.455274 18896 net.cpp:433] conv412 -> conv412
I1221 18:17:34.461096 18896 net.cpp:155] Setting up conv412
I1221 18:17:34.461120 18896 net.cpp:163] Top shape: 48 256 14 14 (2408448)
I1221 18:17:34.461134 18896 layer_factory.hpp:76] Creating layer bn412
I1221 18:17:34.461149 18896 net.cpp:110] Creating Layer bn412
I1221 18:17:34.461159 18896 net.cpp:477] bn412 <- conv412
I1221 18:17:34.461172 18896 net.cpp:433] bn412 -> bn412
I1221 18:17:34.461257 18896 net.cpp:155] Setting up bn412
I1221 18:17:34.461273 18896 net.cpp:163] Top shape: 48 256 14 14 (2408448)
I1221 18:17:34.461289 18896 layer_factory.hpp:76] Creating layer relu412
I1221 18:17:34.461313 18896 net.cpp:110] Creating Layer relu412
I1221 18:17:34.461325 18896 net.cpp:477] relu412 <- bn412
I1221 18:17:34.461338 18896 net.cpp:419] relu412 -> bn412 (in-place)
I1221 18:17:34.461436 18896 net.cpp:155] Setting up relu412
I1221 18:17:34.461452 18896 net.cpp:163] Top shape: 48 256 14 14 (2408448)
I1221 18:17:34.461462 18896 layer_factory.hpp:76] Creating layer eltwise13
I1221 18:17:34.461477 18896 net.cpp:110] Creating Layer eltwise13
I1221 18:17:34.461488 18896 net.cpp:477] eltwise13 <- eltwise12_relu12_0_split_1
I1221 18:17:34.461499 18896 net.cpp:477] eltwise13 <- bn412
I1221 18:17:34.461511 18896 net.cpp:433] eltwise13 -> eltwise13
I1221 18:17:34.461526 18896 net.cpp:155] Setting up eltwise13
I1221 18:17:34.461539 18896 net.cpp:163] Top shape: 48 256 14 14 (2408448)
I1221 18:17:34.461549 18896 layer_factory.hpp:76] Creating layer relu13
I1221 18:17:34.461560 18896 net.cpp:110] Creating Layer relu13
I1221 18:17:34.461570 18896 net.cpp:477] relu13 <- eltwise13
I1221 18:17:34.461581 18896 net.cpp:419] relu13 -> eltwise13 (in-place)
I1221 18:17:34.461653 18896 net.cpp:155] Setting up relu13
I1221 18:17:34.461668 18896 net.cpp:163] Top shape: 48 256 14 14 (2408448)
I1221 18:17:34.461678 18896 layer_factory.hpp:76] Creating layer relu13_p
I1221 18:17:34.461691 18896 net.cpp:110] Creating Layer relu13_p
I1221 18:17:34.461701 18896 net.cpp:477] relu13_p <- eltwise12_relu12_0_split_2
I1221 18:17:34.461717 18896 net.cpp:433] relu13_p -> relu13_p
I1221 18:17:34.463564 18896 net.cpp:155] Setting up relu13_p
I1221 18:17:34.463585 18896 net.cpp:163] Top shape: 48 512 7 7 (1204224)
I1221 18:17:34.463600 18896 layer_factory.hpp:76] Creating layer relu13_bn
I1221 18:17:34.463634 18896 net.cpp:110] Creating Layer relu13_bn
I1221 18:17:34.463645 18896 net.cpp:477] relu13_bn <- relu13_p
I1221 18:17:34.463660 18896 net.cpp:433] relu13_bn -> relu13_bn
I1221 18:17:34.463749 18896 net.cpp:155] Setting up relu13_bn
I1221 18:17:34.463765 18896 net.cpp:163] Top shape: 48 512 7 7 (1204224)
I1221 18:17:34.463783 18896 layer_factory.hpp:76] Creating layer conv51
I1221 18:17:34.463800 18896 net.cpp:110] Creating Layer conv51
I1221 18:17:34.463811 18896 net.cpp:477] conv51 <- eltwise13
I1221 18:17:34.463824 18896 net.cpp:433] conv51 -> conv51
I1221 18:17:34.474915 18896 net.cpp:155] Setting up conv51
I1221 18:17:34.474942 18896 net.cpp:163] Top shape: 48 512 7 7 (1204224)
I1221 18:17:34.474958 18896 layer_factory.hpp:76] Creating layer bn51
I1221 18:17:34.474977 18896 net.cpp:110] Creating Layer bn51
I1221 18:17:34.474988 18896 net.cpp:477] bn51 <- conv51
I1221 18:17:34.475003 18896 net.cpp:433] bn51 -> bn51
I1221 18:17:34.475091 18896 net.cpp:155] Setting up bn51
I1221 18:17:34.475109 18896 net.cpp:163] Top shape: 48 512 7 7 (1204224)
I1221 18:17:34.475127 18896 layer_factory.hpp:76] Creating layer relu51
I1221 18:17:34.475142 18896 net.cpp:110] Creating Layer relu51
I1221 18:17:34.475152 18896 net.cpp:477] relu51 <- bn51
I1221 18:17:34.475200 18896 net.cpp:419] relu51 -> bn51 (in-place)
I1221 18:17:34.475389 18896 net.cpp:155] Setting up relu51
I1221 18:17:34.475411 18896 net.cpp:163] Top shape: 48 512 7 7 (1204224)
I1221 18:17:34.475424 18896 layer_factory.hpp:76] Creating layer conv52
I1221 18:17:34.475437 18896 net.cpp:110] Creating Layer conv52
I1221 18:17:34.475448 18896 net.cpp:477] conv52 <- bn51
I1221 18:17:34.475464 18896 net.cpp:433] conv52 -> conv52
I1221 18:17:34.497309 18896 net.cpp:155] Setting up conv52
I1221 18:17:34.497380 18896 net.cpp:163] Top shape: 48 512 7 7 (1204224)
I1221 18:17:34.497406 18896 layer_factory.hpp:76] Creating layer bn52
I1221 18:17:34.497431 18896 net.cpp:110] Creating Layer bn52
I1221 18:17:34.497444 18896 net.cpp:477] bn52 <- conv52
I1221 18:17:34.497467 18896 net.cpp:433] bn52 -> bn52
I1221 18:17:34.497570 18896 net.cpp:155] Setting up bn52
I1221 18:17:34.497591 18896 net.cpp:163] Top shape: 48 512 7 7 (1204224)
I1221 18:17:34.497608 18896 layer_factory.hpp:76] Creating layer relu52
I1221 18:17:34.497623 18896 net.cpp:110] Creating Layer relu52
I1221 18:17:34.497635 18896 net.cpp:477] relu52 <- bn52
I1221 18:17:34.497653 18896 net.cpp:419] relu52 -> bn52 (in-place)
I1221 18:17:34.497735 18896 net.cpp:155] Setting up relu52
I1221 18:17:34.497755 18896 net.cpp:163] Top shape: 48 512 7 7 (1204224)
I1221 18:17:34.497766 18896 layer_factory.hpp:76] Creating layer eltwise14
I1221 18:17:34.497784 18896 net.cpp:110] Creating Layer eltwise14
I1221 18:17:34.497797 18896 net.cpp:477] eltwise14 <- relu13_bn
I1221 18:17:34.497809 18896 net.cpp:477] eltwise14 <- bn52
I1221 18:17:34.497824 18896 net.cpp:433] eltwise14 -> eltwise14
I1221 18:17:34.497843 18896 net.cpp:155] Setting up eltwise14
I1221 18:17:34.497856 18896 net.cpp:163] Top shape: 48 512 7 7 (1204224)
I1221 18:17:34.497869 18896 layer_factory.hpp:76] Creating layer relu14
I1221 18:17:34.497882 18896 net.cpp:110] Creating Layer relu14
I1221 18:17:34.497895 18896 net.cpp:477] relu14 <- eltwise14
I1221 18:17:34.497907 18896 net.cpp:419] relu14 -> eltwise14 (in-place)
I1221 18:17:34.497979 18896 net.cpp:155] Setting up relu14
I1221 18:17:34.497997 18896 net.cpp:163] Top shape: 48 512 7 7 (1204224)
I1221 18:17:34.498008 18896 layer_factory.hpp:76] Creating layer eltwise14_relu14_0_split
I1221 18:17:34.498024 18896 net.cpp:110] Creating Layer eltwise14_relu14_0_split
I1221 18:17:34.498036 18896 net.cpp:477] eltwise14_relu14_0_split <- eltwise14
I1221 18:17:34.498050 18896 net.cpp:433] eltwise14_relu14_0_split -> eltwise14_relu14_0_split_0
I1221 18:17:34.498067 18896 net.cpp:433] eltwise14_relu14_0_split -> eltwise14_relu14_0_split_1
I1221 18:17:34.498085 18896 net.cpp:155] Setting up eltwise14_relu14_0_split
I1221 18:17:34.498100 18896 net.cpp:163] Top shape: 48 512 7 7 (1204224)
I1221 18:17:34.498111 18896 net.cpp:163] Top shape: 48 512 7 7 (1204224)
I1221 18:17:34.498123 18896 layer_factory.hpp:76] Creating layer conv53
I1221 18:17:34.498142 18896 net.cpp:110] Creating Layer conv53
I1221 18:17:34.498153 18896 net.cpp:477] conv53 <- eltwise14_relu14_0_split_0
I1221 18:17:34.498168 18896 net.cpp:433] conv53 -> conv53
I1221 18:17:34.520125 18896 net.cpp:155] Setting up conv53
I1221 18:17:34.520172 18896 net.cpp:163] Top shape: 48 512 7 7 (1204224)
I1221 18:17:34.520195 18896 layer_factory.hpp:76] Creating layer bn53
I1221 18:17:34.520215 18896 net.cpp:110] Creating Layer bn53
I1221 18:17:34.520227 18896 net.cpp:477] bn53 <- conv53
I1221 18:17:34.520246 18896 net.cpp:433] bn53 -> bn53
I1221 18:17:34.520349 18896 net.cpp:155] Setting up bn53
I1221 18:17:34.520366 18896 net.cpp:163] Top shape: 48 512 7 7 (1204224)
I1221 18:17:34.520383 18896 layer_factory.hpp:76] Creating layer relu53
I1221 18:17:34.520397 18896 net.cpp:110] Creating Layer relu53
I1221 18:17:34.520408 18896 net.cpp:477] relu53 <- bn53
I1221 18:17:34.520423 18896 net.cpp:419] relu53 -> bn53 (in-place)
I1221 18:17:34.520612 18896 net.cpp:155] Setting up relu53
I1221 18:17:34.520632 18896 net.cpp:163] Top shape: 48 512 7 7 (1204224)
I1221 18:17:34.520642 18896 layer_factory.hpp:76] Creating layer conv54
I1221 18:17:34.520695 18896 net.cpp:110] Creating Layer conv54
I1221 18:17:34.520707 18896 net.cpp:477] conv54 <- bn53
I1221 18:17:34.520721 18896 net.cpp:433] conv54 -> conv54
I1221 18:17:34.542839 18896 net.cpp:155] Setting up conv54
I1221 18:17:34.542887 18896 net.cpp:163] Top shape: 48 512 7 7 (1204224)
I1221 18:17:34.542935 18896 layer_factory.hpp:76] Creating layer bn54
I1221 18:17:34.542966 18896 net.cpp:110] Creating Layer bn54
I1221 18:17:34.542981 18896 net.cpp:477] bn54 <- conv54
I1221 18:17:34.543004 18896 net.cpp:433] bn54 -> bn54
I1221 18:17:34.543118 18896 net.cpp:155] Setting up bn54
I1221 18:17:34.543138 18896 net.cpp:163] Top shape: 48 512 7 7 (1204224)
I1221 18:17:34.543156 18896 layer_factory.hpp:76] Creating layer relu54
I1221 18:17:34.543172 18896 net.cpp:110] Creating Layer relu54
I1221 18:17:34.543184 18896 net.cpp:477] relu54 <- bn54
I1221 18:17:34.543200 18896 net.cpp:419] relu54 -> bn54 (in-place)
I1221 18:17:34.543280 18896 net.cpp:155] Setting up relu54
I1221 18:17:34.543298 18896 net.cpp:163] Top shape: 48 512 7 7 (1204224)
I1221 18:17:34.543310 18896 layer_factory.hpp:76] Creating layer eltwise15
I1221 18:17:34.543326 18896 net.cpp:110] Creating Layer eltwise15
I1221 18:17:34.543339 18896 net.cpp:477] eltwise15 <- eltwise14_relu14_0_split_1
I1221 18:17:34.543352 18896 net.cpp:477] eltwise15 <- bn54
I1221 18:17:34.543368 18896 net.cpp:433] eltwise15 -> eltwise15
I1221 18:17:34.543385 18896 net.cpp:155] Setting up eltwise15
I1221 18:17:34.543398 18896 net.cpp:163] Top shape: 48 512 7 7 (1204224)
I1221 18:17:34.543411 18896 layer_factory.hpp:76] Creating layer relu15
I1221 18:17:34.543423 18896 net.cpp:110] Creating Layer relu15
I1221 18:17:34.543436 18896 net.cpp:477] relu15 <- eltwise15
I1221 18:17:34.543448 18896 net.cpp:419] relu15 -> eltwise15 (in-place)
I1221 18:17:34.543522 18896 net.cpp:155] Setting up relu15
I1221 18:17:34.543539 18896 net.cpp:163] Top shape: 48 512 7 7 (1204224)
I1221 18:17:34.543550 18896 layer_factory.hpp:76] Creating layer eltwise15_relu15_0_split
I1221 18:17:34.543566 18896 net.cpp:110] Creating Layer eltwise15_relu15_0_split
I1221 18:17:34.543579 18896 net.cpp:477] eltwise15_relu15_0_split <- eltwise15
I1221 18:17:34.543594 18896 net.cpp:433] eltwise15_relu15_0_split -> eltwise15_relu15_0_split_0
I1221 18:17:34.543611 18896 net.cpp:433] eltwise15_relu15_0_split -> eltwise15_relu15_0_split_1
I1221 18:17:34.543627 18896 net.cpp:155] Setting up eltwise15_relu15_0_split
I1221 18:17:34.543642 18896 net.cpp:163] Top shape: 48 512 7 7 (1204224)
I1221 18:17:34.543653 18896 net.cpp:163] Top shape: 48 512 7 7 (1204224)
I1221 18:17:34.543665 18896 layer_factory.hpp:76] Creating layer conv55
I1221 18:17:34.543681 18896 net.cpp:110] Creating Layer conv55
I1221 18:17:34.543694 18896 net.cpp:477] conv55 <- eltwise15_relu15_0_split_0
I1221 18:17:34.543710 18896 net.cpp:433] conv55 -> conv55
I1221 18:17:34.565696 18896 net.cpp:155] Setting up conv55
I1221 18:17:34.565742 18896 net.cpp:163] Top shape: 48 512 7 7 (1204224)
I1221 18:17:34.565788 18896 layer_factory.hpp:76] Creating layer bn55
I1221 18:17:34.565815 18896 net.cpp:110] Creating Layer bn55
I1221 18:17:34.565829 18896 net.cpp:477] bn55 <- conv55
I1221 18:17:34.565855 18896 net.cpp:433] bn55 -> bn55
I1221 18:17:34.565959 18896 net.cpp:155] Setting up bn55
I1221 18:17:34.565984 18896 net.cpp:163] Top shape: 48 512 7 7 (1204224)
I1221 18:17:34.566002 18896 layer_factory.hpp:76] Creating layer relu55
I1221 18:17:34.566020 18896 net.cpp:110] Creating Layer relu55
I1221 18:17:34.566032 18896 net.cpp:477] relu55 <- bn55
I1221 18:17:34.566046 18896 net.cpp:419] relu55 -> bn55 (in-place)
I1221 18:17:34.566129 18896 net.cpp:155] Setting up relu55
I1221 18:17:34.566148 18896 net.cpp:163] Top shape: 48 512 7 7 (1204224)
I1221 18:17:34.566159 18896 layer_factory.hpp:76] Creating layer conv56
I1221 18:17:34.566176 18896 net.cpp:110] Creating Layer conv56
I1221 18:17:34.566187 18896 net.cpp:477] conv56 <- bn55
I1221 18:17:34.566205 18896 net.cpp:433] conv56 -> conv56
I1221 18:17:34.587791 18896 net.cpp:155] Setting up conv56
I1221 18:17:34.587862 18896 net.cpp:163] Top shape: 48 512 7 7 (1204224)
I1221 18:17:34.587914 18896 layer_factory.hpp:76] Creating layer bn56
I1221 18:17:34.587937 18896 net.cpp:110] Creating Layer bn56
I1221 18:17:34.587951 18896 net.cpp:477] bn56 <- conv56
I1221 18:17:34.587973 18896 net.cpp:433] bn56 -> bn56
I1221 18:17:34.588076 18896 net.cpp:155] Setting up bn56
I1221 18:17:34.588095 18896 net.cpp:163] Top shape: 48 512 7 7 (1204224)
I1221 18:17:34.588114 18896 layer_factory.hpp:76] Creating layer relu56
I1221 18:17:34.588131 18896 net.cpp:110] Creating Layer relu56
I1221 18:17:34.588143 18896 net.cpp:477] relu56 <- bn56
I1221 18:17:34.588160 18896 net.cpp:419] relu56 -> bn56 (in-place)
I1221 18:17:34.588348 18896 net.cpp:155] Setting up relu56
I1221 18:17:34.588372 18896 net.cpp:163] Top shape: 48 512 7 7 (1204224)
I1221 18:17:34.588387 18896 layer_factory.hpp:76] Creating layer eltwise16
I1221 18:17:34.588403 18896 net.cpp:110] Creating Layer eltwise16
I1221 18:17:34.588415 18896 net.cpp:477] eltwise16 <- eltwise15_relu15_0_split_1
I1221 18:17:34.588429 18896 net.cpp:477] eltwise16 <- bn56
I1221 18:17:34.588443 18896 net.cpp:433] eltwise16 -> eltwise16
I1221 18:17:34.588460 18896 net.cpp:155] Setting up eltwise16
I1221 18:17:34.588474 18896 net.cpp:163] Top shape: 48 512 7 7 (1204224)
I1221 18:17:34.588485 18896 layer_factory.hpp:76] Creating layer relu16
I1221 18:17:34.588501 18896 net.cpp:110] Creating Layer relu16
I1221 18:17:34.588515 18896 net.cpp:477] relu16 <- eltwise16
I1221 18:17:34.588527 18896 net.cpp:419] relu16 -> eltwise16 (in-place)
I1221 18:17:34.588600 18896 net.cpp:155] Setting up relu16
I1221 18:17:34.588616 18896 net.cpp:163] Top shape: 48 512 7 7 (1204224)
I1221 18:17:34.588629 18896 layer_factory.hpp:76] Creating layer pool5
I1221 18:17:34.588644 18896 net.cpp:110] Creating Layer pool5
I1221 18:17:34.588656 18896 net.cpp:477] pool5 <- eltwise16
I1221 18:17:34.588673 18896 net.cpp:433] pool5 -> pool5
I1221 18:17:34.588758 18896 net.cpp:155] Setting up pool5
I1221 18:17:34.588776 18896 net.cpp:163] Top shape: 48 512 1 1 (24576)
I1221 18:17:34.588789 18896 layer_factory.hpp:76] Creating layer ip1
I1221 18:17:34.588819 18896 net.cpp:110] Creating Layer ip1
I1221 18:17:34.588834 18896 net.cpp:477] ip1 <- pool5
I1221 18:17:34.588848 18896 net.cpp:433] ip1 -> ip1
I1221 18:17:34.638519 18896 net.cpp:155] Setting up ip1
I1221 18:17:34.638581 18896 net.cpp:163] Top shape: 48 10575 (507600)
I1221 18:17:34.638641 18896 layer_factory.hpp:76] Creating layer ip1_ip1_0_split
I1221 18:17:34.638669 18896 net.cpp:110] Creating Layer ip1_ip1_0_split
I1221 18:17:34.638689 18896 net.cpp:477] ip1_ip1_0_split <- ip1
I1221 18:17:34.638712 18896 net.cpp:433] ip1_ip1_0_split -> ip1_ip1_0_split_0
I1221 18:17:34.638732 18896 net.cpp:433] ip1_ip1_0_split -> ip1_ip1_0_split_1
I1221 18:17:34.638753 18896 net.cpp:155] Setting up ip1_ip1_0_split
I1221 18:17:34.638768 18896 net.cpp:163] Top shape: 48 10575 (507600)
I1221 18:17:34.638780 18896 net.cpp:163] Top shape: 48 10575 (507600)
I1221 18:17:34.638792 18896 layer_factory.hpp:76] Creating layer loss
I1221 18:17:34.638810 18896 net.cpp:110] Creating Layer loss
I1221 18:17:34.638823 18896 net.cpp:477] loss <- ip1_ip1_0_split_0
I1221 18:17:34.638836 18896 net.cpp:477] loss <- label_data_1_split_0
I1221 18:17:34.638849 18896 net.cpp:433] loss -> loss
I1221 18:17:34.638893 18896 layer_factory.hpp:76] Creating layer loss
…
I1221 18:17:34.645942 18896 net.cpp:339] The NetState phase (1) differed from the phase (0) specified by a rule in layer data
I1221 18:17:34.646028 18896 net.cpp:339] The NetState phase (1) differed from the phase (0) specified by a rule in layer loss
I1221 18:17:34.646631 18896 net.cpp:50] Initializing net from parameters: 
name: "RsdNet34"
state {
  phase: TEST
}
layer {
  name: "data"
  type: "Data"
  top: "data"
  top: "label"
  include {
    phase: TEST
  }
  transform_param {
    scale: 0.0039215689
    mirror: true
    mean_file: "./mean_224gray.binaryproto"
  }
  data_param {
    source: "./test_224gray_lmdb"
    batch_size: 36
    backend: LMDB
  }
}
layer {
  name: "conv01"
  type: "Convolution"
  bottom: "data"
  top: "conv01"
  param {
    lr_mult: 1
    decay_mult: 1
  }
  param {
    lr_mult: 2
    decay_mult: 0
  }
  convolution_param {
    num_output: 64
    pad: 3
    kernel_size: 7
    stride: 2
    weight_filler {
      type: "xavier"
    }
    bias_filler {
      type: "constant"
    }
  }
}
layer {
  name: "bn01"
  type: "BatchNorm"
  bottom: "conv01"
  top: "bn01"
  batch_norm_param {
    use_global_stats: false
  }
}
layer {
  name: "relu01"
  type: "ReLU"
  bottom: "bn01"
  top: "bn01"
}
layer {
  name: "pool1"
  type: "Pooling"
  bottom: "bn01"
  top: "pool1"
  pooling_param {
    pool: MAX
    kernel_size: 3
    stride: 2
  }
}
layer {
  name: "conv21"
  type: "Convolution"
  bottom: "pool1"
  top: "conv21"
  param {
    lr_mult: 1
    decay_mult: 1
  }
  param {
    lr_mult: 2
    decay_mult: 0
  }
  convolution_param {
    num_output: 64
    pad: 1
    kernel_size: 3
    stride: 1
    weight_filler {
      type: "xavier"
    }
    bias_filler {
      type: "constant"
    }
  }
}
layer {
  name: "bn21"
  type: "BatchNorm"
  bottom: "conv21"
  top: "bn21"
  batch_norm_param {
    use_global_stats: false
  }
}
layer {
  name: "relu21"
  type: "ReLU"
  bottom: "bn21"
  top: "bn21"
}
layer {
  name: "conv22"
  type: "Convolution"
  bottom: "bn21"
  top: "conv22"
  param {
    lr_mult: 1
    decay_mult: 1
  }
  param {
    lr_mult: 2
    decay_mult: 0
  }
  convolution_param {
    num_output: 64
    pad: 1
    kernel_size: 3
    stride: 1
    weight_filler {
      type: "xavier"
    }
    bias_filler {
      type: "constant"
    }
  }
}
layer {
  name: "bn22"
  type: "BatchNorm"
  bottom: "conv22"
  top: "bn22"
  batch_norm_param {
    use_global_stats: false
  }
}
layer {
  name: "relu22"
  type: "ReLU"
  bottom: "bn22"
  top: "bn22"
}
layer {
  name: "eltwise1"
  type: "Eltwise"
  bottom: "pool1"
  bottom: "bn22"
  top: "eltwise1"
  eltwise_param {
    operation: SUM
  }
}
layer {
  name: "relu1"
  type: "ReLU"
  bottom: "eltwise1"
  top: "eltwise1"
}
layer {
  name: "conv23"
  type: "Convolution"
  bottom: "eltwise1"
  top: "conv23"
  param {
    lr_mult: 1
    decay_mult: 1
  }
  param {
    lr_mult: 2
    decay_mult: 0
  }
  convolution_param {
    num_output: 64
    pad: 1
    kernel_size: 3
    stride: 1
    weight_filler {
      type: "xavier"
    }
    bias_filler {
      type: "constant"
    }
  }
}
layer {
  name: "bn23"
  type: "BatchNorm"
  bottom: "conv23"
  top: "bn23"
  batch_norm_param {
    use_global_stats: false
  }
}
layer {
  name: "relu23"
  type: "ReLU"
  bottom: "bn23"
  top: "bn23"
}
layer {
  name: "conv24"
  type: "Convolution"
  bottom: "bn23"
  top: "conv24"
  param {
    lr_mult: 1
    decay_mult: 1
  }
  param {
    lr_mult: 2
    decay_mult: 0
  }
  convolution_param {
    num_output: 64
    pad: 1
    kernel_size: 3
    stride: 1
    weight_filler {
      type: "xavier"
    }
    bias_filler {
      type: "constant"
    }
  }
}
layer {
  name: "bn24"
  type: "BatchNorm"
  bottom: "conv24"
  top: "bn24"
  batch_norm_param {
    use_global_stats: false
  }
}
layer {
  name: "relu24"
  type: "ReLU"
  bottom: "bn24"
  top: "bn24"
}
layer {
  name: "eltwise2"
  type: "Eltwise"
  bottom: "eltwise1"
  bottom: "bn24"
  top: "eltwise2"
  eltwise_param {
    operation: SUM
  }
}
layer {
  name: "relu2"
  type: "ReLU"
  bottom: "eltwise2"
  top: "eltwise2"
}
layer {
  name: "conv25"
  type: "Convolution"
  bottom: "bn24"
  top: "conv25"
  param {
    lr_mult: 1
    decay_mult: 1
  }
  param {
    lr_mult: 2
    decay_mult: 0
  }
  convolution_param {
    num_output: 64
    pad: 1
    kernel_size: 3
    stride: 1
    weight_filler {
      type: "xavier"
    }
    bias_filler {
      type: "constant"
    }
  }
}
layer {
  name: "bn25"
  type: "BatchNorm"
  bottom: "conv25"
  top: "bn25"
  batch_norm_param {
    use_global_stats: false
  }
}
layer {
  name: "relu25"
  type: "ReLU"
  bottom: "bn25"
  top: "bn25"
}
layer {
  name: "conv26"
  type: "Convolution"
  bottom: "bn25"
  top: "conv26"
  param {
    lr_mult: 1
    decay_mult: 1
  }
  param {
    lr_mult: 2
    decay_mult: 0
  }
  convolution_param {
    num_output: 64
    pad: 1
    kernel_size: 3
    stride: 1
    weight_filler {
      type: "xavier"
    }
    bias_filler {
      type: "constant"
    }
  }
}
layer {
  name: "bn26"
  type: "BatchNorm"
  bottom: "conv26"
  top: "bn26"
  batch_norm_param {
    use_global_stats: false
  }
}
layer {
  name: "relu26"
  type: "ReLU"
  bottom: "bn26"
  top: "bn26"
}
layer {
  name: "eltwise3"
  type: "Eltwise"
  bottom: "eltwise2"
  bottom: "bn26"
  top: "eltwise3"
  eltwise_param {
    operation: SUM
  }
}
layer {
  name: "relu3"
  type: "ReLU"
  bottom: "eltwise3"
  top: "eltwise3"
}
layer {
  name: "relu3_p"
  type: "Convolution"
  bottom: "eltwise3"
  top: "relu3_p"
  param {
    lr_mult: 1
    decay_mult: 1
  }
  param {
    lr_mult: 2
    decay_mult: 0
  }
  convolution_param {
    num_output: 128
    pad: 0
    kernel_size: 1
    stride: 2
    weight_filler {
      type: "xavier"
    }
    bias_filler {
      type: "constant"
    }
  }
}
layer {
  name: "relu3_bn"
  type: "BatchNorm"
  bottom: "relu3_p"
  top: "relu3_bn"
  batch_norm_param {
    use_global_stats: false
  }
}
layer {
  name: "conv31"
  type: "Convolution"
  bottom: "eltwise3"
  top: "conv31"
  param {
    lr_mult: 1
    decay_mult: 1
  }
  param {
    lr_mult: 2
    decay_mult: 0
  }
  convolution_param {
    num_output: 128
    pad: 1
    kernel_size: 3
    stride: 2
    weight_filler {
      type: "xavier"
    }
    bias_filler {
      type: "constant"
    }
  }
}
layer {
  name: "bn31"
  type: "BatchNorm"
  bottom: "conv31"
  top: "bn31"
  batch_norm_param {
    use_global_stats: false
  }
}
layer {
  name: "relu31"
  type: "ReLU"
  bottom: "bn31"
  top: "bn31"
}
layer {
  name: "conv32"
  type: "Convolution"
  bottom: "bn31"
  top: "conv32"
  param {
    lr_mult: 1
    decay_mult: 1
  }
  param {
    lr_mult: 2
    decay_mult: 0
  }
  convolution_param {
    num_output: 128
    pad: 1
    kernel_size: 3
    stride: 1
    weight_filler {
      type: "xavier"
    }
    bias_filler {
      type: "constant"
    }
  }
}
layer {
  name: "bn32"
  type: "BatchNorm"
  bottom: "conv32"
  top: "bn32"
  batch_norm_param {
    use_global_stats: false
  }
}
layer {
  name: "relu32"
  type: "ReLU"
  bottom: "bn32"
  top: "bn32"
}
layer {
  name: "eltwise4"
  type: "Eltwise"
  bottom: "relu3_bn"
  bottom: "bn32"
  top: "eltwise4"
  eltwise_param {
    operation: SUM
  }
}
layer {
  name: "relu4"
  type: "ReLU"
  bottom: "eltwise4"
  top: "eltwise4"
}
layer {
  name: "conv33"
  type: "Convolution"
  bottom: "eltwise4"
  top: "conv33"
  param {
    lr_mult: 1
    decay_mult: 1
  }
  param {
    lr_mult: 2
    decay_mult: 0
  }
  convolution_param {
    num_output: 128
    pad: 1
    kernel_size: 3
    stride: 1
    weight_filler {
      type: "xavier"
    }
    bias_filler {
      type: "constant"
    }
  }
}
layer {
  name: "bn33"
  type: "BatchNorm"
  bottom: "conv33"
  top: "bn33"
  batch_norm_param {
    use_global_stats: false
  }
}
layer {
  name: "relu33"
  type: "ReLU"
  bottom: "bn33"
  top: "bn33"
}
layer {
  name: "conv34"
  type: "Convolution"
  bottom: "bn33"
  top: "conv34"
  param {
    lr_mult: 1
    decay_mult: 1
  }
  param {
    lr_mult: 2
    decay_mult: 0
  }
  convolution_param {
    num_output: 128
    pad: 1
    kernel_size: 3
    stride: 1
    weight_filler {
      type: "xavier"
    }
    bias_filler {
      type: "constant"
    }
  }
}
layer {
  name: "bn34"
  type: "BatchNorm"
  bottom: "conv34"
  top: "bn34"
  batch_norm_param {
    use_global_stats: false
  }
}
layer {
  name: "relu34"
  type: "ReLU"
  bottom: "bn34"
  top: "bn34"
}
layer {
  name: "eltwise5"
  type: "Eltwise"
  bottom: "eltwise4"
  bottom: "bn34"
  top: "eltwise5"
  eltwise_param {
    operation: SUM
  }
}
layer {
  name: "relu5"
  type: "ReLU"
  bottom: "eltwise5"
  top: "eltwise5"
}
layer {
  name: "conv35"
  type: "Convolution"
  bottom: "eltwise5"
  top: "conv35"
  param {
    lr_mult: 1
    decay_mult: 1
  }
  param {
    lr_mult: 2
    decay_mult: 0
  }
  convolution_param {
    num_output: 128
    pad: 1
    kernel_size: 3
    stride: 1
    weight_filler {
      type: "xavier"
    }
    bias_filler {
      type: "constant"
    }
  }
}
layer {
  name: "bn35"
  type: "BatchNorm"
  bottom: "conv35"
  top: "bn35"
  batch_norm_param {
    use_global_stats: false
  }
}
layer {
  name: "relu35"
  type: "ReLU"
  bottom: "bn35"
  top: "bn35"
}
layer {
  name: "conv36"
  type: "Convolution"
  bottom: "bn35"
  top: "conv36"
  param {
    lr_mult: 1
    decay_mult: 1
  }
  param {
    lr_mult: 2
    decay_mult: 0
  }
  convolution_param {
    num_output: 128
    pad: 1
    kernel_size: 3
    stride: 1
    weight_filler {
      type: "xavier"
    }
    bias_filler {
      type: "constant"
    }
  }
}
layer {
  name: "bn36"
  type: "BatchNorm"
  bottom: "conv36"
  top: "bn36"
  batch_norm_param {
    use_global_stats: false
  }
}
layer {
  name: "relu36"
  type: "ReLU"
  bottom: "bn36"
  top: "bn36"
}
layer {
  name: "eltwise6"
  type: "Eltwise"
  bottom: "eltwise5"
  bottom: "bn36"
  top: "eltwise6"
  eltwise_param {
    operation: SUM
  }
}
layer {
  name: "relu6"
  type: "ReLU"
  bottom: "eltwise6"
  top: "eltwise6"
}
layer {
  name: "conv37"
  type: "Convolution"
  bottom: "eltwise6"
  top: "conv37"
  param {
    lr_mult: 1
    decay_mult: 1
  }
  param {
    lr_mult: 2
    decay_mult: 0
  }
  convolution_param {
    num_output: 128
    pad: 1
    kernel_size: 3
    stride: 1
    weight_filler {
      type: "xavier"
    }
    bias_filler {
      type: "constant"
    }
  }
}
layer {
  name: "bn37"
  type: "BatchNorm"
  bottom: "conv37"
  top: "bn37"
  batch_norm_param {
    use_global_stats: false
  }
}
layer {
  name: "relu37"
  type: "ReLU"
  bottom: "bn37"
  top: "bn37"
}
layer {
  name: "conv38"
  type: "Convolution"
  bottom: "bn37"
  top: "conv38"
  param {
    lr_mult: 1
    decay_mult: 1
  }
  param {
    lr_mult: 2
    decay_mult: 0
  }
  convolution_param {
    num_output: 128
    pad: 1
    kernel_size: 3
    stride: 1
    weight_filler {
      type: "xavier"
    }
    bias_filler {
      type: "constant"
    }
  }
}
layer {
  name: "bn38"
  type: "BatchNorm"
  bottom: "conv38"
  top: "bn38"
  batch_norm_param {
    use_global_stats: false
  }
}
layer {
  name: "relu38"
  type: "ReLU"
  bottom: "bn38"
  top: "bn38"
}
layer {
  name: "eltwise7"
  type: "Eltwise"
  bottom: "eltwise6"
  bottom: "bn38"
  top: "eltwise7"
  eltwise_param {
    operation: SUM
  }
}
layer {
  name: "relu7"
  type: "ReLU"
  bottom: "eltwise7"
  top: "eltwise7"
}
layer {
  name: "relu7_p"
  type: "Convolution"
  bottom: "eltwise7"
  top: "relu7_p"
  param {
    lr_mult: 1
    decay_mult: 1
  }
  param {
    lr_mult: 2
    decay_mult: 0
  }
  convolution_param {
    num_output: 256
    pad: 0
    kernel_size: 1
    stride: 2
    weight_filler {
      type: "xavier"
    }
    bias_filler {
      type: "constant"
    }
  }
}
layer {
  name: "relu7_bn"
  type: "BatchNorm"
  bottom: "relu7_p"
  top: "relu7_bn"
  batch_norm_param {
    use_global_stats: false
  }
}
layer {
  name: "conv41"
  type: "Convolution"
  bottom: "eltwise7"
  top: "conv41"
  param {
    lr_mult: 1
    decay_mult: 1
  }
  param {
    lr_mult: 2
    decay_mult: 0
  }
  convolution_param {
    num_output: 256
    pad: 1
    kernel_size: 3
    stride: 2
    weight_filler {
      type: "xavier"
    }
    bias_filler {
      type: "constant"
    }
  }
}
layer {
  name: "bn41"
  type: "BatchNorm"
  bottom: "conv41"
  top: "bn41"
  batch_norm_param {
    use_global_stats: false
  }
}
layer {
  name: "relu41"
  type: "ReLU"
  bottom: "bn41"
  top: "bn41"
}
layer {
  name: "conv42"
  type: "Convolution"
  bottom: "bn41"
  top: "conv42"
  param {
    lr_mult: 1
    decay_mult: 1
  }
  param {
    lr_mult: 2
    decay_mult: 0
  }
  convolution_param {
    num_output: 256
    pad: 1
    kernel_size: 3
    stride: 1
    weight_filler {
      type: "xavier"
    }
    bias_filler {
      type: "constant"
    }
  }
}
layer {
  name: "bn42"
  type: "BatchNorm"
  bottom: "conv42"
  top: "bn42"
  batch_norm_param {
    use_global_stats: false
  }
}
layer {
  name: "relu42"
  type: "ReLU"
  bottom: "bn42"
  top: "bn42"
}
layer {
  name: "eltwise8"
  type: "Eltwise"
  bottom: "relu7_bn"
  bottom: "bn42"
  top: "eltwise8"
  eltwise_param {
    operation: SUM
  }
}
layer {
  name: "relu8"
  type: "ReLU"
  bottom: "eltwise8"
  top: "eltwise8"
}
layer {
  name: "conv43"
  type: "Convolution"
  bottom: "eltwise8"
  top: "conv43"
  param {
    lr_mult: 1
    decay_mult: 1
  }
  param {
    lr_mult: 2
    decay_mult: 0
  }
  convolution_param {
    num_output: 256
    pad: 1
    kernel_size: 3
    stride: 1
    weight_filler {
      type: "xavier"
    }
    bias_filler {
      type: "constant"
    }
  }
}
layer {
  name: "bn43"
  type: "BatchNorm"
  bottom: "conv43"
  top: "bn43"
  batch_norm_param {
    use_global_stats: false
  }
}
layer {
  name: "relu43"
  type: "ReLU"
  bottom: "bn43"
  top: "bn43"
}
layer {
  name: "conv44"
  type: "Convolution"
  bottom: "bn43"
  top: "conv44"
  param {
    lr_mult: 1
    decay_mult: 1
  }
  param {
    lr_mult: 2
    decay_mult: 0
  }
  convolution_param {
    num_output: 256
    pad: 1
    kernel_size: 3
    stride: 1
    weight_filler {
      type: "xavier"
    }
    bias_filler {
      type: "constant"
    }
  }
}
layer {
  name: "bn44"
  type: "BatchNorm"
  bottom: "conv44"
  top: "bn44"
  batch_norm_param {
    use_global_stats: false
  }
}
layer {
  name: "relu44"
  type: "ReLU"
  bottom: "bn44"
  top: "bn44"
}
layer {
  name: "eltwise9"
  type: "Eltwise"
  bottom: "eltwise8"
  bottom: "bn44"
  top: "eltwise9"
  eltwise_param {
    operation: SUM
  }
}
layer {
  name: "relu9"
  type: "ReLU"
  bottom: "eltwise9"
  top: "eltwise9"
}
layer {
  name: "conv45"
  type: "Convolution"
  bottom: "eltwise9"
  top: "conv45"
  param {
    lr_mult: 1
    decay_mult: 1
  }
  param {
    lr_mult: 2
    decay_mult: 0
  }
  convolution_param {
    num_output: 256
    pad: 1
    kernel_size: 3
    stride: 1
    weight_filler {
      type: "xavier"
    }
    bias_filler {
      type: "constant"
    }
  }
}
layer {
  name: "bn45"
  type: "BatchNorm"
  bottom: "conv45"
  top: "bn45"
  batch_norm_param {
    use_global_stats: false
  }
}
layer {
  name: "relu45"
  type: "ReLU"
  bottom: "bn45"
  top: "bn45"
}
layer {
  name: "conv46"
  type: "Convolution"
  bottom: "bn45"
  top: "conv46"
  param {
    lr_mult: 1
    decay_mult: 1
  }
  param {
    lr_mult: 2
    decay_mult: 0
  }
  convolution_param {
    num_output: 256
    pad: 1
    kernel_size: 3
    stride: 1
    weight_filler {
      type: "xavier"
    }
    bias_filler {
      type: "constant"
    }
  }
}
layer {
  name: "bn46"
  type: "BatchNorm"
  bottom: "conv46"
  top: "bn46"
  batch_norm_param {
    use_global_stats: false
  }
}
layer {
  name: "relu46"
  type: "ReLU"
  bottom: "bn46"
  top: "bn46"
}
layer {
  name: "eltwise10"
  type: "Eltwise"
  bottom: "eltwise9"
  bottom: "bn46"
  top: "eltwise10"
  eltwise_param {
    operation: SUM
  }
}
layer {
  name: "relu10"
  type: "ReLU"
  bottom: "eltwise10"
  top: "eltwise10"
}
layer {
  name: "conv47"
  type: "Convolution"
  bottom: "eltwise10"
  top: "conv47"
  param {
    lr_mult: 1
    decay_mult: 1
  }
  param {
    lr_mult: 2
    decay_mult: 0
  }
  convolution_param {
    num_output: 256
    pad: 1
    kernel_size: 3
    stride: 1
    weight_filler {
      type: "xavier"
    }
    bias_filler {
      type: "constant"
    }
  }
}
layer {
  name: "bn47"
  type: "BatchNorm"
  bottom: "conv47"
  top: "bn47"
  batch_norm_param {
    use_global_stats: false
  }
}
layer {
  name: "relu47"
  type: "ReLU"
  bottom: "bn47"
  top: "bn47"
}
layer {
  name: "conv48"
  type: "Convolution"
  bottom: "bn47"
  top: "conv48"
  param {
    lr_mult: 1
    decay_mult: 1
  }
  param {
    lr_mult: 2
    decay_mult: 0
  }
  convolution_param {
    num_output: 256
    pad: 1
    kernel_size: 3
    stride: 1
    weight_filler {
      type: "xavier"
    }
    bias_filler {
      type: "constant"
    }
  }
}
layer {
  name: "bn48"
  type: "BatchNorm"
  bottom: "conv48"
  top: "bn48"
  batch_norm_param {
    use_global_stats: false
  }
}
layer {
  name: "relu48"
  type: "ReLU"
  bottom: "bn48"
  top: "bn48"
}
layer {
  name: "eltwise11"
  type: "Eltwise"
  bottom: "eltwise10"
  bottom: "bn48"
  top: "eltwise11"
  eltwise_param {
    operation: SUM
  }
}
layer {
  name: "relu11"
  type: "ReLU"
  bottom: "eltwise11"
  top: "eltwise11"
}
layer {
  name: "conv49"
  type: "Convolution"
  bottom: "eltwise11"
  top: "conv49"
  param {
    lr_mult: 1
    decay_mult: 1
  }
  param {
    lr_mult: 2
    decay_mult: 0
  }
  convolution_param {
    num_output: 256
    pad: 1
    kernel_size: 3
    stride: 1
    weight_filler {
      type: "xavier"
    }
    bias_filler {
      type: "constant"
    }
  }
}
layer {
  name: "bn49"
  type: "BatchNorm"
  bottom: "conv49"
  top: "bn49"
  batch_norm_param {
    use_global_stats: false
  }
}
layer {
  name: "relu49"
  type: "ReLU"
  bottom: "bn49"
  top: "bn49"
}
layer {
  name: "conv410"
  type: "Convolution"
  bottom: "bn49"
  top: "conv410"
  param {
    lr_mult: 1
    decay_mult: 1
  }
  param {
    lr_mult: 2
    decay_mult: 0
  }
  convolution_param {
    num_output: 256
    pad: 1
    kernel_size: 3
    stride: 1
    weight_filler {
      type: "xavier"
    }
    bias_filler {
      type: "constant"
    }
  }
}
layer {
  name: "bn410"
  type: "BatchNorm"
  bottom: "conv410"
  top: "bn410"
  batch_norm_param {
    use_global_stats: false
  }
}
layer {
  name: "relu410"
  type: "ReLU"
  bottom: "bn410"
  top: "bn410"
}
layer {
  name: "eltwise12"
  type: "Eltwise"
  bottom: "eltwise11"
  bottom: "bn410"
  top: "eltwise12"
  eltwise_param {
    operation: SUM
  }
}
layer {
  name: "relu12"
  type: "ReLU"
  bottom: "eltwise12"
  top: "eltwise12"
}
layer {
  name: "conv411"
  type: "Convolution"
  bottom: "eltwise12"
  top: "conv411"
  param {
    lr_mult: 1
    decay_mult: 1
  }
  param {
    lr_mult: 2
    decay_mult: 0
  }
  convolution_param {
    num_output: 256
    pad: 1
    kernel_size: 3
    stride: 1
    weight_filler {
      type: "xavier"
    }
    bias_filler {
      type: "constant"
    }
  }
}
layer {
  name: "bn411"
  type: "BatchNorm"
  bottom: "conv411"
  top: "bn411"
  batch_norm_param {
    use_global_stats: false
  }
}
layer {
  name: "relu411"
  type: "ReLU"
  bottom: "bn411"
  top: "bn411"
}
layer {
  name: "conv412"
  type: "Convolution"
  bottom: "bn411"
  top: "conv412"
  param {
    lr_mult: 1
    decay_mult: 1
  }
  param {
    lr_mult: 2
    decay_mult: 0
  }
  convolution_param {
    num_output: 256
    pad: 1
    kernel_size: 3
    stride: 1
    weight_filler {
      type: "xavier"
    }
    bias_filler {
      type: "constant"
    }
  }
}
layer {
  name: "bn412"
  type: "BatchNorm"
  bottom: "conv412"
  top: "bn412"
  batch_norm_param {
    use_global_stats: false
  }
}
layer {
  name: "relu412"
  type: "ReLU"
  bottom: "bn412"
  top: "bn412"
}
layer {
  name: "eltwise13"
  type: "Eltwise"
  bottom: "eltwise12"
  bottom: "bn412"
  top: "eltwise13"
  eltwise_param {
    operation: SUM
  }
}
layer {
  name: "relu13"
  type: "ReLU"
  bottom: "eltwise13"
  top: "eltwise13"
}
layer {
  name: "relu13_p"
  type: "Convolution"
  bottom: "eltwise12"
  top: "relu13_p"
  param {
    lr_mult: 1
    decay_mult: 1
  }
  param {
    lr_mult: 2
    decay_mult: 0
  }
  convolution_param {
    num_output: 512
    pad: 0
    kernel_size: 1
    stride: 2
    weight_filler {
      type: "xavier"
    }
    bias_filler {
      type: "constant"
    }
  }
}
layer {
  name: "relu13_bn"
  type: "BatchNorm"
  bottom: "relu13_p"
  top: "relu13_bn"
  batch_norm_param {
    use_global_stats: false
  }
}
layer {
  name: "conv51"
  type: "Convolution"
  bottom: "eltwise13"
  top: "conv51"
  param {
    lr_mult: 1
    decay_mult: 1
  }
  param {
    lr_mult: 2
    decay_mult: 0
  }
  convolution_param {
    num_output: 512
    pad: 1
    kernel_size: 3
    stride: 2
    weight_filler {
      type: "xavier"
    }
    bias_filler {
      type: "constant"
    }
  }
}
layer {
  name: "bn51"
  type: "BatchNorm"
  bottom: "conv51"
  top: "bn51"
  batch_norm_param {
    use_global_stats: false
  }
}
layer {
  name: "relu51"
  type: "ReLU"
  bottom: "bn51"
  top: "bn51"
}
layer {
  name: "conv52"
  type: "Convolution"
  bottom: "bn51"
  top: "conv52"
  param {
    lr_mult: 1
    decay_mult: 1
  }
  param {
    lr_mult: 2
    decay_mult: 0
  }
  convolution_param {
    num_output: 512
    pad: 1
    kernel_size: 3
    stride: 1
    weight_filler {
      type: "xavier"
    }
    bias_filler {
      type: "constant"
    }
  }
}
layer {
  name: "bn52"
  type: "BatchNorm"
  bottom: "conv52"
  top: "bn52"
  batch_norm_param {
    use_global_stats: false
  }
}
layer {
  name: "relu52"
  type: "ReLU"
  bottom: "bn52"
  top: "bn52"
}
layer {
  name: "eltwise14"
  type: "Eltwise"
  bottom: "relu13_bn"
  bottom: "bn52"
  top: "eltwise14"
  eltwise_param {
    operation: SUM
  }
}
layer {
  name: "relu14"
  type: "ReLU"
  bottom: "eltwise14"
  top: "eltwise14"
}
layer {
  name: "conv53"
  type: "Convolution"
  bottom: "eltwise14"
  top: "conv53"
  param {
    lr_mult: 1
    decay_mult: 1
  }
  param {
    lr_mult: 2
    decay_mult: 0
  }
  convolution_param {
    num_output: 512
    pad: 1
    kernel_size: 3
    stride: 1
    weight_filler {
      type: "xavier"
    }
    bias_filler {
      type: "constant"
    }
  }
}
layer {
  name: "bn53"
  type: "BatchNorm"
  bottom: "conv53"
  top: "bn53"
  batch_norm_param {
    use_global_stats: false
  }
}
layer {
  name: "relu53"
  type: "ReLU"
  bottom: "bn53"
  top: "bn53"
}
layer {
  name: "conv54"
  type: "Convolution"
  bottom: "bn53"
  top: "conv54"
  param {
    lr_mult: 1
    decay_mult: 1
  }
  param {
    lr_mult: 2
    decay_mult: 0
  }
  convolution_param {
    num_output: 512
    pad: 1
    kernel_size: 3
    stride: 1
    weight_filler {
      type: "xavier"
    }
    bias_filler {
      type: "constant"
    }
  }
}
layer {
  name: "bn54"
  type: "BatchNorm"
  bottom: "conv54"
  top: "bn54"
  batch_norm_param {
    use_global_stats: false
  }
}
layer {
  name: "relu54"
  type: "ReLU"
  bottom: "bn54"
  top: "bn54"
}
layer {
  name: "eltwise15"
  type: "Eltwise"
  bottom: "eltwise14"
  bottom: "bn54"
  top: "eltwise15"
  eltwise_param {
    operation: SUM
  }
}
layer {
  name: "relu15"
  type: "ReLU"
  bottom: "eltwise15"
  top: "eltwise15"
}
layer {
  name: "conv55"
  type: "Convolution"
  bottom: "eltwise15"
  top: "conv55"
  param {
    lr_mult: 1
    decay_mult: 1
  }
  param {
    lr_mult: 2
    decay_mult: 0
  }
  convolution_param {
    num_output: 512
    pad: 1
    kernel_size: 3
    stride: 1
    weight_filler {
      type: "xavier"
    }
    bias_filler {
      type: "constant"
    }
  }
}
layer {
  name: "bn55"
  type: "BatchNorm"
  bottom: "conv55"
  top: "bn55"
  batch_norm_param {
    use_global_stats: false
  }
}
layer {
  name: "relu55"
  type: "ReLU"
  bottom: "bn55"
  top: "bn55"
}
layer {
  name: "conv56"
  type: "Convolution"
  bottom: "bn55"
  top: "conv56"
  param {
    lr_mult: 1
    decay_mult: 1
  }
  param {
    lr_mult: 2
    decay_mult: 0
  }
  convolution_param {
    num_output: 512
    pad: 1
    kernel_size: 3
    stride: 1
    weight_filler {
      type: "xavier"
    }
    bias_filler {
      type: "constant"
    }
  }
}
layer {
  name: "bn56"
  type: "BatchNorm"
  bottom: "conv56"
  top: "bn56"
  batch_norm_param {
    use_global_stats: false
  }
}
layer {
  name: "relu56"
  type: "ReLU"
  bottom: "bn56"
  top: "bn56"
}
layer {
  name: "eltwise16"
  type: "Eltwise"
  bottom: "eltwise15"
  bottom: "bn56"
  top: "eltwise16"
  eltwise_param {
    operation: SUM
  }
}
layer {
  name: "relu16"
  type: "ReLU"
  bottom: "eltwise16"
  top: "eltwise16"
}
layer {
  name: "pool5"
  type: "Pooling"
  bottom: "eltwise16"
  top: "pool5"
  pooling_param {
    pool: AVE
    kernel_size: 7
    stride: 1
  }
}
layer {
  name: "ip1"
  type: "InnerProduct"
  bottom: "pool5"
  top: "ip1"
  param {
    lr_mult: 1
    decay_mult: 1
  }
  param {
    lr_mult: 2
    decay_mult: 0
  }
  inner_product_param {
    num_output: 10575
    weight_filler {
      type: "xavier"
    }
    bias_filler {
      type: "constant"
    }
  }
}
layer {
  name: "accuracy"
  type: "Accuracy"
  bottom: "ip1"
  bottom: "label"
  top: "accuracy"
}
I1221 18:17:34.677644 18896 layer_factory.hpp:76] Creating layer data
I1221 18:17:34.677750 18896 net.cpp:110] Creating Layer data
I1221 18:17:34.677768 18896 net.cpp:433] data -> data
I1221 18:17:34.677788 18896 net.cpp:433] data -> label
I1221 18:17:34.677804 18896 data_transformer.cpp:23] Loading mean file from: ./mean_224gray.binaryproto
I1221 18:17:34.680871 18900 db_lmdb.cpp:22] Opened lmdb ./test_224gray_lmdb
I1221 18:17:34.681232 18896 data_layer.cpp:44] output data size: 36,1,224,224
I1221 18:17:34.701514 18896 net.cpp:155] Setting up data
I1221 18:17:34.701561 18896 net.cpp:163] Top shape: 36 1 224 224 (1806336)
I1221 18:17:34.701575 18896 net.cpp:163] Top shape: 36 (36)
I1221 18:17:34.701589 18896 layer_factory.hpp:76] Creating layer conv01
I1221 18:17:34.701612 18896 net.cpp:110] Creating Layer conv01
I1221 18:17:34.701623 18896 net.cpp:477] conv01 <- data
I1221 18:17:34.701639 18896 net.cpp:433] conv01 -> conv01
I1221 18:17:34.702167 18896 net.cpp:155] Setting up conv01
I1221 18:17:34.702188 18896 net.cpp:163] Top shape: 36 64 112 112 (28901376)
I1221 18:17:34.702208 18896 layer_factory.hpp:76] Creating layer bn01
I1221 18:17:34.702225 18896 net.cpp:110] Creating Layer bn01
I1221 18:17:34.702235 18896 net.cpp:477] bn01 <- conv01
I1221 18:17:34.702249 18896 net.cpp:433] bn01 -> bn01
I1221 18:17:34.702354 18896 net.cpp:155] Setting up bn01
I1221 18:17:34.702373 18896 net.cpp:163] Top shape: 36 64 112 112 (28901376)
I1221 18:17:34.702394 18896 layer_factory.hpp:76] Creating layer relu01
I1221 18:17:34.702409 18896 net.cpp:110] Creating Layer relu01
I1221 18:17:34.702419 18896 net.cpp:477] relu01 <- bn01
I1221 18:17:34.702430 18896 net.cpp:419] relu01 -> bn01 (in-place)
I1221 18:17:34.703579 18896 net.cpp:155] Setting up relu01
I1221 18:17:34.703606 18896 net.cpp:163] Top shape: 36 64 112 112 (28901376)
I1221 18:17:34.703619 18896 layer_factory.hpp:76] Creating layer pool1
I1221 18:17:34.703636 18896 net.cpp:110] Creating Layer pool1
I1221 18:17:34.703647 18896 net.cpp:477] pool1 <- bn01
I1221 18:17:34.703660 18896 net.cpp:433] pool1 -> pool1
I1221 18:17:34.703740 18896 net.cpp:155] Setting up pool1
I1221 18:17:34.703757 18896 net.cpp:163] Top shape: 36 64 56 56 (7225344)
I1221 18:17:34.703768 18896 layer_factory.hpp:76] Creating layer pool1_pool1_0_split
I1221 18:17:34.703780 18896 net.cpp:110] Creating Layer pool1_pool1_0_split
I1221 18:17:34.703789 18896 net.cpp:477] pool1_pool1_0_split <- pool1
I1221 18:17:34.703802 18896 net.cpp:433] pool1_pool1_0_split -> pool1_pool1_0_split_0
I1221 18:17:34.703816 18896 net.cpp:433] pool1_pool1_0_split -> pool1_pool1_0_split_1
I1221 18:17:34.703830 18896 net.cpp:155] Setting up pool1_pool1_0_split
I1221 18:17:34.703842 18896 net.cpp:163] Top shape: 36 64 56 56 (7225344)
I1221 18:17:34.703853 18896 net.cpp:163] Top shape: 36 64 56 56 (7225344)
I1221 18:17:34.703863 18896 layer_factory.hpp:76] Creating layer conv21
I1221 18:17:34.703877 18896 net.cpp:110] Creating Layer conv21
I1221 18:17:34.703924 18896 net.cpp:477] conv21 <- pool1_pool1_0_split_0
I1221 18:17:34.703940 18896 net.cpp:433] conv21 -> conv21
I1221 18:17:34.704587 18896 net.cpp:155] Setting up conv21
I1221 18:17:34.704608 18896 net.cpp:163] Top shape: 36 64 56 56 (7225344)
I1221 18:17:34.704622 18896 layer_factory.hpp:76] Creating layer bn21
I1221 18:17:34.704637 18896 net.cpp:110] Creating Layer bn21
I1221 18:17:34.704646 18896 net.cpp:477] bn21 <- conv21
I1221 18:17:34.704659 18896 net.cpp:433] bn21 -> bn21
I1221 18:17:34.704756 18896 net.cpp:155] Setting up bn21
I1221 18:17:34.704774 18896 net.cpp:163] Top shape: 36 64 56 56 (7225344)
I1221 18:17:34.704793 18896 layer_factory.hpp:76] Creating layer relu21
I1221 18:17:34.704808 18896 net.cpp:110] Creating Layer relu21
I1221 18:17:34.704818 18896 net.cpp:477] relu21 <- bn21
I1221 18:17:34.704830 18896 net.cpp:419] relu21 -> bn21 (in-place)
I1221 18:17:34.704901 18896 net.cpp:155] Setting up relu21
I1221 18:17:34.704916 18896 net.cpp:163] Top shape: 36 64 56 56 (7225344)
I1221 18:17:34.704926 18896 layer_factory.hpp:76] Creating layer conv22
I1221 18:17:34.704941 18896 net.cpp:110] Creating Layer conv22
I1221 18:17:34.704951 18896 net.cpp:477] conv22 <- bn21
I1221 18:17:34.704962 18896 net.cpp:433] conv22 -> conv22
I1221 18:17:34.705620 18896 net.cpp:155] Setting up conv22
I1221 18:17:34.705641 18896 net.cpp:163] Top shape: 36 64 56 56 (7225344)
I1221 18:17:34.705654 18896 layer_factory.hpp:76] Creating layer bn22
I1221 18:17:34.705668 18896 net.cpp:110] Creating Layer bn22
I1221 18:17:34.705679 18896 net.cpp:477] bn22 <- conv22
I1221 18:17:34.705692 18896 net.cpp:433] bn22 -> bn22
I1221 18:17:34.705785 18896 net.cpp:155] Setting up bn22
I1221 18:17:34.705802 18896 net.cpp:163] Top shape: 36 64 56 56 (7225344)
I1221 18:17:34.705818 18896 layer_factory.hpp:76] Creating layer relu22
I1221 18:17:34.705832 18896 net.cpp:110] Creating Layer relu22
I1221 18:17:34.705842 18896 net.cpp:477] relu22 <- bn22
I1221 18:17:34.705854 18896 net.cpp:419] relu22 -> bn22 (in-place)
I1221 18:17:34.706038 18896 net.cpp:155] Setting up relu22
I1221 18:17:34.706058 18896 net.cpp:163] Top shape: 36 64 56 56 (7225344)
I1221 18:17:34.706068 18896 layer_factory.hpp:76] Creating layer eltwise1
I1221 18:17:34.706082 18896 net.cpp:110] Creating Layer eltwise1
I1221 18:17:34.706092 18896 net.cpp:477] eltwise1 <- pool1_pool1_0_split_1
I1221 18:17:34.706104 18896 net.cpp:477] eltwise1 <- bn22
I1221 18:17:34.706115 18896 net.cpp:433] eltwise1 -> eltwise1
I1221 18:17:34.706130 18896 net.cpp:155] Setting up eltwise1
I1221 18:17:34.706142 18896 net.cpp:163] Top shape: 36 64 56 56 (7225344)
I1221 18:17:34.706152 18896 layer_factory.hpp:76] Creating layer relu1
I1221 18:17:34.706164 18896 net.cpp:110] Creating Layer relu1
I1221 18:17:34.706174 18896 net.cpp:477] relu1 <- eltwise1
I1221 18:17:34.706187 18896 net.cpp:419] relu1 -> eltwise1 (in-place)
I1221 18:17:34.706254 18896 net.cpp:155] Setting up relu1
I1221 18:17:34.706269 18896 net.cpp:163] Top shape: 36 64 56 56 (7225344)
I1221 18:17:34.706279 18896 layer_factory.hpp:76] Creating layer eltwise1_relu1_0_split
I1221 18:17:34.706291 18896 net.cpp:110] Creating Layer eltwise1_relu1_0_split
I1221 18:17:34.706300 18896 net.cpp:477] eltwise1_relu1_0_split <- eltwise1
I1221 18:17:34.706313 18896 net.cpp:433] eltwise1_relu1_0_split -> eltwise1_relu1_0_split_0
I1221 18:17:34.706326 18896 net.cpp:433] eltwise1_relu1_0_split -> eltwise1_relu1_0_split_1
I1221 18:17:34.706339 18896 net.cpp:155] Setting up eltwise1_relu1_0_split
I1221 18:17:34.706351 18896 net.cpp:163] Top shape: 36 64 56 56 (7225344)
I1221 18:17:34.706362 18896 net.cpp:163] Top shape: 36 64 56 56 (7225344)
I1221 18:17:34.706372 18896 layer_factory.hpp:76] Creating layer conv23
I1221 18:17:34.706387 18896 net.cpp:110] Creating Layer conv23
I1221 18:17:34.706396 18896 net.cpp:477] conv23 <- eltwise1_relu1_0_split_0
I1221 18:17:34.706409 18896 net.cpp:433] conv23 -> conv23
I1221 18:17:34.707049 18896 net.cpp:155] Setting up conv23
I1221 18:17:34.707104 18896 net.cpp:163] Top shape: 36 64 56 56 (7225344)
I1221 18:17:34.707149 18896 layer_factory.hpp:76] Creating layer bn23
I1221 18:17:34.707167 18896 net.cpp:110] Creating Layer bn23
I1221 18:17:34.707177 18896 net.cpp:477] bn23 <- conv23
I1221 18:17:34.707190 18896 net.cpp:433] bn23 -> bn23
I1221 18:17:34.707288 18896 net.cpp:155] Setting up bn23
I1221 18:17:34.707304 18896 net.cpp:163] Top shape: 36 64 56 56 (7225344)
I1221 18:17:34.707321 18896 layer_factory.hpp:76] Creating layer relu23
I1221 18:17:34.707335 18896 net.cpp:110] Creating Layer relu23
I1221 18:17:34.707345 18896 net.cpp:477] relu23 <- bn23
I1221 18:17:34.707357 18896 net.cpp:419] relu23 -> bn23 (in-place)
I1221 18:17:34.707432 18896 net.cpp:155] Setting up relu23
I1221 18:17:34.707447 18896 net.cpp:163] Top shape: 36 64 56 56 (7225344)
I1221 18:17:34.707456 18896 layer_factory.hpp:76] Creating layer conv24
I1221 18:17:34.707471 18896 net.cpp:110] Creating Layer conv24
I1221 18:17:34.707480 18896 net.cpp:477] conv24 <- bn23
I1221 18:17:34.707494 18896 net.cpp:433] conv24 -> conv24
I1221 18:17:34.708714 18896 net.cpp:155] Setting up conv24
I1221 18:17:34.708736 18896 net.cpp:163] Top shape: 36 64 56 56 (7225344)
I1221 18:17:34.708751 18896 layer_factory.hpp:76] Creating layer bn24
I1221 18:17:34.708765 18896 net.cpp:110] Creating Layer bn24
I1221 18:17:34.708776 18896 net.cpp:477] bn24 <- conv24
I1221 18:17:34.708789 18896 net.cpp:433] bn24 -> bn24
I1221 18:17:34.708889 18896 net.cpp:155] Setting up bn24
I1221 18:17:34.708905 18896 net.cpp:163] Top shape: 36 64 56 56 (7225344)
I1221 18:17:34.708922 18896 layer_factory.hpp:76] Creating layer relu24
I1221 18:17:34.708940 18896 net.cpp:110] Creating Layer relu24
I1221 18:17:34.708951 18896 net.cpp:477] relu24 <- bn24
I1221 18:17:34.708963 18896 net.cpp:419] relu24 -> bn24 (in-place)
I1221 18:17:34.709044 18896 net.cpp:155] Setting up relu24
I1221 18:17:34.709060 18896 net.cpp:163] Top shape: 36 64 56 56 (7225344)
I1221 18:17:34.709070 18896 layer_factory.hpp:76] Creating layer bn24_relu24_0_split
I1221 18:17:34.709082 18896 net.cpp:110] Creating Layer bn24_relu24_0_split
I1221 18:17:34.709092 18896 net.cpp:477] bn24_relu24_0_split <- bn24
I1221 18:17:34.709105 18896 net.cpp:433] bn24_relu24_0_split -> bn24_relu24_0_split_0
I1221 18:17:34.709117 18896 net.cpp:433] bn24_relu24_0_split -> bn24_relu24_0_split_1
I1221 18:17:34.709131 18896 net.cpp:155] Setting up bn24_relu24_0_split
I1221 18:17:34.709142 18896 net.cpp:163] Top shape: 36 64 56 56 (7225344)
I1221 18:17:34.709153 18896 net.cpp:163] Top shape: 36 64 56 56 (7225344)
I1221 18:17:34.709163 18896 layer_factory.hpp:76] Creating layer eltwise2
I1221 18:17:34.709179 18896 net.cpp:110] Creating Layer eltwise2
I1221 18:17:34.709189 18896 net.cpp:477] eltwise2 <- eltwise1_relu1_0_split_1
I1221 18:17:34.709200 18896 net.cpp:477] eltwise2 <- bn24_relu24_0_split_0
I1221 18:17:34.709215 18896 net.cpp:433] eltwise2 -> eltwise2
I1221 18:17:34.709230 18896 net.cpp:155] Setting up eltwise2
I1221 18:17:34.709242 18896 net.cpp:163] Top shape: 36 64 56 56 (7225344)
I1221 18:17:34.709252 18896 layer_factory.hpp:76] Creating layer relu2
I1221 18:17:34.709264 18896 net.cpp:110] Creating Layer relu2
I1221 18:17:34.709273 18896 net.cpp:477] relu2 <- eltwise2
I1221 18:17:34.709287 18896 net.cpp:419] relu2 -> eltwise2 (in-place)
I1221 18:17:34.709480 18896 net.cpp:155] Setting up relu2
I1221 18:17:34.709501 18896 net.cpp:163] Top shape: 36 64 56 56 (7225344)
I1221 18:17:34.709512 18896 layer_factory.hpp:76] Creating layer conv25
I1221 18:17:34.709527 18896 net.cpp:110] Creating Layer conv25
I1221 18:17:34.709537 18896 net.cpp:477] conv25 <- bn24_relu24_0_split_1
I1221 18:17:34.709554 18896 net.cpp:433] conv25 -> conv25
I1221 18:17:34.710191 18896 net.cpp:155] Setting up conv25
I1221 18:17:34.710211 18896 net.cpp:163] Top shape: 36 64 56 56 (7225344)
I1221 18:17:34.710225 18896 layer_factory.hpp:76] Creating layer bn25
I1221 18:17:34.710242 18896 net.cpp:110] Creating Layer bn25
I1221 18:17:34.710253 18896 net.cpp:477] bn25 <- conv25
I1221 18:17:34.710264 18896 net.cpp:433] bn25 -> bn25
I1221 18:17:34.710384 18896 net.cpp:155] Setting up bn25
I1221 18:17:34.710402 18896 net.cpp:163] Top shape: 36 64 56 56 (7225344)
I1221 18:17:34.710420 18896 layer_factory.hpp:76] Creating layer relu25
I1221 18:17:34.710433 18896 net.cpp:110] Creating Layer relu25
I1221 18:17:34.710443 18896 net.cpp:477] relu25 <- bn25
I1221 18:17:34.710455 18896 net.cpp:419] relu25 -> bn25 (in-place)
I1221 18:17:34.710539 18896 net.cpp:155] Setting up relu25
I1221 18:17:34.710554 18896 net.cpp:163] Top shape: 36 64 56 56 (7225344)
I1221 18:17:34.710566 18896 layer_factory.hpp:76] Creating layer conv26
I1221 18:17:34.710579 18896 net.cpp:110] Creating Layer conv26
I1221 18:17:34.710589 18896 net.cpp:477] conv26 <- bn25
I1221 18:17:34.710602 18896 net.cpp:433] conv26 -> conv26
I1221 18:17:34.711252 18896 net.cpp:155] Setting up conv26
I1221 18:17:34.711272 18896 net.cpp:163] Top shape: 36 64 56 56 (7225344)
I1221 18:17:34.711287 18896 layer_factory.hpp:76] Creating layer bn26
I1221 18:17:34.711302 18896 net.cpp:110] Creating Layer bn26
I1221 18:17:34.711313 18896 net.cpp:477] bn26 <- conv26
I1221 18:17:34.711326 18896 net.cpp:433] bn26 -> bn26
I1221 18:17:34.711434 18896 net.cpp:155] Setting up bn26
I1221 18:17:34.711452 18896 net.cpp:163] Top shape: 36 64 56 56 (7225344)
I1221 18:17:34.711475 18896 layer_factory.hpp:76] Creating layer relu26
I1221 18:17:34.711490 18896 net.cpp:110] Creating Layer relu26
I1221 18:17:34.711500 18896 net.cpp:477] relu26 <- bn26
I1221 18:17:34.711511 18896 net.cpp:419] relu26 -> bn26 (in-place)
I1221 18:17:34.712308 18896 net.cpp:155] Setting up relu26
I1221 18:17:34.712335 18896 net.cpp:163] Top shape: 36 64 56 56 (7225344)
I1221 18:17:34.712347 18896 layer_factory.hpp:76] Creating layer eltwise3
I1221 18:17:34.712360 18896 net.cpp:110] Creating Layer eltwise3
I1221 18:17:34.712371 18896 net.cpp:477] eltwise3 <- eltwise2
I1221 18:17:34.712383 18896 net.cpp:477] eltwise3 <- bn26
I1221 18:17:34.712394 18896 net.cpp:433] eltwise3 -> eltwise3
I1221 18:17:34.712410 18896 net.cpp:155] Setting up eltwise3
I1221 18:17:34.712424 18896 net.cpp:163] Top shape: 36 64 56 56 (7225344)
I1221 18:17:34.712432 18896 layer_factory.hpp:76] Creating layer relu3
I1221 18:17:34.712447 18896 net.cpp:110] Creating Layer relu3
I1221 18:17:34.712457 18896 net.cpp:477] relu3 <- eltwise3
I1221 18:17:34.712469 18896 net.cpp:419] relu3 -> eltwise3 (in-place)
I1221 18:17:34.712548 18896 net.cpp:155] Setting up relu3
I1221 18:17:34.712563 18896 net.cpp:163] Top shape: 36 64 56 56 (7225344)
I1221 18:17:34.712574 18896 layer_factory.hpp:76] Creating layer eltwise3_relu3_0_split
I1221 18:17:34.712590 18896 net.cpp:110] Creating Layer eltwise3_relu3_0_split
I1221 18:17:34.712600 18896 net.cpp:477] eltwise3_relu3_0_split <- eltwise3
I1221 18:17:34.712613 18896 net.cpp:433] eltwise3_relu3_0_split -> eltwise3_relu3_0_split_0
I1221 18:17:34.712632 18896 net.cpp:433] eltwise3_relu3_0_split -> eltwise3_relu3_0_split_1
I1221 18:17:34.712646 18896 net.cpp:155] Setting up eltwise3_relu3_0_split
I1221 18:17:34.712659 18896 net.cpp:163] Top shape: 36 64 56 56 (7225344)
I1221 18:17:34.712671 18896 net.cpp:163] Top shape: 36 64 56 56 (7225344)
I1221 18:17:34.712679 18896 layer_factory.hpp:76] Creating layer relu3_p
I1221 18:17:34.712692 18896 net.cpp:110] Creating Layer relu3_p
I1221 18:17:34.712702 18896 net.cpp:477] relu3_p <- eltwise3_relu3_0_split_0
I1221 18:17:34.712716 18896 net.cpp:433] relu3_p -> relu3_p
I1221 18:17:34.713176 18896 net.cpp:155] Setting up relu3_p
I1221 18:17:34.713197 18896 net.cpp:163] Top shape: 36 128 28 28 (3612672)
I1221 18:17:34.713212 18896 layer_factory.hpp:76] Creating layer relu3_bn
I1221 18:17:34.713232 18896 net.cpp:110] Creating Layer relu3_bn
I1221 18:17:34.713243 18896 net.cpp:477] relu3_bn <- relu3_p
I1221 18:17:34.713255 18896 net.cpp:433] relu3_bn -> relu3_bn
I1221 18:17:34.713358 18896 net.cpp:155] Setting up relu3_bn
I1221 18:17:34.713376 18896 net.cpp:163] Top shape: 36 128 28 28 (3612672)
I1221 18:17:34.713394 18896 layer_factory.hpp:76] Creating layer conv31
I1221 18:17:34.713409 18896 net.cpp:110] Creating Layer conv31
I1221 18:17:34.713438 18896 net.cpp:477] conv31 <- eltwise3_relu3_0_split_1
I1221 18:17:34.713454 18896 net.cpp:433] conv31 -> conv31
I1221 18:17:34.714383 18896 net.cpp:155] Setting up conv31
I1221 18:17:34.714404 18896 net.cpp:163] Top shape: 36 128 28 28 (3612672)
I1221 18:17:34.714421 18896 layer_factory.hpp:76] Creating layer bn31
I1221 18:17:34.714437 18896 net.cpp:110] Creating Layer bn31
I1221 18:17:34.714448 18896 net.cpp:477] bn31 <- conv31
I1221 18:17:34.714462 18896 net.cpp:433] bn31 -> bn31
I1221 18:17:34.714550 18896 net.cpp:155] Setting up bn31
I1221 18:17:34.714566 18896 net.cpp:163] Top shape: 36 128 28 28 (3612672)
I1221 18:17:34.714586 18896 layer_factory.hpp:76] Creating layer relu31
I1221 18:17:34.714599 18896 net.cpp:110] Creating Layer relu31
I1221 18:17:34.714609 18896 net.cpp:477] relu31 <- bn31
I1221 18:17:34.714624 18896 net.cpp:419] relu31 -> bn31 (in-place)
I1221 18:17:34.714818 18896 net.cpp:155] Setting up relu31
I1221 18:17:34.714836 18896 net.cpp:163] Top shape: 36 128 28 28 (3612672)
I1221 18:17:34.714848 18896 layer_factory.hpp:76] Creating layer conv32
I1221 18:17:34.714861 18896 net.cpp:110] Creating Layer conv32
I1221 18:17:34.714871 18896 net.cpp:477] conv32 <- bn31
I1221 18:17:34.714890 18896 net.cpp:433] conv32 -> conv32
I1221 18:17:34.716873 18896 net.cpp:155] Setting up conv32
I1221 18:17:34.716898 18896 net.cpp:163] Top shape: 36 128 28 28 (3612672)
I1221 18:17:34.716913 18896 layer_factory.hpp:76] Creating layer bn32
I1221 18:17:34.716930 18896 net.cpp:110] Creating Layer bn32
I1221 18:17:34.716940 18896 net.cpp:477] bn32 <- conv32
I1221 18:17:34.716955 18896 net.cpp:433] bn32 -> bn32
I1221 18:17:34.717048 18896 net.cpp:155] Setting up bn32
I1221 18:17:34.717066 18896 net.cpp:163] Top shape: 36 128 28 28 (3612672)
I1221 18:17:34.717082 18896 layer_factory.hpp:76] Creating layer relu32
I1221 18:17:34.717095 18896 net.cpp:110] Creating Layer relu32
I1221 18:17:34.717105 18896 net.cpp:477] relu32 <- bn32
I1221 18:17:34.717119 18896 net.cpp:419] relu32 -> bn32 (in-place)
I1221 18:17:34.717200 18896 net.cpp:155] Setting up relu32
I1221 18:17:34.717216 18896 net.cpp:163] Top shape: 36 128 28 28 (3612672)
I1221 18:17:34.717226 18896 layer_factory.hpp:76] Creating layer eltwise4
I1221 18:17:34.717239 18896 net.cpp:110] Creating Layer eltwise4
I1221 18:17:34.717249 18896 net.cpp:477] eltwise4 <- relu3_bn
I1221 18:17:34.734282 18896 net.cpp:477] eltwise4 <- bn32
I1221 18:17:34.734316 18896 net.cpp:433] eltwise4 -> eltwise4
I1221 18:17:34.734339 18896 net.cpp:155] Setting up eltwise4
I1221 18:17:34.734354 18896 net.cpp:163] Top shape: 36 128 28 28 (3612672)
I1221 18:17:34.734365 18896 layer_factory.hpp:76] Creating layer relu4
I1221 18:17:34.734380 18896 net.cpp:110] Creating Layer relu4
I1221 18:17:34.734390 18896 net.cpp:477] relu4 <- eltwise4
I1221 18:17:34.734401 18896 net.cpp:419] relu4 -> eltwise4 (in-place)
I1221 18:17:34.734506 18896 net.cpp:155] Setting up relu4
I1221 18:17:34.734524 18896 net.cpp:163] Top shape: 36 128 28 28 (3612672)
I1221 18:17:34.734534 18896 layer_factory.hpp:76] Creating layer eltwise4_relu4_0_split
I1221 18:17:34.734546 18896 net.cpp:110] Creating Layer eltwise4_relu4_0_split
I1221 18:17:34.734556 18896 net.cpp:477] eltwise4_relu4_0_split <- eltwise4
I1221 18:17:34.734570 18896 net.cpp:433] eltwise4_relu4_0_split -> eltwise4_relu4_0_split_0
I1221 18:17:34.734585 18896 net.cpp:433] eltwise4_relu4_0_split -> eltwise4_relu4_0_split_1
I1221 18:17:34.734599 18896 net.cpp:155] Setting up eltwise4_relu4_0_split
I1221 18:17:34.734614 18896 net.cpp:163] Top shape: 36 128 28 28 (3612672)
I1221 18:17:34.734627 18896 net.cpp:163] Top shape: 36 128 28 28 (3612672)
I1221 18:17:34.734637 18896 layer_factory.hpp:76] Creating layer conv33
I1221 18:17:34.734652 18896 net.cpp:110] Creating Layer conv33
I1221 18:17:34.734661 18896 net.cpp:477] conv33 <- eltwise4_relu4_0_split_0
I1221 18:17:34.734678 18896 net.cpp:433] conv33 -> conv33
I1221 18:17:34.736752 18896 net.cpp:155] Setting up conv33
I1221 18:17:34.736773 18896 net.cpp:163] Top shape: 36 128 28 28 (3612672)
I1221 18:17:34.736821 18896 layer_factory.hpp:76] Creating layer bn33
I1221 18:17:34.736837 18896 net.cpp:110] Creating Layer bn33
I1221 18:17:34.736847 18896 net.cpp:477] bn33 <- conv33
I1221 18:17:34.736862 18896 net.cpp:433] bn33 -> bn33
I1221 18:17:34.736982 18896 net.cpp:155] Setting up bn33
I1221 18:17:34.736999 18896 net.cpp:163] Top shape: 36 128 28 28 (3612672)
I1221 18:17:34.737015 18896 layer_factory.hpp:76] Creating layer relu33
I1221 18:17:34.737035 18896 net.cpp:110] Creating Layer relu33
I1221 18:17:34.737045 18896 net.cpp:477] relu33 <- bn33
I1221 18:17:34.737058 18896 net.cpp:419] relu33 -> bn33 (in-place)
I1221 18:17:34.737140 18896 net.cpp:155] Setting up relu33
I1221 18:17:34.737155 18896 net.cpp:163] Top shape: 36 128 28 28 (3612672)
I1221 18:17:34.737166 18896 layer_factory.hpp:76] Creating layer conv34
I1221 18:17:34.737182 18896 net.cpp:110] Creating Layer conv34
I1221 18:17:34.737192 18896 net.cpp:477] conv34 <- bn33
I1221 18:17:34.737205 18896 net.cpp:433] conv34 -> conv34
I1221 18:17:34.739168 18896 net.cpp:155] Setting up conv34
I1221 18:17:34.739190 18896 net.cpp:163] Top shape: 36 128 28 28 (3612672)
I1221 18:17:34.739207 18896 layer_factory.hpp:76] Creating layer bn34
I1221 18:17:34.739219 18896 net.cpp:110] Creating Layer bn34
I1221 18:17:34.739230 18896 net.cpp:477] bn34 <- conv34
I1221 18:17:34.739245 18896 net.cpp:433] bn34 -> bn34
I1221 18:17:34.739338 18896 net.cpp:155] Setting up bn34
I1221 18:17:34.739356 18896 net.cpp:163] Top shape: 36 128 28 28 (3612672)
I1221 18:17:34.739372 18896 layer_factory.hpp:76] Creating layer relu34
I1221 18:17:34.739384 18896 net.cpp:110] Creating Layer relu34
I1221 18:17:34.739394 18896 net.cpp:477] relu34 <- bn34
I1221 18:17:34.739408 18896 net.cpp:419] relu34 -> bn34 (in-place)
I1221 18:17:34.739595 18896 net.cpp:155] Setting up relu34
I1221 18:17:34.739614 18896 net.cpp:163] Top shape: 36 128 28 28 (3612672)
I1221 18:17:34.739625 18896 layer_factory.hpp:76] Creating layer eltwise5
I1221 18:17:34.739639 18896 net.cpp:110] Creating Layer eltwise5
I1221 18:17:34.739648 18896 net.cpp:477] eltwise5 <- eltwise4_relu4_0_split_1
I1221 18:17:34.739660 18896 net.cpp:477] eltwise5 <- bn34
I1221 18:17:34.739675 18896 net.cpp:433] eltwise5 -> eltwise5
I1221 18:17:34.739691 18896 net.cpp:155] Setting up eltwise5
I1221 18:17:34.739702 18896 net.cpp:163] Top shape: 36 128 28 28 (3612672)
I1221 18:17:34.739712 18896 layer_factory.hpp:76] Creating layer relu5
I1221 18:17:34.739724 18896 net.cpp:110] Creating Layer relu5
I1221 18:17:34.739734 18896 net.cpp:477] relu5 <- eltwise5
I1221 18:17:34.739745 18896 net.cpp:419] relu5 -> eltwise5 (in-place)
I1221 18:17:34.739820 18896 net.cpp:155] Setting up relu5
I1221 18:17:34.739835 18896 net.cpp:163] Top shape: 36 128 28 28 (3612672)
I1221 18:17:34.739845 18896 layer_factory.hpp:76] Creating layer eltwise5_relu5_0_split
I1221 18:17:34.739856 18896 net.cpp:110] Creating Layer eltwise5_relu5_0_split
I1221 18:17:34.739866 18896 net.cpp:477] eltwise5_relu5_0_split <- eltwise5
I1221 18:17:34.739879 18896 net.cpp:433] eltwise5_relu5_0_split -> eltwise5_relu5_0_split_0
I1221 18:17:34.739892 18896 net.cpp:433] eltwise5_relu5_0_split -> eltwise5_relu5_0_split_1
I1221 18:17:34.739907 18896 net.cpp:155] Setting up eltwise5_relu5_0_split
I1221 18:17:34.739922 18896 net.cpp:163] Top shape: 36 128 28 28 (3612672)
I1221 18:17:34.739933 18896 net.cpp:163] Top shape: 36 128 28 28 (3612672)
I1221 18:17:34.739943 18896 layer_factory.hpp:76] Creating layer conv35
I1221 18:17:34.739956 18896 net.cpp:110] Creating Layer conv35
I1221 18:17:34.739966 18896 net.cpp:477] conv35 <- eltwise5_relu5_0_split_0
I1221 18:17:34.739981 18896 net.cpp:433] conv35 -> conv35
I1221 18:17:34.741930 18896 net.cpp:155] Setting up conv35
I1221 18:17:34.741950 18896 net.cpp:163] Top shape: 36 128 28 28 (3612672)
I1221 18:17:34.741963 18896 layer_factory.hpp:76] Creating layer bn35
I1221 18:17:34.741977 18896 net.cpp:110] Creating Layer bn35
I1221 18:17:34.741987 18896 net.cpp:477] bn35 <- conv35
I1221 18:17:34.742002 18896 net.cpp:433] bn35 -> bn35
I1221 18:17:34.742091 18896 net.cpp:155] Setting up bn35
I1221 18:17:34.742121 18896 net.cpp:163] Top shape: 36 128 28 28 (3612672)
I1221 18:17:34.742153 18896 layer_factory.hpp:76] Creating layer relu35
I1221 18:17:34.742169 18896 net.cpp:110] Creating Layer relu35
I1221 18:17:34.742180 18896 net.cpp:477] relu35 <- bn35
I1221 18:17:34.742192 18896 net.cpp:419] relu35 -> bn35 (in-place)
I1221 18:17:34.742271 18896 net.cpp:155] Setting up relu35
I1221 18:17:34.742286 18896 net.cpp:163] Top shape: 36 128 28 28 (3612672)
I1221 18:17:34.742296 18896 layer_factory.hpp:76] Creating layer conv36
I1221 18:17:34.742311 18896 net.cpp:110] Creating Layer conv36
I1221 18:17:34.742321 18896 net.cpp:477] conv36 <- bn35
I1221 18:17:34.742332 18896 net.cpp:433] conv36 -> conv36
I1221 18:17:34.744236 18896 net.cpp:155] Setting up conv36
I1221 18:17:34.744259 18896 net.cpp:163] Top shape: 36 128 28 28 (3612672)
I1221 18:17:34.744273 18896 layer_factory.hpp:76] Creating layer bn36
I1221 18:17:34.744287 18896 net.cpp:110] Creating Layer bn36
I1221 18:17:34.744297 18896 net.cpp:477] bn36 <- conv36
I1221 18:17:34.744309 18896 net.cpp:433] bn36 -> bn36
I1221 18:17:34.744400 18896 net.cpp:155] Setting up bn36
I1221 18:17:34.744416 18896 net.cpp:163] Top shape: 36 128 28 28 (3612672)
I1221 18:17:34.744433 18896 layer_factory.hpp:76] Creating layer relu36
I1221 18:17:34.744447 18896 net.cpp:110] Creating Layer relu36
I1221 18:17:34.744457 18896 net.cpp:477] relu36 <- bn36
I1221 18:17:34.744470 18896 net.cpp:419] relu36 -> bn36 (in-place)
I1221 18:17:34.744665 18896 net.cpp:155] Setting up relu36
I1221 18:17:34.744684 18896 net.cpp:163] Top shape: 36 128 28 28 (3612672)
I1221 18:17:34.744695 18896 layer_factory.hpp:76] Creating layer eltwise6
I1221 18:17:34.744709 18896 net.cpp:110] Creating Layer eltwise6
I1221 18:17:34.744717 18896 net.cpp:477] eltwise6 <- eltwise5_relu5_0_split_1
I1221 18:17:34.744729 18896 net.cpp:477] eltwise6 <- bn36
I1221 18:17:34.744740 18896 net.cpp:433] eltwise6 -> eltwise6
I1221 18:17:34.744755 18896 net.cpp:155] Setting up eltwise6
I1221 18:17:34.744766 18896 net.cpp:163] Top shape: 36 128 28 28 (3612672)
I1221 18:17:34.744776 18896 layer_factory.hpp:76] Creating layer relu6
I1221 18:17:34.744787 18896 net.cpp:110] Creating Layer relu6
I1221 18:17:34.744797 18896 net.cpp:477] relu6 <- eltwise6
I1221 18:17:34.744810 18896 net.cpp:419] relu6 -> eltwise6 (in-place)
I1221 18:17:34.744881 18896 net.cpp:155] Setting up relu6
I1221 18:17:34.744896 18896 net.cpp:163] Top shape: 36 128 28 28 (3612672)
I1221 18:17:34.744906 18896 layer_factory.hpp:76] Creating layer eltwise6_relu6_0_split
I1221 18:17:34.744917 18896 net.cpp:110] Creating Layer eltwise6_relu6_0_split
I1221 18:17:34.744927 18896 net.cpp:477] eltwise6_relu6_0_split <- eltwise6
I1221 18:17:34.744941 18896 net.cpp:433] eltwise6_relu6_0_split -> eltwise6_relu6_0_split_0
I1221 18:17:34.744954 18896 net.cpp:433] eltwise6_relu6_0_split -> eltwise6_relu6_0_split_1
I1221 18:17:34.744968 18896 net.cpp:155] Setting up eltwise6_relu6_0_split
I1221 18:17:34.744979 18896 net.cpp:163] Top shape: 36 128 28 28 (3612672)
I1221 18:17:34.745003 18896 net.cpp:163] Top shape: 36 128 28 28 (3612672)
I1221 18:17:34.745012 18896 layer_factory.hpp:76] Creating layer conv37
I1221 18:17:34.745028 18896 net.cpp:110] Creating Layer conv37
I1221 18:17:34.745038 18896 net.cpp:477] conv37 <- eltwise6_relu6_0_split_0
I1221 18:17:34.745053 18896 net.cpp:433] conv37 -> conv37
I1221 18:17:34.746999 18896 net.cpp:155] Setting up conv37
I1221 18:17:34.747020 18896 net.cpp:163] Top shape: 36 128 28 28 (3612672)
I1221 18:17:34.747035 18896 layer_factory.hpp:76] Creating layer bn37
I1221 18:17:34.747047 18896 net.cpp:110] Creating Layer bn37
I1221 18:17:34.747057 18896 net.cpp:477] bn37 <- conv37
I1221 18:17:34.747074 18896 net.cpp:433] bn37 -> bn37
I1221 18:17:34.747170 18896 net.cpp:155] Setting up bn37
I1221 18:17:34.747186 18896 net.cpp:163] Top shape: 36 128 28 28 (3612672)
I1221 18:17:34.747202 18896 layer_factory.hpp:76] Creating layer relu37
I1221 18:17:34.747225 18896 net.cpp:110] Creating Layer relu37
I1221 18:17:34.747252 18896 net.cpp:477] relu37 <- bn37
I1221 18:17:34.747268 18896 net.cpp:419] relu37 -> bn37 (in-place)
I1221 18:17:34.747349 18896 net.cpp:155] Setting up relu37
I1221 18:17:34.747364 18896 net.cpp:163] Top shape: 36 128 28 28 (3612672)
I1221 18:17:34.747376 18896 layer_factory.hpp:76] Creating layer conv38
I1221 18:17:34.747390 18896 net.cpp:110] Creating Layer conv38
I1221 18:17:34.747400 18896 net.cpp:477] conv38 <- bn37
I1221 18:17:34.747414 18896 net.cpp:433] conv38 -> conv38
I1221 18:17:34.749323 18896 net.cpp:155] Setting up conv38
I1221 18:17:34.749344 18896 net.cpp:163] Top shape: 36 128 28 28 (3612672)
I1221 18:17:34.749358 18896 layer_factory.hpp:76] Creating layer bn38
I1221 18:17:34.749373 18896 net.cpp:110] Creating Layer bn38
I1221 18:17:34.749384 18896 net.cpp:477] bn38 <- conv38
I1221 18:17:34.749397 18896 net.cpp:433] bn38 -> bn38
I1221 18:17:34.749491 18896 net.cpp:155] Setting up bn38
I1221 18:17:34.749510 18896 net.cpp:163] Top shape: 36 128 28 28 (3612672)
I1221 18:17:34.749526 18896 layer_factory.hpp:76] Creating layer relu38
I1221 18:17:34.749539 18896 net.cpp:110] Creating Layer relu38
I1221 18:17:34.749549 18896 net.cpp:477] relu38 <- bn38
I1221 18:17:34.749562 18896 net.cpp:419] relu38 -> bn38 (in-place)
I1221 18:17:34.749653 18896 net.cpp:155] Setting up relu38
I1221 18:17:34.749668 18896 net.cpp:163] Top shape: 36 128 28 28 (3612672)
I1221 18:17:34.749678 18896 layer_factory.hpp:76] Creating layer eltwise7
I1221 18:17:34.749691 18896 net.cpp:110] Creating Layer eltwise7
I1221 18:17:34.749701 18896 net.cpp:477] eltwise7 <- eltwise6_relu6_0_split_1
I1221 18:17:34.749711 18896 net.cpp:477] eltwise7 <- bn38
I1221 18:17:34.749723 18896 net.cpp:433] eltwise7 -> eltwise7
I1221 18:17:34.749737 18896 net.cpp:155] Setting up eltwise7
I1221 18:17:34.749748 18896 net.cpp:163] Top shape: 36 128 28 28 (3612672)
I1221 18:17:34.749758 18896 layer_factory.hpp:76] Creating layer relu7
I1221 18:17:34.749769 18896 net.cpp:110] Creating Layer relu7
I1221 18:17:34.749779 18896 net.cpp:477] relu7 <- eltwise7
I1221 18:17:34.749793 18896 net.cpp:419] relu7 -> eltwise7 (in-place)
I1221 18:17:34.749972 18896 net.cpp:155] Setting up relu7
I1221 18:17:34.749990 18896 net.cpp:163] Top shape: 36 128 28 28 (3612672)
I1221 18:17:34.750001 18896 layer_factory.hpp:76] Creating layer eltwise7_relu7_0_split
I1221 18:17:34.750012 18896 net.cpp:110] Creating Layer eltwise7_relu7_0_split
I1221 18:17:34.750022 18896 net.cpp:477] eltwise7_relu7_0_split <- eltwise7
I1221 18:17:34.750036 18896 net.cpp:433] eltwise7_relu7_0_split -> eltwise7_relu7_0_split_0
I1221 18:17:34.750051 18896 net.cpp:433] eltwise7_relu7_0_split -> eltwise7_relu7_0_split_1
I1221 18:17:34.750064 18896 net.cpp:155] Setting up eltwise7_relu7_0_split
I1221 18:17:34.750075 18896 net.cpp:163] Top shape: 36 128 28 28 (3612672)
I1221 18:17:34.750087 18896 net.cpp:163] Top shape: 36 128 28 28 (3612672)
I1221 18:17:34.750097 18896 layer_factory.hpp:76] Creating layer relu7_p
I1221 18:17:34.750111 18896 net.cpp:110] Creating Layer relu7_p
I1221 18:17:34.750121 18896 net.cpp:477] relu7_p <- eltwise7_relu7_0_split_0
I1221 18:17:34.750149 18896 net.cpp:433] relu7_p -> relu7_p
I1221 18:17:34.750771 18896 net.cpp:155] Setting up relu7_p
I1221 18:17:34.750790 18896 net.cpp:163] Top shape: 36 256 14 14 (1806336)
I1221 18:17:34.750804 18896 layer_factory.hpp:76] Creating layer relu7_bn
I1221 18:17:34.750820 18896 net.cpp:110] Creating Layer relu7_bn
I1221 18:17:34.750831 18896 net.cpp:477] relu7_bn <- relu7_p
I1221 18:17:34.750844 18896 net.cpp:433] relu7_bn -> relu7_bn
I1221 18:17:34.750942 18896 net.cpp:155] Setting up relu7_bn
I1221 18:17:34.750962 18896 net.cpp:163] Top shape: 36 256 14 14 (1806336)
I1221 18:17:34.750977 18896 layer_factory.hpp:76] Creating layer conv41
I1221 18:17:34.751008 18896 net.cpp:110] Creating Layer conv41
I1221 18:17:34.751019 18896 net.cpp:477] conv41 <- eltwise7_relu7_0_split_1
I1221 18:17:34.751030 18896 net.cpp:433] conv41 -> conv41
I1221 18:17:34.753998 18896 net.cpp:155] Setting up conv41
I1221 18:17:34.754017 18896 net.cpp:163] Top shape: 36 256 14 14 (1806336)
I1221 18:17:34.754045 18896 layer_factory.hpp:76] Creating layer bn41
I1221 18:17:34.754062 18896 net.cpp:110] Creating Layer bn41
I1221 18:17:34.754073 18896 net.cpp:477] bn41 <- conv41
I1221 18:17:34.754086 18896 net.cpp:433] bn41 -> bn41
I1221 18:17:34.754180 18896 net.cpp:155] Setting up bn41
I1221 18:17:34.754196 18896 net.cpp:163] Top shape: 36 256 14 14 (1806336)
I1221 18:17:34.754211 18896 layer_factory.hpp:76] Creating layer relu41
I1221 18:17:34.754226 18896 net.cpp:110] Creating Layer relu41
I1221 18:17:34.754236 18896 net.cpp:477] relu41 <- bn41
I1221 18:17:34.754250 18896 net.cpp:419] relu41 -> bn41 (in-place)
I1221 18:17:34.754324 18896 net.cpp:155] Setting up relu41
I1221 18:17:34.754338 18896 net.cpp:163] Top shape: 36 256 14 14 (1806336)
I1221 18:17:34.754348 18896 layer_factory.hpp:76] Creating layer conv42
I1221 18:17:34.754364 18896 net.cpp:110] Creating Layer conv42
I1221 18:17:34.754374 18896 net.cpp:477] conv42 <- bn41
I1221 18:17:34.754386 18896 net.cpp:433] conv42 -> conv42
I1221 18:17:34.760018 18896 net.cpp:155] Setting up conv42
I1221 18:17:34.765002 18896 net.cpp:163] Top shape: 36 256 14 14 (1806336)
I1221 18:17:34.765025 18896 layer_factory.hpp:76] Creating layer bn42
I1221 18:17:34.765044 18896 net.cpp:110] Creating Layer bn42
I1221 18:17:34.765055 18896 net.cpp:477] bn42 <- conv42
I1221 18:17:34.765069 18896 net.cpp:433] bn42 -> bn42
I1221 18:17:34.765175 18896 net.cpp:155] Setting up bn42
I1221 18:17:34.765195 18896 net.cpp:163] Top shape: 36 256 14 14 (1806336)
I1221 18:17:34.765211 18896 layer_factory.hpp:76] Creating layer relu42
I1221 18:17:34.765225 18896 net.cpp:110] Creating Layer relu42
I1221 18:17:34.765235 18896 net.cpp:477] relu42 <- bn42
I1221 18:17:34.765247 18896 net.cpp:419] relu42 -> bn42 (in-place)
I1221 18:17:34.765346 18896 net.cpp:155] Setting up relu42
I1221 18:17:34.765362 18896 net.cpp:163] Top shape: 36 256 14 14 (1806336)
I1221 18:17:34.765373 18896 layer_factory.hpp:76] Creating layer eltwise8
I1221 18:17:34.765386 18896 net.cpp:110] Creating Layer eltwise8
I1221 18:17:34.765396 18896 net.cpp:477] eltwise8 <- relu7_bn
I1221 18:17:34.765408 18896 net.cpp:477] eltwise8 <- bn42
I1221 18:17:34.765422 18896 net.cpp:433] eltwise8 -> eltwise8
I1221 18:17:34.765445 18896 net.cpp:155] Setting up eltwise8
I1221 18:17:34.765460 18896 net.cpp:163] Top shape: 36 256 14 14 (1806336)
I1221 18:17:34.765470 18896 layer_factory.hpp:76] Creating layer relu8
I1221 18:17:34.765481 18896 net.cpp:110] Creating Layer relu8
I1221 18:17:34.765491 18896 net.cpp:477] relu8 <- eltwise8
I1221 18:17:34.765502 18896 net.cpp:419] relu8 -> eltwise8 (in-place)
I1221 18:17:34.765578 18896 net.cpp:155] Setting up relu8
I1221 18:17:34.765594 18896 net.cpp:163] Top shape: 36 256 14 14 (1806336)
I1221 18:17:34.765604 18896 layer_factory.hpp:76] Creating layer eltwise8_relu8_0_split
I1221 18:17:34.765617 18896 net.cpp:110] Creating Layer eltwise8_relu8_0_split
I1221 18:17:34.765627 18896 net.cpp:477] eltwise8_relu8_0_split <- eltwise8
I1221 18:17:34.765640 18896 net.cpp:433] eltwise8_relu8_0_split -> eltwise8_relu8_0_split_0
I1221 18:17:34.765652 18896 net.cpp:433] eltwise8_relu8_0_split -> eltwise8_relu8_0_split_1
I1221 18:17:34.765666 18896 net.cpp:155] Setting up eltwise8_relu8_0_split
I1221 18:17:34.765678 18896 net.cpp:163] Top shape: 36 256 14 14 (1806336)
I1221 18:17:34.765689 18896 net.cpp:163] Top shape: 36 256 14 14 (1806336)
I1221 18:17:34.765699 18896 layer_factory.hpp:76] Creating layer conv43
I1221 18:17:34.765714 18896 net.cpp:110] Creating Layer conv43
I1221 18:17:34.765724 18896 net.cpp:477] conv43 <- eltwise8_relu8_0_split_0
I1221 18:17:34.765739 18896 net.cpp:433] conv43 -> conv43
I1221 18:17:34.771517 18896 net.cpp:155] Setting up conv43
I1221 18:17:34.771543 18896 net.cpp:163] Top shape: 36 256 14 14 (1806336)
I1221 18:17:34.771558 18896 layer_factory.hpp:76] Creating layer bn43
I1221 18:17:34.771574 18896 net.cpp:110] Creating Layer bn43
I1221 18:17:34.771585 18896 net.cpp:477] bn43 <- conv43
I1221 18:17:34.771600 18896 net.cpp:433] bn43 -> bn43
I1221 18:17:34.771735 18896 net.cpp:155] Setting up bn43
I1221 18:17:34.771754 18896 net.cpp:163] Top shape: 36 256 14 14 (1806336)
I1221 18:17:34.771770 18896 layer_factory.hpp:76] Creating layer relu43
I1221 18:17:34.771783 18896 net.cpp:110] Creating Layer relu43
I1221 18:17:34.771793 18896 net.cpp:477] relu43 <- bn43
I1221 18:17:34.771808 18896 net.cpp:419] relu43 -> bn43 (in-place)
I1221 18:17:34.772017 18896 net.cpp:155] Setting up relu43
I1221 18:17:34.772037 18896 net.cpp:163] Top shape: 36 256 14 14 (1806336)
I1221 18:17:34.772047 18896 layer_factory.hpp:76] Creating layer conv44
I1221 18:17:34.772063 18896 net.cpp:110] Creating Layer conv44
I1221 18:17:34.772073 18896 net.cpp:477] conv44 <- bn43
I1221 18:17:34.772086 18896 net.cpp:433] conv44 -> conv44
I1221 18:17:34.777734 18896 net.cpp:155] Setting up conv44
I1221 18:17:34.777756 18896 net.cpp:163] Top shape: 36 256 14 14 (1806336)
I1221 18:17:34.777770 18896 layer_factory.hpp:76] Creating layer bn44
I1221 18:17:34.777786 18896 net.cpp:110] Creating Layer bn44
I1221 18:17:34.777796 18896 net.cpp:477] bn44 <- conv44
I1221 18:17:34.777807 18896 net.cpp:433] bn44 -> bn44
I1221 18:17:34.777904 18896 net.cpp:155] Setting up bn44
I1221 18:17:34.777921 18896 net.cpp:163] Top shape: 36 256 14 14 (1806336)
I1221 18:17:34.777936 18896 layer_factory.hpp:76] Creating layer relu44
I1221 18:17:34.777950 18896 net.cpp:110] Creating Layer relu44
I1221 18:17:34.777961 18896 net.cpp:477] relu44 <- bn44
I1221 18:17:34.777974 18896 net.cpp:419] relu44 -> bn44 (in-place)
I1221 18:17:34.778051 18896 net.cpp:155] Setting up relu44
I1221 18:17:34.778066 18896 net.cpp:163] Top shape: 36 256 14 14 (1806336)
I1221 18:17:34.778076 18896 layer_factory.hpp:76] Creating layer eltwise9
I1221 18:17:34.778090 18896 net.cpp:110] Creating Layer eltwise9
I1221 18:17:34.778100 18896 net.cpp:477] eltwise9 <- eltwise8_relu8_0_split_1
I1221 18:17:34.778110 18896 net.cpp:477] eltwise9 <- bn44
I1221 18:17:34.778125 18896 net.cpp:433] eltwise9 -> eltwise9
I1221 18:17:34.778139 18896 net.cpp:155] Setting up eltwise9
I1221 18:17:34.778151 18896 net.cpp:163] Top shape: 36 256 14 14 (1806336)
I1221 18:17:34.778161 18896 layer_factory.hpp:76] Creating layer relu9
I1221 18:17:34.778172 18896 net.cpp:110] Creating Layer relu9
I1221 18:17:34.778182 18896 net.cpp:477] relu9 <- eltwise9
I1221 18:17:34.778192 18896 net.cpp:419] relu9 -> eltwise9 (in-place)
I1221 18:17:34.778264 18896 net.cpp:155] Setting up relu9
I1221 18:17:34.778278 18896 net.cpp:163] Top shape: 36 256 14 14 (1806336)
I1221 18:17:34.778288 18896 layer_factory.hpp:76] Creating layer eltwise9_relu9_0_split
I1221 18:17:34.778302 18896 net.cpp:110] Creating Layer eltwise9_relu9_0_split
I1221 18:17:34.778312 18896 net.cpp:477] eltwise9_relu9_0_split <- eltwise9
I1221 18:17:34.778324 18896 net.cpp:433] eltwise9_relu9_0_split -> eltwise9_relu9_0_split_0
I1221 18:17:34.778337 18896 net.cpp:433] eltwise9_relu9_0_split -> eltwise9_relu9_0_split_1
I1221 18:17:34.778350 18896 net.cpp:155] Setting up eltwise9_relu9_0_split
I1221 18:17:34.778362 18896 net.cpp:163] Top shape: 36 256 14 14 (1806336)
I1221 18:17:34.778373 18896 net.cpp:163] Top shape: 36 256 14 14 (1806336)
I1221 18:17:34.778383 18896 layer_factory.hpp:76] Creating layer conv45
I1221 18:17:34.778395 18896 net.cpp:110] Creating Layer conv45
I1221 18:17:34.778405 18896 net.cpp:477] conv45 <- eltwise9_relu9_0_split_0
I1221 18:17:34.778419 18896 net.cpp:433] conv45 -> conv45
I1221 18:17:34.784092 18896 net.cpp:155] Setting up conv45
I1221 18:17:34.784121 18896 net.cpp:163] Top shape: 36 256 14 14 (1806336)
I1221 18:17:34.784135 18896 layer_factory.hpp:76] Creating layer bn45
I1221 18:17:34.784150 18896 net.cpp:110] Creating Layer bn45
I1221 18:17:34.784160 18896 net.cpp:477] bn45 <- conv45
I1221 18:17:34.784173 18896 net.cpp:433] bn45 -> bn45
I1221 18:17:34.784276 18896 net.cpp:155] Setting up bn45
I1221 18:17:34.784294 18896 net.cpp:163] Top shape: 36 256 14 14 (1806336)
I1221 18:17:34.784310 18896 layer_factory.hpp:76] Creating layer relu45
I1221 18:17:34.784323 18896 net.cpp:110] Creating Layer relu45
I1221 18:17:34.784359 18896 net.cpp:477] relu45 <- bn45
I1221 18:17:34.784373 18896 net.cpp:419] relu45 -> bn45 (in-place)
I1221 18:17:34.784451 18896 net.cpp:155] Setting up relu45
I1221 18:17:34.784466 18896 net.cpp:163] Top shape: 36 256 14 14 (1806336)
I1221 18:17:34.784476 18896 layer_factory.hpp:76] Creating layer conv46
I1221 18:17:34.784493 18896 net.cpp:110] Creating Layer conv46
I1221 18:17:34.784503 18896 net.cpp:477] conv46 <- bn45
I1221 18:17:34.784518 18896 net.cpp:433] conv46 -> conv46
I1221 18:17:34.790294 18896 net.cpp:155] Setting up conv46
I1221 18:17:34.790315 18896 net.cpp:163] Top shape: 36 256 14 14 (1806336)
I1221 18:17:34.790329 18896 layer_factory.hpp:76] Creating layer bn46
I1221 18:17:34.790345 18896 net.cpp:110] Creating Layer bn46
I1221 18:17:34.790356 18896 net.cpp:477] bn46 <- conv46
I1221 18:17:34.790369 18896 net.cpp:433] bn46 -> bn46
I1221 18:17:34.790463 18896 net.cpp:155] Setting up bn46
I1221 18:17:34.790480 18896 net.cpp:163] Top shape: 36 256 14 14 (1806336)
I1221 18:17:34.790496 18896 layer_factory.hpp:76] Creating layer relu46
I1221 18:17:34.790513 18896 net.cpp:110] Creating Layer relu46
I1221 18:17:34.790524 18896 net.cpp:477] relu46 <- bn46
I1221 18:17:34.790536 18896 net.cpp:419] relu46 -> bn46 (in-place)
I1221 18:17:34.790738 18896 net.cpp:155] Setting up relu46
I1221 18:17:34.790757 18896 net.cpp:163] Top shape: 36 256 14 14 (1806336)
I1221 18:17:34.790768 18896 layer_factory.hpp:76] Creating layer eltwise10
I1221 18:17:34.790781 18896 net.cpp:110] Creating Layer eltwise10
I1221 18:17:34.790792 18896 net.cpp:477] eltwise10 <- eltwise9_relu9_0_split_1
I1221 18:17:34.790804 18896 net.cpp:477] eltwise10 <- bn46
I1221 18:17:34.790817 18896 net.cpp:433] eltwise10 -> eltwise10
I1221 18:17:34.790830 18896 net.cpp:155] Setting up eltwise10
I1221 18:17:34.790843 18896 net.cpp:163] Top shape: 36 256 14 14 (1806336)
I1221 18:17:34.790853 18896 layer_factory.hpp:76] Creating layer relu10
I1221 18:17:34.790864 18896 net.cpp:110] Creating Layer relu10
I1221 18:17:34.790874 18896 net.cpp:477] relu10 <- eltwise10
I1221 18:17:34.790889 18896 net.cpp:419] relu10 -> eltwise10 (in-place)
I1221 18:17:34.790961 18896 net.cpp:155] Setting up relu10
I1221 18:17:34.790985 18896 net.cpp:163] Top shape: 36 256 14 14 (1806336)
I1221 18:17:34.790995 18896 layer_factory.hpp:76] Creating layer eltwise10_relu10_0_split
I1221 18:17:34.791007 18896 net.cpp:110] Creating Layer eltwise10_relu10_0_split
I1221 18:17:34.791018 18896 net.cpp:477] eltwise10_relu10_0_split <- eltwise10
I1221 18:17:34.791031 18896 net.cpp:433] eltwise10_relu10_0_split -> eltwise10_relu10_0_split_0
I1221 18:17:34.791045 18896 net.cpp:433] eltwise10_relu10_0_split -> eltwise10_relu10_0_split_1
I1221 18:17:34.791072 18896 net.cpp:155] Setting up eltwise10_relu10_0_split
I1221 18:17:34.791085 18896 net.cpp:163] Top shape: 36 256 14 14 (1806336)
I1221 18:17:34.791095 18896 net.cpp:163] Top shape: 36 256 14 14 (1806336)
I1221 18:17:34.791103 18896 layer_factory.hpp:76] Creating layer conv47
I1221 18:17:34.791118 18896 net.cpp:110] Creating Layer conv47
I1221 18:17:34.791128 18896 net.cpp:477] conv47 <- eltwise10_relu10_0_split_0
I1221 18:17:34.791141 18896 net.cpp:433] conv47 -> conv47
I1221 18:17:34.796840 18896 net.cpp:155] Setting up conv47
I1221 18:17:34.796860 18896 net.cpp:163] Top shape: 36 256 14 14 (1806336)
I1221 18:17:34.796875 18896 layer_factory.hpp:76] Creating layer bn47
I1221 18:17:34.796891 18896 net.cpp:110] Creating Layer bn47
I1221 18:17:34.796901 18896 net.cpp:477] bn47 <- conv47
I1221 18:17:34.796913 18896 net.cpp:433] bn47 -> bn47
I1221 18:17:34.797014 18896 net.cpp:155] Setting up bn47
I1221 18:17:34.797031 18896 net.cpp:163] Top shape: 36 256 14 14 (1806336)
I1221 18:17:34.797047 18896 layer_factory.hpp:76] Creating layer relu47
I1221 18:17:34.797062 18896 net.cpp:110] Creating Layer relu47
I1221 18:17:34.797073 18896 net.cpp:477] relu47 <- bn47
I1221 18:17:34.797085 18896 net.cpp:419] relu47 -> bn47 (in-place)
I1221 18:17:34.797163 18896 net.cpp:155] Setting up relu47
I1221 18:17:34.797178 18896 net.cpp:163] Top shape: 36 256 14 14 (1806336)
I1221 18:17:34.797207 18896 layer_factory.hpp:76] Creating layer conv48
I1221 18:17:34.797225 18896 net.cpp:110] Creating Layer conv48
I1221 18:17:34.797235 18896 net.cpp:477] conv48 <- bn47
I1221 18:17:34.797247 18896 net.cpp:433] conv48 -> conv48
I1221 18:17:34.803009 18896 net.cpp:155] Setting up conv48
I1221 18:17:34.803030 18896 net.cpp:163] Top shape: 36 256 14 14 (1806336)
I1221 18:17:34.803045 18896 layer_factory.hpp:76] Creating layer bn48
I1221 18:17:34.803061 18896 net.cpp:110] Creating Layer bn48
I1221 18:17:34.803072 18896 net.cpp:477] bn48 <- conv48
I1221 18:17:34.803086 18896 net.cpp:433] bn48 -> bn48
I1221 18:17:34.803189 18896 net.cpp:155] Setting up bn48
I1221 18:17:34.803205 18896 net.cpp:163] Top shape: 36 256 14 14 (1806336)
I1221 18:17:34.803221 18896 layer_factory.hpp:76] Creating layer relu48
I1221 18:17:34.803234 18896 net.cpp:110] Creating Layer relu48
I1221 18:17:34.803244 18896 net.cpp:477] relu48 <- bn48
I1221 18:17:34.803258 18896 net.cpp:419] relu48 -> bn48 (in-place)
I1221 18:17:34.803453 18896 net.cpp:155] Setting up relu48
I1221 18:17:34.803472 18896 net.cpp:163] Top shape: 36 256 14 14 (1806336)
I1221 18:17:34.803483 18896 layer_factory.hpp:76] Creating layer eltwise11
I1221 18:17:34.803499 18896 net.cpp:110] Creating Layer eltwise11
I1221 18:17:34.803510 18896 net.cpp:477] eltwise11 <- eltwise10_relu10_0_split_1
I1221 18:17:34.803522 18896 net.cpp:477] eltwise11 <- bn48
I1221 18:17:34.803534 18896 net.cpp:433] eltwise11 -> eltwise11
I1221 18:17:34.803550 18896 net.cpp:155] Setting up eltwise11
I1221 18:17:34.803561 18896 net.cpp:163] Top shape: 36 256 14 14 (1806336)
I1221 18:17:34.803572 18896 layer_factory.hpp:76] Creating layer relu11
I1221 18:17:34.803585 18896 net.cpp:110] Creating Layer relu11
I1221 18:17:34.803594 18896 net.cpp:477] relu11 <- eltwise11
I1221 18:17:34.803606 18896 net.cpp:419] relu11 -> eltwise11 (in-place)
I1221 18:17:34.803679 18896 net.cpp:155] Setting up relu11
I1221 18:17:34.803694 18896 net.cpp:163] Top shape: 36 256 14 14 (1806336)
I1221 18:17:34.803705 18896 layer_factory.hpp:76] Creating layer eltwise11_relu11_0_split
I1221 18:17:34.803716 18896 net.cpp:110] Creating Layer eltwise11_relu11_0_split
I1221 18:17:34.803726 18896 net.cpp:477] eltwise11_relu11_0_split <- eltwise11
I1221 18:17:34.803738 18896 net.cpp:433] eltwise11_relu11_0_split -> eltwise11_relu11_0_split_0
I1221 18:17:34.803752 18896 net.cpp:433] eltwise11_relu11_0_split -> eltwise11_relu11_0_split_1
I1221 18:17:34.803766 18896 net.cpp:155] Setting up eltwise11_relu11_0_split
I1221 18:17:34.803778 18896 net.cpp:163] Top shape: 36 256 14 14 (1806336)
I1221 18:17:34.803789 18896 net.cpp:163] Top shape: 36 256 14 14 (1806336)
I1221 18:17:34.803799 18896 layer_factory.hpp:76] Creating layer conv49
I1221 18:17:34.803815 18896 net.cpp:110] Creating Layer conv49
I1221 18:17:34.803825 18896 net.cpp:477] conv49 <- eltwise11_relu11_0_split_0
I1221 18:17:34.803840 18896 net.cpp:433] conv49 -> conv49
I1221 18:17:34.809625 18896 net.cpp:155] Setting up conv49
I1221 18:17:34.809648 18896 net.cpp:163] Top shape: 36 256 14 14 (1806336)
I1221 18:17:34.809662 18896 layer_factory.hpp:76] Creating layer bn49
I1221 18:17:34.809679 18896 net.cpp:110] Creating Layer bn49
I1221 18:17:34.809689 18896 net.cpp:477] bn49 <- conv49
I1221 18:17:34.809702 18896 net.cpp:433] bn49 -> bn49
I1221 18:17:34.809808 18896 net.cpp:155] Setting up bn49
I1221 18:17:34.809824 18896 net.cpp:163] Top shape: 36 256 14 14 (1806336)
I1221 18:17:34.809865 18896 layer_factory.hpp:76] Creating layer relu49
I1221 18:17:34.809883 18896 net.cpp:110] Creating Layer relu49
I1221 18:17:34.809895 18896 net.cpp:477] relu49 <- bn49
I1221 18:17:34.809906 18896 net.cpp:419] relu49 -> bn49 (in-place)
I1221 18:17:34.809983 18896 net.cpp:155] Setting up relu49
I1221 18:17:34.809999 18896 net.cpp:163] Top shape: 36 256 14 14 (1806336)
I1221 18:17:34.810042 18896 layer_factory.hpp:76] Creating layer conv410
I1221 18:17:34.810058 18896 net.cpp:110] Creating Layer conv410
I1221 18:17:34.810070 18896 net.cpp:477] conv410 <- bn49
I1221 18:17:34.810103 18896 net.cpp:433] conv410 -> conv410
I1221 18:17:34.815804 18896 net.cpp:155] Setting up conv410
I1221 18:17:34.815825 18896 net.cpp:163] Top shape: 36 256 14 14 (1806336)
I1221 18:17:34.815840 18896 layer_factory.hpp:76] Creating layer bn410
I1221 18:17:34.815853 18896 net.cpp:110] Creating Layer bn410
I1221 18:17:34.815863 18896 net.cpp:477] bn410 <- conv410
I1221 18:17:34.815877 18896 net.cpp:433] bn410 -> bn410
I1221 18:17:34.815978 18896 net.cpp:155] Setting up bn410
I1221 18:17:34.815994 18896 net.cpp:163] Top shape: 36 256 14 14 (1806336)
I1221 18:17:34.816009 18896 layer_factory.hpp:76] Creating layer relu410
I1221 18:17:34.816025 18896 net.cpp:110] Creating Layer relu410
I1221 18:17:34.816035 18896 net.cpp:477] relu410 <- bn410
I1221 18:17:34.816046 18896 net.cpp:419] relu410 -> bn410 (in-place)
I1221 18:17:34.816123 18896 net.cpp:155] Setting up relu410
I1221 18:17:34.816136 18896 net.cpp:163] Top shape: 36 256 14 14 (1806336)
I1221 18:17:34.816160 18896 layer_factory.hpp:76] Creating layer eltwise12
I1221 18:17:34.816175 18896 net.cpp:110] Creating Layer eltwise12
I1221 18:17:34.816185 18896 net.cpp:477] eltwise12 <- eltwise11_relu11_0_split_1
I1221 18:17:34.816196 18896 net.cpp:477] eltwise12 <- bn410
I1221 18:17:34.816208 18896 net.cpp:433] eltwise12 -> eltwise12
I1221 18:17:34.816222 18896 net.cpp:155] Setting up eltwise12
I1221 18:17:34.816234 18896 net.cpp:163] Top shape: 36 256 14 14 (1806336)
I1221 18:17:34.816244 18896 layer_factory.hpp:76] Creating layer relu12
I1221 18:17:34.816256 18896 net.cpp:110] Creating Layer relu12
I1221 18:17:34.816267 18896 net.cpp:477] relu12 <- eltwise12
I1221 18:17:34.816277 18896 net.cpp:419] relu12 -> eltwise12 (in-place)
I1221 18:17:34.816465 18896 net.cpp:155] Setting up relu12
I1221 18:17:34.816484 18896 net.cpp:163] Top shape: 36 256 14 14 (1806336)
I1221 18:17:34.816495 18896 layer_factory.hpp:76] Creating layer eltwise12_relu12_0_split
I1221 18:17:34.816507 18896 net.cpp:110] Creating Layer eltwise12_relu12_0_split
I1221 18:17:34.816524 18896 net.cpp:477] eltwise12_relu12_0_split <- eltwise12
I1221 18:17:34.816539 18896 net.cpp:433] eltwise12_relu12_0_split -> eltwise12_relu12_0_split_0
I1221 18:17:34.816552 18896 net.cpp:433] eltwise12_relu12_0_split -> eltwise12_relu12_0_split_1
I1221 18:17:34.816566 18896 net.cpp:433] eltwise12_relu12_0_split -> eltwise12_relu12_0_split_2
I1221 18:17:34.816581 18896 net.cpp:155] Setting up eltwise12_relu12_0_split
I1221 18:17:34.816593 18896 net.cpp:163] Top shape: 36 256 14 14 (1806336)
I1221 18:17:34.816604 18896 net.cpp:163] Top shape: 36 256 14 14 (1806336)
I1221 18:17:34.816615 18896 net.cpp:163] Top shape: 36 256 14 14 (1806336)
I1221 18:17:34.816625 18896 layer_factory.hpp:76] Creating layer conv411
I1221 18:17:34.816642 18896 net.cpp:110] Creating Layer conv411
I1221 18:17:34.816653 18896 net.cpp:477] conv411 <- eltwise12_relu12_0_split_0
I1221 18:17:34.816665 18896 net.cpp:433] conv411 -> conv411
I1221 18:17:34.822419 18896 net.cpp:155] Setting up conv411
I1221 18:17:34.822443 18896 net.cpp:163] Top shape: 36 256 14 14 (1806336)
I1221 18:17:34.822459 18896 layer_factory.hpp:76] Creating layer bn411
I1221 18:17:34.822474 18896 net.cpp:110] Creating Layer bn411
I1221 18:17:34.822484 18896 net.cpp:477] bn411 <- conv411
I1221 18:17:34.822497 18896 net.cpp:433] bn411 -> bn411
I1221 18:17:34.822603 18896 net.cpp:155] Setting up bn411
I1221 18:17:34.822619 18896 net.cpp:163] Top shape: 36 256 14 14 (1806336)
I1221 18:17:34.822635 18896 layer_factory.hpp:76] Creating layer relu411
I1221 18:17:34.822649 18896 net.cpp:110] Creating Layer relu411
I1221 18:17:34.822659 18896 net.cpp:477] relu411 <- bn411
I1221 18:17:34.822674 18896 net.cpp:419] relu411 -> bn411 (in-place)
I1221 18:17:34.822757 18896 net.cpp:155] Setting up relu411
I1221 18:17:34.822772 18896 net.cpp:163] Top shape: 36 256 14 14 (1806336)
I1221 18:17:34.822782 18896 layer_factory.hpp:76] Creating layer conv412
I1221 18:17:34.822798 18896 net.cpp:110] Creating Layer conv412
I1221 18:17:34.822809 18896 net.cpp:477] conv412 <- bn411
I1221 18:17:34.822841 18896 net.cpp:433] conv412 -> conv412
I1221 18:17:34.828595 18896 net.cpp:155] Setting up conv412
I1221 18:17:34.828618 18896 net.cpp:163] Top shape: 36 256 14 14 (1806336)
I1221 18:17:34.828632 18896 layer_factory.hpp:76] Creating layer bn412
I1221 18:17:34.828655 18896 net.cpp:110] Creating Layer bn412
I1221 18:17:34.828666 18896 net.cpp:477] bn412 <- conv412
I1221 18:17:34.828681 18896 net.cpp:433] bn412 -> bn412
I1221 18:17:34.828786 18896 net.cpp:155] Setting up bn412
I1221 18:17:34.828804 18896 net.cpp:163] Top shape: 36 256 14 14 (1806336)
I1221 18:17:34.828819 18896 layer_factory.hpp:76] Creating layer relu412
I1221 18:17:34.828832 18896 net.cpp:110] Creating Layer relu412
I1221 18:17:34.828842 18896 net.cpp:477] relu412 <- bn412
I1221 18:17:34.828856 18896 net.cpp:419] relu412 -> bn412 (in-place)
I1221 18:17:34.828936 18896 net.cpp:155] Setting up relu412
I1221 18:17:34.828951 18896 net.cpp:163] Top shape: 36 256 14 14 (1806336)
I1221 18:17:34.828968 18896 layer_factory.hpp:76] Creating layer eltwise13
I1221 18:17:34.828982 18896 net.cpp:110] Creating Layer eltwise13
I1221 18:17:34.828994 18896 net.cpp:477] eltwise13 <- eltwise12_relu12_0_split_1
I1221 18:17:34.829005 18896 net.cpp:477] eltwise13 <- bn412
I1221 18:17:34.829017 18896 net.cpp:433] eltwise13 -> eltwise13
I1221 18:17:34.829032 18896 net.cpp:155] Setting up eltwise13
I1221 18:17:34.829044 18896 net.cpp:163] Top shape: 36 256 14 14 (1806336)
I1221 18:17:34.829054 18896 layer_factory.hpp:76] Creating layer relu13
I1221 18:17:34.829066 18896 net.cpp:110] Creating Layer relu13
I1221 18:17:34.829076 18896 net.cpp:477] relu13 <- eltwise13
I1221 18:17:34.829087 18896 net.cpp:419] relu13 -> eltwise13 (in-place)
I1221 18:17:34.829160 18896 net.cpp:155] Setting up relu13
I1221 18:17:34.829174 18896 net.cpp:163] Top shape: 36 256 14 14 (1806336)
I1221 18:17:34.829185 18896 layer_factory.hpp:76] Creating layer relu13_p
I1221 18:17:34.829200 18896 net.cpp:110] Creating Layer relu13_p
I1221 18:17:34.829211 18896 net.cpp:477] relu13_p <- eltwise12_relu12_0_split_2
I1221 18:17:34.829224 18896 net.cpp:433] relu13_p -> relu13_p
I1221 18:17:34.831089 18896 net.cpp:155] Setting up relu13_p
I1221 18:17:34.831110 18896 net.cpp:163] Top shape: 36 512 7 7 (903168)
I1221 18:17:34.831125 18896 layer_factory.hpp:76] Creating layer relu13_bn
I1221 18:17:34.831141 18896 net.cpp:110] Creating Layer relu13_bn
I1221 18:17:34.831152 18896 net.cpp:477] relu13_bn <- relu13_p
I1221 18:17:34.831166 18896 net.cpp:433] relu13_bn -> relu13_bn
I1221 18:17:34.831275 18896 net.cpp:155] Setting up relu13_bn
I1221 18:17:34.831292 18896 net.cpp:163] Top shape: 36 512 7 7 (903168)
I1221 18:17:34.831310 18896 layer_factory.hpp:76] Creating layer conv51
I1221 18:17:34.831343 18896 net.cpp:110] Creating Layer conv51
I1221 18:17:34.831356 18896 net.cpp:477] conv51 <- eltwise13
I1221 18:17:34.831369 18896 net.cpp:433] conv51 -> conv51
I1221 18:17:34.842355 18896 net.cpp:155] Setting up conv51
I1221 18:17:34.842384 18896 net.cpp:163] Top shape: 36 512 7 7 (903168)
I1221 18:17:34.842401 18896 layer_factory.hpp:76] Creating layer bn51
I1221 18:17:34.842417 18896 net.cpp:110] Creating Layer bn51
I1221 18:17:34.842429 18896 net.cpp:477] bn51 <- conv51
I1221 18:17:34.842442 18896 net.cpp:433] bn51 -> bn51
I1221 18:17:34.842552 18896 net.cpp:155] Setting up bn51
I1221 18:17:34.842576 18896 net.cpp:163] Top shape: 36 512 7 7 (903168)
I1221 18:17:34.842592 18896 layer_factory.hpp:76] Creating layer relu51
I1221 18:17:34.842605 18896 net.cpp:110] Creating Layer relu51
I1221 18:17:34.842617 18896 net.cpp:477] relu51 <- bn51
I1221 18:17:34.842628 18896 net.cpp:419] relu51 -> bn51 (in-place)
I1221 18:17:34.842823 18896 net.cpp:155] Setting up relu51
I1221 18:17:34.842842 18896 net.cpp:163] Top shape: 36 512 7 7 (903168)
I1221 18:17:34.842854 18896 layer_factory.hpp:76] Creating layer conv52
I1221 18:17:34.842871 18896 net.cpp:110] Creating Layer conv52
I1221 18:17:34.842881 18896 net.cpp:477] conv52 <- bn51
I1221 18:17:34.842895 18896 net.cpp:433] conv52 -> conv52
I1221 18:17:34.864653 18896 net.cpp:155] Setting up conv52
I1221 18:17:34.864730 18896 net.cpp:163] Top shape: 36 512 7 7 (903168)
I1221 18:17:34.864748 18896 layer_factory.hpp:76] Creating layer bn52
I1221 18:17:34.864815 18896 net.cpp:110] Creating Layer bn52
I1221 18:17:34.864828 18896 net.cpp:477] bn52 <- conv52
I1221 18:17:34.864853 18896 net.cpp:433] bn52 -> bn52
I1221 18:17:34.864979 18896 net.cpp:155] Setting up bn52
I1221 18:17:34.865005 18896 net.cpp:163] Top shape: 36 512 7 7 (903168)
I1221 18:17:34.865023 18896 layer_factory.hpp:76] Creating layer relu52
I1221 18:17:34.865038 18896 net.cpp:110] Creating Layer relu52
I1221 18:17:34.865051 18896 net.cpp:477] relu52 <- bn52
I1221 18:17:34.865067 18896 net.cpp:419] relu52 -> bn52 (in-place)
I1221 18:17:34.865151 18896 net.cpp:155] Setting up relu52
I1221 18:17:34.865170 18896 net.cpp:163] Top shape: 36 512 7 7 (903168)
I1221 18:17:34.865181 18896 layer_factory.hpp:76] Creating layer eltwise14
I1221 18:17:34.865197 18896 net.cpp:110] Creating Layer eltwise14
I1221 18:17:34.865209 18896 net.cpp:477] eltwise14 <- relu13_bn
I1221 18:17:34.865222 18896 net.cpp:477] eltwise14 <- bn52
I1221 18:17:34.865239 18896 net.cpp:433] eltwise14 -> eltwise14
I1221 18:17:34.865257 18896 net.cpp:155] Setting up eltwise14
I1221 18:17:34.865269 18896 net.cpp:163] Top shape: 36 512 7 7 (903168)
I1221 18:17:34.865288 18896 layer_factory.hpp:76] Creating layer relu14
I1221 18:17:34.865309 18896 net.cpp:110] Creating Layer relu14
I1221 18:17:34.865335 18896 net.cpp:477] relu14 <- eltwise14
I1221 18:17:34.865350 18896 net.cpp:419] relu14 -> eltwise14 (in-place)
I1221 18:17:34.865427 18896 net.cpp:155] Setting up relu14
I1221 18:17:34.865444 18896 net.cpp:163] Top shape: 36 512 7 7 (903168)
I1221 18:17:34.865456 18896 layer_factory.hpp:76] Creating layer eltwise14_relu14_0_split
I1221 18:17:34.865473 18896 net.cpp:110] Creating Layer eltwise14_relu14_0_split
I1221 18:17:34.865486 18896 net.cpp:477] eltwise14_relu14_0_split <- eltwise14
I1221 18:17:34.865500 18896 net.cpp:433] eltwise14_relu14_0_split -> eltwise14_relu14_0_split_0
I1221 18:17:34.865514 18896 net.cpp:433] eltwise14_relu14_0_split -> eltwise14_relu14_0_split_1
I1221 18:17:34.865530 18896 net.cpp:155] Setting up eltwise14_relu14_0_split
I1221 18:17:34.865545 18896 net.cpp:163] Top shape: 36 512 7 7 (903168)
I1221 18:17:34.865557 18896 net.cpp:163] Top shape: 36 512 7 7 (903168)
I1221 18:17:34.865569 18896 layer_factory.hpp:76] Creating layer conv53
I1221 18:17:34.865589 18896 net.cpp:110] Creating Layer conv53
I1221 18:17:34.865602 18896 net.cpp:477] conv53 <- eltwise14_relu14_0_split_0
I1221 18:17:34.865618 18896 net.cpp:433] conv53 -> conv53
I1221 18:17:34.886994 18896 net.cpp:155] Setting up conv53
I1221 18:17:34.887044 18896 net.cpp:163] Top shape: 36 512 7 7 (903168)
I1221 18:17:34.887084 18896 layer_factory.hpp:76] Creating layer bn53
I1221 18:17:34.887101 18896 net.cpp:110] Creating Layer bn53
I1221 18:17:34.887112 18896 net.cpp:477] bn53 <- conv53
I1221 18:17:34.887127 18896 net.cpp:433] bn53 -> bn53
I1221 18:17:34.887243 18896 net.cpp:155] Setting up bn53
I1221 18:17:34.887259 18896 net.cpp:163] Top shape: 36 512 7 7 (903168)
I1221 18:17:34.887276 18896 layer_factory.hpp:76] Creating layer relu53
I1221 18:17:34.887293 18896 net.cpp:110] Creating Layer relu53
I1221 18:17:34.887305 18896 net.cpp:477] relu53 <- bn53
I1221 18:17:34.887316 18896 net.cpp:419] relu53 -> bn53 (in-place)
I1221 18:17:34.887394 18896 net.cpp:155] Setting up relu53
I1221 18:17:34.887409 18896 net.cpp:163] Top shape: 36 512 7 7 (903168)
I1221 18:17:34.887420 18896 layer_factory.hpp:76] Creating layer conv54
I1221 18:17:34.887436 18896 net.cpp:110] Creating Layer conv54
I1221 18:17:34.887447 18896 net.cpp:477] conv54 <- bn53
I1221 18:17:34.887462 18896 net.cpp:433] conv54 -> conv54
I1221 18:17:34.909102 18896 net.cpp:155] Setting up conv54
I1221 18:17:34.909160 18896 net.cpp:163] Top shape: 36 512 7 7 (903168)
I1221 18:17:34.909215 18896 layer_factory.hpp:76] Creating layer bn54
I1221 18:17:34.909237 18896 net.cpp:110] Creating Layer bn54
I1221 18:17:34.909251 18896 net.cpp:477] bn54 <- conv54
I1221 18:17:34.909307 18896 net.cpp:433] bn54 -> bn54
I1221 18:17:34.909435 18896 net.cpp:155] Setting up bn54
I1221 18:17:34.909453 18896 net.cpp:163] Top shape: 36 512 7 7 (903168)
I1221 18:17:34.909485 18896 layer_factory.hpp:76] Creating layer relu54
I1221 18:17:34.909502 18896 net.cpp:110] Creating Layer relu54
I1221 18:17:34.909519 18896 net.cpp:477] relu54 <- bn54
I1221 18:17:34.909540 18896 net.cpp:419] relu54 -> bn54 (in-place)
I1221 18:17:34.909739 18896 net.cpp:155] Setting up relu54
I1221 18:17:34.909761 18896 net.cpp:163] Top shape: 36 512 7 7 (903168)
I1221 18:17:34.909775 18896 layer_factory.hpp:76] Creating layer eltwise15
I1221 18:17:34.909790 18896 net.cpp:110] Creating Layer eltwise15
I1221 18:17:34.909802 18896 net.cpp:477] eltwise15 <- eltwise14_relu14_0_split_1
I1221 18:17:34.909816 18896 net.cpp:477] eltwise15 <- bn54
I1221 18:17:34.909829 18896 net.cpp:433] eltwise15 -> eltwise15
I1221 18:17:34.909848 18896 net.cpp:155] Setting up eltwise15
I1221 18:17:34.909863 18896 net.cpp:163] Top shape: 36 512 7 7 (903168)
I1221 18:17:34.909875 18896 layer_factory.hpp:76] Creating layer relu15
I1221 18:17:34.909888 18896 net.cpp:110] Creating Layer relu15
I1221 18:17:34.909899 18896 net.cpp:477] relu15 <- eltwise15
I1221 18:17:34.909915 18896 net.cpp:419] relu15 -> eltwise15 (in-place)
I1221 18:17:34.909991 18896 net.cpp:155] Setting up relu15
I1221 18:17:34.910008 18896 net.cpp:163] Top shape: 36 512 7 7 (903168)
I1221 18:17:34.910020 18896 layer_factory.hpp:76] Creating layer eltwise15_relu15_0_split
I1221 18:17:34.910035 18896 net.cpp:110] Creating Layer eltwise15_relu15_0_split
I1221 18:17:34.910048 18896 net.cpp:477] eltwise15_relu15_0_split <- eltwise15
I1221 18:17:34.910063 18896 net.cpp:433] eltwise15_relu15_0_split -> eltwise15_relu15_0_split_0
I1221 18:17:34.910079 18896 net.cpp:433] eltwise15_relu15_0_split -> eltwise15_relu15_0_split_1
I1221 18:17:34.910094 18896 net.cpp:155] Setting up eltwise15_relu15_0_split
I1221 18:17:34.910107 18896 net.cpp:163] Top shape: 36 512 7 7 (903168)
I1221 18:17:34.910120 18896 net.cpp:163] Top shape: 36 512 7 7 (903168)
I1221 18:17:34.910131 18896 layer_factory.hpp:76] Creating layer conv55
I1221 18:17:34.910151 18896 net.cpp:110] Creating Layer conv55
I1221 18:17:34.910162 18896 net.cpp:477] conv55 <- eltwise15_relu15_0_split_0
I1221 18:17:34.910176 18896 net.cpp:433] conv55 -> conv55
I1221 18:17:34.931812 18896 net.cpp:155] Setting up conv55
I1221 18:17:34.931855 18896 net.cpp:163] Top shape: 36 512 7 7 (903168)
I1221 18:17:34.931872 18896 layer_factory.hpp:76] Creating layer bn55
I1221 18:17:34.931924 18896 net.cpp:110] Creating Layer bn55
I1221 18:17:34.931949 18896 net.cpp:477] bn55 <- conv55
I1221 18:17:34.931965 18896 net.cpp:433] bn55 -> bn55
I1221 18:17:34.932091 18896 net.cpp:155] Setting up bn55
I1221 18:17:34.932117 18896 net.cpp:163] Top shape: 36 512 7 7 (903168)
I1221 18:17:34.932137 18896 layer_factory.hpp:76] Creating layer relu55
I1221 18:17:34.932154 18896 net.cpp:110] Creating Layer relu55
I1221 18:17:34.932167 18896 net.cpp:477] relu55 <- bn55
I1221 18:17:34.932180 18896 net.cpp:419] relu55 -> bn55 (in-place)
I1221 18:17:34.932265 18896 net.cpp:155] Setting up relu55
I1221 18:17:34.932282 18896 net.cpp:163] Top shape: 36 512 7 7 (903168)
I1221 18:17:34.932294 18896 layer_factory.hpp:76] Creating layer conv56
I1221 18:17:34.932313 18896 net.cpp:110] Creating Layer conv56
I1221 18:17:34.932325 18896 net.cpp:477] conv56 <- bn55
I1221 18:17:34.932340 18896 net.cpp:433] conv56 -> conv56
I1221 18:17:34.953801 18896 net.cpp:155] Setting up conv56
I1221 18:17:34.953845 18896 net.cpp:163] Top shape: 36 512 7 7 (903168)
I1221 18:17:34.953862 18896 layer_factory.hpp:76] Creating layer bn56
I1221 18:17:34.953884 18896 net.cpp:110] Creating Layer bn56
I1221 18:17:34.953897 18896 net.cpp:477] bn56 <- conv56
I1221 18:17:34.953943 18896 net.cpp:433] bn56 -> bn56
I1221 18:17:34.954071 18896 net.cpp:155] Setting up bn56
I1221 18:17:34.954097 18896 net.cpp:163] Top shape: 36 512 7 7 (903168)
I1221 18:17:34.954115 18896 layer_factory.hpp:76] Creating layer relu56
I1221 18:17:34.954162 18896 net.cpp:110] Creating Layer relu56
I1221 18:17:34.954175 18896 net.cpp:477] relu56 <- bn56
I1221 18:17:34.954191 18896 net.cpp:419] relu56 -> bn56 (in-place)
I1221 18:17:34.954392 18896 net.cpp:155] Setting up relu56
I1221 18:17:34.954414 18896 net.cpp:163] Top shape: 36 512 7 7 (903168)
I1221 18:17:34.954427 18896 layer_factory.hpp:76] Creating layer eltwise16
I1221 18:17:34.954445 18896 net.cpp:110] Creating Layer eltwise16
I1221 18:17:34.954458 18896 net.cpp:477] eltwise16 <- eltwise15_relu15_0_split_1
I1221 18:17:34.954473 18896 net.cpp:477] eltwise16 <- bn56
I1221 18:17:34.954486 18896 net.cpp:433] eltwise16 -> eltwise16
I1221 18:17:34.954505 18896 net.cpp:155] Setting up eltwise16
I1221 18:17:34.954520 18896 net.cpp:163] Top shape: 36 512 7 7 (903168)
I1221 18:17:34.954531 18896 layer_factory.hpp:76] Creating layer relu16
I1221 18:17:34.954545 18896 net.cpp:110] Creating Layer relu16
I1221 18:17:34.954557 18896 net.cpp:477] relu16 <- eltwise16
I1221 18:17:34.954571 18896 net.cpp:419] relu16 -> eltwise16 (in-place)
I1221 18:17:34.954645 18896 net.cpp:155] Setting up relu16
I1221 18:17:34.954663 18896 net.cpp:163] Top shape: 36 512 7 7 (903168)
I1221 18:17:34.954675 18896 layer_factory.hpp:76] Creating layer pool5
I1221 18:17:34.954691 18896 net.cpp:110] Creating Layer pool5
I1221 18:17:34.954704 18896 net.cpp:477] pool5 <- eltwise16
I1221 18:17:34.954718 18896 net.cpp:433] pool5 -> pool5
I1221 18:17:34.954802 18896 net.cpp:155] Setting up pool5
I1221 18:17:34.954821 18896 net.cpp:163] Top shape: 36 512 1 1 (18432)
I1221 18:17:34.954833 18896 layer_factory.hpp:76] Creating layer ip1
I1221 18:17:34.954849 18896 net.cpp:110] Creating Layer ip1
I1221 18:17:34.954860 18896 net.cpp:477] ip1 <- pool5
I1221 18:17:34.954877 18896 net.cpp:433] ip1 -> ip1
I1221 18:17:35.003509 18896 net.cpp:155] Setting up ip1
I1221 18:17:35.003571 18896 net.cpp:163] Top shape: 36 10575 (380700)
I1221 18:17:35.003624 18896 layer_factory.hpp:76] Creating layer accuracy
I1221 18:17:35.003648 18896 net.cpp:110] Creating Layer accuracy
I1221 18:17:35.003660 18896 net.cpp:477] accuracy <- ip1
I1221 18:17:35.003681 18896 net.cpp:477] accuracy <- label
I1221 18:17:35.003700 18896 net.cpp:433] accuracy -> accuracy
I1221 18:17:35.003726 18896 net.cpp:155] Setting up accuracy
I1221 18:17:35.003739 18896 net.cpp:163] Top shape: (1)
…
